policy/PPO/checkpoints/best/ppo_soarm_6000.pth (torch, 895437 bytes, 33 tensors)

actor.0.weight f4 [256, 12]
00000000: b614 943e e906 543e b062 8ebd 3162 023c
00000010: 4a9d 67be ecd8 8dbe 1fcc 733e b235 943d
00000020: 4e8f 0cbe 4548 63be 1acc 913e 9fa7 fd3d
00000030: 6087 5fbd 19a3 0e3d 88d2 6fbd da65 bbbd
00000040: 1022 5ebe 0cc0 a53d 77a0 9a3d e994 a13e
00000050: 42df f83d 711e 87bd cf5d f6bd 9101 56be
00000060: 0571 6a3d 3ceb 883d aaca 33be 5aaa 76be
00000070: 34b0 e0bc d79c afbb efd2 07be 2f11 fcbd
00000080: 423d 94be 5d2c 9e3e 6feb 983e c1b0 a0be
00000090: 829d 93be 1cf1 d4bd 351d aebd bb1b 3c3e
000000a0: 439e 14be 5d2a cf3d 996f 7dbd bc79 413e
000000b0: 2b34 4d3e 7be4 ee3d 2b11 df3c 2da7 8fbe
000000c0: 3d57 9d3d 3259 053e 626f 603e 2124 6ebe
000000d0: 220f 463d dab2 803e 0f2e 22be 0807 833e
000000e0: cc8c b1bd 45d1 93be 43b2 9cbe c324 613e
000000f0: eabc 1fbe f81c 423e 559e 573c 13fc 6bbd
00000100: 64a7 ae3c 9f86 c0bb 9e7e 5c3d 3c5e 33be
00000110: 4e41 98be c7db 84be 427f b63c 5b50 9e3d
00000120: 06b1 133e 59f2 ae3d d425 fdbd c403 3d3e
00000130: e547 5f3d ce48 86bd 9b2c 80be 946b 55be
00000140: 97f7 ae3d ab34 d73c ab3b 38bd 3481 293e
00000150: e495 7f3d edbf ef3c c6b8 9cbd 4a5d 28be
00000160: f17e 50be 8ae9 8c3d 4f60 cabb 5b07 89be
00000170: c6f2 463d 739b f73d f0ea 29be b3a3 7abe
00000180: 40cd 8dbd a39e bf3d 0f43 0d3e 07c0 443e
00000190: e8e3 71be fa83 57bd 8b50 8cbe 2b0d 4cbe
000001a0: f516 593d c1f8 8abd 794d 4cbe 2695 85be
000001b0: 08aa d23d 0910 0ebe 2665 8dbe a699 78be
000001c0: e396 ad3e 5a69 db3d 8a75 763e fdf5 413d
000001d0: ec21 42be 3c24 91bd 58d3 3e3e bec6 38be
000001e0: 33cd 9e3d 28f8 1fbe 6f97 943d d23c 13be
000001f0: 26a2 7d3e 5d5a 5d3e 6fe2 42be 5152 90bd
00000200: 4dba 463e b324 413e b35d 873e 8173 82be
00000210: eec0 0ebe c7c1 aa3d 45d6 deba c48b a7be
00000220: 3f92 473e 6ed5 42bd e0bb ed3d 77ec 93bd
00000230: 8032 a2be a182 5fbd 901a 46be 25f1 5d3e
00000240: de51 44be e154 893d 8c95 ddbd e35c 28be
00000250: d5bf 1fbe dc51 263e 3c1b 26be 7213 d43d
00000260: f3db c8be 70a1 7abd c0bd 913e ebb8 1a3e
00000270: 3ca2 ec3c f47e 60bd 2402 173e 713f a63e
00000280: 7836 0fbe 1c70 663e a7a3 98be b530 4ebd
00000290: 2fca 2a3e 45c5 9b3e 73be c73d e2cb 1abe
000002a0: 39cd 88bd 6b05 d33c ef8b 4abe e609 cb3d
000002b0: 0f43 5ebe bdcc 94be 2133 fd3d d50a f9bd
000002c0: e154 dc3d eed6 aebc 116d 8b3d 87e4 aebc
000002d0: c3e6 c9bc 3d20 07be 61bd 6cbe c22d 9bbd
000002e0: 4f5a 3abe 534a f6bd b0af 1fbe c6b5 7bbe
000002f0: 233d 39be d1ee b33d 94ad 283d 9fa1 34be
00000300: 3c9a 373d 513a 3e3e 1359 6bbe dc33 cebd
00000310: 3705 b73d 9257 6abe 60ce f4bc 7215 253c
00000320: f121 0d3e 7e66 a6bd 68e5 b6bd 5a3a c43b
00000330: 2361 743e 8675 913c 5aa0 69be e90d 54be
00000340: a722 2e3d 0619 16be df30 c1bd 8759 463e
00000350: 1920 a2be de36 803e 5152 5bbe e8b4 4bbd
00000360: 4f27 73be a19e b9bd 99ef 1cbe bf1a a4be
00000370: 907e 683c 8bd4 013e 424e a33d e4d9 22be
00000380: 7364 643e 2117 3d3d a41b 093e f4b5 65be
00000390: 6926 38bd 554b 24be 0076 a9be 1d71 78be
000003a0: 41c9 22be 2212 053d 4574 c43d 9c3b 463e
000003b0: c570 a6bd e167 2e3d 0751 d4bd 7b49 aa3e
000003c0: d16b b53b 3fa2 50bd 0328 a5bd f526 1dbe
000003d0: fed8 e03d 5378 81be 4ef8 cebd 4b11 cbbd
000003e0: 36f8 1c3e bd34 cf3d 3eed 4bbd 541b 86be
000003f0: 753c ee3d 8715 e93d c13b 02be d827 7c3e
0.2892205 0.20705761 -0.06952417 0.007957981 -0.22618595 -0.2770456 0.23808335 0.07236804
-0.13726541 -0.22195537 0.2847603 0.12385487 -0.054572463 0.03482351 -0.058550388 -0.09150286
-0.21692681 0.08093271 0.075501375 0.31558922 0.12151958 -0.06597603 -0.12029611 -0.20899035
0.05723669 0.066854924 -0.17557779 -0.24088421 -0.02742777 -0.005359273 -0.13264059 -0.12307965
-0.28952986 0.30893221 0.29867122 -0.31384853 -0.28831106 -0.103975505 -0.085016645 0.18369953
-0.14513497 0.10115502 -0.061874006 0.18894094 0.20039432 0.11664673 0.027229866 -0.28057232
0.07682655 0.13022307 0.21917489 -0.2325597 0.048354276 0.25136453 -0.15837882 0.25591302
-0.08669433 -0.28870597 -0.30604753 0.2198668 -0.15599409 0.18956363 0.013160308 -0.057613444
0.021320052 -0.005875423 0.05383169 -0.17516416 -0.29737324 -0.25948927 0.022277478 0.0773017
0.14422998 0.08542318 -0.12360731 0.18458468 0.054511923 -0.06556855 -0.2503403 -0.20841819
0.08543318 0.026270231 -0.04497878 0.16553193 0.062398806 0.029266322 -0.0765243 -0.16441837
-0.20360924 0.068804815 -0.0061760317 -0.26763424 0.04857137 0.120901965 -0.16593528 -0.24476509
-0.06923914 0.093564294 0.13795112 0.19213878 -0.23622096 -0.052616097 -0.274052 -0.19926898
0.05300041 -0.06785727 -0.19951428 -0.26090354 0.10286337 -0.13873304 -0.27616233 -0.24277362
0.3390418 0.107134536 0.24068275 0.047353733 -0.18958253 -0.07086989 0.18635309 -0.18044564
0.077539824 -0.15622008 0.07255446 -0.1437867 0.24768886 0.21616502 -0.1903169 -0.070469506
0.19407006 0.18861656 0.26438674 -0.25478747 -0.13940784 0.08337741 -0.0017001113 -0.3272382
0.19489382 -0.047566824 0.116081 -0.072228365 -0.31679153 -0.054567937 -0.1934607 0.2167402
-0.19171855 0.067056425 -0.108195394 -0.16441683 -0.15600522 0.16242164 -0.16221327 0.103552714
-0.39230308 -0.061189115 0.2846508 0.15109603 0.028885953 -0.054808572 0.1474691 0.32470277
-0.13985622 0.22503704 -0.29812357 -0.05033942 0.1667869 0.30423942 0.09753122 -0.15116838
-0.06679768 0.02575942 -0.19779943 0.09913997 -0.21705268 -0.29062453 0.12363268 -0.12160269
0.10758377 -0.02134272 0.06807912 -0.021349205 -0.024646169 -0.13195892 -0.23119117 -0.07577087
-0.18198512 -0.12025895 -0.15594363 -0.2458106 -0.18089728 0.08785785 0.041181162 -0.17639779
0.044824824 0.18576933 -0.22983198 -0.10068485 0.089365415 -0.22884968 -0.029883564 0.010075914
0.13782479 -0.081250176 -0.089304745 0.0059884014 0.2386518 0.017756235 -0.22815076 -0.20708431
0.042513516 -0.14657983 -0.094331495 0.1937009 -0.31665114 0.2504186 -0.2141812 -0.049733073
-0.23745464 -0.09063459 -0.15325774 -0.32051656 0.014190331 0.12678735 0.07973911 -0.15903431
0.22303943 0.046164636 0.1338945 -0.22432691 -0.044958506 -0.16044362 -0.3309784 -0.242619
-0.15897085 0.032487996 0.09592489 0.19358677 -0.08126978 0.042579535 -0.10367017 0.33259186
0.0055365344 -0.05093598 -0.08064272 -0.15346892 0.10978888 -0.25287113 -0.10105954 -0.09915408
0.1532906 0.10117481 -0.0497868 -0.26192725 0.11632625 0.11381059 -0.12718107 0.24624574

actor.0.bias f4 [256]
00000000: 6b13 013e 40a9 1b3d 2c10 d83c c659 073d
00000010: 6629 30bc 159b a13d f965 873b 570b 8bbd
00000020: b434 813e 0d4b 80be 40f5 423e 277c ebbc
00000030: 0c02 193c 9b6e 1ebe 6926 9c3c 1ad9 b83d
00000040: 0483 ebbc 76fe e93d ee93 32bd a9df 2cbe
00000050: 8856 0b3e 86a4 68be 179b 863e d160 18bd
00000060: 10bd 11be d6d4 083e 2e28 93be abeb e2bd
00000070: 9638 acbe 3cbb 8f3c 1619 74be a949 343e
00000080: 5012 0fbe 8568 553d b04d a8be fdca 873e
00000090: deff 873e 1e98 f93c 9fd2 60be ce07 12be
000000a0: f3c1 0fbe 2b54 f53c 87e6 563d c25b 85be
000000b0: 3a20 113d edf4 90bd 4b95 3c3e ce43 9d3d
000000c0: f416 8fbd 14b4 11bd d6c8 b0bd 1d49 003d
000000d0: 714e 6c3c 7ca2 4e3e f140 373e 3b37 7d3e
000000e0: a22b 97bc 7899 85be ec5a e5bd a375 773e
000000f0: df7c 863d e24c 66be 68af aa3e 96ba 38be
00000100: 12b6 ddbd 64f3 31bc 3b0f 833d 55f4 51be
00000110: 04ed 0fbe 034e 613d 1999 503e 0953 5a3e
00000120: ce36 b9b9 2f5e 33bd ae6b 2d3e 4b5e 16be
00000130: 8347 883e 7889 633d 1f50 113e bca7 afbd
00000140: e449 403c 8a74 26be 3c2b e13d 48d2 99bd
00000150: c466 583e 97b9 bfbd 64df 74be 9414 02be
00000160: 4b6c 63be f092 1bbd 41d4 d03d 7bcd a33c
00000170: 6f52 7b3e 7302 9fbb d819 6c3e 5155 21be
00000180: 6638 c83d a8eb 80be eeeb 9dbe 7089 82be
00000190: fc7a 213e 7d53 1cbe d0d1 083d 1236 12be
000001a0: 0ecc 1abe ea23 3cbc 823f 8a3e e243 1a3e
000001b0: 618b 963d d8d8 1abd 94a7 b23d 0a11 073e
000001c0: 0c03 223d b3fb 57be 69de 82be 5288 b33d
000001d0: 2452 3d3d 780b 6e3d bd84 4cbe 0824 96bd
000001e0: da5d a23d 2fb4 753e d335 56be 0e08 63be
000001f0: 8be3 84be 7550 313d dcb8 a3bd 8b58 1a3e
00000200: 130b 49be 1e28 d13c 3049 8e3e 0f0e dfbc
00000210: 5a85 303d 037e 883e 3d18 193d 50e5 453d
00000220: 6c51 c43d 445c 153e 8e6b 27be 3e0a 3ebd
00000230: 2b7e 1ebe 98c1 8c3e fafc 4bbe edfd bdbd
00000240: 1507 353e acfd f73c 8cc7 2f3d 5b59 a2be
00000250: 1929 093e 296e 873d 0192 813e fcb9 c23d
00000260: 1bd3 7dbd f581 35be 719a b0bd f358 3ebe
00000270: 060a 29be 989b bd3d 7a63 493d 47a7 17bc
00000280: d123 32be 0786 5b3e 5f2c c93d 23c7 de3c
00000290: 6a58 243e 2557 9cbd 089d 243c fba0 4dbe
000002a0: 6733 adbd dc8d 8c3d f2c8 cfbd 64ba 0d3e
000002b0: 62cf e73d d57f 1abe 2b31 d7bd d87e d73d
000002c0: 7133 35bd dd3b a5be c24d 933e dd72 28be
000002d0: 0417 43be 7b60 b7bd 8487 5e3e a030 9ebc
000002e0: d76f d03d 26f9 8d3d d0b2 21be b789 d9bd
000002f0: 8a80 6137 c6fa 44be 3c68 b33d c6be 5fbe
00000300: c097 7cbe eb76 b93d b071 0f3e 1436 acbd
00000310: 3b9e 3cbe 1336 e53d 1355 953d 1997 5abe
00000320: 4673 04be 6c41 0e3e 7070 86be f47f f43c
00000330: 6deb 913d 438f 8bbe fa3b 823e 2216 99bd
00000340: 6df1 593e 4236 79bd 5e8d 5a3d 1cc9 6a3e
00000350: ea27 203e 8139 45be 523b 5bbd 16bc 46be
00000360: b30c 41be d14b 03be 4730 0b3e f47d 0cbe
00000370: 8acb 87be b4fb 9f3e 79d0 40be 73f4 fc3b
00000380: 50c3 5ebe bcc5 1a3d e621 d6bd 9f68 47bd
00000390: 660c 913c bffc d43d fba2 36be ff12 073e
000003a0: c1f1 e0bb 47da 58be c35b 663e c561 483e
000003b0: e2b6 86be 7bf9 563e e850 17be c118 49be
000003c0: ece5 42be b93e 343e d2ba 86be a8ae 453d
000003d0: 3d02 febb 87b2 253e 1fcf 143e c644 49be
000003e0: 8088 823e 9184 1fbe d7ce de3b a153 9a3c
000003f0: 6bb7 213e a208 873e 6b3f 2d3d 7a47 dcbc
0.12605064 0.038003206 0.026374899 0.0330446 -0.010752058 0.07890908 0.004132029 -0.06789272
0.25235522 -0.2505726 0.19038868 -0.028745724 0.009338867 -0.1547188 0.019061284 0.09025784
-0.028748997 0.11425488 -0.043598108 -0.16882195 0.13607228 -0.2271901 0.262902 -0.037201706
-0.14232278 0.1336244 -0.28741592 -0.11080106 -0.33636922 0.017545335 -0.23837695 0.17606224
-0.1397183 0.05210163 -0.3287177 0.26522055 0.265624 0.030468043 -0.21955346 -0.1426079
-0.1403883 0.029947361 0.05246594 -0.26046568 0.035431124 -0.07077966 0.18416326 0.07678948
-0.069868 -0.035572127 -0.086320564 0.031319726 0.014422999 0.2017917 0.17895867 0.247281
-0.018453423 -0.2609365 -0.111989826 0.24165969 0.06566786 -0.22490266 0.3333695 -0.18039927
-0.10825743 -0.0108612515 0.06399389 -0.20503362 -0.14055258 0.05500604 0.20370902 0.21320738
-0.00035326782 -0.043790992 0.16935608 -0.14684407 0.2661706 0.055551022 0.1419072 -0.08576915
0.011736367 -0.16255394 0.109945744 -0.07510811 0.21132952 -0.0936157 -0.23913342 -0.12703162
-0.22209279 -0.037981927 0.10196734 0.019995442 0.24543165 -0.004852587 0.23056734 -0.15755202
0.09776382 -0.2517979 -0.30844063 -0.25495481 0.15769571 -0.15266223 0.033403218 -0.14278439
-0.15116903 -0.011483172 0.27001578 0.15064958 0.07350803 -0.037804455 0.08723369 0.13190094
0.039553687 -0.2109211 -0.2556031 0.087662354 0.046220914 0.058116406 -0.1997251 -0.07331091
0.07928057 0.23994516 -0.2091897 -0.22171041 -0.25954852 0.04328962 -0.079942435 0.15072839
-0.1963313 0.025531825 0.27790213 -0.027228383 0.043095924 0.2665864 0.03737663 0.048314393
0.095858425 0.14585978 -0.16349623 -0.046396486 -0.15477817 0.2749145 -0.19920722 -0.09276948
0.17678483 0.030272327 0.042914912 -0.31708798 0.13394584 0.06612808 0.25306705 0.0950813
-0.061968904 -0.17725356 -0.08623207 -0.18588619 -0.1650773 0.09258193 0.049167134 -0.009256191
-0.17396475 0.21437846 0.09822916 0.027194565 0.16049352 -0.07633809 0.010047205 -0.2008094
-0.0845707 0.06862995 -0.10145749 0.13840634 0.11318852 -0.15087827 -0.10507425 0.105222404
-0.04423851 -0.32272235 0.28770262 -0.16450067 -0.19051749 -0.08953949 0.21731383 -0.019310296
0.10177582 0.06932287 -0.15790868 -0.1062197 1.3440973e-05 -0.19236287 0.087601155 -0.21850118
-0.24667263 0.09055885 0.14008212 -0.08408752 -0.18419735 0.111919545 0.07291617 -0.21346702
-0.12934598 0.13892144 -0.26257658 0.029846169 0.07124982 -0.27257738 0.25436383 -0.074749246
0.21283503 -0.06084276 0.053357475 0.2292828 0.15640226 -0.19260217 -0.05352337 -0.19407687
-0.188525 -0.1282189 0.13592635 -0.13719922 -0.26522475 0.31246722 -0.18829526 0.0077195703
-0.21754193 0.03778623 -0.10455684 -0.04868376 0.017706107 0.1039977 -0.1783561 0.1319084
-0.006864757 -0.21177016 0.22495942 0.19568546 -0.26311404 0.20993607 -0.14776957 -0.19638349
-0.1903302 0.17602052 -0.26314408 0.04826227 -0.0077517317 0.16181384 0.14532135 -0.19655141
0.25494766 -0.15577914 0.0067995596 0.018838705 0.15792625 0.26373774 0.04229681 -0.026889551

actor.2.weight f4 [128, 256]
00000000: b525 683d a507 b8bd 715b 5abd 9c80 2abd
00000010: 28ca d43d 3fc4 483d c047 8a3d 102b 873b
00000020: 0843 21bb 7c7c 5f3d e2cb c03a 346d 973d
00000030: 256b 193d 07ac 8bbb fbb0 e7bc 1ed3 71bd
00000040: a0cc 08bd 1255 1dbd 08ed 00bd bdfe 97bd
00000050: 089f 61bd a397 903c e0a0 a9bb 5bd5 75bc
00000060: 29ed 993d 4137 923d 5f3d 3abd 7c65 78bd
00000070: f4b8 743b 2386 b73c 96cf 92bd 2c8e 7ebd
00000080: 6e6a 57bd 140a a73c 5a2b 05bc f0aa a23b
00000090: fd72 04bd 5646 3f3d 526d 023d 878c 793d
000000a0: 6e5a 1abd 295a 593c 11d9 133d 73b2 1dba
000000b0: 6cfb 18bd 6608 593a c38c 9b3d ab97 e33c
000000c0: d59c 8bbd 3159 94bd fd93 453d 407c 88bd
000000d0: 6fdb a7bc 74e0 c33c 5c5c fe3c 121c 843d
000000e0: 3674 40bc d4f8 6bbc 9ca1 b0bd 9a10 d9bd
000000f0: 187f 483d 9ec5 2abd 6d16 623b 82da dd3d
00000100: f9e9 353c 3af5 51bd e42a 4c3d f2be 1f3d
00000110: f42d 5c3d 6173 54bd 1c88 f8bd 6a4e 903c
00000120: 1017 41bc d2df e4bd 608b a7bd 7577 7bbd
00000130: 3ac7 51bd 3bf6 d2bc 23b3 df3c c739 533d
00000140: b5eb 6dbd 06ec c3bb 4d05 d63c 2efe 693c
00000150: 1c33 3cbc ce6e cc3c ecd2 08bc 1bb5 f13d
00000160: 55fb 89bd f40a 59bb faf6 ecbd 510f 753c
00000170: 6e3e 7c3d 39e5 6cbc 76b1 a1ba 9708 8ebd
00000180: ffb4 ba3d 6a4a 793d de6c 39bd c822 3ebd
00000190: de26 a83d af0f 5b3c 52e3 19bd 8462 22bb
000001a0: e3b0 05bd a589 463d a505 1ebd 6583 1dbc
000001b0: 17fd bebd 4f50 923c d02c 0dbc adf4 fc3c
000001c0: 8434 b03c a013 9abc 1639 9f3d 240a 00be
000001d0: bef2 0ebd af93 a93c 78b9 c73c 693f d8bc
000001e0: a97e 2a3d 426a 493d f6ba e93c 35ca d43b
000001f0: 9c71 90bd 8f87 643d a6b0 18be b5c0 8abd
00000200: f203 2a3d df25 86bd 0a90 573c 8f37 d2bd
00000210: 4872 24bd e92d 72bd 9808 07bd 40d6 bebc
00000220: 140f 813d a24b b9bb 10cc 24bd e4b6 59bb
00000230: fd0a 93bc c526 773b 3737 d53c 25ab 903c
00000240: 1f4b 883c 1986 9f3c 4833 60bb 8ce3 9c3c
00000250: 1d5b 1e3d a818 3e3d 5912 8e3c 2ac2 8a39
00000260: 6fb7 b63b 8eb3 963d 7f31 f83c e69c b13c
00000270: a66a 27bd ea96 97bd b971 d7bb 0032 1c3a
00000280: fbe7 9d3d 7151 e5bc 9824 183c 3884 963b
00000290: db75 093d 904a 4e3d d02e 2bbd 1153 dc3c
000002a0: 9206 403c 1e16 1a3d a25d 39bd c68e 043d
000002b0: 0281 403c 330e 16bd d062 853c a9e7 eebc
000002c0: f9c4 57be e864 1bbd 1d4e a6bc 2af6 3abb
000002d0: 6c8e 00bb 5190 873c 015a 8cbd f6b7 203d
000002e0: 6be7 2e3d efcb 18ba dcf6 71bb f7ed b9bc
000002f0: 672c d93d 404f bf3d c73d 9fbd 3479 553d
00000300: d4d0 0bbc 1430 27bd 7b16 cdbd 3452 84bd
00000310: e7c4 c1b9 bb03 95bd e901 4a3d 1dff f3bc
00000320: 4131 01bd c2c7 f8bb 3713 083d d1ac 183d
00000330: 2253 743d 478a 34bd 68de 46bb eb57 1dbd
00000340: a9e7 0b3b 227b 983b a127 04bd fe95 0bbd
00000350: 7d1e e9bb fd6a e83b f410 073d 1e4a 68bc
00000360: 368f f23b ed99 c4bd 0416 83bd cc71 243d
00000370: 6066 9bbd ef79 543d ac2e 1b3d b308 44bd
00000380: b468 a4bb 2331 b33d 5aa8 023d e353 4dbd
00000390: 904c 123d 1ce6 b737 d725 873d 47d7 f63a
000003a0: b614 e9bc 9996 a0ba 6938 693d ff51 0dbd
000003b0: 19e4 9bbd efcb 463d 461d 0dbd 4605 953b
000003c0: 12a4 e23c 0e3f 253b 9b6b bbbc 45c6 9d3c
000003d0: 3089 243d d4a9 1abd 2bcf bd3c 980a c4bd
000003e0: 16ac 3cbd 46cc c63c 453b c53c 3ae6 113d
000003f0: 77cc 39bd e805 383b 4e8f dcbc 93a5 8a3d
0.056676585 -0.08985833 -0.05330986 -0.041626558 0.10390121 0.04901528 0.067519665 0.0041250065
-0.0024606604 0.054562077 0.0014709199 0.07393876 0.037455697 -0.0042624506 -0.028282633 -0.059039228
-0.03339827 -0.038411207 -0.03147605 -0.07421634 -0.055083305 0.017650431 -0.0051766485 -0.015004481
0.07515938 0.07139445 -0.045468684 -0.060643658 0.0037341686 0.022402829 -0.071685 -0.062147304
-0.052591734 0.020390548 -0.008128012 0.004964225 -0.032336224 0.046697937 0.031842537 0.060925033
-0.037683897 0.013266125 0.036095683 -0.0006015666 -0.03734915 0.00082791445 0.075952075 0.027782282
-0.06817023 -0.072435744 0.048236836 -0.06664324 -0.020490376 0.023910739 0.0310499 0.064506665
-0.011746457 -0.014402587 -0.086245745 -0.105988696 0.04894933 -0.04169237 0.003449823 0.10832693
0.011103147 -0.051259257 0.04984559 0.03900046 0.05375476 -0.051867846 -0.12135336 0.017615516
-0.011785284 -0.11175503 -0.081808805 -0.06139322 -0.051215388 -0.025752177 0.027307099 0.051568773
-0.058086116 -0.005979064 0.026125574 0.014281793 -0.011486795 0.02495518 -0.008351069 0.11802121
-0.06737391 -0.00331181 -0.115705445 0.014957265 0.061582975 -0.014458948 -0.0012336213 -0.06935232
0.091165535 0.060861982 -0.04526984 -0.04641989 0.08210538 0.0133704385 -0.037570305 -0.0024777958
-0.032639395 0.04847111 -0.0385796 -0.009613846 -0.09325617 0.01786056 -0.008616641 0.03087839
0.021509416 -0.018808186 0.0777456 -0.12503868 -0.034899466 0.020700304 0.02438043 -0.026397424
0.0416247 0.0491736 0.028531533 0.0064938315 -0.07052919 0.05579334 -0.14911136 -0.06775037
0.04150767 -0.06550192 0.0131569 -0.10264503 -0.04014805 -0.059125815 -0.03296718 -0.023295522
0.06301704 -0.005654768 -0.04023367 -0.0033220584 -0.017949576 0.0037712317 0.026027305 0.017659733
0.016637383 0.019473122 -0.0034210254 0.019151472 0.03866111 0.046410233 0.017342733 0.00026466075
0.005576066 0.07358466 0.03029704 0.02168126 -0.040873192 -0.074018314 -0.006574836 0.00059583783
0.077102624 -0.027992936 0.009286068 0.0045933984 0.03355966 0.050364077 -0.04179269 0.026895078
0.0117203165 0.03761875 -0.04525531 0.03236272 0.011749508 -0.036634635 0.016282469 -0.029163199
-0.21071233 -0.03793803 -0.02030092 -0.0028528073 -0.001961614 0.016548308 -0.068531044 0.03923794
0.042701166 -0.00058287283 -0.0036920821 -0.022696478 0.10604172 0.093412876 -0.07775455 0.05211754
-0.008533675 -0.040817335 -0.100140534 -0.064609915 -0.00036958532 -0.07276102 0.049318228 -0.029784733
-0.031541113 -0.0075921724 0.03322145 0.037274186 0.059649594 -0.044077184 -0.0030344967 -0.038413923
0.0021347797 0.0046533505 -0.032264356 -0.03407859 -0.00711423 0.007092832 0.032975152 -0.014177827
0.007402326 -0.095996715 -0.064006835 0.040147588 -0.07587886 0.051874097 0.037886307 -0.04785986
-0.0050173644 0.087496065 0.031898834 -0.05012883 0.035717547 2.1922453e-05 0.06599014 0.0018832468
-0.028452259 -0.0012251913 0.056938563 -0.034502026 -0.076118656 0.04853433 -0.034451745 0.004547748
0.027666125 0.0025214585 -0.022878459 0.019259581 0.040169895 -0.037759617 0.023170074 -0.09572333
-0.04606255 0.024267327 0.024076113 0.03561995 -0.04536101 0.0028079692 -0.026923802 0.06769862

actor.2.bias f4 [128]
00000000: 29d1 973d 707c 82bd d08c 8bbb 79ae 093d
00000010: b91d bfbc ab2c a83c 827d 2dbd 396a 22bd
00000020: 5877 943d 4b7f d73c a1b1 8c3d 6d21 3dbd
00000030: f773 96bc 15b2 1d3d c0e7 eb3b db95 883d
00000040: 14df 72bb 4147 4abd 9bf6 dfbc d250 073d
00000050: e364 42bd 6937 543d c1aa 9c3d 0319 ab3c
00000060: 967a dab7 50d5 7dbc d26a c63b c49d 013d
00000070: 0610 543d f0c2 9dbd bcaf 313d bb0c 58bc
00000080: ec67 d2bc 754b 3e3d 4d21 38bd b06a 95bc
00000090: a6c0 ee3c c35e f4bb 6c80 693d 953a f1bc
000000a0: 8756 4ebd 100d 833c 3e53 c8bc b06b e93a
000000b0: 1f42 113d de7e b13c 2f98 1ebd 5e38 94bd
000000c0: 404c 5f3c 52b3 593d e231 b2bb 05da 283d
000000d0: d8d1 003d c1e8 d2bc 54a8 0e3d 6250 8cbc
000000e0: 9d48 7fbd 6c90 513c 8772 063d 5060 113d
000000f0: 9894 583d 71fc 0a3d 86a5 07bd 4a45 fbbc
00000100: ad25 1c3c 0ae5 063d 7013 ae39 2840 a63d
00000110: cbbd a23c c21b 12bd 310a 44bd 6ca0 cc3c
00000120: f551 823d 7689 bbbd abeb 3f3d 43b7 1b3d
00000130: 5224 77bd 527a 023d c4ab 693c 1134 163d
00000140: e55a 093d aa3d 23bb fecf 25bd 76a4 2e3d
00000150: 60ed 6d3d a31d 893c b2ce 5a3d 229e b9bc
00000160: 4bda d8bc bd63 5fbd 36de 703b 92df 8dbc
00000170: 022b e5bc 4aac eebc 1ae1 a03c 41a7 7e3c
00000180: e6ef 553d f5e3 963b f519 a7bc 97f4 1dbd
00000190: 8f9a e33c b0ea 4b3d 1faf 35bd 6988 a6bc
000001a0: e8b5 1dbd 45b1 2f3d 60c3 103d 787a 38bc
000001b0: f2a2 e23b 8372 3dbd 49ca 2d3c 9c7d 9abb
000001c0: bd5a 7abd 95cc 4c3d 3e2e b7bc a9d2 c7bb
000001d0: 8004 663d 291b 01bd 0beb 513d 20fb bbbc
000001e0: 8ee2 283d ddd3 6c3d acbf 87b8 752c 32bd
000001f0: adb9 46bd 0810 643c d75f 27bc c535 1f3b
0.07412941 -0.06371391 -0.0042587295 0.033613656 -0.023329603 0.020529112 -0.04235602 -0.039652083
0.072493255 0.026305815 0.068698175 -0.046174455 -0.018365843 0.03849991 0.0071992576 0.06669208
-0.0037059234 -0.04938436 -0.02733927 0.03303606 -0.047459494 0.051810656 0.07649756 0.02088595
-2.6044709e-05 -0.015492752 0.0060552144 0.031644598 0.051773094 -0.07703197 0.043380484 -0.013186629
-0.02568432 0.04645868 -0.044953633 -0.01823935 0.029144596 -0.0074575855 0.05700724 -0.02944688
-0.050375488 0.01599744 -0.024453755 0.0017808583 0.03546345 0.02166694 -0.038719352 -0.07237314
0.013629019 0.05314953 -0.0054380754 0.041223545 0.031450123 -0.025745751 0.0348285 -0.017128173
-0.06232511 0.0127907805 0.032824066 0.03549224 0.052876085 0.033932153 -0.03311684 -0.030672688
0.009530467 0.032933272 0.00033202348 0.081177056 0.019865891 -0.035671003 -0.04786128 0.024978839
0.06363288 -0.09157078 0.04685561 0.03801657 -0.060337372 0.031854935 0.0142621435 0.03667075
0.03353395 -0.002490858 -0.04048156 0.04263731 0.058087707 0.016737765 0.053419776 -0.022658411
-0.026471278 -0.054538477 0.0036753542 -0.01731852 -0.02797461 -0.029134888 0.019638587 0.015542806
0.052230738 0.0046048113 -0.02039812 -0.038563337 0.02778366 0.049784362 -0.04435646 -0.020328717
-0.038503557 0.042893667 0.035342574 -0.011259668 0.0069163973 -0.046251785 0.010607311 -0.004714681
-0.06112169 0.049999792 -0.022360917 -0.0060981107 0.056156635 -0.031520043 0.051249545 -0.022946894
0.041231684 0.057819236 -6.473003e-05 -0.04349943 -0.048516918 0.013919838 -0.010215721 0.0024293524

actor.4.weight f4 [6, 128]
00000000: d9fe cdbc d037 df3c 21b4 a43d 5690 173d
00000010: ad62 5fbd 2d52 42bd 0796 423c 2815 2b3d
00000020: 8bf7 9abc ffde 843c 1cbc 8e3d 48b0 24bc
00000030: aef3 b0bd 5540 c53b a90a e23c fe47 c63d
00000040: 6c29 293c a64e 993c 4d02 503d 2c86 d93b
00000050: 70b3 0d3b b1c3 2fbd 9442 583d 51d6 9cbc
00000060: 6be8 6ebd 24fd e5bc 3a55 2e3d 7a06 7b3c
00000070: 1a86 dabb 96b6 493d c7b0 373d 1abc 38bc
00000080: 2a7a 623d 2f37 9dbd 8fe8 753d fb3b 1a3c
00000090: 526e 993c 5d8e b53b 6a09 343c 4fa3 fdbb
000000a0: 81a1 943d d35b 02bc 79a8 7e3d ccec 783d
000000b0: fb9c 3b3d 5379 8c3d 6424 05bd e780 6ebc
000000c0: e801 5c3d 3b60 2cbd 4e21 1d3d a13d 2bbd
000000d0: 940d e5bc f500 a73b 142b 03bd 5b0a b33c
000000e0: da60 283c f68b 693d e834 3a3c 3e53 f03b
000000f0: f128 943c 9958 eabd f9fe 8fbc 03c4 ea3c
00000100: 0a91 58bd e131 7d3c f6dd 07bd 145f 70bd
00000110: c787 6fbd fdbd a23c 1197 34bb 6d58 f0bd
00000120: f8ed 993c b2fd 12bd c9e7 1cbc df56 843d
00000130: 643f 3f3d 9bc6 67bc 8cde ab3c b81f d4bd
00000140: daaf b0bd a3a4 793c 507f 203b 67d1 0a3d
00000150: a7c4 36bd bfe8 e63c 7792 313c 1197 90bc
00000160: e6a0 7f3d 6c1d 5e3c 8a34 5dbd 8789 323d
00000170: 388b 7a3d 89f7 1cbc e244 883d 391e bf3c
00000180: e91e ce3d 51cc 36bb afef a23d 9f9e 323d
00000190: 76c4 da3b c044 8f3d 016c 93bb 6884 813c
000001a0: 709c 213a a302 b03c 2e57 f5bb 29df c2ba
000001b0: 63fa a9bd 2e79 0bbd e5e2 093d 3f0b 42bd
000001c0: be9d 16bd a2c7 2bbd 257a cd3c 1fa4 c63b
000001d0: 36ea 6b3d ac2a 7b3d dabc 2e3d 86f1 c83a
000001e0: abbf 303b 94c7 24bd 964c 78bd ad62 29bd
000001f0: 9792 6bbd 631f 11bd 8b3f d53c c43e d23b
00000200: 602b f1bc cf09 5fbd 6665 1fbd b6ff 36bd
00000210: 13ca 22bc 7e76 94bc 5c5e 47bb a054 a73d
00000220: 556e 2c3d 8c05 753b c2f4 c5bc fd8f 49bd
00000230: 7f0e 66bd e760 38bc 3567 a63d bdfe 52bd
00000240: f678 7abd 7734 403d 3bd0 863b 8430 14bd
00000250: 4eaf 86bc df38 9ebd db6e 053d a1ba 9fbb
00000260: d130 d43b 5bbd 61bd 9563 bb3d f9e9 833d
00000270: 0edf 813d 1175 3cbd 90d3 72bd d0f0 993c
00000280: f876 55bc b7f2 333c efe7 7f3d fcc8 0dbd
00000290: e9fe 033d f0d9 063d cd04 c03c d678 28bd
000002a0: 9ec9 48bd 5f47 4dbd 3a5b 5ebb 40c7 3b3c
000002b0: 805c 99bd 2c04 4a3d d6fc f33b 268d 1ebd
000002c0: 0a35 acbc d1c7 0a3c cd4a c9bc 1a00 c0bb
000002d0: ca07 823c 667b f4bc d6c5 733c a2ac ffbc
000002e0: 0c48 3cbd 8d47 22bd 6f4c 8dbc 5a34 d43b
000002f0: 0048 01bd 16df 213d 5afc a63c 214e f8bb
00000300: fedf d9bd eca9 623a 2469 84bc abf1 243d
00000310: 6828 9cbd 503d 81bc e3f2 6d3c 93c7 473d
00000320: 026a a03c 2819 6cbd e425 753d 7ef9 7f3d
00000330: cbef 16bd 04fa 2a3d 5079 0fbd 8d6d b23d
00000340: a7d8 1dbd 2225 d73c fab7 e1bc 8767 febc
00000350: 7cab afbc 66ee 723d 8a62 28bd 81b2 c4bd
00000360: 285a 9fbd 104d bc3a d96b 04bd fa7e 873c
00000370: 33c3 76bd e078 873c 2dc0 debc f536 c33d
00000380: 62bd a2bd 87de 043b 2742 d4bc 6447 01bd
00000390: 68bf 4bbc 48b0 53bd 1e8d 68bd d79a 913c
000003a0: b3cb 2bbc 664e 42bd dd50 b53b fde6 833d
000003b0: 5747 223d c06d 3e3d a1d8 1fbd 9345 5fbd
000003c0: af2d 34bc ffc6 a73c 7803 4dbd 4a1c ed3d
000003d0: 5f15 62bd 5bd5 8e3d b72d 1f3b 3f07 8d3d
000003e0: c696 c43b f60f 8c3c fe22 87bd d133 543d
000003f0: 642f 553b 2f9c 363c f83d 943c 6c7c c0bc
-0.025145935 0.027248293 0.08042169 0.037002884 -0.054537464 -0.04744165 0.01187659 0.041768223
-0.018916866 0.016219614 0.06969473 -0.010051794 -0.08640228 0.006019632 0.027592974 0.096817
0.010324817 0.01871426 0.050783444 0.006638309 0.0021621846 -0.042911235 0.05279787 -0.019145163
-0.05832712 -0.028074808 0.042561747 0.015321368 -0.006668818 0.049246393 0.044846322 -0.011275316
0.055292286 -0.07676541 0.06003624 0.0094137145 0.018729363 0.0055406527 0.010988573 -0.007740415
0.07257367 -0.007956463 0.062172387 0.060772702 0.045804005 0.06859078 -0.032505408 -0.0145571
0.053712755 -0.04208396 0.03836184 -0.04180682 -0.027960576 0.0050965496 -0.032023504 0.021855524
0.010276997 0.057018243 0.011365153 0.007334142 0.018085929 -0.1144268 -0.017577635 0.028657919
-0.052872695 0.015453787 -0.033170663 -0.058684424 -0.058479097 0.019865984 -0.0027555863 -0.11735616
0.01879023 -0.035886474 -0.009576746 0.06461882 0.046691313 -0.014146472 0.020980142 -0.10357612
-0.08627291 0.015237006 0.0024489947 0.033891108 -0.044621136 0.028187154 0.010838143 -0.01765016
0.062409304 0.013556819 -0.054005183 0.043588188 0.061167926 -0.009580501 0.06653763 0.023329841
0.100644894 -0.0027892778 0.07955872 0.043608304 0.006676252 0.06995535 -0.004498959 0.015810207
0.00061649736 0.021485632 -0.0074871993 -0.0014867532 -0.082997106 -0.034051113 0.03366365 -0.047374006
-0.03677153 -0.04193843 0.025082657 0.006062045 0.057596408 0.061319992 0.04266057 0.0015330769
0.0026969712 -0.040229395 -0.060619913 -0.04135387 -0.057512846 -0.035430323 0.026031276 0.0064161737
-0.029439628 -0.054452714 -0.03891506 -0.04467746 -0.009935874 -0.018122908 -0.0030421233 0.08170438
0.04209741 0.003738734 -0.024164561 -0.049209584 -0.05616617 -0.011253572 0.08125154 -0.05151247
-0.061150514 0.046925034 0.0041141785 -0.03617908 -0.016441014 -0.07725691 0.032576423 -0.004874543
0.006475546 -0.055112224 0.09149853 0.06441111 0.063413724 -0.04601008 -0.059283793 0.018791586
-0.013028853 0.010983161 0.06247705 -0.0346155 0.032225523 0.032922685 0.02343979 -0.041130863
-0.049020402 -0.050116893 -0.0033928887 0.011461079 -0.07488346 0.049320385 0.007445912 -0.03870883
-0.021021385 0.0084704915 -0.0245718 -0.005859387 0.015872855 -0.029843997 0.014878711 -0.031210247
-0.045967147 -0.039619017 -0.01724836 0.0064759674 -0.031562805 0.039519392 0.020384002 -0.007577673
-0.10638426 0.0008646536 -0.016163416 0.040269535 -0.076248944 -0.015776306 0.014523241 0.048774313
0.019581798 -0.05764118 0.05985059 0.062493794 -0.03684978 0.04174234 -0.035027802 0.087123014
-0.038536694 0.026262823 -0.027553547 -0.031055225 -0.021444075 0.059309386 -0.0411096 -0.096043594
-0.07780868 0.0014366228 -0.032329414 0.01654004 -0.06024475 0.01653713 -0.027191246 0.095319666
-0.07946278 0.0020274238 -0.02591045 -0.031562224 -0.0124357715 -0.051681787 -0.056775205 0.017774029
-0.010485577 -0.047438048 0.0055333213 0.06440542 0.039618816 0.046491385 -0.039024953 -0.05450971
-0.01099722 0.02048063 -0.050052136 0.11577661 -0.055196162 0.06974288 0.0024288723 0.06886148
0.005999419 0.017097455 -0.06598471 0.05180723 0.0032529468 0.0111456355 0.018095955 -0.023496829

actor.4.bias f4 [6]
00000000: a493 7e3d cd71 7c3d e4a5 cd3b 71cc c0bd
00000010: 41a9 c83d 8802 4a3c
0.06215252 0.061631966 0.006275879 -0.09413994 0.097979076 0.012329705

critic.0.weight f4 [256, 12]
00000000: cc9b 293e a9fc 163e 962a 7f3c cbff b2bd
00000010: bde6 2e3d 39fc 03bc 6257 a93d 993b 6fbe
00000020: aa34 6cbe c6b8 19bf e920 073e 460c 84be
00000030: 0305 893e 147b 0d3e ad13 773e 6bc1 b03d
00000040: 89da 4c3e 891d 9cbd fc4e 573e 2579 a1bd
00000050: ac84 af3d 6186 fb3a 60be 133e e700 abbd
00000060: a513 9f3d 3857 653e 4e7e 783e 48ad 343e
00000070: e91f 503d 837d 58bb cb68 5abd 968a 713d
00000080: 9461 65be e15c 493f c33f 333e 31c8 323e
00000090: 13fc 073e f8cf 8cbd b121 03be 2a85 b13d
000000a0: f7d9 4b3e ebe3 7b3e 565d 33be 6757 d93c
000000b0: 6703 85bd f093 de3e b46e 46bd 14fa dbbd
000000c0: abaf 1fbe 1510 8e3c c5b1 803c cf03 e93d
000000d0: 054e d7bd c62a 0dbe 699e e9bd 93b1 4dbd
000000e0: 00cb 5abe 2c43 523f 58d1 bb3d faab 42be
000000f0: 9eb3 f63d e997 0ebd 49dd 8a3c 3af1 c83d
00000100: cdda a03e b160 1cbe a253 033e be7c e33d
00000110: 3d3c ea3d 7117 3a3e 45ef 8f3e 692f 7c3e
00000120: 32c0 fe3d 6ce4 34bd 9009 83bd 9b54 0dbe
00000130: d7db c63d 0f71 8a3e feb2 263e c9ff 363e
00000140: 56e2 e0bc 9f34 30bf d232 41be 2be6 803e
00000150: e939 3fbe 7418 4dbe 92ad 00be 9a01 363e
00000160: 4922 ffbd f7df 18bd 37f5 333e 14bb efbd
00000170: cd63 f63d 1166 2cbf 5e44 0b3d 6d1a a93c
00000180: efd3 d63d a71d 243e a1cd 05be 12ef 023e
00000190: 1f39 a3be bcbd 4ebe ee38 e23d 4fe0 4a3e
000001a0: 334e 06bd cc20 513f f0f3 c03e a321 9dbd
000001b0: b64c 17bc d947 be3d 42e0 43be d969 883c
000001c0: 450a f5bd bbae 62be f14e b63d e4fe 103e
000001d0: 56e4 10be 29f2 c93e 26ee 7c3e 905b 9f3e
000001e0: 5ca7 683e 7c7c 17be 96ab fcbd 09f3 58be
000001f0: 3a65 98bd 8bfd 703d 725d 2cbe 58ee 66be
00000200: 0065 8f3e 851e e0be 52bd cfbe 122d cc3d
00000210: 7520 ad3c 046e 423e 5f69 e73d 4404 02be
00000220: e16a 90bc fd8f 93be aaf4 f9bc 5057 10be
00000230: dac3 e3bc 46f6 4dbf 2bf2 45be 7434 cabd
00000240: e2b0 8cbe 7953 0c3c 2490 fd3d 11b7 83be
00000250: e70f 1f3e 78dd 573e 3bb1 d13c cc54 20be
00000260: 4fea babd b3a5 353f 1dea 423d fa95 4dbe
00000270: 555a 4ebe 2843 4c3e 7d14 373e 9f8f f8bd
00000280: 436b 53be 376c d1bd d6fc 86be 5352 64be
00000290: 4e37 973e c9d8 ab3e f9a7 6d3e 2991 413d
000002a0: 3c4a 32be 972c 51bc 51df 81be d624 68be
000002b0: c821 a03d 85ed 91bd dc63 513e b169 823e
000002c0: 10f8 0bbe 1e89 233f 778b 43be 3b19 6f3e
000002d0: ee94 c43b d66b 76bd 0ec6 4c3d f3a3 203e
000002e0: 418d 8bbc 79b5 9abd a628 c73d df7e 81be
000002f0: 2766 77bd 7c77 273f 519c 2a3e 70e7 2dbe
00000300: cc15 0b3c c429 d8bd 1564 1b3e d3b4 303d
00000310: 80ed f4bd 8258 463b e0c7 60bd 39e8 c43d
00000320: dd50 4bbd 22aa aa3e a43d 8fbd 05eb 483e
00000330: a7d5 8dbd 119d d73d 5160 04bd ceb1 713e
00000340: b8e8 4b3e 777d 1fbe 6fa2 dbbd cbc3 793e
00000350: 317a 09be 1148 3ebf 16eb aabe e247 d83d
00000360: 1ab3 6abe 8c5d c03a 8617 8eba cb45 a4bb
00000370: 3532 88be 6f07 753e bc2b 77be 2c15 223d
00000380: eecc 633d cbd9 383f 732e 81bd b997 3a3e
00000390: 75a4 e3bd ba70 6bbe d278 18be b49d 213d
000003a0: 97d7 3abe 413e fe3a 2008 1fbe b58e 76be
000003b0: a591 7fbe 4dd1 fb3e 046d c7bb 8716 91be
000003c0: 8eb7 f9bd 42f2 dc3d bef1 393e 3607 713e
000003d0: eece 1bbe eba2 43be 9625 7cbd 8247 9d3d
000003e0: 9a82 d13d e251 2a3f 91a4 4abd 6905 efbd
000003f0: b9af 933e 02b9 e2bd 004d 11be ad24 67be
0.16563338 0.1474482 0.015574118 -0.08740195 0.042700518 -0.00805574 0.0826862 -0.23362578
-0.23066965 -0.60047567 0.13196148 -0.25790614 0.26761636 0.13816482 0.241286 0.086306415
0.2000524 -0.07622821 0.21026224 -0.078844346 0.08570227 0.0019189828 0.14428091 -0.083497815
0.07767419 0.22396553 0.24266931 0.17644227 0.050811682 -0.0033033795 -0.053322595 0.058970056
-0.22400504 0.78657347 0.17504792 0.1745918 0.13279752 -0.068756044 -0.12805821 0.08667977
0.19907366 0.24598663 -0.17516074 0.026530934 -0.064947896 0.43472242 -0.04844542 -0.10741058
-0.15594356 0.017341653 0.015709767 0.113776796 -0.10512928 -0.13785848 -0.114071675 -0.050218176
-0.21366501 0.82133746 0.091707885 -0.19010916 0.12045978 -0.03481284 0.01695122 0.09811635
0.31416932 -0.1527126 0.12824872 0.11107777 0.11437271 0.18173005 0.28112236 0.2462746
0.12439002 -0.044163153 -0.06398308 -0.13801806 0.097099 0.27039382 0.16279218 0.17871012
-0.027451675 -0.68830293 -0.18867043 0.25175604 -0.18674435 -0.2002886 -0.12566212 0.17774048
-0.12457711 -0.037322965 0.17574011 -0.11705604 0.12030754 -0.6734324 0.034000747 0.020642484
0.10489642 0.16026936 -0.13066722 0.1278651 -0.31879517 -0.20189565 0.11046015 0.1981213
-0.03278942 0.8169067 0.3768611 -0.07672431 -0.009234598 0.092910476 -0.19128516 0.016652035
-0.119648494 -0.22136967 0.08901776 0.14159733 -0.14149603 0.39442566 0.24700221 0.31124544
0.22720093 -0.14793581 -0.12337415 -0.2118646 -0.074411824 0.058835547 -0.16832522 -0.22551858
0.28006744 -0.43773285 -0.40574127 0.09969534 0.02113364 0.1898728 0.11299395 -0.1269694
-0.017629089 -0.28820792 -0.030512173 -0.14095807 -0.02780335 -0.8045391 -0.19330661 -0.09873286
-0.274787 0.008564823 0.12381008 -0.25725606 0.1553341 0.21080577 0.025597205 -0.15657347
-0.09126722 0.7095596 0.04758655 -0.20076743 -0.20151646 0.19947493 0.1787891 -0.121367685
-0.20646386 -0.102257185 -0.26364774 -0.22297029 0.29534382 0.3356383 0.23208608 0.047257576
-0.1741113 -0.012766979 -0.2536569 -0.22670302 0.07818943 -0.071253814 0.2044825 0.2547126
-0.13668847 0.638811 -0.1909617 0.23349468 0.005999199 -0.060161434 0.049993567 0.15687542
-0.017035129 -0.075541444 0.0972455 -0.25292107 -0.060400154 0.65416694 0.16661192 -0.16982818
0.0084890835 -0.10554841 0.15174897 0.043141197 -0.11959362 0.0030265157 -0.054878116 0.096146055
-0.049637664 0.33332926 -0.06994179 0.19620903 -0.069255166 0.10528005 -0.032318417 0.23602983
0.19912994 -0.15575205 -0.10724341 0.24391095 -0.13425519 -0.74328715 -0.3338248 0.105605856
-0.22919884 0.0014676317 -0.0010840751 -0.005013203 -0.26600805 0.23928617 -0.24137777 0.039570972
0.055615358 0.72207326 -0.063076876 0.1822194 -0.11115352 -0.2299222 -0.1488984 0.039457038
-0.18246303 0.0019397215 -0.15530443 -0.24077876 -0.24957903 0.4918312 -0.0060859937 -0.283375
-0.121932134 0.107883945 0.18158624 0.23537907 -0.15215656 -0.19105117 -0.061559282 0.07679655
0.102299884 0.66531193 -0.04947335 -0.11670954 0.28845003 -0.11070444 -0.1418953 -0.22572584

critic.0.bias f4 [256]
00000000: fa2e 69bd 6182 843e 9785 74be 3825 7cbe
00000010: 9d59 6b3e e843 c3bd 29e2 38be 79e0 583e
00000020: b2c8 45be dd49 12be 3347 443e a364 a4bc
00000030: 2772 8a3e e814 f03c 8f65 6abe 8c80 0abd
00000040: 925b 943e ad43 4ebe 23ae 1cbd 793d bdbd
00000050: 3145 b53d 7cdc 1b3e 5e62 ff3d b52c 4b3e
00000060: 12a2 28be 8c12 80be 0984 3c3e ae89 783e
00000070: ea50 a13e 95ad dd3d 6b8e 8e3e 68e4 1bbe
00000080: 97ab 013d 7a4a d13c 6df6 853d 10be 5c3e
00000090: 0d4a 8fbe 3b58 523e b76e 8b3e 8352 853e
000000a0: c14e f23d c10e 91be 3a8a a53e 25b2 6ebd
000000b0: a5ae 9abd e844 673d 19e3 8ebe 6618 b43e
000000c0: 0b9b 95be 9145 a83d cadc b2bd 9436 053d
000000d0: 6c59 cbbd 4902 803e 5328 863e dca0 b0be
000000e0: b723 f83d e1cc c0bc e26d 4fbe 8a0f c53d
000000f0: 0a66 39be 3c59 6cbe ea2d 04be ceca 6b3d
00000100: 7dc3 52bc 9cb6 e93d 2b99 813e 03f5 d2bb
00000110: 37bf c33d 0baf c73d f130 84be 2a12 183d
00000120: 51b5 28be 06c1 163d 4050 18bd e169 3ebc
00000130: d900 8bbe 3a64 be3d e6ac b7be 3058 813c
00000140: fb52 b73d c5d8 79be e321 253d ae57 cd3d
00000150: d213 0dbe 3ed3 40be b17d 25be 9ad3 ebbd
00000160: 5b35 99be 215e b8bd 2dbb 71be 6fb0 933e
00000170: 1400 dc3d a32e 3dbb 7993 973e 86d2 65ba
00000180: 698b d3bb dbdc 98be 951c 6d3c d5e2 37bd
00000190: 2345 123e d911 3abe 5efe 28be dabb 083e
000001a0: 8723 883e 7062 b43c 01e3 a2be 238c 9dbe
000001b0: 0020 033e 66ea 233e a543 4e3e 118c 56be
000001c0: e055 0f3e 0332 303d 45d7 b03e eaa7 813e
000001d0: 3b03 fe3b 12e4 41be f3b7 7ebe 9f16 b3bc
000001e0: ca38 5cbd 5e96 dcb9 3d66 303e 6bd4 44be
000001f0: 0e4c 95be d351 f43c 287f 92bd ff34 06bd
00000200: 1b8e cdbd 849c 05be 1584 37be 6d3a 3b3d
00000210: ff25 0e3e 110f f63c 0a31 edbd f530 f13d
00000220: 66f9 50be 8bca ca3d 2638 693d e56a 1fbb
00000230: b25c 59be bb6b f73c 9c93 7d3e 6add 0a3e
00000240: 4a2c 023e d9f5 01bd 8fd3 7a3e 84e2 64be
00000250: 8b82 0dbe 4bf3 b73e ca5c 843d 6594 a0bd
00000260: 859f 87be 9d09 1b3e 558a 9cbd a275 edbc
00000270: 8a79 39bd a4a2 273e 39a1 84be 8bc0 90bd
00000280: d5d3 07be ed50 033e 3043 3a3e 469d 9bbe
00000290: cd72 313e 7314 8d3d afad 463e 5962 e53c
000002a0: 8866 0e3e 7069 5a3e a7b3 493e 7ea5 71bc
000002b0: 9bb1 65be a6ef 72bd cf77 bc3d a696 54be
000002c0: 733d 39bd fc7b 0abe a67c 75be 5855 8b3e
000002d0: afbb 2cbe aa18 17be b620 7e3e 5908 693e
000002e0: 338e 45be bbd5 023e 7f3f 3abe dbba be3d
000002f0: 9915 9dbd c733 fbbd 968d 763e 2d9c 513e
00000300: 25f1 30be 3b27 943e c0ad 2bbe b306 073d
00000310: 1f98 633e ad83 21be 6633 80bc 82d0 f6bd
00000320: a67b 4e3d 9075 9cbe 0ab1 833c 2db9 3bbd
00000330: 9516 66be 43b7 883e ad9d 423e 073b 913e
00000340: be62 053e 1b90 903e ddb2 97bd 30c6 8c3d
00000350: d63a 513c 36a5 15be 5fba 8ebe 0146 52be
00000360: 9236 d7bc 7afc c43d 11a8 a6bd c57c f43d
00000370: 6094 b13e 3c75 3abe 7709 683e b5c6 833e
00000380: b773 dfbd 1ce8 c2bd 6661 453e 5d61 7bbe
00000390: 0462 3c3e 1643 2f3e a5d7 47be e840 2b3e
000003a0: 73c2 febc f778 be3e 7990 4fbe ed8d 483e
000003b0: fac0 183d b671 6f3e 63e5 d6bc 6156 323c
000003c0: d752 0cbe 6910 ec3d 566a 1c3d 6d92 533e
000003d0: 4d77 953e d811 47be bafd 4e3e 1edf 43be
000003e0: ff50 eabd e742 3b3e f313 5e3e 7d15 e8bd
000003f0: f86f 983d df88 7dbe b11e e93d b438 203e
-0.056929566 0.2588072 -0.23879085 -0.24623573 0.22983404 -0.095344365 -0.18055023 0.2117938
-0.1931484 -0.14285989 0.19167785 -0.020067519 0.27040216 0.029306844 -0.22890304 -0.033813998
0.28976113 -0.20143004 -0.038252007 -0.092402406 0.08851088 0.15220827 0.12469934 0.19841273
-0.16468075 -0.2501415 0.18409742 0.2427127 0.31507045 0.10824124 0.2784303 -0.15223849
0.03165778 0.025548209 0.065411426 0.21556878 -0.27986184 0.2054147 0.27232906 0.26039514
0.11831427 -0.2833157 0.3233202 -0.05827536 -0.07552842 0.0564622 -0.27907637 0.35174865
-0.2921985 0.08216394 -0.087335184 0.032522753 -0.09929165 0.25001743 0.2620264 -0.34497726
0.12116187 -0.023535194 -0.2025676 0.096221045 -0.18105331 -0.23080915 -0.1290814 0.057566456
-0.012863991 0.11411783 0.2531217 -0.006437899 0.09557956 0.09750184 -0.2581859 0.037126698
-0.16475417 0.036805175 -0.037185907 -0.011621923 -0.27149084 0.092964604 -0.358741 0.015789121
0.08951374 -0.24399097 0.04031552 0.10026489 -0.13777092 -0.18830582 -0.16161229 -0.11514969
-0.2992352 -0.09002329 -0.23606558 0.28845546 0.107422024 -0.002886691 0.296047 -0.0008767027
-0.006455828 -0.29856 0.0144721465 -0.04489406 0.14284186 -0.18170871 -0.16503283 0.1335291
0.26589605 0.022019595 -0.31813815 -0.30770978 0.12805176 0.16007385 0.20142992 -0.20951869
0.13997602 0.043016445 0.34539238 0.2532342 0.00775185 -0.18934658 -0.24874859 -0.021861373
-0.053765096 -0.00042073702 0.17226501 -0.19221656 -0.29159588 0.029824173 -0.071531594 -0.032765385
-0.1003687 -0.13047987 -0.17921479 0.045710016 0.13881682 0.030036481 -0.11581619 0.11776916
-0.20407638 0.09901913 0.056938313 -0.0024325189 -0.21226767 0.030202737 0.2476334 0.13561025
0.12712207 -0.0317286 0.24494766 -0.22352034 -0.1381933 0.35927805 0.064630106 -0.07840804
-0.2648889 0.15140386 -0.07643572 -0.028986756 -0.045281924 0.16370636 -0.25904253 -0.07067975
-0.13264401 0.1282384 0.18189692 -0.30393428 0.1732895 0.06888666 0.19402193 0.028000997
0.139063 0.21329284 0.19697438 -0.014748929 -0.22431032 -0.059310578 0.09202539 -0.20760593
-0.04522462 -0.13523859 -0.23973331 0.2721355 -0.1686847 -0.14755502 0.24817166 0.2275709
-0.19292526 0.12776844 -0.18188284 0.093129836 -0.07670135 -0.12265735 0.24077448 0.20469733
-0.1727949 0.2893618 -0.16765499 0.032965373 0.22225998 -0.15772887 -0.015649509 -0.120514885
0.05041089 -0.30558443 0.01607563 -0.045830894 -0.22469552 0.26702318 0.19005461 0.28365347
0.13025948 0.28234944 -0.07407162 0.06873739 0.012770375 -0.14613804 -0.27876565 -0.20534517
-0.026271138 0.096184686 -0.08137525 0.119378604 0.34683514 -0.18208784 0.2265986 0.2573754
-0.10910743 -0.095169276 0.19275436 -0.2454886 0.18396765 0.17115435 -0.19515856 0.16723979
-0.03109858 0.37201664 -0.20269956 0.1958539 0.03729341 0.23383221 -0.026232427 0.010884852
-0.13703476 0.115265675 0.038187347 0.20661326 0.29192582 -0.194404 0.20213977 -0.19128081
-0.1144123 0.1828724 0.21687298 -0.113322236 0.07443231 -0.24759243 0.11382807 0.1564663

critic.2.weight f4 [128, 256]
00000000: c72b ef3d b9d8 eb3d 103b 85be 72db 6d3d
00000010: da8a 37be 268f 1b3d c94e 5b3e f892 f13d
00000020: ed01 48be d4f9 4cbd f9c3 813e 721f 2e3e
00000030: 39e8 b5bd 38ba 05be 1809 ad3c 9329 afbd
00000040: 8d24 09be 18c6 333e 3e44 babd cae8 16be
00000050: 1e4d 0bbe f1e2 953e 0f0f 983e ed01 f93d
00000060: 81a8 1dbe e276 5abd c09e 79be a261 41bd
00000070: a95b 90bd 7630 2b3d 2f69 b3bd 4ac2 abbd
00000080: a541 1b3e dc27 043e 6c82 093e 83ad 81bd
00000090: 5404 9dbe 1858 de3c 6de8 78bc cc40 9abd
000000a0: 4f94 073e 1517 d23d 433c 193e 7585 46be
000000b0: 3299 f4bd da95 2ebe b939 37be 6c8e b2bd
000000c0: 038a a0bd 8138 813c 075e e23d 2d8d 213e
000000d0: e66c 253e be79 d8bd c02c 033d a1fa e23c
000000e0: ed73 173e f317 8abe 9af7 2dbe d297 a43d
000000f0: c03d dc3c 6fc3 12be 21f5 71be 1199 a53d
00000100: f61b a43c 9e98 fd39 2d82 173e a053 02be
00000110: 136f a5bc b1d7 853d 5b13 33be 047e 94bc
00000120: 0e71 d33d de1e 873e 4992 bdbd 0651 c83d
00000130: b2e1 363d f65d 263d 7bb4 ad3d 4ddc cfbd
00000140: ca4c a13b 4388 123d 8586 06be 76df 84bb
00000150: e40d d1bd fc6c 25be 82e7 3c3c 9a77 31be
00000160: 7b28 27be 7e53 0abe ba70 99bd eca1 f73d
00000170: d721 47bd 92c6 74bd b223 01bd f3d1 f63d
00000180: 946e 543e 67d3 67bd 3ba8 6d3d 348d 09be
00000190: 003a d4bd beca 0fbe b4d8 8cbd 9d90 1b3e
000001a0: 9a54 fa3d 9684 b3bd 3322 63bd 5958 9cbe
000001b0: 31e3 363d fa7e 863d 33ad c8bd aa8f 38be
000001c0: 0c8a 2abd e3ce d4bc cf59 78bd bd3d ce3d
000001d0: fa2f 06be 3946 11be d918 05be b07f 113e
000001e0: 8975 19be 1355 413e 97fc 66bd 797f 8c3c
000001f0: 3c86 95bd 0472 93bd a48e f73c 06e4 f53d
00000200: 3ccb 803d 1f63 c73d e980 3bbe e917 b0bd
00000210: 89b0 9f3d 0be2 693d 3eb3 a83d 1682 503e
00000220: a2ed 1fbe c5ff bcbd f245 873e 4c16 bcbc
00000230: 7b24 7cbd 89ae a5bc c9d2 5a3d eb41 353e
00000240: 2bd4 bb3e daf9 033e 16dc a93c 80cb e4bd
00000250: de93 6bbe 4461 073d e536 0f3c c0ac 4ebe
00000260: b1a2 96bd 7867 9bbe 5163 97be b627 053e
00000270: 4403 f2bd 392d cb3d 79e8 1fbe e1a9 e73a
00000280: 0794 4dbd c1a9 003e 2f7a 873c 9335 3b3d
00000290: 4428 fc3d fbb3 b33d aa08 6cbc 4063 053e
000002a0: e867 0cbe a023 313e 7627 a2bd 72ca af3d
000002b0: 495e 2fbe e1c0 993d 8ff8 fd3c 6a98 43be
000002c0: 8605 c23d ea4b 19be 4051 363e 1a52 333d
000002d0: bbef bbbc d5c7 c5bd bfb7 2d3d 4fa5 383e
000002e0: 0480 febc 351a 093e 651d dfbc 998b 1d3e
000002f0: ba24 18be b169 b8bd fef0 a23d b42d 76b9
00000300: e075 adbd 039a 113e e684 3c3c cb9c 523e
00000310: 4201 3ebd f78e dabc d2f2 9cbd 2cff 3dbe
00000320: 74dd 873e 11fc 8dbb 9024 2dbd c001 2bbd
00000330: 8acb 25be 11c6 d2bd a5d4 af3d ed92 b23d
00000340: ba63 2a3d 1861 34be fadb 553c 6bb3 273e
00000350: 8ae5 a0bd e6bd d5bd 2596 f93d cd23 2abd
00000360: 1203 b4bd ac06 6fbe 262e 16be 05ea bf3d
00000370: 8ed8 c43c e7cc 1ebe ac6f e73d 0cc3 dcbb
00000380: b8f1 20be 480c 053d 92d9 28be 1b23 28be
00000390: 111f cdbc d8f0 593e 59a1 233e 3b59 52bd
000003a0: 7391 0c3e b7ce c1bb 70a1 23be 3fdf 463d
000003b0: fa1c c53d f60e 2b3e ffdd 6c3c b398 6f3d
000003c0: 5c95 3a3d fefb d4bd dd45 0dbe 7d1f bd3d
000003d0: e67a 453e 02d2 833e eaa6 443d c316 06be
000003e0: a280 7f3e d782 7ebd 7174 7b3e 1dbb 81bd
000003f0: 4105 023e ff7a 5cbe 2aa6 983d a49d e53d
0.11678272 0.11515946 -0.26021624 0.058070607 -0.17924061 0.037978314 0.21416773 0.1179561
-0.19531985 -0.050042942 0.25344828 0.17004183 -0.088821836 -0.13059318 0.0211225 -0.085528515
-0.1339285 0.17556036 -0.090950474 -0.1473724 -0.13603637 0.29274705 0.2969899 0.121585704
-0.1539631 -0.05333603 -0.24376965 -0.04721225 -0.07048733 0.041794263 -0.087602966 -0.08386667
0.1516176 0.1290583 0.13428658 -0.06331923 -0.30667365 0.027141616 -0.015192133 -0.0753189
0.13240169 0.10258309 0.14964394 -0.19386847 -0.11943282 -0.17049351 -0.17893113 -0.08718571
-0.07838824 0.015774013 0.110530905 0.1577651 0.16154823 -0.105700955 0.0320251 0.0277074
0.14790316 -0.26971397 -0.16988984 0.0803677 0.026884913 -0.14332364 -0.23628666 0.08085836
0.020032864 0.0004836963 0.14795752 -0.12727213 -0.020194566 0.065352805 -0.17487852 -0.018126495
0.10324298 0.26390737 -0.09256417 0.09781079 0.044648834 0.040616952 0.084816895 -0.10149441
0.004922484 0.03577448 -0.13137253 -0.004054959 -0.102077276 -0.16154855 0.011529805 -0.1733078
-0.16324036 -0.13508412 -0.07492204 0.12091431 -0.048616257 -0.059759684 -0.031528182 0.120517634
0.20745307 -0.056598093 0.058021765 -0.13432771 -0.10362625 -0.14042184 -0.0687727 0.15191884
0.12223168 -0.08765523 -0.055452537 -0.30536154 0.04465026 0.065671876 -0.0979866 -0.18023553
-0.041635558 -0.025977558 -0.060632523 0.100703694 -0.13104239 -0.14186944 -0.1299776 0.14208865
-0.14986242 0.1888011 -0.056393232 0.017150627 -0.07300994 -0.07199481 0.030219384 0.12006383
0.06288764 0.09735703 -0.18310894 -0.085983105 0.07797343 0.057100337 0.08237313 0.20362124
-0.15617993 -0.09228472 0.26420552 -0.02295985 -0.061558228 -0.020224826 0.053423677 0.17700927
0.3668531 0.1288828 0.020734828 -0.11171627 -0.23005626 0.033051744 0.008741115 -0.20183086
-0.0735525 -0.30352378 -0.2956796 0.1300343 -0.11817029 0.09920735 -0.15616025 0.0017674529
-0.050189998 0.12564756 0.016537754 0.04570539 0.123123676 0.08774563 -0.014406363 0.13026142
-0.13711512 0.17298746 -0.07917683 0.08583535 -0.1712581 0.07507492 0.031002311 -0.1910111
0.0947371 -0.14970365 0.17804432 0.04377947 -0.02294146 -0.096572556 0.042411562 0.1803181
-0.031066902 0.13388903 -0.027235696 0.15385284 -0.1485776 -0.09004534 0.07956122 -0.00023477414
-0.084697485 0.14218907 0.011506295 0.20567624 -0.04638792 -0.0266795 -0.07663502 -0.18554372
0.26536143 -0.004333027 -0.042271197 -0.041749716 -0.16190925 -0.102916844 0.085854806 0.0871943
0.041599013 -0.17615163 0.013052935 0.16377036 -0.07856281 -0.10436611 0.12186841 -0.04153805
-0.08789648 -0.23342389 -0.14666042 0.093708076 0.024029043 -0.15507852 0.113005966 -0.0067371186
-0.15717208 0.032482415 -0.16489246 -0.16419642 -0.025039228 0.21283281 0.15979518 -0.051354628
0.1372736 -0.005914535 -0.15979552 0.048552748 0.096246675 0.16704926 0.014457225 0.058495235
0.045552596 -0.10399626 -0.13796182 0.092345215 0.19285163 0.2574616 0.048010744 -0.1309462
0.24951413 -0.062136497 0.24556138 -0.06334517 0.12697317 -0.21531294 0.07453568 0.11211708
