policy/PPO_fail/checkpoints/2025-09-09_18-45/best_12.70.pth (torch, 258485 bytes, 33 tensors)

actor.0.weight f4 [128, 12]
00000000: 2b61 8b3e 6c0e 87be 9efd 35bd 54ab 2abd
00000010: 9bac 973e 95b5 373d a92f bcbd 3a0c 52bd
00000020: 4792 5d3e 05df 7b3d 7b07 64bc 7e17 09be
00000030: 1f53 793d 5dbe 91be 8443 cfbd b7fd 803e
00000040: ab23 a9bd 071f 263e 5dc0 66be ef2f 5f3d
00000050: aabe 46be 845b 203d d5fc 0d3e 7aad d23d
00000060: b057 763d ae55 29be c207 6a3e edf1 90bd
00000070: f860 03be 21e0 313e ac1a aebd a1ad 183e
00000080: 61b7 ba3d 67c3 8f3e 692e 83be 02da 403e
00000090: f770 863d 39a2 fcbd ea2f 8a3e 80cb 673e
000000a0: 4f01 4fbd ab55 183e 4d9b 8abc fa8f 89be
000000b0: 0f9e c33d c838 e63b 3d47 31be 8f1d d73d
000000c0: 4c4a b4ba 90e5 f63d d041 5a3e 1f4d aa3d
000000d0: 6a92 3d3e 632e 8f3e b992 0abe f32a 40be
000000e0: 1ea5 aa3d 65ff 173e 972a 733c f8da 93be
000000f0: 4faa 80be 2b3b 0dbe a9ef 413b e6f5 7d3e
00000100: 68ad ab3d 176f 323e e62e 64bc d436 c8bd
00000110: f92a 1ebe 03c7 22be 570e a0bd 98f6 98bd
00000120: 3b93 83be be64 aebd 00fd 80bd 90e1 4cbd
00000130: 393e 92bd 87f9 b0bb 28c0 323e fe10 36be
00000140: 6ba1 053c c3d5 53be 3197 b1bd 213c 70be
00000150: 2061 74be fb1d 09be 2e4e 1a3d cba7 7cbe
00000160: 27d9 8ebc 83d9 07be 934d d93d a031 33be
00000170: 90cf 513e dd74 9d3c a858 023e a1e1 8dbe
00000180: 4c2e 053e e5dd 0bbe 07f8 893e e275 01be
00000190: 87f2 0ebe b226 debd 00c2 31be 52c0 a43c
000001a0: 88c8 8a3e 29bd 09bd 47da 9bbd 9c06 423d
000001b0: b25f 863e cd6e 513d 71c2 3abe 0fba 1abe
000001c0: 61e8 36bd 9db8 c93c bcf1 733d caaf 23be
000001d0: 497d 993e 5997 7d3e f601 85be 35c5 f8bc
000001e0: a87f 51be 3a76 063d 5a65 8dbe 84d3 f4bd
000001f0: 8a6f 193e a50e 60bd 3ba2 52bd 0bc6 4c3e
00000200: a6d4 823d 8538 043e 68a6 15bd ec26 593e
00000210: fe7c c23d 6311 1fbe 0dbf 18be 627d b6bc
00000220: 1fb8 4dbd 2b1c 82bd 19a2 7abd 46e8 b33d
00000230: 4eda 1ebe c84d 86be 5452 cc3d 74cd 46bc
00000240: d717 8d3e 0106 163c 80dc f23c 6c4c af3d
00000250: 94bc 1cbe bad0 f13d 07de bdbd 5e01 4b3e
00000260: c70e 903e ff01 803e 766f 93be bf7b 3abd
00000270: 420a 37be bea9 6cbd fdcc 2ebd 1f3f 89bd
00000280: 37a9 f53d 1333 873d 7ce3 96bd ca9f 53bd
00000290: 3882 ebbc 7699 1b3e 59f9 66be 3ca0 1c3d
000002a0: 25f5 203e 2c40 6dbe e508 13be 9e07 00bd
000002b0: 47b9 b53d 4f10 27be 75b9 a33c 7d81 0ebe
000002c0: d10f 6bbe 3bd8 2a3e ac35 7ebe 29f6 08be
000002d0: 1808 e33d 0c37 473e c4dc f1bd 3a6a 4dbe
000002e0: 3fc2 60be 082a 853d dd98 4abe d08b 113d
000002f0: 2348 18bd 524a 043e d318 303e 6d2e 313e
00000300: f296 f6bc 8584 dabd e195 e0bd e3e3 57be
00000310: 7803 083e bb99 023d 62e9 813e 48e1 d2bd
00000320: cd63 4bbd 3d87 723c 671c 7d3e 44e3 04bd
00000330: b596 61bd e5eb 32be d918 4abc b998 2a3e
00000340: e17c bebd a03e 863e 7469 d83d 7dad 113e
00000350: 7e4f 853e 836f 023e 1dc1 413e cb0b 7ebe
00000360: 4e6d 74be a762 3e3e bf21 46be 62f1 09be
00000370: 5ae1 743d fd0e 0ebe 8614 f0bd 5dfd 9f3d
00000380: 691e a43d 4d92 abbd e019 90be 93d0 093e
00000390: 0f1b 58be 77e0 d53d 5163 903e 0246 3a3e
000003a0: 5d22 0abe e620 783d c2e2 0cb9 c8a3 d93d
000003b0: 8d88 613e fadf e23d a258 9e3d dbbb 333c
000003c0: 1452 31be f8ad f83d d6f2 87be abc3 0d3e
000003d0: 635e 543e 215f 29be f47f 67bc 9876 e93d
000003e0: 7e74 4cbe 0a9a 5a3e 145e e6bd 8ba3 8c3e
000003f0: d031 323c 93c8 e43c b340 69be 67a1 583b
0.2722257 -0.2637819 -0.04443132 -0.041667297 0.29623875 0.044850904 -0.09188778 -0.05128119
0.21637832 0.061491985 -0.013917799 -0.13387868 0.060870286 -0.28465548 -0.101202995 0.2519357
-0.08258756 0.16222773 -0.22534318 0.054489072 -0.1940867 0.039149776 0.13865979 0.10286994
0.06014222 -0.1653659 0.22854522 -0.07077394 -0.1282996 0.17370655 -0.08501181 0.14909984
0.09117008 0.28078768 -0.25621346 0.18833163 0.06564515 -0.12335629 0.2698968 0.22636223
-0.050538357 0.1487643 -0.016919756 -0.26867658 0.09551632 0.007025812 -0.17312331 0.10503685
-0.0013755052 0.12055504 0.21314168 0.08315491 0.18512884 0.27965078 -0.13532533 -0.18766384
0.08332275 0.14843519 0.014841697 -0.28877997 -0.25129935 -0.13792102 0.0029592311 0.24800834
0.08382684 0.1742519 -0.013927197 -0.09776083 -0.1544608 -0.1589623 -0.07815235 -0.07468909
-0.25698265 -0.08515309 -0.06298256 -0.0500198 -0.07140774 -0.0054008397 0.17456114 -0.1777992
0.008156161 -0.20687012 -0.086714156 -0.23460437 -0.23865175 -0.13390343 0.037672214 -0.24673383
-0.01743753 -0.13266568 0.10610499 -0.17499399 0.20489335 0.019220764 0.12729132 -0.27711204
0.13005942 -0.13658865 0.26947042 -0.12642625 -0.13959704 -0.10847224 -0.17359161 0.020111237
0.27106118 -0.033627663 -0.076099925 0.047369584 0.26244885 0.05113106 -0.18238236 -0.15110038
-0.044655208 0.024624163 0.059556708 -0.15985027 0.29978397 0.24764766 -0.2597806 -0.030367473
-0.20458853 0.032827593 -0.27616388 -0.11954406 0.14983955 -0.054701466 -0.051424246 0.19997422
0.06388216 0.12912185 -0.03653565 0.21206254 0.094964966 -0.15533976 -0.1491663 -0.022276584
-0.05022442 -0.06353029 -0.061189745 0.08784537 -0.15512964 -0.26231217 0.0997664 -0.012133945
0.2755725 0.009156705 0.029646158 0.08559498 -0.15306312 0.118073896 -0.09270864 0.1982474
0.28136274 0.25001523 -0.28795975 -0.04552817 -0.17875007 -0.057779066 -0.04267596 -0.067014925
0.11995166 0.066015385 -0.07367608 -0.05166606 -0.028748617 0.1519526 -0.22556056 0.03823875
0.15718515 -0.23169011 -0.14358862 -0.031257264 0.088732295 -0.16314815 0.019985894 -0.13916583
-0.22955252 0.16684048 -0.24825162 -0.13375153 0.11085528 0.19454592 -0.11809686 -0.20060053
-0.21949099 0.065021574 -0.19784875 0.035533726 -0.03717817 0.12918976 0.1719697 0.17302866
-0.030101273 -0.10669807 -0.10966087 -0.21083026 0.13282573 0.03188489 0.2537337 -0.10296875
-0.049655724 0.014802751 0.24717866 -0.0324433 -0.055075366 -0.17472799 -0.012335026 0.16659822
-0.093011625 0.26219654 0.105669886 0.14226337 0.2603721 0.12737851 0.18921323 -0.24809186
-0.23869821 0.1859232 -0.1934881 -0.13470986 0.059785224 -0.13872905 -0.117226645 0.07811997
0.08013613 -0.08377514 -0.2814474 0.13458471 -0.21104072 0.10443204 0.28200772 0.18190768
-0.13489671 0.06057825 -0.00013435914 0.10626942 0.22024746 0.110778764 0.07731749 0.010970081
-0.17316467 0.12142557 -0.26552457 0.13844173 0.2073913 -0.16540195 -0.0141296275 0.11399573
-0.19966313 0.21347824 -0.11248413 0.27468523 0.010876134 0.027927672 -0.22778587 0.0033055188

actor.0.bias f4 [128]
00000000: 1111 38be 6202 7d3d ba37 8cbd 13b3 933e
00000010: 207d 8dbd 1af3 373d 778c 2cbe 919f 6bbe
00000020: e646 f2bc 25ac dc3d 20b3 e33d 89db 84be
00000030: cde6 693e 481b b23d 217f 033e 4c22 8bbe
00000040: 46ca 83be 6ae4 733e c4de 233e 28b3 f33d
00000050: 30a5 4c3e 0fc2 3bbe 7a80 923e 08f9 8a3e
00000060: 15f7 953d 0d65 99bd b280 82be a360 123e
00000070: becd 58be 0429 bfbd 8d02 6d3e 8316 053e
00000080: 39ae bf3d ef3f eebc ef82 2abd a095 62bb
00000090: b157 8a3e a880 62bd e718 55be 10f2 4d3e
000000a0: b92f 59be 95c7 3e3e 7ad6 b5bd 7db7 4cbe
000000b0: acfa 63bd fc26 c03d 17d1 3ebe 5825 4f3e
000000c0: dae3 7e3e 80ae de3c d6c0 963c 1be4 0a3e
000000d0: 2a92 07be 4611 2d3e 683d ce3d ba58 5cbe
000000e0: 0b44 4ebe bdfb 4cbe 9860 413e f3e8 7bbe
000000f0: efad 6ebc aef0 2abe 91a7 823e 316c a9bd
00000100: 2f67 46be a722 83be 8e59 9a3e 716b 61be
00000110: dfee 81be d65a 8b3e a563 32be 7b79 463e
00000120: 0de5 de3c 923c 31bd 47d3 eb3d 835d 02be
00000130: e505 033e 951d cd3d 8412 85be 172c 1e3e
00000140: 1af7 dd3d 3367 5ebe 2ede 3c3d 5db2 29be
00000150: daca 683d b888 143e 58e9 3f3e b650 2e3d
00000160: 11f2 30be 65d5 6cbe 4418 863e 3ce5 92bd
00000170: 3d95 1c3d c6a7 85bd 16db 73be 72c9 5b3e
00000180: 9267 0dbe b45f dcbd 8773 3bbe 05c5 203e
00000190: a4bb 8c3e 6a92 7b3d 8cf2 e83b 1373 f4bd
000001a0: c6d2 863e 8356 45bd 84c2 f3bd b186 763e
000001b0: 93b1 823e 69d2 043e 7e1c b33d b529 6ebe
000001c0: 33f0 123e fdb5 d33d 3af6 b23c 5ac1 233e
000001d0: f583 a03d bb3c 46bc 4e72 42be 7a46 553e
000001e0: 4054 243e 7bf4 473e 25f6 e6bd 6064 59bd
000001f0: fb48 8abe 4335 62bd daae 27be fc2a 83be
-0.1797526 0.06176985 -0.068465665 0.2884756 -0.06908631 0.044909574 -0.16850458 -0.23010089
-0.029574823 0.107750215 0.1111815 -0.25948742 0.2284195 0.0869661 0.12841465 -0.27174604
-0.2574026 0.23817602 0.16002947 0.11899406 0.19984889 -0.18335746 0.28613645 0.2714312
0.07322518 -0.07489977 -0.25488812 0.14294676 -0.21172234 -0.09333995 0.23145504 0.12996869
0.09359402 -0.02908322 -0.041628774 -0.0034574047 0.27020028 -0.055298477 -0.2081028 0.20111871
-0.21209611 0.18630822 -0.08878799 -0.1999187 -0.05565898 0.09382436 -0.18634449 0.2022909
0.24891606 0.027182817 0.018402498 0.13563578 -0.13239351 0.1690112 0.10070306 -0.21518221
-0.20143144 -0.20017906 0.18884504 -0.24600582 -0.014567836 -0.16693375 0.25518468 -0.08272589
-0.19375299 -0.25612375 0.3014645 -0.22013642 -0.25377557 0.2721774 -0.17420824 0.19382279
0.02720883 -0.043270655 0.11514907 -0.12730984 0.12795217 0.10015408 -0.2599069 0.15446506
0.108381465 -0.21719055 0.046110325 -0.16571946 0.05683408 0.14505279 0.18741357 0.04255744
-0.17279841 -0.23128279 0.26190388 -0.07172629 0.038228262 -0.06526141 -0.23814043 0.21463564
-0.1380904 -0.107604414 -0.18305789 0.15700157 0.27486908 0.06141893 0.007108992 -0.11936011
0.26332682 -0.048178207 -0.11902335 0.24074818 0.25526103 0.1297089 0.08745669 -0.23258097
0.14349441 0.10337446 0.021845926 0.15991727 0.07837669 -0.01209944 -0.18988916 0.20827666
0.16047764 0.19526856 -0.11277417 -0.05307424 -0.27008805 -0.055226576 -0.16375294 -0.25618732

actor.2.weight f4 [64, 128]
00000000: 00c4 583c e32d 4dbd 782c 96b9 fdf9 71bc
00000010: 200d b0bd 90b6 c6bc d872 8ebb 3a0d d6ba
00000020: 1b91 1ebd ce97 883d ad5d e13c b71c 9f3d
00000030: 116f abbd 7dca f83b d72c 94bd 1fa5 bebb
00000040: 06b2 243d cd29 d8b9 d104 91bd 1f6c 71bd
00000050: 7904 b9bd 80b2 56bd 2f63 103c b84b 433d
00000060: 39e4 843d 7f92 9d3d 9b6a bd3d 771a 83bd
00000070: 7c50 913d dfed f53c 62ea ae3c 9783 7dbd
00000080: a064 b4bd b8a8 a43c c96b 803d a263 a33c
00000090: 977e b8bd 99d1 9c3d a824 b43d 272d 9dbd
000000a0: 7c8c 353d a2c5 8cbc e645 113d 59ce 7c3d
000000b0: af83 4cbb a4b0 43bd 6bfb 7d3b b4ee 303c
000000c0: 662b 84bd 58e4 12bd 2d70 573d 784a 733b
000000d0: 78f0 c8bc a0cd 2e3d eaf9 adbd 0a9b aa3c
000000e0: 0ea9 0dbd 3438 97bd 1fd2 bbbc 8995 81bd
000000f0: 52b1 fc3c 2355 e3bc e316 aabd 1139 933b
00000100: 78b5 02bd 204f 0cbd 840d 99bc c3ac 2fbc
00000110: c632 43bd dcef 133c aac6 76bd b7fb 133d
00000120: a56e a43d 2796 58bd 3eaf a0bd 41c6 d8bb
00000130: a319 953d 456e 793d ca6a 8c3d aa28 08bd
00000140: 3e92 813d 2940 7c3d be4f 513d 20a8 2a3d
00000150: b963 98bd d2e7 b3bd 1143 fdbc 5a21 a33b
00000160: 76fa 3b3d 5ac2 033d fb35 973d 9e13 7abd
00000170: fdcd 53bc 19f2 7fbd b77e 313d 21b8 273d
00000180: 03d2 04bd 584f 123c addc 5e3c 94d1 433a
00000190: ff78 81bc 80eb c7bd 7ee3 8cbd a92d ea3c
000001a0: 7539 843d 5889 48bc c859 72bd 1b6f 98bb
000001b0: 678c 88bd d0db ea3b 5b01 a7bd 38da 643d
000001c0: de6e 363c fa4c 14bd 26a5 abbd e36f 04bd
000001d0: 7756 943c 4e92 ad3d c169 80bd 012a 763d
000001e0: 81c9 0bbc 8e63 953d c85c b83d 618c 15bd
000001f0: dd76 913d 241e 6ebd 88c3 c3bc 220b 80bd
00000200: 3531 ca3c 67ad 883d a0b6 99bd 39cc 75bd
00000210: bd2b 97bd 54d6 6b3d f44e b23c 8255 3b3d
00000220: 35dd 493d 6f9d 5d3d fc91 0f3d 92e1 0f3c
00000230: 37fb ab3c eb68 6bbd d666 1cbd e7bb 5b3d
00000240: 61c4 9dbd 8707 993b 1f52 513d 1a69 843d
00000250: 2dec a0bc cb0d 26bc be70 bc3d 1cb6 adbd
00000260: cdbb 55bd d19c 3f3d 919b 113d 6db0 bfbd
00000270: 6409 9abb 716b b23d a039 78bd 4eba 3d3c
00000280: 7a7b 4ebd 645e 9f3d ac3c eb3c 0592 68bd
00000290: 54fc a53d 9545 c7bc 08c1 88bd b76b 583d
000002a0: 2441 303d 375a bdbd e542 95bc e1b8 86bd
000002b0: d90d ddba 9d27 b9bd 6419 9dbd 6b20 2d3d
000002c0: f014 b23d 2ee6 97bd 9fb1 74bd 058d 81bd
000002d0: f5b9 5d3d b5b1 723d 075a 20bc 5308 11bc
000002e0: 57dc 633d 414e 33bd 0278 80bc be3f e2bc
000002f0: 4831 973d cdd1 3a3d de44 0d3d 11a4 aebc
00000300: 07ef 103d a37e 12bd caa6 413b b87f 453d
00000310: 582b 64bb 7f35 f23b 8618 87bd d39a 283d
00000320: 4481 e13c 6428 4ebd 6556 313d e5a7 10bb
00000330: 6bcb 47bc 87df 3bbd 1f7e 76bd 36df ac39
00000340: 8f8f 90bd 2240 25bc 1ca5 36bd c073 2cbb
00000350: 1cc8 87bd 7dff bbbd 531a 883d 0956 913c
00000360: e965 163d 51b8 cfbc 48be d13c 45d6 2d3c
00000370: 80fc c63d e38b 53bb 7bff 6d3c 0bdb 553d
00000380: 0cd6 b63d ea35 a13d eb99 8abd 3d09 883d
00000390: 4f3b e8bb 02ec e93c 3e45 88bd e538 373d
000003a0: 21f8 47bd b41c 8ebd 9580 18bd 948e 88bd
000003b0: cc4c a93d 40c3 80bd 3257 71bc 51b5 b53d
000003c0: 35f7 70bd ee7c 22bd 683e 76bc 45dd 893b
000003d0: 4c36 2a3c 854e b23d 275a c93c 2e8e af3d
000003e0: a751 42bd b0b3 7ebc a954 033d aad1 c2bc
000003f0: 9af6 783d 1d15 66bd 8376 3bbd af77 c23b
0.013230324 -0.05009259 -0.0002864336 -0.0147690745 -0.085962534 -0.024256974 -0.0043471865 -0.0016330846
-0.038712602 0.066695794 0.027510488 0.07769149 -0.083707936 0.007592498 -0.07235115 -0.005818024
0.04020884 -0.00041229874 -0.07080997 -0.058941003 -0.09034056 -0.052416325 0.00881271 0.047679633
0.064888425 0.076939575 0.09248849 -0.06401532 0.07095429 0.030020652 0.021351997 -0.061893072
-0.08808255 0.020099983 0.062705584 0.01994497 -0.0900852 0.07657165 0.08796054 -0.07674628
0.04432343 -0.017184082 0.03546705 0.061720226 -0.003120642 -0.04777588 0.0038754593 0.010799099
-0.0645359 -0.035862297 0.052597214 0.0037123244 -0.024528727 0.042676568 -0.08494933 0.020825882
-0.03458505 -0.07383767 -0.022927342 -0.0632735 0.030846272 -0.027750557 -0.083051465 0.004492887
-0.031911343 -0.034255147 -0.018683203 -0.010722342 -0.047655843 0.009029355 -0.060248055 0.036128726
0.08028916 -0.05287757 -0.07845925 -0.0066154306 0.072802804 0.060896177 0.06856306 -0.033241905
0.063267216 0.061584625 0.05110144 0.041664243 -0.074408956 -0.087844506 -0.030915769 0.004978341
0.045893155 0.03216777 0.07383343 -0.061053865 -0.012927529 -0.06248674 0.043333735 0.040947083
-0.032426845 0.00893005 0.013602418 0.0007469889 -0.015804766 -0.09761715 -0.06879328 0.028586226
0.064562716 -0.012239777 -0.059167653 -0.0046519167 -0.066674046 0.007167317 -0.081545554 0.055872172
0.011134831 -0.036206223 -0.08381109 -0.032333266 0.018107636 0.08475171 -0.06270171 0.06009865
-0.008531929 0.07294379 0.090020716 -0.03651083 0.071027495 -0.058134213 -0.023896948 -0.062521234
0.024681667 0.06673699 -0.07505536 -0.060009215 -0.07381389 0.057577446 0.021766163 0.045735843
0.049283225 0.05410522 0.03505133 0.0087818075 0.020993812 -0.057473104 -0.03818401 0.053645995
-0.07703472 0.004670087 0.051103707 0.06465359 -0.019643867 -0.010135124 0.09201191 -0.08482
-0.052181054 0.04678041 0.03554875 -0.093598224 -0.0047008265 0.08711899 -0.06060183 0.011580063
-0.050410725 0.077816755 0.028715454 -0.05677988 0.081047684 -0.024325171 -0.06677443 0.0528371
0.043030873 -0.09245723 -0.018220374 -0.065782316 -0.0016865089 -0.09040759 -0.076708585 0.042267244
0.086954 -0.0741695 -0.059739705 -0.063257255 0.05413242 0.059251506 -0.009787089 -0.008852082
0.055630054 -0.0437758 -0.015682224 -0.027618285 0.073824465 0.045610238 0.034489505 -0.021318467
0.035384204 -0.0357653 0.0029548877 0.048217505 -0.0034815874 0.007391631 -0.06596474 0.041163277
0.027527459 -0.05033149 0.043295283 -0.002207273 -0.012194495 -0.04586747 -0.060178872 0.00032972702
-0.07058632 -0.010086091 -0.044591054 -0.002631411 -0.06629965 -0.0917959 0.06645646 0.01774122
0.036718283 -0.025356444 0.025603428 0.010610168 0.09716129 -0.0032279424 0.014526243 0.05221085
0.08927545 0.078716114 -0.06767639 0.06642387 -0.0070871483 0.02855492 -0.06653832 0.044731993
-0.04882062 -0.069390684 -0.037232 -0.066678196 0.08266601 -0.06287241 -0.014730262 0.08872474
-0.058829505 -0.039669923 -0.015029527 0.0042072856 0.010388922 0.08706383 0.02457912 0.085720405
-0.04744115 -0.0155457705 0.03206316 -0.023781616 0.060782053 -0.05617248 -0.04576732 0.0059346776

actor.2.bias f4 [64]
00000000: 8909 9fbb 050c a9bd 77c8 c9bd 075e 7d3c
00000010: ee21 f6bc af41 c93d 0080 a93b 8fc8 04bd
00000020: 66d3 c6bc 22af 0a3d 5607 b1bd 295e 04bd
00000030: c33d 4ebb afdd b53d 4323 9cbd dab7 9f3c
00000040: 6a81 a1bb 2c3b 7e3d c3d6 09bd d5ee 5dbd
00000050: 96ee 893d 42e9 c5bc 6a97 99bd 4d3a 5f3d
00000060: f522 08bd aee5 b2bd 81f0 ff3c 6cc5 6b3c
00000070: 936b 003c 066d 3bbd c933 e93b c36d f63a
00000080: 9429 95bd 18cb 643b bb99 0d3c 4a73 64bd
00000090: 1907 073d 456f be3c a7d5 ec3c beaf 33bd
000000a0: 8fea ecbc 4149 263d ef91 563c e7fe ae3c
000000b0: e9c4 293d e584 51bd 3432 8abd db9f c03d
000000c0: a060 b13d 8d35 7dbd 4245 5f3c 7f33 4a3d
000000d0: 1b89 1fbd 2012 d43a 9372 153d 07b6 073d
000000e0: da4f 813d 0dcc 55bd e44c a0bd 7b91 8c3c
000000f0: fd58 ce3c 9ad8 6d3d 8edd 97bd a4e1 2ebd
-0.0048534316 -0.08254246 -0.09852689 0.015464312 -0.030045476 0.09826981 0.0051727295 -0.03241783
-0.024270725 0.033858426 -0.08643977 -0.03231636 -0.0031469918 0.088801734 -0.07623913 0.019496847
-0.0049287574 0.06206815 -0.03365208 -0.054182846 0.0673496 -0.024159078 -0.07499583 0.05449896
-0.033236463 -0.08735214 0.03124261 0.014390331 0.007838148 -0.04575827 0.007116769 0.0018801022
-0.07283321 0.0034911092 0.008642609 -0.05577401 0.032965753 0.023246417 0.028910471 -0.043868773
-0.02892044 0.040597204 0.013096317 0.021361781 0.041447554 -0.05115213 -0.06747857 0.0940549
0.08661008 -0.061818648 0.013627352 0.049365517 -0.038949113 0.0016179718 0.03648622 0.03313258
0.063140586 -0.05219655 -0.07827166 0.017159214 0.025188917 0.058067895 -0.07415305 -0.042695656

actor.4.weight f4 [6, 64]
00000000: 3b53 8c3c 126e f8bc 3d97 13bc 83bc ab3c
00000010: 1776 fa3c 60e4 44bd 5dd7 c73d b472 e93d
00000020: d18b d8bd 73b2 24bd 8dd3 b13d 493e bb3c
00000030: fa14 0dbd 5996 dfbd 46b6 80bc fe85 d5bd
00000040: 0a06 2bbb 1a5b c93d e06b cb3d b0c1 8f3c
00000050: c4f8 6f3d 8348 803d 6fc6 f33d 7ca3 f2bd
00000060: 7875 853d a0ca 653d 8f88 03be 948d f4bd
00000070: 969a 3e3d 1147 c0bc 0fcb b3bd ae59 f23c
00000080: 432f 8c3d e72c c6bd 805a b03d 0446 1ebd
00000090: a8ca d43d 5abf c4bd 828b a73d 19de 98bb
000000a0: 8b34 e6bd e59f 963c aedd 763d bdce 5d3d
000000b0: 8600 fbbc 6d3d b9bd 9be7 263d 3276 e13d
000000c0: 46cd 6c3d 5b29 5d3d 65e7 98bb 6563 823d
000000d0: 9f49 633d 87e1 e23c 8c29 bc3c 3eea 7ebd
000000e0: a811 e3bd cfa8 8e3d feb5 be3c 93ed 93bd
000000f0: 610c 76bd 67cf 993d 3532 0fbd c8a7 3b3d
00000100: a26e 873d 3545 cebd 0cb5 03be 5f47 033d
00000110: 482c 9fbc 5b1e f83d 2386 d83d 6459 873d
00000120: 1bc0 523d fd8d b1bc efcb 06be d214 6cbd
00000130: b037 b6bc dba1 d13d 4b22 fe3c b95b a63d
00000140: 6498 c8bd 81c0 9c3d 05fa b8bd 78a1 383a
00000150: 9310 633d 583b bfbd f855 6d3d c741 7fbd
00000160: ccc6 45bc 76d6 59bd ed52 65bd 0242 59bc
00000170: 4ce0 e63d 34a1 58bc 3e98 d03c b4f9 fc3d
00000180: e1e6 7cbc 069c 18bd 29bc eebd 6746 603d
00000190: 05f8 b7bd add8 a33d 6583 d13b b483 f5bc
000001a0: 7cce 0f3e 9758 c2bd e451 de3d 162d 39bd
000001b0: 2e54 c4bd 02d9 0c3e 7d4a d2bd 9414 a33d
000001c0: bb1b c73d cb39 ce3d a56e 933d 3ace 923d
000001d0: 3dd7 aabc 36f8 f1bd a667 8bbc 72d6 b33d
000001e0: 6cdd c53d bab4 c4bd 5867 98bd 8130 df3c
000001f0: 7edf e83d 24c6 3e3c 26b4 353b 460b 00bc
00000200: 33b0 113e afe4 f4bb 813d f43d 9764 7dbd
00000210: 4a39 c33d fc39 efbd 4623 063e 4ebc 0ebd
00000220: e3c6 6abd 3189 003e ac10 dc3d 2477 b03d
00000230: e667 0f3e 38d6 123d 559d f03d b789 833d
00000240: 556a 4bbd 7248 8e3d b8cd 023e 46f3 03bc
00000250: 301b ddbd c936 da3d 18f0 08bd fa43 61bd
00000260: 32cc 853d 35bd 803d 232e d63c 3c29 f73d
00000270: 7b4f 46bd e877 663d 2a60 82bc 32b0 01be
00000280: 9e7c 36bd b949 c03d 1fb0 e0bd e7ca 5e3d
00000290: 3a0d 8c3d 96f8 a6bd f2e1 103d 664b de3c
000002a0: 51f5 11be 9eeb 263d eae3 61bb c897 0dbb
000002b0: 5b81 ae3b 5cb8 a3bd ebcb 25bd cc24 dabd
000002c0: 1a4d 11be a070 b23c 8634 0f3d 710c 89bd
000002d0: bbb5 e43b edef 0e3d 6358 d0bd 571f 13be
000002e0: 7c76 65bd 923d c03c 8852 753d 4a56 07bd
000002f0: 8e25 f6bd ac2f b53d 1a8f 97bd 947a 093e
00000300: 2a51 f83c f774 203d fd6b fa3d 3a55 c33d
00000310: e5d5 273d b829 48bd 1124 27bd 4db9 3fbd
00000320: e460 cbbd d92d 03be e346 cbbd 0f2f 5abd
00000330: b535 d5bd d348 ebbd dfe6 52bd 61be 13bd
00000340: 0fbc 883c d059 873c 83f4 aa3a b7d4 f73d
00000350: c53b 493d 8ac8 cf3d da77 5f3d d54d b93d
00000360: d6ac 1ebd 00b4 6dbd a284 76bd aae8 92bd
00000370: b004 47bc 5cf8 5bbd 2ccc c73d 5508 f53d
00000380: 7a8d eabc d9d6 95bd d9ea 9cbd 7717 88bc
00000390: 83e6 a8bd fc8d adba f5b2 84bd 20c9 dabd
000003a0: 4252 793d 7276 76bd c020 953d 3edf 863d
000003b0: 4c11 d0bd 49ca 283d 903a 413d b30a 5cbd
000003c0: b6a7 403d 53f5 323d 63d0 d83d 495c 9e3d
000003d0: b497 eabc e517 c7bd 32e7 a33d c872 e7bc
000003e0: dcaf d4bd 6846 1c3d 08b1 01bc ab7c a63d
000003f0: c260 86bd d85f a1bc 575b 073d 5ce8 6d3d
0.017129531 -0.030325923 -0.009008226 0.020963913 0.030573888 -0.048069358 0.09757874 0.11398831
-0.10573543 -0.040209245 0.08682928 0.022856848 -0.034443833 -0.109173484 -0.015711915 -0.104259476
-0.002609613 0.09831829 0.09932685 0.017548412 0.05858685 0.062638305 0.119030826 -0.118475884
0.06516546 0.05610144 -0.12845062 -0.119410664 0.046534143 -0.023471387 -0.08778965 0.029583778
0.06844952 -0.09676533 0.086110115 -0.03864099 0.10390216 -0.0960681 0.08180906 -0.004665148
-0.112404905 0.01838679 0.060270004 0.05415224 -0.030639898 -0.09044919 0.04074822 0.11008872
0.05781295 0.053994518 -0.0046662563 0.06366614 0.055490132 0.02769543 0.02296903 -0.06223511
-0.11087352 0.069657914 0.02328014 -0.07223048 -0.0600704 0.07510262 -0.03495999 0.045814306
0.066128984 -0.10071794 -0.12862033 0.032050487 -0.019430295 0.12115165 0.105724595 0.06608847
0.051452737 -0.02167415 -0.13163732 -0.057637043 -0.02224335 0.102359496 0.031022212 0.081229635
-0.09794691 0.07653905 -0.090320624 0.00070431037 0.05543573 -0.09337491 0.057943314 -0.06231859
-0.012071323 -0.05318304 -0.055987287 -0.013260366 0.1127325 -0.013222028 0.02546322 0.123523146
-0.015435905 -0.03725817 -0.116569825 0.05475464 -0.08982853 0.08000312 0.0063938373 -0.029970028
0.14043611 -0.094895534 0.10855463 -0.045209013 -0.095863685 0.13754657 -0.10268114 0.07962909
0.09722086 0.10069617 0.07198838 0.07168241 -0.020854587 -0.118149206 -0.017017197 0.087811366
0.096613735 -0.09604783 -0.07441586 0.027244808 0.11370753 0.01164392 0.0027725785 -0.007815188
0.14227371 -0.0074735503 0.119257934 -0.061863508 0.095324114 -0.116809815 0.13099393 -0.03484755
-0.05731858 0.12552334 0.107453674 0.08616474 0.14004478 0.035848826 0.11748759 0.064227514
-0.049661953 0.069474116 0.12773788 -0.008053606 -0.10796201 0.10654981 -0.033432096 -0.054996468
0.06533088 0.062860884 0.026145047 0.12068412 -0.048415642 0.056266695 -0.015914995 -0.1266487
-0.044552438 0.093890615 -0.109710924 0.05439272 0.0683846 -0.08152883 0.03537173 0.027135562
-0.14253737 0.040752046 -0.0034468123 -0.0021605361 0.005325479 -0.07994148 -0.040477674 -0.1065155
-0.14189568 0.02178222 0.0349622 -0.06691826 0.006979672 0.03489678 -0.101731084 -0.14367424
-0.0560212 0.023466859 0.05989316 -0.033041276 -0.12018882 0.08846983 -0.07400341 0.13425666
0.03031214 0.039174046 0.122276284 0.0953774 0.04097547 -0.04886791 -0.04080588 -0.046807576
-0.0993059 -0.12810458 -0.0992563 -0.053267535 -0.104106344 -0.114884995 -0.051489707 -0.03607023
0.016691236 0.016522318 0.0013042841 0.12101119 0.049129266 0.10145672 0.05455766 0.090480484
-0.038739048 -0.05803299 -0.060185082 -0.071732834 -0.012147114 -0.05370365 0.097557396 0.1196448
-0.028631914 -0.073163696 -0.07661981 -0.016612751 -0.082470916 -0.0013241167 -0.06479446 -0.10682893
0.060869463 -0.060171552 0.07281637 0.06585549 -0.10159549 0.04120854 0.04717499 -0.05372114
0.04703494 0.04369099 0.105866216 0.07732446 -0.02863679 -0.097213544 0.080030814 -0.028252974
-0.10385105 0.038153082 -0.007915743 0.08129247 -0.06561424 -0.019699022 0.033046093 0.058082923

actor.4.bias f4 [6]
00000000: c47d ad3d 5260 d03d 8b69 cdbd ef27 103d
00000010: fd7b 6d3d d236 4d3d
0.084712535 0.10174622 -0.10029896 0.035194334 0.057979573 0.05010111

critic.0.weight f4 [128, 12]
00000000: 3962 83bc 9972 d1bd a8be 70be e42b 98be
00000010: 6e00 e23c 5c09 383e 3c47 153d 196c ef3d
00000020: 64b5 1e3e 8ab5 e03d cdd2 c4bd b620 f2bd
00000030: a63b 003e 5323 923c d33e 503d de78 853d
00000040: e875 533e 6a71 8d3d e308 b0bd d099 99be
00000050: 42ee 8e3d 220a 0e3e cfd6 04be 19bf 80be
00000060: 2ea8 c93d cbe4 fcbc aae6 3abc 3bf5 84be
00000070: 0b90 a93d 819c 5ebe 1693 a7bd c218 423d
00000080: 5293 06be 6945 853e 94a1 903c 7c70 1c3d
00000090: 38ec ee3d d312 3a3e 143d 83be b33b 08bd
000000a0: 6428 b7bd 610f a2bd 3f05 9d3e edbd dcbd
000000b0: 3f98 8dbd 283e 01be 7895 8a3e 0fa1 d4bc
000000c0: 298f 2c3d d2af 2fbe 45fa 80be 0e49 473e
000000d0: 8c8f 8d3d e0a6 b73c 03db 6d3c 077f 923d
000000e0: 6ff8 b5bd 1d9d 8e3e ad5b 44be 742f cabd
000000f0: 493c 31be 3ed9 1dbd a1a5 83be 3cff 313d
00000100: 4e21 a33e 23a1 8d3e 5156 85bc d07d d63c
00000110: 3842 5dbe 41da f73d 9ae1 86be f76b 6d3e
00000120: 2579 33bd dab4 10be e70c 583e 1d05 81be
00000130: f86a b5bd dc5f b03d 8350 66be bfcb 3dbe
00000140: 9bc9 79be 8b34 02be 0f25 113e 6e44 81be
00000150: b65d 15be cb29 973e f9c7 59be 1274 3b3e
00000160: f3ef 66be 9b3a 033e 7dd9 1e3e 87cd 753e
00000170: 19d7 5fbd f9a0 4d3e 86af 43be 30b8 36be
00000180: e088 16be bdcd 433e 2b1f 8cbc 4975 753e
00000190: 5327 083d 0eab 76be d44d 9d3e dcf5 8a3e
000001a0: adbf eebd 0fc2 2abe 18d9 6bbd 218a babd
000001b0: 1cf6 de3d 44c5 393e 886c 2fbe 0328 2dbe
000001c0: a5bd 8f3b 43de 5a3e d09c 5b3e 4e8d 8abe
000001d0: c315 823e d928 8e3e 1692 58be abc7 15be
000001e0: 1bc0 183e ec85 7ebe b61c 8d3e ad0f 4fbe
000001f0: 5a77 e43d 2143 7cbe d0c8 37bc 7fa7 023e
00000200: 8d2f 2abd 36b4 8d3e b6a6 65be 2f97 57bd
00000210: 563b 353e 189c 27be 9d85 18bd cd84 f3bb
00000220: e1b6 6cbe 4807 843e 967f 63be 3b63 4b3e
00000230: 2631 113e 6f89 6abe 345b 073e 20d6 1cbd
00000240: 9164 97be 5a6d 89bd 69dc 5d3e 7096 223b
00000250: a765 e8bc 55ad 033e 5ee7 103e 5ac3 5d3e
00000260: c71c 9dbd 9adb 8dbe ab1c 803e 903b ab3d
00000270: 2833 163e 859b 59be 1975 0fbe 3219 36be
00000280: a51b 1a3e 33ff 42be 8c49 12be 260c e43d
00000290: 35e2 81be 29e9 1bbe c0ad 53be 7303 5c3e
000002a0: 02b3 203e 689b 7fbe f326 0e3e 4912 63be
000002b0: 22d9 873e 6a29 47be fc4f f93d ac77 7e3e
000002c0: 6eaa 46be a3df 82ba 45af 05be 6f99 a9bd
000002d0: ba25 193d d311 59be 9dce 713e 2aab 51be
000002e0: cb04 183e 8c4e 75be ddcb 2ebe fa76 0cbc
000002f0: 6c61 d73d 0440 3ebe eff3 093e 011e 9e3d
00000300: d911 12be 5b1a 55bd 675b 993e 67ee 763e
00000310: 32d9 4d3e d8a4 0cbd 49a4 82be 76a2 64be
00000320: 9729 c73c b373 ac3d c841 833d 6d8f 083e
00000330: 8733 ac3d 5fbe 8cbc 6440 953e 7fa9 fa3d
00000340: 7081 113e 527a 773d d7b8 4abe 5491 8b3d
00000350: 60f5 8bbe cb3f 8b3e 2394 033e 33a6 5dbd
00000360: 91ce 9ebc 4283 31be 2d49 a73d 5a32 1e3d
00000370: a080 243e 3fc4 6cbe dac7 b53d d542 463e
00000380: d53d 8f3e 4f9a 913b e443 df3c 49ec 8c3e
00000390: b484 953e 39db c73d 00c0 00bd 04a8 053e
000003a0: 38a3 9bbd 6b61 cdbd 547a 2c3e 45c0 7d3d
000003b0: 4315 a13d b093 873e 01f8 c5bc 8bc7 1e3e
000003c0: fc29 5f3e d5a8 2a3d b33d 31be a2e7 01be
000003d0: c4fb 5fbe 043f 4d3e 69d1 4d3d 76dd 4c3d
000003e0: 0de8 98bd 21d7 91bd e74a 0fbe fa13 28bc
000003f0: baaa 933e 7a71 25be 07c1 57be 5537 173e
-0.016038047 -0.10226936 -0.2351023 -0.29720986 0.027588096 0.1797232 0.036444888 0.1169054
0.15498883 0.10972126 -0.096105196 -0.11822645 0.12522754 0.01783911 0.050841164 0.06517194
0.20650446 0.06906398 -0.08595445 -0.30000162 0.06979038 0.13871053 -0.12972568 -0.25145796
0.09846531 -0.030870816 -0.011407534 -0.25968346 0.08279427 -0.21739389 -0.08182351 0.047386892
-0.13142136 0.26029518 0.017655171 0.03819321 0.11666149 0.18171243 -0.25632536 -0.03326006
-0.08943251 -0.079130895 0.30668065 -0.10778413 -0.06913804 -0.12621367 0.2706716 -0.025955705
0.042128716 -0.17156914 -0.2519094 0.19461462 0.06912145 0.02241844 0.0145175485 0.07153135
-0.088852756 0.27854243 -0.19175597 -0.09872332 -0.17308153 -0.038537256 -0.25712302 0.0434563
0.31861347 0.27662 -0.01627651 0.026183039 -0.21607292 0.121021755 -0.26343995 0.23185717
-0.043816704 -0.1413149 0.21098672 -0.25199214 -0.08858293 0.08612034 -0.2249165 -0.18534754
-0.24393313 -0.12715356 0.14174293 -0.2524752 -0.14586529 0.29524073 -0.2126769 0.18305996
-0.22552471 0.12815325 0.15512653 0.24004184 -0.054648492 0.20080937 -0.19109926 -0.178437
-0.14700651 0.19121452 -0.017104706 0.23970522 0.033240627 -0.2408869 0.3072344 0.271407
-0.11657653 -0.1667559 -0.057580084 -0.09108377 0.108867854 0.18141657 -0.17131245 -0.16909795
0.004386621 0.21373849 0.21446538 -0.27060932 0.25407228 0.2776554 -0.21149477 -0.14626949
0.14917032 -0.24855775 0.27560967 -0.20220824 0.11155577 -0.24634983 -0.011217311 0.12759207
-0.041549254 0.27676553 -0.22426876 -0.052634414 0.17698416 -0.16368139 -0.0372368 -0.0074316026
-0.23116638 0.25786805 -0.22216639 0.19862072 0.14178905 -0.2290399 0.13218385 -0.038290143
-0.29568914 -0.0671031 0.21666111 0.0024808906 -0.028368784 0.1285909 0.1415076 0.21656552
-0.076715045 -0.27706605 0.25021872 0.0836097 0.14667952 -0.21250732 -0.14009513 -0.17783049
0.15049608 -0.19042663 -0.14285868 0.1113513 -0.25367895 -0.15225662 -0.20671749 0.21485691
0.15693286 -0.24961627 0.13882045 -0.22174944 0.26532847 -0.19449392 0.12173459 0.24850339
-0.19400951 -0.0009984862 -0.13055141 -0.08281218 0.037389494 -0.21198206 0.23613973 -0.2047545
0.14845578 -0.23955745 -0.17069955 -0.008573288 0.105166286 -0.18579108 0.1347196 0.077205665
-0.14264621 -0.052027088 0.29952547 0.24114381 0.20102385 -0.034336895 -0.25515965 -0.22327599
0.024311824 0.084205054 0.06409031 0.13335963 0.084082656 -0.01718062 0.2915069 0.1223936
0.14209533 0.060419388 -0.19797073 0.068148285 -0.27335644 0.27197108 0.12849478 -0.054113578
-0.019385608 -0.17335227 0.08168254 0.038622238 0.16064692 -0.23121737 0.08876009 0.19361432
0.27976862 0.004443444 0.027254052 0.2752402 0.29202807 0.0975861 -0.031433105 0.13052374
-0.07599491 -0.10028347 0.1684354 0.06195094 0.078653835 0.26479864 -0.024166109 0.15505807
0.2179336 0.041664917 -0.17308693 -0.12686017 -0.21873385 0.2004357 0.050248537 0.05001589
-0.07466135 -0.07121111 -0.13993417 -0.010258669 0.28841192 -0.16156569 -0.21069728 0.14767201

critic.0.bias f4 [128]
00000000: 5d36 6ebe 2fd3 d6bd 1968 293d 9347 0bbe
00000010: b19f 8d3d c4e4 663d da7e 6ebe 0f73 473e
00000020: 245b a03d e508 1d3e 7eb8 49bc db80 2c3e
00000030: 0b7b 0bbe 373d fd3c 74e9 95bd 9ca1 193b
00000040: d1bd ddbd f093 03be d1d8 253e c438 b93d
00000050: 58df 9fbc 90ad 19be d2e3 82be 02ea 963d
00000060: 85fc 373e 0778 87be 9580 733c fbf2 a03d
00000070: 7e0d 98bd 5430 c43b 8192 753e 8630 753c
00000080: 0e36 0b3e 626c ae3d 1096 013e 2830 883e
00000090: 031f febd ed4e 71be 3233 81bd 43d3 753e
000000a0: 1c7a 04be 0fee efbd d41e 87be ed63 cebd
000000b0: 5690 2b3e ccf5 37bd eda7 0c3e 1982 65be
000000c0: acb2 53be 3394 4bbe fe7b d83d 78c7 72be
000000d0: 17b7 78be 924b 7d3e 3dab 333d 0425 51be
000000e0: 6c6b 6fbe 58ed 72be 408b 333e 2711 88be
000000f0: 7547 0cbe cb91 6c3e 244c 2c3e 78bd 1bbe
00000100: 92c0 0a3d 0d06 2cbe b09f fdbd c77e 843d
00000110: da9f 6e3e 2422 14be d142 973d 6dc4 6abd
00000120: 7a3f e4bd 015e ca3d 1f79 073d b5d8 773d
00000130: 0d98 3f3e c92d f0bd c183 dfbb a71d 18be
00000140: e2df 6c3e d6fc 803e 126f b9bd ffae 65bc
00000150: f86c 8f3e 65dc db3d 8f74 e33d 79f7 aabd
00000160: 0d2d a1bc c0e6 37be f8d3 433e daac e0bd
00000170: ee96 93bd d19a 2dbe deeb a23d 713b c3bd
00000180: edef 17bd f924 7e3d 24ff d93c 4003 743e
00000190: 95da debc a88b 7a3e e89e c83d 1cd7 8d3e
000001a0: f6e9 63be 219e 543e 363a 4e3e 3a3c a43b
000001b0: c584 26be d07c 46be a20d 673e 0736 823e
000001c0: a206 2c3e fddd 48bc 50e9 45be 5167 5c3d
000001d0: e7ff 203d 10b5 93be b97d 0ebd fe42 203d
000001e0: a29e fcbd 5915 b23d ad42 62be 0e87 4cbe
000001f0: 86aa f9bd 80ed a6bd fcfa 54bd 898c a4bd
-0.23262925 -0.10489499 0.04135904 -0.13601522 0.06915224 0.05637051 -0.23290578 0.19477485
0.07829884 0.15335424 -0.012312053 0.1684603 -0.13621156 0.030912979 -0.07319918 0.0023442274
-0.1082722 -0.12849402 0.1619599 0.0904403 -0.019515678 -0.15007615 -0.25564438 0.07368852
0.17967422 -0.2645876 0.014862199 0.07858845 -0.074244484 0.0059872065 0.23981668 0.014965182
0.13594839 0.08516766 0.126549 0.2659924 -0.12408259 -0.23565264 -0.06308593 0.24006371
-0.12937206 -0.11715328 -0.26390707 -0.10077653 0.16754279 -0.044912145 0.13735934 -0.2241291
-0.20673627 -0.19880752 0.10570525 -0.23708904 -0.24288593 0.24735859 0.043864477 -0.20424277
-0.23380822 -0.23723352 0.17533588 -0.26575586 -0.13699134 0.2310249 0.1682592 -0.15208995
0.033875056 -0.16799183 -0.123839736 0.06469493 0.23303166 -0.14466149 0.07385791 -0.057316232
-0.1114492 0.09881211 0.033074494 0.060509402 0.18710347 -0.11727483 -0.006821126 -0.14855061
0.2313228 0.251929 -0.09054388 -0.014018773 0.28012824 0.10735396 0.11106216 -0.08347983
-0.019674802 -0.17959118 0.19123828 -0.10970469 -0.07206522 -0.16953589 0.07955144 -0.09532822
-0.037094045 0.06204698 0.026610918 0.23829365 -0.027203837 0.24467337 0.09795934 0.27703178
-0.22257218 0.20763446 0.20139393 0.0050120624 -0.16261585 -0.1938355 0.22563794 0.25431845
0.16799405 -0.012259957 -0.19327283 0.053809468 0.039306547 -0.28849077 -0.034787867 0.03912639
-0.12334944 0.08695478 -0.22095747 -0.19973394 -0.12190728 -0.08150768 -0.05199717 -0.080346175

critic.2.weight f4 [64, 128]
00000000: 8586 8cbd e9ad 05bb 9e8b 93bd 969b 083d
00000010: 6d32 df3c 795c ebbb 1858 8e3d dc1d 9c3d
00000020: 4a6b e5bc 0d44 c03d 822c cfbc 0155 fabd
00000030: 10a6 a0bc be73 cfbd a15e 053d 7081 2d3c
00000040: 820b 85bb 873d e83c 6250 abbd a402 2e3c
00000050: 4fee 35bd 333a b7bc 30d9 5ebc 9904 38bd
00000060: 4580 cfbd 4fb8 b93d c14e 9b3d 8fdb 64bd
00000070: f89d 5b3d 3bf5 7fbc 5440 043b f7c4 4e3d
00000080: c98f 10bd 49fa 31bd 1944 e63c f92b 0dbd
00000090: 6999 6ebd 749c 8e3d cafc 083d eec4 a73d
000000a0: a21e 103a d006 f13c fb50 d43c ae8e edbc
000000b0: 185d 3cbc 37f2 5fbd 6e72 c43d 69e3 b6bd
000000c0: 2f48 313b 2dd0 2a3d 469c 87bd 8489 ad3d
000000d0: 4892 2f3d c706 a0bc 120b 8abd cdcf ad3d
000000e0: 0f57 103d 4114 7e3c a4af bb3c 4d58 6c3c
000000f0: 63e1 243b 8af6 8d3d 81f3 68bd 468b 72bc
00000100: 1995 98bd 4a77 863c ca30 5e3d de38 053d
00000110: 2e87 89bd 57a5 873d 7dbb 04bd c942 9b3c
00000120: 4fcf cfbd 30b8 1a3d 8322 96bd 1083 293c
00000130: 1ae0 863c 7612 c0bd 9e24 5cbc a596 313d
00000140: c267 a6bd 8538 56bd 9b8b 783d 75fd 83bd
00000150: 4eee 713d 6c26 e13d 08a0 acbd 6304 c53a
00000160: 21ae 68bd 8ab9 95bb df6b 5bbd abd9 f03d
00000170: 3ca1 b03d 6299 ccbb c0de 0c3d e1ce 03bd
00000180: a7fc a7bd 02e5 aeba ab78 cebd f4b6 b3bc
00000190: 2f59 c23d 6781 0abd a505 01bd 8a7b afbd
000001a0: d920 363d 1d32 3bbd 7f1f 183d eb7f 6f3d
000001b0: 5a2b c53b d791 0b3d 0c8e d83d 8c47 723d
000001c0: bc80 a53d 168f 403d afb2 9b3d 8de2 babd
000001d0: a4a1 3d3d 07b3 c33b d47d bfbc 0da8 c63d
000001e0: 9412 21bd 2962 993d 29ae f4bd 033d 21bc
000001f0: 46c9 59bd fa0c 25bc c50a bcbd 7390 d03c
00000200: ca1d 01bd ae38 73bd a3d7 e03d 992d 04ba
00000210: f274 63bd 740f 603b 5ceb b0bc 18b9 ad3a
00000220: 2d32 b13c 88db 633d f4d8 b03d ce52 c03c
00000230: 6151 443c 5d9c 9b3d f0c2 2cbd a005 5d3d
00000240: b83c 2a3b a6c1 693d 9246 7f3d 6102 f93c
00000250: c2b1 9ebd 3d66 2b3d 67fe 563c f4ed d63b
00000260: 9cce ce3d d29c b3bd b0dc 07bc 42e2 883c
00000270: 8206 1c3d 9110 cd3d 8a09 a7bd de15 ef3c
00000280: a340 413c f4e8 e9bd 94e3 553b d545 01bd
00000290: 9837 263d 450d 343d 506c a43d db3d 203c
000002a0: 811d 1cbd 0a09 98bd 63d3 213d ceec 503d
000002b0: 08d1 6a3d 5ab6 863d 937c 2f3d c12f f13c
000002c0: fba1 c7bc 155e a13d f904 563d 7fbd 093d
000002d0: 0123 9f3d 636f e33c 8d9c 4fbd 483b c73b
000002e0: 500c f03c 3e20 2bbd 876f 57bd 184f 663d
000002f0: d6ce 89bd cffc 1b3d b0ac af3d 28ca 22bd
00000300: e79b 4fbd c90b 9abd a246 a2bd 6654 09bd
00000310: 60a1 6f3d 04bf c53b f94e ef3c c047 823d
00000320: 9ec6 8cbd 4461 053d b649 833d 116a 31bb
00000330: 1e8f 81bd de6c 3bbc 5fcb 543d 53c0 a03d
00000340: f14e ebbc 256c 6fbb 3286 d7bc 8ce4 5b3d
00000350: fa09 0d3d 066e d8bd 0e16 da3d 703f 173d
00000360: 6ca6 e3bd 4375 dabc c84d 603d e281 7dbd
00000370: 84dd 9f3d 7e62 773d 4239 f43c b75a 4abd
00000380: ddf0 42bd 3bc1 64bd b22c c93c ce75 003d
00000390: a691 d9bc 471b eb3b d410 e03d 20ea 0d3d
000003a0: 07f3 cfbd eb08 903d ee8a 1cbd f4fa 8cbd
000003b0: 738a 37bc f317 6c3d 74d9 07bd dccb f93c
000003c0: 0aae 5cb8 eae8 06bd 8fe1 b93c 1ecc a1bb
000003d0: 5247 c5bc 2c71 213d bc40 823d a3a1 e1bd
000003e0: dce1 be3d c5c0 a6bc f67d e8bb 66c2 cebd
000003f0: 4e8b 08bd 5811 b33c c44a a03d 79f5 88bd
-0.06861595 -0.0020397848 -0.07204364 0.033351503 0.027245725 -0.0071826545 0.06950396 0.07622883
-0.028005261 0.0938798 -0.025289778 -0.122232445 -0.019610435 -0.10129498 0.03256095 0.010589942
-0.0040602097 0.028349651 -0.08364941 0.010620747 -0.044416722 -0.022366619 -0.013601586 -0.04492626
-0.10131887 0.09068357 0.075833805 -0.05587345 0.053617448 -0.015622432 0.0020179944 0.05048081
-0.035293374 -0.04345158 0.028108643 -0.034465764 -0.058251772 0.06963435 0.033444203 0.08191858
0.00054977287 0.029422194 0.02591752 -0.028998699 -0.011496805 -0.054674353 0.09592138 -0.08930094
0.0027051081 0.04170244 -0.06621604 0.08473495 0.042864114 -0.019534482 -0.06740393 0.084869005
0.035239276 0.015507759 0.0229109 0.014425349 0.0025158755 0.06931789 -0.05687285 -0.014803713
-0.07450313 0.016414303 0.054245748 0.032524936 -0.067152366 0.06623333 -0.032405365 0.018952744
-0.10146963 0.03777331 -0.07330801 0.010346189 0.016464282 -0.09378521 -0.013436465 0.043356556
-0.08125259 -0.052299995 0.060680013 -0.064448275 0.059065156 0.109936565 -0.08428961 0.0015031215
-0.056806687 -0.004569237 -0.05356967 0.11760267 0.08624503 -0.0062438706 0.03439212 -0.032179717
-0.082024865 -0.0013343396 -0.10081609 -0.021937825 0.09489667 -0.033814814 -0.031499524 -0.08568485
0.04446492 -0.04570209 0.037139412 0.0584716 0.006017131 0.03407463 0.10573968 0.059150264
0.08081195 0.047011457 0.076024406 -0.091252424 0.04629673 0.0059722695 -0.02337543 0.09700022
-0.039324358 0.07489426 -0.11947281 -0.0098412065 -0.053170465 -0.010073895 -0.091817416 0.025459504
-0.03152255 -0.059380226 0.109786294 -0.0005042195 -0.05553145 0.0034188898 -0.021596603 0.0013254015
0.021630371 0.055629283 0.086351305 0.023476984 0.011982293 0.07598183 -0.042178094 0.053960443
0.0025976133 0.057069443 0.06232316 0.030396642 -0.07748748 0.04184555 0.013122178 0.006559128
0.10098001 -0.087701455 -0.008292362 0.01670945 0.038092144 0.100129254 -0.08156116 0.029185232
0.011795196 -0.114213854 0.0032636868 -0.031560738 0.040580362 0.043957967 0.080284715 0.0097803725
-0.038114075 -0.07423599 0.039508235 0.051007085 0.057328254 0.065777496 0.042843413 0.029441716
-0.02436923 0.07879273 0.052250836 0.033627983 0.07770348 0.027763074 -0.050686408 0.006080065
0.029302746 -0.041778795 -0.052596595 0.056227773 -0.06728904 0.038082894 0.085778594 -0.039743572
-0.05068579 -0.07521779 -0.079236284 -0.033527754 0.05850351 0.0060347337 0.029212462 0.063613415
-0.06873821 0.032563463 0.064105436 -0.0027071277 -0.063261256 -0.01143953 0.051951762 0.07849183
-0.028724166 -0.0036532965 -0.026309106 0.053684756 0.034433343 -0.1056786 0.10648738 0.036925733
-0.11115727 -0.026667243 0.054761678 -0.061891444 0.078059226 0.060396664 0.029812459 -0.04940292
-0.047592986 -0.05584834 0.024557445 0.031362347 -0.026558708 0.0071748826 0.1094071 0.034647107
-0.10153776 0.07032951 -0.03821843 -0.06883803 -0.011202442 0.057640027 -0.033166364 0.030492716
-5.2614174e-05 -0.032936968 0.022690563 -0.0049376627 -0.02408186 0.03941457 0.06360003 -0.11017158
0.09320423 -0.020355592 -0.007095094 -0.10095672 -0.033335976 0.021858856 0.078267604 -0.06687445

critic.2.bias f4 [64]
00000000: d0b8 883d 51fd bfbd 8ef2 8cbd a99b 913d
00000010: e78c 213d b71a 3d3c db60 933b da6f 963d
00000020: dc79 7c3d 0136 4d3d c939 a6bc 43af 123d
00000030: e035 5e3d 8e24 97bc b166 97bc b012 013b
00000040: dd6d f6bc a93c 143d f3d5 b53c d2fe 9f3c
00000050: 80aa 74bd 0342 84bd ad49 593d d073 45bd
00000060: 76ac ea3c 73a0 0a3c 73cd a7bd 9a44 97bd
00000070: d714 6fbd 5004 9b3d 49e2 40bd e99a 8c3d
00000080: 5c6d 35bd b8fd 883c dba8 f3bc 7043 003d
00000090: 56ea c63c 1851 0cbd b38a a23d de38 65bd
000000a0: 2a20 54bd 4921 773c af15 9bbd a9ca 4abd
000000b0: 76bc 8bbc 5e98 b83c 8b89 963d 5e75 67bd
000000c0: c8e7 c5bd 4e21 323c 6bf1 8f3d 192d 4fbd
000000d0: a6f7 d73c 4bf0 c63d 0193 1b3d 459c 7ebd
000000e0: 64e7 b03d 1e08 ad3d 558f 2bbd 3b65 c03d
000000f0: 1275 db3c 3fdc 60bd d940 8f3b fc0e 89bd
0.06675875 -0.09374488 -0.06882201 0.07109768 0.039441016 0.011542014 0.00449763 0.07345553
0.06163965 0.05010033 -0.020291226 0.035811674 0.054250598 -0.018450048 -0.018481584 0.0019694977
-0.030081684 0.036190663 0.022196745 0.019530687 -0.059732914 -0.06457903 0.05304878 -0.04820615
0.028646689 0.008461106 -0.08193483 -0.073861316 -0.058369484 0.07569182 -0.047090802 0.06865484
-0.044293746 0.016722545 -0.029743602 0.031314313 0.024281662 -0.034257025 0.07936611 -0.055962436
-0.051788487 0.015083619 -0.07572495 -0.049509678 -0.017057639 0.022533592 0.07350453 -0.056508414
-0.096633494 0.010872198 0.07028469 -0.050580118 0.026363205 0.09713801 0.03798199 -0.06216075
0.08637884 0.08448814 -0.04188474 0.09394308 0.026789222 -0.054897543 0.004371744 -0.06692311

critic.4.weight f4 [1, 64]
00000000: 1693 c73d b5b2 27bd 35b0 073e 0efd 013e
00000010: f896 393d bd3b d3bd b524 19be fc7f 0e3e
00000020: c033 0c3e 86c5 593d 3e4a d6bd b057 99bd
00000030: 7865 20bd f789 123e b77f dcbd 11f6 253e
00000040: 5f54 c2bd 6769 953d cf1b db3d 6c16 623d
00000050: aca7 3dbd 98f2 b8bd 5531 133d 477e bdbd
00000060: 9e24 14bd 404e 4fbd 9603 13be 1ab9 d0bd
00000070: 91c2 0ebe f36a a93d bf7a 943d 62f6 bebd
00000080: e8e9 423d 098a 80bd d019 9ebd 222a debc
00000090: 4aca b13d 1e33 f2bd 2045 b43d 8122 ce3d
000000a0: c81e 2b3d 1550 d53d 0846 c3bd 86e2 0f3e
000000b0: 7d7f 01be 671c 1b3e 40de 12be 24a4 13be
000000c0: fc59 0cbe 687c 083e 294f e0bc fd5e b2bd
000000d0: 363c 093d 9ccd d33d e565 823d 46f6 c0bd
000000e0: f089 043d febc 063e 8bec 70bd 9a2d 083e
000000f0: 1752 a9bd e5f3 14bd c8de 0d3e 4901 a9bc
0.09744851 -0.040941913 0.13250811 0.12694189 0.04530999 -0.103141285 -0.14955409 0.1391601
0.13691616 0.05316689 -0.10463379 -0.07487428 -0.03915927 0.14310442 -0.10766547 0.16207148
-0.09488749 0.072954945 0.106986634 0.055197164 -0.046302482 -0.09030646 0.03593572 -0.09252601
-0.036167733 -0.050611734 -0.14356837 -0.10191555 -0.13941409 0.08272352 0.072499745 -0.093243375
0.04758635 -0.06276328 -0.07719767 -0.0271197 0.08681162 -0.11826156 0.08802247 0.10065175
0.041777402 0.10415665 -0.09534842 0.14051256 -0.12646289 0.15147553 -0.14342594 -0.14418083
-0.13706201 0.13328707 -0.027381497 -0.08709524 0.033504687 0.10341951 0.06367091 -0.09421973
0.03235811 0.13158032 -0.058819335 0.13298646 -0.082676105 -0.03636541 0.13854516 -0.020630496

exp_avg f4 [128, 12]
00000000: 6628 32b9 7f08 97bb 2818 9c3b 2377 6cba
00000010: dbb6 203b 14db 2b3a 39b9 04b8 2cf0 283a
00000020: 95c8 bdb9 0000 0000 5f80 0d3a 29ab bcb9
00000030: 1cef c63a 658c 2bbd aa7b 263d f9b4 37bc
00000040: 1863 573c 2785 cf39 86fb bb39 3fcd c83b
00000050: 6037 8bbb 0000 0000 38ec cf3b 7b9d 8abb
00000060: f7b1 ab39 9155 e0bb cdf1 df3b bbcd 0dbb
00000070: 9467 d83a 92ac 5db9 25fc 9e38 3ead 873a
00000080: 000e 5dba 0000 0000 f07e 983a ea53 4bba
00000090: 635f 863a 1fdb 153c 4e0f 15bc 47e5 043b
000000a0: c7f5 afbb 1eec 1a3a 4a30 7a39 9790 a0ba
000000b0: d1a7 0f3a 0000 0000 3d7c 7eba 28a8 293a
000000c0: 6ba5 0cba 707a f4bb 79e6 033c 31ef 0ebb
000000d0: c1f9 413b 0a0c ae39 6f79 edb8 e068 8c3a
000000e0: ad9e 4eba 0000 0000 0d22 893a 13d8 36ba
000000f0: c5bf f83a 3c54 23bd f18a 193d 74a4 2fbc
00000100: d1ab 423c 9f8d 8f39 6092 e839 ad6b b83b
00000110: 7413 62bb 0000 0000 3b51 b93b f916 77bb
00000120: b056 fd39 8fb4 f1bc e35c e53c 9281 d7bb
00000130: d6be 353c ab55 d43a a77f 0039 1089 873b
00000140: 6b15 16bb 0000 0000 c47a 7b3b 2da7 27bb
00000150: a480 043a d018 9fbc 4272 963c bcea 93bb
00000160: c74e f83b fc8f 4d3a 18ea ff38 d2ae 343b
00000170: 0e59 d2ba 0000 0000 57a9 2c3b 1f37 e6ba
00000180: dcc6 da39 52f5 dcb7 d893 49ba aa73 6b39
00000190: 3bc1 2f3a aca8 a239 273f c738 597f bbb7
000001a0: 6ab6 3439 0000 0000 ab6b 53b8 7af2 0c38
000001b0: 5755 c438 f0f8 d6b9 d531 ad3a e1b8 96ba
000001c0: 7ab6 e5ba 0a47 8bba 171a 9d37 82aa 5b39
000001d0: 7415 2bba 0000 0000 7eb8 103a fcf5 c0b9
000001e0: 873f 1dba a75c a63c dbb8 9dbc cb56 d33b
000001f0: 87bd dbbb 775a 6fb9 6316 21b9 b393 39bb
00000200: c88e eb3a 0000 0000 b01a 40bb ca11 003b
00000210: b30e e639 3eaf 90bc 1136 8d3c e379 cbbb
00000220: 3ab6 c33b 2012 473a 49e6 0539 5b2d 263b
00000230: ef9c f4ba 0000 0000 8ed0 363b bcc0 f3ba
00000240: 6f49 f8b9 6769 c83c 8a78 c0bc 3098 b23b
00000250: 65a3 07bc 96da deba f3d1 00b9 ab16 60bb
00000260: 03e7 fb3a 0000 0000 8729 4fbb ae1b 0a3b
00000270: 05b9 9fb9 4709 c93b 48b7 afbb 87cd ee3a
00000280: 71ed 0fbb 6e41 16bb b824 cfb8 b5ac 46ba
00000290: fe25 8839 0000 0000 1382 31ba 6ead ec39
000002a0: edd9 9ab9 b7d7 0cbc 1509 173c ef1e 99ba
000002b0: 8154 043b ce86 d0b9 cc91 aeb8 020d ac3a
000002c0: d816 77ba 0000 0000 b347 9c3a 985f 50ba
000002d0: 6cfc 99ba 9260 dc3c 0696 d4bc f633 063c
000002e0: 11cd f2bb 7187 fa39 4862 90b9 ecfd 7ebb
000002f0: 6514 343b 0000 0000 bb27 88bb 4f8a 353b
00000300: 6f3e c639 1a08 003b b89a 3dbb a0bc 843a
00000310: 6d3e 1ab9 fdc3 033a e3ea b438 0d27 c8b9
00000320: 33d5 193a 0000 0000 f48d 0cba f267 bb39
00000330: bb6b c3ba 1bfa 9f3c dfb0 8fbc fc10 e53b
00000340: 3aae cfbb c3ac 563a a762 b8b9 817f 33bb
00000350: deb4 e93a 0000 0000 28f4 47bb 704d 053b
00000360: b26a 3bb9 806e 9b3b 768a 95bb 8339 943a
00000370: a96b f9ba b2c1 5bba 73a5 50b8 81e0 2cba
00000380: ee80 c439 0000 0000 7b6d 21ba a13c d739
00000390: e835 e338 9fc1 02bc 9f26 e53b b783 baba
000003a0: d7a7 9a3b 0ed9 093a 4efe e937 f17b 8d3a
000003b0: 0db3 cdb9 0000 0000 173f 6a3a 102a 1cba
000003c0: 8960 dcb8 c32f 70bb 2703 7d3b 2e2a daba
000003d0: db40 293a 1f20 c4ba 9ffa 06b8 d030 123a
000003e0: 9b71 0cba 0000 0000 4a37 363a 62f4 f2b9
000003f0: 824b b5b9 bfac 003c aeac 03bc 450d 013b
-0.00016990452 -0.004609167 0.004763622 -0.00090204383 0.0024523053 0.00065557775 -3.1643754e-05 0.000644448
-0.00036198334 0.0 0.0005397852 -0.0003598568 0.0015177461 -0.041881938 0.04064528 -0.011212581
0.013146184 0.00039581323 0.0003585482 0.006127983 -0.0042485446 0.0 0.006345298 -0.004230199
0.00032748256 -0.006846138 0.006834245 -0.0021637517 0.0016510361 -0.0002114049 7.580993e-05 0.0010351313
-0.0008432567 0.0 0.001163451 -0.00077563396 0.0010251816 0.009146481 -0.009097887 0.0020278262
-0.005369875 0.0005909818 0.00023859847 -0.0012250122 0.00054800237 0.0 -0.0009707844 0.00064718956
-0.00053652254 -0.0074608847 0.008050554 -0.002181005 0.0029598328 0.00033196836 -0.000113236594 0.0010712408
-0.0007881921 0.0 0.0010462418 -0.00069749466 0.001897805 -0.039875254 0.03748602 -0.010720361
0.011881785 0.000273806 0.00044359546 0.0056280703 -0.0034496458 0.0 0.0056554354 -0.0037702902
0.00048320508 -0.029505042 0.027998393 -0.0065767253 0.011092862 0.0016199847 0.00012254585 0.004136212
-0.002290095 0.0 0.0038372735 -0.0025581822 0.00050545693 -0.019421011 0.01836503 -0.0045140665
0.0075777504 0.0007841585 0.00012202951 0.0027570021 -0.0016048269 0.0 0.0026346052 -0.0017564035
0.00041728362 -2.634028e-05 -0.0007689572 0.00022454435 0.0006704514 0.00031024718 9.5008225e-05 -2.2351438e-05
0.00017234092 0.0 -5.0406594e-05 3.3604425e-05 9.361904e-05 -0.00041002734 0.0013213704 -0.001149919
-0.0017525696 -0.001062603 1.8728007e-05 0.00020948987 -0.0006526329 0.0 0.00055206555 -0.00036804366
-0.0005998541 0.020307852 -0.019253185 0.0064495555 -0.006705943 -0.00022826517 -0.00015362496 -0.0028316795
0.0017971629 0.0 -0.0029312782 0.0019541853 0.0004387997 -0.017661687 0.017237695 -0.0062095984
0.005972651 0.00075939484 0.00012769656 0.0025356624 -0.0018662493 0.0 0.0027895304 -0.0018596868
-0.00047356958 0.024464322 -0.023494978 0.005450271 -0.008278702 -0.00170024 -0.00012285243 -0.0034193199
0.0019218627 0.0 -0.0031610446 0.0021073627 -0.00030464694 0.006135139 -0.005362425 0.0018219211
-0.0021961594 -0.0022927183 -9.8773686e-05 -0.0007578836 0.00025968248 0.0 -0.0006771397 0.00045142643
-0.00029535536 -0.008596352 0.009218474 -0.0011682193 0.002019197 -0.0003977329 -8.324123e-05 0.0013126435
-0.0009425706 0.0 0.0011923224 -0.0007948815 -0.0011748201 0.026901517 -0.025950443 0.008191099
-0.0074096997 0.00047784628 -0.00027539046 -0.0038908673 0.0027477976 0.0 -0.004155127 0.0027700847
0.0003781202 0.001953608 -0.002893133 0.0010127015 -0.0001470984 0.0005026458 8.62682e-05 -0.00038176068
0.0005868256 0.0 -0.0005361729 0.00035744865 -0.0014909426 0.01952844 -0.017540393 0.00699055
-0.006337908 0.00081891957 -0.00035168717 -0.002738923 0.0017830392 0.0 -0.0030510519 0.0020340346
-0.00017873457 0.0047433972 -0.004563625 0.0011308644 -0.0019029278 -0.000838305 -4.974515e-05 -0.0006594733
0.00037480093 0.0 -0.00061579765 0.00041053168 0.00010834244 -0.007980733 0.0069931294 -0.0014229928
0.004719715 0.0005258479 2.7894184e-05 0.0010794384 -0.0003923405 0.0 0.0008935793 -0.00059571955
-0.000105083986 -0.0036649562 0.0038606615 -0.0016644651 0.00064565026 -0.0014963186 -3.21815e-05 0.00055767316
-0.00053575047 0.0 0.0006950988 -0.00046339916 -0.00034579268 0.007853686 -0.0080367755 0.0019691747
