policy/PPO_fail/checkpoints/2025-09-09_18-45/ppo_soarm_200.pth (torch, 258647 bytes, 33 tensors)

actor.0.weight f4 [128, 12]
000000 53 0f 8a 3e b2 d5 83 be 48 93 4d bd 10 1f 11 bd
       0.26964816 -0.25748974 -0.050189286 -0.035430014
000010 48 72 95 3e ff fc 2b 3d 13 5d c2 bd 92 8e 6a bd
       0.29188752 0.041989323 -0.09490409 -0.057264872
000020 fb 82 62 3e 05 df 7b 3d ad 03 a0 bc 86 57 03 be
       0.22120278 0.061491985 -0.019533003 -0.12826356
000030 49 ba 81 3d 53 7c 90 be 39 51 d3 bd 61 54 82 3e
       0.06334359 -0.28219852 -0.10318226 0.25455
000040 40 0f ae bd 14 2b 27 3e c0 e4 63 be 14 87 55 3d
       -0.084990025 0.16325027 -0.2225523 0.052130774
000050 29 cb 44 be 84 5b 20 3d e4 7c 0b 3e 60 ad d7 3d
       -0.19218124 0.039149776 0.1362186 0.105311155
000060 25 76 85 3d 0b f3 2c be 3e e6 6d 3e 0a 1c 98 bd
       0.06516675 -0.16889589 0.23232362 -0.07427223
000070 35 44 01 be 8e fc 34 3e 61 46 a2 bd 79 28 1c 3e
       -0.12623675 0.17674467 -0.0792358 0.15249814
000080 63 04 b4 3d 67 c3 8f 3e 7c 9c 81 be 1d b6 3d 3e
       0.08789899 0.28078768 -0.253147 0.18526502
000090 09 d2 8b 3d 8d 99 00 be 4e 4e 8b 3e a9 3e 65 3e
       0.068271704 -0.12558575 0.2720818 0.22387184
0000a0 c0 c1 4c bd 9c 95 1b 3e b4 88 64 bc 88 80 88 be
       -0.049989462 0.1519379 -0.013948608 -0.26660562
0000b0 e7 03 c0 3d c8 38 e6 3b 80 43 2f be 2a 16 d3 3d
       0.09375744 0.007025812 -0.17115593 0.10306962
0000c0 17 09 ca ba 5f d2 fc 3d af cd 57 3e d4 4b af 3d
       -0.0015414086 0.123448126 0.21074556 0.08559385
0000d0 55 73 3b 3e 5f 2b 8e 3e ef f7 0a be e8 e0 42 be
       0.18305714 0.27767465 -0.13571142 -0.19031107
0000e0 a4 e0 ad 3d 65 ff 17 3e ff 6b 4d 3c fb ac 92 be
       0.084901124 0.14843519 0.012537955 -0.286476
0000f0 24 42 7f be da 00 08 be 23 a1 f5 ba e1 b7 81 3e
       -0.24927574 -0.13281575 -0.0018740039 0.253356
000100 31 da a1 3d 2e 36 30 3e 35 7d 3e bc 20 5d d2 bd
       0.07902945 0.17208168 -0.011626531 -0.102716684
000110 fb 83 19 be 03 c7 22 be 7e 21 aa bd 71 e3 8e bd
       -0.14991753 -0.1589623 -0.083071694 -0.06976975
000120 28 b2 84 be 3e 8f 9e bd 1d 16 90 bd eb 69 2c bd
       -0.25917172 -0.07742165 -0.07035468 -0.0420932
000130 54 d0 9e bd a0 e9 12 bc f4 4f 30 3e 3c c2 3d be
       -0.07754579 -0.008966833 0.17218 -0.18531126
000140 bf 6e 74 3c c3 d5 53 be 51 a0 c0 bd 8a b7 68 be
       0.014918982 -0.20687012 -0.09405578 -0.22726265
000150 00 af 76 be 83 5a 02 be 01 5a 00 3d bb 62 75 be
       -0.24090195 -0.1272984 0.031335834 -0.23963444
000160 16 70 b7 bc 87 50 0a be ca 5e d4 3d fd c7 39 be
       -0.022392314 -0.13507281 0.10369642 -0.18142696
000170 c4 ec 57 3e dd 74 9d 3c 9b a1 f7 3d cb 9d 8a be
       0.21086413 0.019220764 0.12091371 -0.2707351
000180 01 6d 03 3e ba ff 0b be 4a da 89 3e 6d 0a 01 be
       0.1283455 -0.1367177 0.26924354 -0.12601633
000190 d0 b3 0e be 59 33 dc bd c3 a2 33 be 26 b9 a4 3c
       -0.1393578 -0.10751981 -0.17542557 0.020107817
0001a0 2e 30 8b 3e 29 bd 09 bd 3f 5e 9c bd 6f 0e 43 3d
       0.27185196 -0.033627663 -0.076351635 0.047621187
0001b0 69 e1 88 3e b8 d3 36 3d b5 e2 33 be 1a d4 21 be
       0.26734474 0.044635504 -0.1756695 -0.15803567
0001c0 ca 64 24 bd 95 90 ea 3c 23 e6 84 3d 38 21 1d be
       -0.040135182 0.028633395 0.064892076 -0.15344703
0001d0 c0 3d 96 3e 59 97 7d 3e ea d2 81 be c9 da 15 bd
       0.29343987 0.24764766 -0.25356227 -0.036585603
0001e0 41 22 53 be 4e 8b f1 3c e6 d3 8b be 4d 7a fb bd
       -0.20618536 0.029485371 -0.27310103 -0.122791864
0001f0 40 ec 1c 3e 1b 2c 57 bd bb ae 59 bd b8 01 50 3e
       0.15324497 -0.052532297 -0.05314515 0.20313156
000200 d2 09 7b 3d 85 38 04 3e 7d 81 09 bd 96 1d 56 3e
       0.061288662 0.12912185 -0.033570755 0.20909724
000210 1b 1d c3 3d b6 4f 1d be 2f 1d 1a be 0f 1c ab bc
       0.09527036 -0.15362439 -0.15050195 -0.020887403
000220 0e 07 55 bd 1e be 82 bd 4f 02 7a bd 60 ae b0 3d
       -0.05200868 -0.06383918 -0.061037358 0.086270094
000230 e0 db 1d be c8 4d 86 be 26 7f c9 3d bb 34 30 bc
       -0.15415907 -0.26231217 0.09838705 -0.010754759
000240 d7 b9 8d 3e a3 ed 1b 3b 15 8a 13 3d 5f 72 a1 3d
       0.27680847 0.0023792766 0.036020357 0.07883143
000250 a3 19 17 be b0 0f f8 3d f8 0b bb bd 9f b8 51 3e
       -0.14755873 0.12112367 -0.09133142 0.20480584
000260 0d 26 8d 3e ff 01 80 3e e9 33 90 be 01 57 54 bd
       0.27568093 0.25001523 -0.28164604 -0.051840786
000270 3e d2 33 be 44 1f 83 bd 28 4a 16 bd d7 3f 95 bd
       -0.1756067 -0.06402448 -0.036691815 -0.07287567
000280 3e 70 00 3e ed e2 8c 3d 14 81 8f bd ee ed 3a bd
       0.12542817 0.0687922 -0.070070416 -0.045637064
000290 7a 0e 0b bd 76 99 1b 3e bb 3d 61 be 49 b2 05 3d
       -0.033949353 0.1519526 -0.21996205 0.03264073
0002a0 93 94 24 3e 0c 59 6e be ab 86 11 be 56 2c 04 bd
       0.16072302 -0.23276156 -0.14211528 -0.032268845
0002b0 67 97 b8 3d a5 63 26 be ba cb c4 3c 9e 66 0d be
       0.09013253 -0.16248949 0.024022926 -0.13808677
0002c0 aa a1 6c be 3b d8 2a 3e 59 42 7d be 7b e9 09 be
       -0.23108545 0.16684048 -0.24732341 -0.13467972
0002d0 cb b9 d8 3d d7 0b 47 3e a6 48 f2 bd 9e 96 4d be
       0.10582312 0.1943811 -0.11830263 -0.20076987
0002e0 54 6e 5f be 66 4e 84 3d 08 59 50 be f3 f0 11 3d
       -0.2181943 0.06460266 -0.20346463 0.035630178
0002f0 f2 4f 17 bd 52 4a 04 3e f0 48 30 3e 50 fe 30 3e
       -0.036941476 0.12918976 0.17215323 0.17284513
000300 eb 05 04 bd 01 17 d4 bd ec d7 e7 bd d7 1d 54 be
       -0.032232206 -0.1035595 -0.11320481 -0.20714508
000310 cd 0d 05 3e 00 f5 ed 3c ce cd 80 3e 4d 72 d9 bd
       0.12993546 0.02904749 0.25157017 -0.10617504
000320 ec 2e 3c bd 3d 87 72 3c ff c9 79 3e 71 34 ef bc
       -0.045943186 0.014802751 0.24393462 -0.02919981
000330 07 e8 6b bd 31 d1 32 be b3 63 49 bc 17 6f 2a 3e
       -0.057594325 -0.17462613 -0.012291837 0.1664394
000340 c8 36 bc bd cf 39 86 3e 88 8e d2 3d bf 9a 11 3e
       -0.09190136 0.2621598 0.10281092 0.14219187
000350 1d 1d 85 3e 83 6f 02 3e f6 d7 41 3e a3 22 7e be
       0.25998774 0.12737851 0.18930039 -0.248179
000360 9b 03 73 be 71 0a 37 3e 32 38 3f be ce 11 11 be
       -0.23731844 0.17875077 -0.1867378 -0.14166948
000370 f2 ff 86 3d 6c c5 0b be 1f ca ec bd df 07 ae 3d
       0.065917864 -0.13649529 -0.11561989 0.08497595
000380 a2 36 98 3d 4d 92 ab bd fc cf 8c be 8f 3c 03 3e
       0.074322954 -0.08377514 -0.2750243 0.1281607
000390 22 b0 5c be fb fb df 3d 29 c5 8d 3e 34 ef 3f 3e
       -0.21551564 0.10936733 0.27689484 0.18743593
0003a0 04 9f 0d be 23 27 6e 3d b9 70 a4 bb df bb cf 3d
       -0.13830191 0.058142792 -0.0050183204 0.101432554
0003b0 17 a3 66 3e fa df e2 3d 73 85 94 3d 5d 2a 81 3c
       0.22523151 0.110778764 0.07252016 0.01576727
0003c0 41 90 2b be e7 33 e8 3d 26 ec 83 be ec 9c 05 3e
       -0.16754247 0.113380246 -0.25766104 0.13048142
0003d0 f2 0b 5b 3e cc 9e 27 be af a8 01 bc 88 7d f9 3d
       0.21391276 -0.1636917 -0.007913752 0.12182146
0003e0 56 b9 53 be 0a 9a 5a 3e 78 28 d7 bd 26 d6 88 3e
       -0.20676169 0.21347824 -0.10505766 0.26725882
0003f0 00 db 46 3c 3e 0b b6 3c 7d 06 64 be db 7b f3 ba
       0.012137175 0.022222158 -0.222681 -0.001857634

actor.0.bias f4 [128]
000000 1c 51 32 be 24 81 83 3d 6e 7f 92 bd 29 b1 92 3e
       -0.17413753 0.06421116 -0.071532115 0.28650787
000010 2f c5 88 bd 79 19 4c 3d df 07 25 be dc 17 65 be
       -0.06678235 0.04982898 -0.16116284 -0.22372383
000020 7e 37 f0 bc 09 f0 cf 3d 9d a0 dd 3d d2 26 84 be
       -0.029323336 0.10153205 0.1082165 -0.25810868
000030 2f 70 63 3e 62 a4 a6 3d ce 8b 02 3e 63 3a 8b be
       0.22210763 0.08136822 0.12748644 -0.27192983
000040 37 21 82 be 93 cd 73 3e c1 4a 1d 3e 57 86 fd 3d
       -0.25415966 0.23808889 0.15360548 0.12379139
000050 70 0a 45 3e 6e 03 41 be 1e 4b 92 3e f6 7f 87 3e
       0.19242263 -0.18848965 0.28572935 0.26464814
000060 ab a0 8a 3d f1 07 95 bd 4d 2d 80 be ef db 0c 3e
       0.06768926 -0.07276905 -0.25034562 0.13755773
000070 fe 09 60 be eb c0 c2 bd fd 6e 69 3e 49 ee fc 3d
       -0.21878812 -0.095094524 0.22796245 0.12350137
000080 f7 62 b4 3d 5c 62 15 bd d0 2d 0c bd 53 7c 26 bc
       0.088079385 -0.036470756 -0.034223378 -0.010161477
000090 6b 7b 88 3e d2 09 50 bd ca 9b 4e be 20 62 4d 3e
       0.2665666 -0.050790615 -0.20176616 0.20056963
0000a0 e1 26 56 be 9c f5 39 3e d8 11 c2 bd 9b 88 52 be
       -0.20913269 0.18160099 -0.0947606 -0.20559923
0000b0 14 4e 49 bd bc 6b bc 3d cd 4b 38 be a6 22 4a 3e
       -0.049146727 0.09200236 -0.17997666 0.1973978
0000c0 fa 0c 82 3e e2 a1 c5 3c e6 83 ca 3c c2 4c 10 3e
       0.25400525 0.024125043 0.024721097 0.14091781
0000d0 c8 29 06 be a1 49 30 3e d9 04 c4 3d 5b 09 5f be
       -0.13101876 0.17215587 0.09571237 -0.21780913
0000e0 91 e7 46 be ba f2 50 be 8a 3a 3b 3e 31 e4 78 be
       -0.19424273 -0.20405093 0.1828405 -0.24305798
0000f0 16 c0 4f bc 6a b3 32 be c6 cf 82 3e 86 dc a2 bd
       -0.012680074 -0.17451254 0.25549144 -0.07952218
000100 3b c3 45 be 7b 04 83 be f6 8e 97 3e da 3d 5e be
       -0.19312756 -0.25589356 0.29601258 -0.21703282
000110 b8 5c 7f be ca 0d 8a 3e 64 60 2a be c8 50 45 3e
       -0.24937713 0.26963645 -0.16638333 0.19269097
000120 a6 9c be 3c ee 2b 3d bd 43 a6 e9 3d e3 66 02 be
       0.023268055 -0.046184473 0.11408665 -0.1273456
000130 8c 98 08 3e 14 d9 c5 3d 1b 5b 82 be c9 bb 18 3e
       0.13339442 0.09660545 -0.25460133 0.14915384
000140 78 cd ce 3d be 91 57 be f7 dd 25 3d f0 c1 22 be
       0.10097784 -0.2105169 0.040494885 -0.15894294
000150 29 4b 75 3d 95 e7 12 3e f9 1c 39 3e 3a 14 46 3d
       0.05988613 0.14346154 0.18077458 0.048359133
000160 fb 19 2b be da 99 65 be 30 6d 85 3e c7 01 8e bd
       -0.1670913 -0.22421971 0.26059866 -0.06933933
000170 64 37 2c 3d a0 d6 7f bd 13 dc 74 be 57 64 56 3e
       0.042045012 -0.06246054 -0.23912077 0.20936714
000180 e4 29 07 be 63 48 e9 bd 29 02 37 be 6c 7f 26 3e
       -0.13199574 -0.1139076 -0.17871918 0.16259545
000190 1a 3d 89 3e 89 15 81 3d 2c 8a 7f 3b c7 bf 00 be
       0.2680443 0.06302936 0.003899227 -0.12573157
0001a0 30 c5 83 3e 18 11 49 bd f6 91 fa bd 2c 91 7b 3e
       0.2573638 -0.049088567 -0.12234871 0.24567097
0001b0 e4 07 85 3e 92 79 02 3e 8e 44 ad 3d a0 55 6b be
       0.25982583 0.12741688 0.084603414 -0.22981882
0001c0 18 15 0c 3e 09 1f e0 3d 29 32 9d 3c 1b 92 23 3e
       0.13679922 0.109434195 0.019188957 0.15973704
0001d0 f9 4b 9c 3d bd e3 a7 bb db 18 44 be 86 5d 53 3e
       0.07631678 -0.005123584 -0.19150107 0.20641145
0001e0 22 23 2a 3e c4 d9 41 3e 55 03 da bd fd b9 3d bd
       0.16614965 0.18930727 -0.10645167 -0.04631995
0001f0 c8 b6 89 be 3d 2d 52 bd 79 2e 28 be 1d ad 84 be
       -0.26897264 -0.051312674 -0.16423978 -0.25913325

actor.2.weight f4 [64, 128]
000000 ac fe 47 3c 15 31 54 bd 4a 9e 86 ba 27 90 73 bc
       0.012206715 -0.05180462 -0.0010270562 -0.014865912
000010 2e a0 b0 bd 29 fb d8 bc 88 c1 bc bb 52 a5 27 bb
       -0.08624302 -0.02648695 -0.0057603754 -0.0025580716
000020 fa 98 21 bd 56 4b 8a 3d 8a b3 e5 3c b7 ff 9c 3d
       -0.03945253 0.067526504 0.028039712 0.07665961
000030 f4 8f a9 bd 91 e5 eb 3b 0f 0f 9a bd f1 a6 83 bb
       -0.0827941 0.0071989973 -0.075224034 -0.0040177037
000040 20 03 21 3d 84 74 2f bb 68 79 8f bd e0 5a 70 bd
       0.03930962 -0.002677233 -0.07005578 -0.058680415
000050 07 9d b7 bd bd 2a 55 bd cc 40 f5 3b 8c a9 46 3d
       -0.089654975 -0.05204271 0.007484531 0.048501536
000060 16 9e 85 3d b2 6b a0 3d 80 ab bb 3d 66 eb 80 bd
       0.06524293 0.07833041 0.091635704 -0.06294899
000070 89 ce 92 3d e1 aa fd 3c 86 f6 bd 3c dd 68 7c bd
       0.071683 0.03096527 0.02318884 -0.061623443
000080 5f 90 b2 bd c3 c3 a3 3c 88 e6 7c 3d 05 ea a9 3c
       -0.08718943 0.019990807 0.06174329 0.020741472
000090 66 16 b7 bd 23 75 9b 3d bd 77 b2 3d c9 6f 97 bd
       -0.08939819 0.075907014 0.087142445 -0.07394368
0000a0 ef 32 32 3d 17 a5 8b bc aa eb 12 3d 18 09 7f 3d
       0.043505605 -0.017046494 0.035869278 0.06226453
0000b0 41 b9 81 bb 0c b1 3b bd b6 19 2e 3b d6 3c 3a 3c
       -0.0039588516 -0.045823142 0.0026565618 0.0113670435
0000c0 ad 37 87 bd d0 c2 0f bd c0 53 52 3d 9b 75 50 3b
       -0.06602416 -0.035097897 0.0513494 0.003180838
0000d0 34 8f ce bc 92 76 25 3d 7e d6 ab bd a8 06 b2 3c
       -0.025214769 0.04039628 -0.083905205 0.02173169
0000e0 63 7b 0d bd c3 f6 94 bd 8d f4 c0 bc f0 fc 82 bd
       -0.0345415 -0.072736286 -0.02355411 -0.063959
0000f0 25 e5 ef 3c a5 17 dc bc c3 90 a6 bd 23 1b 85 3b
       0.02928407 -0.026866743 -0.0813308 0.004062073
000100 22 cc 05 bd 43 cb 11 bd 5c 8f 92 bc 85 f2 1b bc
       -0.03266538 -0.035594236 -0.017890625 -0.00951827
000110 e3 18 47 bd ae 80 2e 3c ea af 79 bd 98 ca 0d 3d
       -0.04860772 0.010650797 -0.06095878 0.034617037
000120 30 3b a6 3d 30 1b 5a bd 55 78 9e bd 4d de bf bb
       0.08116758 -0.053248584 -0.07737795 -0.0058553577
000130 b4 03 94 3d 5a 45 7c 3d b8 4b 8a 3d 3a f6 0b bd
       0.07227269 0.061589576 0.067527235 -0.034170367
000140 7b 19 86 3d 86 64 79 3d de b0 53 3d f3 30 28 3d
       0.06547829 0.060886882 0.051682346 0.041062307
000150 d9 ba 97 bd 15 49 b7 bd 98 a7 f3 bc 9a 64 7d 3b
       -0.07408685 -0.08949486 -0.029743 0.00386647
000160 10 82 37 3d a3 04 02 3d a7 0f 9a 3d b4 17 7d bd
       0.04480177 0.031742703 0.07522517 -0.061790183
000170 9e 22 5d bc 9b d1 81 bd 50 1f 34 3d 05 9b 2b 3d
       -0.013497023 -0.06338807 0.043975174 0.041895885
000180 40 96 08 bd f8 a4 1f 3c 76 36 54 3c 5a 9a 67 b9
       -0.033346415 0.009743921 0.012952438 -0.00022087377
000190 18 b4 7a bc 89 80 c1 bd 04 3c 88 bd 81 80 f0 3c
       -0.015301727 -0.09448344 -0.06652072 0.02935815
0001a0 14 b5 81 3d 55 79 3c bc 48 d3 6e bd 53 33 81 bb
       0.06333366 -0.011503537 -0.058306962 -0.003942886
0001b0 42 42 8b bd f7 58 fb 3b 08 dd a7 bd 89 b2 5e 3d
       -0.06799747 0.0076705175 -0.08196455 0.054369483
0001c0 2d 7b 43 3c 63 c8 1b bd 7a ef a9 bd 0d 4b 08 bd
       0.011931223 -0.0380329 -0.0829763 -0.0332747
0001d0 d4 c5 9a 3c dc 89 ac 3d 84 db 81 bd 4f 26 75 3d
       0.01889316 0.08424732 -0.063406974 0.059850987
0001e0 30 de 20 bc e6 11 97 3d 7f 41 b6 3d e9 a3 18 bd
       -0.009818599 0.07376461 0.08899211 -0.037265692
0001f0 3c 52 8f 3d c6 ae 75 bd 13 e0 a7 bc e7 e0 80 bd
       0.06998107 -0.05998113 -0.02049259 -0.06292897
000200 78 5d b0 3c 66 4f 84 3d fb 00 a0 bd 75 91 76 bd
       0.021528944 0.064604566 -0.07812687 -0.060197312
000210 d3 3b 9e bd 86 3d 65 3d 49 d7 99 3c 4d 2c 2e 3d
       -0.07726254 0.055966876 0.018779414 0.042522717
000220 99 e3 3c 3d 40 20 6b 3d ac 8a 1c 3d f5 1b bd 3b
       0.04611549 0.057403803 0.038218185 0.005771155
000230 4a e3 c8 3c b0 72 5f bd ae b0 21 bd 50 b9 65 3d
       0.024522442 -0.054552734 -0.039475136 0.05608493
000240 c2 48 a4 bd b9 5b ea 3b af 3d 5e 3d 7d 3e 87 3d
       -0.0802169 0.0071520475 0.054258045 0.066037156
000250 ed 00 87 bc c5 5d e5 bb 89 40 b6 3d ca 21 a7 bd
       -0.016479934 -0.0069997036 0.08899028 -0.081607416
000260 2a ae 47 bd 1f a5 4b 3d fe 1b 05 3d 67 00 b9 bd
       -0.04875008 0.04971802 0.0324974 -0.0903328
000270 d9 16 c0 ba 1a 80 ab 3d ad 06 74 bd 75 60 74 3c
       -0.0014655247 0.08374043 -0.05957668 0.014915575
000280 c3 ae 41 bd 86 16 a7 3d 35 1a d1 3c 35 78 5b bd
       -0.047285806 0.08158593 0.025525192 -0.053581435
000290 65 41 ac 3d da 22 e1 bc 88 59 8f bd 1e 56 63 3d
       0.084109105 -0.027482439 -0.069994986 0.05550205
0002a0 18 3c 23 3d 6e bb b5 bd 62 d0 79 bc 2e 5d 7f bd
       0.03985223 -0.0887364 -0.015247436 -0.062344722
0002b0 76 87 a0 bb 06 6d b3 bd 89 c8 a2 bd 9f 60 3b 3d
       -0.0048989607 -0.08761029 -0.07948405 0.045746442
0002c0 7c ab ac 3d 18 5b 91 bd 36 12 82 bd 9d aa 88 bd
       0.084311455 -0.07097453 -0.0635113 -0.06673167
0002d0 e3 ce 50 3d 38 49 7e 3d f9 61 d9 bb 79 b4 e9 bb
       0.050978553 0.062081546 -0.0066339937 -0.0071321097
0002e0 64 ce 58 3d 98 d3 28 bd f5 41 3f bc e1 50 fc bc
       0.052931204 -0.041217417 -0.01167344 -0.030800285
0002f0 e6 9d 95 3d 68 fb 47 3d 60 e6 18 3d a6 50 c9 bc
       0.07305507 0.048823744 0.037329078 -0.024574589
000300 20 b0 03 3d 06 97 1d bd c4 9e c8 3b 60 7c 50 3d
       0.032150388 -0.038474105 0.006122442 0.050899863
000310 6a 8a d3 bb d9 13 21 3c ea 9e 8d bd d5 01 1e 3d
       -0.006455709 0.009831392 -0.06915076 0.038575966
000320 d9 25 f9 3c 74 bd 42 bd f9 5e 27 3d 51 dc be bb
       0.030413555 -0.047543958 0.040862057 -0.0058246036
000330 e2 cb 7f bc 8b 7c 2e bd c6 9b 81 bd f7 ea e8 ba
       -0.015612574 -0.042599242 -0.063285396 -0.001777022
000340 26 ad 8d bd c6 4b 5d bc 7e 11 29 bd de ce cc bb
       -0.06917791 -0.013506835 -0.041276447 -0.0062502464
000350 97 e3 81 bd 3d 64 b5 bd 46 af 8e 3d 94 a1 70 3c
       -0.063422374 -0.088570096 0.069670245 0.014686961
000360 83 10 09 3d 7d e8 ed bc fc db c6 3c 59 9b f3 3b
       0.033463012 -0.029041523 0.024274819 0.0074342904
000370 c1 1b c0 3d 60 3c d3 bb 0a 58 90 3c 84 00 63 3d
       0.09380294 -0.0064464062 0.017620105 0.055420414
000380 df 51 b0 3d ce 15 a8 3d 34 24 91 bd 1d 5a 81 3d
       0.08609366 0.08207284 -0.07086983 0.06316016
000390 30 1c 80 bb 24 e8 dc 3c ed 41 85 bd 53 2c 44 3d
       -0.00390961 0.026966162 -0.06506715 0.047893833
0003a0 3b 18 52 bd 62 06 8b bd 0e 85 0b bd 59 5e 82 bd
       -0.05129264 -0.06788327 -0.034062438 -0.06365652
0003b0 04 d3 a4 3d 7a d0 72 bd 0a 77 71 bc 3a 2d b0 3d
       0.080480605 -0.05928085 -0.014737854 0.08602376
0003c0 ed b2 63 bd ec 76 2d bd 77 69 3f bc 94 12 89 3a
       -0.05559056 -0.04234974 -0.01168286 0.0010457807
0003d0 9e e3 5e 3c 56 11 ac 3d 27 8c ae 3c 20 9e a9 3d
       0.013604073 0.08401744 0.021307064 0.08282113
0003e0 01 42 4f bd 5f 4f 4a bc 3f 26 ed 3c c4 65 dd bc
       -0.050600056 -0.012348025 0.028948901 -0.027026065
0003f0 ed 77 6d 3d 3d 43 71 bd db 22 3b bd 0e 93 1d 3b
       0.0579757 -0.058902014 -0.045687538 0.002404395

actor.2.bias f4 [64]
000000 7e 38 85 bb 90 9a a2 bd cd a0 bf bd 2c cb 2d 3c
       -0.0040655723 -0.07939637 -0.09356842 0.010607522
000010 37 83 dc bc be b8 bd 3d 5a 8f a5 3b 59 ac 16 bd
       -0.026918037 0.092637524 0.005052489 -0.036785457
000020 9b ad cb bc 73 1c 1e 3d ff 09 a8 bd 5a 9e da bc
       -0.024863055 0.03860135 -0.082050316 -0.026686836
000030 3c ce 18 3b 4c 6c b5 3d 0e b3 95 bd b6 aa ac 3c
       0.0023316285 0.088585466 -0.073095426 0.021077495
000040 f9 82 19 bb f3 8e 76 3d 90 bb f5 bc 9b 7d 66 bd
       -0.0023424013 0.06019492 -0.029996663 -0.05627213
000050 91 47 7a 3d 45 bd ae bc c8 ff a4 bd ca dd 67 3d
       0.061103407 -0.021330485 -0.08056599 0.056608
000060 95 d5 fb bc 52 60 ad bd e6 6d 0e 3d 46 52 a4 3c
       -0.030741492 -0.08465637 0.034772776 0.020058762
000070 3b 30 b3 3a 6e b1 2a bd d4 83 d9 3b 9a e7 a6 bb
       0.001367099 -0.041673116 0.0066380296 -0.005093527
000080 96 a1 9a bd 41 53 0e 3c b3 c9 12 3c e6 ee 63 bd
       -0.07550351 0.008686841 0.008959222 -0.055647753
000090 fc 36 18 3d 02 6a ab 3c bc 66 f2 3c 23 cf 2c bd
       0.037161812 0.020924572 0.029590003 -0.04218973
0000a0 a4 0c 0c bd c4 66 36 3d e8 d4 12 3c c5 17 b7 3c
       -0.034191743 0.0445316 0.008961894 0.022350201
0000b0 e6 c4 40 3d 9e 18 66 bd 0e 49 85 bd 70 76 b6 3d
       0.047062777 -0.05617582 -0.06508075 0.08909309
0000c0 53 24 a7 3d ad 58 88 bd fc 81 3a 3c 3b eb 31 3d
       0.08161225 -0.066575386 0.01138353 0.043437224
0000d0 c1 cb 1a bd 18 05 b1 3b 59 b1 0a 3d 95 82 e4 3c
       -0.03779197 0.0054022186 0.03386054 0.027894298
0000e0 fa 81 7f 3d 56 58 48 bd 84 80 99 bd 7f 0c 69 3c
       0.062379815 -0.04891237 -0.074952155 0.014224171
0000f0 d3 6e a3 3c 73 54 75 3d f9 c5 9d bd 3a 60 21 bd
       0.019950306 0.05989499 -0.07703776 -0.03939841

actor.4.weight f4 [6, 64]
000000 20 1a a4 3c 60 e9 d5 bc 4d 4b c6 bb 87 42 92 3c
       0.020031989 -0.026112258 -0.006051457 0.017853988
000010 23 f7 09 3d e8 32 51 bd 7f 98 cc 3d 42 c9 e2 3d
       0.033682954 -0.05107394 0.09990024 0.11073543
000020 86 ae de bd c7 2c 16 bd 94 0c b7 3d b7 ee d3 3c
       -0.108731315 -0.036663797 0.08937946 0.025870664
000030 c5 81 fe bc 49 3d e3 bd 6c be 4a bc eb eb df bd
       -0.031067738 -0.110956736 -0.012374502 -0.1093367
000040 5f ed a0 3a dd 92 c3 3d dd c7 d1 3d ac ba 9e 3c
       0.0012277773 0.09549496 0.10243199 0.019376121
000050 c5 3e 63 3d 38 6c 86 3d ea 29 ed 3d 01 6c e8 bd
       0.055479784 0.0656361 0.1158026 -0.11348725
000060 61 96 8b 3d f1 d7 71 3d a4 05 ff bd e4 68 ed bd
       0.06815792 0.05904383 -0.12452248 -0.11592272
000070 11 61 30 3d 93 4a a3 bc 57 3b b8 bd bc e7 d6 3c
       0.04306132 -0.01993302 -0.08995693 0.026233546
000080 26 88 85 3d 71 8f bf bd 2a b6 a7 3d 23 0d 18 bd
       0.06520109 -0.09353531 0.08189042 -0.037121903
000090 cd b2 d6 3d 22 0a cb bd 0f 52 a1 3d fc 6e 95 ba
       0.10483322 -0.09914042 0.078769796 -0.0011400874
0000a0 ed ae ec bd b3 41 b0 3c 76 e0 69 3d 50 e9 6a 3d
       -0.11556802 0.021515703 0.05709883 0.05735141
0000b0 4c 98 dc bc 8e f6 bf bd f1 8a 26 3d 17 ed da 3d
       -0.02692809 -0.093731984 0.04065985 0.106897525
0000c0 8c e8 60 3d 56 d6 4e 3d 7a 71 00 bc 2c 23 77 3d
       0.054909274 0.050497375 -0.007839555 0.060336277
0000d0 7c 2e 68 3d f8 af ff 3c 21 e2 a5 3c 3d cb 85 bd
       0.056684956 0.031211838 0.020249428 -0.06532905
0000e0 f6 00 e9 bd 6c a9 95 3d 19 ac d7 3c b0 d7 91 bd
       -0.113771364 0.07307705 0.02632718 -0.07121217
0000f0 96 fc 81 bd 01 4d a5 3d 35 00 1c bd 1b 92 48 3d
       -0.06347005 0.08071328 -0.038086135 0.048967462
000100 8d 50 94 3d 74 2a c0 bd 24 ca f9 bd 1f 80 ce 3c
       0.07241926 -0.09383097 -0.121967584 0.025207577
000110 62 43 55 bc 3d 2e ea 3d 78 c5 e5 3d 6b 14 72 3d
       -0.013016554 0.114346005 0.11219305 0.059101503
000120 67 1f 38 3d 7c d3 6c bc 53 8b fd bd a3 33 51 bd
       0.044951823 -0.014454719 -0.123800896 -0.051074635
000130 4b e6 7b bc 2c d4 cc 3d 65 d1 19 3d 51 34 9f 3d
       -0.01537473 0.10001406 0.03755321 0.077736504
000140 5a dc b9 bd b1 7d 90 3d 3a 68 ab bd b9 3a 0b 3b
       -0.09075232 0.07055224 -0.08369489 0.0021244718
000150 d4 1e 45 3d 78 d4 b1 bd 01 55 50 3d a6 fe 67 bd
       0.048125103 -0.08683103 0.050862316 -0.056639336
000160 81 31 b9 bb ac 7c 3f bd fc c6 4b bd cc 63 bd bb
       -0.0056516533 -0.046749756 -0.049750313 -0.005779719
000170 94 aa d7 3d 1c fd c8 bb 01 47 e9 3c 3b 72 ee 3d
       0.10530582 -0.0061336886 0.02847624 0.116428815
000180 c7 3b b7 bc 0a 09 f9 bc e4 c0 f7 bd 8e 7e 77 3d
       -0.022367371 -0.030399818 -0.12097338 0.060423426
000190 8f 3a ae bd 19 fd 96 3d af 0a 98 38 12 5c c1 bc
       -0.08507263 0.07372493 7.249915e-05 -0.023603473
0001a0 76 a2 08 3e c5 b7 b4 bd 4c 50 ce 3d cc a4 1e bd
       0.13343224 -0.08824114 0.10073909 -0.03873138
0001b0 04 b7 b3 bd 33 71 05 3e 3d f6 ce bd d3 3e 94 3d
       -0.08775142 0.13031463 -0.1010556 0.07238545
0001c0 32 f7 b9 3d af a3 bd 3d 79 14 86 3d 8f 93 84 3d
       0.09080352 0.09259736 0.065468736 0.06473457
0001d0 e3 0c 80 bc 6f 64 e3 bd a0 34 c2 bc d7 01 a6 3d
       -0.015631145 -0.111031406 -0.023706734 0.0810582
0001e0 62 4f b9 3d aa 9f b6 bd ff 5d 8a bd 49 72 fb 3c
       0.09048344 -0.08917172 -0.067562096 0.030694144
0001f0 35 2b da 3d 1a 23 8d 3c 01 90 7e bb 78 2f ba ba
       0.10652772 0.017228652 -0.0038843157 -0.0014204821
000200 32 f0 0b 3e bf 31 61 bc 8d 0a e9 3d db 95 65 bd
       0.13665846 -0.013744771 0.113789655 -0.056051116
000210 15 d3 b7 3d 5c 4d e3 bd b5 30 00 3e 53 68 ed bc
       0.089758076 -0.110987395 0.1251858 -0.02898041
000220 90 33 54 bd 9c 80 f3 3d 4c bd d0 3d e9 ff a4 3d
       -0.051806986 0.11889765 0.101923555 0.080566235
000230 86 3d 09 3e 6d b3 29 3d 62 91 e4 3d ed 9d 86 3d
       0.13402376 0.04143088 0.11160542 0.06573091
000240 da 98 60 bd f0 81 97 3d ef b2 f9 3d ec 03 c4 bb
       -0.05483327 0.073978305 0.12192332 -0.005981913
000250 3e 50 d0 bd 52 d3 ce 3d 8d 03 ef bc b6 fd 6c bd
       -0.10171555 0.100989 -0.029176498 -0.057859145
000260 15 41 75 3d c6 79 6a 3d e6 ad b0 3c 0b e6 e8 3d
       0.05987652 0.05724504 0.021567296 0.11372002
000270 d4 f5 2c bd dd 03 51 3d a8 72 86 bc 44 d5 f6 bd
       -0.042226627 0.051029075 -0.016412094 -0.12052396
000280 55 26 20 bd b5 39 b4 3d 34 b4 dc bd 82 39 4a 3d
       -0.039099056 0.08800069 -0.107765585 0.04937125
000290 0a 07 85 3d c8 cb 9a bd 95 a2 25 3d 3c 08 b1 3c
       0.06495483 -0.075583994 0.040438253 0.021610372
0002a0 27 1e 0c be 84 79 0f 3d 15 1c 84 3a 2b 61 fe bb
       -0.13683377 0.035027996 0.001007917 -0.007763048
0002b0 72 c4 c0 b9 b7 5c 97 bd d2 d6 2f bd ab 84 cd bd
       -0.00036767457 -0.07390731 -0.042929478 -0.1003507
0002c0 9a c4 0b be 2e b7 e7 3c 25 61 25 3d 5a 47 7a bd
       -0.13649216 0.02828559 0.040375847 -0.061103202
0002d0 3a be 5a 3b e4 5a eb 3c bf 32 c4 bd b4 4b 0d be
       0.0033377544 0.028729863 -0.095799915 -0.1379841
0002e0 b5 8f 4f bd 32 a7 86 3c fb 54 5d 3d d2 db 10 bd
       -0.05067416 0.016437147 0.05403612 -0.035365887
0002f0 20 54 ea bd 05 59 aa 3d 2f cf 8b bd 26 f3 03 3e
       -0.11441827 0.083177604 -0.068266265 0.12885723
000300 15 ef 02 3d 4f ae 29 3d 54 cb fd 3d c1 e8 bf 3d
       0.031966288 0.041426 0.123922974 0.09370566
000310 fb ac 2e 3d 95 7a 4f bd a2 19 21 bd 47 9f 46 bd
       0.042645436 -0.050654013 -0.039331086 -0.048491742
000320 ae a9 ce bd a4 7d 01 be eb 12 c8 bd 75 92 53 bd
       -0.100909576 -0.12645584 -0.09769233 -0.051653344
000330 b2 a2 d1 bd 03 49 f0 bd c3 14 4c bd b6 7e 1b bd
       -0.1023611 -0.11732676 -0.049824487 -0.037962638
000340 03 da 9c 3c 26 cb 6f 3c f6 30 39 3b 67 5f f9 3d
       0.019146925 0.014635837 0.0028257943 0.121764
000350 a4 de 40 3d 2f 51 d3 3d 03 57 59 3d 81 b0 bc 3d
       0.047087327 0.10318219 0.053061496 0.09213353
000360 46 f1 17 bd 62 f6 66 bd 8b aa 74 bd 38 6e 8e bd
       -0.03709533 -0.056387313 -0.059732955 -0.06954616
000370 d9 fb 63 bc 09 f3 54 bd 5d f7 c6 3d 5a b7 f1 3d
       -0.013915026 -0.05198959 0.097151496 0.1180255
000380 11 e5 f6 bc 7e 5e 92 bd 18 0c 9e bd 8e 14 80 bc
       -0.030138524 -0.07146929 -0.077171504 -0.015634801
000390 a9 03 a6 bd 80 17 31 bb 1c f6 87 bd df 93 d7 bd
       -0.08106167 -0.0027022064 -0.066387385 -0.10526251
0003a0 c9 e0 71 3d dc 80 6f bd ac f1 91 3d 39 bf 89 3d
       0.059052262 -0.0584725 0.071261734 0.06725926
0003b0 6c 56 cc bd 3f 26 22 3d f1 e0 43 3d 0a f7 62 bd
       -0.09977421 0.039587256 0.047821943 -0.055411376
0003c0 69 11 3a 3d 8d c8 29 3d 33 bc d5 3d d5 ca 9a 3d
       0.04542676 0.041451026 0.10436287 0.075582184
0003d0 a2 a2 df bc 63 fa c3 bd 23 67 a1 3d fe 2c f5 bc
       -0.027299229 -0.09569242 0.07881 -0.02992868
0003e0 9b e5 d7 bd 76 61 23 3d b9 00 c9 bb fa 2a aa 3d
       -0.10541841 0.039887868 -0.0061341194 0.083089784
0003f0 15 25 8a bd b1 a0 86 bc 3a 24 00 3d 6d b2 74 3d
       -0.06745354 -0.016434046 0.03128455 0.059740473

actor.4.bias f4 [6]
000000 88 16 a8 3d 49 14 c4 3d 2c fc c2 bd 50 b6 09 3d
       0.082074225 0.095741816 -0.09520754 0.033621132
000010 50 b2 70 3d bb 5e 46 3d
       0.058763802 0.048430186

critic.0.weight f4 [128, 12]
000000 7e 85 8a bb f7 db c6 bd 43 5e 74 be 05 ea 8e be
       -0.0042273393 -0.09709924 -0.23864083 -0.27912918
000010 4a 24 4a 3d d1 77 34 3e 08 ff 4c 3d dc 32 df 3d
       0.049351014 0.17623831 0.050047904 0.108983725
000020 a7 f1 2c 3e 8a b5 e0 3d ce a0 df bd ba 52 d7 bd
       0.16889058 0.10972126 -0.10919343 -0.10513826
000030 7a cc e9 3d bf c1 64 3c c6 a6 5a 3d 7f 5b 4a 3d
       0.11415954 0.013962208 0.053381704 0.049403664
000040 01 a9 3e 3e 7d 42 95 3d 62 5a ca bd 5b 41 96 be
       0.18619157 0.07288072 -0.098805204 -0.29346737
000050 18 9b 69 3d 22 0a 0e 3e c3 3b f2 bd 9f 9b 86 be
       0.057032675 0.13871053 -0.11827805 -0.26290604
000060 e4 f3 de 3d 91 74 d0 bc 8a 45 7c bc ee ce 78 be
       0.10886362 -0.025446208 -0.015397439 -0.24297687
000070 d2 d4 cf 3d bb 73 61 be f8 b2 8e bd ac 66 22 3d
       0.10148014 -0.22016804 -0.06967729 0.039648697
000080 a2 72 f3 bd 69 45 85 3e e1 e4 b7 3b b6 c4 4d 3d
       -0.11887099 0.26029518 0.0056120013 0.050236426
000090 07 e7 dc 3d 9c c5 2e 3e 59 ed 7c be 68 b2 58 bd
       0.107862525 0.1706757 -0.24699916 -0.052904516
0000a0 0c 13 d3 bd 55 01 9e bd 97 97 97 3e 7a 14 c3 bd
       -0.10306367 -0.07715098 0.2960784 -0.0952539
0000b0 eb 74 ab bd 28 3e 01 be cd 76 92 3e a9 5a 29 bd
       -0.0837191 -0.12621367 0.28606263 -0.041346226
0000c0 77 1f f7 3c 78 18 33 be f9 e5 7f be 30 0f 36 3e
       0.03016637 -0.17489803 -0.24990071 0.17779231
0000d0 1e ee 3f 3d 3f 8f d4 3c 89 09 54 3a 85 35 9f 3d
       0.046857946 0.025947211 0.0008088579 0.0777388
0000e0 1f 8e d1 bd 1d 9d 8e 3e b7 59 38 be 72 33 e2 bd
       -0.102321856 0.27854243 -0.18002973 -0.11044969
0000f0 d9 87 3c be 3f 35 2e bd c9 48 82 be 19 25 db 3c
       -0.18411197 -0.04253125 -0.25446156 0.026751088
000100 ff 8e 98 3e c7 34 8f 3e fc 71 ed bc 82 91 06 3d
       0.29796597 0.27969953 -0.028985016 0.03285361
000110 3f 52 6a be 41 da f7 3d dd e5 80 be aa 74 61 3e
       -0.22882937 0.121021755 -0.25175372 0.2201716
000120 34 42 09 bd b1 8e 09 be 78 8e 52 3e ac 8c 6d be
       -0.0335104 -0.13433339 0.2056216 -0.23198193
000130 f9 db 8b bd 0a 05 a9 3d cf 6a 59 be 47 9c 47 be
       -0.06829066 0.08252914 -0.2123215 -0.19493209
000140 ef 84 6a be 8b 34 02 be 88 3a 02 3e 60 9e 73 be
       -0.22902273 -0.12715356 0.1271764 -0.23790884
000150 c1 fa 1c be 69 e3 8d 3e 66 33 49 be 55 23 21 3e
       -0.1533003 0.27712563 -0.19648513 0.15736134
000160 3d 82 70 be a9 00 05 3e 78 6e 15 3e dc 92 84 3e
       -0.23487182 0.12988533 0.14592922 0.25893295
000170 11 68 97 bd f9 a0 4d 3e 99 4f 2e be 18 18 4c be
       -0.07392896 0.20080937 -0.17022552 -0.19931066
000180 05 ae 20 be c7 f0 3c 3e ca ec 43 bc 4e 88 63 3e
       -0.15691383 0.18451224 -0.01195831 0.22219965
000190 9a 7d 81 3c 02 ec 73 be 21 52 97 3e d1 79 8f 3e
       0.015806962 -0.23820499 0.29554847 0.28022626
0001a0 88 70 04 be 0f c2 2a be 62 a1 37 bd 12 a6 d4 bd
       -0.12933552 -0.1667559 -0.04483164 -0.10383238
0001b0 fd af ca 3d 43 94 2e 3e 48 ef 25 be e5 c0 42 be
       0.09896848 0.17048745 -0.1620456 -0.19018896
0001c0 0d 04 44 bc 9a 95 5d 3e e5 91 4f 3e 48 ea 83 be
       -0.011963856 0.216391 0.20270498 -0.2576468
0001d0 8f 56 73 3e d9 28 8e 3e 6e 7a 47 be 4d df 26 be
       0.23763488 0.2776554 -0.19480297 -0.1629612
0001e0 5a 5c 1f 3e cb ef 6d be e3 c0 85 3e 8c 74 37 be
       0.15562573 -0.23236005 0.26123723 -0.17915553
0001f0 45 47 f5 3d ad b9 7d be ac 2f 4a bb 7a fb e2 3d
       0.11976484 -0.24777861 -0.0030851169 0.110831216
000200 89 33 cb bc 36 b4 8d 3e 08 68 78 be 01 92 0c bd
       -0.024804847 0.27676553 -0.24258435 -0.034318928
000210 71 1c 40 3e 79 1d 23 be 87 cd 24 bd e3 44 0a 3c
       0.1876085 -0.15929212 -0.04023507 0.008439275
000220 81 ae 58 be e0 6b 82 3e 7f d7 56 be 24 5c 44 3e
       -0.21160318 0.25472927 -0.20980643 0.19175774
000230 ce c1 1d 3e 6f 89 6a be 9a 3e f7 3d 2e ce db bc
       0.15405962 -0.2290399 0.12072487 -0.026831713
000240 f5 68 92 be 19 6e 6f bd 68 a9 56 3e 96 4f ae 3c
       -0.285957 -0.058454607 0.20963061 0.021278184
000250 7f ca 4b bc 8e 47 01 3e 88 d6 1c 3e ad f4 52 3e
       -0.012438416 0.12624952 0.15316212 0.20601149
000260 83 ad 80 bd 9a db 8d be c5 c8 71 3e ad 1c c8 3d
       -0.06283095 -0.27706605 0.23611744 0.097710945
000270 92 1c 20 3e 01 60 52 be c2 14 15 be 94 6a 24 be
       0.15635899 -0.20544435 -0.145587 -0.16056281
000280 20 68 2b 3e 3a 24 45 be 8f a9 06 be 3e 9b d1 3d
       0.1673894 -0.192521 -0.13150619 0.10234688
000290 a6 03 77 be 29 e9 1b be 9a ac 60 be 4d 02 69 3e
       -0.24122486 -0.15225662 -0.21940842 0.22754784
0002a0 4e 7d 27 3e 48 79 6d be 02 16 fc 3d 8c e4 49 be
       0.16356394 -0.23190796 0.12308885 -0.1971609
0002b0 c5 0b 8c 3e c8 c1 48 be f3 2a 05 3e 69 c6 6b 3e
       0.2735273 -0.19605172 0.13004665 0.23024906
0002c0 32 26 34 be a3 df 82 ba 88 03 1a be a6 f0 80 bd
       -0.17592695 -0.0009984862 -0.1504041 -0.062959
0002d0 08 bc 38 3d 25 19 4a be 28 a8 64 3e 2c 73 3a be
       0.045101196 -0.19736154 0.22329772 -0.18207997
0002e0 37 fe 22 3e 35 f5 76 be 95 0f 25 be 91 30 c6 bc
       0.15917288 -0.24116977 -0.16119225 -0.02419308
0002f0 f5 4d f9 3d 04 40 3e be 85 66 ef 3d 3d 9f c2 3d
       0.12173072 -0.18579108 0.11689476 0.095030285
000300 e4 ab 09 be 8e d1 24 bd f4 16 94 3e 30 99 85 3e
       -0.13444477 -0.04023891 0.28923762 0.26093435
000310 46 75 5b 3e ce 8b 14 bd c9 0e 7b be b2 3d 72 be
       0.21431455 -0.03626614 -0.24517359 -0.23656347
000320 82 31 23 3d b3 73 ac 3d cd ae 44 3d 9e 04 19 3e
       0.039842136 0.084205054 0.048018266 0.14943168
000330 24 a6 bc 3d 7f 3d 96 bb c5 24 8f 3e 9c 4c 17 3e
       0.09211376 -0.0045849676 0.2795774 0.14775318
000340 c6 3f 27 3e d5 15 62 3d fa 98 40 be 11 79 57 3d
       0.16332921 0.055196602 -0.18808356 0.052605692
000350 92 f8 7f be cb 3f 8b 3e 5a 34 dc 3d ba be 07 bd
       -0.24997166 0.27197108 0.10752173 -0.033140875
000360 48 7d 2c bc d1 ec 29 be 48 3e 9b 3d 32 d3 60 3d
       -0.010527916 -0.16594245 0.075802386 0.05488891
000370 01 c0 33 3e 3a 6d 6e be d9 4f cb 3d b6 08 3d 3e
       0.17553712 -0.23283854 0.09927339 0.18460354
000380 29 2c 95 3e 4f 9a 91 3b 5d ad 78 3c 05 1b 93 3e
       0.29135254 0.004443444 0.015178052 0.28731552
000390 72 fb 8f 3e b3 2e bb 3d 92 b4 db bc a2 e6 e7 3d
       0.28121525 0.091397665 -0.026819501 0.113232866
0003a0 5b be c0 bd 1c fa c7 bd 34 76 1f 3e f6 11 90 3d
       -0.094113074 -0.097645015 0.15572435 0.07034676
0003b0 c8 08 87 3d b0 93 87 3e 70 f6 3e bc e4 f7 11 3e
       0.06593472 0.26479864 -0.011655435 0.14254719
0003c0 8d 72 56 3e 8a 8e 05 3d c5 87 29 be 32 e6 13 be
       0.20942135 0.03260664 -0.16555698 -0.14443281
0003d0 bd 3d 6e be 82 eb 4e 3e 63 dd 23 3d 41 12 78 3d
       -0.23265739 0.20207027 0.040006053 0.060564283
0003e0 f3 2c b3 bd 21 d7 91 bd e6 91 01 be d3 d2 c1 bc
       -0.08748808 -0.07121111 -0.12653312 -0.0236601
0003f0 16 b4 8c 3e 11 56 29 be c8 5d 55 be c3 00 06 3e
       0.27481145 -0.16536738 -0.20836556 0.13086228

critic.0.bias f4 [128]
000000 3e cf 60 be fc 44 ee bd 5b bc 5a 3d 09 0a 1b be
       -0.21954057 -0.116342515 0.053402286 -0.15140547
000010 4a 37 6b 3d 4b 07 37 3d 41 94 5f be 17 13 32 3e
       0.057425775 0.04468469 -0.21833898 0.17390095
000020 2e 3f 86 3d 3b f1 0b 3e da b9 c4 3b ba 3c 38 3e
       0.06555019 0.13666241 0.0060036005 0.17991915
000030 f6 14 fa bd 1b 9a 32 3d 35 81 5a bd 7a 39 a5 3c
       -0.12211029 0.043603998 -0.053345878 0.020169009
000040 76 d3 bc bd 9c 33 dc bd 8a 36 32 3e 98 99 9f 3d
       -0.092200205 -0.10752031 0.17403618 0.077929676
000050 3a d4 06 bd 77 6f 26 be 6c 8c 76 be 0d 86 bf 3d
       -0.03291724 -0.16253458 -0.24077004 0.0935174
000060 2e 4f 43 3e 50 4c 8f be 35 ba 29 3b 60 1f bd 3d
       0.19073173 -0.2798791 0.0025898342 0.092345
000070 15 cd a8 bd 27 94 9a 3c 5b c4 69 3e dd 17 01 bb
       -0.08242241 0.018869473 0.2282881 -0.0019698062
000080 b6 d0 fa 3d 83 4f 99 3d a1 f7 0d 3e 9d fe 82 3e
       0.1224684 0.07485869 0.13863994 0.2558488
000090 d3 10 11 be 50 51 6f be f6 10 4e bd 4e 06 66 3e
       -0.14166574 -0.23370862 -0.050309144 0.22463343
0000a0 7a cc 10 be 34 12 07 be 16 ab 8d be d6 fa a8 bd
       -0.14140502 -0.13190538 -0.2766959 -0.08250968
0000b0 f4 86 20 3e 98 9b 16 bd 22 24 01 3e de 21 58 be
       0.1567648 -0.03676948 0.1261144 -0.2110667
0000c0 2c d0 5e be 6f 45 3f be 6c 67 bb 3d f3 1c 7f be
       -0.21759099 -0.1867883 0.091505855 -0.24913387
0000d0 09 6a 69 be 53 e4 83 3e 9c 0e e5 3c 93 00 5a be
       -0.22794355 0.25760135 0.027961068 -0.21289282
0000e0 3f 34 7b be e7 e4 7a be 24 73 27 3e c2 0a 8f be
       -0.24531649 -0.24501382 0.16352516 -0.27937895
0000f0 bb cc 18 be 2a 2d 55 3e d1 7c 3e 3e dd 9c 28 be
       -0.14921848 0.2081801 0.18602301 -0.16466089
000100 5f c7 41 3d d4 1b 1b be 3a 36 0a be 90 97 9b 3d
       0.047309276 -0.15147334 -0.13497248 0.07597268
000110 e4 40 7a 3e 25 65 20 be 93 8e ae 3d f5 c7 56 bd
       0.24438816 -0.15663584 0.085232876 -0.052436788
000120 fc 20 cb bd 4c a5 ac 3d ab 52 44 3d a4 18 95 3d
       -0.09918401 0.084299654 0.0479304 0.072800905
000130 1c ba 42 3e 16 62 dc bd 63 9f cd bc cd de 08 be
       0.19016308 -0.10760896 -0.025100416 -0.13366242
000140 2a 5a 77 3e c2 4d 87 3e 71 49 a0 bd a0 16 fa bc
       0.24155489 0.26426512 -0.07826508 -0.030528367
000150 ec 75 87 3e 1f 78 be 3d be 65 fb 3d 69 1c c7 bd
       0.26457155 0.09300255 0.12275265 -0.09722216
000160 79 76 01 bd 85 0d 4a be d4 cc 31 3e 76 0c fa bd
       -0.031607125 -0.1973172 0.17363292 -0.12209408
000170 a2 a6 aa bd 9d 55 1c be a1 55 bb 3d 83 e7 a6 bd
       -0.08332564 -0.15267034 0.09147192 -0.08149626
000180 64 e8 d3 bc 4f aa 9d 3d 06 eb 1e 3d 93 f7 64 3e
       -0.025867648 0.076984994 0.038798355 0.22360067
000190 7f 52 25 bd 36 e5 62 3e d7 a0 e5 3d c8 1d 94 3e
       -0.040361878 0.2215775 0.112123184 0.2892897
0001a0 30 c8 71 be 7e 68 43 3e 03 b1 5b 3e f6 da c9 bb
       -0.23611522 0.1908283 0.21454243 -0.0061601354
0001b0 4b 5d 2d be cd 28 52 be 64 78 5b 3e 34 0a 78 3e
       -0.1693012 -0.20523377 0.21432644 0.24222642
0001c0 44 a4 24 3e 3c eb d5 3b 06 5b 36 be 94 1b 7f 3d
       0.16078287 0.0065282863 -0.1780816 0.06228216
0001d0 59 07 56 3d 74 92 8b be 4c 3c 4d bd 21 b4 c5 3c
       0.0522531 -0.27260172 -0.05010633 0.024133744
0001e0 77 27 e3 bd ea 7c 92 3d 17 25 57 be c6 f7 57 be
       -0.11091512 0.07152732 -0.21010242 -0.21090612
0001f0 c3 21 e0 bd 9c 9b 8a bd 3f 71 28 bd 24 3c 87 bd
       -0.109439395 -0.067679614 -0.041123625 -0.06603268

critic.2.weight f4 [64, 128]
000000 0e 69 4a bd cf 2f 40 bc 32 d3 89 bd 05 be 0d 3d
       -0.049416594 -0.011730148 -0.067297354 0.034605045
000010 6e 15 8c 3c 9e f3 83 bc 70 0a a0 3d 89 dd 8e 3d
       0.017100062 -0.016107377 0.07814491 0.06975848
000020 f8 5c 0f bd 70 b4 b4 3d 8c f8 a1 bc ec 2d eb bd
       -0.03500077 0.08823478 -0.019771837 -0.11483368
000030 da 18 4e bc 9c 12 d3 bd 80 39 1b 3d 5c cc 80 3c
       -0.012579167 -0.10306284 0.037896633 0.015722446
000040 57 6d c0 bb 12 b7 00 3d 95 83 c8 bd 1e 8e 15 3b
       -0.0058724093 0.03142459 -0.09790722 0.0022820304
000050 f4 16 1e bd 40 84 f6 bc dc 51 0d bc 30 e8 29 bd
       -0.03859611 -0.030092359 -0.008625474 -0.041481197
000060 69 3a c1 bd 38 77 b6 3d a5 c7 95 3d 53 62 60 bd
       -0.09434969 0.08909458 0.0731347 -0.05478127
000070 da 83 51 3d e4 d9 a6 3b 64 2c fe bb 42 4f 50 3d
       0.051151134 0.0050918926 -0.0077567566 0.050856836
000080 82 d9 2f bd 43 a8 6d bd e5 35 d9 3c d6 3d 6e bd
       -0.04293204 -0.058021795 0.026514957 -0.05816444
000090 7b f7 81 bd e4 cd 9b 3d b8 27 15 3d b6 f5 96 3d
       -0.06346031 0.0760763 0.036414832 0.073710844
0000a0 7f 80 88 bb 1f 0e 0d 3d 72 f4 bc 3c 75 ba bb bc
       -0.0041657086 0.034437295 0.02306578 -0.022916058
0000b0 20 4a 01 bd cf f7 c7 bc b0 18 a3 3d 56 6a a1 bd
       -0.03156483 -0.024410157 0.07963693 -0.0788161
0000c0 52 ff 0a bb e7 75 7b 3d ca 15 96 bd 29 47 ac 3d
       -0.0021209312 0.061391737 -0.07328375 0.0841201
0000d0 73 43 50 3d 49 46 c2 bc 75 35 92 bd e5 73 cf 3d
       0.050845575 -0.023715155 -0.07139102 0.10129527
0000e0 e3 67 c8 3c 27 ef f6 3c ee 88 71 3c ec ec b9 3c
       0.0244636 0.030143334 0.014742119 0.022695981
0000f0 45 f8 2f bc 00 aa 89 3d 28 32 63 bd 5d 27 a5 bc
       -0.010740344 0.06721878 -0.055467755 -0.020160371
000100 9e d6 8b bd ba d9 ad 3c e8 e2 15 3d 9d b2 57 3d
       -0.06828044 0.021221984 0.036593348 0.052660573
000110 c8 c7 75 bd ff a5 71 3d 31 48 b2 bc 77 d0 d2 3c
       -0.06000498 0.058996197 -0.02176294 0.02573417
000120 34 27 c2 bd 8d 94 24 3d 50 6e 8f bd de 86 ab 3c
       -0.09480134 0.04018073 -0.07003462 0.020938333
000130 a4 89 33 bb 94 3e b2 bd 34 64 a5 bc 79 b0 44 3d
       -0.0027395273 -0.08703342 -0.020189382 0.04801986
000140 dd 79 af bd 33 28 48 bd 3d b8 8f 3d 59 07 88 bd
       -0.085681655 -0.048866462 0.070175625 -0.066420265
000150 cc f9 5a 3d 20 6d d0 3d b1 31 8b bd 3a 5a 7c bb
       0.05346088 0.10177064 -0.06796587 -0.0038505928
000160 97 d8 9a bd 4f 32 c3 bb e3 cc 6f bd 13 89 db 3d
       -0.075608425 -0.005956925 -0.058545005 0.10719504
000170 0a c5 a4 3d 12 84 a4 b9 f0 ed 2e 3d 56 fe f9 bc
       0.08045395 -0.00031378918 0.042707384 -0.030516785
000180 6c 8c a2 bd 8e 53 83 3b f2 26 c1 bd 0e a4 f5 bc
       -0.079369396 0.004007763 -0.09431256 -0.029985454
000190 80 a9 ac 3d e4 cf 1c bd 19 aa e1 bc d8 6f be bd
       0.08430767 -0.038284197 -0.02754693 -0.09298676
0001a0 bb cb 22 3d 07 53 42 bd d6 82 ef 3c 3c f5 20 3d
       0.039745074 -0.047442462 0.029237192 0.039296374
0001b0 86 76 c5 3c 81 89 12 3d 47 97 ba 3d ce 1d eb 3c
       0.024104368 0.035775665 0.09110885 0.028700735
0001c0 fc b4 8b 3d 53 9a 4c 3d 1f e0 a2 3d bc 0f d1 bd
       0.068216294 0.049951863 0.07952904 -0.10208079
0001d0 1c 25 4b 3d ff 6c 55 3c 69 fe 94 bc 73 0b b3 3d
       0.049595937 0.013026475 -0.018187718 0.08742418
0001e0 3f 9c 0e bd e6 83 8d 3d 83 26 c9 bd 2d 86 b6 bb
       -0.034816977 0.06909923 -0.09821799 -0.005570194
0001f0 0b 24 35 bd 84 d7 85 bb 04 c1 c7 bd 1f cc f6 3c
       -0.044223826 -0.0040845294 -0.09753612 0.03012663
000200 53 69 4c bd 65 b4 41 bd b5 69 db 3d 80 9e 91 bb
       -0.049905133 -0.04729118 0.107135214 -0.0044439435
000210 4d ca 3f bd f1 dd 31 3c cc f9 e9 bc 49 e9 c1 3b
       -0.04682379 0.010856138 -0.028561495 0.0059177023
000220 d1 1e da 3c 4d 9b 72 3d 00 a6 a9 3d 7b 0a 8a 3c
       0.026626023 0.059230138 0.08283615 0.0168507
000230 4d e3 e2 3b 02 81 a4 3d eb 73 3a bd dc 9e 50 3d
       0.006924069 0.08032419 -0.045520704 0.05093275
000240 8e 18 e5 3b b2 cb 65 3d ed 96 a2 3d 8d ab 15 3d
       0.0069914525 0.056102462 0.07938943 0.036540557
000250 4a 36 b0 bd 6b 53 54 3d 46 f2 26 3c 57 6a ad 3b
       -0.08604105 0.051837366 0.010189598 0.0052922177
000260 ab cb c0 3d ca 05 b5 bd 26 b2 05 bc 0d 4b 91 3c
       0.094138466 -0.08838995 -0.00816015 0.017735982
000270 c1 39 21 3d 0b ca a1 3d 6b 9c 96 bd 37 f4 d6 3c
       0.03936172 0.07899865 -0.07354053 0.026239498
000280 1e 9d 8e 3c bf dc cd bd 30 8f f1 3b 1f b3 dd bb
       0.017408904 -0.100518696 0.0073718056 -0.0067657377
000290 ce a4 32 3d 4e 75 21 3d d5 d4 a3 3d 82 4f 84 3c
       0.0436142 0.03941851 0.07999579 0.016151194
0002a0 6b 3e 12 bd 0a ae a7 bd 39 41 22 3d da fa 3f 3d
       -0.035704058 -0.08187492 0.039612982 0.04687009
0002b0 58 d6 9c 3d 3e 87 07 3d e0 8f 6d 3d da 2e a3 3c
       0.0765807 0.03308796 0.057998538 0.019919802
0002c0 22 ff 8d bc c8 bc 74 3d 65 63 6b 3d 68 ec 01 3d
       -0.01733357 0.05975035 0.057467837 0.031719595
0002d0 b3 7c 92 3d 65 b8 05 3d aa 55 48 bd 1d 32 52 bc
       0.07152691 0.032646555 -0.04890982 -0.012829331
0002e0 3a c3 1b 3d 1c 28 6e bd 1d 37 3d bd b5 56 39 3d
       0.03802798 -0.05814372 -0.04619514 0.045248706
0002f0 88 96 62 bd a2 e3 1b 3d d8 ae b1 3d 9d ac 17 bd
       -0.05531934 0.038058884 0.08675927 -0.03702985
000300 aa 2c 5f bd e3 cc 9f bd cd 0b 82 bd e3 dd 53 bd
       -0.054485954 -0.07802751 -0.06349907 -0.05172528
000310 af 21 5a 3d c6 59 66 3c 8e 2e a5 3c c7 ac 6b 3d
       0.05325478 0.01405949 0.0201638 0.05753782
000320 8f c9 95 bd 7f 53 e2 3c aa 45 81 3d a5 60 38 bc
       -0.07313835 0.027627705 0.063121155 -0.011253511
000330 65 89 28 bd 83 74 86 bc c4 8f 68 3d a8 af 9b 3d
       -0.041146655 -0.016412979 0.05677773 0.07601863
000340 b9 6e d3 bc 4c dc 93 bb 2e 29 0b bd 2e 70 5a 3d
       -0.025809633 -0.0045123454 -0.03397482 0.05332964
000350 c4 39 1b 3d c7 66 cb bd 2d 7d b3 3d 29 83 22 3d
       0.037896886 -0.099317126 0.0876411 0.039675865
000360 73 67 bb bd f5 a9 e2 bc 14 0c 6c 3d 1c e4 5a bd
       -0.09150591 -0.027668932 0.057628706 -0.0534402
000370 d6 49 b0 3d 1a 53 67 3d 6a 88 c5 3c 18 ff 45 bd
       0.08607833 0.056475736 0.024112899 -0.04833898
000380 d6 6d 45 bd 72 58 72 bd 97 8d a8 3c e9 85 19 3d
       -0.04820045 -0.05916638 0.020575328 0.037481222
000390 60 a1 96 bc 0d a8 1d 3c a9 7b dc 3d d9 c5 35 3d
       -0.018387496 0.009622586 0.10765774 0.044378135
0003a0 ca 2f cb bd f2 f0 8e 3d a5 1d e1 bc 81 17 4e bd
       -0.099212244 0.069795504 -0.027479956 -0.050315384
0003b0 1c 55 fd bc 01 08 5b 3d 76 54 a3 bc 54 a6 7d 3d
       -0.030924372 0.05347443 -0.019937735 0.0619262
0003c0 c8 4d 34 3c f3 89 09 bd 1b 2a ad 3c 49 69 0e 3c
       0.011004873 -0.033578824 0.021138242 0.008692094
0003d0 55 f0 ca bc 0b 09 0c 3d cc 31 64 3d 1d 0a d2 bd
       -0.024772802 0.03418831 0.055711553 -0.10255835
0003e0 d6 be b9 3d b1 83 89 bc 7e 4d e0 bc bf 78 dc bd
       0.09069602 -0.016786428 -0.027380701 -0.10765218
0003f0 d0 95 25 bd 92 1f 94 3c 1f 69 b0 3d d5 fc 8d bd
       -0.040426075 0.01808146 0.086138 -0.069329895

critic.2.bias f4 [64]
000000 a3 ca 69 3d 9a 04 af bd 31 cf a2 bd d2 f6 74 3d
       0.057078015 -0.085457996 -0.07949675 0.0598057
000010 ae 30 d8 3c c1 ce b5 3c 91 ce 91 3c a9 41 7d 3d
       0.0263904 0.022193315 0.017798694 0.061830197
000020 81 ab 55 3d a4 47 1b 3d fb 55 45 bc 0a ae 44 3d
       0.052165512 0.03791012 -0.012044425 0.04801754
000030 aa c2 83 3d aa b2 fe bc 28 bc c2 bb dc 52 09 bc
       0.064336136 -0.031091053 -0.00594284 -0.008381572
000040 0e 8b 8e bc 6a fb bd 3c f5 d1 47 3c ee 12 45 3c
       -0.01740029 0.023191173 0.012196054 0.012028439
000050 64 79 5b bd f8 80 63 bd bc f5 28 3d 90 b4 23 bd
       -0.053582564 -0.055542916 0.041249976 -0.03996712
000060 81 a6 25 3d 8b dd 8e 3c 09 f3 92 bd 54 de 7a bd
       0.040441994 0.017439624 -0.071752615 -0.061247185
000070 cd fc 4e bd 80 da 88 3d 28 f1 70 bd f8 7c 9f 3d
       -0.05053406 0.066823006 -0.058823735 0.07787508
000080 b9 62 5d bd ee 65 dc 3c ae 4a 89 bc da 60 3e 3d
       -0.054049227 0.026904073 -0.016759243 0.046479084
000090 90 ae 67 3c 5d 6a ca bc 0b 96 8d 3d c9 a8 8c bd
       0.01414074 -0.024708921 0.06913384 -0.06868131
0000a0 1e 9c 7e bd 2e ae 12 3b 67 9b 88 bd 08 43 7c bd
       -0.062160604 0.0022381651 -0.06670266 -0.061587363
0000b0 f7 ca f6 bb 41 4e 2e 3c 08 9e ac 3d a7 26 47 bd
       -0.0075315195 0.010638774 0.084285796 -0.048620846
0000c0 12 9d a9 bd 10 63 26 bb 59 03 9f 3d 62 17 27 bd
       -0.08281912 -0.0025388636 0.077643104 -0.040793784
0000d0 34 be 4e 3c 09 72 ab 3d b7 da d0 3c a0 33 61 bd
       0.01261859 0.0837136 0.025494916 -0.054980874
0000e0 92 de 98 3d 5a 99 94 3d 8f e6 0e bd 84 e0 a5 3d
       0.07464327 0.07255812 -0.034887847 0.080994636
0000f0 12 72 22 3d 46 be 28 bd a8 93 c4 bb f6 91 64 bd
       0.039659567 -0.041197084 -0.0059990473 -0.05580326

critic.4.weight f4 [1, 64]
000000 aa eb bd 3d 23 62 10 bd 08 3b 04 3e 2e 0c fb 3d
       0.09273465 -0.03524984 0.12913144 0.122581825
000010 a9 b1 25 3d 79 77 cb bd d6 d0 14 be dc a9 09 3e
       0.040452633 -0.09934897 -0.1453279 0.13443702
000020 a9 fb 05 3e 92 c4 48 3d aa 9f c8 bd 9a 35 91 bd
       0.13084282 0.04901559 -0.097960785 -0.07090302
000030 e8 66 06 bd 1e 74 0e 3e 0a f9 d4 bd 91 51 20 3e
       -0.032812983 0.13911483 -0.10399063 0.15656115
000040 db 2c bc bd 1c 18 8f 3d 3c c4 cf 3d ac f9 46 3d
       -0.09188243 0.069870204 0.101448506 0.04857795
000050 9f 3d 1b bd 27 8f ad bd 8f a4 fe 3c 5e bc b1 bd
       -0.037900563 -0.0847457 0.031084327 -0.08678506
000060 d5 95 ff bc 7b 58 4b bd d6 11 0d be 89 22 c8 bd
       -0.031199375 -0.04964493 -0.13776335 -0.09772212
000070 44 e0 07 be 0d 52 9d 3d 7e 34 8b 3d a2 ea b3 bd
       -0.13269144 0.076816656 0.067971215 -0.08784987
000080 f9 f8 29 3d 7c a0 6a bd 3e 65 93 bd bc 34 c0 bc
       0.041497204 -0.057281956 -0.07197045 -0.023462646
000090 64 81 a6 3d 9d 0d e8 bd c2 73 a8 3d 92 39 c5 3d
       0.08130148 -0.113307215 0.08225204 0.09630121
0000a0 b1 a7 13 3d 4e c2 cc 3d d8 ca be bd 85 96 0a 3e
       0.036048595 0.09997998 -0.09316033 0.13533981
0000b0 0e 4e f7 bd ea 27 18 3e 66 b8 0e be 62 b2 0c be
       -0.120754346 0.14858976 -0.1393753 -0.13739923
0000c0 11 d8 07 be 18 07 05 3e 41 90 86 bc 56 5b a7 bd
       -0.13266017 0.12990987 -0.016426207 -0.08171718
0000d0 d8 b4 e8 3c 18 f9 c9 3d 4c 0a 7e 3d 1d eb b1 bd
       0.028406546 0.09861964 0.06202154 -0.086874224
0000e0 b0 db dd 3c fd ab 01 3e 8f 2d 4d bd 2c d5 02 3e
       0.027082294 0.12663265 -0.050092276 0.12776631
0000f0 78 89 a1 bd 0b 94 02 bd fb 53 09 3e 12 80 74 bc
       -0.07887548 -0.031879466 0.13410942 -0.0149231125
