policy/PPO/checkpoints/2025-10-04_08-08/ppo_soarm_1000.pth (torch, 895437 bytes, 33 tensors)

actor.0.weight f4 [256, 12]
00000000: 945e 0d3e e5db 093d f457 d73d 7d46 46be
00000010: 57b4 43be 5b8e 46be 7897 1b3d 6df1 4ebe
00000020: 538c 2fbe a2a6 aa3e 6b7b 533e c895 bbbd
00000030: adc0 fe3b 57f5 fdbc 1cee 57bc 354e 84be
00000040: 985e fcbd 74e9 823e bc4e 2d3e 6dcf 00be
00000050: 21bf 8a3e d071 d53c b5a9 9abd fae3 903c
00000060: 7c07 913e 0def fd3c 97b5 923e e6bf 583d
00000070: 35a6 39be dfa6 9c3e 461f 82be 50c5 89be
00000080: 74c0 783d 55a5 f93d a523 353e 2415 1ebe
00000090: a716 9bbd 5579 44be 8cdf 123d 56a0 c5bd
000000a0: e8ba 9bbd 79bf 613e f991 093e a808 6cbe
000000b0: 52fc afbd 8138 383e 0f73 86bd 20ec 613d
000000c0: c595 143e c101 4fbe bdae 0fbe 2eb3 253e
000000d0: 9304 42bd 737a c13d b5d3 063e 8e22 05bd
000000e0: 30b8 80be 0083 ac3e 986b 903d 473a 2cbe
000000f0: 6ade 33be 25ed 5abe 0558 bfbc 8c3a 523b
00000100: 0dbc 033e 11b7 bfbd 8a07 ec3d 238b 91bd
00000110: 2ad9 9a3e 5346 dbbc 43d5 88bd ff97 9dbd
00000120: 219b f43d f4d6 45bd e0bf 5ebd b210 0dbe
00000130: 000d 483e 83dc a2bc 8da8 913d 3ab1 d1bd
00000140: c60e 67bd 0c7e 393d 1b40 9ebd e47e 2fbe
00000150: d8b4 183e f62e c23d 3051 48be c19d 44be
00000160: 4190 67be 2421 6ebc d7c3 72be d444 4dbe
00000170: 2e53 173e 6ab6 103e 2c24 923e 3c13 a8bd
00000180: 59f7 9f3a 0f14 b0bd fde0 43be 2f71 913b
00000190: 57d9 56be e979 e43d 6859 f7bd 7194 893d
000001a0: 9644 e83c ebfc ecbd d93a 33be 232f 0cbe
000001b0: 601e 933e 43d2 223e 5267 7f3e 0575 c4bd
000001c0: 7591 84bd 526e b93d 178c 5a3e 9c09 273e
000001d0: 0dbd 3c3e f463 953d 46ae 5d3e 5e25 4c3e
000001e0: cefc 4a3e 5399 2e3e 85cb 6dbe 94a1 20be
000001f0: a1f1 11be f365 5a3e 9f95 4a3e da21 ce3c
00000200: 9648 9bbe c660 e53d 1b1e 253e 6b7a 2cbe
00000210: 50c0 93be 3e57 3a3e 5265 903e 8eeb f83d
00000220: a193 95be fea2 833d a590 98be daaa 983e
00000230: 85f3 0f3d 1127 c13d 1e92 833c 477c 073e
00000240: e7d9 1cbe b99c 393e 294e 733e 8605 2d3e
00000250: 82ab b9bd 6007 8fbd f293 2e3e d19e 2a3e
00000260: 98f7 853e c721 923e 9960 3c3d 2a69 333e
00000270: e257 413d 48c3 c1bd 93ff 17be 2a36 f4bd
00000280: 18a4 c0bd 2ce4 95be b083 62bd 141c 45be
00000290: efc7 953e 9d1c e5bd dd42 573e 6ac4 e5bb
000002a0: 62dc 2dbe d8ee 34be 1b43 c8bc 1820 1e3e
000002b0: b5a4 23be 5dda 27be 20cd 103d 2e05 0e3e
000002c0: e5d4 afbc 1d7a a5be 1627 593d 3ec9 81bd
000002d0: 9db6 503e 374f a5bd d66c 33bd 2560 853e
000002e0: a823 383d 84cf 48be 44c7 52be 51a7 203e
000002f0: ce7e fa3d 08a3 993d 436c 5cbd 4699 1abd
00000300: b84e fb3d b74d 80bd 6552 2bbe 9d35 1abd
00000310: 9183 8b3e 22c4 483e 54af 6cbc 9999 14be
00000320: 9f97 82be 7dd6 7a3e b118 e73d a95c b03d
00000330: 5a92 5b3d 4c0a 64be 4d2d 00be 2819 0e3e
00000340: 1e6b 863d 1820 18bc c651 3fbe a177 35be
00000350: 2a87 623e 9bde 893d 2a6c ab3d 0e4e 83be
00000360: 3750 70bd c979 6ebe b5f3 a8be 3bea 5c3e
00000370: 1de1 0d3e 83f7 023e 51c4 97bd 4cb3 343e
00000380: cc4c 7cbd abae af3e 2448 fb3d 4090 0abe
00000390: 1032 8d3e cd90 5dbd 8e7f 12bd 6d09 1f3e
000003a0: 6e55 aebd c558 61be f328 853e a801 0d3d
000003b0: 6e0a 0bbe e87f 453c c761 e63d aea6 263d
000003c0: 372a 2f3e 205d 5abd 2016 46bc fa67 123e
000003d0: 60e2 0a3e d5ca e9bc 9923 03bd b4f9 ad3d
000003e0: 5373 853d e5ca a7be 29f8 61be 70d6 083e
000003f0: a49d 8a3e e2c7 093e a3f4 2dbd 51ca b9bd
0.1380561 0.033656973 0.105148226 -0.19362827 -0.19111763 -0.19390242 0.03798625 -0.20209284
-0.17143373 0.33330256 0.20652549 -0.09159428 0.0077744336 -0.031000776 -0.013179328 -0.25840917
-0.1232273 0.25568736 0.16924566 -0.12579127 0.27098945 0.026055247 -0.075519 0.017686833
0.28326023 0.030997777 0.28654167 0.052917384 -0.18129809 0.30596063 -0.25414485 -0.2690835
0.060730413 0.12189738 0.17689379 -0.15437752 -0.0757268 -0.1918691 0.035857722 -0.09649722
-0.07604009 0.22045697 0.1343459 -0.23050177 -0.08593048 0.17990305 -0.065649144 0.055156827
0.14510258 -0.20215513 -0.14031501 0.16181633 -0.047367644 0.094471835 0.13166697 -0.032503657
-0.25140524 0.33693695 0.07051772 -0.16819106 -0.17565313 -0.21379526 -0.0233574 0.0032078354
0.12864704 -0.09361089 0.115248755 -0.07106616 0.30243808 -0.026766932 -0.066813014 -0.076950066
0.11943651 -0.0483007 -0.054382205 -0.137759 0.19536209 -0.019880539 0.07112227 -0.102388814
-0.056410573 0.045286223 -0.07727071 -0.17138249 0.14912736 0.09481613 -0.1956222 -0.19200803
-0.22613622 -0.0145342685 -0.2370752 -0.20045787 0.14777824 0.14132085 0.28543222 -0.08206794
0.0012204453 -0.08597576 -0.19128795 0.0044385414 -0.20981346 0.11156065 -0.120776 0.06717766
0.028353017 -0.11571678 -0.17502917 -0.13689856 0.28734112 0.15900521 0.24941757 -0.09592632
-0.06473056 0.09054245 0.21342503 0.1631226 0.18431492 0.07294455 0.21648511 0.1993613
0.19823 0.17050676 -0.23222168 -0.15686637 -0.1425233 0.21327953 0.19783638 0.025162626
-0.30328816 0.11200099 0.16124766 -0.16843574 -0.2885766 0.18197343 0.282023 0.121543035
-0.29214194 0.06427573 -0.29797855 0.2981785 0.035144348 0.094312795 0.016060885 0.13231002
-0.15317498 0.18126191 0.23760284 0.16896638 -0.09065916 -0.069838285 0.17048624 0.16662146
0.26165462 0.28541395 0.04599056 0.17520586 0.047202952 -0.09461075 -0.14843588 -0.119243935
-0.094062984 -0.29275644 -0.05530137 -0.19248992 0.292541 -0.11187098 0.210216 -0.00701194
-0.169786 -0.17669237 -0.02444606 0.1544193 -0.159808 -0.16391893 0.035351872 0.13869163
-0.02146382 -0.32319728 0.05301579 -0.06337212 0.20382161 -0.0807175 -0.043804966 0.26049915
0.04495588 -0.19610411 -0.20583826 0.15688826 0.12231217 0.07501799 -0.053814184 -0.03774383
0.12270874 -0.06264823 -0.1673065 -0.037648786 0.27248815 0.19606069 -0.014446098 -0.14511718
-0.25506303 0.24495883 0.112840064 0.086114235 0.05360637 -0.22269553 -0.12517281 0.13876784
0.065634 -0.0092849955 -0.18683538 -0.17721416 0.22121873 0.06731912 0.0837024 -0.25645489
-0.05867025 -0.23288645 -0.32998434 0.21573727 0.13855405 0.1278973 -0.07410491 0.17646521
-0.061596677 0.3431295 0.12269619 -0.1353159 0.27577257 -0.05409317 -0.035766177 0.1553094
-0.08512388 -0.22006519 0.26007804 0.034425408 -0.13578197 0.012054421 0.11249118 0.040686302
0.17105947 -0.053311467 -0.012090236 0.14297476 0.13562918 -0.0285391 -0.03201637 0.08494893
0.06516137 -0.32771984 -0.22067322 0.13363051 0.27073395 0.13455155 -0.042469632 -0.09071792

actor.0.bias f4 [256]
00000000: 70bf f83d 18c2 c7bd 067e 4d3e a6e2 7c3e
00000010: 26e4 ee3d c54d 433c 8902 633e 9a98 0a3e
00000020: c175 51be 468a 123e 7e77 bb3d db88 2c3e
00000030: 3afa 1abd 4076 963c fe05 823e ac17 87bd
00000040: 6eb0 34be 15ac 6b3e c258 37be b607 c43d
00000050: ee00 7d3b df82 8abe 8b2f eebc 81f0 453e
00000060: cb29 0a3e f545 173c 29f9 78be 7912 93be
00000070: 6ee8 163d 3190 b53d 6490 9cbd 9c3f bdbd
00000080: 12d6 93bd 82c0 5cbe 28bc efbd 7d8f 80be
00000090: d7f6 1f3d b24b d13d 7ab3 9abc d70e 6f3e
000000a0: de4c 92bd f9a4 473e 802b 283e 596f 58be
000000b0: 4245 3a3e 53ef 27bd cb41 443c e8e4 97be
000000c0: 218e 4e3e 72ce 573d 561f 873e 8284 a83c
000000d0: e9fd 373e 969f 133e db19 2dbe 3e15 38be
000000e0: 7a7d 32bd c99a 2f3e b109 91be 1749 363e
000000f0: 3c00 88be 520f 113e 0b64 9fbe b1dd 593e
00000100: 2436 3d3d a61a d3bd 4d89 10be 7405 0cbd
00000110: 156b 9dbe c839 b2bc c712 aa3d 2833 0cbd
00000120: 5ac7 403e bd8c e0bb 40d0 fd3d f52a 4abe
00000130: b4ac 9d3e b120 093e d058 ce3c 0b3b 9d3e
00000140: bfcc a2bd 126d 25be ce38 3d3e 354c 423d
00000150: c75c f33d 961c 8a3e ca50 363e 30ec 72be
00000160: df4e 2bbe 20bb 813e c509 683c 487a 4f3e
00000170: 2d94 1a3d 513b 04be be65 2ebe 5946 3dbe
00000180: 27ca f23d a816 80bd 4209 1bbe 25b5 be3d
00000190: 5d1d 0ebe 0057 5a3e 2562 343c ada6 58bd
000001a0: db56 073e 292a 9a3d bd05 95bd 6344 c43c
000001b0: 4aea 67bd 5024 b1bd ccf6 683d ca9f 6b3d
000001c0: de1b 583d dedd 55be bce2 fb3d 4b99 08bc
000001d0: fc3e 54be 6ffb 513e 60b0 fdbd 2438 7a3d
000001e0: 5a36 003e 3210 2c3d 3531 35bd a309 40be
000001f0: f6cd ffbc 624e edbc 0bc8 3ebe 9f30 91bc
00000200: f53a c5bd 6eed 043d 39c1 67be 6a2c 30be
00000210: 2710 febd 97aa 5bbe e988 75be 544d a33d
00000220: fe25 12be 3c8b 523c 9eed 80be fc3c 463e
00000230: 5013 37be f41b b13c a4e5 2cbe b077 833d
00000240: 341f 4c3d 20ac f23d dbbd cd3d 8240 7d3e
00000250: 4c3b 9f3e 4d58 debd f334 40be 1591 08bc
00000260: a753 9b3d 3067 9fbe 4fc4 38be f874 bd3d
00000270: f9fc 50be 6240 1c3e a37a 4e3e f6f5 633d
00000280: 96b1 3d3d 85c2 98bd a6f1 503e c0df aebd
00000290: 1eba 0b3e 8ab9 e53d 21f3 163e bf83 383e
000002a0: fe43 37be 3d6b 56be 898d 6a3e 5a29 a0bd
000002b0: f25c 093d dba3 533e 5a1b e13d 6834 e9bd
000002c0: b910 eabb 4d5b b53c 41ab 09be 23cd a8bd
000002d0: 55d9 95bd 937f 4e3d 4842 1ebd 3931 df3c
000002e0: ec3b 4abd ea5a cebd 6700 593d aad7 abbd
000002f0: ac7d e5bd e02f 123e 86fa cfbd 75a0 f43c
00000300: af3c d4bd da8a b93d 1c17 083d e4ab d0bd
00000310: 4d3c 0fbe 792e 333d b9a9 823e 9e24 a4bd
00000320: c7d1 ac3d 58d4 55be a8f3 493d 70b6 79be
00000330: 403c 6f3e c60e 253e 8b97 f83d 582f 23be
00000340: 0686 c63d 7297 a23e 66d1 87bd d60b eabd
00000350: fb62 1bbd 62ee 5cbd 5461 e0bd 06c8 babd
00000360: 473f 55be 2eed 1ebd 0777 0a3e 5798 49be
00000370: b0b1 9fbd 1f69 f43c 7200 253e dc27 713d
00000380: a44d 03be 15bc ed3b d526 0abe c8f0 da3d
00000390: fd70 15bd 68be 53be 6f56 873e 6a16 f83d
000003a0: 1025 3f3e 0af0 24be b719 4bbe af29 e83d
000003b0: 0c0c 39bd 27bd 033e cfae 5c3e 0c01 bc3d
000003c0: f5ef 1f3e 900b 98bc 9cb5 d3bd 1598 4cbe
000003d0: 2a0c 53bc 7f67 983e 6241 dfbd 7f42 aabd
000003e0: 8a6c 3f3e a70e 22be d676 05bc 1616 723e
000003f0: c852 003e a041 1ebe 5008 8c3e a974 d4bd
0.12145889 -0.09753817 0.20067605 0.24695835 0.116646096 0.011920397 0.22168936 0.13534775
-0.20455076 0.1431056 0.09153651 0.16849081 -0.03783629 0.018366933 0.25395197 -0.06596312
-0.17645428 0.23014863 -0.17904952 0.09571783 0.003860529 -0.27052972 -0.029075405 0.19330026
0.13492505 0.009232988 -0.24313797 -0.2872503 0.036842756 0.08865393 -0.07644728 -0.09240648
-0.07218565 -0.21557811 -0.1170581 -0.25109473 0.039053764 0.10219516 -0.01888441 0.23345505
-0.071435675 0.19496526 0.16422844 -0.21136226 0.18190482 -0.04099972 0.011978577 -0.2966683
0.20171405 0.052687116 0.26391095 0.020570997 0.17967953 0.14416346 -0.16904394 -0.17976853
-0.043576695 0.1714889 -0.28327706 0.17801319 -0.2656268 0.14166 -0.31131014 0.21275975
0.04619421 -0.10307817 -0.14114876 -0.034184888 -0.3074576 -0.021756068 0.08304363 -0.034228474
0.18826047 -0.006852715 0.12393236 -0.1974295 0.30795825 0.13391377 0.025188833 0.3070911
-0.079492085 -0.16154888 0.184787 0.047435958 0.1188293 0.26974934 0.17804256 -0.23722911
-0.16729306 0.25338078 0.0141624855 0.2026149 0.037738968 -0.12913252 -0.17030999 -0.18483867
0.11854964 -0.06254321 -0.1514025 0.09311894 -0.13878389 0.2132225 0.011009728 -0.05289333
0.13216726 0.07527573 -0.07276485 0.02395839 -0.05661992 -0.08649504 0.05687599 0.057525434
0.05276095 -0.20885417 0.122991055 -0.008337329 -0.20727152 0.2050607 -0.123871565 0.061088696
0.12520733 0.042007633 -0.04423638 -0.18753676 -0.03122614 -0.02896804 -0.18630998 -0.01772338
-0.09630386 0.032452993 -0.22632302 -0.17204443 -0.124054246 -0.21451794 -0.23978008 0.079737335
-0.14272305 0.012850579 -0.25181288 0.19359201 -0.17878461 0.021619774 -0.16884476 0.06419313
0.049834445 0.118492365 0.10045978 0.24731639 0.31099927 -0.10856686 -0.18770199 -0.0083353715
0.07584315 -0.31133413 -0.18043636 0.09250826 -0.20409001 0.15258935 0.2016397 0.05565449
0.046311937 -0.07458977 0.20404682 -0.08538771 0.13645217 0.112170294 0.14741184 0.18019007
-0.1789703 -0.20939346 0.22905554 -0.07820387 0.033535905 0.20667975 0.10991545 -0.11386949
-0.007143107 0.022138262 -0.13444234 -0.08242252 -0.073168434 0.050414633 -0.03863743 0.02724515
-0.049373552 -0.10075934 0.0529789 -0.08390744 -0.11205611 0.14276075 -0.101552054 0.029861668
-0.10363137 0.09059687 0.033225164 -0.101890355 -0.13987847 0.04374549 0.25520113 -0.08014797
0.08438449 -0.20881784 0.049304634 -0.24386 0.23362827 0.16118917 0.121382795 -0.15936029
0.09693532 0.3175617 -0.066317365 -0.11428039 -0.037936192 -0.053938277 -0.10956064 -0.09120183
-0.2082492 -0.03880041 0.13521968 -0.1968702 -0.07797563 0.029835282 0.16113451 0.058875903
-0.12822586 0.007255087 -0.13491376 0.10690457 -0.036484707 -0.20678103 0.2643313 0.1211365
0.18666482 -0.16107193 -0.19834028 0.113360755 -0.045177504 0.12865125 0.21551059 0.09179887
0.1561888 -0.0185602 -0.103373736 -0.1997989 -0.012881318 0.2976646 -0.10901143 -0.083134644
0.18693748 -0.15825902 -0.0081460085 0.23641238 0.12531579 -0.15454721 0.27350092 -0.10373814

actor.2.weight f4 [128, 256]
00000000: 762e b23c 1e65 cbbc e906 9cbd 775e 853b
00000010: 45f2 9abd cc69 7ebd 185d 953c 14c4 183c
00000020: 3818 683c 83c2 26bd 8289 e23c 4934 88bd
00000030: 22ea 98bd 5dfa 633d 98f2 833d c4aa 79bd
00000040: 7109 83bd fe3a 0e3d 61cd 943c c10d 303d
00000050: ea4b 723d 5a51 903d 199a c83c 8e2b 0d3d
00000060: 7379 b6bc 7aba 4dbc 6da9 103c 7e72 20bd
00000070: d99a 563d ce2c 1b3d 6c74 183d 34aa 9e3c
00000080: 418e 133d baa0 663d 9bf3 7fbd 408a 8cbc
00000090: 371a 613c f154 7e3d 544f 5f3d 0e85 05bc
000000a0: 1a12 673c daab 913d fc48 6e3d 6a4d 253d
000000b0: a476 153d a00f 283d b0a8 f23c 9c91 9a3d
000000c0: 41fc 443d 7de5 81bd 59e1 b63c 1d4d a1bc
000000d0: 394a 7ebd 198f 1cbd 05bd 70bd df4c 4d3d
000000e0: 4f24 2cbd 5597 a9bb cc85 f4ba 98dc 1bbd
000000f0: db5c 483c 9af6 f3b9 4b70 d1bc 52ea 1dbd
00000100: bc57 c23c 4a1c 8b3c ebb9 2c3d 6b13 863b
00000110: dd1e 933d 0592 90bd c096 883d 3e12 1cbc
00000120: 91a6 58bd 4bd2 503d 448c abba ec21 f4bb
00000130: d1df e9bc 4169 273d 5b28 eebc d9e7 28bd
00000140: f851 5eb8 64a0 853d 80eb 2f3d 9a93 29bc
00000150: 4d5d e93a b07c 56bc d555 8cbd 6e09 bf3c
00000160: a681 21bd b802 0b3d a22b 943c 4d61 6fbd
00000170: cbc5 89bc b08a 8fbd f79d 6f3b 2b54 29bc
00000180: 74e3 51bd dc24 9a3d 6909 313c 8ea2 353d
00000190: 0d90 183d 46b8 ee3b b601 093d 2d0b fcbb
000001a0: 7ec6 75bc 4ef8 843d ddc4 dfba c8db 4dbd
000001b0: 1a73 203d 9233 333c 351a 9bbd 9d65 43bc
000001c0: 8ddf 873c b761 d0bb f55e b23c ed50 8bbb
000001d0: d367 2dbc 0719 c7ba f4f4 933c 8adb 793d
000001e0: 63df 103d c469 2b3b 887b ffbc c3e9 2abd
000001f0: 6429 9b3c 5b92 28bc da92 553d 4462 f43c
00000200: 3008 ea3c e083 c3bc df60 4bbd 699d 1dbd
00000210: 1bc3 21bd 7d38 1b3c 188d 613d 0ac4 57bc
00000220: daf4 78bd d44d 9e3c c85a 343c f161 60bd
00000230: d074 6fbd da96 2ebd 9f65 47bc 887a 0f3d
00000240: 862f 46bd f353 acbb 24fe 4ebc e7bc 6abd
00000250: b289 76bd 23e0 46bd ed8d 953d e546 c4bc
00000260: 9d81 023d b124 0c3d 0d07 70bd 73d1 afbc
00000270: ba44 5d3d 96a9 013b 3b51 8dbd 9bb1 f2bc
00000280: 5598 60bd 0b95 0ebd fcfb b2bb effa 31bd
00000290: 259f 28bc 419d 5a3d 7091 5fbc 4ae1 c7bc
000002a0: 70e3 bebc b30b 7b3d b866 14bc ce9f 9abc
000002b0: e5de 2ebd 8bb9 c3bc 6cc3 acbc b20f 63bd
000002c0: 768e 3bbd 2ce7 3a3d 2cf0 27bd 1220 973c
000002d0: a571 01bd ff13 733c 6112 2abb dcda d23c
000002e0: 2888 833c d98f cbbc deec 36bc fe99 21bd
000002f0: a9af 4bbc f151 5c3c 530b f03b 2586 943d
00000300: a323 20bd 8e9d 84bc 469a 1cbd f262 a5bc
00000310: 979b 4abd f062 003d 72a1 e03c a7d2 1d3d
00000320: dfe8 9d3c 99c1 223d 7a43 443c 0abc 69bd
00000330: 8c4c 3dbd 56e4 36bd 63c2 433d 8282 a3bc
00000340: 0f82 653d 986c 8ebd 4d18 4c3d a122 7e3c
00000350: 10a5 cc3c ef1e b63c 4a4d 1bbd 7847 54bd
00000360: 9860 9d3c cb40 113a 9930 1e3c a9fb a53c
00000370: a645 ccbb 1687 61bd f714 513d ff06 1bbd
00000380: 1055 f53c 4277 14bd 0522 23b9 2e2f 093d
00000390: d757 d9bc 339f 85bd 94d4 60bb 6721 823d
000003a0: a10e 683d 8cb9 4ebd 12dd ddbb a134 03bc
000003b0: b410 11bd a31b 6f3d 1213 253c 1913 493c
000003c0: c588 d23c 2458 a53b 962d 0cbd 7174 f93c
000003d0: 976f ff3a 8264 efbc 14d6 06bd 9dd9 2ebd
000003e0: 3ed8 483d 20ae 2e3c e53d 283d 4096 2fbb
000003f0: 0cdf 85bd 8bfa 673d b0c2 853c ce4d 9c3d
0.02175067 -0.02482849 -0.076185055 0.004070099 -0.075657405 -0.062112615 0.018232867 0.009324092
0.01416593 -0.040712845 0.02765346 -0.066505976 -0.07466532 0.055658687 0.064427555 -0.06095387
-0.06398285 0.034724228 0.018164339 0.042981867 0.05915443 0.070467666 0.024487542 0.034465365
-0.022274708 -0.0125566665 0.008829457 -0.03917169 0.052393768 0.037884526 0.037220404 0.019368269
0.036024336 0.056305625 -0.06248818 -0.017155766 0.01373916 0.062092725 0.054519013 -0.0081493985
0.014103437 0.07112856 0.058175072 0.04035703 0.036490098 0.041030526 0.029621452 0.07547304
0.04809213 -0.063425995 0.022324251 -0.01969009 -0.062082503 -0.038222406 -0.058774013 0.050122138
-0.042026814 -0.005175511 -0.0018655597 -0.03805217 0.01222917 -0.00046532304 -0.02556624 -0.038553543
0.023723476 0.016981263 0.042169493 0.0040916703 0.07183621 -0.07059101 0.06669378 -0.009525834
-0.052893225 0.0509818 -0.0013088067 -0.007450333 -0.028549107 0.040871862 -0.029071977 -0.041236732
-5.3005264e-05 0.06524733 0.0429492 -0.010350132 0.0017804295 -0.013091251 -0.06852309 0.023319926
-0.039430283 0.03393814 0.018087212 -0.058442403 -0.016817948 -0.070088744 0.003656266 -0.010335009
-0.051242307 0.075265616 0.010805466 0.044344477 0.037246753 0.0072851507 0.033448897 -0.007691762
-0.0150009375 0.06492673 -0.001707222 -0.050258428 0.03917227 0.010937588 -0.07573358 -0.011926082
0.01658609 -0.0063593048 0.021773795 -0.0042515905 -0.010583836 -0.0015189954 0.018061139 0.061000384
0.03536929 0.002615557 -0.031186834 -0.04172684 0.018940635 -0.0102888 0.052142 0.029832013
0.028568357 -0.023866594 -0.04965293 -0.038480196 -0.039492708 0.009473917 0.055066198 -0.013169298
-0.060780384 0.01932422 0.011007972 -0.054780904 -0.05846101 -0.042624332 -0.012170224 0.035028964
-0.048385166 -0.005259031 -0.012633834 -0.057309058 -0.06018991 -0.048553597 0.07302461 -0.023959586
0.03186189 0.03421468 -0.058600474 -0.021462178 0.05402062 0.001978492 -0.06900259 -0.029625705
-0.054832775 -0.034810107 -0.005462168 -0.0434522 -0.010291849 0.053372625 -0.013645515 -0.024399418
-0.02330181 0.061290454 -0.009057693 -0.018875029 -0.042693038 -0.023892185 -0.021089278 -0.05543489
-0.04579016 0.04563062 -0.04100053 0.01844791 -0.03160252 0.01483631 -0.0025950896 0.025739126
0.016056135 -0.024848865 -0.011164872 -0.0394535 -0.012432017 0.013447271 0.0073255687 0.072521485
-0.039096486 -0.01618841 -0.038233064 -0.020188782 -0.04946479 0.031344354 0.027420733 0.03853097
0.01927608 0.03973541 0.011978978 -0.057064094 -0.04621558 -0.044651352 0.047792803 -0.019959692
0.056032237 -0.06954306 0.049827863 0.015511186 0.024981052 0.022231547 -0.037915505 -0.05182597
0.019211099 0.0005540966 0.009655141 0.020261602 -0.0062338887 -0.05506047 0.051045384 -0.03784847
0.029947788 -0.036246546 -0.00015557565 0.03349226 -0.026531143 -0.065245055 -0.0034306394 0.06354027
0.056654576 -0.05046992 -0.0067707384 -0.008008153 -0.03541632 0.058375966 0.0100753475 0.01227262
0.025699982 0.0050459076 -0.03422316 0.030451031 0.0019488212 -0.02922273 -0.032919005 -0.042688
0.04903435 0.010661632 0.041074652 -0.0026792437 -0.065366834 0.05663542 0.016328186 0.076320276

actor.2.bias f4 [128]
00000000: ff62 703d 268d 8abc 4b5b c13c c338 81bc
00000010: 8788 72bb 8860 ebbc 64b7 173b a01b 973b
00000020: e572 a73c ef4e 6e3d be86 783d 97b3 17bd
00000030: 8676 30bd fc1e 38bd 8c6f 913c 05e7 d63c
00000040: 12de 0d3d 4390 973b 1dc0 3d3d 41f2 00bd
00000050: 0197 a3bb f144 373d dd05 b8bc 00fe 003d
00000060: bdb3 b9bc df61 10bd 3108 61bd 083a 8f3c
00000070: 95e2 e4bc 7786 36bc 6fce ba3c c2f1 473d
00000080: a137 87bc 5c8b cf39 6af9 383d 0c3a afbb
00000090: c005 4f3c 089d 133c 3581 1b3d d118 25bc
000000a0: ec64 0b3d 84b2 713c 29b4 1e3d 0b4e 393d
000000b0: 24fa b83c b7b7 d3bc 3385 f1bc 5aa1 60bd
000000c0: 2eb6 573d ac09 4ebc 1272 493c d6bb 403d
000000d0: 191c 24bc 2d7a 67bd 487e 11bd c369 24bd
000000e0: 01ae 573c ff1d 433d f06e fabc 92d4 48bd
000000f0: 8001 cdbc 99a1 57bd c9e3 26bd 930f 3e3d
00000100: e941 0c3d 3fc0 1ebd fcba 59bd 7edd aa3b
00000110: ed0c 10bc c14a f9bc 769c 0bbc ecce 35bd
00000120: 1457 2dbc c49f d63c e68a 173c 14db b8bc
00000130: 3b1d 213d 119b ae3c f2a7 933c 5f7e e0bc
00000140: 7e0c e5bc 1b71 28bd bab4 78bd 6067 cdbc
00000150: 2532 cfbc 02b8 10bd 6f94 45bc e57d 9b3c
00000160: e811 2a3c 35d9 23bd 5f66 68bc 1ff4 923c
00000170: 10ce 013d 30da f6bb f82c 5f3b 77fe 503d
00000180: 3ceb 45bd 2790 9abc 3a8b 49bd e975 a4ba
00000190: 420f a7bc f9e7 c3bb 1196 093d 5da6 c7bc
000001a0: a675 013d 4094 6dbd f16e 323d 0de6 53bd
000001b0: 765a 19bd 6183 e03b 9f96 3f3c 506c 77b9
000001c0: 3eff 673d 8b85 d03c 81ac 37bc 0de9 073d
000001d0: 4e1e e23b abdf 81bd 1e48 d93c a443 bc3c
000001e0: 236a 56bd 3668 7bbc b73f 15bc 6013 543d
000001f0: 59b7 193d 7df0 84bc ddf5 a73c 65c9 f4bc
0.05868816 -0.016913008 0.023603102 -0.015774136 -0.0037007646 -0.028732553 0.002315008 0.0046114475
0.020440528 0.058180746 0.060675375 -0.037036505 -0.043081783 -0.044951424 0.017753385 0.026233206
0.03463561 0.0046253516 0.04632579 -0.03148103 -0.0049923663 0.044743482 -0.022463733 0.031492233
-0.022668714 -0.035249587 -0.054939453 0.017483726 -0.027940074 -0.011140457 0.022803513 0.048814543
-0.016506018 0.00039585948 0.045159735 -0.005347496 0.012635648 0.009009607 0.03796502 -0.0100767175
0.034031793 0.014752034 0.038746033 0.045240443 0.022580214 -0.025844438 -0.02948246 -0.054841377
0.052663974 -0.012575548 0.012295263 0.047054134 -0.010016465 -0.056513 -0.03552082 -0.040139925
0.013164044 0.04763603 -0.030570477 -0.049030848 -0.02502513 -0.052644346 -0.040744577 0.04640157
0.034242544 -0.03875756 -0.053156838 0.005214392 -0.008792144 -0.030431153 -0.00852119 -0.04438679
-0.010579843 0.026199229 0.009249425 -0.022565402 0.039334517 0.021314176 0.018024419 -0.027404008
-0.027960058 -0.04112349 -0.06071923 -0.025073707 -0.025292465 -0.035331734 -0.012059315 0.01898093
0.010380246 -0.040002067 -0.014184563 0.017938672 0.031690657 -0.007533334 0.0034053903 0.051023927
-0.04832004 -0.018867565 -0.049205042 -0.0012547347 -0.020393018 -0.005978581 0.03359038 -0.02437132
0.03160634 -0.05800271 0.043562833 -0.051733065 -0.037439786 0.006851599 0.011693626 -0.00023596105
0.056639902 0.025454303 -0.011210562 0.03318124 0.0069005853 -0.063414894 0.026523646 0.022981472
-0.052347314 -0.01534467 -0.009109429 0.05177629 0.03752837 -0.016227955 0.020502979 -0.029881189

actor.4.weight f4 [6, 128]
00000000: bb6c 5ebd 5340 9e3b f7ca 643c 5188 e03a
00000010: 346b 95bb f7e6 d1bb 6f60 d9bc f90f 14bd
00000020: 5109 bcba bb6d c6bc 7ea5 d5ba 922d eebc
00000030: c72a a33c 57a0 af3a dc7d 5939 86ec 22bc
00000040: 30c7 4a3b 7c06 de3b f4e2 a23c b546 16bd
00000050: 493b fe39 54e7 c5bb 44e8 123d d0e3 93bc
00000060: 3a39 213c 7757 4bb8 27fc a43c 7ec7 1c3c
00000070: 1960 48bd 38be 9d3c 4b5e 7d3b a8df e63c
00000080: bc3d a9bb 8d5c a23c b188 1f3b d47c 25bc
00000090: 1d7e 5b3d 8920 eb3b 0e36 19bd 37f7 83bd
000000a0: 1c0d abbb 9900 2abb 702f 78bb 4e3b 85bd
000000b0: 74a2 87bd 6e33 4e3c d681 c13c ad64 ccba
000000c0: 04bf 413c ef74 8c3b f8ee 44bb 40f4 ad3c
000000d0: 91d2 4739 85a2 41bb 3644 013c a9ea 963b
000000e0: 5cb5 d73c 8f62 93bb b59a 6f3b 1062 053c
000000f0: 9806 153d 62aa 9f39 76a2 3e3c 57fc 42bc
00000100: 096d 743b 0361 0bbb 2bef f93b cd34 d43b
00000110: b658 b0bb 410b 93bc 28e5 80bc 8052 0c3d
00000120: f46b 4c3d f0d2 e13b fea0 f6bc 995d b63c
00000130: a127 75bb d421 863a f24a f33c 85d5 503a
00000140: 1e48 82bc 2ec8 943d 09e1 063d 0159 b93c
00000150: 49cb 2a3b ea7d 09bd cd56 773c 9449 f13c
00000160: b34a 91bc b77f 40bc f65d a3bc 3082 873d
00000170: 54d6 70bc 16c8 b23b 7635 01b8 b996 953c
00000180: 26a4 473b 4fbd cabc a8c9 193c 112b 103b
00000190: 4181 26bc ffbf d9bb 4e53 55bd d89b 6dbd
000001a0: 5da0 66bc 6775 b8bc 6fca 10bb c492 c5ba
000001b0: 11fb 9c3b 7a2d 303d 2c02 5bbb 52a4 7dbd
000001c0: 5c6f 6f3c 7655 d03c a590 a73c d71d b83c
000001d0: 8687 cdb9 b493 b23b d5f0 b4bc 732a 313d
000001e0: cdbf 4f3b f24b f03c 2538 37bc cd59 2dbb
000001f0: bef7 00bb 6c1a 2dbc 6461 86bb 6c8d 8f3c
00000200: d2e3 523c 0d5e 06bb 3ec4 423c ec27 babc
00000210: 99cb 153b 97a9 0dbb 3d1d 9a3c b34e a5bc
00000220: b8a7 3fbc d693 a83b 0709 12bc df04 80bc
00000230: 7b7c 4a3c 55f7 f23a 56b1 2e3c fe6e a0bc
00000240: b334 8e3b 20f6 553c 950e 863c 9f02 253b
00000250: 6488 273b 81bf 2ebd 0051 46bc d3db 323c
00000260: cee5 8c3a ecc6 a3bb 8a57 d13c 8aa0 63ba
00000270: d774 af3c 468a a83c 5101 8e3b 3ffe d0bc
00000280: 159e b1ba 5113 1b3c 47ea 803a 499f b7bb
00000290: 2344 c8bc daed 0d3c 121e 0a3d 071d 20bc
000002a0: 2e21 0a3b 3443 03b8 a9f9 12bc 1f1f 91bd
000002b0: f89a b9bc 0d72 fe3c d79c 863b 8064 b8bc
000002c0: 887e 973c f75d bdba f356 ad3b 32fa 643c
000002d0: 6134 aebb c2c3 723c 2fb2 f33a 1dd3 e63b
000002e0: 6fef d9bc 3a90 8a3c d23d f938 fc27 173b
000002f0: 9c92 08bd 34ed 393c 47c9 0fbb f86f ac3b
00000300: 28dd 0bbd 6550 88bc baa0 d1ba e191 f3bb
00000310: cc81 8f3c c926 3c3d 7354 a43b 4571 e23c
00000320: b99c 5c3d 0164 1f3b 6bdf 16bb 2b61 f6bc
00000330: f3fa fc3b da48 5e3b f2a4 333c a7ec 863a
00000340: 4663 a83a cb1c 80bc 81d8 4c3c 4f93 cf3c
00000350: 08c3 333c 01f3 1b3d b57a 053c 6488 26bd
00000360: 3452 adbc 3524 83bc c7f5 f6bc 381e 57bb
00000370: 0d67 b439 8b3f dbba c01d c4bc cf3d 1dbd
00000380: 2e99 af3b 0665 1bbd 063b 61bd 9035 45bb
00000390: 0c85 82bc e7c5 76b9 522c 7ebd ae5d 803d
000003a0: 5582 90bc c55a 27bd f4d6 ebbb 78d0 39bc
000003b0: c3e2 323b 1ed4 223d 7c02 1eba 023c 4fbb
000003c0: 8877 0bbb c838 1a3d 2cd6 863c 70e5 6ebc
000003d0: 842a 0d3c 2626 86bc 9a02 8dbc 25e5 363d
000003e0: 2596 c33b dce6 a53c 245c 4c3b 570d d7bb
000003f0: eeb0 b33c 6bfc 2a3c a156 95bc dd41 f53c
-0.054302912 0.0048294454 0.013964406 0.0017130469 -0.0045598987 -0.006405707 -0.026535241 -0.036148045
-0.0014346038 -0.024222245 -0.0016299931 -0.029074464 0.019917859 0.0013399225 0.00020741619 -0.009944087
0.003094148 0.0067756753 0.01988361 -0.036688525 0.00048490826 -0.0060395394 0.035866037 -0.018052965
0.009840304 -4.848043e-05 0.020139767 0.009569047 -0.04891977 0.019255742 0.003866094 0.02818282
-0.00516483 0.019819522 0.002434295 -0.010100562 0.053587068 0.0071755094 -0.037405066 -0.06443637
-0.0052200686 -0.0025940298 -0.0037870072 -0.06505452 -0.06622782 0.012585504 0.02362148 -0.0015593969
0.011825327 0.0042864005 -0.0030049663 0.021234632 0.00019056561 -0.0029546332 0.007889798 0.0046056104
0.026331596 -0.004497833 0.0036560718 0.008141056 0.03638324 0.00030453788 0.011635413 -0.011900983
0.0037296435 -0.002126754 0.007627388 0.006476021 -0.005381669 -0.017949702 -0.01573427 0.034258366
0.04990764 0.006891601 -0.030106064 0.022261428 -0.0037407654 0.001023347 0.029698823 0.0007966387
-0.015903529 0.07264744 0.032929454 0.022625448 0.0026061109 -0.033567347 0.0150963785 0.02945403
-0.017735815 -0.0117492 -0.019942265 0.06616628 -0.014699537 0.005455981 -3.0805786e-05 0.018260347
0.003046283 -0.024748472 0.0093864575 0.0021998326 -0.0101626525 -0.006645202 -0.0520814 -0.058009952
-0.0140763195 -0.02251692 -0.0022093316 -0.0015073647 0.0047906716 0.04301212 -0.0033418043 -0.061924286
0.0146139525 0.025431376 0.020454714 0.022475166 -0.0003920162 0.0054497365 -0.022087494 0.043253373
0.0031700016 0.029333089 -0.0111828195 -0.002645123 -0.0019678916 -0.0105653815 -0.0041009653 0.01752349
0.012871699 -0.0020502836 0.011887608 -0.022724114 0.002285695 -0.0021615976 0.01881277 -0.020179128
-0.011697702 0.0051445765 -0.008913285 -0.015627323 0.01235878 0.0018536845 0.010662397 -0.019584175
0.0043397783 0.013059169 0.016364375 0.0025178564 0.0025563473 -0.0426631 -0.012104273 0.010916668
0.001074964 -0.0049980786 0.025554437 -0.0008683285 0.021418018 0.020573746 0.004333653 -0.025511859
-0.001355114 0.009465055 0.0009835445 -0.005603705 -0.024446553 0.008662665 0.033720084 -0.009772546
0.0021076906 -3.129542e-05 -0.008970656 -0.07086014 -0.022656903 0.031060243 0.0041080522 -0.02250886
0.018492952 -0.0014447559 0.005289906 0.013975667 -0.0053163026 0.01481718 0.0018592532 0.0070442096
-0.026603429 0.016914476 0.0001188476 0.0023064604 -0.033342943 0.011348058 -0.002194004 0.005262371
-0.034146458 -0.016639898 -0.0015993335 -0.0074331616 0.017517947 0.045935426 0.00501495 0.027641902
0.0538604 0.0024321082 -0.002302135 -0.03007563 0.007720345 0.0033917935 0.010964619 0.0010293917
0.0012846969 -0.01563873 0.01250279 0.025338797 0.010971792 0.038073543 0.008146931 -0.040657416
-0.021157362 -0.016008476 -0.030146493 -0.0032824408 0.00034409054 -0.0016727311 -0.023939967 -0.038389023
0.0053588366 -0.03793814 -0.05498793 -0.003009174 -0.015932582 -0.00023534113 -0.062053986 0.06267868
-0.017640272 -0.04085805 -0.0071972553 -0.011341207 0.0027295805 0.039753072 -0.0006027592 -0.003162146
-0.0021280963 0.037651807 0.016459547 -0.014581069 0.008616094 -0.016375612 -0.017213155 0.044652123
0.0059688264 0.020251684 0.003118285 -0.0065628695 0.021934953 0.010436158 -0.018229784 0.029938633

actor.4.bias f4 [6]
00000000: c82f 32bc 5717 41bd 562b 263d efc2 0a3d
00000010: daa8 d73c 5452 b8bb
-0.01087565 -0.0471414 0.040568672 0.03387731 0.026325632 -0.0056250487

critic.0.weight f4 [256, 12]
00000000: 3964 81be 64a2 bc3d b4aa 193e 503f 4c3e
00000010: 1b7f 133e 21d0 673d 93ad e4bd 5b2e 99be
00000020: 6a56 3abd b58c 203f e924 723d 7fb8 8c3e
00000030: 49e5 5cbe 303b 3e3e ff87 913e 8863 823d
00000040: 8a27 4ebe 6a85 1ebe 8e93 51be 221b 923e
00000050: 5654 4f3e dbc6 333f 60a8 28be 962b a3bd
00000060: 8af5 83be 34ac 763e 4969 353e a3d0 af3d
00000070: 1d2d 813d 1a3a 8ebe 05dd 923d f2cb 7d3d
00000080: 8d79 983e ad86 103f 5453 e23b 4200 a1bb
00000090: 63cd 023e 6e33 d33d cf0c 2e3e 49a2 683e
000000a0: 72be 73be deea 0cbe bb69 813d a5ac 463e
000000b0: 7c8b cdbd 30cb 08bf 45a4 a4be f4d3 10be
000000c0: fc03 6abe 4e52 363e 1e3d cebb 693d 873e
000000d0: e043 37be e4d4 96be e0f5 b13d bc38 1a3e
000000e0: f0d6 c0bd 6185 2c3f cb01 1a3e e30f 86be
000000f0: 95aa 673e d2e9 023e 47c7 063e 3ea2 a3be
00000100: ad8c a33e 90a4 1a3e d7b4 683e 0cb8 743e
00000110: b65d 4dbe ef4d adbd 4f6e 2e3c 1cbf 1ebd
00000120: b37f a53d e3aa d43d 2769 083e fb39 b73c
00000130: 2e65 59be 0a75 30be 1b3c 79bd 4c69 083e
00000140: 77bc 06bd c22b 173f 499c 173e 2bee db3c
00000150: b072 903e c884 59be bf02 a4bc 9faa 7b3e
00000160: 2964 d73d 646f 883e 0207 ba3b e988 37be
00000170: b688 6a3e 100b 36bf 73e1 34be 462a 77bd
00000180: bae6 843e be8c debd 0c12 2abe 74d1 393d
00000190: 236b 9d3d 7dd5 54bd 6fab 46bd 4cd5 30bd
000001a0: ac59 65be 9980 7fbc 9b97 123d 608f 163e
000001b0: 81d9 5abe 7703 1d3e 8473 573e 3f51 30be
000001c0: 7387 023b 28aa ec3d bae4 aebe da6f d53d
000001d0: af02 23be d35d 103f 4665 04be 2ea4 3b3e
000001e0: df42 893e 8444 893d a3aa febd 1557 563e
000001f0: dc2e 56be 4514 fabd 6822 6c3e 12d0 c4bd
00000200: d91b 17be 45f3 4b3d 7883 63be 73be e63c
00000210: eefc 133e 0b7a 043e d5d2 d53d 3fde c0bd
00000220: c59c 6b3d 26ec 93be 7aea 303e 800d 55be
00000230: 0488 b63d 678d 2b3f fd0d 26be 2ef7 06be
00000240: ea37 f73d 8662 ea3a 83bd 89bb 60c6 4bbe
00000250: 5539 223e 63d3 35bc a902 b1bc ba23 543e
00000260: 6649 a53e 672d 2abf 4fad 553e 1e50 56be
00000270: ce0a d73d 6a9b 4ebe 87fa 4eb9 1783 a13d
00000280: d85d 413e a62e 42bd 314e 82be 6280 f9bd
00000290: 0236 8c3e 97e1 193f d290 86be 22a2 d8bd
000002a0: 1e28 99bc d1ce 953d 518e 84bc 5170 0b3e
000002b0: ae05 0cbe 7893 77be 0dc8 8bbe d6d2 2a3d
000002c0: fb8c 963d 9abd 0bbf 835d 163e 3c48 d83c
000002d0: 725e a43e 916e e63d db88 4b3e 4337 4ebd
000002e0: 7576 dfbd 4cad 243e 9c6b 1ebe ad41 b93d
000002f0: 3b1e c8bd 982a 3dbf eef6 883c 7b8d 6ebe
00000300: a62a 83bd 9673 1cbe 00d2 65be 69a2 1dbe
00000310: fca0 523e 3c9f e33d d38c 9b3c 6c6f 223e
00000320: 5fcf 89bd 2e77 1a3f b24b a4bd de46 22be
00000330: 5cfa a53d e0e7 44be 76ce 053e fe5c aabd
00000340: 7cc2 a63d 68d4 823e 6531 9bbd 3b89 38be
00000350: 90f6 1cbe 4df5 ffbe e44c 98be da5c 28bb
00000360: 52b8 5ebe a332 65bd cb74 953d 8062 453e
00000370: 51da 64bc 2ef8 55bd 0130 9e3d 9147 70be
00000380: 5870 03bc 86f2 0d3f 00f6 a43d b9ae 463b
00000390: 76ee 4abe 210e 223e 8484 473e f090 033e
000003a0: 3046 883e 65bc 8b3c a3fe 593e 9d76 6a3d
000003b0: 8974 6a3e 283c db3e 79ab 48be d333 31be
000003c0: 250c 81bb dfc2 65be 0d2c 6c3e acf9 2abe
000003d0: d216 e53d 8243 5fbe 7737 16bd 71ec 31be
000003e0: 0b19 fe3d c5b2 57be 20a6 2f3e cc6b 80be
000003f0: 1b70 c53d 4d11 6dbe a625 48be b735 38be
-0.25271776 0.09210661 0.15006524 0.19946027 0.14403956 0.05659497 -0.11165919 -0.2991818
-0.045492567 0.627147 0.05911723 0.2748451 -0.2157184 0.18577266 0.2842407 0.0636664
-0.2013227 -0.15480581 -0.20466444 0.28536326 0.20247015 0.70225304 -0.1647048 -0.07967298
-0.2577327 0.24089128 0.17715944 0.08584716 0.06307433 -0.27778703 0.071710624 0.061962076
0.29780236 0.564555 0.006906906 -0.004913361 0.12773661 0.10312544 0.16997074 0.22718157
-0.23803118 -0.1376147 0.063189946 0.19401796 -0.1003637 -0.5343504 -0.32156578 -0.14143354
-0.22853082 0.17804834 -0.006293907 0.2641404 -0.17896986 -0.29459298 0.08689475 0.15060705
-0.09415996 0.6739102 0.15039746 -0.26183996 0.22623666 0.12784508 0.13161956 -0.31959718
0.31943265 0.15101838 0.22725235 0.23898333 -0.20055279 -0.0846213 0.010646417 -0.038756475
0.08080997 0.103841566 0.13321362 0.022366514 -0.21230003 -0.17232147 -0.060848337 0.13321418
-0.032894578 0.59051144 0.14805712 0.026846966 0.282125 -0.21242058 -0.02002084 0.24576806
0.10517151 0.26647484 0.005677105 -0.17923321 0.22903714 -0.7111063 -0.17664127 -0.06034305
0.2595728 -0.10866688 -0.16608447 0.045365766 0.0768645 -0.05196141 -0.048503336 -0.043172166
-0.22397488 -0.015594625 0.035789113 0.1470313 -0.21372034 0.15333353 0.2104016 -0.17218493
0.001991716 0.11555892 -0.3415888 0.104217246 -0.15918992 0.56393164 -0.12929258 0.18324348
0.2680883 0.067025214 -0.1243489 0.20931657 -0.20916313 -0.12210897 0.2306 -0.09609999
-0.14756717 0.049792547 -0.2221812 0.028166985 0.14451954 0.1293718 0.10440604 -0.0941739
0.057522554 -0.28891104 0.17276946 -0.20805931 0.08912662 0.6701264 -0.16216274 -0.13180229
0.12071212 0.0017882145 -0.0042034998 -0.19899893 0.15842183 -0.011097762 -0.021607714 0.20716754
0.3228256 -0.6647553 0.20866893 -0.20929 0.10500108 -0.20176473 -0.0001973902 0.078863315
0.18883455 -0.04740777 -0.2545028 -0.1218269 0.27384955 0.6010985 -0.26282364 -0.105777994
-0.018695887 0.07314838 -0.016181143 0.13617064 -0.13674042 -0.24177349 -0.27301064 0.041704975
0.07351109 -0.54586184 0.1468411 0.026401632 0.32103306 0.112515576 0.19876425 -0.05034567
-0.10911266 0.16081733 -0.15470737 0.0904573 -0.09771391 -0.7389312 0.016719308 -0.23296158
-0.06404619 -0.15278468 -0.2244339 -0.15393986 0.20569223 0.11114356 0.018988049 0.15862817
-0.06729006 0.60338104 -0.0802225 -0.15847346 0.08104393 -0.19229078 0.1306704 -0.08318518
0.08142564 0.25552678 -0.07577781 -0.180211 -0.15328431 -0.49991837 -0.29746163 -0.002569011
-0.2175 -0.055956494 0.07297667 0.19275856 -0.013968066 -0.052238636 0.07724 -0.234648
-0.00802239 0.55448186 0.08054733 0.0030316545 -0.19817528 0.15825702 0.19484144 0.12848258
0.2661605 0.017057607 0.21288542 0.057242025 0.22896017 0.42819333 -0.19596662 -0.17304926
-0.0039382153 -0.22437619 0.23063679 -0.16696805 0.11185993 -0.21803096 -0.03667399 -0.17375351
0.1240712 -0.21064289 0.17153215 -0.25082242 0.09640523 -0.23151131 -0.19545612 -0.1798924

critic.0.bias f4 [256]
00000000: 2c15 22be 9872 463e cd97 aabd 62a7 093e
00000010: 06b2 91be b361 91bd 5e08 673d 8b47 4b3c
00000020: 1924 27be bb88 123e 705c 093d 4d9f f13c
00000030: fe53 503e f8b4 4a3e 483c 28bc 160d 553e
00000040: eced cbbc efd1 373d bf22 703d 4f9d 3dbd
00000050: 097e 5fbe b93f d6bd eece 123e f61b a13d
00000060: 906d 51be 2d23 36ba 257d 33be 5a4f 9ebc
00000070: 3c6d 1dbd 7ccf ba3d 8a1f 2dbe f6de 3e3e
00000080: 2916 6fbe 1d97 213e 5aaf 4dbe 2c37 01be
00000090: 8406 2f3e fc7a ac3d cb7a bdbd 911d 1b3e
000000a0: b71d 7abc 40fe c2be 6e6a 2c3e 8da4 13bd
000000b0: 92e1 873e db45 2c3e 8fb0 523e f51e 8abe
000000c0: 9a86 6e3e 5ac5 3ebe 6e52 e83d ebdd 8d3d
000000d0: af50 983d 5e8c c5bc 1ac9 60be 39f0 99bd
000000e0: 701f a3bc 3599 f53d b981 283e 84ed 97be
000000f0: 815a 0dbe 7bc8 353e 0980 a13e 6859 dd3c
00000100: 0f76 88be 76a1 853c 69e6 94bd 3c40 723e
00000110: 5e56 a53d 65e9 563e 33e7 60be 05bf 913d
00000120: 7f0f 7ebe 3c88 213d 6db4 2abe 8097 94be
00000130: c033 00be a2a5 563d 32b1 113e 6977 5abe
00000140: a8d9 22bd 02fc b63d d8b8 973d 9e31 c0bd
00000150: f5d1 42bd 7602 843e 5ee4 953e 40b5 92be
00000160: 5113 9c3d 5f5c 8ebe 2327 99be 06c6 263e
00000170: 1521 2d3e 14b2 eb3d 8d2f 09be 00ec b83d
00000180: 29fa 493e 7d3c bc3d 5f42 e53d 05ac 3abe
00000190: cad2 753e b63f 923e 79e0 753e b65c 0cbe
000001a0: f276 b3bd 33cd 1abd 1bdd 143e 7fbc 043e
000001b0: 362f 4d3d 492e 89bd b54a e43c 5ccb 15bd
000001c0: 1701 63be aec1 0ebe 5afd 0cbe 13f7 573d
000001d0: 34d6 3b3d f000 5c3e 166a 85be 729e 82bc
000001e0: 2314 95be 4480 0dbd 7bd9 933e 95a3 65be
000001f0: a84e 2dbe 040f d93d aaa1 4abe 3551 743e
00000200: 8e48 053e a1a4 9e3e 6da2 703d 8b5c 68bd
00000210: 84a1 1fbe c6d7 5f3e 2780 e83d d0cc 133e
00000220: 7a43 753e 43a3 fcbd 0e6c 943d 76d4 213d
00000230: fd7f fb3d 928b 0f3d 39f2 653e a7af 573e
00000240: c483 21be 0b93 933e 4655 1ebd c442 c33d
00000250: 59ab a13e d991 273e 923d 8b3e d47c a9bd
00000260: 43ff 9f3e c409 743e 15f9 023e e990 5bbe
00000270: 1213 17be cde1 b43d 71e9 8b3e 1ff5 67bd
00000280: 2197 f53d 8968 58be d82c dfbd 002d b63d
00000290: a6fd 81be 742b 5a3e 6a56 afbb ce2e 1f3e
000002a0: 6c47 2d3e 308d 49bd cf6c 5cbe e2ad fe3a
000002b0: 4a22 78be d457 81be 5506 3bbe 494a 1c3e
000002c0: 43e2 3fbe 69b4 a0be d68e cebd 33ee 14be
000002d0: a0cf 3f3e 7440 c33c d091 0cbe 21d1 6fbe
000002e0: cfd0 a43d cccd ec3d 2232 6d3d 9ea8 803e
000002f0: 7ff9 82be 732c 19be 13dc e2bd 4782 34be
00000300: 9b7d 113d a4a9 b5bd 43b9 8b3c 1b96 913e
00000310: deec 37be ac42 163e 0de6 71be 8650 b63d
00000320: eb86 68be 107d fe3c 512e 1ebe 2bff 343e
00000330: 78e1 d33d a0ab a53e 2a12 9c3e eac9 d53c
00000340: baff a0bd beed 6abe 0797 8fba 1d7a 5d3d
00000350: 8c13 bebd c8c8 37bd 6d37 003e 138a fa3c
00000360: 0524 60be 4f35 80be 787c d3bd d0db 993d
00000370: e354 403d 7756 5a3e 6be2 773e 5b6d 5bbd
00000380: 6732 373e 5790 a23d eb1a 8ebd c785 72bd
00000390: d10f 213e 2585 6cbe 5f66 ae3d 5486 993e
000003a0: e499 92be f17d 81be 0587 3cbd 5767 22bd
000003b0: 95dc 00bd 1523 8dbe 1835 3abe c511 4e3e
000003c0: ec7f eabd e313 16bb d2cf debd 1cc9 8d3d
000003d0: 40cb a3bd c08f 573e 2dd1 6bbc f527 0e3d
000003e0: 1b2b 413d 37c7 a0be d2c5 673b ae52 53be
000003f0: 0b95 25be e243 58bd 8e82 163d f2f5 773e
-0.15828389 0.19379652 -0.08329735 0.13442758 -0.28456134 -0.07098713 0.056404464 0.012407194
-0.16322364 0.14309971 0.03353542 0.029494906 0.2034454 0.19795597 -0.010268278 0.20805773
-0.024893723 0.044877943 0.058626886 -0.0462926 -0.21825422 -0.10461373 0.1433675 0.07866661
-0.20451951 -0.00069479906 -0.17528208 -0.019324947 -0.038434252 0.09121606 -0.16906562 0.1863974
-0.23348297 0.15780301 -0.20086423 -0.12618703 0.1709233 0.08421895 -0.092519365 0.15147997
-0.015265874 -0.38084602 0.16837475 -0.0360456 0.26539284 0.16823523 0.20575164 -0.26976743
0.23293534 -0.18629971 0.11343847 0.06927093 0.07437264 -0.024114784 -0.21951714 -0.07516522
-0.019912452 0.119921125 0.16455735 -0.29673398 -0.13804056 0.17752258 0.31542996 0.027020171
-0.26652572 0.016312342 -0.0727051 0.23657316 0.08073114 0.2098747 -0.21963196 0.07116512
-0.24810599 0.039436564 -0.1667039 -0.29021835 -0.12519741 0.052404054 0.14227751 -0.21334614
-0.039758354 0.089347854 0.07408303 -0.09384464 -0.047563512 0.25783128 0.29275793 -0.28653908
0.07620872 -0.2780485 -0.2991267 0.16286477 0.16907151 0.11508575 -0.13397045 0.090293884
0.19724335 0.09191225 0.111943 -0.18229683 0.24006191 0.28564233 0.24011411 -0.13707241
-0.087629214 -0.03779335 0.1453747 0.1296253 0.050093852 -0.06698281 0.027867654 -0.03657089
-0.22168384 -0.1394107 -0.13768521 0.052725863 0.045858577 0.21484733 -0.260575 -0.015944693
-0.29116926 -0.03454615 0.28876862 -0.22425683 -0.16924536 0.10598567 -0.19788232 0.23859103
0.13015959 0.30984977 0.05874865 -0.05672888 -0.15588957 0.21859655 0.11352568 0.14433599
0.23951522 -0.12335827 0.07247172 0.03950926 0.12280271 0.035045214 0.22455682 0.210631
-0.15772921 0.28823122 -0.03865554 0.09534219 0.3157604 0.1636423 0.27195412 -0.08275762
0.31249437 0.2383185 0.1279033 -0.21441998 -0.14753368 0.088321306 0.2732654 -0.05663025
0.11991716 -0.21133627 -0.10897225 0.08895302 -0.2538883 0.21305639 -0.0053508775 0.15545198
0.16921777 -0.049206913 -0.21525882 0.0019430483 -0.2423183 -0.2526232 -0.18264134 0.15262713
-0.18738656 -0.31387642 -0.100858375 -0.14543991 0.18731546 0.023834445 -0.13727498 -0.2341962
0.080476396 0.1156269 0.05790914 0.25128645 -0.25580975 -0.14958362 -0.11077132 -0.17627822
0.035520177 -0.08870247 0.017056113 0.28434834 -0.17961451 0.14673871 -0.23622914 0.089020774
-0.22707717 0.031065494 -0.15447356 0.17675464 0.10345739 0.32357502 0.30482608 0.026097257
-0.07861276 -0.22942254 -0.0010955044 0.054071534 -0.09281072 -0.044869214 0.12521143 0.030583417
-0.2188874 -0.2504067 -0.10326475 0.07512629 0.046955954 0.21322046 0.24207465 -0.053571086
0.1789032 0.07937687 -0.06938728 -0.05920961 0.1572869 -0.23097666 0.085156195 0.29985297
-0.28633034 -0.25291398 -0.046027202 -0.039649334 -0.031460363 -0.27565828 -0.18184316 0.20123966
-0.114501804 -0.0022900037 -0.10879482 0.06923124 -0.07997751 0.2105093 -0.014393133 0.034706075
0.04716025 -0.3140199 0.0035365713 -0.20637009 -0.16170137 -0.052799113 0.0367456 0.24214914

critic.2.weight f4 [128, 256]
00000000: 2699 3a3e 3cbc 5c3e 1dc7 103e f23e ff3c
00000010: edbd 4b3e 322a a1bd 68ee 883d 2f87 10bc
00000020: 90d3 92bc 44c8 a1ba 4c4e 253d 84de 1bbd
00000030: 2255 5ebe b7bb 973c bf05 bcbc 1872 1f3c
00000040: 700d b13c be83 cdbd 3b8c be3d 8ff2 1a3d
00000050: 64aa c6bc b141 33bd 2d71 0c3c 8006 083e
00000060: 28a7 48bd 40e5 68bd cf72 93bd af93 613d
00000070: cdb0 95bd 7ec0 523c cb38 083e fac5 8b3b
00000080: 09d4 043e 0e78 103e 9f26 fabc 323c 2cbd
00000090: 225f 35bd 3c37 0dbb 259c 16be 2b9d 23bd
000000a0: 0cee 8f3d 0b02 f73d 3b8e 86bd ccca f13d
000000b0: e2a1 a23d 5f6f 85bc d991 133e 5724 9abd
000000c0: ed69 8bbd 1f61 86bd 83af b23d 8736 d83c
000000d0: a3ea 703d b1aa 10bd 59e0 88bd 5ba0 8b3b
000000e0: 0cbf 8b3d 920d 08bd 2e59 9b3d 8f54 59bd
000000f0: b05d 243d a615 d23b a709 33bc a4a9 93bd
00000100: 3a28 bd3d 6755 a9bd 7768 f1bd d37d 1bbd
00000110: 7a9c 903d 3944 17bd f563 103e a42d 92bc
00000120: 0c1e cabd 873a 593d b59d cc3d 8efb c8bc
00000130: cb44 5fbd cf2c f73d ff84 d83d 1de4 43bd
00000140: 910d 6a3d a552 25bd d1dc b3bd ee10 25be
00000150: 63b3 c9bc 64b4 fa3c 0de2 9b3e f390 a8bd
00000160: cb81 6d3d 1ae6 f7bc 6229 5bbe 22c6 8f3d
00000170: 17b0 85bc c673 9cbd ed50 2cbd edc0 83bd
00000180: 626e f0bd dd1e b1bd e4d2 75bd 4dd9 aa3c
00000190: b870 ae3d e343 7b3d c598 08be 8882 debd
000001a0: 96bb 703c 6d2e eabc 1046 273d 13b9 b1bc
000001b0: a4b6 573b d88b 3dbd 939a ce3c 6c0b 113d
000001c0: 84f1 85bc e81e 9fbd 0a84 883c 21f6 86bc
000001d0: 0884 8f3d e3ea c43d 984b debd 8213 a2bd
000001e0: 9578 5dbd ae35 923d 34de 893c 06e3 9dbc
000001f0: 4f06 c5bd 94ed d5bd 098b b13d c220 a33d
00000200: f196 08be fe39 12bd 3d94 263e 2684 a2bd
00000210: 1c87 a1bc 89b0 60bd e34e 13be 5c8c 2b3d
00000220: 39f0 5ebb 076a 40be 7653 273d 0b37 043d
00000230: a4d7 8c3d 1502 a0bc 6ed3 8ebd 79d7 c83d
00000240: 54e5 6fbd 9d6c cf3d e66d b9bb 8b0a e03c
00000250: 50f0 80bc 1dcb cd3c 2d6b 683d 9944 873d
00000260: 1c3f 1ebe c29c 253d f16d 313d 523f 77bd
00000270: 521a 81bc 8689 66bc 7716 193e 5bce 80bd
00000280: b066 9cbd 40e3 d53d 7667 003d 2a48 373e
00000290: 6191 b4bc 7ac2 c1bb 2460 203d 5398 bebc
000002a0: fad8 9e3d 993b 493c b8c8 72bd 323a fe3c
000002b0: f4ca b2bc f1cd de3d 8f71 e43d f40b 2e3d
000002c0: 7595 08bd 07be 833d 9f7f 1dbd 47d6 3f3d
000002d0: 1909 e5bd a36d 393c f824 9f3d 1729 33bd
000002e0: 6294 06bc 01a2 f2bb 18f0 d2bc c674 233c
000002f0: 6c19 c33d 1de5 c73d 3b96 75be 40d9 39bd
00000300: 9e9d 29bd 2865 7ebd e2c8 7dbd 4f2b 033e
00000310: 2b64 363b 4c1c 8cbd 0d18 85bc d980 3c3d
00000320: 9d5c 7dbd 914c 9ebc 16b5 ac3d 63cd 963c
00000330: a648 77bd 3654 d93d 50f1 ffbc 4338 fc3b
00000340: f3d5 8bbd 5c9b f2bc 119b 4e3d 6ee0 0d3d
00000350: f075 86bd 1f3c 61bc 723a 953c 9062 10be
00000360: 96f8 0e3d 5743 193c 853e f5bc accb c23c
00000370: f6b1 183d 981e 023d 6677 94bc 2602 58bb
00000380: 3382 afbd e177 afbd 9357 fb3d 9c79 b5bd
00000390: 57bb 9a3d c9da c83d c847 0cbe 19e5 a53d
000003a0: f62a 873c a857 28be f15b c5bd e232 a9bc
000003b0: 4fcd 2bbc 9a07 17be 2209 61ba a151 c43d
000003c0: 3871 a4bd 1245 e3bc b72c 5e3d 11d9 c93b
000003d0: 8bf1 0a3e 1482 d0bd 823f 1a3e 1787 e83d
000003e0: fa6f fe3d b32f 16bd 6bfa dcbd 2e11 393e
000003f0: a6a3 b6bd a7d8 603c 675e 1abd 3cbc a83d
0.18222484 0.2155618 0.14138456 0.031157944 0.1989667 -0.07869376 0.066860974 -0.008821293
-0.017923146 -0.0012343009 0.040357873 -0.038054004 -0.21712163 0.018522127 -0.022951959 0.009731792
0.021612853 -0.100348935 0.093040906 0.03782898 -0.02425117 -0.04376382 0.008571905 0.1328373
-0.048987538 -0.056859255 -0.071996324 0.055072483 -0.07309113 0.0128632765 0.13302915 0.004265544
0.1297151 0.14108297 -0.030535994 -0.042049594 -0.04428018 -0.0021547815 -0.14708002 -0.03994481
0.07027826 0.120609365 -0.06570097 0.118062586 0.07941033 -0.016288457 0.14411105 -0.075264625
-0.06807313 -0.06561493 0.087248825 0.026393188 0.058817517 -0.035319034 -0.06683416 0.004261059
0.06823549 -0.033216067 0.07585369 -0.053059157 0.04012841 0.006411272 -0.010927594 -0.07210091
0.09236188 -0.08268242 -0.11787503 -0.037961792 0.070610955 -0.036930297 0.1410063 -0.017844029
-0.09869012 0.05303433 0.09991018 -0.024534013 -0.054508965 0.120690934 0.10572242 -0.047824968
0.057141844 -0.04036202 -0.08782352 -0.1611974 -0.024621671 0.030603595 0.304459 -0.08230772
0.05798511 -0.030261088 -0.21402505 0.07020213 -0.016319318 -0.076392695 -0.042069364 -0.06433282
-0.11739804 -0.08648465 -0.060015574 0.02085557 0.08517593 0.06134404 -0.13339527 -0.108647406
0.0146931615 -0.02858659 0.0408383 -0.021694696 0.0032915259 -0.046275944 0.025220191 0.035411283
-0.016350515 -0.07769567 0.016664524 -0.016474785 0.07007605 0.096151136 -0.10854262 -0.07913877
-0.054070074 0.07139145 0.016829588 -0.019273292 -0.09620344 -0.10445705 0.08669097 0.079652324
-0.1333883 -0.035699837 0.16267486 -0.079353616 -0.019717745 -0.054855857 -0.14385562 0.041881904
-0.0034017696 -0.18790446 0.04085108 0.032279056 0.06877068 -0.019532243 -0.06973921 0.09806723
-0.058568314 0.10128138 -0.005658853 0.027348777 -0.01573959 0.025121266 0.056742836 0.06604881
-0.15453762 0.0404327 0.04331774 -0.06036312 -0.01575962 -0.014070874 0.14949976 -0.06289359
-0.076367736 0.10443735 0.031348668 0.17898622 -0.022041978 -0.005913076 0.039154187 -0.023265993
0.07756229 0.012282276 -0.05927345 0.031033609 -0.021825291 0.10879124 0.11154472 0.04249187
-0.03334566 0.06432729 -0.038451787 0.04683521 -0.11183376 0.011317643 0.07770723 -0.04374036
-0.008214088 -0.0074045663 -0.025749251 0.009976571 0.09526333 0.09760497 -0.2398309 -0.0453732
-0.04141008 -0.06210819 -0.061959155 0.1280949 0.00278307 -0.06841335 -0.01624682 0.046021316
-0.0618559 -0.01932362 0.08432977 0.018408483 -0.060372017 0.10611765 -0.031242996 0.0076971366
-0.06827917 -0.029615097 0.05044085 0.03463786 -0.065654635 -0.013747244 0.018216345 -0.14100099
0.03490504 0.009354434 -0.029937038 0.023778759 0.03727909 0.031767458 -0.01812334 -0.0032960265
-0.085697554 -0.08567787 0.12272563 -0.08861086 0.075552635 0.09807355 -0.13699257 0.081003375
0.016499978 -0.16439688 -0.09636677 -0.020654146 -0.010485961 -0.14748994 -0.000858443 0.09585882
-0.08029407 -0.027742896 0.054241862 0.0061599095 0.13568704 -0.101810604 0.15063289 0.11353891
0.124237016 -0.036666583 -0.10789951 0.1807296 -0.08917932 0.013723529 -0.037687685 0.08239028
