policy/PPO/checkpoints/2025-10-04_08-08/ppo_soarm_8500.pth (torch, 895437 bytes, 33 tensors)

actor.0.weight f4 [256, 12]
0	0x3db53417	0.08847826
1	0x3d10edcc	0.03538303
2	0x3df77821	0.1208346
3	0xbe728ac0	-0.23685741
4	0xbe0b7e4a	-0.13622394
5	0xbe5c6bc1	-0.2152548
6	0xbc9098fe	-0.017651077
7	0xbe4de2d1	-0.20106055
8	0xbe4097fd	-0.18807979
9	0x3f0100c7	0.5039181
10	0x3e51537c	0.20442003
11	0xbdb646ea	-0.089002445
12	0xbb8c44ba	-0.004280654
13	0xbd43dbeb	-0.047817152
14	0xbc947a55	-0.018124739
15	0xbe811b3c	-0.2521609
16	0xbdfdfffa	-0.12402339
17	0x3e9fc02b	0.312013
18	0x3e20afdb	0.15692084
19	0xbdef00d8	-0.11670083
20	0x3e9e0c81	0.30868915
21	0x3b448003	0.0029983527
22	0xbd93c27a	-0.07214828
23	0x3cad9ff3	0.021194434
24	0x3e7fcbf5	0.24980147
25	0x3cdea27a	0.027177084
26	0x3e9a4209	0.30128506
27	0x3d5b4631	0.053533737
28	0xbe31ba4b	-0.17356221
29	0x3eb09725	0.34490314
30	0xbe9a0d66	-0.30088347
31	0xbe8b2523	-0.2717677
32	0x3d7b881e	0.06140911
33	0x3e38962e	0.18026039
34	0x3e3385bd	0.17531486
35	0xbe12cbfb	-0.14335625
36	0xbdad26dc	-0.084546775
37	0xbe570751	-0.20998885
38	0x3d188d7c	0.037244305
39	0xbdc1f4b8	-0.094705045
40	0xbd98a718	-0.074537456
41	0x3e8abb68	0.27096105
42	0x3dfcd148	0.12344605
43	0xbe673a0b	-0.22580735
44	0xbd42cbe9	-0.047557745
45	0x3e842f38	0.25817275
46	0xbd788001	-0.06066895
47	0x3d8271e2	0.06369378
48	0x3db90316	0.09033792
49	0xbe5309db	-0.20609228
50	0xbe13d34c	-0.14436072
51	0x3e1a30db	0.150577
52	0xbd02df05	-0.03195097
53	0x3dca54c1	0.09879447
54	0x3d98c4f2	0.07459439
55	0xbca0274a	-0.019549984
56	0xbe733334	-0.23750001
57	0x3f0b58d0	0.5443239
58	0x3d9104ad	0.0708097
59	0xbe2c64d4	-0.16835338
60	0xbdf6a003	-0.120422386
61	0xbe38d565	-0.18050154
62	0xbda7a23f	-0.08185243
63	0x3d51be95	0.051207144
64	0x3d5dd9aa	0.05416266
65	0xbd8f8d5e	-0.070093855
66	0x3e3599a1	0.17734386
67	0xbde177cd	-0.11009178
68	0x3ec82d5f	0.39097115
69	0x3e3ed214	0.18634826
70	0xbddfde34	-0.10931054
71	0xbcdcdabf	-0.026959775
72	0x3c5983bb	0.013276036
73	0xbdc29732	-0.095014945
74	0xbcd8ff8b	-0.02648904
75	0xbd65df77	-0.056121316
76	0x3ceeeea3	0.029166525
77	0xbe1f423b	-0.15552609
78	0xbd0f5054	-0.034988716
79	0xbd626330	-0.055270374
80	0xbd8b7abd	-0.0681052
81	0xbb95e175	-0.0045739957
82	0xbd3922e1	-0.04519928
83	0xbe4ff7c7	-0.20309363
84	0x3d8d6ca9	0.06905491
85	0xbcd2ef9a	-0.025749017
86	0xbd9e5f7c	-0.07733056
87	0xbe90b975	-0.28266492
88	0xbdcc4952	-0.09974922
89	0xbd8115d5	-0.06302992
90	0xbea5623f	-0.32301518
91	0xbd99830f	-0.074957006
92	0x3cdb4b05	0.02676917
93	0x3ce2dd91	0.027693542
94	0x3ecd2690	0.40068483
95	0xbe53e558	-0.20692956
96	0x3b986dca	0.0046517598
97	0xbdef56a6	-0.11686449
98	0xbe3bf86e	-0.18356487
99	0xbd31efa8	-0.043441445
100	0xbe0f283b	-0.1398019
101	0x3e09d5d4	0.13460475
102	0xbdea9b0c	-0.11455354
103	0x3dcc6ff2	0.099822894
104	0x3d19eaf1	0.037577573
105	0xbe74ff7a	-0.23925582
106	0xbe1ddc51	-0.15416075
107	0xbe2784c6	-0.16359243
108	0x3e64213f	0.22278307
109	0x3e244118	0.16040456
110	0x3e8b3e31	0.27195886
111	0xbdb96913	-0.090532444
112	0xbd8b09dc	-0.0678899
113	0x3dad2783	0.08454802
114	0x3e09561a	0.13411751
115	0x3e2007ba	0.15627947
116	0x3e22dfb8	0.15905654
117	0x3dc37b91	0.09545053
118	0x3e5ff6ec	0.21871537
119	0x3e51ba55	0.20481236
120	0x3db91c59	0.0903861
121	0x3d56a18d	0.05240016
122	0xbe0347e1	-0.12820388
123	0xbe53c741	-0.20681478
124	0xbdb4e6ee	-0.08833109
125	0x3e65bc95	0.2243522
126	0x3daa70de	0.08322309
127	0x3e1befc2	0.15228179
128	0xbecea458	-0.4035976
129	0x3ca1f1f8	0.0197687
130	0x3e89b951	0.26899198
131	0xbe925f81	-0.2858849
132	0xbe91ea7f	-0.2849922
133	0x3e1eade9	0.15496029
134	0x3ea8e4e3	0.32987127
135	0x3df9abd9	0.121909805
136	0xbe7d2d3e	-0.2472429
137	0x3dd54947	0.10414367
138	0xbe9b9f10	-0.30394793
139	0x3ea48107	0.3212969
140	0xbc5d7f7e	-0.013519166
141	0x3d9dee3b	0.077114545
142	0x3d4b5d6e	0.04964965
143	0x3de463da	0.11151858
144	0xbe1ccdbf	-0.15312861
145	0x3e3a30aa	0.18182626
146	0x3e86ab14	0.26302397
147	0x3e27235f	0.16322087
148	0xbd4e08e5	-0.05030145
149	0xbdc63e54	-0.09679857
150	0x3e27aded	0.16374941
151	0x3e30292f	0.1720321
152	0x3e63b307	0.22236262
153	0x3f045663	0.51694316
154	0x3d5fcc6e	0.05463832
155	0x3e3130da	0.17303792
156	0x3cdf2eea	0.02724405
157	0xbdd945d5	-0.106090225
158	0xbe1a696f	-0.15079282
159	0xbe004afa	-0.12528601
160	0xbda9148f	-0.08255874
161	0xbead7dd0	-0.3388505
162	0xbd89a6be	-0.06721257
163	0xbe36b921	-0.17844059
164	0x3e977902	0.2958451
165	0xbe821880	-0.25409317
166	0x3e5e24d4	0.21693736
167	0xbcb9abd0	-0.022664934
168	0xbe0df07f	-0.13861273
169	0xbe46ed43	-0.19426446
170	0xbc23b453	-0.009991723
171	0x3e2007d3	0.15627985
172	0xbdfe05fa	-0.12403484
173	0xbe1e1a97	-0.1543983
174	0x3d882a23	0.06648662
175	0x3e157af0	0.14597678
176	0xbce3dd81	-0.027815582
177	0xbf05e594	-0.52303433
178	0x3d8d3caf	0.0689634
179	0xbd9b2ac9	-0.0757652
180	0x3da28719	0.07935924
181	0xbd871668	-0.065960705
182	0xbd6bebb3	-0.057597827
183	0x3e689487	0.22712909
184	0x3d52036a	0.051272787
185	0xbe4ade03	-0.19811253
186	0xbea68afe	-0.32527918
187	0x3e14d2f2	0.14533594
188	0x3e14cd7d	0.14531513
189	0x3ccd9699	0.025096225
190	0xbd9b2ef8	-0.07577318
191	0xbca59bcf	-0.020215897
192	0x3e092685	0.133936
193	0xbd40b6df	-0.0470494
194	0xbe43fcc0	-0.19139385
195	0xbd5a9d29	-0.053372536
196	0x3e77016c	0.24121636
197	0x3e5c367b	0.21505158
198	0x3a316374	0.0006766834
199	0xbe201748	-0.15633881
200	0xbe6b0d1e	-0.22954223
201	0x3ecd4250	0.40089655
202	0x3dc13182	0.09433271
203	0x3dcb1550	0.099161744
204	0x3ccf35c9	0.025294201
205	0xbe82cf81	-0.25548938
206	0xbdf3a021	-0.118957765
207	0x3e1499d0	0.145118
208	0x3d29d6eb	0.041464727
209	0x3b1c70bc	0.0023870906
210	0xbe585661	-0.21126701
211	0xbe1a0d2b	-0.15044086
212	0x3e81724b	0.2528251
213	0x3dcc9644	0.099895984
214	0x3dce2959	0.1006648
215	0xbe8938e4	-0.26801217
216	0xbd8b2fa8	-0.06796199
217	0xbe5b4965	-0.21414717
218	0xbebd90c3	-0.37024507
219	0x3e6551f6	0.22394547
220	0x3dd6381b	0.1045992
221	0x3dfd9e20	0.123836756
222	0xbd9b87dc	-0.075942725
223	0x3e2c7ec5	0.16845234
224	0xbc870552	-0.01648203
225	0x3efcc7be	0.4937114
226	0x3dc8d6f6	0.098066255
227	0xbdf3d75d	-0.11906312
228	0x3e6b17ea	0.22958341
229	0xbd405efa	-0.046965577
230	0xbcff2346	-0.03114475
231	0x3e2239f1	0.15842415
232	0xbda184f8	-0.0788669
233	0xbe8d82d9	-0.2763889
234	0x3e589706	0.21151361
235	0x3d1ff3f2	0.039051004
236	0xbe1bb66f	-0.15206312
237	0x3d73e24c	0.059541985
238	0x3ddafa34	0.10692254
239	0x3d23fc0b	0.04003529
240	0x3e2702f3	0.16309719
241	0xbd5234f8	-0.051320046
242	0xbc9288f2	-0.017887566
243	0x3e2b638c	0.16737193
244	0x3d935e59	0.0719573
245	0xbbba9b03	-0.0056947484
246	0xbd1e9848	-0.038719445
247	0x3d93b872	0.072129145
248	0x3da31494	0.07962909
249	0xbf193d96	-0.598596
250	0xbe6b08ed	-0.22952624
251	0x3e1065ea	0.14101377
252	0x3e22ba91	0.15891482
253	0x3e017dec	0.12645692
254	0xbcfe65b0	-0.031054348
255	0xbe173540	-0.14766407

actor.0.bias f4 [256]
0	0x3dfe107c	0.12405488
1	0xbdc09462	-0.09403302
2	0x3e58c727	0.2116972
3	0x3e82d07c	0.25549686
4	0x3dee8f2c	0.116484016
5	0x3d7d95fd	0.061910618
6	0x3e4289df	0.18997906
7	0x3c2bd5d2	0.01048799
8	0xbe6ccb83	-0.23124509
9	0x3e181f2f	0.14855646
10	0xbcd4474e	-0.025912907
11	0x3e174010	0.14770532
12	0xbd23dfd6	-0.04000839
13	0x3b31d8fc	0.002713739
14	0x3e775b93	0.24156027
15	0xbd4663e5	-0.04843511
16	0xbe27555c	-0.16341156
17	0x3e5fd90c	0.2186014
18	0xbe26b354	-0.16279346
19	0x3dc2b36f	0.095068805
20	0x3c383624	0.011243377
21	0xbe94cd72	-0.29062992
22	0x3c261328	0.010136403
23	0x3e48a33a	0.19593516
24	0x3df95494	0.12174335
25	0x3c79c59f	0.01524487
26	0xbe82340d	-0.25430337
27	0xbea458e7	-0.32099077
28	0xbcc8cde0	-0.024512231
29	0x3da56908	0.08076674
30	0xbddef7c9	-0.10887105
31	0xbe32deec	-0.1746785
32	0xbdb1dadf	-0.086843245
33	0xbe67ef9c	-0.22649997
34	0xbd9fe751	-0.07807792
35	0xbe7277fe	-0.23678586
36	0x3cf63697	0.030055327
37	0x3db494d4	0.08817449
38	0x3bee0731	0.007264041
39	0x3e4d32ea	0.20038953
40	0x3d961706	0.0732861
41	0x3e3d9124	0.18512398
42	0x3debc609	0.115123816
43	0xbe468579	-0.19386853
44	0x3e3caa5d	0.18424363
45	0xbe0d68ea	-0.13809553
46	0x3c85586f	0.01627752
47	0xbe90edde	-0.28306478
48	0x3e61c5b1	0.2204807
49	0x3d7ab5f6	0.061208688
50	0x3e835869	0.2565339
51	0x3cbc01bd	0.022950048
52	0x3e2a67c7	0.1664115
53	0x3e2b4c34	0.16728288
54	0xbe38375b	-0.17989866
55	0xbe437d13	-0.19090681
56	0xbd926081	-0.07147313
57	0x3e3f289f	0.1866784
58	0xbe8eea51	-0.27913144
59	0x3e3650aa	0.17804208
60	0xbe931dfe	-0.2873382
61	0x3e10eb37	0.14152227
62	0xbea58d67	-0.32334444
63	0x3e6e6d80	0.23283958
64	0x3d00401c	0.03131114
65	0xbdb938ca	-0.09044035
66	0xbe2f9af6	-0.17148957
67	0xbd4c0860	-0.049812675
68	0xbea7f0ea	-0.3280099
69	0xbc45fe05	-0.012084489
70	0x3d8f2d09	0.06991012
71	0xbcb93456	-0.022607964
72	0x3e4769bc	0.19473928
73	0xbd15d8f0	-0.03658384
74	0x3d8a8d45	0.06765226
75	0xbe7eca82	-0.24881938
76	0x3e9e2205	0.3088533
77	0x3dfb5697	0.12272375
78	0x3cb18b37	0.021672828
79	0x3ea6ef19	0.32604292
80	0xbd8b9361	-0.0681522
81	0xbe175970	-0.14780211
82	0x3e4f18fa	0.20224372
83	0x3d78a4d8	0.060704082
84	0x3deb6c42	0.11495258
85	0x3e8904ff	0.26761624
86	0x3e3eac19	0.18620338
87	0xbe6981f8	-0.22803485
88	0xbd81ba76	-0.06334393
89	0x3e769e33	0.24083786
90	0x3b53c2da	0.0032312186
91	0x3e402c9c	0.18767017
92	0x3df4d026	0.11953764
93	0xbe09db1a	-0.13462487
94	0xbe337d15	-0.17528184
95	0xbe4149e8	-0.18875849
96	0x3e03f3b6	0.12885937
97	0xbd735a57	-0.059412327
98	0xbe3554e3	-0.17708163
99	0x3db4ee8e	0.08834563
100	0xbe1538b8	-0.14572418
101	0x3e45c098	0.1931175
102	0x3be540a1	0.0069962298
103	0xbd6b8ac8	-0.0575054
104	0x3dff28c2	0.12458946
105	0x3d9f1807	0.07768255
106	0xbd01d7f6	-0.031700097
107	0x3d559eb8	0.05215332
108	0xbd2d2c0a	-0.042278327
109	0xbdef86ac	-0.116956085
110	0x3d9b76f5	0.07591049
111	0xbd171c63	-0.036892306
112	0x3d8185e6	0.06324367
113	0xbdf5359d	-0.119731165
114	0x3e172035	0.1475838
115	0xbb24d801	-0.0025153162
116	0xbe1d6564	-0.15370709
117	0x3e894d98	0.26817012
118	0xbe0c313c	-0.13690656
119	0x3d27fb04	0.04101087
120	0x3de596a4	0.11210373
121	0xbcbd7faf	-0.023132173
122	0xbcf15856	-0.029461067
123	0xbdb32dff	-0.087490074
124	0xbd1c3e2f	-0.03814524
125	0x3d06af62	0.0328821
126	0xbe0d1dea	-0.13780943
127	0xbd46dbde	-0.048549525
128	0xbdbbb10f	-0.091646306
129	0x3c68e845	0.014215534
130	0xbe7773a0	-0.24165201
131	0xbe09809d	-0.13427968
132	0xbdbf8762	-0.09351994
133	0xbe6f9461	-0.23396446
134	0xbe6ef65e	-0.23336169
135	0x3c925847	0.01786436
136	0xbdf28395	-0.118415035
137	0xbc13adf8	-0.009013645
138	0xbe88cb05	-0.26717392
139	0x3e6a245a	0.2286543
140	0xbe0be074	-0.13659841
141	0x3ceef444	0.02916921
142	0xbe1536a3	-0.14571624
143	0x3d92a85d	0.07161019
144	0x3cbc7bf4	0.023008324
145	0x3dd9b21c	0.10629675
146	0x3ddcfb4a	0.10790117
147	0x3e26488c	0.16238612
148	0x3eae6e3c	0.34068477
149	0x3d7c8f96	0.06166037
150	0xbe488dff	-0.19585417
151	0xbc951111	-0.018196614
152	0x3dba1a3f	0.09087037
153	0xbea75571	-0.32682374
154	0xbe157125	-0.14593942
155	0x3d7a8feb	0.061172407
156	0xbe7335ff	-0.23751067
157	0x3e0ecb9e	0.13944861
158	0x3e59e55e	0.21278903
159	0x3ddde662	0.10834958
160	0x3da16c27	0.078819565
161	0xbd513d41	-0.051083807
162	0x3e1ea0b3	0.1549099
163	0xbdae6bb6	-0.08516638
164	0x3dc32a0a	0.09529503
165	0x3dc01721	0.093794115
166	0x3db75fe8	0.089538395
167	0x3e2cae2f	0.16863321
168	0xbe134d29	-0.14384903
169	0xbe5ae203	-0.21375279
170	0x3e86b6c4	0.26311314
171	0xbdce8647	-0.10084205
172	0x3caa94f1	0.020822974
173	0x3e3cc45d	0.18434282
174	0x3dd04294	0.10168949
175	0xbd8fec5c	-0.07027504
176	0x3ba4eee8	0.0050333627
177	0x3d6996cc	0.057028577
178	0xbd9feeea	-0.07809241
179	0xbdb5f1bc	-0.08883998
180	0xbdb9a3fb	-0.0906448
181	0x3d072ff6	0.033004723
182	0xbbd8b83b	-0.006613759
183	0x3d12bca5	0.035824437
184	0xbc878db7	-0.016547067
185	0xbdcc9abf	-0.09990453
186	0x3da961e5	0.08270625
187	0xbdcc0483	-0.09961798
188	0xbd955253	-0.07291093
189	0x3da99ebb	0.082822286
190	0xbde1e589	-0.110301085
191	0x3ce645f7	0.028109534
192	0xbe0028f2	-0.1251562
193	0x3b763a17	0.0037571245
194	0xbc7480ac	-0.014923256
195	0xbdbf49b5	-0.093402304
196	0xbdf9750d	-0.12180529
197	0x3dc2bc7d	0.095086075
198	0x3e8c6b2d	0.2742552
199	0xbddc0d79	-0.10744757
200	0x3d85ae40	0.06527376
201	0xbe54c862	-0.20779565
202	0x3d575907	0.052575137
203	0xbe7296b3	-0.236903
204	0x3e7b70bb	0.24554722
205	0x3e0dd534	0.13850862
206	0x3d9bbddf	0.076045744
207	0xbe45e69b	-0.1932625
208	0x3d8890f8	0.066682756
209	0x3ea65e8c	0.3249401
210	0xbda5a0d2	-0.08087315
211	0xbd41a8eb	-0.047280233
212	0xbdeb5b9e	-0.11492084
213	0x3c38dae2	0.0112826545
214	0xbde0fc8f	-0.10985672
215	0xbc0e3106	-0.00867868
216	0xbe6face9	-0.23405804
217	0xbc0dd664	-0.008657072
218	0x3de4efd8	0.11178559
219	0xbe3044ff	-0.1721382
220	0xbdb38f69	-0.08767588
221	0x3cfe71c6	0.03106011
222	0x3e2d19b4	0.16904336
223	0x3d8c6090	0.06854355
224	0xbe1f16dc	-0.15536064
225	0xbbb086f3	-0.005387181
226	0xbdd7ad22	-0.10531069
227	0x3dd7f42c	0.10544619
228	0xbcfe0741	-0.031009318
229	0xbe58cfaf	-0.21172975
230	0x3e894f0d	0.26818123
231	0x3dbbb016	0.09164445
232	0x3e34d09d	0.17657705
233	0xbdad37b2	-0.08457889
234	0xbe4b5422	-0.19856313
235	0x3d703b1e	0.05865013
236	0xbd850944	-0.06495908
237	0x3dee45cf	0.11634409
238	0x3e76f9aa	0.24118677
239	0x3dba3a9a	0.090932086
240	0x3d5d9430	0.0540964
241	0xbda6eaf5	-0.08150283
242	0xbdd63d42	-0.10460903
243	0xbe701ee6	-0.23449287
244	0x3d9aeaa3	0.07564285
245	0x3e95ced4	0.2925936
246	0xbe0b8505	-0.13624962
247	0xbc9053de	-0.017618116
248	0x3ddae051	0.10687316
249	0xbe13a93b	-0.14420025
250	0x3c9dc64b	0.019259593
251	0x3e8dcdf5	0.27696195
252	0x3e0f677f	0.14004324
253	0xbe362668	-0.17788088
254	0x3ea39d0e	0.3195576
255	0xbe0cae2e	-0.1373832

actor.2.weight f4 [128, 256]
0	0xbd39622f	-0.04525965
1	0xbb7960be	-0.0038052048
2	0xbe0dcbc6	-0.13847265
3	0xbda69889	-0.081345625
4	0xbdef4f0c	-0.11684999
5	0xbdb07ae9	-0.08617193
6	0x3c79086e	0.015199764
7	0x3a9be037	0.0011892383
8	0x3cad6658	0.021166965
9	0xbda3ca49	-0.07997567
10	0x3c841e85	0.016127834
11	0xbdc16fa7	-0.09445124
12	0xbe087959	-0.1332754
13	0x3d2b25a1	0.041783933
14	0x3d7eaaf2	0.062174745
15	0xbd82de95	-0.063901104
16	0xbd589e89	-0.052885566
17	0xbd249ea9	-0.040190373
18	0x3cf2e9f7	0.029652579
19	0x3ca30d13	0.019903695
20	0x3dcbe176	0.09955113
21	0x3d75416f	0.059876855
22	0x3d4c0d57	0.04981741
23	0x3d89ebf5	0.06734458
24	0xbcf49082	-0.029854063
25	0xbc2a5bbf	-0.010397851
26	0x3db405ae	0.08790146
27	0xbd73fb27	-0.05956569
28	0x3d5175fc	0.05113791
29	0x3cadea53	0.021229899
30	0x3da72c35	0.08162729
31	0xbc28df4a	-0.0103071425
32	0x3d8d3132	0.06894149
33	0x3d81948d	0.06327162
34	0xbd6d92d5	-0.058001358
35	0x3b579a32	0.0032898304
36	0x3c56d083	0.0131112365
37	0x3dce4f48	0.100737154
38	0x3cfd3036	0.030906778
39	0xbd45386f	-0.048149522
40	0x3d074542	0.033025034
41	0x3d090f32	0.033461757
42	0x3cbaf1b5	0.022820333
43	0x3cd2f1c6	0.025750052
44	0x3dbe4a76	0.09291546
45	0x3d1d475b	0.038398128
46	0x3c24423b	0.010025556
47	0x3e25ebb1	0.1620319
48	0x3d863849	0.06553704
49	0xbd62ad4f	-0.05534106
50	0xbc23c0bc	-0.009994682
51	0xbd71b3d9	-0.059009407
52	0xbe01fbfe	-0.12693784
53	0xbcc4a558	-0.024004623
54	0xbdc23f03	-0.09484675
55	0x3df06251	0.11737502
56	0xbd5b812e	-0.053589992
57	0x3c139e0a	0.009009847
58	0xbc17494a	-0.009233782
59	0xbe1051d0	-0.14093709
60	0x3d7f0767	0.06226292
61	0xbd19b5de	-0.037526958
62	0x3d58d31b	0.0529357
63	0xbd5b33bd	-0.05351614
64	0x3c0f8e5b	0.0087619675
65	0x3d69d019	0.057083223
66	0x3da59496	0.08084981
67	0xbc9955da	-0.018717695
68	0x3db3a3d1	0.0877148
69	0xbd84fccc	-0.0649353
70	0x3dc1ec39	0.09468884
71	0x3d67352a	0.056447186
72	0xbd6176ea	-0.055045046
73	0x3d83faa4	0.0644429
74	0xbcb1b1d6	-0.021691244
75	0x3b9fd6c5	0.0048778974
76	0xbd623384	-0.05522491
77	0x3d58831f	0.05285942
78	0xbd894cc8	-0.06704098
79	0xbd589853	-0.052879643
80	0x3d302b58	0.043010086
81	0x3e00c056	0.1257337
82	0x3d74c945	0.059762258
83	0xbd216163	-0.039399516
84	0xbd80253d	-0.06257103
85	0xbd816417	-0.06317919
86	0xbd6277e4	-0.055290118
87	0x3d3588fb	0.044320088
88	0xbceee2bf	-0.029160855
89	0x3cca3fe3	0.024688667
90	0xbaddd36f	-0.0016923974
91	0xbda20b08	-0.0791226
92	0xbd182c9f	-0.03715193
93	0xbddaa051	-0.10675109
94	0x3daecc02	0.08535005
95	0xbc566e39	-0.013087803
96	0xbd9a0a2d	-0.07521472
97	0x3ddff51e	0.10935424
98	0x3cfe8a3b	0.031071773
99	0x3ce600c0	0.02807653
100	0x3db341fc	0.0875282
101	0xbd203c50	-0.03912002
102	0x3cb09772	0.02155659
103	0xbc57e576	-0.013177266
104	0xbd784a60	-0.060617805
105	0x3dbd2ba2	0.09236838
106	0xbc1ca90a	-0.009561786
107	0xbdc1467a	-0.094372705
108	0x3d6121b9	0.0549638
109	0x3ded0b47	0.115744166
110	0xbd631527	-0.055440094
111	0xbce2d410	-0.02768901
112	0x3d08090f	0.033211764
113	0x3c0e564f	0.00868757
114	0xbcce088e	-0.025150564
115	0x3cc5e34a	0.024156231
116	0x3c409325	0.011753832
117	0xbc30f71f	-0.010801106
118	0x3c9f91f2	0.019478772
119	0x3d30d6e9	0.043173704
120	0xbbd8078c	-0.0065926965
121	0x3c57baf5	0.013167133
122	0x3c07f8e6	0.008299088
123	0xbd6fd54f	-0.058553036
124	0xbcdcb96a	-0.026943881
125	0xbd4e6582	-0.050389774
126	0x3d9cda24	0.076587945
127	0xbb14d123	-0.0022707663
128	0x3d552bc9	0.05204371
129	0xbd091de7	-0.033475783
130	0xbddc1689	-0.10746486
131	0xbcd15e80	-0.025557756
132	0xbd164470	-0.03668636
133	0xbc66359f	-0.01405087
134	0x3dc935a9	0.09824688
135	0xbca5931c	-0.020211749
136	0xbd57e6a3	-0.052710187
137	0xbccfdb1c	-0.025373034
138	0x3dfb9035	0.12283365
139	0xbd138d3a	-0.036023356
140	0xbca1a392	-0.019731317
141	0xbcb01938	-0.0214964
142	0x3c91a7a9	0.017780142
143	0x3c44ba61	0.012007327
144	0xbd94848d	-0.072518446
145	0xbd59787d	-0.053093422
146	0xbc7f289b	-0.015573646
147	0xbda6783e	-0.08128403
148	0xbd4e4f14	-0.050368384
149	0xbd14aa2f	-0.036295112
150	0x3d9edd92	0.07757105
151	0xbd9b05dd	-0.07569478
152	0x3c32efd3	0.010921436
153	0x3d93a8f3	0.07209959
154	0xbd32691b	-0.043557268
155	0xbd3062c7	-0.04306295
156	0x3e357f3f	0.17724322
157	0xbc574cd4	-0.013140876
158	0xbd8eb729	-0.06968529
159	0x3cc40eb1	0.023932787
160	0xbc973db9	-0.018462049
161	0xbca4726b	-0.02007409
162	0xbd67795d	-0.056512225
163	0xbdbc7818	-0.092025936
164	0xbd341790	-0.043967783
165	0x3da164c4	0.07880548
166	0xbd3add7f	-0.04562139
167	0xbdfe56a8	-0.12418872
168	0xbc65596c	-0.013998371
169	0x3d75713a	0.059922434
170	0xbdd02367	-0.101630025
171	0xbd40c5b0	-0.04706353
172	0xbda33fce	-0.07971154
173	0xbd9e3270	-0.07724464
174	0xbd604db9	-0.054761622
175	0xbd70b2f0	-0.058764398
176	0xbd104dc6	-0.03523042
177	0xbc810095	-0.015747348
178	0xbcc5c764	-0.024142928
179	0xbd1bce62	-0.03803862
180	0xbd3c3774	-0.04595132
181	0xbc755ed9	-0.014976227
182	0x3c1aa630	0.009439036
183	0x3ca6b994	0.020352162
184	0xbd7fbf69	-0.062438402
185	0xbd8b15c7	-0.06791263
186	0xbd82857e	-0.06373118
187	0xbca08d8c	-0.019598745
188	0x3c9a4dbc	0.018835895
189	0xbb1810d6	-0.0023203394
190	0x3d8df06a	0.06930621
191	0x3dcc9443	0.09989216
192	0xbd9bf2fe	-0.076147065
193	0xbd23ff97	-0.04003867
194	0xbd4f7390	-0.05064732
195	0xbb9b6523	-0.004742281
196	0xbcf1f6e5	-0.029536674
197	0x3ca6741f	0.020319043
198	0x3d2d8feb	0.04237358
199	0x3d363722	0.044486172
200	0x3ccce773	0.025012707
201	0x3dcf67c0	0.101272106
202	0x3c8da0fb	0.017288676
203	0xbcfe00a5	-0.031006167
204	0xbdc210fc	-0.09475896
205	0x3cf11b95	0.029432097
206	0x3b7fe1a0	0.0039044395
207	0xbb7c8a48	-0.003853457
208	0x3d3cd470	0.046101034
209	0xbdd90a8b	-0.10597714
210	0x3d382976	0.044961415
211	0x3cfb5983	0.030682331
212	0x3d42d526	0.047566555
213	0x3c7160ff	0.014732598
214	0xbd1b0141	-0.037842993
215	0xbc13dba5	-0.009024535
216	0x3c92a2db	0.017899921
217	0x3c434250	0.011917666
218	0xbd2b0a6a	-0.04175798
219	0x3d86445d	0.06556008
220	0x3d394dc1	0.045240168
221	0xbd0bdbb5	-0.034145076
222	0x3d3727dd	0.04471575
223	0xbca113fe	-0.019662853
224	0x3d347690	0.044058383
225	0xbdadefc1	-0.08492995
226	0x3d994f02	0.07485773
227	0x3c8578f0	0.016293019
228	0xbd039772	-0.03212685
229	0xbdbd953b	-0.09256979
230	0xbda27e7c	-0.07934281
231	0x3d4a01d1	0.04931814
232	0x3d8d8066	0.06909256
233	0xbd408fea	-0.047012247
234	0x3cc2364d	0.023707533
235	0xbcdf3a75	-0.027249554
236	0xbc0371d9	-0.008022749
237	0x3d81966b	0.06327518
238	0xbd2cf259	-0.04222331
239	0x3bc3c7b1	0.005974733
240	0x3c3f6a9b	0.011683132
241	0x3cd946d8	0.026523039
242	0xbd3d6fdf	-0.046249267
243	0xbbd48c77	-0.0064864713
244	0x3bceeee3	0.0063150986
245	0xbd8d8e16	-0.06911866
246	0x3c049247	0.008091516
247	0xbcea0b9c	-0.028569989
248	0x3d513f66	0.051085852
249	0x3d272d8b	0.040814918
250	0x3d32cfe4	0.04365529
251	0x3c797db7	0.015227727
252	0xbd99b7f3	-0.07505789
253	0x3d277ace	0.0408886
254	0x3d130d30	0.03590125
255	0x3dc49ac7	0.09599834

actor.2.bias f4 [128]
0	0x3cf101a3	0.029419726
1	0x3b2e1a9d	0.0026566156
2	0x3d8a1bfc	0.06743619
3	0x3bcf3cf4	0.006324405
4	0x3bb442ca	0.005501126
5	0xbd28bed0	-0.041197598
6	0x3c6cfa55	0.014463981
7	0xbc8c9346	-0.01716007
8	0x3c856507	0.016283525
9	0x3d668205	0.05627634
10	0x3d496d4f	0.04917651
11	0xbd2fa328	-0.042880207
12	0xbd34c535	-0.044133384
13	0xbd2ed062	-0.042679198
14	0xbb8893de	-0.004168018
15	0x3c9a400d	0.01882937
16	0x3c5fac70	0.013651952
17	0x3c80ff2e	0.01574668
18	0x3cdeba28	0.027188376
19	0xbd0c81c1	-0.03430343
20	0xbc1d155d	-0.009587613
21	0x3e043ee1	0.12914611
22	0xbc53ff09	-0.012939223
23	0x3b8bea72	0.0042698914
24	0xbd02f130	-0.031968296
25	0xbcab8271	-0.020936223
26	0xbd57782f	-0.05260485
27	0x3c3cc5ad	0.011521739
28	0xbd5069b4	-0.050882056
29	0xbccb2684	-0.02479864
30	0x3c741571	0.01489769
31	0x3d67a88e	0.05655723
32	0xbc663805	-0.014051442
33	0x3a07edcf	0.00051852776
34	0x3cfce72b	0.030871948
35	0xbc4c7e5f	-0.012481301
36	0xbbb94f19	-0.005655181
37	0x3d0d6650	0.0345214
38	0x3e1189b7	0.1421269
39	0x3d3bde19	0.045866106
40	0x3cca26e8	0.024676755
41	0x3c8cc08b	0.017181655
42	0x3ce06817	0.027393384
43	0xbcaf0810	-0.02136615
44	0x3d030519	0.031987283
45	0xbc954ffa	-0.018226612
46	0xbb42962c	-0.002969156
47	0xbd5e3b35	-0.054255683
48	0x3d1427aa	0.03617064
49	0x3cacf962	0.021115009
50	0x3cb5e5b6	0.022204261
51	0xbcc5fe51	-0.02416912
52	0xbbac67ef	-0.0052614133
53	0xbd7ea0c0	-0.062165022
54	0xbc7ff033	-0.015621233
55	0xbd36e44d	-0.04465132
56	0x3c006daf	0.007838651
57	0x3d3bf925	0.0458919
58	0xbcb7d023	-0.022438115
59	0xbd1707bc	-0.03687261
60	0xbdc327af	-0.095290534
61	0xbd5c0edc	-0.05372511
62	0x3d652a05	0.055948276
63	0x3d09c4a6	0.033634804
64	0xbbec0f19	-0.007203948
65	0x3ce9b09d	0.028526599
66	0xbd0a9d39	-0.033841345
67	0x3c1ed070	0.00969325
68	0xbcab208d	-0.020889545
69	0xbe1ce749	-0.15322603
70	0x39ba7568	0.0003556416
71	0xbd014329	-0.03155819
72	0xbbe563b4	-0.007000411
73	0x3c8a386e	0.01687261
74	0x3d04f201	0.032457355
75	0xbd0867a0	-0.03330195
76	0x3ca156b1	0.019694658
77	0x3c92e1be	0.017929908
78	0x3caa7cac	0.020811401
79	0xbc97c8f3	-0.018528437
80	0xbdaf0279	-0.085453935
81	0xbcdddf11	-0.027083905
82	0xbd454e6c	-0.048170492
83	0xbc6dbfd1	-0.014511065
84	0xbc2890fb	-0.010288472
85	0xbcdd07a6	-0.026981186
86	0x3c29cdc5	0.010364001
87	0x3d0607d4	0.03272231
88	0x3be0d7cd	0.006861663
89	0xbd37f99a	-0.044915773
90	0x3be75631	0.0070598354
91	0xb9f0cb2e	-0.00045927748
92	0x3d15cf53	0.036574673
93	0xbc16840c	-0.009186756
94	0xbd5c8589	-0.053838287
95	0x3d3d79d6	0.04625877
96	0xbd363376	-0.04448267
97	0xbe1461d8	-0.1449045
98	0xbde20092	-0.11035265
99	0x3b58b589	0.0033067188
100	0xbba4f5d1	-0.0050341864
101	0x3b58cb7a	0.0033080266
102	0xbda061b5	-0.07831136
103	0x3d1549c0	0.036447287
104	0x3dc11411	0.094276555
105	0xbe551c97	-0.20811687
106	0x3d09e01e	0.033661
107	0xbd6352ab	-0.05549876
108	0xbcffd5ae	-0.03122982
109	0x3d8d8fbd	0.069121815
110	0xbc892410	-0.016740829
111	0xbbf4e93b	-0.0074740923
112	0x3d1d9472	0.038471647
113	0x3beae6a8	0.0071686096
114	0x3be41a96	0.006961177
115	0x3d17c048	0.037048608
116	0x3cb5ad55	0.022177378
117	0xbe436f58	-0.19085443
118	0x3c54e4fd	0.012994048
119	0x3c70873c	0.01468068
120	0xbd1ec890	-0.03876549
121	0xbc502449	-0.012703964
122	0x3b8b2bb4	0.004247153
123	0x3d305ecf	0.043059167
124	0x3d27e7df	0.040992614
125	0xbc498c60	-0.012301534
126	0x3cfb59b6	0.030682426
127	0x3d82991e	0.06376861

actor.4.weight f4 [6, 128]
0	0xbd55833d	-0.05212711
1	0x3c1ad666	0.009450531
2	0x3c2c604f	0.010521009
3	0xb84143cc	-4.6077927e-05
4	0x399c50ba	0.00029814785
5	0x3a3b794d	0.0007151559
6	0x3a65842d	0.00087553525
7	0x3c18c6d9	0.009324753
8	0x3b5ce0d3	0.0033703342
9	0xbb8e855b	-0.0043493933
10	0x3b2d5109	0.0026446006
11	0xbb258d8d	-0.0025261373
12	0x3aabffdf	0.001312252
13	0x3a822274	0.0009928481
14	0x3bb8cd3b	0.0056396998
15	0x3b075c38	0.0020654332
16	0xbbac804b	-0.005264317
17	0xbc1d8f78	-0.009616725
18	0x3b63b9bd	0.003474816
19	0xbb2859e2	-0.002568834
20	0x3c027c36	0.0079641845
21	0xbc1c2fe8	-0.009532906
22	0x3d2c77b7	0.042106356
23	0xbb62b261	-0.0034591185
24	0xbb13e857	-0.0022568905
25	0x3b4011b1	0.002930742
26	0xbac42877	-0.0014965673
27	0xbc2e8f50	-0.010654286
28	0xbc029f0d	-0.007972491
29	0xbabb7bb9	-0.001430384
30	0xbc105673	-0.008809674
31	0xbbd7aafd	-0.0065816627
32	0x3ac931dd	0.0015349943
33	0x3a90d892	0.0011050871
34	0xbadee1f1	-0.0017004592
35	0xb939bdc3	-0.00017713667
36	0x3d4b66f4	0.04965873
37	0x3c35e0be	0.011100946
38	0xbd3c939f	-0.04603922
39	0xbd993df5	-0.074825205
40	0xbbb1c098	-0.0054245703
41	0xbaa36b03	-0.0012467805
42	0x3bc7fcf9	0.0061031547
43	0xbd529f7d	-0.05142163
44	0xbdd63e46	-0.104610965
45	0x3bd47ef4	0.0064848606
46	0x3a0eec10	0.0005452046
47	0xb9d8e3b9	-0.00041368397
48	0xbae97940	-0.0017812625
49	0xbb9557e7	-0.004557598
50	0x3c05a86d	0.008157832
51	0x3cab8f15	0.02094225
52	0x3b7641bc	0.0037575802
53	0x3ac691bd	0.0015149635
54	0xbb4c84f8	-0.0031207185
55	0xba8497e1	-0.0010116064
56	0x3b07aeaa	0.0020703473
57	0x3bcf384e	0.0063238507
58	0x3b5be185	0.0033551168
59	0xbad6ec19	-0.0016397267
60	0x3d453afa	0.048151948
61	0xbaa04ec5	-0.0012230506
62	0xbb42ce58	-0.0029725041
63	0x3afb0248	0.001915046
64	0x3c8cced0	0.01718846
65	0x3bf2f745	0.0074147307
66	0x3a532fb8	0.0008056122
67	0xbafa0183	-0.0019073937
68	0xbb850ece	-0.0040606027
69	0xbd10c9e6	-0.035348795
70	0xbd2b3825	-0.04180159
71	0xba6ad0b3	-0.000895749
72	0x3d462e26	0.048383854
73	0x3bbbfb1b	0.005736721
74	0xbd5dd0c6	-0.05415418
75	0x3d0cf676	0.03441473
76	0x3c3670a8	0.011135258
77	0xbac2ce66	-0.0014862537
78	0x3acd09f3	0.0015643224
79	0xbb83a57e	-0.004017531
80	0xbc3c6f4f	-0.011501147
81	0x3d8f0632	0.069836035
82	0x3cb77045	0.022392401
83	0x3b0135d1	0.0019715915
84	0xbb358223	-0.0027695976
85	0xbb01bd81	-0.001979679
86	0x3c966a65	0.01836128
87	0x3d2ac077	0.041687455
88	0x3a97a000	0.001156807
89	0x3aa795db	0.0012785749
90	0x3b762287	0.00375572
91	0x3dc06cb6	0.09395735
92	0x39b06b1e	0.00033649144
93	0xbc05d93f	-0.008169471
94	0x3bed2212	0.0072367275
95	0x3a17b145	0.0005786608
96	0xbc144a91	-0.009050981
97	0xbd14a7de	-0.036292903
98	0x3c044749	0.008073636
99	0xbbd61b15	-0.00653399
100	0x3bc85af7	0.0061143595
101	0xbc37ca70	-0.011217698
102	0xbd32fd90	-0.043698847
103	0xbd86aee6	-0.06576328
104	0xbc95c90f	-0.018284349
105	0xbcc70580	-0.024294615
106	0x3b758e17	0.0037468725
107	0xbbb83c9a	-0.0056224586
108	0xbc0ccb19	-0.008593344
109	0x3ce9cbd8	0.028539583
110	0x3bb486bb	0.005509225
111	0xbdd6fc66	-0.1049736
112	0x3a7c6108	0.0009627496
113	0x38f08ff4	0.00011470905
114	0x3ca09a63	0.019604867
115	0xbb01e734	-0.0019821646
116	0xba0908d5	-0.00052274513
117	0x3b80c730	0.003929995
118	0xbced5b72	-0.028974269
119	0x3b97b63b	0.004629878
120	0xbbb6b9e0	-0.0055763572
121	0x3a9f0c7c	0.0012134458
122	0x3bfccd9a	0.0077149393
123	0x399e1597	0.00030152194
124	0xbb4644ec	-0.0030253483
125	0xbb670ac0	-0.003525421
126	0x3b03466a	0.0020030984
127	0x3b6612f2	0.0035106507
128	0x3cbc1fe7	0.022964431
129	0xbcb19679	-0.021678196
130	0xbb0ab353	-0.0021164014
131	0x3b9a4c15	0.0047087767
132	0xbb89a5dd	-0.0042006806
133	0x3cc195f1	0.023631068
134	0x3b3fb1fd	0.0029250376
135	0xbc720426	-0.014771497
136	0xbc659566	-0.01401267
137	0xbc687595	-0.01418819
138	0xbc48e580	-0.012261748
139	0xbc936423	-0.017992085
140	0x3ca8d3c7	0.020608796
141	0x3ba2bfdb	0.0049667186
142	0x3b37b902	0.0028033857
143	0xbc849068	-0.01618214
144	0x3c77d416	0.015126249
145	0x3cd13fdf	0.025543151
146	0x3c513836	0.012769749
147	0x3c8bba07	0.017056478
148	0x3b4f9727	0.0031675787
149	0xbcf0c79b	-0.029392054
150	0xbbf8df95	-0.0075950124
151	0xbc77a011	-0.015113846
152	0x3c3bdd1a	0.011466289
153	0xbcb8328f	-0.022485046
154	0x3a68ef93	0.0008885797
155	0x3c54ec18	0.012995742
156	0xbbf4f5e5	-0.007475602
157	0x3cd02161	0.025406541
158	0x3ca79adc	0.020459585
159	0x3c577206	0.013149744
160	0xbc65d487	-0.014027721
161	0x3c115ce2	0.008872243
162	0x3baf3e57	0.0053480077
163	0x3b8da3c7	0.0043225023
164	0xbcbb43e8	-0.022859529
165	0xb9854ff2	-0.000254273
166	0x3cea6fac	0.028617702
167	0xbcd63c0a	-0.026151676
168	0xbb49eb10	-0.0030810274
169	0xbba31468	-0.004976798
170	0xbcc3104c	-0.023811482
171	0xbd6a48f8	-0.057198495
172	0xbc977c91	-0.018492015
173	0x3b38a7a3	0.002817609
174	0xbc327a44	-0.010893408
175	0xbb069c44	-0.002053992
176	0x3ca24fa2	0.019813363
177	0xbce537d1	-0.027980717
178	0xbc549218	-0.012974285
179	0x3c87d4b9	0.016580926
180	0xbbe2348a	-0.006903236
181	0x3bdabbe0	0.0066752285
182	0x3ca98456	0.020692986
183	0x3cb9b58b	0.022669574
184	0x3c16f9da	0.009214843
185	0xbc7427d7	-0.014902077
186	0x3b1557e8	0.0022787992
187	0xbb7e0f8b	-0.0038766589
188	0xbcabb1d3	-0.020958817
189	0x398a80ca	0.00026417366
190	0xbc0cf8e2	-0.00860426
191	0xbb87d45d	-0.0041451887
192	0xbc842997	-0.016133113
193	0xbcdf7c23	-0.027280873
194	0xbbcc6fad	-0.0062388987
195	0xbb828104	-0.003982665
196	0x3ccb1656	0.024790924
197	0x3d4dc892	0.050240107
198	0xbc821106	-0.015877258
199	0x3c28d5b8	0.010304861
200	0x3d0d5dd2	0.034513302
201	0xbc2970f5	-0.010341872
202	0xbc86b544	-0.016443856
203	0xbc162e47	-0.009166307
204	0xbb9041c5	-0.0044023716
205	0x3c5be7f5	0.013422002
206	0x3bf000f9	0.0073243347
207	0x3b021759	0.0019850342
208	0x3c4a75ba	0.01235717
209	0x399ef60e	0.00030319433
210	0x3c253c44	0.010085169
211	0x3ca80ed9	0.020514892
212	0xbc08a446	-0.008339947
213	0xbc4388ac	-0.011934441
214	0x3a7d860d	0.0009671159
215	0xbd174650	-0.03693229
216	0xbcca317c	-0.0246818
217	0x3b51ae62	0.003199481
218	0xbc657acf	-0.014006331
219	0x3c1914e7	0.009343362
220	0xbb84ba4c	-0.0040505286
221	0x3c9bac40	0.019003034
222	0xbc462b6e	-0.012095315
223	0xbc187c1a	-0.009306932
224	0x3cdd778f	0.027034549
225	0xbd1c79cc	-0.038202092
226	0xbd5dd30f	-0.05415636
227	0x3b887193	0.0041639297
228	0xbcf16bed	-0.029470408
229	0x3c9e0f46	0.019294392
230	0xbd80a3bc	-0.0628123
231	0x3d1db4a1	0.03850234
232	0xbc8fd290	-0.017556459
233	0xbd176fe0	-0.036971927
234	0xbc59c1e2	-0.013290854
235	0x3c6948fb	0.014238591
236	0xba6cf304	-0.00090388977
237	0x3c69a3e6	0.014260268
238	0x3b941120	0.004518643
239	0x3b16401b	0.0022926393
240	0xbb9cae07	-0.004781488
241	0x3b0f764b	0.0021890576
242	0x3c4c90ce	0.012485696
243	0xbbb61e01	-0.005557776
244	0xbb65aa40	-0.0035044104
245	0xbccbd2f7	-0.02488087
246	0xbb589bf4	-0.003305194
247	0x3cfac873	0.03061316
248	0x3bff4fd9	0.007791501
249	0x3d08143a	0.033222415
250	0xbba20438	-0.0049443506
251	0xbba9573a	-0.005167869
252	0x3c3a4411	0.011368767
253	0x3b4300d8	0.0029755142
254	0xbc845c33	-0.016157245
255	0x3c2265b6	0.009911945

actor.4.bias f4 [6]
0	0xbc32f7d2	-0.010923343
1	0xba58ba08	-0.0008267467
2	0x3d98e4ee	0.0746554
3	0x3c55d9a5	0.013052379
4	0xba26d925	-0.00063647545
5	0xbdbbff2f	-0.09179532

critic.0.weight f4 [256, 12]
0	0xbe613af2	-0.21995142
1	0x3e0ef5c3	0.13960938
2	0x3da1956c	0.07889828
3	0x3ea85036	0.32873696
4	0x3dd7f03e	0.105438694
5	0x3d768c4e	0.0601924
6	0xbe1e97fc	-0.15487665
7	0xbeac37b6	-0.33636254
8	0xbd47621d	-0.048677552
9	0x3f892073	1.0713028
10	0x3db79349	0.08963639
11	0x3e8ade77	0.27122852
12	0xbe1456c7	-0.14486228
13	0x3e50de0a	0.20397201
14	0x3e85806d	0.26074544
15	0x3e174f3b	0.14776318
16	0xbe67d361	-0.22639228
17	0xbe8e9ea8	-0.2785542
18	0xbe565587	-0.20931064
19	0x3e706add	0.23478265
20	0x3e8c36e0	0.27385616
21	0x3f8bfd7d	1.0936733
22	0xbe603a09	-0.21897139
23	0xbd2703cc	-0.040775105
24	0xbe2cea96	-0.16886362
25	0x3e8df6ac	0.27727258
26	0x3dfefeed	0.12450967
27	0x3e2da17c	0.16956133
28	0x3da791cd	0.08182106
29	0xbe7c0d6b	-0.24614494
30	0x3d986f5b	0.07443114
31	0x3bc3688e	0.0059633916
32	0x3ea4c07e	0.3217811
33	0x3f8429da	1.0325272
34	0x3d9a0bff	0.07521819
35	0x3b3ff22d	0.0029288635
36	0x3e15f392	0.14643696
37	0x3da2a5a5	0.079417504
38	0x3e6e4126	0.2326704
39	0x3e878bdb	0.2647389
40	0xbe62a323	-0.22132544
41	0xbe5112b3	-0.2041729
42	0x3dee83f8	0.11646265
43	0x3e567609	0.20943464
44	0xbdd296de	-0.10282682
45	0xbf638916	-0.8888105
46	0xbecad1a6	-0.39613074
47	0xbdfe81a5	-0.124270715
48	0xbe2d78a9	-0.1694056
49	0x3e40e56e	0.1883752
50	0xbd09d6a1	-0.03365195
51	0x3eaf03de	0.34182638
52	0xbe40f7ff	-0.18844603
53	0xbeb530e2	-0.35388857
54	0x3d95789b	0.07298394
55	0x3e0a4025	0.13501032
56	0xbe13b1e5	-0.1442333
57	0x3f834652	1.0255835
58	0x3eb0b210	0.3451085
59	0xbe9c5c47	-0.30539152
60	0x3e723573	0.23653202
61	0x3e33a669	0.17543949
62	0x3db333e2	0.0875013
63	0xbf0aebe0	-0.54266167
64	0x3eaedbde	0.3415212
65	0x3eddaf8e	0.43298
66	0x3e7d29a4	0.24722916
67	0x3e402a7d	0.18766208
68	0xbde99f1c	-0.11407301
69	0xbe36b2f2	-0.178417
70	0xbe30c14a	-0.17261234
71	0x3d184ee6	0.03718462
72	0x3cbb93e4	0.022897668
73	0x3dbc82aa	0.0920461
74	0x3e1cd4bb	0.15315525
75	0x3cda3ef6	0.02664135
76	0xbe623fdd	-0.22094674
77	0xbe740486	-0.2382985
78	0xbe3df8d8	-0.18551958
79	0x3e0a78d6	0.13522658
80	0xbd1c6cc6	-0.038189672
81	0x3f5deafc	0.8668668
82	0x3e34c043	0.17651467
83	0x3d004556	0.031316124
84	0x3e4a8e95	0.19780953
85	0xbe8654f1	-0.2623668
86	0x3d02b0ee	0.031907015
87	0x3e84bcb6	0.25925225
88	0x3e0883c9	0.13331522
89	0x3e9f6786	0.3113367
90	0xbcf5f7d2	-0.030025396
91	0xbdb6c93b	-0.089251004
92	0x3def9407	0.11698156
93	0xbf8b6f28	-1.0893297
94	0xbe181898	-0.14853132
95	0xbe14bc37	-0.14524923
96	0x3e8ac249	0.27101353
97	0xbdbb3d50	-0.09142554
98	0xbe50c74f	-0.2038853
99	0x3de631c9	0.112399645
100	0x3df833e4	0.12119272
101	0x3d9a5adb	0.075368606
102	0xbd901fa7	-0.07037287
103	0x3b1c4514	0.0023844885
104	0xbec85c76	-0.39133042
105	0xbe34858b	-0.17629068
106	0x3e93e227	0.28883478
107	0x3ce5c3e8	0.028047517
108	0xbe0927aa	-0.13394037
109	0x3e0cae6b	0.1373841
110	0x3e64f990	0.22360826
111	0xbe47845a	-0.19484082
112	0xbd1499b0	-0.03627938
113	0x3dc837b7	0.09776252
114	0xbea1004d	-0.31445542
115	0x3daab711	0.083356984
116	0xbd8d8aa3	-0.069112085
117	0x3f88cd8c	1.0687728
118	0xbe8c2c4c	-0.27377546
119	0x3e6bb1f1	0.23017098
120	0x3ee0dd3c	0.43918788
121	0xbc77723d	-0.01510292
122	0xbba62ddb	-0.0050713844
123	0x3dcc7545	0.09983305
124	0xbdb612e5	-0.088903226
125	0xbdb1ab28	-0.086752236
126	0x3eae8b33	0.34090576
127	0xbd870168	-0.06592065
128	0xbe72d2f9	-0.23713292
129	0x3c12dd51	0.008963899
130	0xbdd6dd54	-0.10491434
131	0xbd30f3f6	-0.04320141
132	0x3dd65a6f	0.104664676
133	0x3df3c37c	0.1190252
134	0x3df34a41	0.11879397
135	0xbdf9e05d	-0.12200997
136	0x3dd5aa5e	0.104328856
137	0xbe7037c9	-0.2345878
138	0x3ccfee40	0.025382161
139	0xbe6616fd	-0.22469707
140	0x3d970120	0.073732615
141	0x3f7706bb	0.96494645
142	0xbe020303	-0.12696461
143	0xbe1ae60e	-0.15126821
144	0x3daacd30	0.08339918
145	0xbca8804f	-0.020568995
146	0x3ce0e763	0.027454084
147	0xbe962be6	-0.29330367
148	0x3e276afb	0.16349404
149	0x3da3a2ff	0.079900734
150	0x3ca5b5c2	0.02022827
151	0x3e7eb875	0.24875052
152	0x3ea4efe1	0.32214263
153	0xbf854fb6	-1.0414951
154	0x3e0022b3	0.12513237
155	0xbe547407	-0.20747386
156	0x3de1f88a	0.11033733
157	0xbe3a37c2	-0.18185332
158	0xbceeb93f	-0.029141067
159	0x3e202ceb	0.15642135
160	0x3e35a693	0.17739324
161	0x3ba78bb6	0.0051130904
162	0xbeaa1ce8	-0.3322518
163	0xbe24b847	-0.16085921
164	0x3ea52504	0.32254803
165	0x3f5dcd9f	0.8664188
166	0xbeba4fbf	-0.36388966
167	0xbdaa3173	-0.08310213
168	0xbc00fa3e	-0.007872162
169	0x3c11e8df	0.008905618
170	0x3d405601	0.04695702
171	0x3e49ce02	0.19707492
172	0xbdd640b5	-0.10461561
173	0xbe9f5b8a	-0.31124526
174	0xbe5b159b	-0.2139496
175	0x3e081114	0.13287765
176	0xbd2af3ca	-0.0417364
177	0xbf525313	-0.8215801
178	0x3ea9c886	0.331608
179	0xbd8861aa	-0.06659253
180	0x3e9f9188	0.3116572
181	0x3da01503	0.07816508
182	0x3e85be08	0.26121545
183	0xbda19d28	-0.07891303
184	0xbda80548	-0.08204132
185	0x3dfa9056	0.12234561
186	0xbdd91b3c	-0.10600898
187	0x3df6002e	0.12011753
188	0xbda046e5	-0.07826022
189	0xbf9432b8	-1.1577978
190	0xbde519d5	-0.11186568
191	0xbe59492f	-0.21219324
192	0xbd569b96	-0.052394472
193	0xbe0e2217	-0.13880192
194	0xbe8c7d7b	-0.27439484
195	0xbe2cfd86	-0.16893587
196	0x3e484b2e	0.19559929
197	0x3e76ef99	0.24114837
198	0xbcd66d73	-0.026175236
199	0x3e079e9b	0.13244097
200	0xbd77f8c8	-0.06053999
201	0x3f76f5e4	0.9646895
202	0xbc914fa8	-0.017738178
203	0xbe376a20	-0.17911577
204	0x3d9b8588	0.075938284
205	0xbda40b60	-0.08009982
206	0x3d0a4ace	0.033762746
207	0xbd3a0581	-0.045415405
208	0xbd780c58	-0.060558647
209	0x3e8cf254	0.27528632
210	0x38f2215d	0.000115456736
211	0xbe867d01	-0.26267245
212	0x3c6f2774	0.014596809
213	0xbf36f0a0	-0.71460915
214	0xbf1f4eb7	-0.62229484
215	0x3e298d02	0.16557696
216	0xbe61d47f	-0.22053717
217	0x3c541581	0.01294458
218	0xbbae1210	-0.005312212
219	0x3eb45128	0.35218167
220	0xbd91c2d9	-0.07117242
221	0xbe02a8d3	-0.12759714
222	0x3b0ec07b	0.0021782208
223	0xbe9e2bf5	-0.30892912
224	0x3d2fff81	0.042968277
225	0x3f736b37	0.9508547
226	0x3d3c77fd	0.046012867
227	0x3d51299a	0.051065065
228	0xbe4ee926	-0.20206127
229	0x3e418be8	0.18901026
230	0x3e0d11cf	0.13776325
231	0x3e3a0541	0.18166067
232	0x3e81c468	0.2534516
233	0x3e0e7a10	0.1391375
234	0x3e1e38e7	0.15451394
235	0x3c9aa806	0.018878948
236	0x3e815e2d	0.25267163
237	0x3f47bbaa	0.7802073
238	0xbe669ed7	-0.2252153
239	0xbe338e11	-0.17534663
240	0xbd49b67b	-0.049246293
241	0xbed5fb75	-0.4179341
242	0x3ed0069e	0.4063005
243	0xbe9991d4	-0.2999407
244	0x3e5a7980	0.21335411
245	0xbe9853b9	-0.29751375
246	0xbd6496dc	-0.055807933
247	0x3dae06e7	0.0849741
248	0xbe07126b	-0.1319062
249	0xbe87797d	-0.26459876
250	0x3ebd7e1b	0.37010273
251	0xbefb0555	-0.49027506
252	0xbbff7e3c	-0.0077970307
253	0xbe60f067	-0.21966706
254	0xbe6b9590	-0.23006272
255	0xbdd81b80	-0.1055212

critic.0.bias f4 [256]
0	0xbe25c9ae	-0.16190216
1	0x3e6e46d1	0.23269202
2	0xbd9a8857	-0.07545536
3	0x3e1b3989	0.15158667
4	0xbea7fe6d	-0.328113
5	0x3ba25821	0.0049543534
6	0x3d7956f0	0.060873926
7	0xbd947b90	-0.0725013
8	0xbe907d93	-0.28220806
9	0x3e429699	0.19002761
10	0xbd1af6f6	-0.037833177
11	0x3c243e68	0.010024644
12	0x3e522ff5	0.20526107
13	0x3e61eed7	0.22063766
14	0xbdd37c2d	-0.10326419
15	0x3e6a505d	0.22882219
16	0xbd3a8438	-0.04553625
17	0x3e5a2347	0.2130252
18	0x3dda70ac	0.10666022
19	0xbd4706ff	-0.048590656
20	0xbeea59d5	-0.4577166
21	0xbddefc34	-0.10887948
22	0x3e8baf5a	0.2728222
23	0x3d5cd473	0.053913545
24	0xbe80fefc	-0.25194538
25	0x3deb5bd9	0.11492128
26	0xbe19a77c	-0.15005296
27	0xbd0ddc79	-0.034634087
28	0xbdc43ed3	-0.09582295
29	0x3da8bfcf	0.082397096
30	0xbe68d690	-0.22738099
31	0x3e5b6b24	0.2142759
32	0xbe721a73	-0.23642902
33	0x3e7defb1	0.24798466
34	0xbe94c86a	-0.29059154
35	0xbe39d59c	-0.18147892
36	0x3e53a7fa	0.20669547
37	0x3d5ae85f	0.053444263
38	0xbdd1b5f3	-0.10239782
39	0x3e5b5700	0.21419907
40	0x3d64439c	0.05572854
41	0xbedee628	-0.4353497
42	0x3e2b2a32	0.16715315
43	0xbbec6798	-0.007214498
44	0x3e9d6f3f	0.30748937
45	0x3e3b685b	0.18301527
46	0x3e85a81b	0.26104817
47	0xbe971cdb	-0.29514202
48	0x3e2493cb	0.16072004
49	0xbe751646	-0.23934278
50	0x3d517972	0.05114121
51	0x3c94dc5c	0.018171482
52	0x3d0b6c8b	0.03403906
53	0xbbf3c0c7	-0.0074387523
54	0xbe6e4797	-0.23269497
55	0xbd6480e8	-0.055786997
56	0x3dc8d203	0.098056816
57	0x3d2607a1	0.04053462
58	0x3e2ed8e1	0.1707492
59	0xbeb658b5	-0.35614553
60	0xbe4d4cd4	-0.20048839
61	0x3ea418be	0.32050127
62	0x3eccd9ba	0.40009862
63	0x3d5c62a7	0.05380502
64	0xbe7d066a	-0.24709478
65	0xbd82f856	-0.063950226
66	0xbdcb8eda	-0.09939356
67	0x3e841b44	0.25802052
68	0x3e2a6e33	0.166436
69	0x3e4ae1d7	0.19812714
70	0xbe8beae5	-0.27327648
71	0x3da229b7	0.07918113
72	0xbe9f3827	-0.31097528
73	0x3d71143f	0.0588572
74	0xbe6d3fee	-0.23168918
75	0xbea8cea8	-0.32970166
76	0xbe428284	-0.189951
77	0x3dd8c35d	0.105841376
78	0x3e2dd63e	0.16976258
79	0xbeae8d8b	-0.34092364
80	0xbd956e5d	-0.07296441
81	0x3ce72e6f	0.028220383
82	0x3e14856f	0.14504026
83	0xbca55da8	-0.02018626
84	0x3d050465	0.032474894
85	0x3eb2168f	0.34782836
86	0x3eb71cc7	0.35764143
87	0xbe9a4185	-0.30128112
88	0x3d391c55	0.045193035
89	0xbe756c2e	-0.23967049
90	0xbec7bff1	-0.39013627
91	0x3e42db7f	0.19029044
92	0x3e41a33d	0.18909927
93	0x3d88eccf	0.06685793
94	0xbe16803f	-0.1469736
95	0x3d2dcc58	0.042431206
96	0x3e9c768d	0.30559197
97	0x3e31bebd	0.17357917
98	0x3ddbba7b	0.10728928
99	0xbdf23e5b	-0.118282996
100	0x3ea6280d	0.3245243
101	0x3eb7db42	0.35909468
102	0x3e81be3c	0.2534045
103	0xbe756844	-0.23965555
104	0xbdc9c128	-0.09851295
105	0xbc926171	-0.01786873
106	0x3e868d07	0.2627947
107	0x3e3a32c3	0.18183427
108	0x3d28f06e	0.041244917
109	0xbdf9d8c4	-0.12199548
110	0x3d6bb4d9	0.057545517
111	0x3caa4a49	0.020787375
112	0xbe9f366a	-0.31096202
113	0xbe74367a	-0.23848906
114	0xbe3b7555	-0.18306477
115	0x3da964d4	0.082711846
116	0x3d6c5bb2	0.057704635
117	0x3eb67323	0.35634717
118	0xbea7a75f	-0.32744882
119	0x3d84b243	0.06479313
120	0xbeee00c6	-0.46484965
121	0xbdfc51ad	-0.12320266
122	0x3ee06d07	0.4383318
123	0xbe5c6c51	-0.21525694
124	0xbe95e215	-0.2927405
125	0x3e04581e	0.12924239
126	0xbe6667c2	-0.22500518
127	0x3e824225	0.2544109
128	0x3e5ad6e1	0.21371032
129	0x3ee9ad33	0.45639953
130	0x3d578b14	0.05262287
131	0xbd107b6b	-0.03527395
132	0xbe03e573	-0.12880497
133	0x3e7f0376	0.24903664
134	0x3e571147	0.21002685
135	0x3e213669	0.15743412
136	0x3e7cd260	0.24689627
137	0xbe29e8fa	-0.1659278
138	0x3c6a6e56	0.014308533
139	0x3d7ef85a	0.062248565
140	0x3e3ebc18	0.1862644
141	0x3cbfac31	0.023397537
142	0x3e6723b2	0.2257221
143	0x3e8677a3	0.2626315
144	0xbe927529	-0.2860501
145	0x3e7694ee	0.2408025
146	0xbd82659c	-0.06367037
147	0x3e1289f7	0.14310442
148	0x3ec1ad7c	0.3782767
149	0x3e16fdf6	0.14745316
150	0x3eedbc47	0.46432707
151	0xbd9810cd	-0.074250795
152	0x3eac6bb6	0.33675927
153	0x3eba6804	0.36407483
154	0x3d6982d7	0.057009544
155	0xbe820687	-0.25395605
156	0xbe4ad625	-0.19808252
157	0x3c3b4e45	0.011432235
158	0x3ea1048f	0.3144879
159	0xbe0dd7c8	-0.13851845
160	0x3db48abf	0.08815526
161	0xbe32909a	-0.17437974
162	0xbe7cc0f7	-0.24682985
163	0x3d7c55b6	0.061605178
164	0xbea04fec	-0.31310976
165	0x3e3bda81	0.18345071
166	0xbc15ae38	-0.009135775
167	0x3e3b839d	0.18311925
168	0x3e39d2a7	0.18146764
169	0xbce92c76	-0.028463583
170	0xbe865683	-0.26237878
171	0xbda75610	-0.08170712
172	0xbdd42aa0	-0.103596926
173	0xbe2b713b	-0.16742413
174	0xbe36dba6	-0.17857227
175	0x3dfecd48	0.12441498
176	0xbe0491a2	-0.1294618
177	0xbeb21cbc	-0.34787548
178	0xbddb5965	-0.1071041
179	0xbd91a58c	-0.07111654
180	0x3e8e2ad9	0.27767065
181	0x3d2d3d40	0.04229474
182	0xbe416dab	-0.18889491
183	0xbeaba032	-0.33520657
184	0x3e096cc6	0.134204
185	0x3daefdeb	0.08544525
186	0xbd2ad74f	-0.04170924
187	0x3e556877	0.20840631
188	0xbe8d6199	-0.27613524
189	0xbe2f48b1	-0.17117573
190	0xbde51beb	-0.111869656
191	0xbd8c7598	-0.06858367
192	0x3de4b69a	0.11167641
193	0xbde81c3b	-0.113335095
194	0xbd6ecd16	-0.058301054
195	0x3e998beb	0.2998956
196	0xbe856ed8	-0.2606113
197	0x3e861a02	0.26191717
198	0xbe999cef	-0.30002543
199	0x3de0b4e5	0.10972003
200	0xbe53fc84	-0.20701796
201	0x3dd311b1	0.10306109
202	0xbe1d2ed6	-0.15349898
203	0x3e696301	0.22791673
204	0x3e2d1130	0.16901088
205	0x3ec84987	0.39118597
206	0x3eaa4d91	0.33262303
207	0xbcea02c3	-0.02856577
208	0xbe0ba26a	-0.13636175
209	0xbe8c5292	-0.27406746
210	0x3d1cc834	0.038276866
211	0x3c1ce360	0.009575695
212	0xbdbfbba8	-0.093619645
213	0xbe022039	-0.12707604
214	0x3d80b833	0.06285133
215	0x3c082c21	0.008311302
216	0xbe456d3b	-0.1927995
217	0xbee6a1ff	-0.45045468
218	0xbdafbb07	-0.085805945
219	0x3d99bf98	0.07507247
220	0xbd4459ba	-0.047937132
221	0x3e31fbb8	0.1738118
222	0x3ed57d57	0.4169719
223	0xbd963a7c	-0.07335374
224	0x3e257006	0.16156015
225	0x3c95849d	0.018251712
226	0xbddef707	-0.108869605
227	0xbe4e6004	-0.20153815
228	0x3eb0e275	0.34547773
229	0xbe68973e	-0.22713944
230	0x3e142f71	0.14471222
231	0x3eae885d	0.34088412
232	0xbec79612	-0.38981682
233	0xbe9fb397	-0.31191704
234	0xbda4bb81	-0.08043576
235	0xbd2c5eb2	-0.042082496
236	0xbccfb56c	-0.025355063
237	0xbe7dcd1a	-0.24785271
238	0xbe4b755e	-0.19868991
239	0x3e0c3bc8	0.1369468
240	0xbd718911	-0.058968607
241	0x3ce8a5c0	0.028399348
242	0xbda51ff0	-0.08062732
243	0x3dabc7c9	0.08387715
244	0xbe01ef62	-0.12688974
245	0x3e5b5480	0.21418953
246	0x3d571694	0.052511767
247	0x3cde2a77	0.027119858
248	0x3ddc2ef7	0.10751145
249	0xbecca2df	-0.3996801
250	0xbd95677e	-0.0729513
251	0xbeb194ef	-0.3468394
252	0xbe64bb95	-0.22337182
253	0xbdb38e0a	-0.08767326
254	0x3d9e95a6	0.07743387
255	0x3e650cca	0.2236816
