policy/PPO/checkpoints/2025-10-04_08-08/ppo_soarm_9000.pth (torch, 895437 bytes, 33 tensors)

actor.0.weight f4 [256, 12]
0	0x3dab9e14	0.083797604
1	0x3d0fb367	0.0350832
2	0x3df93fa0	0.12170339
3	0xbe702612	-0.23452023
4	0xbe0c5fba	-0.13708392
5	0xbe5c2953	-0.21500139
6	0xbca4a758	-0.020099327
7	0xbe4d236a	-0.2003304
8	0xbe422a08	-0.18961346
9	0x3f028168	0.5097871
10	0x3e535e7a	0.20641509
11	0xbdb6b38a	-0.08920963
12	0x3bcf239a	0.0063213827
13	0xbd4b273c	-0.049597964
14	0xbc91aaa5	-0.017781565
15	0xbe835731	-0.2565246
16	0xbdfe438f	-0.124152295
17	0x3e9f05d3	0.3105913
18	0x3e2c78ec	0.16843003
19	0xbdea3375	-0.11435596
20	0x3e9e4052	0.30908448
21	0x3b5dac77	0.003382472
22	0xbd901ecf	-0.07037126
23	0x3c9bdeb5	0.019027093
24	0x3e801282	0.2501412
25	0x3cecee15	0.02892212
26	0x3e99a918	0.3001182
27	0x3d71d28b	0.05903868
28	0xbe3273e6	-0.17427024
29	0x3eaf6cdb	0.34262738
30	0xbe9883fc	-0.29788196
31	0xbe8b6791	-0.27227452
32	0x3d830a6a	0.06398471
33	0x3e37422f	0.17896341
34	0x3e3282ff	0.17432784
35	0xbe0fbd36	-0.14037022
36	0xbda8f359	-0.0824954
37	0xbe59a05b	-0.21252577
38	0x3d2378d2	0.039910145
39	0xbdc4d581	-0.09611035
40	0xbd948482	-0.07251836
41	0x3e8ab246	0.27089137
42	0x3e01a941	0.12662221
43	0xbe62fee9	-0.22167553
44	0xbd499b6a	-0.04922048
45	0x3e82e855	0.2556788
46	0xbd6abec3	-0.05731083
47	0x3d7cd1bd	0.06172346
48	0x3db12806	0.08650212
49	0xbe518659	-0.20461406
50	0xbe1500ed	-0.14551134
51	0x3e1bcd62	0.15215066
52	0xbd08ac24	-0.03336729
53	0x3dcb810b	0.09936722
54	0x3d93569d	0.071942545
55	0xbcaafbd6	-0.020872038
56	0xbe73aa38	-0.23795402
57	0x3f0ec9ff	0.5577697
58	0x3d925460	0.071449995
59	0xbe2bc1b3	-0.16773109
60	0xbdf3ab95	-0.11897961
61	0xbe3e5c99	-0.1859001
62	0xbd9d08a2	-0.07667662
63	0x3d2f17a6	0.042747162
64	0x3d6e9abb	0.05825303
65	0xbd8991b2	-0.06717242
66	0x3e36f158	0.17865503
67	0xbdd20452	-0.1025473
68	0x3ec501db	0.38477978
69	0x3e44c806	0.19216928
70	0xbdd006a4	-0.101575166
71	0xbd089823	-0.033348214
72	0x3c996c3d	0.01872837
73	0xbdca46dd	-0.09876797
74	0xbccc1ee4	-0.024917074
75	0xbd6087a5	-0.05481686
76	0x3cfdc75a	0.030978847
77	0xbe256855	-0.16153081
78	0xbce99fae	-0.028518524
79	0xbd492511	-0.049107615
80	0xbd8922b4	-0.06696072
81	0xbc1c7b3b	-0.009550865
82	0xbd25bdaa	-0.04046408
83	0xbe5264ed	-0.20546313
84	0x3d917779	0.07102866
85	0xbcb9f08c	-0.02269771
86	0xbda71946	-0.081591174
87	0xbe90a164	-0.2824813
88	0xbdd4854f	-0.10376989
89	0xbd8a3007	-0.06747442
90	0xbea4826d	-0.32130757
91	0xbda35a26	-0.07976179
92	0x3d047cfe	0.032345764
93	0x3d02369f	0.031790372
94	0x3ecb3cf9	0.39694956
95	0xbe50a8d7	-0.20376907
96	0x3c379230	0.011204287
97	0xbdf5e6b3	-0.12006893
98	0xbe3ae515	-0.1825145
99	0xbd4e60b6	-0.0503852
100	0xbe0d206e	-0.13781902
101	0x3e0ca293	0.13733892
102	0xbddd3261	-0.10800625
103	0x3dcf61ed	0.101261
104	0x3d1fbe8e	0.039000086
105	0xbe6c91b6	-0.2310246
106	0xbe1c5201	-0.15265657
107	0xbe2a6e4e	-0.1664364
108	0x3e642eb5	0.22283442
109	0x3e24b1fb	0.16083519
110	0x3e8b31ef	0.27186534
111	0xbdaf0ef3	-0.08547773
112	0xbd8af0e4	-0.067842275
113	0x3da948ea	0.082658604
114	0x3e0c53f6	0.13703904
115	0x3e20786b	0.15670936
116	0x3e242fbb	0.16033833
117	0x3dbe6ac9	0.092977114
118	0x3e602040	0.21887302
119	0x3e535a59	0.20639934
120	0x3db74286	0.08948235
121	0x3d66092c	0.05616109
122	0xbe08a1fb	-0.1334304
123	0xbe50c812	-0.20388821
124	0xbdba8a8c	-0.09108457
125	0x3e644b1c	0.22294277
126	0x3da84503	0.08216288
127	0x3e15bd6b	0.14623038
128	0xbecbb7f5	-0.39788786
129	0x3cb402a4	0.021973915
130	0x3e8751f9	0.26429728
131	0xbe9099b8	-0.28242278
132	0xbe928591	-0.28617528
133	0x3e215a5a	0.15757123
134	0x3ea89df2	0.32933003
135	0x3e04b4bf	0.12959574
136	0xbe79be61	-0.2438903
137	0x3dd56c7a	0.10421081
138	0xbe9b8bc2	-0.30380064
139	0x3ea32dd9	0.31870916
140	0xbc301227	-0.010746515
141	0x3d97a715	0.07404915
142	0x3d3a1639	0.04543135
143	0x3deecbfc	0.11660001
144	0xbe1fa96c	-0.15591973
145	0x3e3db4fe	0.18526074
146	0x3e8610f7	0.26184818
147	0x3e2ec90b	0.1706888
148	0xbd4fa4b8	-0.050694197
149	0xbdc72c2e	-0.097252235
150	0x3e262d0c	0.16228122
151	0x3e2d4ad7	0.1692308
152	0x3e638d95	0.22221978
153	0x3f05b8ed	0.522353
154	0x3d56675e	0.052344672
155	0x3e35178e	0.17684767
156	0x3cb0aaf1	0.021565886
157	0xbdd8bc3e	-0.10582779
158	0xbe1c34f0	-0.15254569
159	0xbe03b3ec	-0.12861603
160	0xbda99614	-0.08280578
161	0xbeac963a	-0.33708364
162	0xbd984b26	-0.074362084
163	0xbe39147c	-0.1807422
164	0x3e990ad0	0.29891062
165	0xbe7f538d	-0.24934216
166	0x3e5be5ac	0.21474332
167	0xbcb6d52b	-0.022318443
168	0xbe12a035	-0.14318927
169	0xbe46fea5	-0.19433077
170	0xbc210f57	-0.009830317
171	0x3e1fdbde	0.15611216
172	0xbdf5e078	-0.12005705
173	0xbe1c5228	-0.15265715
174	0x3d7a275b	0.06107269
175	0x3e1475b9	0.14498033
176	0xbcbfa3f2	-0.023393605
177	0xbf073e53	-0.52829474
178	0x3d855309	0.06509978
179	0xbd95684c	-0.07295284
180	0x3d7fe7cf	0.06247693
181	0xbd8dd2db	-0.06924983
182	0xbd559cfc	-0.052151665
183	0x3e64598b	0.22299783
184	0x3d6cd3c6	0.05781915
185	0xbe44e058	-0.19226205
186	0xbeaf2190	-0.34205294
187	0x3e18fbd7	0.1493982
188	0x3e0d8ffa	0.13824454
189	0x3cd1a1f6	0.025589924
190	0xbd93c9df	-0.07216238
191	0xbcc3cea3	-0.023902243
192	0x3e11a5e7	0.14223443
193	0xbd5280c7	-0.051392343
194	0xbe40439a	-0.18775788
195	0xbd758513	-0.059941363
196	0x3e755e5d	0.23961778
197	0x3e5c7ae8	0.2153126
198	0x3c1d11b6	0.009586742
199	0xbe1a0cab	-0.15043895
200	0xbe72fac8	-0.23728478
201	0x3ecef4b9	0.40421084
202	0x3dd10d25	0.10207585
203	0x3dbbe833	0.09175148
204	0x3ca0f775	0.019649247
205	0xbe845683	-0.25847253
206	0xbded7588	-0.11594683
207	0x3e0ebe3d	0.13939758
208	0x3d3f915b	0.04676948
209	0x3be6082d	0.0070200176
210	0xbe5ee5f9	-0.21767415
211	0xbe162dce	-0.1466591
212	0x3e80cf21	0.25158027
213	0x3dd7f0d8	0.10543984
214	0x3dd2ba30	0.10289419
215	0xbe8a40be	-0.2700252
216	0xbd85af16	-0.065275356
217	0xbe5d0adf	-0.21586178
218	0xbebd0368	-0.3691666
219	0x3e600b63	0.21879344
220	0x3dd50533	0.10401382
221	0x3e00c650	0.1257565
222	0xbd982a84	-0.07429984
223	0x3e2e609f	0.17029046
224	0xbca7fa3b	-0.020505061
225	0x3f010821	0.5040303
226	0x3dd076ec	0.101789325
227	0xbdfc2c5f	-0.123131506
228	0x3e652e29	0.2238089
229	0xbd2a64ab	-0.04159991
230	0xbd1588dd	-0.036507476
231	0x3e285bb9	0.1644124
232	0xbda87f84	-0.08227447
233	0xbe8e70fe	-0.2782058
234	0x3e52b758	0.20577753
235	0x3d04b82b	0.0324022
236	0xbe15cc6d	-0.14628763
237	0x3d8f947f	0.07010745
238	0x3dcf9c5e	0.101372465
239	0x3d3bb825	0.04582991
240	0x3e25445b	0.16139357
241	0xbd6262da	-0.055270053
242	0xbc73c9fb	-0.014879699
243	0x3e2732e2	0.16328004
244	0x3d9d4a9f	0.076802485
245	0xbb2d686d	-0.0026459948
246	0xbd2751b1	-0.04084939
247	0x3d9b4516	0.075815365
248	0x3da43bd4	0.08019224
249	0xbf1bdb69	-0.6088167
250	0xbe6a5814	-0.22885162
251	0x3e0e3aa0	0.13889551
252	0x3e240200	0.16016388
253	0x3e01e978	0.12686718
254	0xbd04f7af	-0.032462772
255	0xbe177b99	-0.14793243

actor.0.bias f4 [256]
0	0x3dfda347	0.12384658
1	0xbdc504f8	-0.09620088
2	0x3e5bd5e6	0.21468315
3	0x3e81ce11	0.2535253
4	0x3defd4f9	0.11710543
5	0x3d636ab3	0.05552168
6	0x3e401cb7	0.18760954
7	0x3c5fa095	0.013649126
8	0xbe6fb50e	-0.2340891
9	0x3e19bf34	0.15014344
10	0xbcb7e892	-0.022449765
11	0x3e1c73fe	0.15278623
12	0xbd14453c	-0.03619884
13	0x3b488dd8	0.0030602124
14	0x3e7a3c86	0.2443715
15	0xbd557d3a	-0.05212138
16	0xbe2eebc0	-0.17082119
17	0x3e5dc94c	0.2165882
18	0xbe2adda3	-0.1668611
19	0x3dce91ad	0.10086379
20	0x3c157f8f	0.009124651
21	0xbe956961	-0.2918196
22	0x3ba96678	0.005169686
23	0x3e46e774	0.1942423
24	0x3def6edd	0.11691067
25	0x3c70ab80	0.014689326
26	0xbe81cc31	-0.25351098
27	0xbea1cfea	-0.31603938
28	0xbcb2588c	-0.021770738
29	0x3d9f9d37	0.07793658
30	0xbde153b6	-0.11002295
31	0xbe3165ec	-0.17324036
32	0xbdaa6c17	-0.08321398
33	0xbe67473c	-0.22585768
34	0xbd99ede1	-0.07516075
35	0xbe78d38e	-0.24299452
36	0x3cb4b314	0.022058047
37	0x3db6a0b4	0.089173704
38	0x3b340445	0.0027468365
39	0x3e51c970	0.20486999
40	0x3d92a86b	0.071610294
41	0x3e3bf2d4	0.1835435
42	0x3df0703f	0.11740159
43	0xbe48a5ee	-0.19594547
44	0x3e3a2610	0.18178582
45	0xbe0f7507	-0.14009486
46	0x3c94af1e	0.018149909
47	0xbe8fc26c	-0.2807802
48	0x3e610195	0.2197326
49	0x3d55a90c	0.05216317
50	0x3e8620e1	0.2619696
51	0x3cb4433a	0.022004712
52	0x3e2db0f3	0.16962032
53	0x3e24b985	0.16086395
54	0xbe35e1c4	-0.17761904
55	0xbe3f86f4	-0.18703824
56	0xbd93a6ee	-0.07209574
57	0x3e3edd40	0.18639088
58	0xbe8d2fc3	-0.27575502
59	0x3e380577	0.17970835
60	0xbe936793	-0.28789958
61	0x3e172714	0.14761001
62	0xbea5ed28	-0.32407498
63	0x3e6c52e0	0.2307849
64	0x3d0c15ea	0.034200586
65	0xbdbca646	-0.09211402
66	0xbe30d106	-0.17267236
67	0xbd4428f5	-0.047890622
68	0xbea6f5dd	-0.32609454
69	0xbcc33be4	-0.023832269
70	0x3d87d03a	0.06631513
71	0xbcd3d057	-0.02585618
72	0x3e4a5403	0.1975861
73	0xbd183b53	-0.03716595
74	0x3d8b4517	0.06800287
75	0xbe7fc4fa	-0.24977484
76	0x3e9f9610	0.31169176
77	0x3df89c41	0.12139178
78	0x3cdb14d9	0.02674334
79	0x3ea6385e	0.3246488
80	0xbd9d296f	-0.076739185
81	0xbe1881ea	-0.14893308
82	0x3e51c372	0.20484713
83	0x3d7b9136	0.06141778
84	0x3decd66e	0.11564337
85	0x3e870e21	0.26377967
86	0x3e36821c	0.1782307
87	0xbe7127e7	-0.23550378
88	0xbd873072	-0.06601037
89	0x3e7e2b91	0.24821307
90	0xb9bd4560	-0.00036100578
91	0x3e424942	0.18973258
92	0x3df42d73	0.11922731
93	0xbe04421e	-0.12915847
94	0xbe36c729	-0.17849411
95	0xbe3e38b0	-0.18576312
96	0x3e0621fe	0.13098904
97	0xbd8186d5	-0.06324545
98	0xbe3830a8	-0.17987311
99	0x3dc21b7e	0.094779
100	0xbe173ecb	-0.14770047
101	0x3e4a9619	0.1978382
102	0x3c194026	0.009353673
103	0xbd83efec	-0.06442246
104	0x3e010e8e	0.12603208
105	0x3d973d56	0.07384746
106	0xbd0e4116	-0.03473004
107	0x3d54f7bf	0.05199408
108	0xbd351c41	-0.0442164
109	0xbdef7c3b	-0.11693617
110	0x3d976734	0.07392731
111	0xbd08355b	-0.03325401
112	0x3d8bf46f	0.068337314
113	0xbe01bf44	-0.12670618
114	0x3e17b255	0.14814122
115	0x3ad1695d	0.0015976835
116	0xbe1c0bea	-0.1523892
117	0x3e89eb35	0.2693726
118	0xbe0b3813	-0.1359561
119	0x3d47beb7	0.048765864
120	0x3ded580f	0.115890615
121	0xbc9bb451	-0.01900688
122	0xbce467bc	-0.027881496
123	0xbdb116f2	-0.086469546
124	0xbd3c76da	-0.046011783
125	0x3cd76a3f	0.02629578
126	0xbe0fd64c	-0.14046592
127	0xbd402667	-0.046911623
128	0xbdbaf132	-0.091280356
129	0x3cb24919	0.021763371
130	0xbe774374	-0.24146825
131	0xbe070b0b	-0.13187806
132	0xbdc30b17	-0.095235996
133	0xbe6ddcf5	-0.2322882
134	0xbe74d9e2	-0.2391124
135	0x3c7e82c4	0.015534107
136	0xbdf32001	-0.11871339
137	0xbba7dfb5	-0.0051231035
138	0xbe88804c	-0.26660383
139	0x3e6a4b46	0.22880277
140	0xbe0efe3f	-0.13964175
141	0x3cdb50b1	0.026771875
142	0xbe1c7978	-0.15280712
143	0x3d8b89f7	0.06813424
144	0x3cee9d0f	0.029127626
145	0x3dce5960	0.10075641
146	0x3ddf4de5	0.10903529
147	0x3e2d3717	0.16915546
148	0x3eaf8c26	0.34286612
149	0x3d62856e	0.05530303
150	0xbe3e798f	-0.18601058
151	0xbc5e1523	-0.013554844
152	0x3dbc86a7	0.092053704
153	0xbea7c8df	-0.3277044
154	0xbe16b627	-0.14717923
155	0x3d83122b	0.0639995
156	0xbe75072f	-0.23928522
157	0x3e159a40	0.14609623
158	0x3e5e1437	0.21687399
159	0x3dd5b8c2	0.104356304
160	0x3d98d909	0.07463271
161	0xbd6b8cbc	-0.05750726
162	0x3e1e1727	0.1543852
163	0xbda639e4	-0.081165105
164	0x3dc5b4a7	0.09653597
165	0x3db3b851	0.0877539
166	0x3db41b0d	0.08794222
167	0x3e292370	0.16517425
168	0xbe1333ae	-0.14375183
169	0xbe5ea220	-0.21741533
170	0x3e87eb47	0.2654669
171	0xbdc4bfbd	-0.09606884
172	0x3ca238ce	0.019802477
173	0x3e3d9992	0.18515614
174	0x3dc948bb	0.09828325
175	0xbd891963	-0.06694295
176	0xbb190f52	-0.002335508
177	0x3d771037	0.060318198
178	0xbda726e0	-0.08161712
179	0xbdb6469a	-0.08900185
180	0xbda85813	-0.08219924
181	0x3cca7193	0.02471236
182	0xbbd8d272	-0.006616884
183	0x3d2341e2	0.039857753
184	0xbc84720d	-0.016167665
185	0xbdc96ff9	-0.0983581
186	0x3da77272	0.081761256
187	0xbdc8a53a	-0.097971395
188	0xbda2ca40	-0.079487324
189	0x3dafa17e	0.08575724
190	0xbdec5c96	-0.11541097
191	0x3cd78599	0.026308822
192	0xbdf74320	-0.1207335
193	0x3bf0c289	0.007347409
194	0xbc2bf4cd	-0.010495377
195	0xbdb74c47	-0.089500956
196	0xbe04bf56	-0.12963614
197	0x3dc36ce8	0.095422566
198	0x3e89c2c0	0.26906395
199	0xbdd64fa8	-0.10464412
200	0x3d859fef	0.065246455
201	0xbe54b0cf	-0.20770572
202	0x3d5b4be0	0.053539157
203	0xbe750bb2	-0.23930243
204	0x3e7fb79e	0.24972388
205	0x3e0b120a	0.135811
206	0x3d9dae55	0.07699267
207	0xbe4618f9	-0.19345464
208	0x3d949d08	0.07256514
209	0x3ea6fe13	0.32615718
210	0xbdaec610	-0.08533871
211	0xbd5b13b1	-0.053485576
212	0xbdf350d1	-0.11880649
213	0x3c3477f6	0.011014929
214	0xbdd8e6df	-0.1059091
215	0xbc1d17de	-0.00958821
216	0xbe67c552	-0.22633865
217	0xbc1bc289	-0.00950683
218	0x3dec1231	0.11526907
219	0xbe32dc60	-0.17466879
220	0xbdae53cd	-0.085120775
221	0x3d12beb7	0.03582641
222	0x3e2fa2b2	0.17151907
223	0x3d9195e9	0.07108671
224	0xbe2443b1	-0.16041447
225	0xbbab156c	-0.0052210595
226	0xbdd9cb15	-0.10634438
227	0x3dd812f6	0.105504915
228	0xbd13964e	-0.036032014
229	0xbe568793	-0.20950155
230	0x3e8b5f79	0.27221277
231	0x3dc82e1b	0.09774419
232	0x3e36eff4	0.17864972
233	0xbdad01b9	-0.08447594
234	0xbe4d14bd	-0.20027442
235	0x3d8bc70a	0.06825073
236	0xbd7787ca	-0.060432233
237	0x3df04848	0.117325366
238	0x3e75a178	0.23987377
239	0x3dbcd3ae	0.09220062
240	0x3d620358	0.05517897
241	0xbda4bf74	-0.08044329
242	0xbdd19db2	-0.10235156
243	0xbe721829	-0.23642029
244	0x3d97cce7	0.07412129
245	0x3e98fd67	0.2988083
246	0xbe08e80f	-0.13369773
247	0xbc9d99b6	-0.019238334
248	0x3ddef3c9	0.10886342
249	0xbe192602	-0.14955905
250	0x3c78488c	0.015154015
251	0x3e8ce1dd	0.2751607
252	0x3e0cb4b4	0.13740808
253	0xbe36cbf2	-0.17851236
254	0x3e9fe988	0.31232858
255	0xbe0711ae	-0.13190338

actor.2.weight f4 [128, 256]
0	0xbd134370	-0.035952985
1	0x3c0ac091	0.008468763
2	0xbe0cd74a	-0.13754001
3	0xbda0cf01	-0.07851983
4	0xbddfe71f	-0.10932755
5	0xbd97b76b	-0.07408031
6	0x3ced652f	0.028978912
7	0x3d0359f9	0.032068226
8	0x3d0384a1	0.032108907
9	0xbda5fa22	-0.0810435
10	0x3ca7b1ea	0.020470578
11	0xbdc7c444	-0.097542316
12	0xbe12c989	-0.14334692
13	0x3d39f585	0.04540016
14	0x3d7262f2	0.059176393
15	0xbd6788b5	-0.05652686
16	0xbd5bda21	-0.05367482
17	0xbccb0a92	-0.024785314
18	0x3d396073	0.045257997
19	0x3cb4c235	0.022065261
20	0x3da0e7d9	0.078567214
21	0x3d870f0f	0.06594669
22	0x3d0844c8	0.03326872
23	0x3d7e8864	0.06214179
24	0xbcc4ed6c	-0.024038993
25	0xbcc0cdf2	-0.023535702
26	0x3da5a772	0.08088578
27	0xbd606dcb	-0.054792207
28	0x3d4bf460	0.0497936
29	0x3cdb29ae	0.026753273
30	0x3d95d195	0.07315365
31	0xbba60544	-0.0050665457
32	0x3d91b482	0.07114507
33	0x3d6c04f8	0.057621926
34	0xbd860171	-0.06543244
35	0x3b87670b	0.0041321567
36	0x3cbd8b49	0.023137705
37	0x3db80464	0.089852124
38	0x3d2a5b22	0.041590817
39	0xbd572adf	-0.05253112
40	0x3cdc05ca	0.02685823
41	0x3cc971d9	0.02459042
42	0x3cb2a22b	0.021805843
43	0x3d01636f	0.031588968
44	0x3db41b22	0.08794238
45	0x3d6b186c	0.057396337
46	0x3b5baa1d	0.0033518143
47	0x3e178559	0.14796962
48	0x3d47f547	0.0488179
49	0xbd6886d6	-0.056769215
50	0xbbf96ea9	-0.0076120687
51	0xbd2cca84	-0.04218532
52	0xbdf76fdf	-0.120818846
53	0xbcd7daa9	-0.026349382
54	0xbd8acd82	-0.06777479
55	0x3df1a7d7	0.11799591
56	0xbd01f14f	-0.03172427
57	0x3b85574e	0.0040692454
58	0xbd0b356c	-0.033986494
59	0xbe10a9e5	-0.1412731
60	0x3d862c31	0.065513976
61	0xbd0ceaed	-0.03440373
62	0x3d57722d	0.05259912
63	0xbd61063d	-0.05493759
64	0x3c9fba6e	0.019498076
65	0x3d40e544	0.047093645
66	0x3dbd4edc	0.09243557
67	0xbc64cd00	-0.013964891
68	0x3db117c0	0.08647108
69	0xbd869e18	-0.06573123
70	0x3dcc1360	0.09964633
71	0x3d7fbf2d	0.06243818
72	0xbd7e310f	-0.062058505
73	0x3d8ca267	0.06866913
74	0xbc85d1a9	-0.016335325
75	0x3ccad1cd	0.024758244
76	0xbd6ae37f	-0.057345863
77	0x3d7727c8	0.060340673
78	0xbdb41d6d	-0.08794675
79	0xbd514caa	-0.051098503
80	0x3d170948	0.036874086
81	0x3df037d2	0.11729397
82	0x3d46cc43	0.048534643
83	0xbcf74729	-0.030185299
84	0xbd6a6da9	-0.057233486
85	0xbd565d25	-0.052334923
86	0xbd6bdcea	-0.057583727
87	0x3d3e6df7	0.04649159
88	0xbd047a7d	-0.032343376
89	0x3cc5e6d5	0.02415792
90	0x3b8d28c3	0.0043078377
91	0xbdae76f0	-0.08518779
92	0xbd020574	-0.03174348
93	0xbdd885d9	-0.105724044
94	0x3d95f574	0.07322207
95	0xbc7b37ab	-0.0153330965
96	0xbdabfa62	-0.08397366
97	0x3ddc7307	0.10764127
98	0x3d350444	0.04419352
99	0x3cdb1926	0.02674539
100	0x3d9e0223	0.07715251
101	0xbd10253f	-0.03519177
102	0x3c5d20a2	0.01349655
103	0xbc6fc201	-0.0146336565
104	0xbd3344bb	-0.04376672
105	0x3dbf9279	0.09354109
106	0xbb6ac3b7	-0.0035822222
107	0xbdb5913c	-0.08865592
108	0x3d6c521b	0.05769549
109	0x3de7ae98	0.11312598
110	0xbdbcd2fc	-0.092199296
111	0xbcc0d712	-0.023540054
112	0x3c8668fd	0.016407484
113	0x3c50fea1	0.012756021
114	0xbcb07e72	-0.021544669
115	0x3c649886	0.01395238
116	0x3bae9a97	0.005328487
117	0xbc7f266a	-0.0155731235
118	0x3d042583	0.032262336
119	0x3d38b620	0.045095563
120	0xbacf3816	-0.0015809562
121	0x3b282d8e	0.0025661918
122	0xbc30085e	-0.010744182
123	0xbdb0ff0f	-0.086423986
124	0xbcba9e49	-0.022780554
125	0xbd31d42a	-0.043415226
126	0x3d94c94e	0.07264958
127	0xbc9d4b2f	-0.01920089
128	0x3d57debd	0.052702654
129	0xbd0ddb25	-0.03463282
130	0xbdcf2254	-0.101139694
131	0xbc437a80	-0.011931062
132	0xbcf29ecd	-0.029616738
133	0xbc189b08	-0.009314306
134	0x3dda78b8	0.106675565
135	0xbc8e61ce	-0.017380621
136	0xbd07e177	-0.033174004
137	0xbca87edf	-0.02056831
138	0x3df5655c	0.119822234
139	0xbd4b797e	-0.04967641
140	0xbcd200e4	-0.02563519
141	0xbc2964f5	-0.010339011
142	0x3c853f2f	0.01626548
143	0x3ccd1068	0.025032237
144	0xbd90c78f	-0.07069313
145	0xbd2f5642	-0.04280687
146	0xbca08e0e	-0.019598987
147	0xbd9e2ed4	-0.077237755
148	0xbd85ae05	-0.06527332
149	0xbcff0df0	-0.031134576
150	0x3d9f536f	0.077795856
151	0xbda76785	-0.08174042
152	0xbcb5ef6b	-0.02220889
153	0x3d9ae3f3	0.07563009
154	0xbd4841fc	-0.048891053
155	0xbd2631e3	-0.04057492
156	0x3e2b57f8	0.16732776
157	0xbc8c437c	-0.017122023
158	0xbd9cae57	-0.0765044
159	0x3c9b36a5	0.018946955
160	0xbc988ab9	-0.018620836
161	0xbcb6ba52	-0.022305641
162	0xbd0ebf99	-0.03485069
163	0xbd9fbcd5	-0.07799689
164	0xbd1d529e	-0.038408868
165	0x3d988783	0.07447722
166	0xbd23ba65	-0.03997268
167	0xbdd81b81	-0.10552121
168	0xbc2c0d43	-0.010501209
169	0x3d872cf8	0.06600374
170	0xbde3b6ea	-0.111188725
171	0xbd341758	-0.043967575
172	0xbdd211c7	-0.10257297
173	0xbd7a630c	-0.061129615
174	0xbd36c64e	-0.04462271
175	0xbd5cdb45	-0.05392005
176	0xbd14e133	-0.03634758
177	0xbc58b2a2	-0.013226183
178	0xbbb222d9	-0.005436283
179	0x3ca1ba54	0.019742168
180	0xbd2aa2b2	-0.041659065
181	0xbc48bbf4	-0.012251843
182	0x3be8d96e	0.0071059978
183	0x3c4e0ca4	0.012576256
184	0xbd6e0def	-0.058118757
185	0xbd81f03a	-0.06344648
186	0xbd891d53	-0.06695046
187	0xbb933990	-0.004492946
188	0x3c87eb43	0.016591674
189	0xba18c8db	-0.00058282696
190	0x3d9541eb	0.072879635
191	0x3dcf22d1	0.101140626
192	0xbd8d20e7	-0.06891041
193	0xbd2fa946	-0.04288604
194	0xbd40d1f5	-0.04707523
195	0xbc22a0af	-0.009926005
196	0xbccb99e7	-0.02485366
197	0x3c0562f1	0.008141265
198	0x3d213bfa	0.03936384
199	0x3d39b1d5	0.04533561
200	0x3d219ee5	0.039458174
201	0x3da80e47	0.08205848
202	0x3c87b3d2	0.016565237
203	0xbd0ddabb	-0.034632426
204	0xbddf821b	-0.109134875
205	0x3ba3f2d2	0.0050033117
206	0x3bca4f59	0.0061740098
207	0xbc372627	-0.01117853
208	0x3d2145f9	0.03937337
209	0xbde1e6f7	-0.11030381
210	0x3d768329	0.060183678
211	0x3ce93733	0.028468704
212	0x3d5ba574	0.053624585
213	0x3c456967	0.012049056
214	0xbd159c6f	-0.03652614
215	0xbc8dbec7	-0.017302884
216	0x3be51532	0.006991052
217	0x3c155613	0.00911476
218	0xbd179691	-0.037008826
219	0x3d8113e8	0.06302625
220	0x3d419cc1	0.047268633
221	0xbd57e6f3	-0.052710485
222	0x3d2edbdc	0.042690143
223	0xbc9cf521	-0.019159855
224	0x3d51d26e	0.051226072
225	0xbd8e86c2	-0.06959297
226	0x3d6d3170	0.057908475
227	0x3cac86ae	0.021060314
228	0xbcb0881f	-0.021549283
229	0xbdc06958	-0.09395093
230	0xbda4c4db	-0.0804536
231	0x3d546568	0.05185452
232	0x3d6b2f93	0.057418417
233	0xbd2c39d4	-0.042047337
234	0x3ca36311	0.0199447
235	0xbcd92b54	-0.026509918
236	0xbc0bfc15	-0.008543988
237	0x3d61874e	0.055060677
238	0xbd0e6dc4	-0.03477265
239	0x3cae2f67	0.021262838
240	0x3c6ad660	0.014333338
241	0x3c8d9ffc	0.0172882
242	0xbd64a131	-0.055817787
243	0x3ba08ff2	0.004899972
244	0x3c4dd698	0.01256337
245	0xbd97dd0a	-0.07415207
246	0x3beaf193	0.007169911
247	0xbcdc1ed6	-0.026870172
248	0x3d4c688c	0.04990439
249	0x3d28bc24	0.04119505
250	0x3d788a93	0.06067903
251	0x3c12c314	0.008957643
252	0xbd8dcefe	-0.06924246
253	0x3d471f27	0.048613694
254	0x3d078280	0.03308344
255	0x3dc5ea48	0.09663826

actor.2.bias f4 [128]
0	0x3d013e74	0.0315537
1	0x3be37c63	0.0069423183
2	0x3da8dd03	0.0824528
3	0x3bdd6094	0.006755898
4	0x3ba3b20e	0.004995591
5	0xbd40ef3d	-0.047103155
6	0x3c5d655d	0.013512936
7	0xbc9e8e62	-0.019355003
8	0x3cbc8568	0.023012832
9	0x3d739054	0.059463814
10	0x3d5d0fc3	0.05397011
11	0xbd2c1410	-0.04201132
12	0xbd402c93	-0.04691751
13	0xbd3a025f	-0.045412418
14	0xbbf0b5fa	-0.007345912
15	0x3ca840d4	0.020538725
16	0x3c18fff1	0.009338365
17	0x3ca052a4	0.019570656
18	0x3cbee16c	0.023300849
19	0xbd226263	-0.03964461
20	0xbc744f44	-0.0149114765
21	0x3e251fe0	0.1612544
22	0xbc5de518	-0.01354339
23	0x3bb95d25	0.0056568556
24	0xbd19ce59	-0.037550304
25	0xbc91438e	-0.017732408
26	0xbd60ef6b	-0.054915827
27	0x3c5b0c52	0.013369637
28	0xbd517002	-0.05113221
29	0xbcdd0bcd	-0.026983166
30	0x3c03e055	0.00804909
31	0x3d77153f	0.060322996
32	0xbc2b0835	-0.010438968
33	0xbac8844b	-0.0015298215
34	0x3d05bb9d	0.032649625
35	0xbc714bdf	-0.014727562
36	0xbc223aa7	-0.009901679
37	0x3d2c2829	0.042030487
38	0x3e3468ab	0.17618053
39	0x3d4a0554	0.049321488
40	0x3cf4f8b2	0.029903743
41	0x3c8fa9d9	0.017537044
42	0x3cf7916f	0.030220715
43	0xbd1057f0	-0.035240114
44	0x3d07fa3f	0.033197638
45	0xbc979d8b	-0.01850774
46	0x3b92c0c1	0.0044785445
47	0xbd63c330	-0.055606067
48	0x3d0a769b	0.033804517
49	0x3d04831e	0.032351606
50	0x3cbfaf0d	0.0233989
51	0xbd27e390	-0.040988505
52	0xbaf26e29	-0.0018495965
53	0xbd86b940	-0.065783024
54	0xbca8a831	-0.020588012
55	0xbd3fe2a2	-0.046846993
56	0x3c1265cd	0.008935404
57	0x3d540dc8	0.051770955
58	0xbce166fd	-0.027514929
59	0xbd05282e	-0.03250902
60	0xbdf5501f	-0.119781725
61	0xbd618887	-0.055061843
62	0x3d8e48af	0.06947457
63	0x3d0b7f63	0.034057032
64	0xbcb751bf	-0.022377847
65	0x3d15c148	0.03656128
66	0xbd01cc57	-0.031689014
67	0x3c2e8e34	0.010654021
68	0xbcb8c58c	-0.022555135
69	0xbe459035	-0.19293292
70	0xbc09fad2	-0.008421617
71	0xbce4c5f8	-0.02792643
72	0xbc098f04	-0.008395914
73	0x3cae8c54	0.021307148
74	0x3ce508ee	0.02795836
75	0xbce4d27d	-0.0279324
76	0x3c81cf27	0.015845848
77	0x3c1884a9	0.009308972
78	0x3cb3298f	0.021870403
79	0xbc804622	-0.015658442
80	0xbdc8de7d	-0.09808061
81	0xbcd658c3	-0.026165372
82	0xbd6613b0	-0.05617112
83	0xbc912ec8	-0.017722502
84	0xbbeaddfb	-0.0071675754
85	0xbcc921df	-0.024552284
86	0x3c79447f	0.015214085
87	0x3d13894a	0.0360196
88	0x3c1032d5	0.008801182
89	0xbd3b5198	-0.04573211
90	0x3bf6dbf2	0.0075335437
91	0xbb17e5e4	-0.0023177797
92	0x3d11a062	0.035553344
93	0xbbe60d05	-0.007020595
94	0xbd6f29e4	-0.05838956
95	0x3d569632	0.05238933
96	0xbd39cc86	-0.045361064
97	0xbe2d0273	-0.16895466
98	0xbe21eed0	-0.15813756
99	0x3a86f7e1	0.0010297262
100	0xbb56d01b	-0.003277785
101	0x3b95c062	0.004570053
102	0xbdb8344f	-0.08994352
103	0x3d254d77	0.04035708
104	0x3def545f	0.116860144
105	0xbe8118bc	-0.25214183
106	0x3d1ab6ee	0.03777211
107	0xbd828890	-0.063737035
108	0xbcf492ca	-0.02985515
109	0x3db4f71e	0.08836196
110	0xbca1021b	-0.019654324
111	0xbbce0e0a	-0.0062882947
112	0x3d1f75d3	0.038930725
113	0x3c0ff359	0.008786046
114	0x3bcef8d9	0.006316286
115	0x3d25bf88	0.04046586
116	0x3ca95b56	0.020673435
117	0xbe682bc2	-0.22672942
118	0x3be85a6f	0.0070908586
119	0x3c467fe6	0.012115454
120	0xbd30b783	-0.04314376
121	0xbc4e452e	-0.012589736
122	0x3a73350e	0.000927762
123	0x3d395025	0.045242447
124	0x3d1a6945	0.03769805
125	0xbc5c7806	-0.01345635
126	0x3d11cff6	0.035598718
127	0x3db4920f	0.08816921

actor.4.weight f4 [6, 128]
0	0xbd5857bf	-0.052818056
1	0x3c38cf2a	0.0112798605
2	0x3c2559b2	0.010092186
3	0x3be7ce2f	0.0070741395
4	0xbbac763d	-0.0052631185
5	0xbb57fe40	-0.0032957941
6	0x3bd6b9f6	0.00655293
7	0x3c050875	0.008119692
8	0x3c0e12f9	0.008671516
9	0xba15529c	-0.00056962087
10	0x3bf68d27	0.007524151
11	0x3bf6d200	0.007532358
12	0xbb91e629	-0.004452486
13	0x3c016c90	0.0078994185
14	0x3b74df51	0.0037364552
15	0x3c1e7e55	0.009673675
16	0x39b958f0	0.00035352213
17	0xbc990596	-0.018679421
18	0x3bb179de	0.005416139
19	0xbc178284	-0.009247426
20	0x3c2dabec	0.010600071
21	0xbc35d844	-0.011098925
22	0x3d2793ea	0.040912546
23	0x3bea90ed	0.00715839
24	0xbb61129a	-0.0034343363
25	0x3c397678	0.011319749
26	0x3acc5fa9	0.0015592474
27	0xbc81e3f9	-0.015855776
28	0x3bff3bae	0.007789097
29	0xbc2de6c5	-0.010614102
30	0xbc561cb8	-0.0130683705
31	0xbbd5e9f4	-0.0065281335
32	0x3c2bf23d	0.010494766
33	0x3b1f9617	0.0024350935
34	0x3b14d319	0.0022708832
35	0x3c01275d	0.00788292
36	0x3d649fa6	0.055816315
37	0x3c193f3e	0.009353457
38	0xbd3f3855	-0.04668458
39	0xbda1b875	-0.078965105
40	0xbc1c4a4b	-0.009539197
41	0xbc0393f6	-0.008030882
42	0x3c2bfca8	0.01049725
43	0xbd509f7c	-0.050933346
44	0xbdde98f4	-0.10869017
45	0x3c1d690f	0.009607567
46	0x3bb7d943	0.0056106164
47	0x3af484d1	0.0018655305
48	0xbbddac50	-0.006764926
49	0xbb8e9c7f	-0.004352152
50	0x3c5aa4b9	0.013344937
51	0x3cb4f73a	0.022090543
52	0x3bd0fdc3	0.006377907
53	0xbb825bfd	-0.003978251
54	0xbc116f19	-0.008876585
55	0xbc1659c9	-0.00917668
56	0x3c156a77	0.0091196215
57	0x3b63c047	0.0034752057
58	0x3c0e135c	0.008671608
59	0xbc0e4f0b	-0.0086858375
60	0x3d46f261	0.048570994
61	0x3b9b5c5c	0.0047412347
62	0xbb650128	-0.0034943316
63	0xbafc6329	-0.0019255626
64	0x3c888046	0.016662728
65	0x3bd398ab	0.0064574084
66	0xbbbe2a83	-0.0058034076
67	0xbbe0bb15	-0.0068582394
68	0xbc662281	-0.014046312
69	0xbd09f4bc	-0.033680663
70	0xbd111f9e	-0.035430543
71	0xbb3d96ce	-0.0028928998
72	0x3d43797a	0.04772327
73	0x3b31c029	0.0027122593
74	0xbd444f4c	-0.047927186
75	0x3cfa9adf	0.030591426
76	0x3be35253	0.006937304
77	0xbb172687	-0.0023063736
78	0x3b6e2b35	0.0036341671
79	0x3aca67cd	0.0015442312
80	0xbc2fdcc3	-0.010733786
81	0x3d8f2334	0.06989136
82	0x3cb16e1b	0.021658948
83	0xbbd5c937	-0.006524231
84	0xbc9eccc4	-0.01938475
85	0xbb2f4e9e	-0.002674974
86	0x3c7de4c7	0.015496439
87	0x3d2ddd5a	0.042447425
88	0x3c545901	0.012960673
89	0x3c969eb5	0.018386224
90	0xbba8f4cd	-0.0051561357
91	0x3dc96d7e	0.09835337
92	0xbabb1c7a	-0.0014275454
93	0xbc3331b7	-0.010937146
94	0x3bf820c7	0.0075722667
95	0x3ac707ac	0.0015184782
96	0xbc5dc8a4	-0.013536606
97	0xbd0e18b7	-0.03469154
98	0x3c194af9	0.009356254
99	0xbba02675	-0.004887397
100	0x3c875902	0.016521934
101	0xbc541fe5	-0.012947057
102	0xbd2e02eb	-0.04248325
103	0xbd847225	-0.06467084
104	0xbc9d113f	-0.019173263
105	0xbcb94d56	-0.022619884
106	0x3c39c36a	0.011338094
107	0x3a019220	0.0004942734
108	0xbc1dfba5	-0.009642516
109	0x3ce2d82e	0.027690973
110	0x3ba48db4	0.005021775
111	0xbde098b2	-0.10966624
112	0x3b612a7f	0.0034357605
113	0xb9bb51f0	-0.00035728468
114	0xbbb11183	-0.005403699
115	0xbbf57c43	-0.00749162
116	0xbbc3f7fd	-0.0059804902
117	0x3bb8527c	0.0056250673
118	0xbcd877e8	-0.026424363
119	0xbb9903f7	-0.004669662
120	0xbb916284	-0.004436793
121	0xbc019d9d	-0.007911113
122	0x38e2b8bf	0.000108109314
123	0xbbf32788	-0.007420484
124	0x3b4c0613	0.003113155
125	0xbc04d8dd	-0.008108345
126	0x3c24a315	0.010048647
127	0x3b3dd6f7	0.002896724
128	0x3c9b68de	0.018970903
129	0xbcaf24d3	-0.021379864
130	0x3a26f4cd	0.00063688756
131	0xbbbd2186	-0.0057718186
132	0x3b009cbe	0.0019624676
133	0x3c65902f	0.014011427
134	0x3c62daf5	0.013846149
135	0x3b29f6a3	0.002593436
136	0xbc371b7e	-0.011175988
137	0x39db83bf	0.00041869094
138	0xbb41a781	-0.0029549303
139	0x3b119d35	0.0022218947
140	0x3c9d2d90	0.019186765
141	0x3ae65d71	0.0017575455
142	0x3c0f5ff2	0.0087509025
143	0xbc0052dc	-0.007832255
144	0x3c996dfc	0.018729202
145	0x3c7ea229	0.015541592
146	0x3b15ebd6	0.0022876165
147	0x3cb06029	0.021530228
148	0xbb310501	-0.002701104
149	0xbce4d6c6	-0.027934443
150	0xbb42776e	-0.0029673236
151	0xbc090672	-0.008363353
152	0xbb6961b9	-0.0035611226
153	0xbbc0ab13	-0.0058797686
154	0x3ba9015b	0.0051576323
155	0x3bc1223d	0.005893974
156	0xbb6303c7	-0.0034639703
157	0x3c912174	0.017716147
158	0x3caea83b	0.021320453
159	0xbb6d7fdb	-0.0036239538
160	0xba733908	-0.00092782127
161	0x3bdd9433	0.0067620515
162	0xbb48d987	-0.0030647235
163	0xba8a4f43	-0.0010552186
164	0xbc8cace4	-0.017172284
165	0x3b12cdc7	0.0022400485
166	0x3cfd3570	0.03090927
167	0xbcabbd72	-0.020964358
168	0x3bdc1455	0.006716291
169	0x3b829acf	0.00398574
170	0xbca9cd7d	-0.020727867
171	0xbd785985	-0.060632247
172	0xbcae53d3	-0.021280205
173	0x3b859779	0.004076895
174	0xbc222483	-0.0098964
175	0xbc966747	-0.018359793
176	0x3c95b097	0.018272681
177	0xbcce20f4	-0.025162198
178	0xbaff700a	-0.0019488346
179	0x3c71f34c	0.014767479
180	0xb6a102d8	-4.798505e-06
181	0x3bb8f272	0.005644136
182	0x3bd6b214	0.0065519903
183	0x3cc6f438	0.024286374
184	0xbc7faaeb	-0.015604715
185	0x3b258b9d	0.0025260218
186	0x3a9efd97	0.0012130019
187	0xbab9a879	-0.0014164589
188	0xbcb778e3	-0.02239651
189	0xbb3430e8	-0.002749497
190	0xbbdb46a7	-0.006691772
191	0xbb5515ac	-0.0032514138
192	0xbc9c4f10	-0.019080669
193	0xbcc9a34c	-0.024613999
194	0x3a4230bf	0.00074077764
195	0xbb93bfe8	-0.004508961
196	0x3c9edbfe	0.01939201
197	0x3d482409	0.04886249
198	0xbcaee1f5	-0.02134798
199	0xbb2a9a12	-0.0026031774
200	0x3d0bcd04	0.034131065
201	0x3b826cae	0.003980241
202	0xbca96d77	-0.02068208
203	0xbb818f8d	-0.00395388
204	0x3b9f85ba	0.0048682364
205	0x3c0b48f9	0.008501285
206	0xbbc08558	-0.005875271
207	0xbbfd6a05	-0.007733586
208	0x3c2450dc	0.010029044
209	0x3b40212b	0.0029316645
210	0x3c0825b1	0.008309768
211	0x3bc8958a	0.006121342
212	0x3cddef71	0.027091714
213	0x3c6cc5d2	0.014451461
214	0x3b86f2ea	0.004118313
215	0xbd063747	-0.03276756
216	0xbc93a3d7	-0.01802246
217	0xbbd38075	-0.0064545223
218	0xbc31dfd6	-0.010856589
219	0x3c55f152	0.0130580235
220	0xbb88c4e1	-0.0041738604
221	0x3c42393a	0.011854464
222	0xbc62e762	-0.013849111
223	0xbc9d4f06	-0.01920272
224	0x3cd6440f	0.0261555
225	0xbd1fb330	-0.038989246
226	0xbd6441fb	-0.055726986
227	0xbb9f4f43	-0.0048617437
228	0xbcb2cd41	-0.021826388
229	0x3bf6260b	0.0075118593
230	0xbd840c73	-0.06447687
231	0x3d2435a0	0.040090203
232	0xbc8723f8	-0.016496643
233	0xbd1ae600	-0.037817
234	0xbbb98948	-0.005662117
235	0xbb4e3e03	-0.0031470067
236	0xbad738f2	-0.0016420169
237	0x3c8bfcd6	0.017088335
238	0x3b33d362	0.0027439226
239	0x37817c20	1.5435799e-05
240	0x3bdd4f4c	0.0067538377
241	0xbba0f17d	-0.0049116
242	0x3bd4f4ab	0.0064988933
243	0xbc8b4f78	-0.017005667
244	0x3b95b390	0.0045685247
245	0xbcd264a0	-0.025682747
246	0xbc05310a	-0.008129368
247	0x3cb06de6	0.021536779
248	0xbaec837a	-0.0018044554
249	0x3cca92a5	0.024728129
250	0x3c216342	0.009850325
251	0xbb04b167	-0.0020247342
252	0x3c2b8e20	0.010470897
253	0x3bd01667	0.006350327
254	0xbc3c7284	-0.011501912
255	0x3c4dd056	0.012561878

actor.4.bias f4 [6]
0	0xbc559d78	-0.013038032
1	0xb9f7deef	-0.0004727761
2	0x3d961b3b	0.073294125
3	0x3bd92b54	0.0066274796
4	0x3bc65f46	0.006053838
5	0xbdcb08b8	-0.09913772

critic.0.weight f4 [256, 12]
0	0xbe5968dd	-0.21231408
1	0x3e1f71af	0.1557071
2	0x3d63c4a5	0.055607457
3	0x3ebac387	0.364773
4	0x3da5b1f0	0.080905795
5	0x3d312485	0.04324772
6	0xbe1d2cbb	-0.15349095
7	0xbeb30dc1	-0.3497143
8	0xbd021df0	-0.031766832
9	0x3f89e1f6	1.0772083
10	0x3dacf6f0	0.08445537
11	0x3e8fdbb4	0.28097308
12	0xbe126441	-0.14296056
13	0x3e708362	0.23487619
14	0x3e6ccdff	0.23125456
15	0x3e39170a	0.18075195
16	0xbe817b96	-0.252896
17	0xbe9c5e99	-0.30540922
18	0xbe5b18aa	-0.21396127
19	0x3e4f0baf	0.202193
20	0x3e9daee4	0.30797493
21	0x3f8d2556	1.1027019
22	0xbe82c68c	-0.25542104
23	0xbbf201c8	-0.0073854662
24	0xbe25e3f6	-0.16200241
25	0x3e928053	0.2861353
26	0x3debac24	0.115074426
27	0x3e2914db	0.16511862
28	0x3da48c3a	0.080345586
29	0xbe7a9276	-0.24469933
30	0x3d950c82	0.07277776
31	0xbb5ab6b4	-0.003337306
32	0x3ea08810	0.31353807
33	0x3f834ca6	1.0257766
34	0x3db986ae	0.09058891
35	0xb9a0b78b	-0.00030654328
36	0x3e22ce3e	0.15898988
37	0x3d8c86cb	0.06861647
38	0x3e7bbea8	0.24584448
39	0x3e87d006	0.26525897
40	0xbe563af1	-0.20920922
41	0xbe4bcad0	-0.19901586
42	0x3e0b42c0	0.13599682
43	0x3e638383	0.22218136
44	0xbdd63079	-0.10458464
45	0xbf60d3bd	-0.87823087
46	0xbeca9961	-0.39570144
47	0xbe010a24	-0.12601525
48	0xbe199faf	-0.1500232
49	0x3e626a04	0.22110754
50	0xbd8c18a6	-0.06840639
51	0x3ec248fb	0.37946305
52	0xbe5bb51e	-0.2145581
53	0xbec4aeca	-0.38414603
54	0x3dbf4244	0.09338811
55	0x3dce71b3	0.1008028
56	0xbdeaef6c	-0.11471447
57	0x3f838a17	1.0276517
58	0x3eae0e2e	0.33995193
59	0xbe8d3aea	-0.2758401
60	0x3e71c040	0.23608494
61	0x3e2e09e5	0.16995962
62	0x3dc377ff	0.09544372
63	0xbf0f7386	-0.5603565
64	0x3eab0e37	0.33409283
65	0x3edf9fe6	0.4367668
66	0x3e74902e	0.23883125
67	0x3e44e101	0.19226457
68	0xbe02872a	-0.12746873
69	0xbe20436f	-0.15650724
70	0xbe3d6f04	-0.1849938
71	0x3cf0293a	0.029316533
72	0x3c3b9dbf	0.011451184
73	0x3df11d60	0.11773181
74	0x3e039f64	0.12853771
75	0x3d59e073	0.053192567
76	0xbe7f790c	-0.2494852
77	0xbe88542b	-0.26626715
78	0xbe4c0b68	-0.19926226
79	0x3dd6628d	0.10468016
80	0xbba73eac	-0.0051039066
81	0x3f5da1d1	0.8657504
82	0x3e20f7be	0.15719506
83	0x3d80f93b	0.06297537
84	0x3e3d1a09	0.18466963
85	0xbe9a442a	-0.3013013
86	0x3d86aee7	0.06576329
87	0x3e7c3762	0.24630502
88	0x3e171ee3	0.14757876
89	0x3eac26fa	0.33623487
90	0xbd1efcdc	-0.038815364
91	0xbd3d7290	-0.046251833
92	0x3dbc932d	0.09207759
93	0xbf8a20c2	-1.0791247
94	0xbe002373	-0.12513523
95	0xbe372760	-0.17886114
96	0x3e9f2c6f	0.31088588
97	0xbdd11834	-0.102096945
98	0xbe4318c2	-0.19052413
99	0x3dd28011	0.10278333
100	0x3e0d1a74	0.13779622
101	0x3dbaf194	0.091281086
102	0xbcff58f6	-0.03117035
103	0x3ca744e4	0.020418592
104	0xbed95dd1	-0.4245439
105	0xbe0fa5c9	-0.14028086
106	0x3e9fb73a	0.31194478
107	0x3bac7517	0.0052629816
108	0xbe2cdd5a	-0.16881314
109	0x3e2353d7	0.15949951
110	0x3e499fa8	0.1968981
111	0xbe2dad2e	-0.16960594
112	0xbd94e3f4	-0.07270041
113	0x3d8f3d01	0.069940574
114	0xbeb678a4	-0.35638916
115	0x3d628000	0.05529785
116	0xbce153f2	-0.027505849
117	0x3f86e2b5	1.0537935
118	0xbe9e65eb	-0.30937132
119	0x3e854383	0.2602807
120	0x3ef58362	0.479518
121	0xbd175f09	-0.036955867
122	0x3cd536dc	0.026027136
123	0x3d8fb194	0.07016292
124	0xbd574bcb	-0.052562516
125	0xbd7965e1	-0.060888175
126	0x3ec09825	0.37616077
127	0xbd31dda3	-0.04342426
128	0xbe8b97e6	-0.27264327
129	0x3d35c499	0.044376943
130	0xbdc291fb	-0.095005
131	0xbd8525b0	-0.06501329
132	0x3df3ee9a	0.11910744
133	0x3e0b874c	0.1362583
134	0x3dd75c4b	0.1051565
135	0xbde48d7d	-0.11159799
136	0x3dba39f0	0.09093082
137	0xbe7e1358	-0.24812067
138	0x3d148f59	0.03626952
139	0xbe77b203	-0.24189
140	0x3da556c0	0.08073187
141	0x3f7d97fa	0.9906002
142	0xbe17b601	-0.14815523
143	0xbe0c59a5	-0.13706072
144	0x3dd1387f	0.10215854
145	0xbcf95907	-0.03043796
146	0x3d302399	0.0430027
147	0xbea16e08	-0.3152926
148	0x3e415f0f	0.18883918
149	0x3dc6b551	0.09702552
150	0x3d14c2ac	0.036318466
151	0x3e855bfd	0.26046744
152	0x3e9a2025	0.3010265
153	0xbf84fc45	-1.0389487
154	0x3dfb093e	0.12257622
155	0xbe609c1b	-0.2193455
156	0x3de85c11	0.11345685
157	0xbe443eef	-0.19164632
158	0xbcacc41e	-0.02108961
159	0x3e245ba7	0.16050588
160	0x3e33c02f	0.17553781
161	0x3c512ea7	0.01276747
162	0xbeac3c44	-0.3363973
163	0xbe18b7b2	-0.14913824
164	0x3ea2180a	0.31658965
165	0x3f63e441	0.8902016
166	0xbec03963	-0.37543783
167	0xbdbcf796	-0.09226911
168	0xbc82115c	-0.015877418
169	0x3bb9c682	0.005669416
170	0x3d49940f	0.049213465
171	0x3e53a046	0.20666608
172	0xbdd0c947	-0.101946406
173	0xbe9eee15	-0.31041017
174	0xbe596189	-0.21228613
175	0x3e0d3df0	0.13793159
176	0xbd22c249	-0.039736066
177	0xbf586246	-0.84524953
178	0x3eb22979	0.34797266
179	0xbd87e207	-0.06634908
180	0x3ea1f5f8	0.31632972
181	0x3dbde6fe	0.09272574
182	0x3e81d0b0	0.25354528
183	0xbd7c5583	-0.061604988
184	0xbdc91d64	-0.09820059
185	0x3dcad01b	0.09902974
186	0xbdc496fc	-0.095991105
187	0x3dd8d529	0.10587532
188	0xbd6f09cb	-0.05835895
189	0xbf92e0c1	-1.147484
190	0xbe1c99ef	-0.15293096
191	0xbe3f936c	-0.1870858
192	0xbd5505d3	-0.052007508
193	0xbe0c94d5	-0.1372865
194	0xbe8d8311	-0.27639058
195	0xbe35036f	-0.17677091
196	0x3e460c21	0.19340564
197	0x3e7ba824	0.2457586
198	0xbd006784	-0.03134872
199	0x3e07e2ec	0.13270158
200	0xbd95dbec	-0.073173374
201	0x3f75ff40	0.96092606
202	0xbc34f3f6	-0.011044493
203	0xbe40791c	-0.187962
204	0x3d837e33	0.06420555
205	0xbdcacee7	-0.09902745
206	0x3d48d372	0.049029775
207	0xbd7909dd	-0.060800422
208	0xbd7139b7	-0.05889293
209	0x3e927ce7	0.28610918
210	0xbc358dee	-0.011081202
211	0xbe79c286	-0.24390611
212	0x3b827326	0.003981012
213	0xbf369da5	-0.71334296
214	0xbf1a7bf1	-0.6034537
215	0x3e17b4ec	0.1481511
216	0xbe6fa1bb	-0.23401539
217	0x3cd55ca5	0.026045153
218	0xbcd4be8b	-0.025969764
219	0x3ec2085d	0.37897006
220	0xbdc62365	-0.0967472
221	0xbe13de7d	-0.14440341
222	0xbc59b2b0	-0.013287231
223	0xbea531b0	-0.3226447
224	0x3d7f4d65	0.06232967
225	0x3f72ee8d	0.9489525
226	0x3d3d54d2	0.04622347
227	0x3d7aaece	0.061201863
228	0xbe59f369	-0.2128426
229	0x3e37899c	0.17923588
230	0x3e146925	0.14493234
231	0x3e375ec0	0.17907238
232	0x3e8398b9	0.25702456
233	0x3e1f0650	0.15529752
234	0x3e0ce507	0.13759242
235	0x3d1388e5	0.036019225
236	0x3e67603b	0.22595303
237	0x3f404da7	0.7511849
238	0xbe52b9ee	-0.20578739
239	0xbe4c6b04	-0.19962698
240	0xbda0474d	-0.078260995
241	0xbecc5ad1	-0.39913037
242	0x3ec35e09	0.3815768
243	0xbe8b8525	-0.2725002
244	0x3e3e4d47	0.18584166
245	0xbea588cd	-0.32330933
246	0xbda8a495	-0.082345165
247	0x3d8a9f05	0.06768612
248	0xbdd95372	-0.10611619
249	0xbe94e3c6	-0.29080027
250	0x3eb72a75	0.3577458
251	0xbef21789	-0.4728358
252	0xbd35b6d8	-0.044363827
253	0xbe6f3ee2	-0.23363832
254	0xbe613166	-0.219915
255	0xbddf5c3d	-0.10906265

critic.0.bias f4 [256]
0	0xbe1bcd4e	-0.15215036
1	0x3e883bca	0.26608115
2	0xbda12874	-0.07869044
3	0x3e19703e	0.14984223
4	0xbe98dcff	-0.29856107
5	0xbb3ef4c7	-0.0029137598
6	0x3dbd8226	0.092533395
7	0xbdd95259	-0.1061141
8	0xbe9c2858	-0.3049953
9	0x3e616bd1	0.22013785
10	0xbd744e36	-0.0596449
11	0x3cc67f82	0.024230722
12	0x3e4607f2	0.19338968
13	0x3e588c05	0.21147163
14	0xbdd2fc57	-0.10302036
15	0x3e82030d	0.25392953
16	0xbd5ec141	-0.05438352
17	0x3e484b23	0.19559912
18	0x3def330d	0.11679659
19	0xbd953ce0	-0.072870016
20	0xbee16b82	-0.44027334
21	0xbdee280d	-0.11628733
22	0x3e69894f	0.22806285
23	0x3c076f13	0.008266228
24	0xbe9d85c5	-0.3076612
25	0x3e077021	0.13226368
26	0xbe2c2dfd	-0.16814418
27	0xbd8c3ca1	-0.068475015
28	0xbde4a5f5	-0.11164466
29	0x3d69c5bd	0.057073344
30	0xbe80d745	-0.25164238
31	0x3e6b30ce	0.22967836
32	0xbe70c0fa	-0.23511115
33	0x3e86c78c	0.26324117
34	0xbea57d39	-0.323221
35	0xbe15942c	-0.14607304
36	0x3e5952ac	0.21222943
37	0x3d89d9c2	0.06730987
38	0xbdef296b	-0.11677822
39	0x3e584f62	0.21124032
40	0x3db5f9b6	0.08885519
41	0xbed936a6	-0.42424506
42	0x3e19e0d4	0.15027171
43	0xbbb3d989	-0.0054885787
44	0x3eaa7bae	0.33297485
45	0x3e206540	0.15663624
46	0x3e881420	0.26577854
47	0xbe956c07	-0.2918398
48	0x3e0e9d09	0.13927092
49	0xbe9491c1	-0.2901745
50	0x3d8b9eb3	0.06817379
51	0xbbea8333	-0.0071567534
52	0x3d483872	0.048881955
53	0x3c9408c2	0.018070582
54	0xbe800300	-0.2500229
55	0xbc9d7f10	-0.019225627
56	0x3d93116a	0.07181056
57	0x3d1d3a48	0.03838566
58	0x3e1aea20	0.15128374
59	0xbec07c0d	-0.37594643
60	0xbe61f3c1	-0.22065641
61	0x3e8c289c	0.27374732
62	0x3edb920d	0.42884865
63	0x3d89ae8d	0.06722746
64	0xbe78cdd3	-0.24297266
65	0xbe1097e3	-0.1412044
66	0xbdb2838b	-0.08716496
67	0x3e79aa92	0.24381474
68	0x3e75d684	0.24007612
69	0x3e36472c	0.17800587
70	0xbe9325cc	-0.28739774
71	0x3d8193ad	0.06326995
72	0xbea405e5	-0.32035747
73	0x3d879dcc	0.06621894
74	0xbe82d068	-0.25549626
75	0xbeaf7439	-0.34268358
76	0xbe56bdba	-0.20970812
77	0x3dfbf69b	0.12302896
78	0x3e53d7a0	0.20687723
79	0xbe9dc12e	-0.30811447
80	0xbdb47394	-0.08811107
81	0x3d95b42e	0.07309757
82	0x3e39ccc1	0.18144514
83	0xbaee1950	-0.0018165503
84	0x3d76fc94	0.06029947
85	0x3ea9f78b	0.33196673
86	0x3ecde321	0.40212348
87	0xbe8a4105	-0.2700273
88	0x3cf67a76	0.03008769
89	0xbe80263c	-0.2502917
90	0xbebfd731	-0.37468866
91	0x3e2e6f05	0.17034538
92	0x3e638bba	0.2222127
93	0x3d2c99d5	0.042138893
94	0xbe386527	-0.18007337
95	0x3d893334	0.06699219
96	0x3e9a6b0d	0.30159798
97	0x3e53508a	0.20636192
98	0x3db8737d	0.09006403
99	0xbde7d085	-0.11319069
100	0x3e9b549e	0.30337995
101	0x3eccd9f7	0.40010044
102	0x3e7ded5b	0.24797575
103	0xbe7f87c3	-0.24954133
104	0xbdc6b38e	-0.09702216
105	0xbd501536	-0.05080148
106	0x3e685c35	0.22691424
107	0x3e1d4c3e	0.15361115
108	0x3d4e8d6b	0.050427835
109	0xbe17047f	-0.14747809
110	0x3da68bdc	0.08132145
111	0x3d5a2f21	0.053267602
112	0xbea6099e	-0.32429212
113	0xbe27f773	-0.16402988
114	0xbe557628	-0.20845854
115	0x3dd4c6eb	0.10389503
116	0x3da90458	0.08252782
117	0x3e9d5c21	0.3073435
118	0xbe9a2f6f	-0.30114314
119	0x3cbc7ac8	0.023007765
120	0xbee6d0b8	-0.45081115
121	0xbdf3aef0	-0.11898601
122	0x3ecaeeff	0.39635465
123	0xbe459693	-0.19295721
124	0xbe88b415	-0.26699892
125	0x3e01f09f	0.12689446
126	0xbe70b754	-0.23507434
127	0x3e8b5c74	0.27218974
128	0x3e513b05	0.2043267
129	0x3eea9a48	0.45820832
130	0x3d99c9d2	0.07509197
131	0xbd7f3426	-0.062305592
132	0xbe1ebd49	-0.15501894
133	0x3e7b217b	0.2452449
134	0x3e58dfeb	0.21179168
135	0x3e3e7b19	0.18601646
136	0x3e64eac6	0.22355184
137	0xbe49b85c	-0.19699234
138	0xbc4badc2	-0.012431564
139	0x3d70044b	0.058597844
140	0x3e347b27	0.17625104
141	0x3d0f53a1	0.034991864
142	0x3e518968	0.20462573
143	0x3e9673b0	0.29385138
144	0xbe8a1883	-0.26971826
145	0x3e67c9f7	0.22635637
146	0xbda4f578	-0.08054632
147	0x3e237682	0.15963176
148	0x3eceea78	0.4041326
149	0x3dfab811	0.12242139
150	0x3ee9230f	0.4553456
151	0xbdef5f8e	-0.116881475
152	0x3ea14c16	0.3150336
153	0x3ea6c298	0.32570338
154	0x3d8b97a0	0.068160295
155	0xbe832f7a	-0.2562216
156	0xbe582231	-0.21106793
157	0x3c705d56	0.0146706905
158	0x3eb75a1d	0.35810938
159	0xbdcdd543	-0.10050442
160	0x3d8b6fc0	0.06808424
161	0xbe12bcab	-0.14329784
162	0xbe793d1f	-0.24339722
163	0x3d150be9	0.03638831
164	0xbea37338	-0.31923842
165	0x3e25b000	0.1618042
166	0x3cb5fe73	0.022216057
167	0x3e57e1be	0.21082208
168	0x3e4c4c86	0.19951066
169	0xbc31cf60	-0.010852665
170	0xbe771586	-0.24129304
171	0xbdc15404	-0.09439853
172	0xbd8df084	-0.0693064
173	0xbe0bc3e0	-0.13648939
174	0xbe64eb3b	-0.22355358
175	0x3dc51284	0.09622672
176	0xbddac56e	-0.10682188
177	0xbeac49ba	-0.3365
178	0xbda4b49a	-0.080422595
179	0xbd87fc8a	-0.06639965
180	0x3e812320	0.2522211
181	0x3cefc365	0.029267976
182	0xbe4a90f3	-0.19781856
183	0xbea192a1	-0.3155718
184	0x3e1630e0	0.14667082
185	0x3d99e3d2	0.075141564
186	0xbd04a597	-0.03238448
187	0x3e5b938d	0.21443005
188	0xbe854394	-0.2602812
189	0xbe4281b9	-0.18994798
190	0xbe00bb3b	-0.12571423
191	0xbd5c97f8	-0.053855866
192	0x3e033bc7	0.12815772
193	0xbdc2f4f8	-0.0951938
194	0xbdba2e9e	-0.09090923
195	0x3eaa1216	0.33216923
196	0xbe7440b3	-0.23852806
197	0x3e6d04cd	0.23146363
198	0xbea39ca0	-0.31955433
199	0x3dfa4908	0.12220961
200	0xbe649c69	-0.2232529
201	0x3d93f405	0.072242774
202	0xbe2016a9	-0.15633644
203	0x3e4fc89a	0.20291367
204	0x3e45bf0e	0.19311163
205	0x3ec7efe6	0.39050215
206	0x3eaf19a8	0.34199262
207	0xbce9074b	-0.02844586
208	0xbe0e8321	-0.13917209
209	0xbe8866ac	-0.26640832
210	0x3d3f95d9	0.046773765
211	0x3cc9a554	0.024614967
212	0xbdf75024	-0.120758325
213	0xbe1fc3a3	-0.15601973
214	0x3dcfbfcc	0.10144004
215	0x3b9402f3	0.004516953
216	0xbe3bf25a	-0.18354169
217	0xbee79b3b	-0.4523562
218	0xbdc0f2f7	-0.09421342
219	0x3db323c1	0.08747054
220	0xbda6250b	-0.08112534
221	0x3e15aba1	0.14616252
222	0x3ecb11d6	0.39662045
223	0xbd448669	-0.047979746
224	0x3e276c2c	0.16349858
225	0x3c312ea9	0.010814347
226	0xbddbd9b4	-0.10734883
227	0xbe2c3bc5	-0.16819675
228	0x3e9da7e5	0.30792156
229	0xbe44bc42	-0.1921244
230	0x3e072617	0.13198124
231	0x3ec325ba	0.3811472
232	0xbeb70a2d	-0.3574995
233	0xbea5841c	-0.32327354
234	0xbd9bf2a0	-0.076146364
235	0xbd4a49d7	-0.049386825
236	0xbcc42130	-0.023941606
237	0xbe79b731	-0.24386288
238	0xbe6d3e0d	-0.23168202
239	0x3e183517	0.14864002
240	0xbd609d9b	-0.054837804
241	0x3c8701e8	0.016480401
242	0xbe07a5f5	-0.13246901
243	0x3db7d7f3	0.08976736
244	0xbe126967	-0.1429802
245	0x3e66c6c1	0.22536756
246	0x3d9321f7	0.07184213
247	0x3cf60e4c	0.030036114
248	0x3e28d80c	0.16488665
249	0xbec35b13	-0.38155422
250	0xbdefb5f7	-0.11704629
251	0xbeabb2f6	-0.33534974
252	0xbe85716d	-0.260631
253	0xbd767031	-0.060165588
254	0x3de27351	0.11057151
255	0x3e82116d	0.2540392
