policy/PPO/checkpoints/2025-10-04_08-08/ppo_soarm_3000.pth (torch, 895437 bytes, 33 tensors)

actor.0.weight f4 [256, 12]
000000 d9 ea fc 3d 8a ca 37 3d a6 f0 c8 3d aa e5 53 be
       0.12349481 0.04487089 0.09811525 -0.20693079
000010 b9 2e 25 be b4 4e 51 be 4d ac 98 3c af eb 5b be
       -0.16131105 -0.20440179 0.018636847 -0.21476625
000020 2c f3 24 be ac 24 d9 3e 07 7e 45 3e 02 d7 9f bd
       -0.16108388 0.4241079 0.19286357 -0.07804681
000030 15 cb fe 3b ad 77 34 bd 4c e0 87 bb b0 a5 8d be
       0.007775674 -0.044059444 -0.0041466113 -0.27665472
000040 d6 63 d5 bd 8c a3 88 3e b7 8c 2c 3e 0a c5 f0 bd
       -0.10419433 0.26687276 0.16850553 -0.11756332
000050 66 19 8f 3e c1 1b 02 3b a6 58 90 bd 5c 1d 82 3c
       0.27949065 0.0019852968 -0.07048158 0.01588314
000060 ee 15 92 3e 6d fa 09 3d ef 98 93 3e 8b 22 47 3d
       0.28532356 0.03368609 0.28827617 0.048616927
000070 78 04 30 be 0c 8a a3 3e 02 c9 83 be a5 6b 8c be
       -0.17189205 0.3194126 -0.25739294 -0.27425876
000080 02 09 91 3d df b7 15 3e e1 a4 2c 3e c3 f2 11 be
       0.07081796 0.14620923 0.16859771 -0.14252762
000090 6e 55 79 bd f8 b7 4c be 76 e4 26 3d 58 74 ef bd
       -0.060872488 -0.19992054 0.04074522 -0.11692113
0000a0 c7 51 83 bd cb 1b 77 3e aa 38 17 3e d2 5a 69 be
       -0.06412082 0.24131696 0.1476771 -0.22788551
0000b0 0d 79 8c bd ca c4 4e 3e 79 f6 88 bd 09 b1 7a 3d
       -0.06859026 0.20192257 -0.06687636 0.06120399
0000c0 79 14 18 3e 2f c8 51 be 74 0d 0c be b4 12 1c 3e
       0.1485156 -0.2048652 -0.13677007 0.1524151
0000d0 27 4e 22 bd 3f 04 bc 3d e5 0b 07 3e 94 db e2 bc
       -0.039625313 0.091804974 0.13188131 -0.027692594
0000e0 82 65 80 be 2a 65 e8 3e ba 4b 90 3d e4 90 2c be
       -0.25077444 0.45389682 0.07045694 -0.16852146
0000f0 35 f3 1e be b9 2c 31 be 14 e7 91 bd cb 5c 17 3d
       -0.15522464 -0.17302217 -0.07124153 0.03695373
000100 9a bd 9e 3d d8 27 40 bd 57 c1 0b 3e eb d1 e3 bd
       0.077510074 -0.046912998 0.13647972 -0.11124023
000110 86 f4 b4 3e bb 88 d7 3d 1e 0f da bd e4 33 12 bd
       0.35342807 0.10524126 -0.106474146 -0.035694018
000120 f0 2e 0d 3e df d4 50 bd b8 18 62 bd d5 b8 f9 bd
       0.13787436 -0.05098426 -0.055199355 -0.12193457
000130 77 64 10 3e 10 03 da 3a 03 97 b8 3d 57 86 cc bd
       0.14100824 0.0016632993 0.09013178 -0.09986561
000140 b9 db 50 bd 78 8e eb 3d aa 44 9c bd b2 b8 2f be
       -0.050990794 0.11501783 -0.07630284 -0.171603
000150 e8 60 02 3e 9f 11 cb 3c 30 03 00 be 96 bb 5d be
       0.1273228 0.024788676 -0.12501216 -0.2165359
000160 5e 1c 3e be 2a 06 b2 bd 67 1f 86 be b9 8c ff bd
       -0.18565509 -0.08692582 -0.26195833 -0.124780126
000170 f9 b9 8d 3d 86 25 da 3d 51 b5 b5 3e d8 df 1e be
       0.06920237 0.10651688 0.35489896 -0.15515077
000180 e5 37 45 bc ad 0c da bd 76 c3 33 be 87 02 97 bc
       -0.012037252 -0.10646949 -0.17555031 -0.018433822
000190 87 09 2c be 0a 45 a7 3d 36 03 06 be 86 0f bc 3d
       -0.1680051 0.08167465 -0.13087162 0.09182648
0001a0 9f b5 53 3c 59 a3 40 be 84 8e 21 be fd ed 21 be
       0.01292172 -0.18812312 -0.15777022 -0.15813442
0001b0 cf 18 88 3e f8 c8 25 3e ae ab 82 3e 9f 7b c4 bd
       0.26581427 0.16189945 0.25521606 -0.09593891
0001c0 b4 ef 65 bd f2 b9 bf 3d 62 f6 3c 3e b2 7c 20 3e
       -0.0561368 0.09361638 0.18453363 0.15672567
0001d0 c4 e2 3c 3e 22 cf a0 3d 08 3e 59 3e 43 2e 55 3e
       0.18445879 0.078520074 0.2121507 0.20818429
0001e0 66 62 46 3e 61 fd f0 3d 48 da 39 be 94 90 34 be
       0.19373474 0.11767078 -0.18149674 -0.17633277
0001f0 97 a2 ff bd da 1a 34 3e 6e d7 44 3e 6f 07 a7 3d
       -0.124821834 0.17588368 0.19222805 0.08155715
000200 a0 0c b3 be 40 3a ee 3d 62 ba 54 3e ab 71 5e be
       -0.3497057 0.11632204 0.20774224 -0.21723048
000210 eb de 94 be 27 00 33 3e 92 fa 97 3e 80 aa fa 3d
       -0.29076323 0.17480527 0.29683357 0.122395515
000220 58 5f 8e be 24 8a 83 3d 56 a7 9b be d2 b8 9b 3e
       -0.27807117 0.064228326 -0.30401105 0.30414444
000230 62 c7 e7 3c ba af 6a 3d 09 db 99 3c 86 34 08 3e
       0.028293315 0.057296492 0.018781202 0.13301286
000240 cc 74 18 be 07 05 3a 3e d7 3d 7b 3e 97 7c 24 3e
       -0.14888304 0.1816598 0.24535309 0.16063152
000250 86 96 98 bd ed c7 99 bd 80 84 2d 3e d1 b6 2a 3e
       -0.07450585 -0.07508836 0.16945076 0.16671301
000260 d2 06 83 3e aa f5 c8 3e aa 8c 38 3d e6 e2 36 3e
       0.2559114 0.39249927 0.045056023 0.17859992
000270 34 76 c2 3c 88 5d c6 bd 0f 3c 1a be 16 3c ea bd
       0.023738004 -0.096858084 -0.15061973 -0.11437242
000280 2e e8 b6 bd a5 86 a3 be fa 39 9a bd ca 3d 3f be
       -0.089310035 -0.31938663 -0.075305894 -0.18675914
000290 74 06 92 3e bb 0e 34 be 92 40 5b 3e 23 40 87 bc
       0.28520548 -0.17583744 0.2141135 -0.016510075
0002a0 1f 16 29 be 82 0b 33 be 59 62 d1 bc 7d 90 2b 3e
       -0.16512345 -0.17484859 -0.025559591 0.16754337
0002b0 f9 2b 19 be 1c 7c 2b be 33 a5 2e 3d 53 13 0c 3e
       -0.1495818 -0.16746563 0.042638015 0.13679247
0002c0 a2 ea a5 bc 09 48 e1 be 5a 84 4d 3d ba a9 78 bd
       -0.020253483 -0.4400027 0.05017505 -0.06070874
0002d0 48 a5 33 3e a4 d9 5d bd 36 a7 86 bd 1f 7f 88 3e
       0.17543519 -0.054162636 -0.06574862 0.26659486
0002e0 10 a5 ae 3c 7e 28 38 be d6 38 70 be 6e 80 06 3e
       0.021318942 -0.17984197 -0.23459181 0.1313493
0002f0 10 11 15 3e 65 3d bd 3d 38 fe a9 bd b1 fb 34 bc
       0.1455729 0.09240226 -0.083004415 -0.011046336
000300 03 30 03 3e a6 3a 73 bd e6 d4 32 be e6 b1 3f bd
       0.12811284 -0.059382103 -0.17464027 -0.046800517
000310 9b de 85 3e 77 79 4b 3e 9b 8f 08 bc 53 9b 17 be
       0.26146397 0.19870554 -0.008335019 -0.14805345
000320 93 32 81 be c1 85 a9 3e d5 d5 ea 3d e3 6c ac 3d
       -0.25233898 0.3310986 0.114665665 0.08419206
000330 30 ab 83 3d 11 a6 75 be db 7b ea bd a7 81 0d 3e
       0.06429136 -0.2398913 -0.11449405 0.1381899
000340 fc c0 3f 3d 95 bb f8 3b 34 43 33 be 7d f0 23 be
       0.046814904 0.007590721 -0.17506105 -0.16009708
000350 9e f1 64 3e bd 19 c6 3d b6 b0 c0 3d cc 13 88 be
       0.22357795 0.09672878 0.09408705 -0.26577604
000360 a2 ca 40 bd ae 73 66 be a4 5b af be 29 cf 5f 3e
       -0.047068246 -0.22505066 -0.34249604 0.21856369
000370 5f 84 ee 3d d0 cf 08 3e b0 01 79 bd eb 33 31 3e
       0.116463415 0.13360524 -0.060792625 0.17304961
000380 a1 ef 58 bd f0 49 ea 3e ef 71 ec 3d 53 c0 06 be
       -0.052962903 0.45759535 0.115451686 -0.13159303
000390 19 b3 84 3e 04 87 3a bd 98 f5 21 bd 33 4d 2b 3e
       0.2591789 -0.045538917 -0.039540857 0.16728668
0003a0 79 4a b2 bd 0f a3 6d be 05 bf 76 3e f4 93 f8 3c
       -0.08705611 -0.23206733 0.24096306 0.030343987
0003b0 c2 44 0d be 30 88 6f 3d b5 14 d5 3d 9e 45 3e 3d
       -0.1379576 0.058479488 0.1040434 0.04645311
0003c0 d0 3e 3a 3e e2 8f 2d bd 4a a3 bf bc a7 09 34 3e
       0.18188024 -0.042373545 -0.023393292 0.17581807
0003d0 82 80 c9 3d 78 aa a4 bc 00 18 93 bc ad 4b 95 3d
       0.09838964 -0.020100817 -0.01795578 0.07289825
0003e0 92 c2 8d 3d 42 b0 d7 be dd ad 69 be 7c c2 0f 3e
       0.06921877 -0.42126662 -0.2282023 0.14039034
0003f0 ac 41 79 3e 27 7e f5 3d b7 fd db bc bf bc f6 bd
       0.24341458 0.11986952 -0.02685438 -0.12047719

actor.0.bias f4 [256]
000000 e6 3e 0a 3e 08 74 cb bd 65 a0 59 3e bb 89 81 3e
       0.13500556 -0.099342406 0.21252592 0.25300393
000010 2b 36 ee 3d 06 cf 59 3d cb c8 62 3e dc 05 7f 3d
       0.116314255 0.05317595 0.22146909 0.062261447
000020 a3 34 67 be 22 93 1b 3e cf 15 2f 3d 25 41 2d 3e
       -0.22578673 0.15192845 0.042745408 0.16919382
000030 c2 14 0d bd 74 4e 11 3c 40 63 83 3e 9f d5 20 bd
       -0.034443624 0.008868802 0.2566166 -0.039266225
000040 97 a8 36 be 26 22 62 3e 8f 88 33 be 20 d7 cf 3d
       -0.1783775 0.22083339 -0.17532562 0.10148454
000050 22 fa 2d 3c a5 a7 90 be 3e 37 1e 3b 8f fc 41 3e
       0.010618718 -0.28252903 0.0024141814 0.18944
000060 aa a4 0b 3e 22 ae 2e 3b c8 de 80 be e5 4c 97 be
       0.13637033 0.0026654084 -0.2516997 -0.29550853
000070 ee c6 65 bc ae 7e b5 3d b4 f1 e2 bd 5f 46 1f be
       -0.014024479 0.08862053 -0.110812575 -0.15554188
000080 e6 f5 a2 bd 7d 3e 64 be d6 79 bc bd 07 37 83 be
       -0.07957058 -0.22289462 -0.09202926 -0.2562792
000090 8b 3f 00 3d c3 d1 c9 3d da f6 97 3b a4 a9 55 3e
       0.0313106 0.09854462 0.0046375813 0.20865494
0000a0 5f 52 e7 bb bf 4a 46 3e e9 f0 0b 3e 10 2d 51 be
       -0.00705938 0.19364451 0.13666119 -0.20427346
0000b0 12 33 3b 3e b6 62 f2 bd 16 fe 78 3c 77 9e 98 be
       0.182812 -0.11835234 0.015197298 -0.298084
0000c0 68 41 50 3e 20 99 5a 3d 26 7a 8b 3e 79 4f ca 3c
       0.2033745 0.053368688 0.2724163 0.024696099
0000d0 72 aa 32 3e d7 b3 1c 3e 59 b7 37 be 23 65 3e be
       0.17447832 0.15302978 -0.17941035 -0.18593268
0000e0 0c a0 4b bd 7a 81 33 3e 8d 37 92 be a1 85 37 3e
       -0.04971318 0.1752986 -0.28558007 0.17922069
0000f0 c0 0c 8f be 0a f2 17 3e 0e e1 a4 be 61 c2 63 3e
       -0.27939415 0.14838424 -0.32202953 0.22242118
000100 bc a4 09 3d 32 30 d1 bd 70 a6 1c be fe 11 29 bd
       0.03360437 -0.10214271 -0.15297866 -0.041276924
000110 d1 58 a7 be b2 20 9f bc 29 64 8f 3d 43 3a 02 bd
       -0.3268495 -0.01942477 0.07001526 -0.031793844
000120 16 d7 48 3e ed 4e dc bc d7 26 cc 3d 87 6b 7b be
       0.19613299 -0.026893103 0.099683456 -0.24552737
000130 69 a8 9e 3e 5d 1f fc 3d 7b 71 f7 3c ba 21 a5 3e
       0.30987862 0.123106696 0.030205479 0.32252294
000140 c4 2a ab bd b1 0c 26 be 0c 5b 3f 3e b3 8b 4a 3d
       -0.08357766 -0.16215779 0.18687075 0.049449634
000150 b5 49 ea 3d ef ba 8f 3e da 48 37 3e 45 5e 72 be
       0.1143984 0.28072307 0.17898884 -0.23668773
000160 9b 93 f2 bd 0d ad 80 3e ca 27 39 3b a2 b0 39 3e
       -0.1184456 0.25132027 0.0028252476 0.18133786
000170 39 bd 92 3d b2 41 01 be 56 ce 36 be c2 68 43 be
       0.071649976 -0.12622717 -0.17852148 -0.1908293
000180 ee ba fd 3d a6 e0 8c bd 9d 0e 28 be 58 73 c6 3d
       0.1238917 -0.06878786 -0.16411825 0.09689969
000190 00 6c 0d be 08 ea 4f 3e 17 e2 13 3c c1 76 85 bd
       -0.1381073 0.2030412 0.009026072 -0.06516791
0001a0 19 58 04 3e 42 50 93 3d c8 7d 43 bd 12 4f 35 3d
       0.12924232 0.07193042 -0.047727376 0.04426486
0001b0 76 54 3c bd 00 39 e6 bd 46 71 8c 3d 79 74 ae 3c
       -0.045978986 -0.11241341 0.06857543 0.021295773
0001c0 7e d7 7d 3d 2f 21 1e be 35 f7 12 3e bb 46 d0 ba
       0.061973087 -0.15442346 0.14352114 -0.001589022
0001d0 5e fb 44 be fc 4f 7c 3e 45 de 09 be f4 b9 71 3d
       -0.19236514 0.24639887 -0.13463695 0.05901523
0001e0 09 9d 00 3e 17 cd bd bc ca 26 0e bd 81 d7 f5 bd
       0.12559904 -0.023169084 -0.03470496 -0.12003995
0001f0 88 12 24 bd 49 56 05 3d eb b4 27 be 07 08 4a bd
       -0.040056735 0.03255299 -0.16377608 -0.04932406
000200 d2 0a b6 bd 87 e3 0c 3d 1b 2e 6c be 77 94 0a be
       -0.088887826 0.034396674 -0.23064463 -0.13533197
000210 d5 43 d4 bd 08 94 5b be ec 27 78 be 2a 13 23 3d
       -0.103645004 -0.21443188 -0.24233979 0.0398132
000220 72 e3 ec bd c7 df 8f 3c db 75 85 be 57 d6 67 3e
       -0.11566819 0.01756276 -0.2606648 0.22640358
000230 2c ff 2d be 6d 91 cc 3c c9 cc 31 be 85 06 87 3d
       -0.16991872 0.024971688 -0.17363276 0.065930404
000240 4b 4c 45 3d 08 8e e2 3d db c3 d4 3d ed de 66 3e
       0.04816846 0.110622466 0.10388919 0.22545977
000250 56 f6 ac 3e 36 cf 53 bd 2e c3 3e be 0e 7d 17 bc
       0.3378169 -0.051711284 -0.18629143 -0.009246124
000260 09 f5 b7 3d cf 8f a7 be f7 c1 2b be 97 63 a9 3d
       0.089822836 -0.32726905 -0.1677321 0.082709484
000270 7d ab 73 be 3d c2 1a 3e c3 3d 5d 3e ad 98 b7 3d
       -0.23795886 0.15113159 0.21605591 0.089646675
000280 ff ee 9c 3d a5 77 98 bd cb 25 2f 3e 5d 13 b2 bd
       0.076627724 -0.074446954 0.1710426 -0.086950995
000290 69 64 09 3e 91 a9 d5 3d 25 50 e4 3d e3 94 2e 3e
       0.1341721 0.10432733 0.11148099 0.17048983
0002a0 d5 3f 21 be 26 48 56 be 97 45 7e 3e b8 fd 99 bd
       -0.15747006 -0.2092596 0.24831234 -0.07519096
0002b0 09 4b f1 3c ae 56 49 3e f4 55 e6 3d a9 90 82 bd
       0.029454725 0.19661972 0.11246863 -0.06375248
0002c0 4a 63 ff bb 9d 6e 4b 3d e1 b6 d6 bd be 0d b0 bd
       -0.0077938186 0.049666036 -0.104841 -0.08596371
0002d0 b4 81 83 bd 7d ca 07 3d 8b 19 53 bc 9d 4c 26 3d
       -0.06421223 0.033152092 -0.012884508 0.040600408
0002e0 fb 74 a2 bc 4e b8 bb bd b4 4e 98 3d 2b 4a d5 bd
       -0.019831171 -0.09166013 0.074368864 -0.10414537
0002f0 d6 a1 d5 bd 76 cd d9 3d a1 dc e2 bd 45 9d fd 3c
       -0.104312584 0.10634892 -0.11077238 0.030958781
000300 10 5c d7 bd 9d 13 d0 3c 05 a3 55 3c 51 74 be bd
       -0.105156064 0.025399977 0.013039355 -0.09299529
000310 7c c5 05 be 6c d5 9c 3d ff 61 84 3e 4a 7c c3 bd
       -0.13063616 0.076578945 0.25856015 -0.09545191
000320 5f b2 99 3d 4d db 57 be c1 1a 5f 3d 2e bb 7b be
       0.07504725 -0.2107975 0.054468874 -0.24583122
000330 e0 7f 7c 3e 88 14 0a 3e 5e 05 c5 3d cb 6d 42 be
       0.24658155 0.13484395 0.09620164 -0.18987195
000340 ab 1a a4 3d dc 5d a8 3e 24 2d 94 bd 58 94 c0 bd
       0.08012899 0.3288411 -0.072351724 -0.09403294
000350 50 ec db bd 87 e3 27 3a ab 6a da bd f4 c8 16 bd
       -0.107384324 0.00064044486 -0.106648766 -0.036812738
000360 e8 6a 55 be 26 7c ff bc ad 0f 01 3e 8d b7 3f be
       -0.20841563 -0.031187128 0.12603636 -0.18722363
000370 b9 18 ae bd ca a3 f7 3c 25 98 23 3e 00 2b 98 3d
       -0.08500809 0.030229468 0.15976007 0.074300766
000380 e3 a0 0e be d2 05 8a 3b d0 0b fb bd 5a 45 e2 3d
       -0.13928561 0.0042121196 -0.122581124 0.11048384
000390 7e 22 01 bd 9d 3f 53 be b7 4e 8d 3e cd 49 e5 3d
       -0.031527035 -0.20629735 0.27599117 0.11195717
0003a0 58 ca 3e 3e 57 6c db bd 04 b8 49 be df 9a be 3d
       0.18631876 -0.107140236 -0.19699103 0.09306883
0003b0 56 e7 76 bd 18 f2 f7 3d 25 58 74 3e e8 62 b6 3d
       -0.060279213 0.121067226 0.2386175 0.089055836
0003c0 e4 9f de 3d 69 73 95 bd 8b da d8 bd e8 84 5b be
       0.108703405 -0.07297403 -0.10588559 -0.21437418
0003d0 9a d0 a8 3c 3b ea 99 3e 7e ed 00 be e5 95 07 bd
       0.020607281 0.30061516 -0.12590596 -0.033101935
0003e0 37 a2 09 3e b8 e5 20 be ee 4a f1 ba 34 1d 80 3e
       0.13440786 -0.15712631 -0.0018409172 0.2502228
0003f0 b9 03 0a 3e 81 61 23 be c5 77 92 3e b4 8f f6 bd
       0.13477983 -0.15955164 0.28607002 -0.12039128

actor.2.weight f4 [128, 256]
000000 2b 94 9f bc a4 67 4f bd 6e 89 c2 bd 5d ea 42 bd
       -0.019479832 -0.05063595 -0.09498869 -0.047586787
000010 dc 18 bb bd 18 f5 5b bd 59 10 6e 3b 40 a6 d2 bb
       -0.09135601 -0.053700536 0.0036325662 -0.00642851
000020 36 49 97 3c a0 39 90 bd e0 9a 67 3c 62 73 88 bd
       0.018467527 -0.07042241 0.014136046 -0.066626325
000030 11 5e 92 bd d9 d9 02 3d d5 a7 a2 3d e5 1b 52 bd
       -0.07146848 0.031946037 0.07942168 -0.051296134
000040 f6 6e 85 bd 28 5f 1e bc 8c 5b 2e 3d b2 26 ea 3c
       -0.06515305 -0.009666242 0.042567775 0.028582904
000050 c3 f2 6f 3d 3b f8 5d 3d 83 59 a8 3c c4 c4 85 3d
       0.058581125 0.05419181 0.020550495 0.06531671
000060 df 1b 0a bd 3f 20 18 3c 92 a2 43 3d 26 59 55 bd
       -0.033717986 0.009285032 0.04776246 -0.05208697
000070 77 02 7f 3d cb 85 42 3c 86 ce 63 3d 99 cb af 3c
       0.06225821 0.011872719 0.055616878 0.021459388
000080 9e ee 66 3d a1 3a a9 3d 9e 7a 36 bd 49 5c 55 bc
       0.056379907 0.08263136 -0.04455053 -0.013022491
000090 af a8 7a bc 23 90 87 3d 6f b2 ce 3c cb 53 54 bc
       -0.015299006 0.06619289 0.025231568 -0.012959431
0000a0 30 66 e4 3c e6 19 9a 3d 0b 9d d3 3c 97 b8 28 3d
       0.027880758 0.07524471 0.02583172 0.041191664
0000b0 e3 26 47 3d 0c bb b4 3c 37 5e fd 3c 1e c5 f7 3d
       0.04862107 0.022061847 0.030928714 0.12098144
0000c0 ff 8d 41 3d ee f0 8d bd 0d ef 9d 38 95 88 52 bd
       0.04725456 -0.06930719 7.53087e-05 -0.051399786
0000d0 21 52 70 bd ef f1 d6 bc 69 9e 6d bd 96 5f c6 3d
       -0.058672074 -0.02623841 -0.0580124 0.096862
0000e0 83 3d 61 bd 26 f1 b3 3c eb 61 80 3c dd 9e 8e bd
       -0.054990303 0.021965574 0.01567169 -0.069638945
0000f0 64 59 87 3d 83 7e c2 bc 78 be c0 3c 41 82 7d bd
       0.06608847 -0.023741966 0.023528323 -0.061891798
000100 0c f5 d7 3b 7c 66 02 3d a3 1a 3f 3d 18 ac fa 3b
       0.006590491 0.031836018 0.046656262 0.0076499097
000110 0c 03 ac 3d d3 81 82 bd 86 0c 99 3d af f0 84 3b
       0.08399019 -0.06372418 0.07473092 0.004057012
000120 2a 95 38 bd 7d 2d 3d 3d 7a 05 79 bb 61 92 e9 ba
       -0.04506413 0.04618596 -0.003799765 -0.0017820114
000130 3e 1c ec bc ec c9 a9 3c f1 55 eb bc 5a 87 7d bd
       -0.02882206 0.020726167 -0.028727503 -0.06189666
000140 63 b4 13 3c 9b b8 92 3d cd de 53 3d 26 da 55 bc
       0.0090151755 0.07164117 0.05172615 -0.013052499
000150 1e 36 0c bc ec f3 4c bd e0 93 8b bd 22 d1 9c 3c
       -0.008557824 -0.05003731 -0.06815314 0.019142691
000160 8c 81 ce bc f4 30 33 3d 39 ec 90 bc 6b d7 8c bd
       -0.025208257 0.043747857 -0.017690765 -0.06877025
000170 76 8d 15 bc 94 6b ae bd 08 5a 82 3c 25 2d c9 3b
       -0.009127965 -0.08516613 0.01591207 0.006139415
000180 a4 d0 6f bd 17 26 cf 3d e4 84 a7 3c 77 6e 3a 3d
       -0.058548585 0.10114687 0.02044911 0.045515504
000190 24 3a 44 3d ff a4 1d bb fc 9a 49 3d c7 b2 57 bc
       0.04790701 -0.0024054644 0.04922007 -0.013165182
0001a0 b1 05 31 ba 77 c2 84 3d a8 24 a6 bc 26 d0 ba bd
       -0.0006752862 0.06482404 -0.020281151 -0.091217324
0001b0 4f b5 38 3d 65 7c bf 3c 47 56 54 bd 07 37 cc bc
       0.045094784 0.023374746 -0.051840093 -0.024928583
0001c0 77 3c 35 3d f9 78 4d bb 86 e3 e5 3c 4b f5 bf bb
       0.044247117 -0.0031352623 0.028062593 -0.0058580986
0001d0 3e ef 03 3c ee 9b 4e bb 1c bb 25 3c 91 fa 6e 3d
       0.008052645 -0.0031526047 0.010115411 0.058344427
0001e0 1c b6 1f 3d c2 8a b4 3c 26 78 81 bc 4e 84 aa bc
       0.038992032 0.022038821 -0.015804362 -0.02081504
0001f0 b7 2c d1 bc 2b e3 81 bc d2 9e 95 3d 73 30 08 3d
       -0.025534017 -0.015855392 0.07305683 0.03324933
000200 e3 12 46 3d ad 0d b3 bc 84 9e 85 bd 06 81 56 bd
       0.048357856 -0.021857107 -0.06524375 -0.05236914
000210 a9 5e 36 bd 8e ef 21 3b e5 51 3f 3d 52 42 ed bc
       -0.04452387 0.0024709436 0.04670896 -0.028962288
000220 93 f1 82 bd 3d 61 fa 3b 64 87 43 3d 7f fa 74 bd
       -0.06393733 0.0076409862 0.04773654 -0.059809204
000230 65 f1 1b bd 58 63 6a bd 16 c5 86 bb ec 8d f5 3c
       -0.03807201 -0.057223648 -0.00411285 0.0299749
000240 b0 da 4e bd 62 e7 42 bd 75 23 6b 3b 01 80 8f bd
       -0.050501525 -0.047583945 0.0035879288 -0.07006837
000250 10 e6 85 bd 36 06 21 bd d0 6d 99 3d da 53 93 bc
       -0.065380216 -0.039312564 0.07491648 -0.01798432
000260 d7 ad 2f 3d ca e0 65 3d 9f c8 1d bd 61 b5 9c bc
       0.042890396 0.05612258 -0.038521405 -0.019129457
000270 6f f9 c7 3d cc ca d1 ba 8c 66 40 bd 66 4e ee bc
       0.097643726 -0.0016005873 -0.046972796 -0.029090118
000280 bd aa 80 bd a5 b9 1e bd 34 96 07 bd 00 61 15 bd
       -0.06282566 -0.038751263 -0.03310223 -0.03646946
000290 c2 cc f2 bc f8 95 f5 3c b2 28 94 bc e8 e5 97 bd
       -0.029638652 0.029978737 -0.018085811 -0.07416898
0002a0 c9 eb 6f bc e1 5a 48 3d 8a f6 a3 bc 91 3c 16 bd
       -0.014643618 0.048914794 -0.02001502 -0.036678854
0002b0 af c2 87 bd b7 8d 71 bd 26 2c 67 bd 97 54 2f bd
       -0.0662893 -0.05897304 -0.056438588 -0.04280528
0002c0 24 60 46 bd 54 38 03 3d 89 62 01 bd 14 c3 56 bc
       -0.04843153 0.03203614 -0.03158811 -0.013108034
0002d0 b1 01 28 bd fe cc de bb 1b 98 fd bb 9c 7d 2e 3d
       -0.041017238 -0.0067993393 -0.0077390797 0.04260026
0002e0 8a 58 66 bc a8 3e 65 bd fd 6f 05 bd 50 bb f6 bc
       -0.014059195 -0.055967957 -0.032577503 -0.030118614
0002f0 10 f4 ee ba da 23 87 bb 20 48 12 3c fa fa 90 3d
       -0.0018230695 -0.004124147 0.008928329 0.0707912
000300 6a 6e 18 bd 32 d6 a9 bc ce 6a 39 bd 0d 59 47 bc
       -0.037214674 -0.02073202 -0.045267873 -0.012167227
000310 85 dc 75 bd cc e2 e0 3c ba f1 28 3d f0 f1 0d 3d
       -0.060024757 0.027451895 0.041246153 0.034654558
000320 c3 cb a8 3c f4 bd 43 3d a5 af 47 3c 30 76 3d bd
       0.020604974 0.047788575 0.012187873 -0.04625529
000330 44 4b 51 bd 00 a0 f9 bc 1f ef d6 3c d7 de 48 3c
       -0.05109717 -0.030471802 0.026237069 0.01226016
000340 67 d0 5a 3d e1 50 a6 bd 15 0c fd 3c 4b ec c9 3c
       0.053421404 -0.08120895 0.03088955 0.024648806
000350 12 b3 5b 3c 36 3a 62 3c 1f 22 19 bd a7 d7 1e bd
       0.013409393 0.013807824 -0.037386056 -0.03877988
000360 a9 d9 8f 3c d9 d0 71 bb 20 f0 f4 bc c7 2e e2 3c
       0.017559843 -0.0036898165 -0.029899657 0.027610196
000370 57 fc a1 3c 64 92 ae bb a0 79 64 3d 34 02 14 bc
       0.019773645 -0.0053275097 0.055780053 -0.009033728
000380 56 bd 8a 3b 35 39 98 bd 9d 33 8d 3c d3 cc cb 3c
       0.0042339964 -0.074327864 0.017236525 0.024877941
000390 c9 a1 34 bd fd 55 8f bd c6 93 86 bc af ff 84 3d
       -0.044099603 -0.06998823 -0.016427886 0.0649408
0003a0 9a 17 5c 3d 1f 84 23 bd 12 59 ee bb 65 01 3d bc
       0.053733446 -0.039920922 -0.0072738016 -0.011535977
0003b0 24 ac f9 ba 9a 7b 58 3d 3b 28 cf bc e5 d6 b9 bb
       -0.0019048494 0.05285225 -0.025287738 -0.0056713694
0003c0 3c 94 b0 3c d3 f5 a9 3c 99 fc bd 3b 3b 82 da 3c
       0.021555059 0.020747101 0.0057979343 0.026673427
0003d0 d3 dd 5d 3c fe 35 10 bd 51 37 b2 3c 9b 9b 33 bd
       0.013541657 -0.03520774 0.021754893 -0.04384957
0003e0 6b 23 20 3d e6 e0 fb 3a df 0b 43 3d 42 cc 8f 3b
       0.039096277 0.0019216805 0.047618743 0.004388363
0003f0 4d f8 a0 bd 38 d6 f5 3c 23 eb 99 3c 53 e2 9d 3d
       -0.078598596 0.030009374 0.01878888 0.077091835

actor.2.bias f4 [128]
000000 bc 1a 2f 3d b1 8d f9 bb 83 7f 2a 3d 42 df fe ba
       0.042750105 -0.007615768 0.04162551 -0.0019445198
000010 1a 67 b7 3b 86 8b 12 bd 92 af 63 bb fa 77 a9 ba
       0.0055970075 -0.03577759 -0.00347421 -0.0012929433
000020 f9 6c a0 3c bc c5 6b 3d 45 e8 79 3d 04 2f 19 bd
       0.019583212 0.05756162 0.061012525 -0.037398353
000030 0b 27 48 bd 9f 3b 39 bd b0 70 a3 3b f1 b8 e9 3c
       -0.04886536 -0.045222875 0.0049877986 0.02853057
000040 1e f1 90 3c 81 01 05 3c 4d 4f 55 3d af 2b 1e bd
       0.017693099 0.008118034 0.05207758 -0.03861588
000050 60 e5 db bb d2 42 75 3d 8d 23 99 bc 4f 2f bf 3c
       -0.0067106932 0.059878178 -0.01869371 0.023337988
000060 d8 38 e0 bc fd 94 01 bd 38 9e 6c bd 66 8f 54 3c
       -0.027370855 -0.031636227 -0.057768077 0.012973642
000070 11 65 cf bc c5 05 b4 bc dc 90 9a 3c 54 e8 71 3d
       -0.025316747 -0.021975407 0.018867902 0.059059456
000080 1d b0 67 bc 5b 96 20 3a 02 c9 39 3d 00 b0 94 bb
       -0.01414111 0.00061259203 0.04535771 -0.0045375824
000090 18 1c 00 3d 57 68 1f 3b f7 9c 65 3d 9f 78 95 3c
       0.031276792 0.0024323666 0.056057896 0.018245993
0000a0 67 8a d4 3c 1f 89 81 3c 32 4c 19 3d 11 84 01 3d
       0.025944902 0.015812455 0.03742618 0.03162009
0000b0 94 02 d8 3c 39 e4 cb 3a 6a f5 53 bc e1 77 48 bd
       0.026368417 0.0015555687 -0.012936929 -0.04894245
0000c0 7b 0e 14 3d 04 bb 4d bc 9c d6 4b 3c 2a b0 9d 3c
       0.036146622 -0.012556795 0.012441304 0.01924904
0000d0 37 c4 6e bb 34 00 96 bd 07 60 d3 bc 7e 2f 3f bd
       -0.003643287 -0.073242575 -0.025802625 -0.04667615
0000e0 ca b5 8d 3c 23 05 46 3d 46 5c c6 bc 15 ea 39 bd
       0.017298598 0.048344743 -0.024213921 -0.045389254
0000f0 64 45 1c bd 17 45 6e bd ab 9b f2 bc 42 78 3b 3d
       -0.038152114 -0.058171358 -0.029615244 0.045768984
000100 69 c8 bb 3c e9 33 0b bc 56 d6 26 bd 56 fb 26 3c
       0.022922711 -0.008496263 -0.04073175 0.010191759
000110 7a ed 97 bc dc 62 9d bd e0 6f 81 3c c2 9b 4a bd
       -0.018545855 -0.076848716 0.015800416 -0.04946495
000120 f0 01 ad bb 2f 27 d5 3c 94 fa c8 3c 85 e7 02 bd
       -0.005279772 0.02601966 0.024533547 -0.031959075
000130 5a ce fd 3c 35 f4 ab 3c 52 21 43 3c 6c 7a a5 bc
       0.030982185 0.02099047 0.0119098 -0.020199977
000140 30 88 5c bd f9 2a 24 bd c6 88 78 bd 41 c1 b8 bc
       -0.053840816 -0.040080044 -0.060677312 -0.022553088
000150 c5 bb d2 bc 42 1b 38 bd d1 ce 59 bc 95 e0 02 3d
       -0.025724301 -0.04494787 -0.013293938 0.03195246
000160 a5 f7 15 3c 4d 65 20 bd b7 34 6a bc ab eb ec 3b
       0.009153281 -0.039159108 -0.014294795 0.0072302422
000170 6d 02 07 3d 04 86 55 bc 7c e6 9a 3b b9 dc 6c 3d
       0.032961298 -0.01303244 0.004727183 0.057827685
000180 5f c8 50 bd fc 80 7f bd 87 c9 9e bd c5 bc 98 3b
       -0.05097234 -0.06237887 -0.07753282 0.004661175
000190 f3 78 2e bc ea 77 c3 bb 0a aa d9 3b 9b d4 67 bc
       -0.010648954 -0.0059652226 0.0066425847 -0.01414981
0001a0 62 fc 06 3d 22 84 9e bd 8f fa 30 3d 08 e8 4c bd
       0.032955535 -0.07740046 0.0432077 -0.05002597
0001b0 0d 73 26 bd e6 2b a9 3c 31 6b 0a 3c 2e bd 0e bc
       -0.040637065 0.020650815 0.008448408 -0.008712096
0001c0 29 93 52 3d 47 3f b3 3c 36 ff 8d bc 66 b3 1e 3d
       0.051409874 0.021880759 -0.017333608 0.038745306
0001d0 e2 ab 04 3c 47 db a9 bd 8d b7 a4 3c 93 14 91 3c
       0.008097621 -0.08293777 0.020107055 0.017710006
0001e0 7c 49 4d bd 99 93 8a bc 60 64 20 ba 2e 76 38 3d
       -0.05011891 -0.016916083 -0.00061184727 0.04503458
0001f0 50 aa fc 3c e2 10 ba bc 45 05 14 3d af 8c 60 bc
       0.03084293 -0.022713128 0.036137838 -0.013705417

actor.4.weight f4 [6, 128]
000000 21 63 83 bd 5e 94 36 3c 4f 32 30 3c a3 0e bc 3b
       -0.06415392 0.011143772 0.010754182 0.0057390495
000010 1c d2 d5 39 8d a9 9b bb f5 12 5c bc 24 b9 a3 bc
       0.0004078307 -0.0047504366 -0.013432254 -0.019985743
000020 d0 89 67 3b 62 6c 1e bc fa 60 4f 3b fd 4a bf 3b
       0.0035329945 -0.009669395 0.0031643496 0.0058377967
000030 0c db 6e 3c 30 b3 a9 bb 4d 34 62 bc f9 1c 96 3b
       0.014578592 -0.0051788315 -0.013806415 0.0045810905
000040 de fb 65 bb 3b ec 6e ba 17 80 70 3c 63 ef f3 bc
       -0.0035092751 -0.00091141806 0.0146789765 -0.029777234
000050 c0 06 18 bb 2d 82 fb bb d4 7c 4e 3d 39 1d d7 b9
       -0.0023197383 -0.0076754303 0.050412014 -0.00041029768
000060 32 c0 2c ba 5f 77 45 3b 73 da 61 3b b0 d6 4f 3c
       -0.00065899186 0.0030130965 0.0034462481 0.012685463
000070 d4 6c 49 bd 56 32 1f bc f7 2a a3 bb 3d 78 a2 3c
       -0.049176052 -0.009716591 -0.004979487 0.019832725
000080 c6 18 dd 3b bf 09 b7 bb fd f4 bb ba e6 75 36 3b
       0.006747338 -0.0055858786 -0.001433998 0.002784127
000090 a0 9e 70 3d 66 64 fa bb 30 cc 23 bd 4f dc 85 bd
       0.058745027 -0.007641363 -0.03998965 -0.06536161
0000a0 53 2e 9c 3a 41 30 a3 b9 98 77 84 3b 99 a9 6f bd
       0.0011915661 -0.00031125735 0.004042577 -0.05851135
0000b0 50 9b 8c bd 3d 53 81 3c 57 89 91 3c d7 03 b6 3b
       -0.06865561 0.015786761 0.017765684 0.005554657
0000c0 80 51 13 bc 3e af fe bb 79 ed 5b bb 33 18 c6 3c
       -0.008991599 -0.0077723553 -0.0033558293 0.024181461
0000d0 6f ef 79 b9 13 cd 31 bc 6c c5 7c bb e8 b1 32 bc
       -0.00023835686 -0.010852116 -0.003856982 -0.010906674
0000e0 cf fe e5 3c a9 bf df ba db cf 87 bb 4b 10 a6 3a
       0.028075604 -0.0017070669 -0.0041446513 0.0012669651
0000f0 47 f4 26 3d ec f4 07 bc 5c 45 ea 3a a7 03 6d bc
       0.040760305 -0.00829814 0.0017873454 -0.014466203
000100 cc ef 45 3c 41 5c 0b ba 92 fc 10 3c 8b 51 b7 3b
       0.012081098 -0.0005316176 0.00884928 0.0055944375
000110 22 a8 f9 bb 8d 69 ac bc 6f ac 56 bc 37 3f c5 3c
       -0.00761892 -0.021046424 -0.013102635 0.024077995
000120 92 3d 6c 3d 04 e2 21 bb a8 9f ed bc c1 d5 4b 3c
       0.057675906 -0.0024701366 -0.029006794 0.0124411
000130 bd 9f 61 bc 15 00 d5 bb e1 43 eb 3c c3 9e 01 ba
       -0.013770995 -0.006500254 0.02871889 -0.0004944617
000140 1c 36 90 bc d4 5c 7b 3d ec 87 d0 3c 70 83 e4 3b
       -0.017603926 0.061367825 0.025455438 0.0069736764
000150 f8 25 1a bc 97 e6 02 bd 2e 5b e2 bb b2 29 06 3d
       -0.0094084665 -0.03195819 -0.006907842 0.032754607
000160 48 ae 05 3b 00 a6 9d 3b 94 27 88 bc 4e c5 8e 3d
       0.002039807 0.0048110485 -0.016620435 0.06971227
000170 42 3c 4a bb 80 b5 f5 bb 94 66 81 3c 08 6a c8 3c
       -0.003085867 -0.007498443 0.015795983 0.024464622
000180 b5 74 d4 bb 1d d1 de bc bd e3 05 3c e4 c1 32 3b
       -0.006483639 -0.027199322 0.008171973 0.0027276212
000190 da 81 11 3c cd 39 fe ba 2d 09 34 bd d1 f8 84 bd
       0.008881057 -0.0019395888 -0.043954063 -0.064927705
0001a0 6c 2b 83 bc 46 7c 9c bc 85 57 b4 3b 1a 87 04 ba
       -0.016011916 -0.019102227 0.005503597 -0.0005055532
0001b0 c7 81 cd 3b b8 bf 18 3d 36 51 0e bc 5d 8e 93 bd
       0.006271574 0.037292212 -0.008686354 -0.07204888
0001c0 28 f1 36 3b ad 3f a3 3c d3 f6 aa 3c 59 e8 b1 3c
       0.0027914736 0.019927824 0.020869648 0.021717237
0001d0 50 ea 68 bb 83 16 3d 3c 31 da c0 bc 01 11 24 3c
       -0.0035540052 0.011541012 -0.023541542 0.01001382
0001e0 13 d2 29 bb 73 4c 74 b9 ad b7 31 bb ad 50 e1 38
       -0.0025912568 -0.00023298133 -0.0027117536 0.00010743863
0001f0 28 dc 71 bb 5f 0d a6 bb 52 c8 16 3c 62 f5 1e 3c
       -0.0036904905 -0.005067512 0.0092030335 0.0097020585
000200 ac 2c 6f 3c 7c c8 fc 3b 4e c9 8a 3b 11 be b8 3b
       0.014598053 0.0077143293 0.004235423 0.005637892
000210 37 f6 3d 3b f7 2c 2d bb cb ae a2 3a f4 d3 09 bb
       0.0028985867 -0.0026424506 0.0012411712 -0.0021030875
000220 c3 be d8 3b 37 07 c8 ba eb b0 77 3b cc 6c 36 3c
       0.0066145374 -0.0015260939 0.003779466 0.011134338
000230 9e e2 1c 3b eb a6 8f ba be 52 14 bb 1c 10 c5 3b
       0.0023938785 -0.001095978 -0.0022632326 0.0060138833
000240 fd ca 0f bb 8b 74 25 bb 2a 20 23 3c d1 10 aa b9
       -0.0021941059 -0.0025246467 0.009956399 -0.00032437456
000250 58 8a ac bb a2 d2 00 bd 4d 28 b0 bb 6e 8c 1a 3b
       -0.0052655153 -0.031450875 -0.005375898 0.0023582238
000260 b5 e0 71 bb c7 be 35 3b bb 12 5e 3b fc 8f 5d 39
       -0.0036907617 0.002773212 0.0033885676 0.00021129841
000270 6f 4a 55 3c 44 3c 1a bc 3c e7 a3 bb a4 cf d6 3a
       0.013018235 -0.0094137825 -0.0050019305 0.0016388786
000280 a3 16 21 3c 5f 81 0b bc 10 c8 cb bb 40 72 27 3b
       0.009832057 -0.008514731 -0.0062189177 0.0025550276
000290 6c 11 dd bc 47 12 d2 bb 28 6b e4 3c a9 f4 6d bc
       -0.026985846 -0.0064108702 0.027883127 -0.014523664
0002a0 83 9c 97 3b 1e a9 eb 3a 9e 08 8f 3b ed 31 7c bd
       0.004626812 0.0017979478 0.004365041 -0.06157105
0002b0 97 37 93 bc fc 99 cc 3c c1 4d 3e 3b 71 32 d8 3b
       -0.017970843 0.02497577 0.0029038044 0.00659781
0002c0 31 ed cc bb 48 d4 19 3a 4c e2 50 bb 5e e8 84 3c
       -0.0062538614 0.0005868119 -0.0031873165 0.016224083
0002d0 6d 7f 8f 3a 5f 8f fa bb 18 20 f1 bb e8 9b d3 bb
       0.001094801 -0.0076464857 -0.007358562 -0.0064577945
0002e0 8f 1e a0 bc ea 73 83 bb 39 e8 d4 3a 0b e7 48 bb
       -0.019545821 -0.004011621 0.0016243524 -0.003065529
0002f0 67 41 b9 bc bb 72 8b bb cb d4 97 3a 58 2b d5 3b
       -0.022614194 -0.0042556203 0.0011583803 0.006505411
000300 35 12 a8 bc ff e2 a4 bc 48 c7 e4 3b 9a 36 b2 3a
       -0.020516494 -0.020127771 0.006981764 0.0013596595
000310 a3 9e 17 bc b1 7a 4b 3d 6a 99 a6 b8 be 95 1d 3c
       -0.009254131 0.049677555 -7.9440724e-05 0.009618221
000320 6b b9 3d 3d 5b cb a8 bb 8a 74 94 bb 44 20 9a bc
       0.046319406 -0.005151195 -0.004530494 -0.018814214
000330 ea b1 83 ba 57 0c a2 bb c1 97 f7 3b 9c 5c 53 3b
       -0.0010047529 -0.0049453187 0.0075559323 0.0032251244
000340 3a ff de 3b cd 65 a1 ba cb 3a 38 3c 6e 73 b3 3b
       0.0068053277 -0.0012313664 0.011244486 0.005476407
000350 b9 18 e1 bb c6 75 c0 3b fb de 30 bc 70 dc ff bc
       -0.0068694022 0.0058734147 -0.01079535 -0.031233042
000360 7e c4 a7 3b ec 4b 11 3c cc e9 ba bc be 8d b4 3a
       0.0051198592 0.008868199 -0.022816561 0.0013775153
000370 8d ef 4b ba 56 32 d3 3a b8 dd 13 bc 59 0a 8a b7
       -0.00077795313 0.0016113024 -0.00902503 -1.64557e-05
000380 b5 46 07 bc b7 aa 00 bd 09 81 41 bd 39 77 dd 3a
       -0.008256604 -0.031412806 -0.0472422 0.0016896493
000390 0a cd 42 3c 94 12 80 3a e1 61 7c bd 75 75 40 3d
       0.011889705 0.0009771162 -0.061616782 0.046987016
0003a0 1b 3d 23 bc c2 1b 02 bd 4f 82 d9 3b 93 e9 32 3b
       -0.009963299 -0.031764753 0.0066378484 0.0027299866
0003b0 ac ad 67 3b 1c f3 b8 3c 91 22 12 bb 4b ee 26 bc
       0.003535132 0.022576861 -0.0022298435 -0.010188649
0003c0 78 da c8 3a 82 1c 8c 3c 37 c3 7d 3c bf 5d c1 bb
       0.0015323898 0.017103437 0.015488437 -0.005901068
0003d0 9d 92 74 39 bb d4 4f bc da a4 4f bc c3 44 88 3c
       0.00023324271 -0.012684996 -0.012673581 0.01663435
0003e0 89 ba 10 3b ea 2a 64 bb 36 5a 9b 3b fc 1b a3 bb
       0.002208384 -0.0034815618 0.0047409786 -0.004977701
0003f0 aa a6 64 bb b4 16 82 bb 12 1b 06 3c 53 0c 8f 3c
       -0.0034889379 -0.0039699916 0.008185165 0.017461931

actor.4.bias f4 [6]
000000 6e f0 45 bc 71 70 1c bd 00 42 56 3d 91 40 ef 3c
       -0.012081249 -0.03819317 0.052309036 0.029205592
000010 6e 6c e3 3b af c6 c8 bc
       0.006940416 -0.024508802

critic.0.weight f4 [256, 12]
000000 ce 80 4b be 67 04 f1 3d d5 a7 f4 3d 22 d3 9b 3e
       -0.19873354 0.11768418 0.11946074 0.3043452
000010 d9 18 f7 3d cd 8a 7a 3d 68 9d c1 bd ff c3 a2 be
       0.12065286 0.061167527 -0.09453851 -0.31790158
000020 2d de 70 bd de 63 46 3f 58 68 8b 3d 40 39 8a 3e
       -0.058805633 0.77496135 0.06807011 0.26996803
000030 06 8e 1f be 78 9f 3d 3e 27 bc 92 3e 70 25 03 3e
       -0.15581521 0.18517864 0.28659174 0.1280725
000040 ff bc 48 be 26 30 33 be 1f 9b 3b be b2 16 90 3e
       -0.19603346 -0.17498836 -0.18320893 0.28142315
000050 71 97 35 3e 85 f1 55 3f b3 24 17 be 4f 7a c7 bd
       0.17733552 0.83571655 -0.14760093 -0.097401254
000060 49 3f 47 be 4f ec 85 3e e6 39 1b 3e c3 81 39 3e
       -0.19457735 0.26156852 0.15158805 0.18115906
000070 2e 15 76 3d b7 6c 90 be 41 a7 c4 3d 28 8e 31 3d
       0.060078792 -0.28207943 0.09602214 0.04334846
000080 68 ab 92 3e b0 ae 35 3f d0 c0 82 3c fe 52 46 bc
       0.28646398 0.70969677 0.01596108 -0.012104748
000090 bf f3 09 3e 5f 12 b3 3d e0 fa 42 3e 71 2f 62 3e
       0.13471888 0.087437384 0.19041014 0.2208841
0000a0 6d 12 65 be 76 2d 19 be f1 cf 90 3d 96 41 49 3e
       -0.2237031 -0.14958748 0.07070912 0.19653925
0000b0 7f b2 bc bd da 97 1c bf dc 43 aa be 5d 40 0f be
       -0.09213733 -0.6116921 -0.33254898 -0.13989396
0000c0 22 d6 51 be 2e 60 41 3e 14 34 a5 bc 32 f4 b3 3e
       -0.20491841 0.18884346 -0.020166434 0.35147244
0000d0 94 c0 45 be f6 17 9a be c3 85 9e 3d a4 18 1c 3e
       -0.19311744 -0.30096406 0.07740357 0.15243775
0000e0 95 90 07 be 71 78 45 3f 96 67 43 3e d1 07 92 be
       -0.13238747 0.77136904 0.19082484 -0.28521588
0000f0 15 1c 97 3e 3e 25 58 3e f7 85 36 3d 3d 84 c8 be
       0.29513612 0.21107957 0.044561353 -0.3916339
000100 65 a1 85 3e 36 c9 81 3e 60 0d a4 3e 88 97 25 3e
       0.26099697 0.25348824 0.32041454 0.16171086
000110 73 fc d1 bd f3 36 9e bd 44 72 b2 bd 47 93 57 3d
       -0.10253229 -0.077253245 -0.08713201 0.05263069
000120 f2 b0 ac 3d 6f 49 c1 3d 2f dd 13 3e 12 40 26 3d
       0.08432187 0.094378345 0.14439844 0.040588446
000130 8b 03 5e be d9 df 45 be e3 5a a4 bd 3f 77 17 3e
       -0.21681039 -0.19323672 -0.08025148 0.14791583
000140 67 81 96 bd 56 48 31 3f d7 09 3f 3e a5 95 8c 3a
       -0.073489 0.69251 0.18656097 0.001072575
000150 b6 09 83 3e 3a bd 56 be 86 dd c9 bc 65 e5 76 3e
       0.25593346 -0.20970622 -0.024641763 0.24110945
000160 5f b9 e9 3d 6b 6a 8e 3e e2 ef 37 bc 63 b6 3e be
       0.1141231 0.27815565 -0.011226626 -0.18624263
000170 35 e8 7c 3e 18 a3 55 bf e9 2e 48 be ae 9f 50 bd
       0.24697955 -0.83451986 -0.19549145 -0.050933532
000180 dd f2 91 3e fc a6 8f bd 34 43 5d be bf 51 32 3e
       0.28505602 -0.070142716 -0.21607667 0.17413996
000190 b6 5c 2b 3d ee eb 57 bd 4a 06 06 bd f5 f5 35 bd
       0.041836463 -0.052715234 -0.03272084 -0.044424016
0001a0 8c c1 80 be 34 d5 8e bd 0f 4c 80 3d d6 2b 0b 3e
       -0.25147665 -0.06974259 0.06264507 0.13590941
0001b0 57 2f 22 be 39 c2 16 3e 69 70 62 3e ca 64 2f be
       -0.15838371 0.14722528 0.22113194 -0.17128292
0001c0 e7 80 53 3c 13 3f b8 3d 04 19 a1 be 19 6d c7 3d
       0.012909151 0.089964055 -0.31464398 0.097376056
0001d0 7e 8b 26 be 24 5c 3e 3f 81 09 0c be 6d b2 38 3e
       -0.1626415 0.74359345 -0.136755 0.18036814
0001e0 25 64 ac 3e b8 62 95 3d 3a 54 09 be f4 5f 87 3e
       0.33670154 0.0729422 -0.13411036 0.26440394
0001f0 7b e3 3f be 39 71 1b be 58 99 8a 3e 98 04 fd bd
       -0.1873912 -0.1517991 0.27070117 -0.12354392
000200 73 a0 0e be 66 a3 b2 3d 15 0c 5c be a8 8d db 3c
       -0.13928394 0.08722572 -0.21488984 0.026800945
000210 bd a7 2d 3e c0 cb 0a 3e cc 14 c0 3d 9f 60 6a bc
       0.16958518 0.13554287 0.09378967 -0.014305263
000220 da 8b 7a 3d 96 4d 9e be ef 21 21 3e b3 e6 5c be
       0.06116853 -0.30918568 0.15735601 -0.2157238
000230 e2 ef 94 3d 38 e1 49 3f 93 c7 15 be 8c 2f 16 be
       0.072723165 0.7885928 -0.14626913 -0.14666575
000240 88 7a 95 3d 64 34 87 3b f0 38 82 bb a5 c4 94 be
       0.072987616 0.0041261185 -0.0039740726 -0.29056278
000250 9a d4 1c 3e 3b 53 9a 3c 7e f6 f4 bc 85 75 50 3e
       0.15315476 0.018838516 -0.029902693 0.2035733
000260 fe 10 b9 3e 44 c9 49 bf 87 b4 2f 3e d6 9d 38 be
       0.36145777 -0.7882273 0.1715871 -0.1802896
000270 50 01 1d 3e be 22 32 be 29 a6 0e bd fa ba 3c 3e
       0.15332532 -0.17396066 -0.03482643 0.18430701
000280 62 78 3a 3e 96 69 30 bd 69 03 7e be 8b 76 1d be
       0.18209985 -0.043069445 -0.24805988 -0.15377252
000290 91 b7 93 3e 34 c6 39 3f de a6 91 be 77 37 c5 bd
       0.28850988 0.7256806 -0.28447622 -0.0962972
0002a0 07 eb 17 bd 11 03 36 3d 6a d1 8f 3c 10 2b f6 3d
       -0.037089374 0.044436518 0.017555911 0.12019932
0002b0 44 10 1a be ad 01 73 be ea 2b 8c be 22 c6 a2 3d
       -0.15045267 -0.23731108 -0.27377254 0.07947947
0002c0 a4 eb 22 3d b2 8f 2e bf 6c 32 3a 3e 61 74 95 ba
       0.039775506 -0.6818801 0.18183297 -0.0011402481
0002d0 42 0c a0 3e 25 7b c5 3d 17 ab 60 3e 88 54 dd bd
       0.31259352 0.096426286 0.21940266 -0.10807139
0002e0 27 e2 ad bd 42 58 20 3e 5a 82 13 be f6 73 c1 3d
       -0.08490401 0.15658668 -0.14405194 0.09445946
0002f0 30 89 96 bd 68 be 57 bf 2b d1 d9 bb f2 15 62 be
       -0.07350385 -0.8427491 -0.006647249 -0.22078684
000300 f7 b1 2d bd cd 73 ff bd 74 64 85 be aa cc c0 bd
       -0.04240605 -0.12473259 -0.26053202 -0.094140366
000310 44 64 38 3e 79 3f fb 3d 49 81 af 3c 78 56 10 3e
       0.18006998 0.12267966 0.021423953 0.14095485
000320 4b d0 93 bd 47 32 35 3f f1 e3 97 bd 8a e5 21 be
       -0.07217463 0.7077984 -0.07416523 -0.15810218
000330 cc 28 3f 3d a2 3b 27 be da 63 db 3d 72 aa 1e be
       0.046669766 -0.16331342 0.107124045 -0.15494707
000340 1b 6a 2b 3d 69 13 a4 3e d9 e9 8a bd a4 15 50 be
       0.041849237 0.3204606 -0.06782884 -0.20320755
000350 7b 4a c5 bd 53 96 17 bf 69 a0 bb be 73 34 5d 3d
       -0.09633347 -0.5921375 -0.3664582 0.054005098
000360 5b c2 22 be d1 ac 34 bd 60 df 77 3d 70 21 92 3e
       -0.15894453 -0.044110123 0.06051576 0.28541136
000370 cf 2b e8 bc f5 c4 7c bd 11 ec c6 3d 51 8f 79 be
       -0.028341202 -0.06171127 0.09712995 -0.24371077
000380 c3 21 05 bd 30 55 34 3f 08 46 c8 3d 45 a3 29 bc
       -0.0325029 0.70442486 0.097789824 -0.010353868
000390 1a 99 0e be 7a 6d 37 3e 65 d2 2a 3e 69 0c 4d 3e
       -0.13925591 0.17912856 0.16681822 0.20024265
0003a0 fb fc 86 3e 7d c9 cd 3c b2 e1 70 3e cf dc 09 3d
       0.26364884 0.025120491 0.23523596 0.033657845
0003b0 b2 dc 73 3e 42 d5 13 3f 64 3d 55 be d3 6b 2f be
       0.23814657 0.5774728 -0.208242 -0.17130975
0003c0 de ca 78 bd 44 f7 8b be 0b 06 8e 3e a9 3f 3e be
       -0.060740344 -0.27337086 0.27738985 -0.18578972
0003d0 99 07 d8 3d f6 75 71 be 1d 81 a4 bd a8 86 db bd
       0.10548324 -0.23580155 -0.08032439 -0.10719043
0003e0 5e 57 91 3d 0f 64 85 be 11 b3 55 3e ae 09 97 be
       0.07096742 -0.260529 0.2086909 -0.29499573
0003f0 18 e0 fc 3c 17 28 5c be d4 ab 5c be aa 7d 44 be
       0.030868575 -0.21499668 -0.21549922 -0.19188562

critic.0.bias f4 [256]
000000 94 13 27 be ae 4a 34 3e 6a 52 b9 bd ef 3a 0b 3e
       -0.16316062 0.17606613 -0.09048922 0.135967
000010 fb a9 9d be 2d 1f a7 3c 2a ed fa 3c bb b8 b2 3c
       -0.30793747 0.020400608 0.030630667 0.021816602
000020 5f 87 32 be ea 96 0f 3e f6 c3 03 3d 69 ab 6f 3c
       -0.17434452 0.14022413 0.032169305 0.01462827
000030 2a 06 6e 3e 6b 6a 54 3e 06 df 1a bd 7d 84 61 3e
       0.23244539 0.2074372 -0.037810348 0.22023197
000040 95 e1 c8 bc 7b c5 cf 3d ca 4e 39 3d 49 7c 36 bd
       -0.024521628 0.10145088 0.045241155 -0.04455212
000050 5e 5d 86 be 6f 58 ac bd b1 5f 28 3e 35 93 7b 3d
       -0.2624311 -0.08415305 0.16442753 0.061419684
000060 39 60 4a be 30 a8 fc 3c d5 1e 20 be e3 7b 36 bd
       -0.19763269 0.030841917 -0.15636761 -0.04455174
000070 8e 1f 18 bd c5 36 b1 3d d1 dc 3f be 1c 30 2b 3e
       -0.037139468 0.086530246 -0.18736579 0.16717571
000080 7b cd 8f be ad 8b 20 3e fd d1 3c be 7c c8 f5 bd
       -0.28086457 0.15678282 -0.18439479 -0.1200113
000090 4d 27 37 3e 01 56 b7 3d 72 56 ba bd 3d 4e 19 3e
       0.17886086 0.08951951 -0.090985194 0.14971252
0000a0 fe 47 d4 bb 98 44 e2 be ca ff 1f 3e 54 21 58 bd
       -0.0064783087 -0.44192958 0.1562492 -0.05276616
0000b0 09 79 87 3e 2b 92 37 3e c5 70 66 3e 0a b8 8d be
       0.2645953 0.17926852 0.22503956 -0.27679473
0000c0 f6 bb 63 3e e6 6c 27 be ff 8c 14 3d 94 66 87 3d
       0.2223967 -0.16350135 0.036267277 0.06611362
0000d0 d7 c2 3a 3d 14 3b 59 bd ff 5d 31 be b0 6f d1 bd
       0.04559597 -0.053034857 -0.17321013 -0.10226381
0000e0 91 55 61 bc ec 17 17 3e c4 63 46 3e f8 fe 8e be
       -0.013753311 0.14755219 0.19373995 -0.279289
0000f0 83 79 0e be f0 b3 46 3e 00 38 a9 3e 1e 71 84 3c
       -0.1391354 0.19404578 0.33050537 0.01616722
000100 ad 4a 9a be c2 5d e6 3c 19 54 9e bd 79 e0 7c 3e
       -0.30135098 0.02812088 -0.07730884 0.24695005
000110 31 da 91 3d a0 e5 5c 3e 7e 43 80 be cd 39 b9 3d
       0.07121695 0.2157197 -0.25051492 0.09044228
000120 a2 eb 7b be 83 b7 33 3d 53 87 36 be d4 e9 99 be
       -0.24601606 0.043876182 -0.1782506 -0.3006121
000130 2d 2d f2 bd 58 89 0b 3d 5b 23 04 3e 4b e5 4d be
       -0.11825023 0.034066528 0.12904112 -0.20107
000140 ed e3 3d bd dd d3 a4 3d de 5a 13 3e 24 82 94 bd
       -0.046359945 0.08048222 0.14390132 -0.07251385
000150 55 d4 9c bd a9 c8 93 3e eb c0 90 3e 2a dd 90 be
       -0.076576866 0.2886403 0.28272185 -0.28293735
000160 9a 83 8c 3d 88 e6 92 be 4a 14 a0 be 21 83 30 3e
       0.068610385 -0.28691506 -0.3126548 0.17237522
000170 eb 39 3b 3e 63 8d 03 3e ba 2f cd bd 12 9e ba 3d
       0.18283813 0.12846904 -0.10018869 0.09112181
000180 72 ff 76 3e d1 95 cf 3d 7e ae b5 3d ea ee 48 be
       0.24120882 0.10135997 0.08871172 -0.19622388
000190 ac e5 87 3e dd fb 9e 3e 62 7e 77 3e 0c 95 07 be
       0.26542413 0.3105153 0.24169305 -0.1324045
0001a0 2a ba 9a bd b7 46 68 bd 55 21 10 3e c6 f8 19 3e
       -0.07555039 -0.056708064 0.14075215 0.15036306
0001b0 60 6d ff 3c 41 45 88 bd b5 f1 e8 ba a9 77 39 bd
       0.031180084 -0.06653834 -0.001777223 -0.045280132
0001c0 1e 91 58 be c6 14 17 be 4c 03 0d be 6c 83 83 3d
       -0.21149108 -0.14754018 -0.13770789 0.06421551
0001d0 55 b9 22 3d cc ea 71 3e 3a 0c 92 be 9c 9e 21 3b
       0.039727528 0.23624724 -0.28524953 0.002466119
0001e0 07 c3 a0 be ab 4a a4 bd 63 3c a3 3e d6 b8 70 be
       -0.31398794 -0.08022054 0.3188201 -0.2350801
0001f0 1a 3a 3c be e7 db 16 3e 54 b9 7a be f6 75 71 3e
       -0.18381539 0.14732324 -0.2448476 0.23580155
000200 f0 a3 15 3e a1 ad c0 3e 3e cb 6d 3d 52 34 03 bd
       0.14613318 0.37632468 0.058055155 -0.03203232
000210 b3 06 12 be df c1 71 3e a4 81 12 3e d4 b9 0c 3e
       -0.14260368 0.23609112 0.14307266 0.13742763
000220 84 7d 88 3e b2 f4 be bd f0 fc 6f 3d 73 56 47 3d
       0.2665826 -0.09324016 0.05859083 0.04866643
000230 aa e8 07 3e 2d 9a 3c 3d d6 e3 75 3e a0 55 41 3e
       0.13272348 0.04604547 0.24012694 0.1888032
000240 95 02 34 be 16 c8 93 3e 33 a6 2b bd e0 b5 c7 3d
       -0.1757911 0.2886359 -0.041906547 0.09751487
000250 e8 6c 9f 3e aa fe 23 3e c9 02 93 3e 16 9e be bd
       0.31137776 0.16015115 0.28713062 -0.09307496
000260 90 32 b9 3e 10 30 86 3e 3b f2 a4 3d cd 6e 50 be
       0.3617139 0.26208544 0.08054014 -0.20354767
000270 fd 75 10 be ed 38 a2 3d a7 d6 88 3e 13 fc 82 bd
       -0.14107509 0.07921014 0.26726267 -0.063957356
000280 6c 98 07 3e ad cc 6b be 39 3a dd bd 6c 0d 82 3d
       0.13241738 -0.23027296 -0.10802121 0.06350216
000290 f6 4a 6d be 29 5b 54 3e 38 14 09 bd 2d f2 1d 3e
       -0.23173127 0.207379 -0.033466548 0.15424414
0002a0 c3 7c 1e 3e 5e c4 87 bd 23 4e 5c be 26 45 36 bc
       0.1547728 -0.06629251 -0.21514182 -0.011124885
0002b0 00 74 6a be 57 04 8d be 86 b4 49 be d4 ec 0d 3e
       -0.22895813 -0.27542374 -0.1969777 0.13859874
0002c0 40 24 3f be ca 1b a0 be 6f ee 45 be 4a 02 25 be
       -0.18666172 -0.312712 -0.19329236 -0.16114154
0002d0 ca 04 55 3e d3 ee 95 3c 0e d9 f4 bd 95 3c 6c be
       0.20802608 0.018302357 -0.119554624 -0.23069985
0002e0 32 fe b3 3d ec a2 dd 3d 23 e4 8e 3d bd 2d 8a 3e
       0.08788718 0.108220905 0.069771074 0.2698802
0002f0 a2 ee 87 be e3 1a 2c be 14 f8 c0 bd 7a 7a 45 be
       -0.2654925 -0.16807131 -0.09422317 -0.19285002
000300 12 57 81 3d b7 6e cb bd 4c 88 67 3c f5 a6 8f 3e
       0.063154355 -0.099332266 0.014131617 0.28057066
000310 f1 7f 4e be 93 64 38 3e 0e 50 7d be d4 51 b3 3d
       -0.20165993 0.18007116 -0.2473757 0.08755842
000320 9e ac 4f be 53 f0 ac 3c 89 25 29 be 35 3a 55 3e
       -0.20280692 0.02111069 -0.16518225 0.20822985
000330 83 04 d0 3d 85 3c b7 3e 0b a0 9e 3e 75 11 05 3d
       0.101571105 0.3578836 0.30981478 0.03248735
000340 da 8c 80 bd c0 40 79 be 5f 9d d1 3c b2 83 33 3c
       -0.06276865 -0.24341106 0.025587736 0.010956692
000350 09 9d 8d bd 4b b5 07 bd 0a c1 c0 3d a7 a4 66 3d
       -0.06914718 -0.03313188 0.09411819 0.05630937
000360 a1 fe 72 be ab ce 91 be 54 78 da bd 1b 1f 97 3d
       -0.23729946 -0.28477988 -0.10667482 0.0737898
000370 d1 09 97 3c a0 2a 5d 3e fb 31 85 3e 66 51 1d bd
       0.018437298 0.21598291 0.26014695 -0.038407706
000380 44 02 40 3e 85 42 f3 3d e4 e5 9f bd 4f 81 ae bd
       0.18750864 0.11877922 -0.0780752 -0.085207574
000390 46 0e 2f 3e 09 f2 5d be 8a a3 c0 3d 49 56 93 3e
       0.17095289 -0.2167436 0.094061926 0.28776768
0003a0 01 7d a0 be dd 8c 80 be c8 c6 e6 bc 84 69 d4 bc
       -0.3134537 -0.2510747 -0.028170958 -0.02592922
0003b0 ec 0b 54 bb 43 0f 85 be be c7 02 be 98 b0 1f 3e
       -0.0032355739 -0.25988206 -0.12771508 0.15594709
0003c0 2c 17 03 be c1 5b ba 3c 3c 1b c2 bd 5d c5 97 3d
       -0.12801808 0.02274883 -0.09477851 0.07410691
0003d0 13 7e dd bd 7b aa 68 3e 6a 3f 04 bd 6d 12 52 3d
       -0.108150624 0.22721283 -0.03228704 0.051287103
0003e0 4c c0 cc 3c 4a 44 af be 0b b6 4d 3b 50 12 6f be
       0.024994038 -0.34231788 0.0031389024 -0.2334683
0003f0 32 c6 26 be 3d 9c 98 bd 35 df 90 3c dc dd 68 3e
       -0.16286543 -0.07451675 0.017684558 0.22740883
