policy/PPO/checkpoints/2025-09-29_14-53/best_51.37.pth (torch, 895157 bytes, 33 tensors)

actor.0.weight f4 [256, 12]
-0.2846124 0.27017188 -0.029120859 -0.07015263 0.19682339 0.026371852 0.12234603 -0.2770684
-0.18153583 -0.09752971 0.20835237 -0.25585175 0.08913907 -0.05110668 -0.23219202 -0.16386168
0.011597027 0.02177249 -0.106118776 -0.27234334 0.13792855 -0.17610568 0.14022207 0.051562835
0.18149519 -0.12932266 0.13067201 0.20280892 -0.13214675 -0.105440445 -0.09616388 0.28626123
-0.18666609 -0.101734005 -0.14638337 0.03536744 -0.26526552 0.118793786 0.23538196 -0.07962558
-0.19059315 -0.2151809 0.10634799 -0.2428224 0.12445026 -0.048668485 -0.1130461 0.26891193
0.052429512 0.033310823 0.27999353 -0.04801406 0.23220716 0.008849404 0.18254015 0.08949303
-0.25032926 -0.027304249 -0.110822484 0.050021492 -0.048786357 0.25194225 0.17784335 0.049616802
-0.2706118 -0.052807365 0.13705997 0.22256844 -0.05406862 0.06757714 0.16533765 -0.1786212
0.23775557 0.18800855 0.09941709 0.28169617 -0.088487945 0.03625521 0.121633254 -0.24121092
0.032956373 -0.16037978 -0.24411061 -0.064928345 -0.101908736 0.28839207 -0.28393826 -0.04517423
-0.05821677 -0.053806435 -0.028285714 0.14489287 0.12391825 0.15329358 -0.16729052 -0.11957606
-0.13045076 -0.15341267 -0.07436567 0.08427336 0.17248373 -0.09573957 -0.21407077 0.08244255
-0.07953944 -0.024186576 0.24049324 -0.1519297 0.07857497 -0.013282234 -0.24298956 -0.23045291
-0.17238231 -0.09780363 -0.22505315 -0.13343167 0.113466494 -0.07134173 -0.008171523 -0.26518655
0.1589058 -0.22544234 -0.102042295 -0.0033350724 -0.13959482 -0.079870045 -0.2325622 -0.11203979
0.055897832 -0.084908865 -0.26210135 0.25967 -0.069561765 -0.2796109 0.059696052 -0.19103576
-0.24337265 0.08061737 -0.037535433 -0.13863099 -0.25521475 0.04103956 -0.24322379 0.02322418
0.17042024 -0.2415381 0.25386527 0.013776505 0.04129456 -0.13194522 0.20387638 -0.060969785
-0.12529111 -0.2108461 -0.20606838 0.27080914 -0.2507548 0.08092819 -0.23960227 0.2733533
0.11098253 0.2841554 0.1499537 -0.1276573 0.007611985 -0.1576986 -0.12246664 0.05282983
-0.10577183 0.03223863 -0.10215342 -0.17645061 0.09359173 0.24559902 -0.006650275 -0.04178696
0.014971429 0.040751643 -0.19732846 0.23528989 -0.23296198 -0.07737587 0.13168795 0.16447125
0.14266337 -0.017171232 0.1767054 -0.2877272 0.13536653 -0.08373658 -0.071665555 0.050050385
0.28571814 -0.22975391 -0.28300065 0.24746992 -0.038507033 -0.015610554 -0.0024560306 -0.048871778
0.21236207 0.103615485 0.18384168 0.24565485 0.21159391 -0.23721218 0.28305876 -0.11394108
-0.04623891 -0.1431004 0.18764634 0.27139053 0.21799637 -0.26614064 0.15435055 0.14949574
-0.11136655 -0.26439378 0.11265676 0.059653096 -0.28275314 0.21726544 0.19532023 0.07462409
0.13422395 0.10754149 0.2140076 -0.1669948 -0.1199754 -0.08488796 -0.016486458 0.1309596
0.10376079 0.03814567 -0.023868524 -0.19905049 -0.04258444 0.2194551 -0.22940788 -0.2620113
-0.039377652 -0.2103014 -0.11722005 -0.2829431 -0.08792174 0.055573814 0.11917903 -0.1453967
0.2817496 -0.024350444 0.28148133 0.18166862 0.03136949 -0.124907956 0.13629313 -0.057400234
00000000: b7b8 91be f853 8a3e de8e eebc 2fac 8fbd
00000010: 128c 493e c809 d83c 8e90 fa3d e9db 8dbe
00000020: 87e4 39be a8bd c7bd 535a 553e 00ff 82be
00000030: 8b8e b63d 3d55 51bd bfc3 6dbe 5bcb 27be
00000040: 7501 3e3c 395c b23c cd54 d9bd 9670 8bbe
00000050: 243d 0d3e 0c55 34be 6096 0f3e 8d33 533d
00000060: e0d9 393e 296d 04be e2ce 053e 24ad 4f3e
00000070: 7a51 07be 29f1 d7bd 91f1 c4bd d590 923e
00000080: 6525 3fbe eb59 d0bd 86e5 15be 73dd 103d
00000090: e2d0 87be 284a f33d f807 713e bc12 a3bd
000000a0: da2a 43be 6258 5cbe facc d93d 6fa6 78be
000000b0: c7df fe3d 9b58 47bd b784 e7bd d3ae 893e
000000c0: 54c0 563d ee70 083d 505b 8f3e 64aa 44bd
000000d0: b7c7 6d3e 17fd 103c ceeb 3a3e 1f48 b73d
000000e0: 282b 80be 29ad dfbc e6f6 e2bd 56e3 4c3d
000000f0: 34d4 47bd 93fe 803e 911c 363e fd3a 4b3d
00000100: a18d 8abe 894c 58bd 7359 0c3e fbe8 633e
00000110: 0f77 5dbd e265 8a3d 464e 293e 7ae8 36be
00000120: 3276 733e 5085 403e 309b cb3d 7b3a 903e
00000130: 2b39 b5bd 5880 143d db1a f93d ffff 76be
00000140: 43fd 063d 993a 24be 22f8 79be 27f9 84bd
00000150: 87b5 d0bd 20a8 933e 5b60 91be 9d08 39bd
00000160: b574 6ebd 2364 5cbd 71b7 e7bc cc5e 143e
00000170: dac8 fd3d fef8 1c3e 354e 2bbe 4be4 f4bd
00000180: e294 05be 3618 1dbe 074d 98bd 8397 ac3d
00000190: 939f 303e 1c13 c4bd 5e35 5bbe a4d7 a83d
000001a0: 93e5 a2bd ed22 c6bc dc43 763e 7693 1bbe
000001b0: eaeb a03d ba9d 59bc 41d2 78be d9fb 6bbe
000001c0: fd84 30be 454d c8bd 5574 66be 50a2 08be
000001d0: 1f61 e83d 9d1b 92bd dae1 05bc 88c6 87be
000001e0: 34b8 223e 5bda 66be 8dfb d0bd 3b91 5abb
000001f0: f2f1 0ebe e892 a3bd c924 6ebe 1e75 e5bd
00000200: 20f5 643d b3e4 adbd 2632 86be 77f3 843e
00000210: 6676 8ebd 2929 8fbe d983 743d e19e 43be
00000220: ae36 79be b81a a53d c1be 19bd 48f5 0dbe
00000230: 82ab 82be 1919 283d a80f 79be a340 be3c
00000240: a582 2e3e c455 77be a1fa 813e dab6 613c
00000250: 7c24 293d a61c 07be f8c4 503e 74bb 79bd
00000260: 504c 00be 0ae8 57be 9703 53be 7fa7 8a3e
00000270: ef62 80be aebd a53d 4c5a 75be f7f4 8b3e
00000280: cf4a e33d d17c 913e 768d 193e 98b8 02be
00000290: f56d f93b be7b 21be cacf fabd 1864 583d
000002a0: e79e d8bd a70c 043d d035 d1bd 78af 34be
000002b0: 05ad bf3d 4f7e 7b3e 8dea d9bb ce28 2bbd
000002c0: b94a 753c 32eb 263d 7910 4abe d5ef 703e
000002d0: 968d 6ebe 3d77 9ebd 35d9 063e 276b 283e
000002e0: 5916 123e afaa 8cbc 43f2 343e fb50 93be
000002f0: 869d 0a3e 167e abbd 64c5 92bd a201 4d3d
00000300: a649 923e 9c44 6bbe 76e5 90be c168 7d3e
00000310: 8db9 1dbd 69c3 7fbc 5bf5 20bb c62d 48bd
00000320: 7175 593e 5b34 d43d fe40 3c3e f28c 7b3e
00000330: 13ac 583e c0e7 72be 14ed 903e f159 e9bd
00000340: 0365 3dbd e988 12be 5d26 403e b3f3 8a3e
00000350: 713a 5f3e 9643 88be 120e 1e3e 6915 193e
00000360: 2514 e4bd 9f5e 87be 96b8 e63d ce56 743d
00000370: 05c5 90be d57a 5e3e 0702 483e 84d4 983d
00000380: 0172 093e b63e dc3d cf24 5b3e af00 2bbe
00000390: aab5 f5bd bdd9 adbd 9c0e 87bc 461a 063e
000003a0: 8980 d43d a23e 1c3d ec87 c3bc e4d3 4bbe
000003b0: 066d 2ebd d6b8 603e e6e9 6abe 5826 86be
000003c0: 764a 21bd 4059 57be 1111 f0bd ebdd 90be
000003d0: 5010 b4bd 5ea1 633d 2314 f43d dfe2 14be
000003e0: 7c41 903e 957a c7bc 521e 903e 5707 3a3e
000003f0: 4b7d 003d becf ffbd 6d90 0b3e 821c 6bbd

actor.0.bias f4 [256]
-0.2552532 -0.08457314 0.1760061 0.26458827 0.18114662 0.107658856 0.06889313 0.08542221
0.14633292 0.16047448 -0.18468085 0.20885967 0.12719007 -0.123890914 -0.18865573 0.052773308
0.09916705 0.07782277 0.250994 0.15740867 -0.004164952 -0.18831572 -0.20079643 -0.22345743
0.048597552 -0.18507838 -0.25490004 0.2726195 0.010319876 -0.07303684 0.05482427 -0.18924393
0.005146707 0.08382047 -0.16100733 0.1465274 -0.06625627 -0.15623178 -0.10630191 -0.102610774
0.13992494 0.067560785 0.19910325 -0.118520215 0.04093731 0.070328996 0.029144257 0.26623383
-0.20595784 -0.25945532 0.16855091 -0.21911874 -0.18207936 -0.05670462 -0.04385437 -0.11553428
-0.19262286 0.09005541 -0.08911421 -0.17932619 0.122991726 0.15658954 0.11769215 -0.11635217
-0.25325376 -0.014567335 -0.09744757 -0.11466194 -0.1050108 0.12620504 -0.14994475 0.18055281
0.08700421 0.10022453 0.10708669 0.15979472 0.21334457 0.05983269 -0.1831529 -0.24479851
-0.05912605 -0.19893639 0.23326956 -0.04180055 -0.27273452 -0.025235426 0.17446585 -0.016879434
-0.15051685 -0.25041714 0.014074141 0.10689435 0.156273 0.27633375 -0.021493997 -0.23579307
0.08916237 0.039806057 0.1341955 0.055533197 -0.1637775 -0.054558884 0.15565671 0.1962182
0.1383935 0.10342301 -0.19966306 -0.17819434 0.28317463 -0.026579205 0.05497766 -0.16792384
-0.081518754 0.038749572 0.0692471 0.10969469 0.21163402 0.041903716 -0.019788438 0.08888961
-0.19359486 -0.14312233 0.22645679 -0.03416447 -0.22912714 0.112524875 -0.03647697 0.13695526
0.28130755 0.16248316 0.16934896 -0.04246786 -0.037468508 -0.06472035 0.2114112 -0.25860107
-0.18967627 -0.16295505 0.15459904 -0.2099836 -0.018664762 -0.27305686 0.26418245 0.24747343
0.044938434 0.26183704 -0.24407783 -0.026081048 -0.22929159 0.20920248 -0.2588765 0.033613108
0.009930149 -0.2412662 -0.11558619 -0.04430628 -0.15475196 0.1959977 0.03749426 -0.031591117
-0.03662927 0.05504058 0.015128344 -0.076632805 0.22580175 -0.15596099 0.166268 -0.039627146
-0.18920897 -0.1619938 0.2700157 0.23687008 0.032790564 0.1421502 0.12332151 0.052616235
-0.085217595 0.28716716 0.020557623 0.0760807 0.028659333 -0.08236007 -0.19458628 0.03610361
0.22057654 0.1767775 0.229541 -0.105704665 -0.15936357 -0.09794702 -0.0056975354 -0.0028327366
0.23683292 0.05650379 0.23419571 0.17783785 -0.08127875 -0.023948962 0.16795866 -0.07463129
0.19867748 -0.05781468 -0.09389385 -0.20883974 0.23644757 0.07227374 0.16213445 -0.13000588
-0.20906082 0.12380706 0.27238172 0.05140416 -0.07031148 -0.09792659 -0.047159977 -0.28149438
-0.19015247 -0.24505149 0.06887715 0.20098023 0.26528412 -0.2727388 0.003848881 -0.07012956
0.07539394 0.017326752 0.021877123 -0.26622754 -0.18691437 -0.0174037 -0.07725828 0.2608897
-0.022551304 0.027799826 -0.25288287 0.15092564 0.1403922 0.16951643 0.17024721 0.18886067
0.06067881 -0.18614395 0.05885835 0.1955037 0.010627981 0.02656438 -0.2744796 0.2670027
0.22100696 0.06843703 0.19730064 -0.047916252 0.002166002 -0.116257444 0.033366967 0.16099472
00000000: 8cb0 82be af34 adbd f13a 343e 1d78 873e
00000010: 807e 393e 3f7c dc3d d717 8d3d d7f1 ae3d
00000020: 4cd8 153e 6c53 243e fa1c 3dbe 4fdf 553e
00000030: 1d3e 023e 85ba fdbd f82e 41be d328 583d
00000040: 1818 cb3d 8b61 9f3d 4982 803e bd2f 213e
00000050: 267a 88bb d6d5 40be 949d 4dbe 06d2 64be
00000060: 3a0e 473d 3085 3dbe 4282 82be c894 8b3e
00000070: b214 293c 5794 95bd 6a8f 603d 29c9 41be
00000080: b5a5 a83b 11aa ab3d 1bdf 24be 470b 163e
00000090: 5eb1 87bd 39fb 1fbe d1b4 d9bd 9925 d2bd
000000a0: 7c48 0f3e 4f5d 8a3d b9e1 4b3e baba f2bd
000000b0: e1ad 273d a608 903d f0bf ee3c cd4f 883e
000000c0: 9de6 52be 54d7 84be 9c98 2c3e aa60 60be
000000d0: 0373 3abe 1b43 68bd a4a0 33bd 3d9d ecbd
000000e0: ed3e 45be f96e b83d 8381 b6bd 49a1 37be
000000f0: 16e3 fb3d 0259 203e 9508 f13d 0c4a eebd
00000100: 7aaa 81be d5ab 6ebc 9792 c7bd e1d3 eabd
00000110: e70f d7bd e53b 013e 1e8b 19be d6e2 383e
00000120: 432f b23d 8542 cd3d 4450 db3d 3aa1 233e
00000130: 0077 5a3e 1f13 753d 6f8c 3bbe 76ac 7abe
00000140: 282e 72bd fbb5 4bbe 37de 6e3e 0e37 2bbd
00000150: dca3 8bbe 86ba cebc 2da7 323e bd46 8abc
00000160: 1721 1abe ad36 80be 3a97 663c 6deb da3d
00000170: 0806 203e 9e7b 8d3e 2e14 b0bc bd73 71be
00000180: c39a b63d ad0b 233d 8c6a 093e c776 633d
00000190: 4ab5 27be 2379 5fbd 7964 1f3e 6ced 483e
000001a0: 07b7 0d3e 71cf d33d 7974 4cbe 9478 36be
000001b0: 44fc 903e a2bc d9bc 4130 613d 3af4 2bbe
000001c0: 4ef3 a6bd dfb7 1e3d 6cd1 8d3d 9ca7 e03d
000001d0: 97b6 583e 3ba3 2b3d 5d1b a2bc c10b b63d
000001e0: bb3d 46be a98e 12be 4ae4 673e 0bf0 0bbd
000001f0: 4ea0 6abe 7173 e63d e068 15bd 003e 0c3e
00000200: 8b07 903e fc61 263e d069 2d3e c7f2 2dbd
00000210: 9478 19bd 1a8c 84bd 2d7c 583e 5c67 84be
00000220: 7f3a 42be b0dd 26be 364f 1e3e f105 57be
00000230: d8e6 98bc 1cce 8bbe ec42 873e ad69 7d3e
00000240: 5d11 383d 810f 863e 8aef 79be eca7 d5bc
00000250: 6acb 6abe 2d39 563e 768b 84be e6ad 093d
00000260: 10b2 223c 7d0e 77be 74b8 ecbd 807a 35bd
00000270: 4c77 1ebe 9fb3 483e 9593 193d b065 01bd
00000280: 9308 16bd 3b72 613d e0dc 773c a9f1 9cbd
00000290: 9338 673e 3db4 1fbe 2942 2a3e 1350 22bd
000002a0: ffbf 41be b4e1 25be 7f3f 8a3e 128e 723e
000002b0: 664f 063d d28f 113e fd8f fc3d 1f84 573d
000002c0: 9086 aebd 9307 933e 7668 a83c 33d0 9b3d
000002d0: fac6 ea3c 65ac a8bd a041 47be 61e1 133d
000002e0: d1de 613e 2905 353e cc0c 6b3e b07b d8bd
000002f0: 3430 23be 7298 c8bd 64b2 babb 6fa5 39bb
00000300: 5484 723e 8570 673d 00d1 6f3e 201b 363e
00000310: 7975 a6bd 9d30 c4bc 5bfd 2b3e 4ad8 98bd
00000320: 1c72 4b3e 16cf 6cbd 6b4b c0bd 16da 55be
00000330: 501f 723e 4104 943d 9306 263e 4320 05be
00000340: 0a14 56be 8e8e fd3d 9e75 8b3e 2b8d 523d
00000350: 77ff 8fbd bc8d c8bd d22a 41bd 0820 90be
00000360: 54b7 42be c7ee 7abe 770f 8d3d c3cd 4d3e
00000370: 52d3 873e 6ca4 8bbe 823d 7c3b 16a0 8fbd
00000380: 2368 9a3d d5f0 8d3c a737 b33c fa4e 88be
00000390: 7b66 3fbe 3492 8ebc 9739 9ebd 5693 853e
000003a0: 83bd b8bc 76bc e33c dd79 81be 408c 1a3e
000003b0: f9c2 0f3e b795 2d3e 4955 2e3e b164 413e
000003c0: 588a 783d 859c 3ebe 7415 713d 1f32 483e
000003d0: fc20 2e3c 8b9d d93c 9788 8cbe 94b4 883e
000003e0: a64f 623e b728 8c3d 2e09 4a3e d543 44bd
000003f0: 7cf3 0d3b 6218 eebd cdab 083d cddb 243e

actor.2.weight f4 [128, 256]
0.06183233 0.023438128 -0.0078038857 0.0010214796 0.050499726 -0.02429296 0.019085817 0.026998574
-0.032010272 -0.0460613 -0.049974963 0.053077377 -0.056801703 0.056790255 0.012616825 0.019176535
-0.036786612 0.040272206 0.028550811 -0.048435718 -0.02096664 0.03890599 -0.020775836 0.0120553095
-0.031220568 0.006887059 -0.055643108 0.054829564 0.056183875 0.009913386 0.058871493 -0.028183889
0.011072723 0.0049345586 -0.011338982 0.029926682 -0.058079354 0.028999344 0.035047054 0.054698348
0.05324045 -0.025690656 0.045180153 0.035234768 -0.011675727 -0.028271206 0.0052249865 0.05798565
-0.0161725 -0.056245945 -0.049078193 0.037617117 0.048584357 -0.006810257 -0.008013561 -0.03912339
0.032899372 0.05830608 0.050684243 0.0085215885 0.03389725 -0.013193821 0.014392846 -0.027680008
-0.048459772 0.017947176 0.04352735 0.047353428 -0.022283854 0.016565898 -0.052435342 0.03960458
-0.03533839 -0.013823944 0.038150463 0.016047914 0.0188336 -0.045260865 -0.023509169 -0.048170198
0.025068985 -0.0075864405 -0.017007563 0.02455313 -0.0007937041 0.057861183 -0.013922505 0.0035210368
-0.008799373 0.017336773 -0.034704525 0.042754274 0.0011041036 -0.0040819105 -0.026988192 0.046216957
0.038493957 0.026794182 -0.004652374 0.052103426 -0.057383485 0.04725678 -0.022730736 -0.03633294
-0.04453393 0.048310224 0.057171505 -0.051574618 0.061307184 -0.05583661 -0.055058192 0.05409011
0.0016662366 -0.062344257 -0.0210635 -0.01974551 -0.014718099 0.039976474 0.023493575 -0.008762867
0.001798681 0.042483374 0.011719242 0.05459298 0.042482395 -0.008375351 0.05801943 0.0182777
0.05261629 0.028281027 -0.042216092 0.007176724 -0.035612874 -0.05040046 -0.03271587 0.02877265
0.0064453683 -0.048483364 0.062346775 0.048767228 -0.04213905 0.027077703 -0.049062822 0.03477842
0.061288815 0.015873734 0.027598504 -0.052683946 -0.060871232 0.029194066 -0.056185983 0.032466695
-0.04299856 0.006850706 0.015519744 -0.026783846 -0.0077179684 0.03924149 -0.009877799 0.02318089
0.034175128 -0.019763183 0.015571246 0.0041596056 0.06219621 0.0166271 -0.05662328 0.017300911
-0.031479668 -0.021564864 -0.029792782 -0.029738342 -0.055932578 -0.0069444245 0.0118305255 0.0035245202
-0.021022119 0.020709762 -0.0015675111 0.04187454 -0.06175039 -0.032356035 -0.03352342 -0.012619775
-0.004636868 -0.0377646 0.03131173 0.030489704 0.0035636132 -0.0058573387 0.033260792 -0.034472644
-0.030626617 -0.054455362 -0.037979186 -0.0034900433 0.05377078 0.052390933 0.018752975 0.043789294
0.060896512 0.051534656 0.038675155 -0.02839194 -0.0022506376 0.023168335 -0.024406081 -0.027923053
-0.049100485 -0.05761023 0.046580806 -0.06011754 0.054816216 -0.041772697 -0.006925254 -0.05868293
0.05039783 0.040132295 -0.012734738 -0.04910814 -0.05887209 -0.01042256 -0.008384954 -0.055287205
-0.033502866 -0.015200332 -0.037863377 0.019234996 -0.051363245 0.023568861 0.03212387 0.046992052
-0.0077055446 -0.01906165 0.051235296 0.057122592 0.013571447 -0.0012724804 -0.022406224 -0.018361185
0.057913896 -0.06385946 0.012719653 0.022261644 0.029206809 0.060212195 -0.035076737 -0.025615055
0.04181343 0.053382747 -0.03714803 0.010000493 0.00040766824 -0.055179913 -0.0389343 0.010616268
00000000: e643 7d3d 5101 c03c bdb7 ffbb 2be3 853a
00000010: cdd8 4e3d 0802 c7bc dc59 9c3c 1d2c dd3c
00000020: 341d 03bd c6aa 3cbd 8cb2 4cbd aa67 593d
00000030: e7a8 68bd e69c 683d cdb6 4e3c 1c18 9d3c
00000040: 8fad 16bd 78f4 243d 64e3 e93c 8864 46bd
00000050: 3bc2 abbc e35b 1f3d 1632 aabc a283 453c
00000060: 47c2 ffbc d7ac e13b 07ea 63bd f794 603d
00000070: 1021 663d c16b 223c 3c23 713d e6e1 e6bc
00000080: 5e6a 353c 14b2 a13b 23c7 39bc cd28 f53c
00000090: 9ee4 6dbd 0890 ed3c 808d 0f3d 600b 603d
000000a0: a812 5a3d 3675 d2bc d30e 393d 5552 103d
000000b0: 8c4b 3fbc 0499 e7bc 5d36 ab3b 5c82 6d3d
000000c0: 317c 84bc 2662 66bd 3706 49bd 6814 1a3d
000000d0: 6400 473d 9428 dfbb 504b 03bc d93f 20bd
000000e0: 7ec1 063d 5bd2 6e3d 489a 4f3d 229e 0b3c
000000f0: d8d7 0a3d e52a 58bc f9cf 6b3c 2fc1 e2bc
00000100: c17d 46bd f505 933c bc49 323d abf5 413d
00000110: a18c b6bc 35b5 873c 71c6 56bd 6938 223d
00000120: fdbe 10bd d37d 62bc a943 1c3d ea76 833c
00000130: ec48 9a3c 7563 39bd 4d96 c0bc 1d4e 45bd
00000140: 795d cd3c ad97 f8bb 7253 8bbc a523 c93c
00000150: 9510 50ba d9ff 6c3d 381b 64bc 32c1 663b
00000160: 3f2b 10bc d905 8e3c 5526 0ebd 1b1f 2f3d
00000170: 92b7 903a 8cc1 85bb 5716 ddbc fe4d 3d3d
00000180: d7ab 1d3d 797f db3c f172 98bb 676a 553d
00000190: f20a 6bbd 5390 413d cf35 babc d9d1 14bd
000001a0: 3669 36bd f1e0 453d ab2c 6a3d e83f 53bd
000001b0: 3e1d 7b3d eeb4 64bd b384 61bd 978d 5d3d
000001c0: 9f65 da3a b15c 7fbd 5c8d acbc 56c1 a1bc
000001d0: 2e24 71bc 5fbe 233d 9975 c03c 2192 0fbc
000001e0: b8c1 eb3a 0c03 2e3d 1002 403c e39c 5f3d
000001f0: 0502 2e3d c538 09bc c8a5 6d3d 1dbb 953c
00000200: 2e84 573d 9dad e73c c8ea 2cbd b92a eb3b
00000210: cede 11bd b670 4ebd 1301 06bd 9fb4 eb3c
00000220: ab33 d33b 7e96 46bd 555f 7f3d 25c0 473d
00000230: ff99 2cbd 0fd2 dd3c 19f6 48bd d173 0e3d
00000240: fb09 7b3d a209 823c 4216 e23c 1fcb 57bd
00000250: 1d54 79bd 6528 ef3c 4623 66bd ccfb 043d
00000260: 421f 30bd e37b e03b 8646 7e3c cc69 dbbc
00000270: 03e7 fcbb afbb 203d 7ed6 21bc dae5 bd3c
00000280: 38fb 0b3d 66e6 a1bc 8a1e 7f3c 4d4d 883b
00000290: 74c1 7e3d 8e35 883c d0ed 67bd a4ba 8d3c
000002a0: d3f0 00bd cca8 b0bc fe0f f4bc d39d f3bc
000002b0: 8f19 65bd 0e8e e3bb d2d4 413c a3fb 663b
000002c0: 9436 acbc 85a7 a93c f274 cdba a384 2b3d
000002d0: faed 7cbd c387 04bd db4f 09bd 2cc3 4ebc
000002e0: def0 97bb 0eaf 1abd bb40 003d 8bc5 f93c
000002f0: 828b 693b ebee bfbb 783c 083d 3033 0dbd
00000300: ace4 fabc 960c 5fbd 1090 1bbd 36b9 64bb
00000310: c03e 5c3d e097 563d d79f 993c 675c 333d
00000320: 9f6e 793d 0116 533d d769 1e3d 3796 e8bc
00000330: 6f7f 13bb 85cb bd3c 43ef c7bc e3be e4bc
00000340: 971d 49bd b4f8 6bbd 84cb 3e3d cf3d 76bd
00000350: f886 603d d919 2bbd 3eed e2bb 835d 70bd
00000360: f46d 4e3d c361 243d 5da5 50bc 9e25 49bd
00000370: dc23 71bd 63c3 2abc 0c61 09bc d674 62bd
00000380: 4d3a 09bd d00a 79bc a116 1bbd b692 9d3c
00000390: 4462 52bd 7c13 c13c 5294 033d bd7a 403d
000003a0: cb7e fcbb 2d27 9cbc 1adc 513d 61f9 693d
000003b0: c65a 5e3c 5bc9 a6ba 428d b7bc 326a 96bc
000003c0: 1f37 6d3d c0c8 82bd 1766 503c 0d5e b63c
000003d0: 1e43 ef3c 10a1 763d a0ac 0fbd aad6 d1bc
000003e0: 8f44 2b3d dea7 5a3d 8828 18bd 1cd9 233c
000003f0: 4ebc d539 5504 62bd 9379 1fbd dbef 2d3c

actor.2.bias f4 [128]
0.014542945 -0.053902272 -0.02693063 -0.04669721 -0.045949865 0.03799728 -0.018628549 0.032719802
0.061250262 0.033135682 -0.024803817 0.045093346 0.057386685 0.024797758 -0.012643621 -0.034721296
-0.047940556 0.012412145 0.04576734 -0.0018283073 0.05652831 0.00750393 0.053171266 -0.0020171758
-0.039131563 -0.05209605 -0.034671955 -0.027388407 0.061374713 -0.009840435 0.05112695 0.042223603
-0.040531516 -0.024967534 -0.041268922 -0.047524802 0.054035056 0.055851117 0.011581177 -0.050575286
0.04723983 0.04424523 -0.0073173414 -0.02549547 0.052433617 -0.022642452 -0.036181416 -0.0001740446
0.023668943 -0.043006837 -0.052804735 -0.01820023 -0.028848063 0.055837005 -0.039478086 -0.053161066
-0.05128809 0.0074344533 0.046614937 -0.058345545 -0.03946241 -0.042804472 0.04348866 0.017805047
-0.0012159477 -0.057246316 0.0033134709 0.03333523 -0.05682878 -0.0053981678 0.0188248 -0.01274007
0.022697363 -0.04215937 0.033620995 -0.023144176 0.03864316 0.041945077 -0.055455513 -0.027724432
-0.046435352 0.0059924037 0.050574798 -0.048814677 -0.008083086 0.05432204 -0.013173671 -0.028814146
-0.045062657 0.05904997 -0.04460732 -0.011129623 0.024908181 -0.060894925 -0.026369985 0.031012988
-0.05733901 0.04906412 -0.01685844 -0.0037775335 -0.03898333 0.026567644 -0.039133176 -0.0036400685
0.034413546 -0.029170059 -0.029027877 0.047647987 0.022452548 -0.048493896 0.025605833 -0.016821837
-0.009429113 0.028466677 0.010218273 0.04673086 0.020027928 -0.031425793 0.03907413 -0.036393296
-0.027545694 -0.00682684 -0.05421516 0.04560475 -0.04344696 -0.060576297 -0.014974502 -0.055578183
00000000: 8845 6e3c a1c8 5cbd a09d dcbc 9345 3fbd
00000010: ed35 3cbd 09a3 1b3d e69a 98bc 3305 063d
00000020: 8ee1 7a3d 48b9 073d 6031 cbbc cdb3 383d
00000030: 4d0e 6b3d ab24 cb3c 3127 4fbc eb37 0ebd
00000040: 515d 44bd 4f5c 4b3c 8976 3b3d d0a3 efba
00000050: 3b8a 673d 87e3 f53b 1dca 593d 9832 04bb
00000060: 6b48 20bd ab62 55bd 2e04 0ebd a75d e0bc
00000070: 0d64 7b3d c739 21bc 7e6a 513d a8f2 2c3d
00000080: 6004 26bd b788 ccbc 9a09 29bd 5ea9 42bd
00000090: dd53 5d3d 24c4 643d fabe 3d3c 0828 4fbd
000000a0: 8d7e 413d 7c3a 353d 4fc6 efbb e0db d0bc
000000b0: a2c4 563d aa7c b9bc f732 14bd be7f 36b9
000000c0: 5fe5 c13c f027 30bd c749 58bd a618 95bc
000000d0: c652 ecbc 58b5 643d c6b3 21bd 6bbf 59bd
000000e0: 7613 52bd b79c f33b 4eef 3e3d bdfb 6ebd
000000f0: 56a3 21bd be53 2fbd 2a21 323d e4db 913c
00000100: 6f60 9fba 1d7b 6abd d126 593b 868a 083d
00000110: 4bc5 68bd 1de3 b0bb 7836 9a3c babb 50bc
00000120: d2ef b93c 4eaf 2cbd 2bb6 093d db98 bdbc
00000130: 4a48 1e3d 9ace 2b3d 5225 63bd 591e e3bc
00000140: ff32 3ebd ed5b c43b 8527 4f3d e6f1 47bd
00000150: ec6e 04bc ca80 5e3d 62d6 57bc a50b ecbc
00000160: 9f93 38bd 62de 713d 2ab6 36bd 0659 36bc
00000170: 3e0c cc3c f56c 79bd de05 d8bc f30e fe3c
00000180: 4fdc 6abd 75f7 483d b61a 8abc 7f90 77bb
00000190: fcac 1fbd 63a4 d93c 1c4a 20bd 378e 6ebb
000001a0: 38f5 0c3d 0cf6 eebc dfcb edbc 892a 433d
000001b0: 68ee b73c 89a1 46bd 53c3 d13c f3cd 89bc
000001c0: 917c 1abc f332 e93c 8b6a 273c dc68 3f3d
000001d0: 9c11 a43c 55b8 00bd 320c 203d 2311 15bd
000001e0: 82a7 e1bc afb3 dfbb b710 5ebd 0ccc 3a3d
000001f0: 71f5 31bd da1e 78bd 9d57 75bc f3a5 63bd

actor.4.weight f4 [6, 128]
0.041068096 -0.02100889 -0.0074047274 -0.027449135 0.043177277 0.0058064577 -0.024061747 0.030942839
0.053979985 -0.04578753 -0.04743892 0.016847603 -0.050077982 -0.07298875 0.06345187 0.01780658
-0.05679549 -0.0057308483 -0.013429855 -0.03323208 0.06078672 -0.077032894 0.017944472 0.083988026
-0.06990409 0.041177377 0.04079578 0.074912086 0.046163715 0.069665916 0.08493442 -0.08327094
-0.0858632 -0.0852078 -0.0413186 -0.01275894 -0.047652546 -0.037676856 -0.04344087 -0.0057670064
-0.060335398 0.05023433 -0.08140031 -0.014464691 0.044890907 -0.049077157 -0.03337122 -0.08839158
0.057224873 -0.05291028 0.062558435 0.07023709 0.03507677 -0.026295573 0.017056603 0.008948389
-0.03555775 0.08594158 0.04861088 0.07315405 0.0013507508 0.08451316 0.015498881 0.005676837
-0.021970153 -0.031849016 0.05153487 -0.016094895 -0.018778166 0.07840592 0.04648858 -0.033129316
-0.05159312 -0.017486464 -0.033009812 -0.047024947 -0.044305965 -0.06655986 -0.062233545 0.019798748
-0.02794751 0.043932736 -0.058817666 0.051675778 -0.0009204582 -0.06055311 -0.05310352 -0.050458573
-0.08578759 0.03488806 -0.030765045 0.07926409 -0.07095776 -0.08665873 -0.051271673 0.010186061
0.017471606 0.045009594 -0.057881407 -0.027489869 0.014983746 -0.022033038 -0.083749704 -0.088440716
-0.057867732 0.037674647 -0.0531724 -0.04793347 0.044290807 0.014830646 -0.048803844 0.036590654
-0.039555766 -0.014561284 0.06970329 0.051595077 -0.0514208 -0.029032065 -0.0783188 -0.02617737
-0.008056751 0.05650915 -0.01786816 0.035943855 -0.03178637 -0.05026257 0.07840426 0.08903538
0.026175093 -0.058782093 0.013967457 0.07040626 -0.05701788 0.08474178 -0.01823143 0.037489492
-0.029549727 -0.07586833 -0.0794557 0.0398766 0.014181471 -0.02490791 0.0303565 -0.051864933
0.08220807 0.033715002 0.08241618 -0.033204943 -0.019294655 -0.0016501104 0.059343375 0.05775569
0.056672912 -0.022909777 -0.051936936 0.049725402 0.048584033 -0.027249223 -0.07476931 0.06640674
-0.037346363 -0.0876193 -0.0671768 0.055015992 -0.00072132616 0.07435413 -0.0692396 0.06548829
0.023765273 -0.06423444 -0.022174643 -0.037268277 -0.025250314 -0.07600542 -0.061631862 -0.027526513
0.05760475 0.041102223 -0.0062261 0.01727 0.07384714 -0.06441188 -0.022351103 0.04028295
0.069084324 -0.045146465 0.07297074 0.019426525 -0.07224876 0.07495132 0.07074774 0.040227495
0.040286146 0.05150856 0.053390536 -0.02794617 0.04824681 0.05296771 -0.05650646 0.025422389
0.042930532 0.042148095 0.012027775 0.04576503 0.035567157 0.041681163 -0.06292357 0.006830038
0.080162 -0.0060032015 0.004054409 -0.025557213 -0.0464879 -0.015342614 0.050159305 0.013127383
0.08506116 -0.05067805 0.058015507 0.06491632 0.010268 0.06059895 -0.0885483 0.0013773511
0.01331256 0.07076793 -0.040455703 0.060630493 0.013046332 0.04422884 -0.0109381685 -0.025670806
-0.002038368 0.048646804 0.022520205 -0.08257702 -0.07361839 0.07398969 0.06390031 -0.060078748
0.043506134 0.0613886 0.034817357 -0.06177015 -0.028525542 0.062309057 0.06893474 -0.022417247
0.0017680534 -0.06500315 0.05997645 0.03283832 0.03277839 0.0021901943 0.08659767 0.07807129
00000000: 0537 283d d61a acbc 5ba3 f2bb 02dd e0bc
00000010: a8da 303d 1944 be3b 241d c5bc d67b fd3c
00000020: 1e1a 5d3d b48b 3bbd 504f 42bd fc03 8a3c
00000030: 921e 4dbd 207b 95bd 0ef3 813d 1bdf 913c
00000040: 63a2 68bd d7c9 bbbb e508 5cbc 5d1e 08bd
00000050: 7ffb 783d 6cc3 9dbd 4900 933c ea01 ac3d
00000060: e029 8fbd 9ca9 283d 7a19 273d 826b 993d
00000070: 2a16 3d3d 01ad 8e3d 19f2 ad3d f489 aabd
00000080: 0cd9 afbd 6d81 aebd b13d 29bd e00a 51bc
00000090: 512f 43bd 0c53 1abd 0eef 31bd 28f9 bcbb
000000a0: 4022 77bd 83c2 4d3d 35b5 a6bd 50fd 6cbc
000000b0: 87df 373d 2105 49bd 43b0 08bd a506 b5bd
000000c0: a164 6a3d 73b8 58bd a31e 803d 77d8 8f3d
000000d0: a9ac 0f3d d069 d7bc 4aba 8b3c 449c 123c
000000e0: 01a5 11bd 2402 b03d 341c 473d cad1 953d
000000f0: ad0b b13a 3c15 ad3d 05ef 7d3c c304 ba3b
00000100: c0fa b3bc 1d74 02bd 3a16 533d 71d9 83bc
00000110: abd4 99bc 4893 a03d cf6a 3e3d 9bb2 07bd
00000120: 4f53 53bd c63f 8fbc 4c35 07bd 3b9d 40bd
00000130: 2c7a 35bd 8950 88bd 9ae8 7ebd fc30 a23c
00000140: 2df2 e4bc d0f2 333d cbea 70bd fba9 533d
00000150: e74a 71ba 8a06 78bd 1483 59bd a6ad 4ebd
00000160: 67b1 afbd c8e6 0e3d fa06 fcbc 3655 a23d
00000170: 4d52 91bd 227a b1bd 3f02 52bd 70e3 263c
00000180: 9d20 8f3c fb5b 383d 0e15 6dbd 6f32 e1bc
00000190: 637e 753c a17e b4bc f784 abbd 6820 b5bd
000001a0: b706 6dbd bb50 1a3d 4dcb 59bd e355 44bd
000001b0: 476a 353d 3dfc 723c 8ae6 47bd 15e0 153d
000001c0: 3a05 22bd 7492 6ebc 99c0 8e3d 5c55 533d
000001d0: 9e9e 52bd a7d4 edbc 9b65 a0bd ed71 d6bc
000001e0: 7700 04bc 2376 673d 3f60 92bc dd39 133d
000001f0: 6d32 02bd 20e0 4dbd 6a92 a03d 2e58 b63d
00000200: 266d d63c 7ec5 70bd c3d7 643c 2831 903d
00000210: 958b 69bd 198d ad3d 145a 95bc 958e 193d
00000220: 4512 f2bc db60 9bbd acb9 a2bd a555 233d
00000230: 6759 683c ac0b ccbc 32ae f83c 5370 54bd
00000240: b45c a83d be18 0a3d d0c9 a83d e801 08bd
00000250: d30f 9ebc 8448 d8ba 0a12 733d 3b91 6c3d
00000260: db21 683d 49ad bbbc d3bb 54bd ddac 4b3d
00000270: 0d00 473d c339 dfbc a720 99bd 4200 883d
00000280: 80f8 18bd bf71 b3bd fd93 89bd 7358 613d
00000290: 6117 3dba fa46 983d 7ecd 8dbd b91e 863d
000002a0: 64af c23c 598d 83bd 99a7 b5bc 9fa6 18bd
000002b0: bfd9 cebc bba8 9bbd b171 7cbd 487f e1bc
000002c0: f5f2 6b3d ce5a 283d 5004 ccbb d179 8d3c
000002d0: 2b3d 973d 60ea 83bd a919 b7bc bcff 243d
000002e0: 157c 8d3d 80eb 38bd af71 953d 6024 9f3c
000002f0: 28f7 93bd 1480 993d 31e4 903d 96c5 243d
00000300: 1603 253d a4fa 523d 09b0 5a3d 5eef e4bc
00000310: 729e 453d abf4 583d 5173 67bd 9d42 d03c
00000320: edd7 2f3d 7ba3 2c3d 2510 453c 1d74 3b3d
00000330: deae 113d deb9 2a3d 13de 80bd 83ce df3b
00000340: fa2b a43d 81b6 c4bb d9da 843b 5c5d d1bc
00000350: 196a 3ebd 965f 7bbc d873 4d3d 3c14 573c
00000360: 8c34 ae3d c993 4fbd aba1 6d3d d9f2 843d
00000370: 1d3b 283c 9b36 783d d058 b5bd 3c88 b43a
00000380: ec1c 5a3c c7ee 903d e1b4 25bd ae57 783d
00000390: 48c0 553c 4d29 353d 0136 33bc 954b d2bc
000003a0: 2496 05bb df41 473d 4b7c b83c 241e a9bd
000003b0: 3dc5 96bd e887 973d 2ade 823d 2215 76bd
000003c0: 7d33 323d 9d72 7b3d a59c 0e3d b202 7dbd
000003d0: 66ae e9bc c837 7f3d a82d 8d3d 60a4 b7bc
000003e0: 07be e73a 5f20 85bd dea9 753d 7981 063d
000003f0: a242 063d 5d89 0f3b 1f5a b13d d7e3 9f3d

actor.4.bias f4 [6]
0.083492994 -0.035591368 0.053132486 -0.08492318 0.07093223 -0.047825985
00000000: 60fe aa3d 41c8 11bd 73a1 593d 34ec adbd
00000010: eb44 913d 2ee5 43bd

critic.0.weight f4 [256, 12]
-0.02253503 -0.1717475 0.1735085 -0.023242557 0.06469611 0.10055291 -0.091322996 -0.17194225
0.28171235 0.265638 -0.17851982 -0.038558234 -0.16598342 -0.17071472 0.24777956 0.08601387
0.031089652 -0.18850541 -0.18091296 0.19773252 0.21101233 0.030325573 0.22030534 -0.14320801
-0.06282365 -0.28112474 -0.015752329 0.06628389 0.1011161 0.27404827 0.04916635 0.22494847
-0.2223134 -0.22170325 0.26499623 -0.23252308 -0.19637671 -0.10403791 -0.22409908 -0.23383656
-0.040983044 0.10130805 0.17921768 0.21457337 0.09996724 -0.21754873 0.271141 -0.20432082
0.21097234 -0.23647921 -0.25677502 -0.23968965 0.12821944 0.20334736 -0.22967122 0.14432408
0.09157044 0.27675715 -0.12814313 0.27222076 0.13273004 -0.028460303 0.22811088 -0.017103376
0.1107417 -0.11326077 -0.20266245 0.27064294 0.21577977 -0.13141482 0.22928575 -0.26968804
0.008881624 -0.25902355 -0.26528195 0.2164832 -0.06262553 -0.16140819 -0.26524872 -0.22058225
0.0702785 0.0972791 -0.0003764792 0.07183945 -0.07748565 0.05788732 -0.28501403 0.16695839
0.22167307 0.13023198 0.18639879 0.029433826 -0.21362065 0.2103774 0.1332734 -0.28174117
-0.21249188 -0.12804462 -0.16583408 0.17609788 -0.29040223 0.07245093 0.12422652 -0.061073795
0.11025643 -0.057573203 0.24941923 -0.25563288 0.1745087 0.23591463 -0.09546613 -0.17242065
-0.15393397 -0.27967954 0.25895336 -0.107539505 0.12836745 -0.21928364 -0.07917016 -0.10409415
0.028549537 -0.00872304 -0.1017086 -0.09280341 0.2361633 -0.28946704 0.11376256 0.19874185
-0.103340514 -0.06420782 -0.047039215 0.22134432 -0.08261917 -0.04713974 -0.02944627 0.032242548
0.15932614 0.007670085 0.19854699 -0.2766285 0.037865087 -0.10186074 0.11955189 0.19708955
-0.14795484 0.041475896 0.11067481 -0.14974251 -0.11520948 -0.27096492 0.14511473 0.14889722
0.04881307 -0.08825198 0.105054244 0.040520784 -0.023845686 0.19266081 0.2159081 -0.217093
-0.020063471 0.032884903 -0.08790321 -0.0065354556 0.13115847 -0.10853833 -0.05353577 0.023939583
0.047304712 -0.032595873 0.25013015 0.057522334 0.17222103 0.14650849 0.10056672 0.2815305
-0.034701582 0.2433703 0.1554463 -0.063494645 0.20113522 -0.16313097 0.2096086 0.056297798
-0.13131768 -0.12526804 -0.1796163 0.1334573 0.03242142 -0.26802722 -0.026382253 -0.26007426
0.24628177 0.21448027 -0.12430907 -0.26192886 -0.04146849 -0.047487244 0.11487671 0.23199232
0.21583909 -0.19533074 0.25857657 -0.12023356 -0.14809325 -0.048654314 0.06743161 0.09332978
0.0370642 0.12998672 0.28753906 0.28623107 0.16611858 0.21811964 0.15044472 0.04262705
-0.14726195 -0.2780531 0.0023599546 0.18496996 -0.066572 -0.12939362 0.2640238 -0.08663142
0.07863609 0.051200166 -0.23745632 -0.005845098 0.19071804 0.2577923 -0.22476308 0.08654726
0.22233593 -0.060144402 -0.11865916 0.27621642 -0.06298901 0.14564103 0.028203826 0.13852444
0.24389033 -0.16200596 -0.035784118 0.027813748 -0.11151578 0.070537105 0.23453298 0.087829165
0.07263417 -0.0112939635 -0.22576274 -0.1677203 -0.18887243 0.08408196 0.19268756 0.13976899
00000000: 629b b8bc 94de 2fbe 36ac 313e 2d67 bebc
00000010: 657f 843d afee cd3d 8d07 bbbd a111 30be
00000020: 9a3c 903e b401 883e e6cd 36be 3def 1dbd
00000030: 8ff7 29be d7cf 2ebe edb9 7d3e 0a28 b03d
00000040: baaf fe3c 9007 41be 3f41 39be 657a 4a3e
00000050: 9e13 583e 566d f83c b997 613e 1fa5 12be
00000060: b0a9 80bd 95ef 8fbe 070b 81bc d9bf 873d
00000070: f515 cf3d 0e50 8c3e a862 493d e458 663e
00000080: 20a6 63be 2d06 63be 96ad 873e 881a 6ebe
00000090: fa16 49be d411 d5bd 3b7a 65be da72 6fbe
000000a0: d6dd 27bd 987a cf3d d784 373e 1fb9 5b3e
000000b0: a0bb cc3d 18c5 5ebe fed2 8a3e 7a39 51be
000000c0: 2209 583e 9b27 72be 0478 83be 3471 75be
000000d0: f54b 033e 4a3a 503e ef2e 6bbe b1c9 133e
000000e0: 4889 bb3d 1db3 8d3e f437 03be 8560 8b3e
000000f0: 62ea 073e 9525 e9bc e695 693e 611c 8cbc
00000100: 8bcc e23d 43f5 e7bd bf86 4fbe b691 8a3e
00000110: 5ff5 5c3e 9b91 06be e2c9 6a3e 8d14 8abe
00000120: 3b84 113c bc9e 84be 09d3 87be c6ad 5d3e
00000130: d041 80bd 3048 25be aece 87be 50e0 61be
00000140: 2dee 8f3d 443a c73d 2f62 c5b9 9020 933d
00000150: ccb0 9ebd 411b 6d3d 5ced 91be 24f7 2a3e
00000160: 44fe 623e 885b 053e 53df 3e3e 351f f13c
00000170: 5fbf 5abe 2c6d 573e d278 083e 6140 90be
00000180: 7997 59be 211e 03be 69d0 29be 0153 343e
00000190: 9aaf 94be 2761 943d 796a fe3d 8428 7abd
000001a0: 20ce e13d e1d1 6bbd c167 7f3e 50e2 82be
000001b0: 69b2 323e 9b93 713e bf83 c3bd 0a8f 30be
000001c0: dea0 1dbe 2832 8fbe 8995 843e ac3d dcbd
000001d0: c272 033e e48b 60be f723 a2bd 502f d5bd
000001e0: b8e0 e93c 15eb 0ebc 994c d0bd b70f bebd
000001f0: cbd4 713e 0635 94be 58fc e83d fc82 4b3e
00000200: 31a4 d3bd 647f 83bd 31ac 40bd 16a8 623e
00000210: 3d34 a9bd 9a15 41bd 4e39 f1bc c310 043d
00000220: 6426 233e 5655 fb3b e74f 4b3e 40a2 8dbe
00000230: 6c18 1b3d 5d9c d0bd 9fd7 f43d d8d1 493e
00000240: 7981 17be a1e2 293d 7aa9 e23d 1a56 19be
00000250: f3f2 ebbd eabb 8abe f598 143e 8378 183e
00000260: 37f0 473d 74bd b4bd ae26 d73d 1ff9 253d
00000270: 0758 c3bc e048 453e 0317 5d3e a14d 5ebe
00000280: 265c a4bc 52b2 063d 9906 b4bd 6027 d6bb
00000290: 684e 063e 5849 debd 5348 5bbd f21c c43c
000002a0: 96c2 413d 4083 05bd 0f11 803e 8a9c 6b3d
000002b0: b65a 303e 5206 163e edf5 cd3d c424 903e
000002c0: 3f23 0ebd 1036 793e 512d 1f3e 7b09 82bd
000002d0: 64f6 4d3e ce0b 27be a3a3 563e 8598 663d
000002e0: 2478 06be 4446 00be 56ed 37be 08a9 083e
000002f0: 53cc 043d dd3a 89be 981f d8bc 7428 85be
00000300: 4a31 7c3e b7a0 5b3e c195 febd 8a1b 86be
00000310: ddda 29bd fc81 42bd 7b44 eb3d 658f 6d3e
00000320: ec04 5d3e c804 48be 2664 843e 033d f6bd
00000330: c2a5 17be bf49 47bd 9519 8a3d af23 bf3d
00000340: a1d0 173d 3d1b 053e 5238 933e e18c 923e
00000350: fd1a 2a3e c15a 5f3e 2e0e 1a3e b499 2e3d
00000360: d6cb 16be fa5c 8ebe 78a9 1a3b c468 3d3e
00000370: e756 88bd c37f 04be 212e 873e d06b b1bd
00000380: f50b a13d 44b7 513d c027 73be 3c88 bfbb
00000390: 974b 433e 5afd 833e 4b28 66be b13f b13d
000003a0: 08ac 633e fa59 76bd 9303 f3bd 3d6c 8d3e
000003b0: 6200 81bd ec22 153e b60b e73c 5ad9 0d3e
000003c0: 63be 793e e4e4 25be 5e92 12bd a8d9 e33c
000003d0: 6362 e4bd c275 903d 6a29 703e c7df b33d
000003e0: 39c1 943d 510a 39bc 592e 67be dfbe 2bbe
000003f0: c667 41be 2a33 ac3d e34f 453e 9a1f 0f3e

critic.0.bias f4 [256]
-0.10297176 0.058531146 -0.047996897 0.062365755 0.057230316 0.26946583 0.2525788 -0.17685753
-0.28003132 0.14538708 0.05949381 -0.27621266 -0.051378526 -0.015471408 -0.19091713 0.27892536
0.18723448 -0.13012399 -0.19536951 -0.09642265 0.02857354 -0.10300462 0.26633552 -0.070757054
0.16680135 -0.22634128 0.12628488 -0.26674658 0.24261661 -0.026386803 0.2671834 -0.04684006
0.082558595 -0.09396709 0.03211308 0.029475465 0.015530992 0.19792804 0.15045862 0.21456566
-0.25442004 0.010884112 -0.04201191 0.048749797 -0.15952347 -0.059732642 -0.261469 -0.11303159
0.12845944 -0.14921743 -0.28140682 0.28155786 0.27133876 -0.26121652 -0.1281688 -0.25896353
-0.16882162 -0.1106284 -0.03386407 -0.24879578 -0.1984613 -0.19946778 -0.082375504 -0.0029552989
-0.1796981 -0.25080094 -0.21745881 0.091727026 0.26713574 -0.12912172 -0.088661164 -0.058929563
-0.28402072 0.08945268 0.050972294 -0.013267232 -0.15617071 0.26209846 -0.09098995 0.11179907
0.09544784 0.19961931 -0.010377246 0.09730178 -0.017114338 0.032923542 -0.07602493 0.012384997
0.26174724 -0.27910626 -0.13772918 0.016529856 -0.0063880873 0.24832593 0.05884655 0.12797233
-0.10662239 0.19512442 -0.21013628 0.08035526 -0.12227755 -0.14584847 0.11396761 -0.09447791
-0.12990819 0.13940193 0.10135445 -0.024645012 0.120092385 0.107633024 -0.13426358 0.22974725
0.037910867 0.21307103 0.07441908 0.282886 0.14345108 0.17079084 0.24597412 0.07820271
0.16782844 0.05600302 -0.09052817 -0.17814066 -0.28380132 -0.01644457 -0.17084873 -0.06351138
0.22040285 0.247594 0.10649249 -0.11472615 -0.18787558 0.08814335 -0.03275009 -0.06481134
-0.109991714 -0.0033464646 -0.1355354 0.068094864 0.21378285 0.2269593 -0.2717608 -0.18806756
0.24378742 0.27029112 -0.20315021 -0.09143398 0.016448347 0.057206973 0.26889813 0.19316958
-0.23222843 0.06332813 0.21517915 0.11949323 0.15892987 0.27268484 -0.09178925 -0.0669945
-0.26242936 -0.25507736 -0.1091898 0.23653664 -0.09856828 -0.24711262 -0.08693403 0.02722081
0.022740565 0.10481546 0.022814788 -0.17698173 0.06991661 0.12529628 0.13090704 -0.10486975
-0.2099774 -0.17661445 0.24812555 -0.24648413 0.02259605 0.12860225 -0.15720476 0.21408977
-0.082405165 0.23085667 -0.22547306 0.20112036 -0.17671934 -0.08250607 0.24560867 -0.020760396
0.08282999 -0.20893565 0.21997958 -0.035532277 -0.17088404 -0.021504562 -0.15811604 0.1544866
0.12663999 0.28525722 -0.15680781 -0.0039076423 -0.06283508 -0.09439395 -0.2523899 0.18132533
0.047924284 0.14901404 0.057233844 0.035392493 0.28164685 -0.16373847 -0.1394378 -0.23492315
0.27773646 -0.23225877 -0.1446267 0.061323617 -0.10379823 -0.1325266 0.025529683 -0.053993564
0.078754425 0.2520684 0.16399461 -0.09629915 -0.25231034 -0.248828 0.24820451 0.07188128
0.21631324 0.07494107 -0.06839339 -0.23911674 -0.19678241 -0.095867366 -0.15296637 -0.23889455
-0.19222161 0.27721962 0.21953525 -0.17371036 -0.24768019 0.11642188 -0.043652054 -0.2723443
-0.0953817 0.034840953 -0.21020967 0.0025174224 -0.13325225 -0.2165182 0.27681845 0.19937833
00000000: dce2 d2bd 5bbe 6f3d 6598 44bd 3c73 7f3d
00000010: 566a 6a3d 6df7 893e 0252 813e 241a 35be
00000020: 4460 8fbe 5ae0 143e c8af 733d bf6b 8dbe
00000030: 4a72 52bd ca7b 7dbc c87f 43be 4ecf 8e3e
00000040: 65ba 3f3e 393f 05be f20e 48be 3d79 c5bd
00000050: 0e13 ea3c 16f4 d2bd 215d 883e 13e9 90bd
00000060: f9cd 2a3e 02c6 67be d350 013e 0293 88be
00000070: 7d70 783e 2329 d8bc 43cc 883e 5ddb 3fbd
00000080: 7b14 a93d d171 c0bd 0189 033d 8876 f13c
00000090: b475 7e3c a6ad 4a3e d311 1a3e 1ab7 5b3e
000000a0: 5843 82be 4653 323c ae14 2cbd dead 473d
000000b0: 1f5a 23be 37aa 74bd 44df 85be 1b7d e7bd
000000c0: df8a 033e 74cc 18be 8e14 90be 5a28 903e
000000d0: eaec 8a3e 2cbe 85be af3e 03be de96 84be
000000e0: 93df 2cbe 2591 e2bd 0db5 0abd 52c4 7ebe
000000f0: 7039 4bbe 4841 4cbe 7db4 a8bd b0ad 41bb
00000100: c702 38be fb68 80be 86ad 5ebe 61db bb3d
00000110: 04c6 883e 7c38 04be fc93 b5bd 2060 71bd
00000120: 2a6b 91be f732 b73d 53c8 503d ce5e 59bc
00000130: 37eb 1fbe c531 863e f058 babd e9f6 e43d
00000140: 287a c33d 0169 4c3e 5305 2abc 2846 c73d
00000150: 5e33 8cbc d6da 063d f5b2 9bbd 71ea 4a3c
00000160: bc03 863e 04e7 8ebe e108 0dbe 9f69 873c
00000170: 2953 d1bb 2749 7e3e 1409 713d 2e0b 033e
00000180: d75c dabd b2ce 473e f72d 57be 4c91 a43d
00000190: a76c fabd 4d59 15be da67 e93d a27d c1bd
000001a0: a706 05be 61bf 0e3e ec92 cf3d 56e4 c9bc
000001b0: fff2 f53d b46e dc3d 647c 09be dd42 6b3e
000001c0: 6d48 1b3d 4b2f 5a3e 0869 983d 6fd6 903e
000001d0: d7e4 123e cbe3 2e3e a4e0 7b3e be28 a03d
000001e0: 38db 2b3e 6c63 653d d566 b9bd 816a 36be
000001f0: 684e 91be c3b6 86bc f8f2 2ebe 4112 82bd
00000200: 49b1 613e 4889 7d3e bc18 da3d 8bf5 eabd
00000210: 7562 40be 8084 b43d f524 06bd cfbb 84bd
00000220: 5643 e1bd 5c50 5bbb cbc9 0abe 5275 8b3d
00000230: e4e9 5a3e 0568 683e 3b24 8bbe c894 40be
00000240: 69a3 793e 9963 8a3e 9c06 50be bd41 bbbd
00000250: afbe 863c dc51 6a3d 04ad 893e 3fce 453e
00000260: 4acd 6dbe 2eb2 813d ec57 5c3e deb8 f43d
00000270: 83be 223e 599d 8b3e 01fc bbbd 6a34 89bd
00000280: 245d 86be 8099 82be e79e dfbd a936 723e
00000290: 2bde c9bd 170b 7dbe 780a b2bd 2dfe de3c
000002a0: 6c4a ba3c 7da9 d63d 14e6 ba3c b33a 35be
000002b0: 7130 8f3d ab4d 003e 7f0c 063e f4c5 d6bd
000002c0: 5104 57be 6bda 34be a014 7e3e 5666 7cbe
000002d0: 5a1b b93c 4fb0 033e 49fa 20be 593a 5b3e
000002e0: 0ac4 a8bd b165 6c3e 69e2 66be 7ff2 4d3e
000002f0: eaf5 34be f1f8 a8bd d780 7b3e b511 aabc
00000300: c5a2 a93d 3af3 55be 5442 613e 4b8a 11bd
00000310: 3afc 2ebe 562a b0bc 2ce9 21be bc31 1e3e
00000320: eaad 013e 3c0d 923e 3a92 20be ae0b 80bb
00000330: aeaf 80bd 9e51 c1bd 4039 81be 59ad 393e
00000340: 414c 443d 2397 183e 096e 6a3d b8f7 103d
00000350: 0434 903e 0fab 27be c8c8 0ebe b28f 70be
00000360: 7933 8e3e 3ed5 6dbe 0619 14be 792e 7b3d
00000370: 2b94 d4bd 0eb5 07be a023 d13c 5b28 5dbd
00000380: 004a a13d 1c0f 813e 34ee 273e 7d38 c5bd
00000390: d22e 81be c4cc 7ebe 5329 7e3e 7e36 933d
000003a0: 3881 5d3e b47a 993d d511 8cbd 05db 74be
000003b0: 5481 49be 1c56 c4bd 37a3 1cbe c6a0 74be
000003c0: bed5 44be bbef 8d3e d9cd 603e 21e1 31be
000003d0: e09f 7dbe 986e ee3d 7fcc 32bd b670 8bbe
000003e0: 7b57 c3bd 63b5 0e3d 3441 57be 57fb 243b
000003f0: 4773 08be f2b6 5dbe 26bb 8d3e d529 4c3e

critic.2.weight f4 [128, 256]
-0.05962448 0.057307657 0.059318174 0.038613666 0.014505304 -0.008310539 -0.042966638 -0.03300581
0.050172344 0.058672175 -0.018978111 0.02346032 0.05842436 -0.055366646 -0.019479522 -0.059825324
-0.031499073 -0.007151342 0.048977967 0.013574792 0.022873225 0.007481997 0.036397982 0.03260921
0.043649465 0.04330632 -0.027545178 -0.056605082 0.04566151 0.029786447 -0.022653552 -0.015149503
0.013976311 0.036223963 -0.036020912 -0.011546294 0.008103294 -0.0011452606 0.014737209 -0.01836071
-0.01085329 -0.019854063 0.010034713 0.00992621 -0.046181764 0.01950899 0.05401206 -0.016103776
0.03535383 -0.051290937 -0.008708013 0.046178017 0.054289427 0.027014868 0.054120515 -0.011862359
-0.05722906 -0.052637443 0.03865828 0.03472307 -0.04898856 0.038136117 0.019184472 0.049676854
0.023283167 0.060543314 -0.014403239 0.026760234 -0.061475527 0.051081713 -0.011274457 0.0037674059
0.00782408 0.0089852875 -0.016584134 -0.018354403 0.046214778 -0.016505092 -0.00042213424 0.040791374
0.05257791 -0.04730239 -0.0034788512 0.010273202 0.017281696 -0.010912773 0.013788523 0.0075689126
0.020481594 -0.044166338 0.004988624 -0.03281874 0.04695816 -0.0252316 0.005583623 0.042766728
0.050342586 -0.048577126 -0.048458483 0.0027079033 0.028867317 0.021232147 -0.022956776 0.054982632
0.05282374 -0.05658278 0.05382923 -0.002876521 0.044657398 0.0189056 -0.00018180018 -0.057371534
0.008568165 -0.009058609 -0.007479038 0.055405248 0.030875763 0.048696246 0.043978874 -0.038668774
0.04514034 -0.011758876 -0.048625983 0.022465084 -0.033351097 -0.03183048 -0.028181128 0.008343685
0.038018454 0.009066417 0.036724716 0.0005489172 0.05605502 -0.0034379363 -0.057546545 -0.04961402
-0.00991465 -0.012492957 -0.02188409 -0.005357848 0.0067302855 -0.0145222265 0.012524409 -0.009848931
0.0242261 -0.060660835 -0.01582816 0.0051333765 -0.003494508 0.039437596 -0.007377973 -0.010153749
-0.0055408673 -0.020934107 0.005928411 -0.048093796 -0.025795255 0.03658082 0.039548956 -0.041372806
0.038934693 -0.05078036 -0.013048086 -0.0065514855 0.058408316 -0.02971261 0.056378122 -0.020018365
-0.014308295 0.0064468584 -0.019628733 -0.05427328 0.012806669 -0.060330324 -0.030782916 -0.017319795
0.030813841 -0.044347107 0.04884571 0.036427066 -0.01578824 -0.054073323 -0.04795775 -0.053183354
-0.0034323311 -0.038073394 0.044875078 0.05057991 0.0050797747 -0.05971251 -0.0023179504 0.016744263
-0.016111644 0.022734895 0.019357849 -0.06220005 -0.053987697 0.009131509 -0.05939061 -0.03845282
-0.022971245 -0.04866243 -0.02638463 -0.00043775668 -0.055322357 0.0073542716 -0.010477173 0.053388737
0.015447817 0.045111787 -0.006236645 -0.027601054 -0.060133625 -0.019210994 -0.005302494 0.047588743
0.017751219 -0.02744793 -0.013004419 -0.020084323 0.017408706 -0.052876253 -0.05180146 0.015201321
-0.0077441465 0.058494058 -0.02673931 -0.0015811521 0.025577731 -0.038115244 0.04616642 0.06236411
0.039915934 -0.057204317 -0.006579926 -0.021065664 0.04653619 -0.046001367 0.00604539 -0.043038383
0.00065467204 -0.014651853 -0.018215802 -0.05064232 0.059330653 -0.03000085 -0.05462067 0.040622815
-0.061944246 0.021468658 0.043226883 -0.06480242 0.0018031014 -0.0042791995 0.05001889 -0.028302182
00000000: cc38 74bd 6fbb 6a3d 9df7 723d 5d29 1e3d
00000010: a8a7 6d3c ed28 08bc c9fd 2fbd 1a31 07bd
00000020: 8481 4d3d 3c52 703d fc77 9bbc db2f c03c
00000030: 624e 6f3d 23c8 62bd 8593 9fbc 660b 75bd
00000040: 2c05 01bd ce55 eabb 1f9d 483d ce68 5e3c
00000050: a160 bb3c 8a2b f53b 0d16 153d 3c91 053d
00000060: c8c9 323d f861 313d 6da6 e1bc bbda 67bd
00000070: 9007 3b3d b502 f43c f193 b9bc 9f35 78bc
00000080: e6fc 643c 945f 143d aa8a 13bd ab2c 3dbc
00000090: aec3 043c 921c 96ba 5674 713c 3369 96bc
000000a0: ffd1 31bc fda4 a2bc a368 243c 8ba1 223c
000000b0: 1729 3dbd 51d1 9f3c c03b 5d3d 11ec 83bc
000000c0: 2dcf 103d 7216 52bd 0eac 0ebc 2925 3d3d
000000d0: 975e 5e3d 494e dd3c 79ad 5d3d 575a 42bc
000000e0: 0569 6abd 5c9a 57bd 2558 1e3d c739 0e3d
000000f0: 3aa8 48bd 9e34 1c3d c128 9d3c f579 4b3d
00000100: 57bc be3c 44fc 773d 90fb 6bbc 4738 db3c
00000110: c3cd 7bbd 0f3b 513d 80b8 38bc 95e6 763b
00000120: 9230 003c 0737 133c 73db 87bc f95b 96bc
00000130: b54b 3d3d b035 87bc e651 ddb9 db14 273d
00000140: ef5b 573d 27c0 41bd 70fd 63bb ef50 283c
00000150: 5892 8d3c 7dcb 32bc 42e9 613c a404 f83b
00000160: 04c9 a73c c3e7 34bd 9c77 a33b f16c 06bd
00000170: 3357 403d 80b2 cebc d3f6 b63b 2a2c 2f3d
00000180: 0734 4e3d cff8 46bd 677c 46bd 1477 313b
00000190: 277b ec3c 0aef ad3c d90f bcbc 7835 613d
000001a0: b55d 583d 58c3 67bd 0a7c 5c3d 0484 3cbb
000001b0: adea 363d ebdf 9a3c 9da1 3eb9 6afe 6abd
000001c0: 7d61 0c3c 8f6a 14bc b812 f5bb 9df0 623d
000001d0: 2bef fc3c b775 473d 3123 343d 2663 1ebd
000001e0: 14e5 383d 4da8 40bc 0a2c 47bd b208 b83c
000001f0: 299b 08bd ad60 02bd 1cdc e6bc f4b3 083c
00000200: 3db9 1b3d 4f8b 143c a86c 163d 36e5 0f3a
00000210: f399 653d 004f 61bb edb5 6bbd 1238 4bbd
00000220: 0e71 22bc 42af 4cbc 4346 b3bc e390 afbb
00000230: ba89 dc3b a2ee 6dbc 2e33 4d3c 695d 21bc
00000240: d075 c63c 7f77 78bd 0faa 81bc e235 a83b
00000250: 1e04 65bb 5189 213d ecc2 f1bb e95b 26bc
00000260: 2a90 b5bb 017e abbc 1e43 c23b 00fe 44bd
00000270: 9250 d3bc c5d5 153d 16fe 213d 8876 29bd
00000280: fc79 1f3d 11ff 4fbd a4c7 55bc d8ad d6bb
00000290: 8f3d 6f3d dc67 f3bc bfec 663d 8efd a3bc
000002a0: 576d 6abc 2b40 d33b 70cc a0bc a94d 5ebd
000002b0: 10d3 513c ee1c 77bd 742c fcbc 3ee2 8dbc
000002c0: 4f6d fc3c 50a5 35bd 7012 483d 8c34 153d
000002d0: 5756 81bc fd7b 5dbd 586f 44bd cad6 59bd
000002e0: f6f0 60bb d9f2 1bbd eece 373d e12c 4f3d
000002f0: 3d74 a63b 1b95 74bd c1e8 17bb 442b 893c
00000300: 91fc 83bc 883e ba3c 5a94 9e3c 7bc5 7ebd
00000310: 3422 5dbd 539c 153c 9143 73bd b480 1dbd
00000320: 312e bcbc 4252 47bd 9424 d8bc b582 e5b9
00000330: b299 62bd 1afc f03b 73a8 2bbc 26ae 5a3d
00000340: d718 7d3c 23c7 383d c55c ccbb 9b1b e2bc
00000350: ad4e 76bd 6060 9dbc 8bc0 adbb 6aec 423d
00000360: 016b 913c 7bda e0bc 7d10 55bc e187 a4bc
00000370: b49c 8e3c c594 58bd c52d 54bd f60e 793c
00000380: 9cc2 fdbb 7797 6f3d 660c dbbc a93e cfba
00000390: 6488 d13c bb1e 1cbd 0019 3d3d 8271 7f3d
000003a0: e47e 233d 134f 6abd 6b9c d7bb e691 acbc
000003b0: bb9c 3e3d ee6b 3cbd 6818 c63b 0449 30bd
000003c0: 4c9e 2b3a 530e 70bc 4e39 95bc 526e 4fbd
000003d0: b304 733d 58c4 f5bc ecb9 5fbd 1c64 263d
000003e0: 40b9 7dbd 0adf af3c ac0e 313d 22b7 84bd
000003f0: 0b56 ec3a 8738 8cbb 9ce0 4c3d fad9 e7bc
