policy/PPO_fail/checkpoints/2025-09-10_12-12/best_0.55.pth (torch, 258431 bytes, 33 tensors)

actor.0.weight f4 [128, 12]
000000 c7 a9 8c 3d ba 91 23 3e 88 56 2b be 01 53 4d be
       0.0686832 0.15973559 -0.16732228 -0.20051195
000010 5c 6a 5e 3e cc 1b 8a 3d 6e 00 19 be 18 10 8e be
       0.2172026 0.06743583 -0.1494157 -0.27746654
000020 ac 7c f7 3c 31 76 93 3d 58 f5 33 3d 72 64 87 be
       0.030210815 0.072002776 0.04393515 -0.2644382
000030 ac 63 2b bd 14 df e7 3d 4d 86 7e 3e 12 97 74 be
       -0.0418431 0.11321846 0.24855919 -0.23885754
000040 74 31 6c 3e 98 00 72 be cc 8b 91 3e 64 f8 59 be
       0.2306574 -0.23633039 0.2842697 -0.2128616
000050 cd 7b 90 be 2b db 24 3e 51 fa 89 be 8a f2 ab bd
       -0.28219453 0.16099231 -0.2694879 -0.0839587
000060 fc a9 2e 3d 94 77 8b 3e 36 62 a3 3d 48 24 f7 bd
       0.04264258 0.27239668 0.079777166 -0.12067467
000070 ce 17 4b 3e 2f 54 6b 3e 84 cb 61 bd d2 1d a1 bb
       0.198333 0.22981332 -0.05512573 -0.004916885
000080 60 4d 5c 3e 05 b1 83 be 08 e1 68 3e 33 f3 6e 3e
       0.21513891 -0.25720993 0.22742093 0.2333496
000090 23 68 e3 3d 9c 6b 89 bc 42 62 19 bd b6 43 44 be
       0.11103847 -0.016774945 -0.03744722 -0.19166455
0000a0 39 69 6e 3e b4 c0 8c 3e 64 ab bd 3d 2e b8 21 be
       0.23282327 0.2749077 0.09261206 -0.15792915
0000b0 00 45 82 be ec bf 39 be bc 84 8f be 6c a4 85 be
       -0.25443268 -0.18139619 -0.28030956 -0.26102006
0000c0 ed 47 ce bb 47 f0 75 3e 74 60 67 be 57 9a 88 3e
       -0.0062951953 0.2401744 -0.22595388 0.26680252
0000d0 d5 12 24 3e 69 10 0c 3c 26 13 75 be 38 a7 6d 3d
       0.16022809 0.008548834 -0.23933086 0.0580208
0000e0 11 f9 5f bd 0a 74 41 be 6b be b1 bd 5c 08 7f be
       -0.054680888 -0.18891922 -0.086788975 -0.24905533
0000f0 98 97 44 3c 53 61 34 bc dd d1 79 3e 19 47 13 be
       0.011999033 -0.011009532 0.24396463 -0.1438259
000100 77 d1 6b be 2a c3 c8 3d 82 0d 4c be 8b 40 6e bd
       -0.23029123 0.098028496 -0.19927028 -0.05816702
000110 84 ef 5d 3e 51 62 36 bc b2 c6 b3 3d 6d ea 5b be
       0.21673399 -0.011131839 0.087781325 -0.21476145
000120 cc ed e0 3c 7a e3 56 be e6 3b 20 bd 3f 74 67 3b
       0.02745714 -0.20985213 -0.039119624 0.003531709
000130 a3 ca ab bd 91 17 d7 bc 13 9b 9b bd 5f d2 6e 3e
       -0.08388259 -0.026256355 -0.075979374 0.23322438
000140 5e 6d 53 bd 2a af be 3d f2 13 d3 3d 1e e9 8e be
       -0.051617973 0.09310754 0.10306539 -0.2791223
000150 e7 48 41 3d 10 98 c2 3d 99 6a 68 bd 9f 82 20 3d
       0.047188666 0.0950166 -0.056742284 0.03918707
000160 19 c8 02 3e 1a 1e 53 bd ec 55 21 be 4e 76 d5 3d
       0.12771644 -0.05154238 -0.15755433 0.104229555
000170 3a a5 3b 3e 9a 1f 7f 3e 81 a2 f5 3c ee ca 9e 3d
       0.18324748 0.24914399 0.029984714 0.077535495
000180 c1 70 5f 3e ad bd 0f be 91 19 e8 3d 09 b3 68 bd
       0.21820356 -0.140372 0.113330014 -0.056811366
000190 92 32 90 be 05 88 80 3e be ce 47 be 6a 78 89 be
       -0.28163582 0.25103775 -0.1951246 -0.2684968
0001a0 a4 45 4e be 07 46 a0 3d 51 13 4a be ef 72 89 3e
       -0.20143753 0.07825857 -0.19733931 0.268455
0001b0 4b 51 84 be c5 07 87 be b7 3f 75 3e 96 ac df 3b
       -0.25843272 -0.26373115 0.23950087 0.006825994
0001c0 6d 9e 7e bd b8 fb 92 be 1a 60 21 bd 30 87 17 bd
       -0.062162805 -0.2870767 -0.03939829 -0.03699416
0001d0 44 86 01 3e e6 b9 d7 3d 09 ca d2 3d be 9d 85 3e
       0.12648875 0.10533504 0.102924414 0.2609691
0001e0 bb 98 38 3e fc 8e 7a bd 1a 16 8b bc c8 ff c6 bc
       0.18027012 -0.061171517 -0.016978312 -0.024291888
0001f0 54 15 54 be f0 c4 35 3d 6e d5 75 be 27 98 7f 3e
       -0.20711261 0.044377267 -0.24007198 0.24960385
000200 9c c2 8c 3e ad 22 64 be 27 a5 3d be 0c c6 8d 3e
       0.27492225 -0.22278853 -0.18520032 0.2769016
000210 37 e9 1e bc 24 87 3e 3e a4 dc 80 3e c3 5e 6f be
       -0.009699157 0.1860624 0.25168335 -0.23375992
000220 e1 a4 4f be 4e 70 da bc 11 d9 1c be ea 55 0b 3e
       -0.2027774 -0.02666488 -0.1531718 0.13606992
000230 8b 18 82 3e 86 fc b6 3d bc 11 75 3e ab ca 36 3e
       0.2540935 0.08934884 0.23932546 0.17850749
000240 a7 16 ac 3d 67 c7 7d 3e d5 b8 6b be 06 94 d6 bd
       0.08402758 0.24783097 -0.23019727 -0.10477452
000250 d5 da 08 3e 00 b6 8c 3e d6 d7 40 3e 64 6c 82 3e
       0.13364728 0.27482605 0.18832335 0.2547332
000260 7b fe 33 3e 66 11 6d be b5 5d e0 3d e8 40 bd bd
       0.17577545 -0.23151168 0.10955373 -0.092408955
000270 67 78 8a be 45 71 8b 3e f2 f7 80 3c 97 9c 5a bb
       -0.27044985 0.27234855 0.01574323 -0.0033357495
000280 fd d7 ee 3d 47 7c e1 bd 45 57 52 3e de 90 18 3d
       0.1166229 -0.11010032 0.20541103 0.03724753
000290 e8 b8 9d bc 40 4a 88 3e 9d 46 0e 3e ce c7 ae 3d
       -0.01925321 0.26619148 0.13894124 0.085342035
0002a0 82 e2 b9 bd 3c 24 66 be fc c3 81 be 8c 2e 06 3e
       -0.09076406 -0.2247476 -0.25344837 0.13103694
0002b0 60 48 19 3d ed 5f c2 3d 9d f2 5a bd 01 b5 03 be
       0.037422538 0.09490953 -0.05345403 -0.12862016
0002c0 74 83 54 3e 59 c5 33 be 8b 3b 70 3e 96 75 0b be
       0.2075327 -0.17555751 0.23460214 -0.13619074
0002d0 cb 90 81 be 80 8a b9 3d b2 07 95 bd cc 9a b1 bc
       -0.2530578 0.0905962 -0.072768584 -0.021680258
0002e0 6f 5d 1c 3e ec 7c 70 3e be 15 3e be 5a 47 0c 3e
       0.15270017 0.23485154 -0.18562981 0.13699093
0002f0 55 98 dc 3d c6 13 91 3e 1a ae 82 be d8 be 86 bd
       0.107712425 0.28335398 -0.25523454 -0.06579369
000300 24 3c 85 3e 8f 7b 07 bc 2b ec 72 3e 3e d5 8d 3e
       0.26022446 -0.008269205 0.23722903 0.27701753
000310 a0 76 33 bd ba 92 20 be 13 fc 4d 3e a3 28 0b 3e
       -0.0438143 -0.15680972 0.2011569 0.1358972
000320 54 74 c4 3d 33 90 80 be e2 1f 3e 3c 8f a1 31 3e
       0.095925 -0.25110015 0.011604281 0.17346786
000330 57 82 4f 3e fe c4 2b be 5a bb ad 3d 83 26 fd bc
       0.20264564 -0.16774365 0.08483 -0.030902153
000340 ce 08 38 be 03 b2 02 be 85 0b 0d 3e 90 d3 50 be
       -0.17972109 -0.12763219 0.13773926 -0.20393205
000350 b6 14 4e 3e ed f5 db bd e6 6e 70 3e 85 ba 8e be
       0.20125088 -0.10740266 0.23479804 -0.27876678
000360 39 17 be 3c 23 3e 2a 3d 03 33 ec 3d 66 3c d7 3d
       0.023204433 0.041563164 0.11533167 0.10509567
000370 d2 ff 0c be 50 52 0c 3e 85 7e 39 3e 24 e3 ef 3d
       -0.13769463 0.13703275 0.1811467 0.117132455
000380 25 9b 23 3d 9e 0e 1e bd 40 e1 f0 3c 36 e9 60 be
       0.03994288 -0.03858816 0.029404283 -0.21963963
000390 8a 43 d9 3d 55 b5 3c 3e 58 d0 31 bd aa 84 06 be
       0.10608585 0.18428548 -0.043411583 -0.13136545
0003a0 63 e2 39 be d8 e9 25 3e 17 83 25 3e 10 b5 5d be
       -0.18152766 0.16202486 0.16163288 -0.21651101
0003b0 ff a9 06 be b9 13 8f be b2 b4 62 3e ec 0b 6f 3d
       -0.13150786 -0.27944735 0.22139242 0.05836098
0003c0 8f 26 84 3e 07 db c2 bd 8a 71 ff bd ad e3 89 bd
       0.25810668 -0.095144324 -0.12472828 -0.06732879
0003d0 cf 33 44 be 68 6c d9 3d 62 c8 77 3e 66 9c 7c 3e
       -0.19160388 0.1061638 0.24197534 0.24669036
0003e0 13 3d 84 bd 20 86 56 be 1c 61 4d be 37 90 d4 3d
       -0.064569615 -0.20949602 -0.20056576 0.10379069
0003f0 5a d4 43 be 76 9a 53 3e 94 74 68 3e 76 e2 49 be
       -0.19123974 0.20664391 0.22700721 -0.19715294

actor.0.bias f4 [128]
000000 17 e6 d8 bd 87 bc 8b 3e d1 96 7a 3e 4c 7b 92 3e
       -0.10590761 0.27292272 0.24471594 0.28609693
000010 3d 76 a4 bd a5 94 73 be 18 62 7b 3e 90 3f 5e 3e
       -0.08030365 -0.23787172 0.24549139 0.21703935
000020 f0 69 fa bd dc 04 a6 bd 15 54 d0 3d e9 d6 77 be
       -0.12227237 -0.081063956 0.101722874 -0.24203075
000030 28 b3 81 be ec 11 1e be 0e ed 00 bd 23 16 15 3e
       -0.25331998 -0.15436524 -0.031476073 0.14559226
000040 d3 60 9c bb c4 0d dc 3d ef f3 6b 3e 3e f7 d0 bc
       -0.0047722845 0.10744813 0.23042272 -0.02550852
000050 8d eb fa bc f6 b5 8c 3e fa e4 2b be 31 a2 80 3d
       -0.030629897 0.27482575 -0.16786566 0.062809356
000060 ba 4b 83 3e b1 42 83 3e 5f d8 cb bb d0 23 07 be
       0.25643712 0.2563682 -0.006220862 -0.13197255
000070 e9 03 4b 3e f2 0f 26 bd 5b 50 78 be d0 59 01 3d
       0.1982571 -0.04054255 -0.24249403 0.031579792
000080 4e 45 6a be a0 47 f1 3c bb d3 23 3e 3a cd c6 3d
       -0.22878 0.029453099 0.15998738 0.097071126
000090 5e 6a 58 3c 52 c9 5e bd 2d fd 17 3e 05 ce 92 3e
       0.013208954 -0.054391213 0.14842673 0.28672805
0000a0 6a a7 73 bd 25 b5 71 be 6e b1 01 be 16 44 59 3d
       -0.05948583 -0.23604257 -0.1266534 0.053043447
0000b0 83 bb 2c bb 8b 67 58 3e b3 86 88 3e e8 73 f1 3d
       -0.0026356883 0.21133249 0.26665267 0.117896855
0000c0 48 eb 5f 3e 13 64 a1 3d da 62 bb bd fe f2 c5 bd
       0.21867096 0.07880416 -0.09149714 -0.09665488
0000d0 a8 90 86 3e f7 03 25 3e 98 a4 04 bc 2e f9 d8 3d
       0.2628224 0.16114794 -0.008095883 0.10594402
0000e0 47 67 fe 3d 58 5c 68 3d 8b 4d a2 bc 2c 7c 7e 3d
       0.12422042 0.05672869 -0.019812366 0.06213014
0000f0 2f 38 82 3e 7e 71 84 be 77 f5 b8 bd c2 f0 62 3e
       0.2543349 -0.25867838 -0.09031194 0.22162154
000100 9a 42 a4 3d 55 47 59 bc f9 76 17 be e9 d0 52 3e
       0.08020516 -0.013261636 -0.14791478 0.20587505
000110 1d 3e 90 3e a6 76 3b 3d b5 e4 8e 3e 26 8e 2e be
       0.2817239 0.04576745 0.27908865 -0.17046413
000120 98 32 12 be 3d c8 13 3d cf 63 90 be 85 82 8f bc
       -0.14277112 0.036079634 -0.28201148 -0.017518291
000130 00 23 e3 bd 63 3b 3f bc fa b4 2a be 5d bf e6 3d
       -0.1109066 -0.011671874 -0.166706 0.112669684
000140 8c fc 82 bd ea 6b ff 3c f3 86 dd 3d 56 fb 76 3e
       -0.06395826 0.031179387 0.10816755 0.24119315
000150 bd 5b 87 be f5 09 08 be 8f 30 80 be fb 57 e5 bc
       -0.26437178 -0.13285048 -0.25037047 -0.027996054
000160 83 f3 58 3e 9b f5 12 3e 48 99 6e be 1e 32 0d 3e
       0.21186642 0.14351504 -0.2330066 0.1378865
000170 1f 3d 55 be 69 81 8d 3c 11 ca 6f be e2 c7 04 be
       -0.20824097 0.017273622 -0.23416926 -0.12966874
000180 eb cd 74 bd 45 7e 80 bd 92 dc 55 3c 47 1e 6e be
       -0.05976669 -0.06274084 0.013053076 -0.23253737
000190 d4 d6 1a be 3a 19 e3 3d ea f3 52 be 7f 54 80 3d
       -0.15121013 0.11088796 -0.20600858 0.06266116
0001a0 fb 53 9c 3c 73 1d 62 be 1f 01 24 3e 77 dd 82 3e
       0.019083014 -0.22081546 0.16016053 0.2555959
0001b0 c8 74 f1 3d de 1a fb bd fc 0a 25 3e 1a 18 e1 3c
       0.117898524 -0.12260984 0.16117471 0.027477313
0001c0 f8 8f 3e be 8e ff 04 be 30 bf 6b be 12 bb 17 bd
       -0.18609607 -0.12988111 -0.23022151 -0.03704364
0001d0 64 e2 b9 bd 23 2e 5c be 73 06 a8 bb d4 4b 55 3e
       -0.09076384 -0.21501975 -0.005127722 0.20829707
0001e0 82 7b 27 3e 0a 9d d7 bd cc 2d 6e 3e 74 5c fc bd
       0.16355708 -0.10528 0.23259658 -0.123223215
0001f0 30 26 36 3c b6 39 57 3e a4 73 97 bd f9 30 56 be
       0.011117503 0.21018109 -0.073951036 -0.20917119

actor.2.weight f4 [64, 128]
000000 ba 00 a5 bd 37 28 15 bc d6 38 ad 3d 0b 32 b0 3d
       -0.08056779 -0.009103826 0.08458106 0.08603295
000010 f2 d5 87 bc 32 6e 90 3d 2c 98 00 3d 80 f7 84 bd
       -0.01658151 0.07052268 0.031395122 -0.064925194
000020 45 c9 65 bd 0f c9 88 bd b0 37 5d 3d b9 b5 97 bc
       -0.05610015 -0.06678974 0.054008186 -0.01851927
000030 8f 7b 36 3d d7 d8 9b 3d 48 1a 9b 3b e3 77 57 bd
       0.04455143 0.07609718 0.0047333576 -0.052604567
000040 c0 03 42 3d 9e 93 4c 3c 00 b0 e4 bc 39 25 ad 3d
       0.047366858 0.012486367 -0.027915955 0.08454365
000050 33 96 aa bd 2e 13 66 3d 17 c9 80 3d 98 d6 f7 bb
       -0.083294295 0.056170635 0.06288355 -0.0075634234
000060 71 a1 82 3d d0 01 eb bc 21 86 b3 3d 95 ee a8 3d
       0.06378449 -0.028687388 0.087658174 0.08248631
000070 82 a9 02 3c 91 0d 16 bd a6 cb 0d 3d 56 a4 92 3d
       0.007974984 -0.03663403 0.034618042 0.07160251
000080 a3 91 9e bc cb bf 8c 3d 86 84 64 3d 08 76 4a bd
       -0.019356554 0.06872519 0.055790447 -0.04942897
000090 65 13 38 3d 2c 93 89 3d a8 f1 3b 3d d5 f1 9f bd
       0.04494037 0.06717524 0.04588476 -0.07809798
0000a0 d4 ed ac 3d b0 8a 3f 3b 3d 8c 96 3c c8 44 af 3b
       0.084437996 0.0029226951 0.018377418 0.0053487755
0000b0 ef 50 3a 3c 4c 23 a9 3d 3c a9 ab bd 50 38 87 bc
       0.011371835 0.082586855 -0.08381888 -0.016506344
0000c0 da 35 8f 3d 21 ba 5f 3d 3f 7d 46 bd 85 39 35 3d
       0.06992693 0.054620866 -0.048459288 0.044244308
0000d0 34 9f 61 3d aa 8b 0f 3d 4d d0 68 3d d9 0a 61 3d
       0.05508347 0.035045303 0.056839276 0.054941986
0000e0 f7 0a 3d 3b 2b 43 b8 bc a2 38 b3 bd 0c b2 2c 3d
       0.0028845647 -0.022492966 -0.08751036 0.042161986
0000f0 9b 5b ca 3a 45 14 49 bc 66 df 33 3c 0c 9f f6 3c
       0.0015438678 -0.012272899 0.010978555 0.030105136
000100 fa a5 59 bc 6a 1a 12 bd d2 d7 d5 3b 8b f8 55 bd
       -0.013284201 -0.03566972 0.006525972 -0.052238982
000110 66 c7 90 3d 0d 8a ee bc 00 8d 53 3c 9d 55 b1 bd
       0.07069282 -0.029118562 0.012912035 -0.086589076
000120 51 b2 c8 3c 3a 62 0f 3d 19 b8 1b 3b ee 27 10 3d
       0.02449909 0.035005786 0.0023760854 0.03519433
000130 08 31 35 3d 8a 3b 3c 3d cf 6c 28 bd 4c 9f 97 bc
       0.044236213 0.04595522 -0.041119393 -0.018508576
000140 dd 0f aa bd 2e c9 44 3d c7 ff 01 3d aa 8c 93 3d
       -0.08303807 0.048043422 0.03173807 0.07204564
000150 fe b2 75 3d 12 ff 16 bd 3f b2 a5 bd 31 c0 81 bd
       0.059985153 -0.036864348 -0.08090638 -0.06335486
000160 23 7e 46 3c 8a 37 5b 3d 54 98 3e 3c 7c f3 63 3c
       0.012115034 0.053519763 0.011632998 0.013913032
000170 c0 dc 3b 3d 15 8e 88 3d fa 2b 03 3d 8e 29 93 bc
       0.04586482 0.06667725 0.03202436 -0.01796415
000180 a9 db e2 bc 58 80 8c bd a0 4c 99 3d 18 26 fa 3c
       -0.027692633 -0.06860417 0.07485318 0.030535743
000190 2f e6 8d bd e6 28 a8 3d c0 95 82 3d ec 24 92 bd
       -0.0692867 0.08210926 0.06376219 -0.071359485
0001a0 f0 4b 6d 3b a1 92 7c 3d 1c 39 53 3d d2 d1 dc 3c
       0.0036208592 0.061663274 0.051568136 0.026955519
0001b0 36 a9 92 bd 12 69 a1 bd e6 58 5d 3d c9 bb a7 bd
       -0.07161181 -0.07881369 0.05403986 -0.08190114
0001c0 62 74 75 3d 75 56 ad 3d ae 48 72 bd 89 57 a4 3c
       0.059925444 0.08463756 -0.059151344 0.020061271
0001d0 66 51 62 3d 0b e8 0d bd e3 3a 97 3d b0 e6 0e 3d
       0.05525341 -0.03464512 0.073842786 0.03488797
0001e0 70 61 95 bc 8e 74 8a bd 5c 19 60 3d 60 90 5d bc
       -0.018234938 -0.06760512 0.054711685 -0.013523191
0001f0 a1 10 0b bd e7 2a 7b 3c fe f3 48 3d bf 57 2b 3d
       -0.033951405 0.015330053 0.049060814 0.041831728
000200 1d cd 91 3d de 5e 07 bd e0 b4 23 3d f6 3c 94 bd
       0.071192004 -0.033049457 0.039967418 -0.0723819
000210 0c e7 54 3d f7 53 c5 3c 6c 33 52 bd b5 42 9e bd
       0.051978156 0.02408789 -0.05131857 -0.07727567
000220 13 e4 9e 3c cf e1 95 ba a6 1f 7a bd c3 66 46 bd
       0.019395864 -0.0011435094 -0.06106534 -0.048437845
000230 e0 3a 38 bd 31 05 79 3d 29 9c d0 3c 99 21 a2 bd
       -0.044978023 0.060795967 0.025465088 -0.079165645
000240 71 03 af bd 97 0a a9 3d 8d cf 01 3d 9a 6a aa bd
       -0.08545578 0.08253973 0.031692076 -0.08321114
000250 c0 eb f4 3c 1a 88 e7 3b 68 12 25 bd b1 34 a6 bc
       0.02989757 0.007065785 -0.040300757 -0.020288797
000260 e1 34 a2 bd 17 0f 8a bd 0d fd 1c 3d 3b 31 d6 3c
       -0.07920242 -0.067411594 0.038327266 0.026146522
000270 bc ba 77 bd 89 e1 14 ba 9f 85 ca bc 67 f7 76 bc
       -0.06048082 -0.00056793593 -0.024721919 -0.015073634
000280 70 65 6a 3d e1 71 32 3d 29 11 20 bd 3e 12 b1 3b
       0.057225645 0.043565635 -0.039078865 0.005403786
000290 27 2a a8 bd 98 52 78 3b c0 b6 4a 3d 5f ac ec 3c
       -0.08211165 0.0037891027 0.04949069 0.028890787
0002a0 6e 03 32 bd f5 60 08 bc 4d da 0c bd 1e ad 39 3d
       -0.043460302 -0.008323898 -0.034387875 0.045331113
0002b0 53 f3 8f 3d 72 b4 83 3d c6 49 0a bc 8d 2c 34 3d
       0.07028832 0.064309016 -0.0084404405 0.0439878
0002c0 32 d9 1a 3d c1 d8 93 3d eb a8 0e 3d 5b 2e aa bc
       0.03780479 0.07219077 0.03482906 -0.020774057
0002d0 70 07 24 bd 00 09 21 3c 8d 49 65 3d 3d cf 4f bb
       -0.040046155 0.009828806 0.055978347 -0.0031709217
0002e0 cf eb 52 bd f0 c2 ac 3d 30 b9 7c bc 66 c3 b3 3d
       -0.051494416 0.08435619 -0.0154250115 0.08777504
0002f0 b1 c4 61 bd 2c be 16 3d 87 2a fc bc 55 5f 99 3d
       -0.05511922 0.036802456 -0.030781997 0.07488886
000300 59 bf 24 bc 61 5d 9b 3d 1b 05 36 3d c4 cb fa bc
       -0.010055386 0.0758617 0.044438463 -0.030614741
000310 82 f3 4c bd a9 e7 16 3d 04 26 37 3d 5a 24 64 bc
       -0.050036915 0.036842022 0.04471399 -0.0139246825
000320 bb 90 97 3d 21 f7 b0 bd 8d e0 19 bd e4 1c 72 3d
       0.07400652 -0.08640886 -0.037567664 0.059109583
000330 5c 25 45 bd b4 52 c5 bc cb d4 be bb ee de 71 3d
       -0.04813133 -0.024087287 -0.0058237067 0.059050493
000340 b5 f7 99 bd 61 c1 79 bc 49 46 3c bd 63 d5 9a 3d
       -0.075179495 -0.015243859 -0.045965467 0.075602315
000350 ec 7b 57 3d 03 3b b1 bc 05 17 a7 bd a5 5d 6c bb
       0.052608415 -0.021634584 -0.081586875 -0.0036066559
000360 5a 42 b0 3d e5 bc 80 bd ca 9d 7b 3d d5 fa ce 3c
       0.086064056 -0.06286029 0.061429776 0.02526609
000370 b0 d2 26 bc 28 56 7b bd 0b 04 94 3d 20 0c 20 bd
       -0.010182068 -0.061361462 0.07227334 -0.039074063
000380 fe 60 5e bd c3 f9 49 bd dc bc 7e bd ec ef 1e 3d
       -0.054291718 -0.049310457 -0.06219183 0.038803026
000390 18 c7 c5 bc b8 db 29 3c 0c 30 51 3d fe 8b 06 bd
       -0.024142787 0.010367326 0.05107121 -0.03284835
0003a0 fb f0 0d bd b3 90 89 3c 68 4a ba bc 21 9d 3f 3c
       -0.034653645 0.01679263 -0.022740558 0.011695177
0003b0 c7 63 17 bd ff b4 9c bc d6 6b 17 bd d5 13 8b bd
       -0.03696039 -0.019129274 -0.036968075 -0.06790892
0003c0 e1 14 a0 3d e2 2b ee 3c df 1d 52 3d bd 99 76 ba
       0.07816482 0.02907366 0.05129802 -0.0009407064
0003d0 0a ec 9b bd 7b 03 9c 3d 71 82 73 bd 04 fe 3c 3d
       -0.0761338 0.07617851 -0.05945057 0.046140686
0003e0 3d c8 ea bc 5a 40 13 3d 86 ca b3 3c 82 f6 1b bd
       -0.028659934 0.035950042 0.021947157 -0.038076885
0003f0 e0 bf 03 3d 6d a8 13 3c 72 d6 2b 3d bb 1d 92 3d
       0.032165408 0.009012324 0.041952558 0.07134577

actor.2.bias f4 [64]
000000 2b 78 54 bd 66 88 86 bc 55 b5 76 3c 62 1e aa bd
       -0.051872414 -0.016422462 0.015057881 -0.08306576
000010 f6 00 62 3d 26 9d bc b8 35 43 79 3d aa 55 6c bd
       0.055176698 -8.99381e-05 0.06085511 -0.057698883
000020 c6 ce 56 3d 14 24 13 3d 49 84 56 bc 5a be a3 ba
       0.05244329 0.03592308 -0.013093063 -0.0012492642
000030 a8 df 7a 3d 4c 3f 42 3d 34 fd dd 3c cc 6b ca 3b
       0.06124845 0.047423646 0.027098276 0.006177401
000040 6d 10 02 bd 3a b2 88 3c 27 3c 6d bd 12 0e a6 3d
       -0.031753946 0.016686548 -0.057918694 0.081081524
000050 24 ce 94 bd 31 03 87 3d 99 26 42 3d d1 15 a3 bb
       -0.07265881 0.065924056 0.04740009 -0.004976966
000060 15 15 9d 3c c8 ff b1 bd 51 76 cb 3c ff c7 ad 3b
       0.019175092 -0.086913645 0.024836691 0.0053033824
000070 53 aa 22 bd a1 73 0d bd 3d 94 8c 3c b6 16 03 bd
       -0.039713215 -0.0345341 0.01716053 -0.03200408
000080 26 f7 47 3d 23 32 3e bd e1 4f 97 bc 57 75 f8 3c
       0.048819683 -0.046434533 -0.018470706 0.03032939
000090 53 ad a3 bc 03 3a 88 bc c3 1d 15 bd 1a cb 95 3d
       -0.019980108 -0.016629225 -0.036405336 0.07314129
0000a0 65 a7 04 3c a1 5f 35 3d 88 d6 2c 3c 32 97 a2 3d
       0.008096551 0.044280652 0.010549195 0.079389945
0000b0 a3 cf a2 bd b3 a2 cc bc 9d bd bb 3c af e2 4c 3d
       -0.0794976 -0.024979925 0.022917563 0.05002087
0000c0 74 ad fe bc 0c f8 ff 3b 50 88 1d 3d 1d 79 88 3d
       -0.031088568 0.007811552 0.038460076 0.066637255
0000d0 b9 1f 63 bd 06 fe 81 bd c0 2f 6e 3d c5 1e 94 3d
       -0.055450175 -0.06347279 0.058151007 0.07232431
0000e0 d9 d8 f7 3c a0 52 40 bc c0 04 7d bc c8 15 22 3c
       0.030254768 -0.011738449 -0.015443027 0.009892888
0000f0 4c 59 26 3c 42 ad 37 3d 8c 90 12 bd 6c bd c8 bc
       0.010153126 0.044842966 -0.035782382 -0.024504386

actor.4.weight f4 [6, 64]
000000 f0 e4 a2 3d fa 5c 76 3d 0c 16 8a 3d a6 4a ab 3d
       0.079538226 0.060147263 0.06742486 0.083638474
000010 0d 5f 91 3d 03 79 aa bd 43 ff 23 3c fc e8 46 3d
       0.070982076 -0.083238624 0.01000959 0.048562035
000020 9a 8b 0c bc 2a df 86 bd 1e 35 5e bc 67 da dd bd
       -0.0085782055 -0.06585534 -0.013562469 -0.108326726
000030 35 0b 12 3d 71 ea 67 3d b0 bd c1 3a 94 b9 4b bc
       0.03565522 0.056620065 0.0014781263 -0.012434382
000040 be 6a fa 3d b9 c2 7e 3d 44 01 b2 3d c8 c9 ee bd
       0.12227391 0.06219742 0.08691648 -0.116595805
000050 c3 28 2c 3c 5c 1d 63 bd 99 0d 9d 3d b6 e9 8a 3c
       0.010507765 -0.05544792 0.07668609 0.016957145
000060 ef 75 0b 3d b0 1d 66 bd 91 69 4b bd 8f c7 07 3d
       0.034048017 -0.056180656 -0.049661223 0.0331493
000070 ed 12 31 3c dc b5 8e bb 47 b9 f0 bc 4c 3a e9 bd
       0.010807735 -0.0043551754 -0.029385222 -0.11388072
000080 40 90 eb 3d 41 3a d8 3d ee 54 9c 3d 60 50 e5 bc
       0.11502123 0.10557986 0.076333866 -0.027992427
000090 38 fe 4f 3d fc 6a b1 bd b4 07 b6 bd 76 ba 94 3d
       0.05077955 -0.08662984 -0.08888188 0.07262127
0000a0 7d 71 22 bd 9d 60 1e 3d d3 54 08 bc d2 4d 7c bb
       -0.039659012 0.038666356 -0.008321005 -0.0038498533
0000b0 ef eb 52 bd 68 b1 2e bd f6 92 d4 3d f2 53 f5 bd
       -0.051494535 -0.042649657 0.10379593 -0.11978902
0000c0 a3 fe d3 3d 30 84 4d 3d ed 6f ab bc bc 34 fe 3b
       0.103513025 0.050174892 -0.020927394 0.0077577513
0000d0 07 a4 b7 bd 13 b8 af 3d 4a 32 80 bd 19 d3 90 bd
       -0.089668326 0.08580031 -0.06259592 -0.07071514
0000e0 09 dd b5 bd 1e 7c 6c bd d3 3e f2 3d 5e 88 fe 3d
       -0.0888005 -0.057735555 0.11828389 0.12428354
0000f0 e4 30 0b bd 14 be e1 3d 9e 45 f4 bb 5c 01 ad 3d
       -0.033982173 0.11022583 -0.007454588 0.08447525
000100 8a 2e fb bd b9 03 84 bd 23 e9 87 bc 22 4b a7 3d
       -0.12264736 -0.064460225 -0.01659066 0.08168627
000110 25 02 f7 bc 51 66 dd bd d3 05 ef bd 67 08 68 bd
       -0.03015239 -0.10810531 -0.11671033 -0.056648638
000120 92 40 42 3d 36 0a 52 3d eb 71 68 3c b5 75 2b bd
       0.04742486 0.05127927 0.014187316 -0.0418603
000130 63 1a 30 3d ca 15 30 bd c3 05 18 3d 25 ed be bc
       0.042993914 -0.04298953 0.03711487 -0.023306439
000140 c2 a3 c1 3d 39 fa b6 3d a6 ab ae bd 7e 37 ed bd
       0.094550624 0.08934445 -0.08528833 -0.1158285
000150 29 3f af bd 3a ea f1 bd 94 e1 fd 3d a6 03 37 3d
       -0.08556969 -0.11812253 0.12396541 0.044681214
000160 0b 96 ba 3d 28 e0 09 bd e0 6f 93 bd 62 10 46 3d
       0.0911065 -0.033661038 -0.07199073 0.048355468
000170 5d 65 e5 bd 91 4f 74 bd f6 3f d4 bc b4 4b cb bd
       -0.11200974 -0.059646193 -0.025909405 -0.099265486
000180 b0 60 fa bd d3 7a 13 3d aa 7e f2 3d 3b 52 f2 bc
       -0.12225473 0.036005806 0.118405655 -0.029580226
000190 96 3c 8b bd e5 f7 9a bd 1d 50 94 3a 81 7b 03 bd
       -0.06798665 -0.075668134 0.001131538 -0.032100204
0001a0 a4 37 0c 3d 0f 55 97 ba cc c6 a0 3d 09 b6 0e bd
       0.03423275 -0.0011545735 0.078504175 -0.03484157
0001b0 78 cd 79 3d 0a 84 9e bb 71 d7 52 bd 1b 6f 79 bd
       0.060986966 -0.0048375176 -0.051474992 -0.060896974
0001c0 ab a2 a4 bd e7 5b 43 bd 85 e5 9b 3d 35 34 d8 bd
       -0.08038839 -0.047695067 0.07612137 -0.10556833
0001d0 e6 18 47 bd bc 83 97 bd c6 15 9b bc 3e aa f0 3c
       -0.04860773 -0.07398173 -0.01893128 0.029378053
0001e0 c9 b6 f7 bd 55 6d 9b bd ae 31 e1 3d ea 45 a7 3c
       -0.120954104 -0.07589213 0.10995804 0.02041908
0001f0 40 3f 92 bd 2e 09 af 3d d3 84 99 bc 07 f4 c5 bd
       -0.0714097 0.08546673 -0.018740093 -0.09665685
000200 cc d0 01 bd 60 73 60 bd 50 63 c6 3d 8f 6c bf bc
       -0.031693265 -0.05479753 0.09686911 -0.023367194
000210 15 b0 f0 3d de 02 99 bc b4 e5 ee bd 00 57 99 3d
       0.11752335 -0.018678125 -0.11664906 0.07487297
000220 90 92 8c 3d 02 ad 5a 3d 9a f8 2d 3b 4a af bf 3d
       0.06863892 0.05338765 0.0026545883 0.093596056
000230 7b 2b e0 3d cc 52 b3 3d 22 e9 b5 ba 4e f5 7e bd
       0.10945793 0.087560266 -0.0013878683 -0.06224566
000240 85 d4 e5 bc 93 f7 14 bd 72 10 a0 bd 0b 27 bb 3d
       -0.028055439 -0.036368918 -0.07815637 0.09138306
000250 af 60 94 3b 60 1b 07 bd 27 68 d1 bd 8d 94 a9 bc
       0.004528127 -0.03298509 -0.102249436 -0.020700717
000260 67 d4 c3 3d 20 d9 11 3c 1a a1 ba 3c 3d 72 bb 3d
       0.09561997 0.008901864 0.022781897 0.091526486
000270 52 1e dd 3d d3 06 88 3d bc 87 a8 3d cf 6c d2 3d
       0.10796799 0.066419266 0.08229014 0.1027466
000280 46 83 f1 3b 0b 98 c5 bc f9 ea d2 3d 47 31 d7 3c
       0.0073703853 -0.024120351 0.10298724 0.026268614
000290 8e f2 b0 3d fb 41 ff 3d 4f 0d 27 bc 75 f2 9e 3d
       0.08640014 0.12463757 -0.010196044 0.07761089
0002a0 7f 29 b3 3d 59 67 cd 3c 0c 7d 4c bd 75 d5 c0 3d
       0.08748149 0.025073694 -0.04992394 0.09415714
0002b0 35 5e 0c bc ea 88 d2 3d 18 fe 66 bc c3 de b6 bd
       -0.008567383 0.102800205 -0.014098667 -0.08929207
0002c0 9f 98 0a 3d 96 17 28 bd e7 bc 8b 3d 93 bb 9c 3d
       0.033836957 -0.04103812 0.0682314 0.076529644
0002d0 51 28 a2 3d 18 6b 96 3d c2 8c 94 3c 8b 9e 0e bc
       0.07917846 0.07344645 0.018133525 -0.008704792
0002e0 82 29 51 bc 0d 0c e8 3c 20 1f 09 3d 22 d5 88 3c
       -0.012766244 0.028326059 0.03347695 0.016703192
0002f0 88 27 91 3d 9c d9 f7 3d 3f 17 32 bd 74 c3 64 bc
       0.07087618 0.121020526 -0.0434792 -0.013962615
000300 55 42 6f bc 95 3e b5 bd e5 53 83 bd 36 8f c3 bc
       -0.014603217 -0.08849827 -0.06412486 -0.023872
000310 68 23 86 3c 98 fb b8 3d 3b b4 ef 3c c2 f4 61 bd
       0.016374305 0.09032363 0.029260745 -0.05516506
000320 78 a4 dc 3c 37 a8 e2 bd 35 b1 01 3d f6 f7 e4 bd
       0.026933894 -0.11067241 0.03166314 -0.11180107
000330 88 b5 e1 3d 3b 0d bb 3c 10 1f cb 3d 96 92 69 bd
       0.110209525 0.022833457 0.09918034 -0.05702456
000340 92 7f ac 3d 9c 4b f3 3b 98 fb 51 3d 10 5c fb 3b
       0.084227696 0.007424785 0.05126533 0.007670887
000350 8e 14 b4 3d 2c 14 ca 3d fc 07 b0 bc b3 77 d6 3d
       0.08792983 0.09867129 -0.021488182 0.104720496
000360 7c 68 bf 3d be 08 59 bd f3 41 eb 3c d9 44 66 3d
       0.09346101 -0.052986853 0.02871797 0.056218002
000370 02 ff 31 bd b0 bc 65 bc 83 e9 b9 bd 53 89 92 bd
       -0.043456085 -0.014022037 -0.09077742 -0.07155099
000380 33 8b ee bc d6 24 02 3d d6 44 98 3d f4 dc c8 3c
       -0.02911911 0.03177341 0.074350044 0.024519421
000390 85 db 36 3d 9e 2a f5 bd f1 a9 8b 3b 7e 18 82 3d
       0.044642944 -0.11971019 0.004262202 0.06352328
0003a0 97 d3 3f bd 7a 96 b0 bd 45 82 c1 bd 1c 8b a4 bc
       -0.046832647 -0.08622451 -0.09448675 -0.020085864
0003b0 85 7f 12 bd a6 bd b5 3d 27 fd c3 bd 06 4b de b9
       -0.035766143 0.08874063 -0.09569769 -0.00042399036
0003c0 d8 da d3 3d eb 66 de 39 70 d4 43 3d d1 e0 ef 3d
       0.103444755 0.0004241982 0.047810018 0.11712802
0003d0 d7 8c 3c 3d 2e f3 ae 3c b9 8d a9 bd d5 6c 92 bb
       0.046032753 0.021356191 -0.082789846 -0.00446854
0003e0 c0 a5 b6 3d 84 16 59 bc 4b 8c 44 bd 52 7c 75 3d
       0.08918333 -0.013249997 -0.047985356 0.059933014
0003f0 15 7b 04 bd c4 32 10 3d 85 15 25 bd 9a 2d 7c 3d
       -0.032343943 0.035204664 -0.040303726 0.061566927

actor.4.bias f4 [6]
000000 04 37 46 3c fe 26 1e 3d 1a 95 95 bd 22 fc 29 3a
       0.012098078 0.038611405 -0.073038295 0.0006484409
000010 63 56 08 3d b8 86 e1 3c
       0.03328551 0.02753006

critic.0.weight f4 [128, 12]
000000 a9 71 56 be 13 d1 93 3e 0b 74 69 3d fb 8a 17 3d
       -0.20941795 0.28870448 0.056995433 0.036997776
000010 62 1b a6 3d b5 8c 58 3e 04 48 f1 3c be 3b d7 bd
       0.081106916 0.21147425 0.029453285 -0.10509442
000020 51 fe 77 be 15 67 53 bc 63 76 8c 3d 31 1f dc bd
       -0.24218108 -0.012902995 0.06858518 -0.10748137
000030 a9 0b 14 be a3 20 86 bd 69 4f ce bd a9 32 89 3e
       -0.14457573 -0.06549194 -0.1007374 0.26796463
000040 13 06 5a 3e 45 44 f1 bc 64 1d 1c 3e c9 25 4d be
       0.2129138 -0.029451499 0.15245587 -0.20033945
000050 6e c0 8d 3e 58 d9 47 3e 0c 70 a5 bd 57 38 29 be
       0.27685875 0.19516504 -0.08078012 -0.16525398
000060 77 00 22 3e 6e e6 d7 bd 5f 14 6e 3e 05 21 36 3e
       0.1582049 -0.10541998 0.23249958 0.17786033
000070 e1 2f c1 bc 2f ab da bd f7 51 2d 3d 3d fc 85 bc
       -0.0235824 -0.10677182 0.042314496 -0.016355628
000080 84 60 3e bd ec ca b3 bd dc d9 fa bc 79 58 52 3e
       -0.046478763 -0.08778939 -0.030621462 0.20541562
000090 d7 0f 16 3e cb db 83 3e 24 82 3a 3e c5 01 26 be
       0.1465448 0.25753626 0.18213707 -0.16211613
0000a0 2d 6e 63 be 7a 4b 92 bd ff 7e 95 bd 3d d0 81 3e
       -0.22209997 -0.07143302 -0.07299613 0.25354186
0000b0 29 a9 41 be 46 5e 1a 3e 0e a5 48 bd 6e 31 54 3e
       -0.18912186 0.15075025 -0.048985533 0.20721981
0000c0 f0 ec 8b 3e f3 96 21 be f8 25 d6 3d a6 53 37 3e
       0.27329206 -0.15780239 0.10456461 0.17903003
0000d0 78 4b d2 3b 1f 77 37 bd 35 26 6a be 0d 0b 5a 3d
       0.006417688 -0.044791337 -0.22866137 0.053233195
0000e0 17 68 75 3e 5e 37 03 3e f4 1c 70 3e 52 65 73 3e
       0.23965488 0.1281409 0.23448545 0.2376912
0000f0 e3 66 2e be 4e ed 22 bd 15 cf f7 bd 01 a1 d9 bd
       -0.17031436 -0.039777093 -0.12100045 -0.10626412
000100 86 fb 91 bc 17 c8 7f 3d 8c 51 66 be 01 a4 82 3d
       -0.017820131 0.06244668 -0.22492045 0.063789375
000110 e5 ce 08 3e cd cd db 3d d8 92 c7 3d 5f a0 32 3e
       0.13360174 0.10732613 0.09744805 0.17443989
000120 d8 31 67 be fc da 2a be aa 56 59 3e 68 29 09 be
       -0.22577608 -0.16685098 0.21224466 -0.13394701
000130 33 99 82 bd b3 bc a3 3c 5b 0b 75 3e 15 03 03 3e
       -0.06376877 0.01998744 0.23930113 0.12794144
000140 81 eb 02 be 9a 8c 4b 3e de e1 88 be f0 5f ee 3c
       -0.1278515 0.19877854 -0.26734823 0.029098481
000150 4b 84 e0 bd 63 ae 22 be ad 4e 4f 3d 7a e8 3c 3e
       -0.10962733 -0.15886836 0.05061214 0.18448058
000160 fe c9 6e 3e e2 8c 82 be 04 0c 95 bd 27 cb 81 be
       0.23319241 -0.2549811 -0.072776824 -0.25350305
000170 31 2f 5c 3e ae 39 fd bd 3c 98 6c be 52 9b 84 be
       0.21502377 -0.12364517 -0.23104948 -0.2589975
000180 b9 5d 60 bd 73 60 39 3e 6a 6d ee 3d d9 e6 b4 3d
       -0.05477688 0.18103199 0.11641963 0.08833093
000190 ae 19 e9 3d 77 7e 55 be c5 83 d9 3d ad b8 33 3e
       0.11381851 -0.20849024 0.10620836 0.17550917
0001a0 10 a3 87 3d 36 fa 35 be b3 17 85 3e e5 7a 01 bc
       0.066228986 -0.17771229 0.25994644 -0.0079028355
0001b0 ef c7 05 3e fb 2f 7a be 51 b7 47 bd b6 9a 89 3e
       0.1306455 -0.24432366 -0.04875881 0.26875848
0001c0 00 6d 12 bd 17 4f 1b 3e 46 fc bf 3d 04 3a 3c 3e
       -0.03574848 0.15166889 0.09374289 0.18381506
0001d0 68 f9 94 bd d6 c2 21 3e 0d ec b0 bd a9 9b 09 bd
       -0.07274133 0.1579698 -0.08638773 -0.033595715
0001e0 f7 4d 6a be 9b 00 57 3e 21 4a 10 3d 8b bd 4e 3e
       -0.22881304 0.20996325 0.035226945 0.20189492
0001f0 51 d3 5c bd 45 ea ac bd 72 90 9f bd 4c 03 8c 3e
       -0.053912465 -0.08443121 -0.07791223 0.27346265
000200 11 d3 33 bc b8 53 02 3e 00 c8 8d 3e f1 74 51 3e
       -0.010975615 0.12727249 0.2769165 0.20454766
000210 f5 ad 01 bd 51 d9 54 bd 51 8b 77 3e 72 3a 8a be
       -0.03166004 -0.05196506 0.24174239 -0.26997715
000220 9d 3e 75 bd e2 96 8c be 3c 66 8a be d7 64 2d bc
       -0.059874166 -0.27458864 -0.27031124 -0.010583124
000230 40 f6 b0 bd 06 42 70 bd c0 8e 80 bd 7a 68 54 bd
       -0.086407185 -0.058656715 -0.062772274 -0.05185745
000240 8d b5 f2 bb b2 fe 80 3d 4f f2 3e 3e cc 2c 8a 3e
       -0.0074068964 0.06298579 0.18647121 0.26987302
000250 1b 27 e5 bd b9 a8 ba bd 74 10 90 3e ed dc 0c be
       -0.111890994 -0.091142125 0.28137553 -0.13756151
000260 0e 04 75 be a4 62 43 be 43 58 79 be 93 63 47 be
       -0.23927328 -0.19080597 -0.24350075 -0.19471578
000270 86 15 83 be 2a 0d 11 bd 93 16 4b be 3f ac ff bd
       -0.2560236 -0.035412945 -0.1983283 -0.12484025
000280 c3 fd e1 bd 75 31 5d be d7 8c 94 bc ff 0f bf 3d
       -0.11034729 -0.21600898 -0.018133564 0.09329223
000290 87 d3 92 be 93 18 00 be d7 f7 da 3c 60 89 6c 3d
       -0.28677008 -0.12509374 0.026729507 0.0577482
0002a0 f8 ad 33 3e 3c 84 95 bd e6 f3 8a 3d 96 c9 16 3e
       0.17546833 -0.07300612 0.06784801 0.14725336
0002b0 c6 8a 21 3e 8b 8b 4d 3e 1d 26 b1 bc 24 ba fe bc
       0.15775594 0.20072763 -0.02162462 -0.031094618
0002c0 48 e4 f5 3c d5 34 ce bd d9 2d 9e bd 9a 06 74 3e
       0.03001608 -0.10068671 -0.077235885 0.23830643
0002d0 9a 42 6c 3e ae 17 b3 bd 53 61 32 be b9 87 82 be
       0.23072281 -0.08744751 -0.17419939 -0.25494173
0002e0 fb 22 35 3e dd e1 ae bd f5 7e 8a 3d 12 e4 5f be
       0.17689125 -0.08539174 0.067624964 -0.21864346
0002f0 dd 3f 8f be fd 35 45 be 46 be 8b 3d 61 86 aa bd
       -0.2797841 -0.19258876 0.06823401 -0.08326412
000300 d5 cc f5 3d 9e 7c 86 3d 15 68 8c be 71 cf 87 3e
       0.12001959 0.065667376 -0.27423158 0.26525453
000310 c0 a9 03 be fc 8a 18 3c 4e 6c 2d be 5c ac a2 3d
       -0.12857723 0.00931048 -0.16935846 0.07943031
000320 da 8a 2c 3e 55 18 0e be 60 cf ea 3d 8d 76 22 be
       0.16849843 -0.1387647 0.11465335 -0.15865536
000330 91 62 7b 3e a3 84 84 be 2c f5 4c 3e 16 9d 4f 3e
       0.24549319 -0.25882444 0.200154 0.20274767
000340 d0 cc 69 be 93 22 33 be 62 ed 19 be 8d e5 5d be
       -0.22832036 -0.17493658 -0.1503196 -0.21669598
000350 3a 97 8c 3e fd 44 db 3d 18 a8 0a be 41 ea fa 3d
       0.27459127 0.10706518 -0.13540685 0.12251712
000360 f9 d2 4e be 1b c4 08 be f2 5b 75 be 5f 73 f4 bd
       -0.20197667 -0.13356058 -0.23960856 -0.11936068
000370 d3 ee 65 3e 5b c5 59 be 4d 1a 79 3e a4 31 35 be
       0.22454385 -0.21266691 0.24326439 -0.17694718
000380 fc df 44 be 58 e8 ac bd 19 b8 c6 3d e9 1d 1b 3d
       -0.19226068 -0.084427536 0.097030826 0.03787032
000390 b2 f0 19 be 71 2c 92 3e 81 3e 73 be 6a 85 e7 3b
       -0.15033224 0.2854953 -0.23754312 0.0070654647
0003a0 56 e1 f5 3c 37 6c 28 3e 4b 86 95 3d 13 fd bc 3d
       0.030014675 0.1644753 0.07301005 0.092279576
0003b0 47 e0 04 bd ec a5 a2 3d d4 8d 31 3e 4b 44 0f 3e
       -0.03244045 0.07941803 0.1733926 0.13990895
0003c0 13 61 4c 3b 61 27 1c 3c 6b 03 07 be e9 57 8e be
       0.003118579 0.009530873 -0.13184898 -0.27801445
0003d0 76 30 e9 bb 89 d3 8d 3e 3a a3 8a be 52 e7 bb bd
       -0.0071163727 0.2770045 -0.27077657 -0.0917498
0003e0 c0 a0 d2 bd bf f3 f5 3d a8 b7 0e 3e e9 dd 8b bd
       -0.10284567 0.120093815 0.13937247 -0.068294354
0003f0 5c ae 8c 3e ae ab 7c bd f1 1c fe 3c 02 ad 4d 3e
       0.27476776 -0.061687164 0.03101966 0.20085528

critic.0.bias f4 [128]
000000 53 3a 41 3e 07 7f 76 3e 67 1c 1b 3e a8 03 8d 3e
       0.18869905 0.24071895 0.15147553 0.27541852
000010 1c 67 e9 3d 28 21 a4 bd f7 5b 36 3e 56 67 92 bd
       0.1139662 -0.080141366 0.1780852 -0.07148616
000020 04 b2 69 be 9c 2c 2b 3e fa 19 9b 3b 64 2b 84 3e
       -0.22821814 0.16716236 0.0047333213 0.25814354
000030 fd 98 b3 bd 2d 11 38 3e 92 6a 67 bc 7a 48 36 be
       -0.087694146 0.17975302 -0.014124529 -0.17801085
000040 f9 8c 4c be 74 97 ed 3d 9e 75 6d bd 79 2e ad bd
       -0.19975652 0.11601153 -0.057973497 -0.084561296
000050 02 79 93 3d 30 f6 04 3d 09 28 93 be 48 3a ed 3c
       0.07200815 0.032461345 -0.28741482 0.028958455
000060 76 24 8a be c1 78 47 be 8a 97 19 3e ae 2a e1 bd
       -0.26980942 -0.19479658 0.14999214 -0.10994469
000070 8f 84 78 be 35 85 73 3e ab a5 6a bd dd 67 69 be
       -0.24269317 0.23781283 -0.0572869 -0.22793527
000080 49 76 79 3e 41 39 50 3e 29 29 8f 3d 66 16 8b be
       0.24361528 0.2033434 0.069902726 -0.27165526
000090 0b f1 3d be f9 b0 86 be 96 0b 60 3c 16 bb 3a 3e
       -0.18548982 -0.26306894 0.013674637 0.1823543
0000a0 8c eb b7 bc 80 c8 74 3e c7 f3 5c 3e 45 e7 48 be
       -0.022451185 0.2390461 0.21577369 -0.19619472
0000b0 41 71 2d bc 32 cb 83 bd 08 80 7b bd 2f 84 31 be
       -0.010586084 -0.06435241 -0.061401397 -0.1733558
0000c0 c4 b3 76 3e af e6 1c be 67 8d 5e be df c5 88 be
       0.24092013 -0.15322374 -0.21733628 -0.26713464
0000d0 31 c7 b9 bd 77 d5 1b be 2a 11 5c be ce 81 36 be
       -0.09071196 -0.15218149 -0.21490923 -0.17822954
0000e0 16 6a c8 3c 19 b4 5c be e7 4c 64 3e 94 fb 83 be
       0.024464648 -0.21553077 0.22294961 -0.25777876
0000f0 15 e3 01 be 14 7e 79 bd 57 44 75 3e 1d 8b 93 3e
       -0.12684281 -0.060911253 0.23951851 0.28817073
000100 24 81 87 be cb cc 82 be c5 f9 1d 3e af f3 0f 3e
       -0.26465714 -0.2554687 0.15427311 0.14057802
000110 c2 03 87 be f6 50 80 3e a2 2f ad bc e9 4f b6 3c
       -0.26370054 0.25061768 -0.021140877 0.022254901
000120 78 b3 04 3e c2 46 37 3e f2 12 31 3d 6d 17 2a be
       0.12959087 0.17898086 0.04323096 -0.16610499
000130 fb 7e 11 be 1d ef 70 3e 63 8b 42 be 7f ae 59 be
       -0.14208595 0.23528714 -0.18998484 -0.21257971
000140 5c c5 44 3d d5 6e 87 bd 1a 6e 8b 3e 4e a2 3a be
       0.04803978 -0.066129364 0.27232438 -0.18225977
000150 61 00 7d 3d d3 a9 8d be ce 29 ef bd 65 b0 89 be
       0.06176794 -0.27668628 -0.116778955 -0.2689239
000160 73 29 fb 3d 2c d8 85 3e 38 cf 51 be a5 5c c2 bd
       0.12263765 0.2614149 -0.20489204 -0.09490327
000170 ac 60 87 3e ce 3d 80 3e 2d f3 01 3e 5c 54 6c be
       0.26440942 0.25047153 0.1269042 -0.23079056
000180 22 0c 04 bd d8 21 b7 3d 77 69 49 be 99 45 a2 bd
       -0.032238133 0.08942002 -0.19669138 -0.07923431
000190 03 44 0e be f5 cc 92 3e c5 18 88 bd a5 22 64 3e
       -0.13893132 0.28671995 -0.066453494 0.22278841
0001a0 e8 bc 10 be a8 93 be 3d a6 09 56 bd de 23 71 3e
       -0.14134562 0.09305507 -0.052255295 0.23548838
0001b0 56 69 d0 bd ae 77 5b 3e 50 e8 f8 bd 16 58 14 3e
       -0.10176341 0.21432373 -0.12153685 0.14486727
0001c0 2d e0 b9 3d 56 2c 63 3d 6b e4 cb bd f4 4a c0 3d
       0.09075961 0.055462204 -0.09955677 0.09389296
0001d0 dd ba 8b 3e f5 d7 16 3e 31 f6 c5 bc 38 27 d2 3d
       0.27291003 0.14730819 -0.024165245 0.10261387
0001e0 19 7b 7f 3e 8e ca 6f 3e 60 18 7a 3e e1 7d 9c 3c
       0.24949302 0.23417112 0.24423361 0.019102992
0001f0 65 b1 8d 3d 50 3d 26 be 6d ee 64 be ec 73 32 be
       0.06918601 -0.16234326 -0.22356577 -0.17427033

critic.2.weight f4 [64, 128]
000000 30 7d 88 bd 5d bc 46 bd b3 c6 22 bd 0c e4 8a 3c
       -0.066645026 -0.04851948 -0.039740276 0.016954444
000010 99 ab 8f bd 2a 6d 7b bc e7 2c af bc 2a b2 dc bc
       -0.070151515 -0.015345851 -0.021383716 -0.026940424
000020 5a fd 32 3d 11 dc 93 3d c0 9b 4f 3d b3 a4 55 bd
       0.043698646 0.07219709 0.050685644 -0.052159023
000030 cc ea 2a bd 18 bd a0 3b 57 bb 90 3d 94 47 ae 3d
       -0.041727826 0.004905354 0.07066982 0.08509746
000040 bd c7 87 bd 4b 0c 8d 3d ef 7d 85 bd 75 2e 36 bd
       -0.06629894 0.0688711 -0.065181606 -0.0444779
000050 c5 d9 f1 3c ce 36 ff 3c c6 ab 91 bd 34 ac a2 bd
       0.029522786 0.031154063 -0.07112841 -0.079430014
000060 22 cd 05 bd c4 75 a9 bd 4e f5 a1 bd 81 68 67 bd
       -0.032666333 -0.08274415 -0.07908116 -0.056496147
000070 18 fe ac 3d fa 13 40 ba 9d 80 4c 3c c0 74 71 3d
       0.08446902 -0.00073271955 0.012481836 0.058949232
000080 d5 65 a1 bd bd 1b e4 bb db 91 98 bc da 57 52 3d
       -0.07880751 -0.0069613145 -0.018624237 0.051353313
000090 34 a0 32 bd 33 af 49 3c 23 10 33 3d c3 03 ae bd
       -0.043609813 0.012309837 0.04371656 -0.08496811
0000a0 bd 37 fe 3a 2f de ff bb 7e ce 52 bb 05 c9 59 bb
       0.0019395273 -0.007808469 -0.0032166536 -0.003323139
0000b0 2a c2 81 3d 99 17 82 3c 48 13 a6 bd eb e6 8a 3d
       0.06335862 0.015880393 -0.08109146 0.06782325
0000c0 0c 82 5a 3d 2c 7c 9f 3d a1 17 8d bd 65 0e a6 bd
       0.05334668 0.07787356 -0.068892725 -0.08108214
0000d0 5a ad 0f bd 89 be 12 3d ac a5 00 bd 7c 65 6d 3d
       -0.03507743 0.03582624 -0.031407997 0.05795811
0000e0 21 9c 9f bc ad 99 90 3d 9a ad a4 bc 4e 8b 93 3d
       -0.019483628 0.07060561 -0.02010231 0.07204305
0000f0 09 d2 75 3d d6 46 fd bc 25 c2 77 bd 7a b1 8a 3d
       0.06001476 -0.030917566 -0.060487885 0.06772132
000100 f7 0f ae bd 6b 14 a7 3c 92 67 da bb 55 90 59 bc
       -0.08499139 0.020395478 -0.0066651786 -0.01327904
000110 eb 19 8f 3d 07 10 38 3b 71 dd b3 bc 46 1a c6 3c
       0.06987365 0.0028085725 -0.021956177 0.02418245
000120 60 40 a4 bd 2a 35 1f 3a 49 a0 a2 3c 9c 74 aa 3d
       -0.08020091 0.0006073291 0.01985182 0.08323023
000130 70 c6 cd bb 6c 23 c0 3c a3 b9 30 3d c5 b0 27 3d
       -0.006279759 0.02345439 0.043145787 0.040940065
000140 50 52 8a bd 0e 47 26 3d 0d ae a3 3d 57 8c 13 bc
       -0.06753981 0.040595107 0.07992182 -0.009005628
000150 55 41 88 3d 67 ef e3 bc 49 3e 5c bd bd 15 93 bd
       0.06653086 -0.027824117 -0.053770337 -0.071818806
000160 44 84 a8 3d 37 08 71 bd e1 65 20 3d 41 aa 5e 3d
       0.08228353 -0.058845725 0.03915966 0.054361586
000170 81 7e 26 bd a2 01 92 bd 1a d8 85 3d 81 58 88 bc
       -0.040647987 -0.07129218 0.06535359 -0.016643764
000180 cf 5b 91 bd ee a9 84 3c 53 91 b3 3d 00 9a 88 bc
       -0.07097589 0.01619431 0.08767953 -0.016674995
000190 44 56 78 3c 8a 43 06 bd f4 d1 ee 3c e7 35 e2 bc
       0.015157286 -0.032779254 0.029152848 -0.027613593
0001a0 d5 21 31 bc 30 0a a9 3d 94 40 b4 3c 66 65 b2 bd
       -0.010811289 0.08253896 0.02200345 -0.087107465
0001b0 28 ff 1e 3c e1 6c 25 3c 52 6c a6 bd 2d 01 ed 3a
       0.009704389 0.01009676 -0.08126129 0.0018082015
0001c0 ee c3 a7 3d 77 40 09 bd 18 e6 95 bd d8 8c d9 bc
       0.081916675 -0.033508744 -0.073192775 -0.026556417
0001d0 d9 73 c1 bc 13 f2 ad 3d 5b a4 b8 bb 44 c9 fe bc
       -0.02361481 0.084934376 -0.005634827 -0.03110183
0001e0 39 76 96 bd 0b 20 9f 3d fd 21 49 bd 9e 8d 44 3d
       -0.07346768 0.077697836 -0.04910468 0.04798662
0001f0 7d bf 7e 3c 11 6a a3 3d 13 dd 89 bc d0 26 4b bd
       0.015548584 0.07979215 -0.01682905 -0.04959756
000200 00 68 50 bd ad 7d da bc 67 74 a0 bd f9 88 64 bd
       -0.050880432 -0.026671255 -0.07834702 -0.05579469
000210 4b 13 5d bd a1 29 66 bd e7 62 18 bd 84 ba b1 3c
       -0.053973477 -0.056192044 -0.037203696 0.021695383
000220 23 2c 9e 3b 6d 90 f1 3b 1b b2 34 ba 4a 2a 4a 3d
       0.004827039 0.007371953 -0.0006892995 0.049356736
000230 76 c5 06 3d 96 00 ca bc f3 9e 1b 3b fa 34 8a 3b
       0.032903157 -0.024658483 0.0023745864 0.004217741
000240 17 55 0c bd a7 99 39 bc a1 e2 59 3c f5 87 5d bd
       -0.034260835 -0.0113281375 0.013298661 -0.054084737
000250 c5 ee 9f 3d bb 6b 6d bc 81 52 a1 3d 4e 45 fe 3c
       0.078092135 -0.014491017 0.078770645 0.031038906
000260 0e 5e 3f bd 83 88 14 bd 36 55 a2 bd 14 6a 26 3c
       -0.046720557 -0.036263 -0.07926409 0.010157127
000270 3b a8 84 bc 03 9e 9d 3d b4 e8 8d bd 5a 10 9f bd
       -0.0161935 0.07696154 -0.0692915 -0.07766791
000280 5a ea 47 3d d5 96 66 bd 7c a5 9d 3d d6 88 f2 3b
       0.04880748 -0.05629619 0.07697579 0.007401566
000290 fb 60 4f bd 30 28 95 3d d5 69 81 3d 77 fa 33 bd
       -0.050629597 0.07283056 0.06319014 -0.043940034
0002a0 eb 2b 37 3d c7 de b3 3d 23 ab 38 3c 71 5f a1 bd
       0.044719618 0.08782726 0.011271271 -0.07879532
0002b0 98 39 a1 3d 22 d4 8b bd 03 38 29 bd 86 15 dd bc
       0.07872313 -0.068275705 -0.041313183 -0.026987802
0002c0 65 99 47 bc 81 be 86 bb 42 08 00 3c b8 c0 b4 bd
       -0.012182568 -0.0041120653 0.007814469 -0.08825821
0002d0 e6 2f 82 3d f9 1b 81 3d b7 e6 a9 bd e4 dd d3 3c
       0.06356792 0.063041635 -0.082959585 0.025862642
0002e0 89 06 f3 3b 37 45 a1 bd 68 07 8c bd ce 21 9c 3d
       0.0074165505 -0.0787453 -0.0683735 0.07623635
0002f0 96 96 b0 3d 8d 89 11 bd 84 03 99 3d ff ae 6c bd
       0.08622472 -0.03553157 0.07471374 -0.057784077
000300 c1 c5 a8 bc 61 8d 55 bd 76 43 69 bd 30 1d b3 bd
       -0.020602109 -0.052136783 -0.0569491 -0.087458014
000310 1b c0 d1 3c 1a 67 35 bd 7b f3 6d bc 2f b2 17 bc
       0.025604298 -0.04428778 -0.014523382 -0.009258791
000320 e6 fd 39 bd 85 57 26 bb c2 af a1 3d f3 87 94 bc
       -0.045408152 -0.0025381756 0.07894851 -0.018131232
000330 eb a3 8e 3d cb 95 92 bd 6f c5 31 bb 57 84 e5 3c
       0.069648586 -0.07157477 -0.0027125736 0.028017206
000340 a3 ae 1a bd d2 7a 2a bd 06 cf 80 3d 8d 17 3a 3d
       -0.037764203 -0.041621037 0.062894866 0.045432616
000350 1b b7 28 bd 31 5e e8 3c af 4e 5d bc 36 ee 7a 3d
       -0.041190248 0.028365226 -0.013507529 0.061262332
000360 e8 79 26 3d d9 46 51 bd ce 5b d1 3b 3e c8 ee 3c
       0.040643603 -0.051092956 0.006389118 0.029148217
000370 cc 72 a6 3c 77 c8 fe bc 8d 52 12 bd 1d 96 e7 3c
       0.020318411 -0.031101448 -0.035723258 0.028269822
000380 f0 2b 8b bc 4d ba 02 3d e6 c7 84 bc 63 cb a8 bd
       -0.016988724 0.03191595 -0.0162086 -0.08241918
000390 d7 85 97 bd 34 c0 40 bc 11 95 37 3d 39 49 ff 3c
       -0.07398575 -0.011764575 0.044819895 0.031162845
0003a0 0b 60 2d 3d 0a f3 a0 bd f0 02 f7 bc 7e 4f e7 bb
       0.04232792 -0.07858856 -0.030152768 -0.0070590368
0003b0 c1 26 9f 3d 6d 45 45 3d 9c dd 59 3d a2 1b 90 bd
       0.077710636 0.048161913 0.05318986 -0.070365205
0003c0 8b 4b e7 bc 63 c0 c1 3c 9b 60 d2 3c bd d2 8f bd
       -0.028234264 0.023651307 0.02568083 -0.07022617
0003d0 a3 3b f8 bc 3d 5f 24 3c 01 d9 4d bd 02 f0 40 bd
       -0.030301875 0.010032472 -0.05025578 -0.04710389
0003e0 4a f5 f0 bc 7f 1d a7 3d 65 2e 4c 3c 05 bd af 3d
       -0.029413838 0.08159923 0.012462233 0.085809745
0003f0 3b 01 a5 bd 37 b0 89 bd e1 43 8b bd bc b1 76 bd
       -0.08056875 -0.067230634 -0.06800056 -0.060228094

critic.2.bias f4 [64]
000000 5d d8 50 bd 41 32 37 bd fc 72 ac bd d7 f2 07 bd
       -0.05098759 -0.04472566 -0.08420369 -0.033190574
000010 26 c8 2f bd f3 ca 61 bd 4b d1 a5 bd 15 c8 54 bd
       -0.042915486 -0.055125188 -0.0809656 -0.051948626
000020 11 fe 64 3d 92 05 32 3d 54 7e 15 bd e2 59 53 bd
       0.05590636 0.043462344 -0.03649743 -0.05159939
000030 de d1 78 3d 5d 00 58 bd 8d fc b8 bc 8f 5a 4c bc
       0.06074702 -0.05273472 -0.022581363 -0.012472763
000040 d0 06 57 bd 9c 99 15 3d 84 0a ec b9 44 5b fa bc
       -0.05249673 0.036523446 -0.00045021262 -0.030561097
000050 db 1e fe bc dd 40 af 3d 8b 31 3f 3d 3c 39 4e bd
       -0.031020572 0.085572936 0.046678107 -0.05034755
000060 75 1c 72 bd 49 a6 70 3c ea 2f a9 bd 62 33 ad 3d
       -0.05910917 0.014688083 -0.08261092 0.08457066
000070 2d d5 68 bd db 1c 6a bd 4c 3e b3 bd 6b cd 19 bd
       -0.056843925 -0.057156425 -0.087521166 -0.037549417
000080 71 f8 98 bb fb fc ff bc 5c fa ab 3d 10 7e d7 bc
       -0.0046682884 -0.03124856 0.08397362 -0.026305228
000090 16 ed 27 bd a3 ce a9 3d a9 69 83 bd 11 c6 f3 3c
       -0.040997587 0.08291366 -0.064166375 0.029757531
0000a0 35 c1 ce bb 8c 3b 93 bc bf 3d 95 3d 32 66 18 bd
       -0.006309653 -0.01797273 0.07287168 -0.037206836
0000b0 15 ac ab 3d 23 a7 7f bd 78 1e b0 bd 04 21 75 3d
       0.083824314 -0.062415253 -0.085995615 0.05984594
0000c0 8f c3 6c bc 01 07 90 3d d9 c6 a1 3d b6 b4 1b 3d
       -0.014450922 0.07032586 0.07899255 0.038014136
0000d0 a9 c4 87 bd ec af 57 bd ef af b2 3d e2 f5 60 bd
       -0.06629307 -0.052658007 0.08724963 -0.054921992
0000e0 48 44 2b 3d 19 a0 3e 3d ab 63 9e 3d 62 23 15 bc
       0.041813165 0.0465394 0.07733854 -0.009102674
0000f0 8c b6 86 3d 1a 4e a0 bd ff 80 0e 3d 50 31 e1 bb
       0.06577787 -0.07827397 0.03479099 -0.0068723336

critic.4.weight f4 [1, 64]
000000 99 d7 56 bd e0 30 a6 3d 6d c1 06 3d ea 34 b9 bd
       -0.052451704 0.08114791 0.03289931 -0.09043296
000010 c2 d7 d3 3d 66 59 ec bd 8a 7d ed 3c e1 5a d2 3d
       0.10343887 -0.11540489 0.028990526 0.1027124
000020 ee cd 83 3d 80 28 9d bd 43 9a 6f bd 34 09 89 bd
       0.06435762 -0.076737404 -0.058496725 -0.066912085
000030 98 83 e4 bc 46 3e 3c 3d d8 b0 8d bc 9a 4c ce 3c
       -0.02789478 0.045957826 -0.01729624 0.02518301
000040 6c 29 f3 ba 59 a3 f5 3d 3d e1 99 bd 9b 77 50 bd
       -0.0018551773 0.11994047 -0.07513664 -0.050895315
000050 3f 75 bb 3d 7f 09 9d 3d 8a aa fe 3d c0 c6 b7 3d
       0.09153222 0.07667827 0.124348715 0.089734554
000060 cb b4 ea bd 44 86 56 3c dc cd 0f bd 6f de de bc
       -0.11460265 0.013093535 -0.035108432 -0.027205674
000070 49 2e a9 3c c7 a4 88 bd 7a c8 c5 3d 81 0e 8c bd
       0.020651953 -0.06672054 0.096573785 -0.06838704
000080 b7 1d b0 3d 19 26 86 bc 13 2b 74 3c 1e e1 f4 3d
       0.08599418 -0.016375588 0.014902848 0.11957
000090 27 94 c4 bd 9e 13 27 bd 4b 83 0b 3d 68 56 5b 3c
       -0.0959857 -0.040790193 0.034060758 0.0133873
0000a0 1f e4 fd 3d d0 b4 f3 3d 94 1f 9d 3b ac 19 03 bd
       0.12397026 0.118997216 0.004795024 -0.032006904
0000b0 e6 5d 70 3d 02 b3 df bd c8 80 ae 3d 1b c1 c8 bc
       0.0586833 -0.10922815 0.08520657 -0.024506142
0000c0 e3 dc 0d bd 4c 4b f9 bd 12 39 e0 3d bf a2 ee bc
       -0.034634482 -0.12172565 0.10948385 -0.029130338
0000d0 47 d7 3d 3d c1 33 08 bd 6d 01 95 bd 9c 65 95 3d
       0.046347883 -0.03325248 -0.072756626 0.07294771
0000e0 83 38 08 3d a3 ef 54 3d 93 4f 72 bc 64 92 99 bc
       0.03325702 0.051986348 -0.01478948 -0.018746562
0000f0 04 13 68 3c 27 3b e6 3c 17 a1 92 3d ba 6c bb 3c
       0.01416469 0.028104378 0.07159632 0.022878993
