policy/PPO/checkpoints/2025-10-09_20-33/ppo_soarm_3000.pth (torch, 895437 bytes, 33 tensors)

actor.0.weight f4 [256, 12]
00000000: aa50 133d 47ff 143d ba29 763e 1be6 3fbe
00000010: a43d a03e d9d2 7f3e 28f4 c83d 8451 0dbe
00000020: c8dc adbd aabe 61be b33b f8bd b65f 2f3e
00000030: 8bff 93be e406 2fbd 3942 ca3d e47d 19be
00000040: f9f9 d1be d176 ae3d b723 cdbd dd92 d33d
00000050: c828 f13d e897 823c 678d 72be 2923 973c
00000060: f4a6 9abd c415 03be d213 53bc 7839 a63b
00000070: ed4c 86be 3e87 fcbd b013 f43d dc2f 1cbc
00000080: d78b ff3d b2b2 9bbe 52d8 8abe 6ce2 4a3e
00000090: 1e36 48bd c037 293e f163 563e 4721 daba
000000a0: 0897 8e3e 6031 1a3e 8be9 2c3e a9e7 343e
000000b0: 2dea 41bd ca75 69be c383 0c3e 50bf 27be
000000c0: a82b 423c fd34 5ebe 1b73 13be d76e 69bd
000000d0: 4ab8 c13e 0641 2ebe 461a 9e3d bf0b 343e
000000e0: 3490 053e de4a 97be 54fe 8fbe f5ae 1ebe
000000f0: ae6b 773e 9dca 17be a87a 0cbe b575 3cbe
00000100: e7c6 d0bc 09e8 a83e 7553 153d d188 87bd
00000110: d57f 913e 2d65 193c 1f5c 9dbe 1070 dcbd
00000120: d169 31bd 5676 8b3d 8a7d 663e 8a74 7bbe
00000130: 8b47 52bd 3c3a 583e d3d7 0ebd 2a52 413e
00000140: e038 213e ffe0 8d3e fd88 96be 7211 03bd
00000150: 4129 d23d 9efb 8b3d 5265 2b3e 03b1 163e
00000160: 0791 c3be a0d1 2cbe 6bb1 9dbd d8be 2ebe
00000170: f100 a7bd f9c8 703e 96f9 14be 9eb5 923e
00000180: ecd6 3d3e 0ce8 403e 5af2 413d 6f4b 25bd
00000190: 5baa 3bbe f2d1 3f3c de84 4fbe 2604 523e
000001a0: addf 553e 4c5d 9e3e 8f02 16bd 102f 943e
000001b0: 525b 00be a72a b13d 93d4 2fba 7059 b1bd
000001c0: 18e8 98bc a86a 8ebb 1923 493d 7ae5 f13d
000001d0: ead5 e63d 5b23 f43d 4864 693d 9672 3abe
000001e0: c2d5 15be a470 583e 7e8f 493e 470b efbd
000001f0: 5989 533e 1f44 b13d 1fdf f8bd fed8 613e
00000200: e59c 1bbe 943e 7c3d 7560 003e c779 e43b
00000210: 9825 cabc 10e2 68bd 1de7 92bd 8d9f 683c
00000220: 1e35 89be 59fb 733e 4dd9 183e 2bb9 c83c
00000230: 83f5 533d cfa0 773e 4140 2f3d 6f86 5f3e
00000240: 9b5a 3c3e 1544 f6bc f3c7 283e 878c 863d
00000250: a78f 993d 397e 383c 11b1 a33d 1308 6f3e
00000260: 34e4 b5bb 9ee8 46be 9d36 93bb 9fa4 9d3e
00000270: 1a62 953c 5074 c2bd 06c4 993d f663 923e
00000280: cf12 f9bd c2e5 183e 94c1 303e dfeb ffbd
00000290: b897 913c 7038 b9be 9af9 2bbe ef8c 1dbe
000002a0: a8fc 25bd 4418 4dbe 796d 8e3c 404f ba3d
000002b0: 7a49 56be 33a7 493e 84cc bfbd 0a06 393e
000002c0: 9746 ff3d 9b34 8ebe a366 38be 12ac 303d
000002d0: 57ca 9c3d 1e71 86bd 1ac8 fabd 3e81 cabd
000002e0: ed10 053d d3bd f23d 3fbf 7f3d c0db 463e
000002f0: 76b3 9f3e 39c5 bb3d e81c 243e 4aac 4d3e
00000300: d1f8 edbd 8cbd af3c 725d 9bbd 7f80 70be
00000310: 59c8 73be 185a 83bd 536d 5e3e 6a4b 0b3e
00000320: a690 963d 40b7 053e c7bd dfbd 9b99 45be
00000330: 39c2 4b3e 5b6c 3ebe 9030 0abe 0a50 86be
00000340: 9be2 8a3c ff6a 803d 971c b53d a364 3fbe
00000350: e81a 553d a11e a83c 56fa 90bd ec4e 57be
00000360: db2f 803e 1e3f 7a3e 041c 173e 0612 5abe
00000370: 2bd6 503e 78e5 8e3e 6655 d93d 15a4 fc3d
00000380: 4ed1 fbbd 8017 44be 6440 d7bd f85b 523d
00000390: 382c 9bbd e386 5cbe 277e 43be 5358 77be
000003a0: 9345 a13e 89a0 d7bd f75d 0c3e 997f 1c3e
000003b0: 7e37 263d f3ee b43e 049c 193e febe 4f3e
000003c0: f526 9a3e c449 543e 0afc 94bc 7d0a 0c3e
000003d0: 1a10 a73d 5d3e e0bd bf4c 1ebd 3016 ba3e
000003e0: 97c8 0a3e 04b5 20be 83b4 a4bd 1453 1dbe
000003f0: 8438 79bd ac59 c93d 854f 81bd 0dad 303e
0.0359656 0.036376264 0.24039355 -0.18740122 0.31297028 0.24982776 0.09812194 -0.13800627
-0.08489376 -0.22045389 -0.12120762 0.17126355 -0.289059 -0.04273118 0.09875912 -0.1498943
-0.41011027 0.08518756 -0.10016578 0.10330746 0.117753565 0.015941575 -0.23686753 0.018449383
-0.07551375 -0.12801272 -0.0128831435 0.005072769 -0.26230565 -0.12330483 0.119178176 -0.009532895
0.12477844 -0.3040977 -0.27118164 0.19812936 -0.048879735 0.16525173 0.20936562 -0.0016641997
0.27849603 0.15057898 0.16885965 0.17666496 -0.047342468 -0.22798839 0.13722138 -0.16381574
0.011851229 -0.21699901 -0.14399378 -0.05699047 0.37835914 -0.17016992 0.07719855 0.17582606
0.1304329 -0.29549307 -0.28123724 -0.15496428 0.2416217 -0.14823385 -0.13718665 -0.18404277
-0.025485469 0.3298953 0.036456544 -0.066178925 0.2841784 0.009362501 -0.30734345 -0.10763562
-0.043313805 0.0680968 0.22508827 -0.24556175 -0.05133776 0.21115965 -0.034873795 0.18879
0.15744352 0.2771072 -0.2940139 -0.03199906 0.10261775 0.068351015 0.1673787 0.14715962
-0.38196585 -0.1687684 -0.076998554 -0.17064989 -0.081544764 0.23514165 -0.14548334 0.28654188
0.18539017 0.18838519 0.047350265 -0.040355142 -0.18326704 0.01170777 -0.20265529 0.20509395
0.20886107 0.30930555 -0.036623534 0.28942156 -0.12534836 0.086507134 -0.0006707396 -0.08659637
-0.018665358 -0.0043462105 0.049105737 0.11811347 0.112712696 0.11920806 0.0569804 -0.18207774
-0.14632323 0.21136719 0.19683644 -0.11672073 0.20657863 0.08655571 -0.12151932 0.22055432
-0.1519657 0.061583117 0.12536795 0.006972525 -0.02467613 -0.056856215 -0.071729876 0.014198196
-0.26798338 0.2382635 0.14926644 0.024502357 0.05174781 0.24182437 0.042785887 0.21828626
0.18393938 -0.03006176 0.16482525 0.06569772 0.07498103 0.011260563 0.07992757 0.23342924
-0.0055508856 -0.19424674 -0.0044925944 0.30789658 0.018235255 -0.09494841 0.07508092 0.2859189
-0.121617906 0.14931396 0.17261344 -0.12496161 0.01777254 -0.3617587 -0.16794434 -0.15385793
-0.040524155 -0.20028788 0.017386185 0.09097147 -0.20926467 0.19692688 -0.0936518 0.1806871
0.12464636 -0.2777451 -0.18007903 0.04313285 0.07655781 -0.06564544 -0.122451976 -0.09887932
0.032486845 0.11852612 0.062438246 0.19419765 0.31191605 0.091684766 0.16026652 0.20085254
-0.116197236 0.021452688 -0.07586183 -0.23486517 -0.23806895 -0.064136684 0.21721391 0.13602987
0.07351808 0.13058186 -0.10924869 -0.19296877 0.19898309 -0.18596022 -0.13495088 -0.2623294
0.016953757 0.06270408 0.08843344 -0.18690734 0.052027613 0.020522418 -0.07078998 -0.210262
0.2503651 0.2443814 0.14756781 -0.21295938 0.20394199 0.27909446 0.106119916 0.12335984
-0.12295781 -0.1914959 -0.105103284 0.05135724 -0.075767934 -0.2153583 -0.19091092 -0.24154787
0.31498393 -0.105286665 0.1370772 0.1528305 0.040580265 0.35338554 0.15000921 0.20287701
0.30107847 0.20731264 -0.018186588 0.13675876 0.08157368 -0.10949395 -0.03864741 0.36345053
0.13553081 -0.15694052 -0.080422424 -0.15363723 -0.060844913 0.09831557 -0.06313995 0.17253514

actor.0.bias f4 [256]
00000000: b746 7b3e c139 10be 5acb 113e 0e6d a93d
00000010: a0d4 653e e139 20be 9dcc 823e 481a 51bd
00000020: ec27 8ebe c5a9 0a3d bb8d 9b3d 8c44 febd
00000030: ec21 983d 13f4 e63c d4c7 5e3e e970 b6bd
00000040: 3d13 463d 32e5 433e 6ad2 03be 0c6b 5b39
00000050: 11f2 063d dfe7 0cbe de81 993d 9c96 28ba
00000060: a9b6 f33d 7809 ccbd 3123 bebd fdfd 1cbe
00000070: ba7d 973c 7121 1b3c b62b 67be 4fed 433e
00000080: b71c 833e 2b8d 9cbd 2b3b 83be c0f8 9c3d
00000090: f5a2 c1bd 0f7d 0d3e 7a09 453e c6db 183d
000000a0: a101 6e3e e47d 93bd 4a82 473e 8dc4 2fbe
000000b0: 5768 efbd 3836 283d 5567 283e af55 583e
000000c0: a21a 403b 466d 863e fa8e 20bc 92c7 f23d
000000d0: 2059 08be 7beb d03d 1906 f4bd 0332 0bbe
000000e0: 1418 923e d6b6 65bc beac 55bc 6611 a73d
000000f0: 73ea aabd de41 c93d 160e 9f3d 4f31 25be
00000100: 114b 42bd aa95 073e df4e 99bd 5a5d 353e
00000110: 4cea 7f3d 020f ecbc 9e00 67be 5b45 44be
00000120: 4036 6cbd 5150 f23d de90 9b3d d6e1 183d
00000130: 6b37 c9bd 76e4 4d3e e1b1 3e3d 2ec8 f83c
00000140: db34 c23d 98ba 5bbd 43cc 813e 96a4 69be
00000150: 9a62 51be a8fc f03d 63ad 0d3e e591 423e
00000160: d112 4dbe 1822 0d3e b154 723e 2f92 5dbe
00000170: f6f8 313e 0dda e4bb f97a ea3b 1db6 60bd
00000180: 7b2c 41be 0740 6bbd 7236 6fbe 58b7 833d
00000190: b958 e33d e5c4 803e 1260 853e 1774 82be
000001a0: 16d6 303e 9350 c8bb 4214 2bbe 2e82 913e
000001b0: fcd6 51bd 58bf 22bd e9a2 843b 1c90 0fbe
000001c0: f3d2 d93d 728f 55be 7842 65bd 81d8 513e
000001d0: 5532 10bd 4634 853e db74 83be 7c68 9ebe
000001e0: eeac ba3c 8bc0 91be 1723 603d 0ad9 44be
000001f0: ea13 523e 199e c2bd 8bb2 373e ddba d5bd
00000200: b5c4 a13d 814f a6bd 2df2 e7bc 52ed 5d3e
00000210: 748a b13d 1b98 e3bd 8438 51be 8614 603e
00000220: 7dc9 903e d41c febc 5d38 59be 290b 083d
00000230: 016a f4bd 9e6a 03be 2699 56be 919b 543e
00000240: 27a1 61be c716 15bd ae56 2d3e a162 d73d
00000250: 8502 7abd 13d9 5dbe fa95 843e 8e1b 2b3e
00000260: 27a5 e23d 440a 0dbe 5f36 dfbd 2eea 213d
00000270: 4f26 61be 9bad 073e 7d00 30bc 045e 89be
00000280: 40e2 6cbd aaac eabd 0325 963d a14f 403e
00000290: 0528 733e 89e6 f63c 662b 413e edb0 6c3e
000002a0: fc4e 90be 7cca 103e 2fdd 803e 7332 993d
000002b0: a63e 10be ff1d 5ebd c1bc 51bd 935b 0fbe
000002c0: 89fc a43d c94e 36bc c6f4 bd3d d956 8b3e
000002d0: f00c 6ebd 37e6 683e 0a2a 833d ca03 1d3d
000002e0: 7919 2cbe ce27 e73d 186d 203e e3f8 073e
000002f0: 2084 813d f9ba 2cbb c122 963d 9593 2fbe
00000300: 7d29 3d3e 0eea 653e 007a e0bd 433c 27be
00000310: fa71 aebd 393b f2bd c0b1 e2bd 7676 393e
00000320: 034a 983c 837c 80bd 189e 97bd 6e26 f43d
00000330: 85d1 523e 9214 4b3e bbfc 0b3e 9e8e 213e
00000340: 2c16 0c3e 641b 63be 97ed 3bbe 7062 9d3d
00000350: 8f22 a73d 7a34 fd3d 7e9e 4b3e ef10 b73d
00000360: ccb1 ad3d d408 1b3e f2b0 063e b9d9 17be
00000370: 0ddd 86be f143 5abe 8ec8 3e3e 8c13 44be
00000380: 79f2 4e3e 0425 4ebe 05f7 7c3c aca3 60bd
00000390: f6a4 c2bd 819a 8b3d 8c18 8bbc b386 013e
000003a0: abd2 f3bd f50b d23d f338 2e3d 1b18 203e
000003b0: 162d 96bd cff0 1abc faf1 553e 6e68 973e
000003c0: a866 c43c aed7 44be c8f4 bdbd 17f9 3f3e
000003d0: cdb3 8cbe e888 263d 4e0c 0cbd f2ed 47be
000003e0: bda1 283e e336 053d 093b 82be 608e b2bd
000003f0: 15f6 14be 5833 88be d945 95bd 3f28 273e
0.24538694 -0.14084531 0.14237729 0.08272754 0.22444391 -0.15647079 0.25546733 -0.051050454
-0.27764833 0.03385331 0.07595392 -0.12415418 0.07428345 0.028192556 0.21755916 -0.08908255
0.04835819 0.191304 -0.12873235 0.00020925346 0.032945696 -0.13760327 0.07495473 -0.0006431134
0.11900074 -0.099627435 -0.09284056 -0.15331264 0.018492568 0.009468422 -0.22575268 0.19133495
0.25607845 -0.07644113 -0.2563108 0.07664633 -0.0945491 0.13817237 0.19241896 0.037318967
0.23242809 -0.07201746 0.19483295 -0.17164822 -0.11689823 0.041067332 0.16445668 0.21126436
0.002931275 0.26255244 -0.009799713 0.11854471 -0.13315248 0.10201164 -0.119152255 -0.13593297
0.28533995 -0.014020642 -0.013041673 0.08157615 -0.08345499 0.09827016 0.077663586 -0.16132091
-0.04743487 0.13240686 -0.074857466 0.17711392 0.062479302 -0.02881575 -0.22558829 -0.19167082
-0.057668924 0.118317254 0.075959906 0.03732475 -0.09825023 0.20106682 0.046556357 0.03036889
0.09482738 -0.053644747 0.25351152 -0.22816691 -0.2044777 0.1176694 0.13835673 0.19000967
-0.20026709 0.13782537 0.2366512 -0.21637796 0.17380127 -0.0069840015 0.0071557728 -0.054861177
-0.18864624 -0.057434108 -0.23360613 0.064314544 0.11100907 0.2515022 0.26049858 -0.25479195
0.17269167 -0.006113121 -0.16706946 0.28419632 -0.051230416 -0.03973326 0.0040477407 -0.14019817
0.106359385 -0.20855501 -0.055971593 0.20492746 -0.03520425 0.26016444 -0.2567509 -0.3093909
0.022787537 -0.2846721 0.054720964 -0.19223419 0.20515409 -0.09502811 0.17939202 -0.10436032
0.07898847 -0.08120633 -0.02831372 0.21672562 0.08668986 -0.11112996 -0.20431715 0.21882829
0.28278723 -0.031019606 -0.21212907 0.03321377 -0.11934281 -0.1283364 -0.20956859 0.20762469
-0.22034131 -0.036398675 0.16927597 0.10516859 -0.06103756 -0.21664838 0.25895673 0.1670973
0.110666566 -0.13773447 -0.10899042 0.03952997 -0.2198727 0.13249819 -0.010742304 -0.2682954
-0.057832956 -0.11458714 0.07331278 0.18780376 0.23745735 0.030139225 0.18864211 0.23114367
-0.2818526 0.14139742 0.2516875 0.074803255 -0.14086398 -0.054227825 -0.0512054 -0.13999777
0.0805598 -0.011127182 0.092752025 0.27214697 -0.058117807 0.2274407 0.06404503 0.03833369
-0.16806592 0.11286889 0.15666616 0.13278536 0.06324029 -0.0026356562 0.073308475 -0.17146142
0.18472858 0.22452566 -0.1096077 -0.16331582 -0.08517833 -0.11827702 -0.11069059 0.18111596
0.018589979 -0.06273749 -0.07403201 0.119213924 0.20587738 0.19832066 0.13670628 0.1577706
0.13680333 -0.22178417 -0.18352352 0.07684791 0.081608884 0.12363525 0.19884679 0.08938777
0.08481178 0.15140086 0.13153437 -0.14829148 -0.26340523 -0.2131498 0.18631193 -0.19148082
0.20209683 -0.20131308 0.015439753 -0.05484359 -0.0950412 0.06816579 -0.016979478 0.1264904
-0.11905416 0.10256187 0.04253478 0.15634196 -0.07332818 -0.009456827 0.20893088 0.2957186
0.023974732 -0.192229 -0.09275204 0.18747364 -0.27480927 0.040657908 -0.034191422 -0.19524363
0.16467948 0.032523047 -0.25435665 -0.08718562 -0.14546998 -0.26601672 -0.07288713 0.16323946

actor.2.weight f4 [128, 256]
00000000: 55c5 033d 8d40 9a3c 5d12 c63d 5f3e 1d3d
00000010: 6dc3 f7bd be5d 763d 4bc9 a7bc 16c7 733d
00000020: f076 1c3c 8fa3 093d 788a 7e3c 26cd b93d
00000030: abd7 6bbd 46c6 0f3e 0f7f f23d f0ae 2c3d
00000040: c0cb 1cbc 2e59 9a3b 5b38 eebc c2de 123c
00000050: 56e2 383d fc6e 2b3c 25ef 14bd beb2 52bd
00000060: ceab 78bc 368d 1cbd cb91 67bd 9301 eabc
00000070: e03b ecbd b863 36bd 2d94 8f3a 05ca d33b
00000080: 3ffd 43bc d001 3f3c 9854 babd 1d7f 4ebd
00000090: 48f7 d03c 8dae 983d 21de 873b b7ba 8cbd
000000a0: 2a77 21bd e69b 633d 8905 a03d 7654 2bbd
000000b0: cc1e a43c b21b 453b c545 623c 760a 76bd
000000c0: e428 de39 7e95 af3c 7153 dbbc fd16 713c
000000d0: f230 3e3d 57bb 28bd 0ad3 fd3c b8b7 bdbc
000000e0: e5e1 5bbd fbde 0a3d 5ed3 b6bd dba6 11b9
000000f0: ca14 b93d 5313 1a3d 767f 53bb e824 c13c
00000100: 45bb 3fbc 9571 f9bc 4860 8e3d 503e 87bc
00000110: c395 343a 1325 49bd 22d6 5cbc c4fb f93c
00000120: 1959 393d eb4a 133d 5282 9c3d 9051 1d3d
00000130: 8c04 3e3d 46c0 2ebd ea95 3abc bbe0 033c
00000140: c731 fbbc 71c0 193d 5241 81bd 7593 23bd
00000150: 19da 35bb ca0a abbb 5950 92bd 282c d1bc
00000160: b927 afbc c410 86bb 0f3e 8c3c 6bf3 80bd
00000170: b39d ebbc e8f1 17bd ff10 9a3a 164c 4bbd
00000180: a1ca 1cbe ac38 be3c cb5d 44bc 7220 633d
00000190: 7663 8dbd 8d3b 17bd c3a9 d1bd 82f2 14bd
000001a0: d1d0 5ebc 33a7 0c3d ae8e f8bc d091 7f3c
000001b0: 7524 4c3d 13fb 223d 3240 29bd d4df 913b
000001c0: 035e eabd fea2 31bd f8b9 bb3c 4ec5 1a3d
000001d0: cfbe 18bd 7382 17bd 3f95 083d 2d19 2dbc
000001e0: f443 843a e0e1 5abd 14f7 fb3c a11d 11bb
000001f0: 1e12 d8bc 4923 d1bb 2523 f43a f8e6 26bc
00000200: e530 9c3d de4c 82bd d29d d13c ce3f ebbb
00000210: ed2b 8abc a89d 03bc 973b b5bd a827 8b3b
00000220: 9e0f e2bd 5a93 82bd e55e e03c 9849 0cbd
00000230: 8ea5 12be 4be4 cbbc 9990 30bd 5540 0d3d
00000240: b859 33bd c3cd 2bbd 0987 7fbd c296 863a
00000250: 8e09 e0bc cf28 163d 2adb 1aba df21 51bd
00000260: 1512 853d c664 c23b 5e31 3bbd ba72 3d3d
00000270: dd27 263d 0513 e7bd 2bcb 30bd c43f debc
00000280: b4cf 8d3d 20fb 633d 48b4 bbbb db11 eabb
00000290: 9d3c 86bd a001 2d3d e22c 70bc e305 02bc
000002a0: f475 673d 1e49 ed3c 351b 09bd eed1 c23b
000002b0: 55be e53c 5ff7 073e 8ea1 f03c e05f 29bc
000002c0: 1fe4 363d 0bb6 5f3d ee63 8abc 5f55 503d
000002d0: a20e 74bc 3d75 7a3d 4f87 7e3d 7066 4c3d
000002e0: ee18 163d 1f3b 9fbd 436a 923d 5189 c33c
000002f0: 0690 03be 081c 323c a84a 5bbd 9a03 1c3d
00000300: ef5a 803c d1fe 293a f779 823c a482 7dbd
00000310: e20e 1f3d 3d3e 263d c898 003c d6ff f23a
00000320: cdd8 563c b175 6dbd 120a 0abd 65b0 a1bc
00000330: 123a 90bd bbe3 0f3c d03b 583d 9233 4bbd
00000340: b53e 603d dce4 123e 7f2f 353d 9ead d9bc
00000350: 942e 853c a988 5c3d 522d f1bc 08c1 543d
00000360: c645 b3bc f91e 463c 0ae2 83bd 2e00 923d
00000370: 83ae 933c 9962 24bd d75d 40bd d0c8 e63a
00000380: 68d4 c53c 9c94 e239 b7a3 f53c 6c0f 11be
00000390: f5ca 213d b546 3b3c cfdc 00bc 8b1a 28bd
000003a0: b806 b7bd 139c 1d3d a6a2 2e3d 85af 34bd
000003b0: ca65 bc3d 6084 fb3c 4c54 823c 316e 90bc
000003c0: 7cf4 0dbc e5e6 c6bb 0ff1 693d a1f7 e53c
000003d0: 8d23 16bd 3cfa 9a3c df5f 233d 0fd5 883d
000003e0: 4412 49bd 3fc9 823c 2c15 3abc 91f8 403c
000003f0: b53e d5bd 7116 5abd f6fe debc bd72 3bbd
0.032170612 0.018829608 0.09671471 0.03838956 -0.120978214 0.060147993 -0.020481726 0.059516035
0.009549841 0.033603247 0.015535943 0.09072332 -0.057578724 0.14040479 0.11840641 0.04215902
-0.009570062 0.004710338 -0.029079607 0.008964242 0.045137726 0.010463472 -0.03636088 -0.051439993
-0.01517768 -0.038220607 -0.056535523 -0.028565204 -0.11534858 -0.044528693 0.0010954194 0.0064632916
-0.011962234 0.011658147 -0.09098166 -0.050414193 0.025508538 0.07455168 0.004146353 -0.068715505
-0.039420284 0.0555686 0.07813556 -0.041828595 0.020034216 0.0030076322 0.01381058 -0.06006857
0.00042373606 0.021433588 -0.026773186 0.0147149535 0.046433397 -0.041194286 0.03098442 -0.023158893
-0.053682227 0.033904057 -0.08927034 -0.00013890436 0.09037168 0.037616085 -0.0032272018 0.023577169
-0.011702363 -0.030449668 0.06951958 -0.016509205 0.00068887713 -0.049107622 -0.013478788 0.030515559
0.045250986 0.03596012 0.07642044 0.038407862 0.046391055 -0.042663835 -0.011388281 0.008049185
-0.030663384 0.037537042 -0.06311287 -0.039935548 -0.0027748405 -0.005219792 -0.07144231 -0.02553375
-0.021381246 -0.004091354 0.017119436 -0.06296428 -0.02876172 -0.037095934 0.0011754333 -0.049633108
-0.15311672 0.023220383 -0.011985253 0.055450864 -0.06903736 -0.036922026 -0.102374576 -0.036364086
-0.01359959 0.03433914 -0.030341472 0.015598729 0.049839456 0.039790224 -0.041320987 0.004451731
-0.114437126 -0.043368332 0.022915825 0.03778582 -0.037291344 -0.03698964 0.033345457 -0.010565084
0.0010091052 -0.053438067 0.030757464 -0.0022142904 -0.026375826 -0.00638238 0.0018626197 -0.010186903
0.076265134 -0.063623175 0.02558795 -0.007179237 -0.016866649 -0.008033194 -0.088492565 0.0042466708
-0.11038135 -0.06375761 0.027389 -0.034249872 -0.14320967 -0.024889132 -0.04310665 0.03448518
-0.043786734 -0.041944277 -0.06238464 0.0010268318 -0.027348306 0.03666001 -0.0005907292 -0.051057693
0.064975895 0.0059324233 -0.045701377 0.04625199 0.04056536 -0.112829246 -0.043162506 -0.027130015
0.06924382 0.055659413 -0.0057282783 -0.007143242 -0.0655453 0.042237878 -0.014659138 -0.007935974
0.056508973 0.028965529 -0.033473212 0.0059454357 0.028044859 0.13277958 0.02937391 -0.0103378
0.044651147 0.05461697 -0.016893353 0.050862666 -0.014896067 0.061146963 0.06214076 0.04990238
0.03664487 -0.07774948 0.07149174 0.023869189 -0.1284791 0.010870941 -0.053537995 0.038089372
0.01566836 0.0006484809 0.015927298 -0.061892167 0.038832553 0.0405867 0.007848926 0.001853938
0.013113213 -0.057973567 -0.03370101 -0.019737432 -0.07042326 0.0087823225 0.052791417 -0.04960973
0.054747302 0.14345115 0.04423475 -0.026572045 0.016257562 0.053841267 -0.029440556 0.0519419
-0.021883857 0.012092345 -0.06439598 0.071289405 0.01802755 -0.040133093 -0.046964493 0.0017607454
0.024149135 0.00043216802 0.029985292 -0.14166039 0.039500196 0.011430432 -0.007865145 -0.04104094
-0.089368284 0.038478922 0.042635582 -0.0441127 0.09199102 0.03070277 0.015909337 -0.017630668
-0.008664247 -0.0060700052 0.057114657 0.02807218 -0.036654998 0.01891815 0.03988635 0.06681263
-0.049089685 0.015965102 -0.011357587 0.011778013 -0.10412351 -0.053244058 -0.027221184 -0.04576372

actor.2.bias f4 [128]
00000000: 99d5 893c 26e5 51bc c515 573d 0dd2 533d
00000010: a8d9 90bd 7807 853d 0aa2 30bd 0452 b6bc
00000020: dcf2 253d fce0 6a3c b55c 3e3c dac3 7abb
00000030: 59e8 8b3d 2de2 39bd 5d11 1cbb 4992 133d
00000040: 2129 89bb b6ea 123d f1dd 733c 2656 04bd
00000050: b572 71bd 9876 db3c e048 593d 3b1f c83c
00000060: 4720 85bb 0735 46bd 5eee 2dbd e387 20bc
00000070: d69f 72bd 5133 f6bc 36c1 0d3d eba8 93bc
00000080: 16fe 2cbd 3f44 24bd 57ae b33b 635f 3fbd
00000090: fe3b 183d cb59 2e3d 93cd 1c3d fad6 4abd
000000a0: ad62 6cbd 8e82 173d b0e4 593d dcab e43c
000000b0: f433 b1ba 9216 c8bc bc1b ad3b 5299 20bd
000000c0: d625 433d d643 d3bc db49 4abd 13eb 50bd
000000d0: 28db 4cbd 0f8f 01bd 59b7 e3bc db43 e23b
000000e0: 8b78 84bc 7156 233d f86e d9b9 cb68 8a3d
000000f0: 2e10 d43c 6b08 123d 2d2d 08bd 8065 4abd
00000100: 983b 723c 4b3c f0bb 3181 fa3c a959 873d
00000110: 6e0c 16bd 63f4 00bd fb13 163d db49 d8bc
00000120: 29af 5dbd e756 5abd f277 01bd bea9 eabc
00000130: e351 783d 6707 17bd 37c8 b3bc c552 85bc
00000140: 7437 3cbd a85a ef3c 9334 66bd ac12 55bd
00000150: 78b0 013c 74d9 9cbc 551d f739 8fdf 363d
00000160: f2cb 863c 8279 24bd 7511 2d3d 4354 743d
00000170: c415 26bd 01af aebc 8869 43bd d688 afbc
00000180: 5e5f 5abd 9bf2 33bd 7dfd 2ebd 720b 57bb
00000190: 1e23 77bd c98c 4fbc 18b2 113d 9413 ecbc
000001a0: 26fa 7b3c 6550 94bb a160 2e3d eb7c 413c
000001b0: d17b 353c ac0a 20bd 4da2 2b3d 2cba a3bc
000001c0: cd59 0c3c fd90 81bb 8eed 363c 0264 44bd
000001d0: 97ad e2bc 58eb e8bc e6a4 eabb 1d98 303d
000001e0: e324 803c c4f2 04bd c911 a73c 7853 67bc
000001f0: b5d8 73bb 71a1 0b3c 8597 153d 154c e5bc
0.016825484 -0.012810981 0.052510995 0.051713992 -0.07072765 0.06495565 -0.043123282 -0.022255905
0.040514812 0.014335867 0.011618783 -0.003826371 0.06831426 -0.045381714 -0.002381406 0.03602818
-0.004185811 0.03586837 0.014884458 -0.03230872 -0.058947284 0.026789948 0.053048015 0.024428954
-0.0040626856 -0.048390415 -0.042463653 -0.009798023 -0.059234463 -0.030053766 0.03460809 -0.018024882
-0.042234503 -0.040104147 0.0054834294 -0.046721827 0.037166588 0.042566102 0.03828199 -0.049521424
-0.057711292 0.03698974 0.05319661 0.02791398 -0.0013519512 -0.024424825 0.005282847 -0.039208718
0.047643505 -0.025789183 -0.04938684 -0.051005434 -0.05001369 -0.031630572 -0.027797388 0.0069050617
-0.01617076 0.03987736 -0.00041472143 0.06758269 0.025886621 0.03565256 -0.033246208 -0.049413204
0.014784716 -0.007331406 0.030579181 0.06608898 -0.036632948 -0.031483065 0.03664015 -0.026402405
-0.054122124 -0.053305533 -0.03160853 -0.028645393 0.06062497 -0.036872294 -0.021946056 -0.01627482
-0.04595132 0.029218033 -0.056202482 -0.05201976 0.007915609 -0.019146658 0.00047133365 0.044646796
0.01645467 -0.04015494 0.042252976 0.05965067 -0.0405481 -0.021323683 -0.047708064 -0.021427553
-0.053313605 -0.04393254 -0.042722214 -0.0032813218 -0.060336225 -0.012667843 0.035570234 -0.02881793
0.015379464 -0.0045261853 0.04257262 0.011809568 0.011076883 -0.039072677 0.04190283 -0.019986235
0.008566332 -0.0039540515 0.011165036 -0.047946937 -0.027670665 -0.028432533 -0.0071607707 0.043113817
0.015642589 -0.03245808 0.020394223 -0.014119022 -0.0037208025 0.008522377 0.036521453 -0.02799038

actor.4.weight f4 [6, 128]
00000000: 1080 fbbc b154 a1bd bf03 063c 1a55 1f3d
00000010: c23b 9e3c cd7c 80bc 2185 59bc b894 153d
00000020: de9f c4bd 0375 51ba 68b0 7f3b 3f9f aa3b
00000030: bdf2 fa3c 6f11 7b3d 8edc 613b ead6 adbc
00000040: 6363 ea3d 82c9 213c 7239 27ba b58d 653d
00000050: 8c21 5e3b 1a5a 943d a19e 193d 7a82 4b3d
00000060: 02ea c13c 2a35 003d ddfe 243d 37ab 43bd
00000070: 6b2f 853b a614 283d fd13 9fbd 4b58 923c
00000080: bf6e bf3a 3735 5c3b 90be d63c f2ac e93c
00000090: 8559 1fbc 4c36 acbd 5246 c53a df93 29b9
000000a0: 1e14 55bd c0d4 933c 95c7 483d 9cf6 a0ba
000000b0: c076 1e3b 3c98 0b3d 6e74 ac3c 1b59 4c3d
000000c0: 06f1 01bc c38c 15bd f525 643b 9958 6ebc
000000d0: 8a82 6f3c 7e04 523b 752d 7b3d 95b7 27bb
000000e0: 220e 963b b88b aebc 05c7 a5bc 1c83 a33c
000000f0: 6be8 9b3c 6525 63bd 965d a1bc b814 28bb
00000100: 7bb8 553d 4e99 613c 3a35 303c 946a 0ebd
00000110: b3c6 0c3d 8840 bb3c e5b8 a53d 9e7b bc3c
00000120: b0c8 813d 74ae 45bd 012b 55bd 0e3e 6cbd
00000130: 79d9 063d ed24 843d 1da2 1f3d 2d8c 2dbd
00000140: c31d fb3c b740 adbc 6b9b 173c 9a53 91bc
00000150: c4bd 1cbd 4c86 1ebd 51e4 68bd 996b bf3c
00000160: d2cb 1dbd 5d40 dcbc 70a5 8b3d 8de7 003b
00000170: c239 7a3d 8d1b dc3c 6b44 a1bc ea86 73bc
00000180: 9f6a 853c 5551 4ebd 7cb7 c83c 7b89 b0bb
00000190: 942b b4bd f3c0 3fbd d87d 96bd 0578 363c
000001a0: f50a 94bb 1065 733d 4e4e 673d b95e c83c
000001b0: 56d1 5b3d 6158 4cbd f1a0 c63c 7394 e3bc
000001c0: 84dd 9d3c 5ea6 74bd 29f3 513b 21f6 b13d
000001d0: 85a8 9a3b e4ff 893d e187 023e 0608 cebc
000001e0: 0052 ae3c 0179 0ebd fd40 a73b 7009 edbc
000001f0: d3bb d6bb 292e df3c 48d3 e8bc 7216 c1bc
00000200: 0891 3c3b c705 9f3c e02b 083d 0e32 973d
00000210: 57e6 2cbd bf7e 2d3d ea21 8c3d e653 983d
00000220: 215c 20bd d9f4 5a3b 76cd b6bc 9fa1 de3c
00000230: 1c36 5bbc b329 24bc 75c1 323d e21b 703a
00000240: 6c71 00bd 4ba6 663c 4b30 feb8 43a9 3bbc
00000250: f21a 1e3d 0f5e 363c fdb7 3c3d bd44 033c
00000260: 394b ed3c beae 623d 9915 52bd 888b c9bd
00000270: c6ca 9dbd 7f8a 2fbc ee8a 57bd c7d8 05bd
00000280: b1a7 34bd cd1e 903d f5a4 413c 8408 58bb
00000290: 9549 3e3d 045a 803b af28 583d 31a0 323d
000002a0: 3221 87bc 8a2a 723b a9dc 553d 3731 643c
000002b0: 8d72 2cbc 48a1 3d3d 2a17 163d d587 6abd
000002c0: 44a9 3cbd 7583 9c3c d6b8 313d a85f 28bd
000002d0: 3256 62bd 0332 523c ffcf 783c 1ae3 49bd
000002e0: 3dd2 acbd de4f 3d3d 2665 92bc 03a3 053d
000002f0: 614f 5fbd 007b 1cbd 1358 adbd 9ee7 463d
00000300: da01 6d3d 4136 aabd f22c 8f3c 3174 7b3d
00000310: 7b2e 523c 4528 54bd b235 a8bc 49db 8b3d
00000320: a150 7bbc f9a5 83bc 963a 33bd 914d 58bd
00000330: ad18 9e3d fd93 f2bb bec7 a13d 9b89 e5bd
00000340: 0ba3 00bc b5c6 c33c 249a c2bc fc28 9dbd
00000350: 403d eebd 2374 a63d 98cd fb3c c69f 47bd
00000360: cc4f b4bc 2c54 9cba cdbc 8a3c 7a3b f03b
00000370: 1718 1b3d 50f1 b03c 5982 c1bc b015 2cbc
00000380: df2f b9bc 8117 01bd 697b a43c bfed b43c
00000390: 10f7 8bbd 8b71 543d e634 253d a5be d13b
000003a0: 6bc0 823c e467 bf3d ce35 4cbd 0327 e8bc
000003b0: f56d 4fbd 8856 25be d747 bdbd c58e 56bd
000003c0: 3ef6 1bbd f6e2 853c a32a 9f3b 884e 573c
000003d0: 180e a13d 9b29 713d b900 4c3d a712 07bd
000003e0: 3aa1 0a3d 7e57 1abb 2025 a23d 8ccd 363c
000003f0: 40ea 4a3d 1c02 16bd 4c9c 3dbb 93b1 a9bd
-0.030700713 -0.07877482 0.008179604 0.03889952 0.019315604 -0.01568451 -0.013276369 0.036518782
-0.09600805 -0.00079901534 0.0039015058 0.005206972 0.030633325 0.061295923 0.0034463736 -0.021220643
0.11444738 0.009874703 -0.00063791045 0.056043345 0.0033894507 0.07243748 0.037504796 0.04968498
0.023671154 0.0313007 0.04028212 -0.047770705 0.0040644906 0.041035317 -0.07767484 0.017864367
0.0014605148 0.0033601054 0.026213914 0.02852485 -0.009725933 -0.08408794 0.0015050864 -0.00016172182
-0.05202114 0.018045783 0.04901846 -0.0012280527 0.0024179667 0.03408073 0.021051612 0.049889665
-0.007931 -0.036511194 0.0034812663 -0.0145474905 0.014618525 0.0032046135 0.061322648 -0.00255916
0.0045793215 -0.021306857 -0.020236501 0.019959979 0.019031724 -0.055455584 -0.019697946 -0.0025647115
0.052177887 0.013769461 0.010754878 -0.03476961 0.03436918 0.02285792 0.080919065 0.023008164
0.06337106 -0.048262075 -0.052042965 -0.057676367 0.03292224 0.064523555 0.038972963 -0.04237001
0.03065384 -0.021149023 0.009253363 -0.01774006 -0.038266912 -0.038702294 -0.056858364 0.023366736
-0.038524456 -0.02688616 0.06818664 0.0019669265 0.06109024 0.026868606 -0.019685945 -0.014863709
0.016286192 -0.050370533 0.024501555 -0.0053874827 -0.08797374 -0.04681487 -0.073482215 0.011137013
-0.0045179077 0.059422553 0.05647116 0.02445923 0.053666435 -0.049888972 0.024246665 -0.027780747
0.019270666 -0.059728973 0.0032035804 0.086895235 0.004719796 0.067382604 0.12747146 -0.02515031
0.021279335 -0.034783367 0.0051041828 -0.028935164 -0.006553152 0.02724369 -0.02842106 -0.023570273
0.0028772969 0.019411935 0.033244967 0.07382594 -0.042211857 0.042357203 0.06842406 0.07437877
-0.03915036 0.00334101 -0.022314768 0.027176676 -0.0133796 -0.0100197075 0.043641526 0.00091594283
-0.031358168 0.014077733 -0.00012120659 -0.011453929 0.038599916 0.011130824 0.046073902 0.008011994
0.028966533 0.05534243 -0.05129013 -0.098410666 -0.077046916 -0.010714172 -0.052622728 -0.032677438
-0.044105235 0.07037125 0.011819114 -0.003296406 0.046456892 0.0039169807 0.052773174 0.0436098
-0.016495321 0.0036951625 0.05221239 0.013927749 -0.010525358 0.046296388 0.036643185 -0.057258446
-0.04605986 0.019105652 0.043389164 -0.04110685 -0.055257984 0.012829307 0.015186309 -0.049288847
-0.08438537 0.046218745 -0.017870497 0.032626163 -0.05451906 -0.03820324 -0.084640644 0.04856073
0.057863094 -0.08311129 0.017477486 0.061390106 0.012828465 -0.051796217 -0.020533416 0.06828935
-0.015339048 -0.016070353 -0.043757044 -0.052808348 0.0771955 -0.0074028955 0.07899426 -0.11207887
-0.0078513725 0.023898462 -0.02375514 -0.07673833 -0.11632776 0.0812762 0.030737683 -0.048736356
-0.022010706 -0.0011926941 0.01693573 0.007331309 0.03786477 0.021599442 -0.023621725 -0.010503218
-0.022605835 -0.031516556 0.020078378 0.022086022 -0.06834233 0.051866096 0.04033365 0.0064009004
0.015960893 0.093459874 -0.049856 -0.028338915 -0.050641973 -0.1614629 -0.09242218 -0.05238225
-0.03807663 0.016343575 0.0048573776 0.013141282 0.07864016 0.05887757 0.049805377 -0.032976773
0.033845164 -0.0023550685 0.07917237 0.011157405 0.049539804 -0.036623105 -0.0028932272 -0.08285823

actor.4.bias f4 [6]
00000000: 5b65 90bd d284 813d de29 4dbd 81f8 003b
00000010: e744 3dbd f0e1 83bd
-0.07050582 0.063241616 -0.050088756 0.001967937 -0.04620829 -0.064395785

critic.0.weight f4 [256, 12]
00000000: b7c9 143c 0c1f 97bc 8cb1 b63c 6f1f e33d
00000010: 4bd2 6abc b8c7 0e3e ef02 86be 4d1b 813d
00000020: 3c93 cebd 8e40 b33e 4329 1dbe fb7c 1f3e
00000030: fb91 b53d c17c 623e 7c1c 803e c170 d1bc
00000040: f2ef 0cbe 3773 0dbe 19b2 293e 655a 84be
00000050: 1dfd 57be a46c 1a3f e1c7 4b3e 0f8d 35be
00000060: 3a15 a23e fc4e 6abe 90c5 563e 360e 8dbe
00000070: 9c75 6b3c e9fc 6fbe 89a7 4c3e 5e3a c9bc
00000080: 3013 2ebe 9f60 723e 6779 b73c 7461 c63d
00000090: 5ee9 303e 7762 eabd b359 913e a5bd 3bbd
000000a0: 4f19 b63d 390a b8bd 1c27 163e 5f0d 1bbe
000000b0: 7220 6ebe 54d8 a73e c4a3 2bbe e467 19be
000000c0: 5a68 f8bc 1739 8f3d 7435 3d3e 66dc 1bbe
000000d0: 08bc 323e 9427 063e 80d7 9c3d 38d9 cf3d
000000e0: d8f2 543e 8941 08bf fa9f 58be 5602 a6bd
000000f0: 5199 d1bc 56ea d73d 4fb6 4abe 34a7 74be
00000100: 0bd3 de3d 57cf 833d f416 2cbe c989 963e
00000110: 484a dcbd 318a 07bf f1cd 8a3e 2da8 7e3e
00000120: da1c 603e 150a 3abe bb63 8e3d dbd3 373e
00000130: bd32 593d f47e 123e a4fe 55bd 21d7 94be
00000140: 97f5 33be 4e39 edbe 58a7 b5be 11ae a93d
00000150: 22fa ab3e 7931 d13d 2e1e 0abe d797 543d
00000160: 83f1 9abd 741e a03d 4254 1bbe 8469 a7bd
00000170: 2a86 9fbe 78be 4abe 3f7b 10be 0834 29bc
00000180: 5b2a 323d 8842 efbd 4239 00be 5626 6d3e
00000190: e858 0e3e 8831 e8bd aac8 ecbd dd30 093e
000001a0: ae36 513e 4082 1cbf 1de6 3bbc 1e6a db3d
000001b0: b634 43bc e867 01be dbff aabd b756 b33d
000001c0: c866 303e 9d90 0dbd 705a 29be b2db 8abe
000001d0: 790b 783d 5c0f 0e3f 76c4 203e 5d80 36bd
000001e0: 6ef8 3eba 9ecc 973d d189 6bbd a98c 443d
000001f0: 6f4a f13d ce1c 533e 56e8 783d 7465 7f3e
00000200: d0d5 98be 7848 2ebf d92a 653e a9ab 95be
00000210: 0dff 5dbe 1ed0 453d abcd 85bd 1d31 9abe
00000220: 27e2 f9bc f545 ee3b 7d01 b23d 3722 8cbe
00000230: ee25 a33d 0298 383f 9064 343e d60a e0bd
00000240: bb57 af3e 1a86 a3bd bada 1cbe 2806 cc3d
00000250: fe3f 8a3e f3e5 c13c 393f f2bd 4f3d 133e
00000260: e510 b6be d600 babe d8b7 ae3e 0a86 4ebe
00000270: 80bb 623e e6b3 14be ba76 84be b938 14bd
00000280: b5c2 663e 1556 d43d 8e9f 1ebe b5d3 6cbe
00000290: e097 76be b00c 3abf 837f f03d 38b5 863e
000002a0: 83a4 503e 2873 053d dd44 603d 25fc 9bbc
000002b0: 3e85 24be b49b 373e 52ca 6b3e 54fc 223e
000002c0: 57aa d8bc da8a 08bf a48d bebc fbb6 423d
000002d0: b0f6 50be 68fd 063e 811f 953d b07c 6f3e
000002e0: 741c 39bd 654c 98be 7500 94bc bc32 d1bd
000002f0: 54c1 cd3d ba43 723e 8bfd 7f3e e1d6 82bd
00000300: 3bc5 423e 7f2c 1fbe 52ff 2ebe 28c8 963d
00000310: db76 4cbe ab08 f53d fea2 953e 0b47 8c3c
00000320: 4256 14be f245 09bf 6619 883e 54a7 b03d
00000330: 0d8f 90be ff8a 463c bfba 483d bd36 60be
00000340: 0344 28be cfcc 6abe f9b0 4a3e 252b 2f3e
00000350: ed0d 8ebe 3206 1e3f cce7 913d 32b7 f03d
00000360: 7106 92bc dab8 673e 4bac 6d3e 0b3d cdbc
00000370: 1b44 9fbd 9b53 3a3e 9f47 9fbe 7913 653e
00000380: e80e 00be c7ad 473f 87c0 373e 8fee adbd
00000390: af04 23bc 77a1 d4bd 94d3 07bd 2c59 afbd
000003a0: 06bb a2be 6432 ba3e 10ab 7dbe 3e2f 943d
000003b0: 450d 9b3e 8c23 a53e a9eb c2be 0026 81bd
000003c0: 1b0a b1bd b2b3 48be efea 1a3d bcb3 83bc
000003d0: f5a5 253e 8ff1 8abc c3d2 b63d a3e4 303e
000003e0: 40f8 1bbe 8b17 933e 6b2b 2a3e 5c86 bb3b
000003f0: 2f58 17be 2a3c 8d3e 69b2 f33d 3312 18be
0.009081296 -0.018447421 0.022301458 0.1108998 -0.014332364 0.13943374 -0.26174113 0.06304035
-0.100866765 0.3501019 -0.15347771 0.1557502 0.08865734 0.22117902 0.25021732 -0.02556646
-0.13763407 -0.13813482 0.16571845 -0.25850216 -0.21092649 0.6032202 0.19900467 -0.17729591
0.3165682 -0.22881693 0.20973802 -0.27549905 0.014371302 -0.23436321 0.19985785 -0.024563964
-0.16999507 0.2366967 0.022396756 0.096865565 0.17276523 -0.11444562 0.28388748 -0.045835156
0.08891546 -0.08986325 0.14663357 -0.1514182 -0.23254564 0.32782233 -0.1676169 -0.14981037
-0.030323196 0.06993311 0.18477422 -0.15220794 0.1745454 0.13101035 0.07658291 0.10148853
0.20795763 -0.53225 -0.21154776 -0.08105914 -0.025585802 0.10542743 -0.19796108 -0.23891908
0.10880097 0.06436031 -0.16805631 0.29401997 -0.107563555 -0.5294524 0.27110246 0.24868841
0.21886006 -0.18167908 0.06952616 0.1795191 0.053026903 0.14306241 -0.052244797 -0.2907038
-0.17574154 -0.46332783 -0.35479236 0.08285154 0.33589274 0.10214514 -0.13488075 0.05190262
-0.07565596 0.078183085 -0.1516886 -0.081744224 -0.31157047 -0.1979922 -0.14109515 -0.010327347
0.043497425 -0.11682612 -0.12521842 0.23159155 0.13901103 -0.11337572 -0.11561711 0.13397546
0.20431015 -0.61136246 -0.0114684375 0.107135996 -0.011914423 -0.12637293 -0.08349582 0.08756774
0.17226708 -0.034561742 -0.16538405 -0.2712074 0.060557816 0.55492187 0.15699944 -0.04455601
-0.0007284944 0.074120745 -0.05750448 0.047985706 0.11781775 0.20616457 0.060768448 0.24941045
-0.29850626 -0.6807933 0.22379626 -0.2923253 -0.21679325 0.04829418 -0.06533369 -0.30115595
-0.030503346 0.007271523 0.0869169 -0.27369854 0.07966219 0.72106946 0.17616487 -0.10939567
0.3424662 -0.07984562 -0.15317813 0.09962112 0.27001947 0.023669219 -0.11828465 0.14378856
-0.35559765 -0.36328763 0.34124637 -0.2016832 0.22141838 -0.14521751 -0.2587183 -0.036186907
0.22535212 0.10367981 -0.15490553 -0.23127635 -0.24081373 -0.7267561 0.11743071 0.26310134
0.20375256 0.032580525 0.054753173 -0.01904113 -0.16066453 0.1793049 0.23026398 0.15916568
-0.026448412 -0.5333687 -0.023260899 0.047537785 -0.20406604 0.13182604 0.072813995 0.23387408
-0.04519315 -0.29745784 -0.018066624 -0.10214755 0.1004664 0.23658648 0.24999063 -0.06388641
0.1902055 -0.15544318 -0.17089584 0.073623955 -0.19967215 0.11964544 0.29225916 0.01712372
-0.1448603 -0.53622353 0.26581877 0.08625665 -0.2823414 0.0121181 0.04900622 -0.21895881
-0.16432194 -0.22929691 0.19794072 0.17106302 -0.27745 0.61728203 0.0712429 0.11753692
-0.017825337 0.22629109 0.23210256 -0.025053522 -0.07776662 0.18195955 -0.3110933 0.2237071
-0.12505686 0.7799954 0.17944537 -0.08492767 -0.009949847 -0.103823595 -0.03316076 -0.0856193
-0.31783313 0.3636657 -0.24772286 0.07235573 0.3028356 0.32253683 -0.3807042 -0.06306076
-0.086445056 -0.19599798 0.037821706 -0.016076915 0.16176589 -0.016960887 0.08926918 0.17274718
-0.15231419 0.287289 0.16618125 0.005722804 -0.14779733 0.27584964 0.118992634 -0.14850692

critic.0.bias f4 [256]
00000000: c030 363e 8115 b03d f801 9dbe f577 66be
00000010: 4e0e e33c a2cd b83d 754f a33e 77da 2b3e
00000020: da7a bc3d 3669 77bd a219 be3d ca12 7cbd
00000030: d96d 3bbe 7115 1dbe 6469 4c3e 54b3 45be
00000040: 8f33 15bc 1ebb 0c3e 627e 763e e7d8 553e
00000050: 885d c9bd 3ff4 673e d85a 633d 76ce 1c3e
00000060: c6b6 4abe 0eb0 04bd c4c4 583e 01ad 82bc
00000070: 235c 9abd 5b5f 813e cdbe 2d3e 7b56 43be
00000080: f403 ddbd 1497 893e 6d20 34be 470f d33d
00000090: 9fd7 d03d 0930 743e 1ffa afbe 317a f43d
000000a0: 5b37 6e3e 26f6 2e3c 51f3 08bd ef9e 043b
000000b0: 837b 6c3e f708 6f3e d474 61be c016 31bc
000000c0: dae2 523e 2ed0 863e 7c93 afbe 5b6b 27be
000000d0: e1ba 623e 6e66 ac3d 6a83 6b3d 1213 d5bd
000000e0: 7a21 80bd 839f b8bd 3304 9a3d c23d 95be
000000f0: fd9e f43c d2e3 843d 7a8b 743d a96b 09bd
00000100: a965 5abe eb20 173c 104a 583d f3be 3a3e
00000110: 6951 273d 4795 163e 1d1a 033e 2032 2e3e
00000120: 2efe 8fbc 1cf0 59be a36a 48be 0052 6e3d
00000130: e241 c7bd ffae 4bbe 3ca6 47be 8aa6 263e
00000140: 2001 a2bd 178c 353e d267 263e f7cd 633d
00000150: 2ca4 71be cd7d 863c 73af 49be 5e7b 06be
00000160: 77c5 81be 5fa9 84be 5a2b 273e 548f 083e
00000170: e698 6c3c fde5 8a3e 305f 8d3c a10f 32bd
00000180: 32b4 5dbe b0fc 30be b554 493d 2e70 813e
00000190: 21f3 3a3e ccdc 263d 50f9 6dbe 6cae 103e
000001a0: 0591 07be 70c7 89be 96d3 173d 5e54 723e
000001b0: 846d 7cbc d02a 59be 83d9 963d 6158 87bd
000001c0: f09a 99be 08ec 3ebd 9449 563e 4119 3a3d
000001d0: 740a 71be 988e 893c cc16 6abe 67db a23e
000001e0: 0b5a 523e 8f2c 4e3e 3b6a 18bd 6c1b 8fbe
000001f0: 8594 663e 2cf7 83be 6ba1 0d3e ca23 3d3e
00000200: 07d6 34be 4fc6 afbd e394 523e 2dec 1c3e
00000210: c0c8 073e c6a1 47be cca2 a6be fd60 8cbe
00000220: 76f0 563e 0c2b ba3e b34e 54be d3bb d73d
00000230: 41a0 85be 8478 e6bd 74be 9f3e 95ba 143e
00000240: ed52 e9bd 304c 41bd 42af 8b3d 4977 923e
00000250: c304 db3d f4b0 7abe ef42 f1bd e369 dc3c
00000260: 608f 09be f099 4abe 15c6 da3d ae8f 7b3c
00000270: f379 4a3e ebad 11be b9f1 9fbd 1cf3 82be
00000280: 1f4d 3ebd 7ea9 97be 6b88 ffbd bef1 5dbe
00000290: d7ab 57be faf0 95be 570a 2ebe d16c af3d
000002a0: 36e6 593e 12e9 f23d 8fff 973d 1bb4 81bd
000002b0: 8b81 3abe a054 853c 92db 59be 5a23 133e
000002c0: d0f6 5fbe cf1a 8cbe f6ca 0c38 742a 523e
000002d0: d7d3 61bd 71f9 14be 420a 61be 5bff c63d
000002e0: e0af 3e3d 8fb3 e4bd e006 e1bc 02e0 fbbd
000002f0: 23d7 d03d a419 403e 1c1c 52bd 67cd 0dbe
00000300: 7268 2e3e f4ab 9cbe cbf1 a5bc c527 5b3d
00000310: 1be6 35be 0472 01bd 68cd 493e 339c 053e
00000320: 13c7 3f3e c4ab 743d da6a 40be c2d0 1b3e
00000330: 297b 3f3e 2174 ac3e 61fc 543e f807 8c3d
00000340: 1b26 113e cca1 973e 9af2 66be 9271 79be
00000350: a7fe e8bb 7549 47be b311 733d b526 e73d
00000360: 2cc8 43be cad2 67be 3cb5 2b3d e32f e2bd
00000370: 628f 83bc dbb7 b23d e5a5 1bbd 09c4 2abe
00000380: 756c 37be 6a7d a5bd 0e74 7fbe 1c8f 5fbc
00000390: e42c 7b3e 4001 6fbe 7169 a5bc 61c4 813e
000003a0: e828 96be 1607 8cbe 8e40 253d e2b0 5f3e
000003b0: 49a3 663e 748b 8b3c a53b 923e 05c8 b0bd
000003c0: 9972 6d3d cf70 3bbe 6482 cebd 0523 9c3e
000003d0: 382b 743e 7056 88bd 7a42 233e dcfd b0bc
000003e0: 32b0 f8bd e1dd 92bd a416 713e 0a0e 7d3e
000003f0: e080 84be 1565 04be 15f5 f03d 7758 14be
0.17792034 0.085978515 -0.30665565 -0.22506697 0.027716782 0.09023596 0.31896558 0.16782556
0.092031196 -0.06040307 0.09282233 -0.061541356 -0.18303622 -0.1534021 0.19962078 -0.1930669
-0.009106531 0.13743255 0.24071649 0.20883523 -0.09832293 0.22651766 0.055506557 0.15313134
-0.19796285 -0.03239446 0.2116881 -0.015951635 -0.07537105 0.25268063 0.16967316 -0.19075958
-0.107917696 0.26873076 -0.17590494 0.10305648 0.101973765 0.23846449 -0.34370515 0.11937369
0.23263304 0.010678804 -0.03343517 0.0020236333 0.23093991 0.23343264 -0.22017223 -0.010808647
0.2059435 0.26330703 -0.3429221 -0.16349547 0.22141601 0.084179744 0.057498373 -0.10404028
-0.06256385 -0.090147994 0.07520332 -0.2914868 0.029860968 0.06488766 0.059703328 -0.03354994
-0.21327843 0.009224157 0.052805007 0.18236904 0.040849123 0.14705382 0.1280293 0.17011309
-0.017577257 -0.21283 -0.19571929 0.05818367 -0.09729363 -0.19890974 -0.19497007 0.16274467
-0.07910371 0.17729221 0.16250542 0.055616345 -0.23597783 0.016417408 -0.19695835 -0.13132998
-0.25345966 -0.2591047 0.16325131 0.13335925 0.014440751 0.27128592 0.017257303 -0.043471936
-0.2165077 -0.17283893 0.04915305 0.252809 0.18256809 0.040737912 -0.23239636 0.14129037
-0.13238914 -0.2690997 0.03706702 0.23664996 -0.01540697 -0.21207738 0.07365706 -0.06608654
-0.3000102 -0.046611816 0.20926505 0.04543424 -0.23539144 0.016791627 -0.22860259 0.31808016
0.20542161 0.20134185 -0.037210684 -0.2795061 0.22517593 -0.25774515 0.13831107 0.18470684
-0.1765977 -0.08582746 0.20564608 0.15324469 0.13260174 -0.19495305 -0.3254608 -0.27417746
0.20990166 0.36360967 -0.20733146 0.105338715 -0.26098827 -0.11253455 0.31199992 0.145243
-0.1139277 -0.0471918 0.06820537 0.28606632 0.106942676 -0.24481565 -0.11780345 0.02690596
-0.134336 -0.19785285 0.106823124 0.01535408 0.19773082 -0.142265 -0.07809777 -0.25576103
-0.046460267 -0.296215 -0.124771915 -0.21674249 -0.21061645 -0.29285413 -0.16996132 0.08565677
0.21279225 0.11860861 0.07421791 -0.063331805 -0.18213479 0.016275704 -0.21275166 0.14368954
-0.21871495 -0.27364203 3.3567623e-05 0.20524007 -0.055133667 -0.1454828 -0.2197657 0.09716674
0.046554446 -0.111670606 -0.027469099 -0.122985855 0.10197284 0.18759781 -0.05129634 -0.13847886
0.1703203 -0.3059994 -0.020256897 0.053504724 -0.1776356 -0.031602874 0.19707263 0.13047867
0.18728285 0.05973412 -0.1879076 0.15216354 0.18699326 0.3368235 0.207994 0.068374574
0.14174692 0.2961563 -0.22553483 -0.2435973 -0.007110435 -0.19461615 0.05934305 0.1128668
-0.19119328 -0.22639003 0.041920885 -0.1104429 -0.016059581 0.08726474 -0.038000006 -0.16676344
-0.17912467 -0.080805615 -0.24946615 -0.01364496 0.24528843 -0.2334032 -0.02019188 0.25345138
-0.29328084 -0.27349156 0.040344767 0.21844819 0.22523226 0.01703427 0.2856113 -0.08631901
0.057970617 -0.18304752 -0.10083464 0.30495468 0.23844612 -0.06657112 0.15943328 -0.021605425
-0.121429816 -0.07171226 0.23543793 0.24712387 -0.25879574 -0.12929185 0.11765496 -0.14486872

critic.2.weight f4 [128, 256]
00000000: 2287 edbd 226c db3d f187 283e ff92 283e
00000010: f723 f9bc fef1 a4bd e991 88be 8eab 57bd
00000020: 7dd1 a7bd 2579 ad3d bb7b 60bd 4e3d 9a3c
00000030: ea43 173e ff35 21be 811b 2abe 41f7 c63d
00000040: 8056 26be 2deb 403e 80da d33d 7b0b 0dbe
00000050: 5b49 ff3d 14c9 1bbe 56d7 323e a72e e0bd
00000060: 86bb fd3d 90f5 a8bd 2bea 08be 1986 1a3d
00000070: ca1b 9c3c 9cb7 3ebe 1267 b5bd 14ff 0a3d
00000080: 90da c3bc 66fa 9ebd ef93 6dbd 951d 61be
00000090: c329 3c3d b5ae e8bd 8010 223d ddb0 b23d
000000a0: 88b6 c4bd 2b61 afbd 8b46 523d 2e04 3bbe
000000b0: 31b1 03be 9bcf 4dbd 49a4 e23d 4502 7d3c
000000c0: 8cec 0d3e e697 1d3d 3be0 ee3d ff71 ba3d
000000d0: e1c3 34be ca36 e53c 5ea5 0cbe dc12 0abe
000000e0: a9eb 2e3e 17d5 a6bd 4c06 863d 00fd bd3d
000000f0: d3ca 34be 7c07 663d fa81 a73d 5b51 0dbe
00000100: 1f25 5c3c cac8 8f3c ee25 fabd 6ec9 253d
00000110: 36f3 2fbe c0f0 063e 925a cdbd 2bd9 2bbe
00000120: 12d8 65bd bdf8 8dbd ae8c 2e3e 8d7c a03b
00000130: b4e8 083e 17fe 8f3e d2c9 683e 4d4d 83be
00000140: 5c7b 653e ffe1 b93c 1efc 61bb c3ed 8fbe
00000150: 580b a83d 8b77 423d f28e c43d 6d3d b73d
00000160: 18e1 053e 298a 1c3e 5ff5 893d defd f03d
00000170: 22b9 07bd 6516 dfbd 6fe6 3cbd 32dd 993d
00000180: 800c 403d 9af0 ffbc 33bb 73bd de5b 48bd
00000190: 6443 1f3e afb0 aabe d426 72bd 894b fd3d
000001a0: 7771 6bbd 5b3c e43b db23 82bd 31bf dfbd
000001b0: 792d 33be 1dba fb3d 31fa ae3d 7d52 d73d
000001c0: 9c64 153e 9ebd 853c 08f2 babd 7bc4 04be
000001d0: e225 de3d 0d75 7dbd f725 18bc c1e8 20be
000001e0: 3ab1 4f3d 9167 5e3e 86bb 0fbd 06e5 783e
000001f0: 282b cc3d ec90 633e e1dc 69bd b8cf 4dbd
00000200: a790 063e 3649 f1bd d204 b6bd 8d85 32be
00000210: 48be 6dbe 8555 073c e7a8 dcbc d7d7 27bd
00000220: 278d 0dbe 0485 31be b2ef 6abd d521 1d3e
00000230: 3a87 9f3d 68f3 a93d 930a 88be 6eb6 793c
00000240: de75 f83d f227 9c3d b9e8 2d3d 2d5d 31be
00000250: 71eb 0ebe 342d d23d e49e 7a3d 4d2c 01be
00000260: ad71 c7bd f6c9 863d c104 3e3d fcb6 093e
00000270: e213 33bd 596e 993e 35e2 423d 8db3 1e3e
00000280: 583e 873c e405 fe3d b36a 73bd 2730 6bbe
00000290: 4857 eb3d 78d0 813e a9df 4e3d 1f4a fabd
000002a0: 4950 71be 72ff 46bd 60ec 9b3d 9267 cbbb
000002b0: 60f6 84bb 3a62 bd3d 459d c9bb b7be 093e
000002c0: c781 52ba 4937 2b3e e9a5 343c f97a 0bbe
000002d0: 6539 0c3d 0fd8 a83e 4660 1b3e d5aa 1cbc
000002e0: d916 f4bd 5d93 9b3d ef01 023e 34ad ba3c
000002f0: b1cc a3be 29da a03d 62f1 0f3e f15f 4cbc
00000300: b063 adbd 1d4e b03d 15d3 54be 8522 f339
00000310: 69cc 2a3d a62d b7bd 7c01 633b a692 75bd
00000320: e1c9 94bd 702b 86be 600e 1c3e ec28 e3bd
00000330: 8d69 89bc 3f4d 35bd 8ab5 573c 3bf7 74be
00000340: f61f 083d da5b 89bd 8d0b 1e3e 6a37 8abd
00000350: bc0f d03d fdd0 99bd 73b6 09bc d3b1 28bc
00000360: 8faa 8c3e 3c4f f03d e302 06be f123 63bd
00000370: 3c07 d13c bb7c d4bd f526 883d 9de3 eb3d
00000380: a8b0 233e a1ce 92be c68a 973e cb18 08be
00000390: 8dcb d2bd a172 383d b6fc 31be 54b0 8ebd
000003a0: 223b 22bc ab44 2ebc 6378 533e 377f bcbd
000003b0: d21d 32be dd8d 123e 9e6b d6bd 03b5 173d
000003c0: e2ce 24be 8a9c 563d 0157 043d 42d3 1cbe
000003d0: 2d44 b5be 89e3 073e e356 3cbd 8930 7a3e
000003e0: 33be f63d d400 903d c088 aabd 1ab4 afbe
000003f0: b6fa 493e 1a9e fa3d 37c0 9dbe e33f 8b3c
-0.1159804 0.10713984 0.16458108 0.16462325 -0.030412657 -0.08053969 -0.2667382 -0.05265384
-0.081942536 0.08470372 -0.0548055 0.01882806 0.14772001 -0.15743254 -0.16612054 0.09715129
-0.16243935 0.18839712 0.1034441 -0.1377391 0.12465163 -0.15213424 0.17464957 -0.10946398
0.12389283 -0.08249962 -0.13370578 0.03772554 0.01905622 -0.18624729 -0.0885755 0.033934668
-0.02390793 -0.077626035 -0.05800241 -0.21983941 0.045938265 -0.11361448 0.039566517 0.0872514
-0.096051276 -0.08563455 0.051336806 -0.18263313 -0.12860562 -0.050246816 0.11066491 0.015442436
0.13859767 0.03847494 0.11663862 0.09103774 -0.17652847 0.027980227 -0.13734958 -0.13483757
0.17082085 -0.081461124 0.0654417 0.092767715 -0.17655496 0.05615948 0.08179088 -0.13800566
0.013436585 0.017551798 -0.12214266 0.0404753 -0.17182621 0.13177776 -0.100270405 -0.16782062
-0.056114264 -0.06932209 0.17045853 0.00489766 0.13370019 0.28123543 0.22733238 -0.25644913
0.22410339 0.022690771 -0.003448255 -0.28111085 0.08205289 0.047477286 0.09597577 0.08947263
0.13074148 0.15287079 0.06736254 0.11767171 -0.03313554 -0.10892943 -0.046118196 0.07512893
0.04688692 -0.031242657 -0.0595047 -0.048915736 0.15553051 -0.33337924 -0.05911906 0.12367923
-0.057481255 0.0069652027 -0.06354495 -0.10925139 -0.17497815 0.12291358 0.08543814 0.1051378
0.1458916 0.016325768 -0.09128195 -0.12965576 0.10847069 -0.061879206 -0.009286395 -0.15713789
0.050706126 0.21719195 -0.035090946 0.24306116 0.09969169 0.22223252 -0.057095412 -0.050246924
0.13141118 -0.11781542 -0.08887638 -0.17433758 -0.23217118 0.008260136 -0.026936008 -0.040977325
-0.13823377 -0.17335898 -0.057357498 0.15344937 0.07789464 0.08298379 -0.26570567 0.0152412485
0.121318564 0.076248065 0.04245827 -0.173207 -0.13957001 0.10262528 0.061186686 -0.12614556
-0.09738479 0.0658149 0.046391252 0.13448709 -0.043720134 0.29967 0.04757901 0.1549818
0.01650922 0.12403467 -0.05942793 -0.22967587 0.11491257 0.25354362 0.050506268 -0.12221169
-0.23565783 -0.048583455 0.07613444 -0.006207415 -0.0040576905 0.09247251 -0.006152781 0.13451658
-0.00080302026 0.16720308 0.011025884 -0.13621129 0.034234423 0.3297734 0.15173444 -0.009562214
-0.1191842 0.07596467 0.1269605 0.022787668 -0.31992105 0.07854111 0.14056924 -0.012474046
-0.084662795 0.08608649 -0.20783646 0.0004637429 0.041698847 -0.089442536 0.0034638336 -0.059954308
-0.07265068 -0.26205015 0.15239859 -0.110917896 -0.016773963 -0.04426312 0.013165841 -0.23922436
0.033233605 -0.067069724 0.15434094 -0.06748851 0.10159251 -0.075105645 -0.008405316 -0.010296303
0.27473876 0.11733863 -0.13087039 -0.0554542 0.025516145 -0.10375353 0.066480555 0.11518023
0.15985358 -0.2867327 0.29598063 -0.13290708 -0.102927305 0.045031194 -0.17381558 -0.06967226
-0.009901794 -0.010636489 0.20651393 -0.09203952 -0.17394188 0.14311929 -0.10469745 0.03703786
-0.16094545 0.05239538 0.032309536 -0.15314963 -0.35403576 0.13270392 -0.0459813 0.24432577
0.12047996 0.07031408 -0.08326864 -0.34317094 0.19724545 0.12237187 -0.3081071 0.016998237

critic.2.bias f4 [128]
00000000: 30b5 1cbe 9c14 5d3d 2351 0d3d 9915 a23d
00000010: 0ee5 e33d efcf 60bd f8d0 4bbb 95df ab3c
00000020: d193 59bd 4031 0b3d 12e8 443d 0c98 e53d
00000030: e6df bf3a eae1 89bd 56d2 043e 5f68 313b
00000040: 3b9e 04be 2cd0 1a3e bd89 04be 3624 e33d
00000050: 3532 13bd 991c 0f3e 8227 b63d bafe b53d
00000060: bc36 583d 1e81 15be b06d 7dbd 86d6 dabc
00000070: 87ed d23d 4bd0 bf3d b268 24bc 3ef9 f1bd
00000080: bbcd 00be 12ae d9bd ac3b a23c ef47 b4bd
00000090: 955f d6bd 7f8e 18be 2a43 b23d ff75 32bd
000000a0: 99da 553d aaca ff3d b053 b13d 8a26 093e
000000b0: 966d 9fbd d558 b7bc c9a7 b2bd 41ad d03c
000000c0: 4c95 08be c615 cf3d 0cb5 8ebd 8fe0 a1bd
000000d0: 081a 90bd 6436 f93d 9315 423d e325 783d
000000e0: bfc2 853d 7542 63bc f57e 50bd 2dc5 bf3d
000000f0: 603a d4bd a4ae 8abd 2dd6 1d3e b885 21ba
00000100: da0e b23d 40a4 f6bd 3a71 533d 128e 1a3d
00000110: ff3e f8bc fc82 9a3d 42c3 523d da5d 12be
00000120: 2e3a a5bb 5a92 ba3c 1782 5fbd 70c2 f43d
00000130: 6052 35bc 6355 9c3d 0dee dfba 5fd3 29bc
00000140: 3f3d 8f3d 91f7 a43c e133 1e3e add2 b23d
00000150: 65b7 0ebe 7e45 88bd b7e8 bbbd e7d4 c2bc
00000160: 639e 3d3d 92cc db3c d46f 94bd ebc2 a43d
00000170: 8b43 bf3c 66ea fcbd 3ea5 1d3e 3e21 223e
00000180: d593 23be e6d6 3ebd 3d67 933c d97b 9ebc
00000190: 56e4 80bd 4dbc 2abd eab3 e9bd d248 c3bb
000001a0: 4922 6a3d 1160 c03d 88c8 083e 9e1e 323c
000001b0: 5bf3 44bd 3868 233d 2528 20bd c544 bcbd
000001c0: a247 94bd 4586 4a3d 3990 133e 630e 1a3e
000001d0: 6786 efbd 632c 0e3e 6751 143d d17c cdbd
000001e0: dc56 2abe 85fc 503d 3725 7e3d 68bb 88bd
000001f0: 9c43 a1bd 6cd8 bbbc c427 a3bd 0b79 b53d
-0.15303493 0.053974733 0.034501206 0.07914276 0.11127673 -0.0548858 -0.0031099897 0.020980636
-0.053119484 0.033982515 0.048072882 0.11210641 0.001463887 -0.06732543 0.12970862 0.0027070267
-0.12950985 0.15118474 -0.12943168 0.11090891 -0.035936553 0.13975753 0.08894254 0.08886476
0.052786574 -0.14600036 -0.061872184 -0.02671362 0.10299211 0.093659006 -0.010034727 -0.11815117
-0.1257848 -0.106289044 0.019803844 -0.08802783 -0.104674496 -0.14898108 0.08704217 -0.04356956
0.052210424 0.12489827 0.0865854 0.13393608 -0.07784574 -0.022381226 -0.08723409 0.025473239
-0.13338202 0.10111575 -0.06968126 -0.07904159 -0.07036215 0.12168577 0.047383856 0.060583007
0.065312855 -0.013870825 -0.050902326 0.0936378 -0.10362697 -0.06771591 0.15413733 -0.0006161588
0.08694239 -0.12043047 0.051621653 0.037733145 -0.030303476 0.075445145 0.051455744 -0.14293614
-0.005042336 0.022774864 -0.054567423 0.119511485 -0.011067003 0.07633474 -0.0017084494 -0.010365336
0.06994104 0.02013758 0.15449478 0.087315895 -0.13937147 -0.066538796 -0.09175246 -0.02378316
0.046293627 0.026830945 -0.07247892 0.0804499 0.023347637 -0.123493955 0.15395066 0.15832993
-0.15974362 -0.046591662 0.017993564 -0.019346165 -0.062935516 -0.041683484 -0.11411269 -0.0059596086
0.057161603 0.09393323 0.13357747 0.0108715575 -0.048083644 0.039894313 -0.039100785 -0.09192804
-0.072402254 0.049444456 0.14410485 0.1504455 -0.11695557 0.1388412 0.036210444 -0.100335725
-0.16634697 0.05102207 0.06204721 -0.0667637 -0.078742236 -0.022930346 -0.07966569 0.08860978
