policy/PPO/checkpoints/2025-10-09_20-33/ppo_soarm_1000.pth (torch, 895437 bytes, 33 tensors)

actor.0.weight f4 [256, 12]
00000000: 53b1 413d be2c 303d 8930 6d3e d80b 3dbe
00000010: 34a5 853e 3a63 823e 4893 e53d f985 16be
00000020: 811f 99bd fcfa 13be b35c febd f1c6 353e
00000030: dfe6 9ebe 0261 e8bd 59e0 273e 3531 5ebe
00000040: 7bf1 b9be d10e cd3c 8c8e 00be aec6 323e
00000050: 7248 5d3d 2409 26bd 6c08 2bbe d1f3 56bd
00000060: 824f 20bd ee20 15be c9ba e23b 2811 8ebc
00000070: f2e1 73be bf63 1dbe 8261 223e 0b6f ff3b
00000080: 76e1 cb3d 5801 60be 67db 7cbe d711 353e
00000090: 3745 1ebd fc2c 223e 65c3 593e f930 dfbb
000000a0: 92cc 823e 0c01 183e 878e 3b3e 62d7 393e
000000b0: a8f9 28bd 7dfb 08be 0c79 0e3e 6579 29be
000000c0: 93df a93c 01cb 58be 6bd3 13be cb28 5dbd
000000d0: 1053 9d3e 7908 2fbe 0b23 ba3d 0a07 303e
000000e0: 9276 003e ddbc 86be 3b86 90be 20e1 1bbe
000000f0: a34f 773e b4e5 1fbe 538e ffbd 6f07 47be
00000100: f31e adbc 43a8 a23e 1a4c 1e3d 8082 65bd
00000110: 2600 873e 7ea4 293c ceea 96be c5b4 f5bd
00000120: 4172 5dbd c892 813d eeb4 693e 0335 84be
00000130: f405 02bd cf84 573e 642d 55bd c900 443e
00000140: 10d3 163e afa9 2d3e 4487 90be 82bf 2dbd
00000150: 08b1 eb3d a0e2 4c3d d8a6 3a3e 56a3 053e
00000160: 3ab7 a8be ac4e 3abe 141a 8dbd 2e4b 1cbe
00000170: 0b5b cabd ffef 5c3e 5bb3 febd 1f40 883e
00000180: db26 343e c2a8 3e3e b866 3a3d 1145 14bd
00000190: 1d73 f9bd 6909 893c 84a0 5dbe c4f2 533e
000001a0: db8e 5e3e 6eb7 863e ec85 2abd 3b2a 953e
000001b0: 8a79 03be 5f50 df3d 44a6 d1bc 7c22 91bd
000001c0: 2e14 ad3c 3c0f 803c ee1e 2f3d 2fdb be3d
000001d0: c788 0a3e 2077 cb3d 8d24 1c3d 863d 26be
000001e0: f7a1 18be 93d6 493e 5380 503e 58ec 01be
000001f0: 66d7 4a3e bb29 ae3d e67e 01be a1b1 6d3e
00000200: 1c21 18be 01c3 5d3d bc8b 083e 6136 05bb
00000210: a5ee ffbc 2008 61bd 1b68 90bd cc7a 343c
00000220: 42cf 4cbe bbe8 713e 22ac 0f3e 6a3f c13c
00000230: 0b3d 293d e8f7 403e dc0b 403d c7a8 5b3e
00000240: e06d 3e3e 6519 4cbd 0ec4 3c3e 2084 4b3d
00000250: 449e 85bc a0b0 d2bb a4c2 ac3d bed6 813e
00000260: 0b57 c0bc 5bd0 33be c57a 753c 632a 943e
00000270: 17a9 273d 6796 b0bd 4dd6 873d 9571 933e
00000280: 4d38 02be fb84 1b3e aba9 4a3e 3c43 0abe
00000290: 3333 b73c f088 8bbe e4bf 2dbe 544c 18be
000002a0: 793f 4fbc 6607 57be 75ca f13c b7af 9a3d
000002b0: 9416 4dbe 888d 333e 4550 80bd 4cae 423e
000002c0: 5eaa d93d c1b2 51be 3471 27be 7658 ee3c
000002d0: 930b 9d3d 0dce 6bbd 2ef4 fdbd d8d1 bebd
000002e0: fc6d 363c 62b9 f83d f37f 853d 2133 413e
000002f0: 8f14 9c3e 85ad 9d3d 7c0e 213e f496 513e
00000300: 74dc dcbd e58b 903c 9826 8ebd c841 72be
00000310: 80f0 34be ad1a 8cbd cb63 653e 049f 113e
00000320: 084e 873d ff08 c13d e592 debd f61a 49be
00000330: 89a7 4e3e e984 39be 2657 08be 150d 85be
00000340: a3bf 7bbc 6dd7 7f3d e58b c03d dc72 41be
00000350: 53ee 2a3d 9f41 613c 9cbb 90bd 71a1 56be
00000360: 58ac 833e 19a0 7e3e 003a 0d3e 918a 4bbe
00000370: 055b 3e3e d874 933e 12af ea3d 6782 f13d
00000380: 2768 c9bd 3812 fbbd 846c f8bd fb11 853d
00000390: cbe9 cfbd 785a 71be 9e95 2bbe 5cc1 86be
000003a0: c3b8 713e 3296 f7bd 8591 e03d 709e 323e
000003b0: 8f66 3a3c c905 7d3e b5f0 313e 5cd0 373e
000003c0: 1732 a83e 0205 853e 86e9 95bd 6aec 463e
000003d0: 77d3 8e3d 844e 6fbd 2d2a 24bc c281 9f3e
000003e0: 535a 483e c54d 8dbd 7c3a 0cbe ea9a c8bd
000003f0: c5cf 87bd 7e84 e93d 65e5 9dbd 08b6 3b3e
0.04728825 0.04301142 0.23163046 -0.1846155 0.26102602 0.2546633 0.11209732 -0.14699544
-0.07476712 -0.14451212 -0.12420025 0.17751671 -0.31035516 -0.11346628 0.16394176 -0.21698458
-0.36317047 0.02503148 -0.12554377 0.17458603 0.054024167 -0.04053606 -0.16702431 -0.052478615
-0.039138325 -0.14563343 0.006919239 -0.017342165 -0.2381666 -0.15370081 0.15857509 0.00779522
0.09955113 -0.21875513 -0.2469307 0.17682587 -0.038640227 0.15837473 0.21265943 -0.006811258
0.255467 0.1484415 0.18316089 0.18148568 -0.041253716 -0.13377185 0.13913363 -0.16550215
0.020736491 -0.2117119 -0.14436118 -0.05399398 0.30727434 -0.17093076 0.09088715 0.17190185
0.12545231 -0.26315966 -0.2822741 -0.15222597 0.24151473 -0.15614969 -0.12478318 -0.1943643
-0.021132922 0.31768999 0.038646795 -0.056032658 0.263673 0.010354159 -0.29476017 -0.1199737
-0.05406404 0.063268244 0.22822925 -0.25821695 -0.03174396 0.21046756 -0.05204524 0.19140925
0.14728951 0.1695926 -0.282282 -0.042418964 0.115083754 0.050020814 0.18227708 0.13050589
-0.3295229 -0.18194073 -0.0688974 -0.15263054 -0.09880646 0.21575926 -0.12436553 0.2661142
0.17592947 0.18619063 0.045508116 -0.03619868 -0.12180159 0.01672812 -0.21643263 0.20698076
0.21734183 0.2631182 -0.041631624 0.29133782 -0.12839332 0.109040014 -0.025591977 -0.070866555
0.021127786 0.015632264 0.042754106 0.0931915 0.13528739 0.09934831 0.038120795 -0.16234407
-0.14905535 0.1971076 0.20361452 -0.12687814 0.1980873 0.08504053 -0.12646064 0.23212291
-0.1485638 0.05414105 0.13334554 -0.0020326602 -0.031241724 -0.05493939 -0.070511065 0.011015605
-0.20000938 0.23623936 0.14030507 0.023589808 0.04131798 0.18844569 0.04688631 0.21451102
0.18596601 -0.049828906 0.18434164 0.04968655 -0.016310818 -0.0064297467 0.08435562 0.25359148
-0.023479005 -0.1755995 0.014982884 0.28938589 0.04093274 -0.08622437 0.066326715 0.28797594
-0.1271679 0.15187447 0.19791286 -0.1350221 0.02236328 -0.27252913 -0.16967732 -0.14872867
-0.01264941 -0.20998916 0.029515484 0.07553046 -0.20028144 0.17534459 -0.0626531 0.19011801
0.10628198 -0.20478345 -0.16351777 0.029094916 0.07668223 -0.057569552 -0.12400089 -0.09317368
0.011134621 0.12144734 0.06518545 0.1886716 0.30484435 0.07699112 0.15728182 0.2046774
-0.107842356 0.017644832 -0.06940955 -0.23657906 -0.17669868 -0.068410255 0.22401349 0.14220816
0.0660668 0.09425544 -0.10867862 -0.19639191 0.20181097 -0.18117107 -0.13314494 -0.25986543
-0.015365514 0.062461305 0.09401683 -0.18891472 0.04173119 0.013748555 -0.07067034 -0.20960023
0.25717425 0.2486576 0.13791656 -0.19877078 0.18589409 0.28800082 0.11459173 0.117924504
-0.098343186 -0.12259334 -0.12130073 0.0649757 -0.10152014 -0.23569667 -0.16756293 -0.26319396
0.23605637 -0.12089194 0.10965256 0.17443252 0.011376991 0.24709238 0.17376979 0.17950577
0.32850716 0.25980383 -0.07319932 0.19426122 0.069739275 -0.058424488 -0.010019821 0.31153685
0.19565706 -0.06899599 -0.13694185 -0.097951725 -0.06631426 0.11402224 -0.07709769 0.18331158

actor.0.bias f4 [256]
00000000: 79d7 803e 03db 58be c2f5 f73d b6f8 a53d
00000010: 77a2 683e 38db 2cbe b7ed 7a3e 4d65 92bd
00000020: c12c 8dbe a17f 5b3d 161c 893d b7ff 02be
00000030: 1c70 643d 237e 083d c967 503e 049c aebd
00000040: 700b 383d a692 443e c1c0 ebbd efbf bdbc
00000050: 9a83 b53d 0c70 ffbd 63e4 dd3d 95c4 cabc
00000060: c4b5 283e 3254 a3bd 6869 60bd f0f8 24be
00000070: 7a5f bd3c d8f6 d33c 288c 61be 3317 7c3e
00000080: 110f 863e 8277 92bd 10c6 80be f75f e03c
00000090: 174f b6bd e748 0a3e c29c 5b3e 46db 823d
000000a0: 4340 703e d85b e4bd 36b0 2e3e 3794 26be
000000b0: e5a5 18be b7d1 903d 6884 1e3e fa41 283e
000000c0: d737 cd3c 6746 763e eb67 5a3c 814e 223e
000000d0: 88bb 9abd 245e dc3d a0ef 1cbe 3e23 1bbe
000000e0: 0603 8c3e d1bc 6bb8 4631 bcbc f9ad 843d
000000f0: 571e b5bd 6377 053e e760 083d b60c 4fbe
00000100: ac38 34bd e8f4 273e 28d9 e5bd ffdb 4b3e
00000110: 1703 8f3d 40fa 80bd 0f6f 5fbe 5ada 59be
00000120: 94b4 07be ef31 203e 2cd0 a23d 1150 993d
00000130: c091 05be 2f1a 5c3e 19b2 883d 3900 643d
00000140: e859 7b3d 94b7 bfbc a74f 723e 3521 62be
00000150: f7a8 22be 2212 de3d 6a10 1a3e 3212 553e
00000160: 0981 32be d791 2c3e b6c2 633e 35d4 80be
00000170: 33bf 433e 58b0 14bd ace9 b43b adf0 aebd
00000180: 08d4 3fbe 9ac5 50bd e45c 6cbe 50a5 cc3d
00000190: 2516 013e 32a0 763e 94a4 893e a503 7abe
000001a0: dfe2 2a3e 552a 103b b942 34be 11c7 8d3e
000001b0: 906a 50bd f2cc 67bd fafd 33bd aaf5 23be
000001c0: b42d d43d 01e6 76be 3ed9 12bd 984c 4c3e
000001d0: ddfa b5bd e7a7 813e e340 88be 74e8 80be
000001e0: b074 933c 7346 8bbe 8b20 813d c394 50be
000001f0: b13d 3a3e 1446 0abe 32f2 1f3e 488e aabd
00000200: 59d9 9e3d bbe3 65bd e61a 4fbd c473 7a3e
00000210: c813 403d b1eb 0dbe 4d88 44be 98a1 213e
00000220: 9c74 913e 6c13 15bd f350 62be 5c8b a43d
00000230: da8f f9bd 485a d7bd 202d 1ebe d5a3 7a3e
00000240: 5888 61be 9223 24bd 6e3e 3f3e 3a54 a93d
00000250: c6b4 bebd 8ca4 5cbe 505f 863e 98f1 223e
00000260: e251 e43d f779 dabd 7cfb e7bd 7f87 163d
00000270: 4b16 78be 2bf5 093e 07c7 7cbc 40f0 85be
00000280: 49e6 95bd e9ab f0bd 87b6 313d e8b9 563e
00000290: e3de 7f3e b19f 203c 8b3f 723e cbfd 2a3e
000002a0: cc40 8cbe 0bab 0a3e 95e3 7d3e d7c9 4b3d
000002b0: 2cfe dfbd 07f0 6abd fe3e c3bd d25a 06be
000002c0: 5ae3 8f3d b753 5dbc c4fe 293d b0c8 8a3e
000002d0: c288 8fbd f527 513e 6456 bb3d 99d9 833d
000002e0: fb7f 41be e1b8 e63d 5837 0a3e 7e76 103e
000002f0: b29a 753d 0217 103d 7eda d93d 1e66 25be
00000300: 7a70 343e 8ea8 433e 78dd f8bd 9d69 3dbe
00000310: 2bbc 85bd e326 0bbe 5d85 1abe 4357 3d3e
00000320: 7e54 d0bc a69f cabd c57c abbd 75e5 ee3d
00000330: 09b1 3f3e ccc1 393e 4517 313e c1fb 523e
00000340: 883c ef3d 79f3 62be 3d6d 19be f1d8 aa3d
00000350: 6d44 a73d 5b03 283e 9d0a 873e c4fc b53d
00000360: 0eb2 173e 7878 213e 0c52 103e 915e 33be
00000370: 434e 82be a81d 87be 8c88 633e a310 e8bd
00000380: 236e 523e 1596 6bbe 07f6 56bc 0d8c 3bbd
00000390: 0407 12be c251 db3d fa15 63bd 6c37 003e
000003a0: c987 fabd eef6 003e d700 963c de65 253e
000003b0: 2c8b 9cbd 92d8 61bd 2e21 533e 754e 8e3e
000003c0: d20d 753c 24b5 4bbe c428 8bbd fdf6 fb3d
000003d0: 5a29 89be 0c8d 4c3d a31c 85bd 0d0f 4bbe
000003e0: f403 0b3e 31b0 6d3d ca39 83be fb12 84bd
000003f0: 1a3c ffbd 674b 7dbe 53a9 3abd db79 493e
0.25164393 -0.21177296 0.121074215 0.081040785 0.22718225 -0.168805 0.24504744 -0.07148228
-0.27573207 0.053588513 0.0669481 -0.1279286 0.05577098 0.03332342 0.20352091 -0.08525851
0.044932783 0.19196567 -0.11511374 -0.02316281 0.08862992 -0.12472543 0.10834577 -0.02475194
0.16475588 -0.07975043 -0.054788023 -0.16110587 0.023116816 0.02587454 -0.22026122 0.24618225
0.2618337 -0.071517006 -0.2515111 0.02738951 -0.08901804 0.13504373 0.21446517 0.06389479
0.23462014 -0.1115033 0.17059407 -0.16267477 -0.14907034 0.0707125 0.15480196 0.16431418
0.02505104 0.24050294 0.01333044 0.1585026 -0.075553 0.107601434 -0.15325785 -0.15150163
0.27346057 -5.6204215e-05 -0.022972714 0.06478495 -0.088436775 0.13033824 0.03329554 -0.20219693
-0.04399936 0.16402018 -0.1122306 0.1990814 0.06983011 -0.062977314 -0.21819709 -0.21274701
-0.13252479 0.15644048 0.07949862 0.074859746 -0.1304388 0.21494363 0.066745944 0.055664275
0.06136504 -0.023402967 0.23663197 -0.2208298 -0.15884767 0.10843302 0.15045324 0.20807722
-0.17432036 0.16852508 0.22242245 -0.251619 0.19115905 -0.036300987 0.00552102 -0.08541999
-0.18733227 -0.050969698 -0.2308231 0.09992468 0.12606104 0.24084547 0.26883376 -0.24415453
0.16688107 0.0021997888 -0.17603578 0.27690938 -0.050882876 -0.056591935 -0.043943383 -0.16011682
0.1036028 -0.24111177 -0.03585171 0.19951093 -0.08885739 0.25323412 -0.26612005 -0.25177348
0.017999977 -0.27202186 0.06305035 -0.20369248 0.18187596 -0.13503295 0.15619734 -0.08327919
0.077562995 -0.056125384 -0.05056276 0.24458224 0.046893865 -0.1385944 -0.1919262 0.157843
0.28409278 -0.036395475 -0.22101192 0.08034393 -0.12185641 -0.10515267 -0.15446901 0.2447656
-0.22024667 -0.040072985 0.18676159 0.08268018 -0.093118235 -0.21547145 0.26244593 0.15912473
0.111484304 -0.10667794 -0.11327264 0.036750313 -0.24227254 0.1347243 -0.015428311 -0.2615986
-0.07319314 -0.11751539 0.043386962 0.20969355 0.24987368 0.009803698 0.23657052 0.16698377
-0.27393186 0.1354181 0.24793847 0.049753036 -0.10937151 -0.057357814 -0.09533499 -0.13120583
0.07025786 -0.013508729 0.04150273 0.27106237 -0.07008506 0.20425399 0.09147337 0.06437988
-0.18896477 0.112657316 0.13497674 0.14107701 0.059961982 0.035178192 0.10637377 -0.16152236
0.17621031 0.19107267 -0.12151617 -0.1849732 -0.06530031 -0.13589053 -0.15089937 0.18490319
-0.025430914 -0.09893732 -0.08373407 0.11664859 0.18719877 0.18140334 0.17294033 0.20603849
0.11681467 -0.2216319 -0.14983077 0.083421595 0.08167348 0.1640753 0.26375285 0.08886102
0.14814016 0.15768611 0.14093798 -0.17516543 -0.25450334 -0.26389813 0.22220057 -0.11331298
0.20549826 -0.2300647 -0.013120181 -0.04578786 -0.14260489 0.107089534 -0.05544088 0.12521142
-0.1223293 0.12594196 0.018310947 0.1615214 -0.076437324 -0.05513818 0.20618126 0.27794233
0.014956908 -0.19893318 -0.06794885 0.12302969 -0.2678936 0.0499392 -0.06499603 -0.1982996
0.13575727 0.058029357 -0.25630027 -0.06448933 -0.12462635 -0.24735795 -0.045571636 0.1967539

actor.2.weight f4 [128, 256]
00000000: 862b dd3b c05c 763c a699 553d ea38 ed3c
00000010: 90ae b2bd e619 4b3d 50c1 09bd 57b1 753d
00000020: 4857 9f3c 52f4 1d3d 41d6 bd3c 3f84 9e3d
00000030: 3097 79bd 3c80 383d 62cd 233d beca 523d
00000040: f037 e5ba 93ac 823b d333 28bd 156b 9b3c
00000050: e3c8 3b3d d552 483b d4d2 80bc ed72 44bd
00000060: 6832 c63b 41a9 23bd f5d4 47bd 9ebd d4bc
00000070: b7ca babc c667 4cbd a2ab 623c 46a5 073c
00000080: 4a0a e8bb 20bf d03c 0c79 9abd 7ff6 3ebd
00000090: a470 043d c0fc 363d 8b76 473c 7825 19bd
000000a0: 6600 b2bb 401f 333d f18f 4c3d c196 0fbd
000000b0: 4f21 bf3c ab2a b13b 6615 c33b bd13 7bbd
000000c0: 59a8 02bc a2cc 19bc 534c 56bd 0250 fc39
000000d0: 7720 453d 364d 86bd edac 763c 6b13 9abc
000000e0: 7655 6cbd d3f8 263d d414 7fbd 4efb b33c
000000f0: aac8 693d 1b0e 253d 2299 1abc 402d a03c
00000100: 92e3 3abd 2867 b2bc 6c74 353d d2e9 94bc
00000110: 1ced 803a 8c71 3cbd b36d 93bc 7020 f83c
00000120: e231 1b3d 3fad dd3c 0269 1f3c 9ba4 073d
00000130: 42e0 453d 8062 39bc c8ed a9bc c781 763c
00000140: d415 fbbc bbce 123d 4cde c7bc 73ea e8bc
00000150: 3a52 313c 989f cabc 54d8 cebc 7bae 16bd
00000160: 6570 c9bc 3d28 8bbb e1fe 553c f156 6bbd
00000170: 1377 20bd 6eff 02bd 5a2d c2bb 6e3f 46bd
00000180: dc8b 8fbd 5f94 743c 23e7 0abd a2c4 4a3d
00000190: 83a0 5dbd 15eb e9bc fd2c b6bd 53a2 4dbd
000001a0: c294 d2bc 1a53 c73c 07c3 27bd 38fd a7bc
000001b0: 3e76 d53c f2e1 253d e1cf 2dbd 21bd b53c
000001c0: 9f11 babd ddff 31bd fc6c c13c 3292 813c
000001d0: 292c 1abd 6774 b6bc 55fd f43c e51c 3cbb
000001e0: 7ceb b8bc ce82 c7bc c2d0 e03c d618 463b
000001f0: 3cde cdbc cce3 13bc 355b 87bb c91d 4a3c
00000200: 46d8 583d 0245 1bbd 8d6a a33c 3279 38bc
00000210: c3c1 7abc 64d6 43bc ce75 63bd 1268 833b
00000220: b7cf adbd 02e0 163b 4d5b 0b3d f278 0fbd
00000230: d96b c0bd 6cbe fcbc 51f8 32bd de86 293d
00000240: 4c3a 233d 86ec 51bb d0d8 5dbd a622 a33c
00000250: 8620 4bbd 6cb7 123d f43c f0bc 4d84 28bd
00000260: 63a3 343d 8219 693b 37f9 c7bc 36f5 c13c
00000270: cd10 4d3d a006 c8bd 6068 f7bc 6f38 21bd
00000280: eb9e 513d 0342 fb3c 38c3 e23a 7a72 02bc
00000290: e4f9 27bd 48e8 113d f06f 98bc b6d8 afbb
000002a0: 44ed 413d 1475 283d f9e3 39bd 4451 d83b
000002b0: d814 e53c 499f c23d 2601 043d 7b6c 8abc
000002c0: a791 693d 5b95 573d 64c6 93bc 4f02 263d
000002d0: db60 a0bc 4047 eb3c 99d2 823d 17aa 473d
000002e0: 0002 273d 520a 18bd c1f3 0f3d e8e5 973c
000002f0: ead6 55bd d13a 373c 3d84 4fbd 05a2 913c
00000300: 7c19 d6bb d2b1 9fba d790 153c a569 63bd
00000310: b009 413d cbc7 403d 7f85 7dbb aa5d eb3c
00000320: f637 2d3c a951 5cbd 87f8 ea3a 0a5e a3bc
00000330: d654 86bd 1f60 81bc 888f 593d 7246 47bd
00000340: 8924 583d 9627 9d3d 45e3 3d3d 0250 34bd
00000350: 5dc0 d23c b1f3 6c3d 52a0 d0bc e726 203c
00000360: 3091 98bc 8a19 bf39 c6df 94bd f868 8c3d
00000370: fa65 d23a 33b2 2bbd e9c6 4fbd 38f7 29ba
00000380: e276 0c3d 031b fd3a 0f3d c43c 3a19 9cbd
00000390: 403c 233d 303f 1f3b e1ca 4abc 2d8e 4dbc
000003a0: b236 8ebd f53c 303d c70a 333d f22b 13bd
000003b0: ec6e 4c3d 7d1e 433c 9d4b d1ba 8260 70bc
000003c0: be31 48bb b629 d1bc 0153 593d 95fb ca3c
000003d0: 9c22 32bc 9db3 0d3d 1722 243d 6460 aa3c
000003e0: 0104 5cbd 45b4 a93c 5327 7dbc f128 bdbc
000003f0: 459e 63bd 7d95 46bd 0849 c53b 3e1e 3ebd
0.006749573 0.015036762 0.052148484 0.028957803 -0.087247014 0.049585246 -0.033631623 0.059983578
0.019450799 0.03856308 0.023173453 0.07740068 -0.0609352 0.04504417 0.03999079 0.05146288
-0.0017487984 0.0039878576 -0.04106505 0.01897196 0.045845877 0.003056695 -0.01572553 -0.047961164
0.0060484894 -0.039956335 -0.048787076 -0.025969323 -0.02280174 -0.049903654 0.013834866 0.00827915
-0.0070813047 0.02548176 -0.07542619 -0.046621796 0.032333985 0.044674635 0.012174259 -0.03738925
-0.0054321764 0.043730974 0.04994196 -0.03505588 0.023331312 0.0054066977 0.0059534786 -0.06129812
-0.0079747075 -0.009387167 -0.052318882 0.00048124796 0.048126664 -0.065576956 0.015055877 -0.018808087
-0.05769869 0.04076464 -0.062275723 0.021970417 0.057076134 0.040296655 -0.009435924 0.019552827
-0.045627184 -0.021777704 0.04430048 -0.0181779 0.0009836289 -0.046006724 -0.017996645 0.030288905
0.03788937 0.02706015 0.009729626 0.033115964 0.048309572 -0.011314988 -0.020743266 0.01504559
-0.030650057 0.035841685 -0.024397992 -0.028432107 0.010822827 -0.024734303 -0.025249638 -0.03678749
-0.024589727 -0.00424674 0.013061256 -0.05745596 -0.039176058 -0.031981878 -0.0059258165 -0.048400335
-0.07009098 0.014927953 -0.033911835 0.04950393 -0.054108154 -0.028554479 -0.088952996 -0.050203633
-0.025705699 0.024331618 -0.040957477 -0.020506486 0.026057359 0.04049868 -0.042434577 0.02218491
-0.09085392 -0.0434569 0.023611538 0.015816782 -0.03763977 -0.022272302 0.029905954 -0.0028703746
-0.022573225 -0.024354365 0.027443293 0.0030227206 -0.025130384 -0.009026479 -0.004130746 0.012336203
0.05294063 -0.037907608 0.019948268 -0.011259364 -0.015304985 -0.01195297 -0.05553227 0.004010209
-0.08486884 0.0023021703 0.034022618 -0.03502745 -0.0939557 -0.030852519 -0.043693844 0.041388385
0.039850518 -0.0032031848 -0.054161847 0.019913983 -0.049591564 0.035819456 -0.02932594 -0.041141797
0.04410113 0.0035568182 -0.024410827 0.023676496 0.05006485 -0.097668886 -0.030201137 -0.03936046
0.051176947 0.030671125 0.0017300611 -0.007961864 -0.0410098 0.03562191 -0.018608063 -0.00536641
0.047345415 0.04112728 -0.045383427 0.0066014845 0.02796404 0.095030375 0.032227658 -0.01689743
0.05702367 0.05263267 -0.018038936 0.040529545 -0.019577434 0.028720498 0.063878246 0.048746195
0.04077339 -0.037119217 0.03514457 0.018542245 -0.05220691 0.0111834565 -0.05066322 0.017777452
-0.0065337997 -0.0012183732 0.009128771 -0.055520672 0.04712838 0.047065537 -0.0038684306 0.028731186
0.010572424 -0.053788815 0.001792685 -0.019942302 -0.0655915 -0.015792904 0.053115398 -0.048651166
0.052769218 0.07673566 0.04635932 -0.044021614 0.025726492 0.05784959 -0.025467072 0.0097749
-0.018623918 0.00036449387 -0.07269244 0.06855959 0.001605212 -0.04191799 -0.050726805 -0.0006483677
0.034293063 0.0019310418 0.023954896 -0.07621999 0.03985238 0.0024299137 -0.012377472 -0.012546104
-0.06944026 0.043026883 0.04371145 -0.03593058 0.04991047 0.011909124 -0.0015967969 -0.014671447
-0.0030547227 -0.025532585 0.053057674 0.024778167 -0.010872509 0.03459512 0.040071573 0.020797916
-0.053714756 0.020715842 -0.01545127 -0.023090811 -0.05557086 -0.048482407 0.006020669 -0.04641556

actor.2.bias f4 [128]
00000000: efee 7e3c bbc5 70bc 1903 513d 3b2a 3d3d
00000010: 1299 40bd 34bd 493d bd69 0fbd b4dc f8bc
00000020: 4705 503d eb64 7d3c a5f6 533c 83f1 c9bb
00000030: be95 393d 07bf 45bd b54c a3bc b8e0 253d
00000040: 7dbf b9bb e055 223d bab2 633c 93c6 fabc
00000050: 27ed 65bd 4739 e83c 3ac3 6a3d be69 fb3c
00000060: 6e41 c1bb daa5 6dbd e378 1fbd 0517 c7bb
00000070: d62a 64bd e9c1 0abd 4043 1d3d 0bbb d6bb
00000080: d38f 2abd 11a9 1bbd b48e 033c 94c5 3cbd
00000090: 47c4 143d 5e78 463d 2bf2 203d 6e80 63bd
000000a0: e166 68bd 81f1 0c3d 464e 473d 906d 163d
000000b0: b62b 81bb 29f1 dcbc 65aa 8eba 4099 12bd
000000c0: 2280 513d 7c6f c5bc 2bfb 3dbd 01bb 2abd
000000d0: 8ac1 3ebd 8bc8 e8bc e23e 1cbd d2da 6f3c
000000e0: 907a 22bc 3b58 0e3d 3bd7 213b bbf6 823d
000000f0: b991 d73c 7817 213d 5a64 f1bc 1fb5 52bd
00000100: 2cf5 d53b a37d b4bb 65e8 e93c 790c 583d
00000110: f265 fabc 5a87 edbc cffe dc3c 113d 4ebd
00000120: d19a 55bd 6736 64bd b3a7 11bd a647 a2bc
00000130: 5961 663d baa6 33bd a12a 87bc eafd 3ebc
00000140: 21d3 58bd 54d0 fa3c 1aa1 4abd ff6a 57bd
00000150: f378 083c 0a2d a0bc 5b9f 7039 b63a 413d
00000160: 1478 1b3d 6f4d 2bbd 19b6 163d b16d 773d
00000170: 61a0 31bd 34cc c0bc 15ed 1ebd db3a 83bc
00000180: 26b8 6abd 270d 0abd 928b 55bd 80c6 c8bb
00000190: 1839 68bd e0f1 8d3b 9aa1 173d d80b c6bc
000001a0: a102 643c e157 ecbb 8dcb 293d ef61 733c
000001b0: 4ddf 6e3c 200e 10bd 73c0 203d b2ce 89bb
000001c0: dea3 02bb fb31 1dbb dc6c 2d3c e52f 51bd
000001d0: ef3d cbbc 5bae 05bd 3e6e 63bc d2c8 4e3d
000001e0: 5bd6 4e3c 0c8c f9bc 4448 d93c 08b6 50bc
000001f0: aba4 02bc 4232 983b 60ba 223d 050a f8bc
0.015559896 -0.01469558 0.051028345 0.046182852 -0.04702098 0.049252704 -0.03501295 -0.030378677
0.050786283 0.015465955 0.012937223 -0.0061628236 0.04530882 -0.04827788 -0.019934038 0.04049751
-0.005668579 0.039632678 0.013897592 -0.030612266 -0.05613437 0.028347624 0.05731509 0.03069007
-0.0058976924 -0.058019497 -0.038933646 -0.006075742 -0.055704914 -0.033876333 0.038394213 -0.006553059
-0.041641068 -0.03800303 0.008029629 -0.046086863 0.036319997 0.048454635 0.03929345 -0.055542402
-0.056738738 0.034410004 0.04865863 0.03672558 -0.0039419783 -0.026970463 -0.0010884522 -0.03579068
0.051147588 -0.024101011 -0.04638211 -0.041682247 -0.046571292 -0.028415939 -0.038145907 0.014639573
-0.0099169165 0.034752112 0.0024694938 0.06394716 0.026314603 0.039329022 -0.029466797 -0.05144226
0.006529471 -0.005508141 0.028553197 0.05274627 -0.03056619 -0.028995205 0.026976971 -0.050351206
-0.052149598 -0.055715945 -0.03556032 -0.019809555 0.05624518 -0.043860175 -0.01649982 -0.0116572175
-0.052935723 0.030616917 -0.049470045 -0.052592274 0.008329618 -0.019552726 0.00022947548 0.04717513
0.037956312 -0.041821893 0.036794756 0.060407344 -0.04336584 -0.023534872 -0.038800318 -0.016019275
-0.057304524 -0.03370395 -0.052135058 -0.0061271787 -0.056695074 0.0043318123 0.03701935 -0.02417557
0.013916642 -0.0072126244 0.041453887 0.014854892 0.014579606 -0.03516972 0.039246034 -0.004205548
-0.0019934098 -0.002398609 0.010585036 -0.051071066 -0.024809806 -0.03263698 -0.013881264 0.050484486
0.0126243485 -0.030462287 0.026523717 -0.012738712 -0.00797383 0.004644663 0.039728522 -0.030278215

actor.4.weight f4 [6, 128]
00000000: 43e3 80bb 451c 21bd f60a e7bc 006a 853b
00000010: 0a7c a63c 16b7 66bc 16a0 3cba 31b6 a83b
00000020: ddaf f8bc 3ba4 83bc c3ff 40ba 2497 ba3a
00000030: a004 e83c c159 b33c a713 fc3b 05d7 c6bc
00000040: 5b6d a63d 4b17 45bc ce74 a13c 9aa9 313d
00000050: 2a3e fbbb 2cff 4a3c 4030 623c 84b5 3b3c
00000060: 6ebd 0d3b 1033 7abc bad2 0c3d 2575 26bd
00000070: 179e 903a 91ac 0a3d 1916 4abd 9cc7 913c
00000080: 92b8 153d 751d a2bc 0b81 633c 18de 48bc
00000090: c4cb acbc d885 2dbd c45c 203b 491a 393c
000000a0: cc03 60bd dd31 7a3c 5d83 603c 9551 2fbb
000000b0: 3a55 f33c 3c4f 003d 295a 093d eaeb 323d
000000c0: 63dc 64bc 6fa9 1bbc 47c5 d2bc c3b9 8ebc
000000d0: 1fe3 00bc bcf9 57ba 32ca 1b3d b5bf 01bc
000000e0: e2c9 9a3c 0c04 513c 3945 10bd c78f 683b
000000f0: 32de a93c e424 c0bc 5e5f 30bc 5924 683a
00000100: 9741 373d ffc2 0b3d 98bd 22bc b1bf f3bc
00000110: a624 0f3d 6398 b03c d588 973d cc0c ba3c
00000120: 779b 713d a032 03bd d88d 70bd 7c8e e0bc
00000130: 2dad 033a b679 333d a664 283d 4dee 1c3c
00000140: 0dd0 cd3c 0411 29bc 279a 203c 0f4e 5c3c
00000150: d134 0f3c 4dc9 2dbd 9dda 83bc d8e3 113c
00000160: d38e 16bd a780 e8bc c593 213d cbda 383c
00000170: 540c 723d 2374 a93c 7f88 13bd 4295 143c
00000180: dfdb d83c de8b 57bd c77f 67b9 4941 0c3c
00000190: 6dee 57bd 8bc2 05bd 2822 8bbd 01c4 5d3d
000001a0: a7c6 be3b ce9e 013c 0eed 043d ce71 313d
000001b0: 5d07 5f3d c19b d23b 0200 0f3d cd8e 66bd
000001c0: a141 663c 63ad efbc 65f9 0f3c 058c 9e3d
000001d0: efe8 98bb f438 2b3d 1016 8f3d 3860 73bc
000001e0: c13d a13c 08f5 83bc 9f2f 283b f749 1ebc
000001f0: 7860 243c 4a61 003d e4b1 ecbc fc66 943c
00000200: 680f 97b8 d9a3 d13c 0871 843b e58b 4d3c
00000210: 120b 2dbd ae9c 343d 9558 9b3d 608a 23bc
00000220: 4a02 1cb9 5536 5b3b 6bc0 283b 0999 233c
00000230: f5c7 82bc ae06 d3bc 3b10 383d e7db 39bc
00000240: 972e 1cbd 0882 a83c fdae 24bc 6e19 9d3b
00000250: e948 003d 9544 a5bc 7c56 3b3d 9cd7 433c
00000260: 4b93 afbb 841f d53c dc4a 20bd 4248 d6bd
00000270: b7ba 8dbc ab13 64bc 180b 34bd 8204 8ebc
00000280: fce1 e4bc 4eb1 2f3d 63ed e23c a70c 95bc
00000290: e619 cb3c ba8e 2d3d 2e36 2bbc d0fc 3abc
000002a0: d442 d9bc 2506 d43c 4c68 df36 4fdf a93a
000002b0: e7f9 503b 8ead 943d 103e 423d e3ed 12bd
000002c0: f5e4 d83b f79b 203d 74bc 2a3d 56ea 5bbd
000002d0: 64b1 4abd 7283 7b3c 36ac 25bc b031 82bd
000002e0: d1ff 00bd a1d7 843d b16d 493b ab4d 0d3c
000002f0: b594 4cbd f44d 183c bbfc d43a dae0 3cbb
00000300: f2c5 493d 33c3 48bd 0aba 74bc dd12 863d
00000310: 620c b73c a009 c8bc d6e7 adbc f8f1 913d
00000320: 4cbf 70bc 3555 03bc 0673 8dbd f3a2 d0bc
00000330: 6d72 943c ab3e a7bc de1b a63d 70fd 21bd
00000340: f81f 7dbc 0b1a d73c 7721 c9bc 86cd 53bd
00000350: d643 56bd a9f6 9f3d a834 273d 4ad8 8bbc
00000360: 05a0 acbc e14b 08bb 68f6 84bc b94f 1cbc
00000370: 8606 1b3d 8c37 293d 79dc 0bbd af0b acbb
00000380: 05ba ecbc 3e46 1dbd de12 f9bb 91e2 0c3b
00000390: 47fa a0bd ff0a 6c3d 1b8f e23c df03 883b
000003a0: c61c 11bc 1556 a23c ec8a 87bd 39c7 daba
000003b0: 2d35 21bd 076d 19bd cd7e b3bd 4f8b 63bd
000003c0: 295a 2bbd bc52 e93c b61e 61bc 352e b93c
000003d0: 3013 9f3d f5d8 353d b687 f43c 4ef7 7a3c
000003e0: 6c81 383d 21d5 ee3c b437 a03d f10e cc3c
000003f0: 95e5 8c3d 950b e2bc 8d67 e8bc ca45 b6bc
-0.0039333417 -0.0393336 -0.028203469 0.004071474 0.020322818 -0.014081737 -0.00071954855 0.005148672
-0.030357296 -0.016069522 -0.000736233 0.0014235717 0.028322518 0.021893384 0.0076927724 -0.024272451
0.08126327 -0.012029479 0.019709017 0.043374635 -0.0076673226 0.012389939 0.013805449 0.011456851
0.0021627801 -0.015270963 0.034380652 -0.04063906 0.0011033443 0.03385598 -0.04933748 0.017795376
0.036552973 -0.019789437 0.013885747 -0.0122599825 -0.021093257 -0.04236397 0.0024469355 0.011297771
-0.05469112 0.015270677 0.013703194 -0.0026751508 0.029703725 0.031325564 0.03353325 0.043682016
-0.01396856 -0.009500845 -0.025728835 -0.017422562 -0.00786665 -0.00082388124 0.038034625 -0.007919242
0.018895093 0.0127573125 -0.035222266 0.0035486089 0.020735834 -0.02345509 -0.010764925 0.0008855514
0.044740286 0.03412151 -0.009932898 -0.029754492 0.03494706 0.021557039 0.073991455 0.02271118
0.058986153 -0.0320307 -0.058729023 -0.027411692 0.00050230586 0.043817244 0.04111161 0.0095783
0.02512362 -0.010318998 0.009802378 0.013446345 0.00874062 -0.042428304 -0.016095454 0.00890442
-0.0367573 -0.028381659 0.039447565 0.011282633 0.05909379 0.020685261 -0.036018845 0.009068789
0.02647203 -0.052623622 -0.00022077477 0.008560487 -0.052717615 -0.032656234 -0.06793624 0.054142002
0.005822021 0.007911397 0.032452635 0.043321423 0.05445038 0.0064272587 0.034912117 -0.05628853
0.014053733 -0.029257482 0.008787488 0.0774155 -0.0046664397 0.04180236 0.0698663 -0.014854483
0.019682767 -0.016108051 0.002566315 -0.009661189 0.010032766 0.031342782 -0.028893419 0.018115513
-7.203111e-05 0.025590824 0.0040417947 0.0125455605 -0.042246886 0.044094734 0.07585255 -0.009981722
-0.00014878172 0.0033449132 0.0025749456 0.009985217 -0.015964488 -0.025760021 0.044937354 -0.011343933
-0.03813037 0.020569816 -0.010051486 0.004794291 0.031319533 -0.020174304 0.045736775 0.011953261
-0.005358135 0.026016004 -0.03913389 -0.10463001 -0.017300947 -0.013920705 -0.043955892 -0.017336134
-0.027939789 0.0428937 0.027701085 -0.01819451 0.024792623 0.042372443 -0.010449929 -0.011412814
-0.026521124 0.025881836 6.6580596e-06 0.0012960228 0.0031887235 0.072596654 0.04742247 -0.035871398
0.0066190907 0.03921124 0.04168363 -0.053690277 -0.04948558 0.015351163 -0.010111859 -0.063571334
-0.031493966 0.064864404 0.0030735547 0.0086244745 -0.049946506 0.009295929 0.0016249636 -0.0028820545
0.04926104 -0.04901428 -0.014936933 0.06546567 0.022344772 -0.024418652 -0.021228712 0.0712623
-0.014694046 -0.00801592 -0.069067046 -0.025468325 0.018120969 -0.020415625 0.08110784 -0.039548337
-0.0154495165 0.026257535 -0.02455209 -0.051709674 -0.052310787 0.078107186 0.0408217 -0.017070908
-0.021072397 -0.002079718 -0.016230777 -0.009540492 0.037848018 0.04131274 -0.034145806 -0.005250416
-0.028897295 -0.038397066 -0.007601126 0.0021497349 -0.078602366 0.057627674 0.027656129 0.004150852
-0.008856958 0.019816438 -0.06618294 -0.0016691453 -0.039357353 -0.037457492 -0.0876442 -0.055552777
-0.04183403 0.028481834 -0.013740232 0.022605041 0.077673316 0.04439636 0.029849868 0.015317751
0.0450453 0.029154362 0.078231245 0.024909468 0.06879727 -0.027593413 -0.02836969 -0.022250075

actor.4.bias f4 [6]
00000000: cac0 9dbd d75f 6a3d 88af 1ebd 83c2 b83c
00000010: 31be 42bd 529a afbd
-0.07702787 0.057220306 -0.03874162 0.022553688 -0.047544662 -0.08574356

critic.0.weight f4 [256, 12]
00000000: e869 c53d 5f5d 2dbd 0df5 263d f555 ce3d
00000010: 6d26 d03c cd31 013e 62b5 38be 9b94 ba3d
00000020: d943 fbbd ba8e 3e3e f462 d0bd 11c1 043e
00000030: fbea ff3d 6c0f 543e 535e 853e 366d 19bd
00000040: 2734 1dbe c119 1dbe 0673 4a3e eaf5 7dbe
00000050: d5f4 5abe 715a 043f 676c 513e 5c9e 3ebe
00000060: 793e 813e a1b9 41be 3811 2e3e f8e3 82be
00000070: 6db8 66bc ed3a 3bbe 5bd9 0b3e 8038 93bd
00000080: 8a90 fcbd e052 9f3e dba4 24bd 916b 0f3e
00000090: 0f7a 0d3e ee45 babd dcc5 843e 68f0 22bd
000000a0: 3c51 843d e597 65bd 6e12 e53d a912 3cbe
000000b0: 4bbc 4cbe fcae ba3e 6b73 5dbe 59a2 f9bd
000000c0: 93ff d5bd 413c be3d 6293 2c3e 1ce5 0dbe
000000d0: 0af8 1b3e 3cd9 113e b1c3 073c 0110 9e3d
000000e0: 99e8 643e 88d6 bebe c763 7fbe e24f 6ebd
000000f0: 91bc 0fbd 986e de3d d514 4bbe d1d9 6cbe
00000100: d9bd f03d 5d67 7e3d 2819 34be cddb 983e
00000110: 1cf4 f1bd c162 f8be 6e78 883e ec76 7a3e
00000120: 93a9 583e 16e0 42be 17ac a53d 357f 333e
00000130: 8ea2 7c3d 5791 093e 35c7 68bd 7c1b 8dbe
00000140: 2d2d 49be 30c4 cdbe 8ecc a9be 8233 8b3d
00000150: 78cf bb3e c6de b63d b342 fdbd 30c3 533d
00000160: 7a59 30bd 6a37 8f3d 86bd f8bd 82c5 6fbd
00000170: 8987 abbe 5f45 7cbe af2e 00be ba90 00bd
00000180: f10f 153c 6c75 c4bd eb80 11be 123b 813e
00000190: 79cd 193e 8cb2 bebd 0198 15be e469 f33d
000001a0: a0b3 593e 993b 07bf 8acc 04bd 2657 fa3d
000001b0: a4c1 613c b7f1 07be 3b9b a6bd fa95 a63d
000001c0: 8369 2e3e 2660 20bd 5964 13be e63e 8abe
000001d0: d890 883d 159f e93e 0ffa 233e c2fd 39bd
000001e0: 3ac1 0fbd 1d28 c63d 67f2 9abd 07c3 8a3d
000001f0: f0ed f93d a696 643e c0ae fb3c 1bcd 6c3e
00000200: 1a91 93be ee62 16bf a6da 413e dbd1 8cbe
00000210: 80f1 42be 53d7 243d a508 7cbd 29e4 9cbe
00000220: 15f6 0dbd 2b28 ca3a 3808 df3d 3e91 89be
00000230: 13ee a93d ca62 1e3f 565f 393e d561 e6bd
00000240: 1c72 833e d927 41bd c065 38be 1be4 f03d
00000250: 018b 663e 7346 2d3d 2d29 4bbe 6ed9 d73d
00000260: da00 a6be 3b61 42be 67af 8c3e 9de4 29be
00000270: 2185 483e f369 0dbe de1d 86be cc50 fcbc
00000280: cff4 703e c940 e23d c4a6 34be 5d3f 70be
00000290: f0fc 7abe 63f6 22bf bf36 ed3d 78a9 873e
000002a0: 650e 363e edc0 123d 7232 603d 01fe 54bc
000002b0: 7a7e 0ebe 4704 3d3e d8a2 543e b4b1 253e
000002c0: fd77 0fbd 91e5 f0be 0095 62bc 9e39 383d
000002d0: 4df9 35be 03dc 023e ce3c 8b3d 7b16 663e
000002e0: f770 02bd 8673 8ebe f84d 7d3b c455 d8bd
000002f0: 7d42 e83d 71e1 0c3e 93f6 6d3e ef5b 83bd
00000300: f7af 1f3e 9b7b 0bbe d9e0 3cbe 4438 b13d
00000310: bce3 52be 422e 063e 3693 863e 2e12 0db9
00000320: c4f6 0bbe 537e d4be 0669 703e 41b3 d03d
00000330: 44dd 84be ac3c 113c 242b 493d 2f89 66be
00000340: 5252 3fbe db22 6fbe 21ec 5e3e 74e7 2c3e
00000350: 1ebd 89be 3933 0f3f e108 793d 2ce1 f53d
00000360: 4898 453d 7042 553e 32bf 793e 3a40 06bd
00000370: add8 63bd 98cd 323e ef73 80be 9f9f 793e
00000380: c56b 0bbe 61c1 1f3f 6dde 5b3e da27 d2bd
00000390: bbb1 9b3d a611 02be 22e9 6fbc e6f3 bfbd
000003a0: 1155 8dbe a4d0 b23e 0b56 2bbe e9c6 d03d
000003b0: e23b 8f3e 1c78 2d3e b21a aabe 8463 b6bd
000003c0: 7beb dbbd 1982 2ebe 2633 5a3c 5c00 a2bb
000003d0: 616a ff3d d666 973b 940f 8c3d 4543 0c3e
000003e0: 96fb f0bd 6e4d a93e e204 e13d 895f 1b3d
000003f0: 1d96 e5bd 4efe 833e 1b2f 0c3e f066 1bbe
0.09639341 -0.042325374 0.040761042 0.10074989 0.025408948 0.12616654 -0.18037942 0.091103755
-0.122688 0.18609133 -0.10175124 0.12964274 0.12495991 0.20709008 0.26048526 -0.037457667
-0.15351926 -0.15341856 0.1977044 -0.2480084 -0.21382459 0.517005 0.20451508 -0.18615097
0.25242975 -0.18918468 0.16998756 -0.2556455 -0.0140820565 -0.18284197 0.13657133 -0.07188511
-0.12332256 0.31117916 -0.04019628 0.14005877 0.13816093 -0.09095369 0.25932205 -0.03978005
0.06460807 -0.05605306 0.11185156 -0.18366493 -0.19993703 0.36461627 -0.2162606 -0.121891685
-0.104491375 0.09288836 0.16853097 -0.1385693 0.15231338 0.14243025 0.008286403 0.07717896
0.22354354 -0.3727305 -0.24940406 -0.05818165 -0.03509194 0.10860938 -0.19832166 -0.23129965
0.117549606 0.062110294 -0.17587721 0.29855195 -0.11814138 -0.48512843 0.2665438 0.24459428
0.21158437 -0.19030795 0.08089464 0.17528994 0.06167846 0.13434349 -0.056830604 -0.2756003
-0.1964614 -0.40188742 -0.33163875 0.06796934 0.36681724 0.089292094 -0.123662375 0.051699817
-0.04305408 0.06992991 -0.12145524 -0.058537968 -0.33501843 -0.24635838 -0.12517808 -0.031388022
0.009098039 -0.09592709 -0.14209335 0.2524038 0.15019788 -0.09311399 -0.14608766 0.118854314
0.21259928 -0.52825314 -0.032421626 0.122236535 0.013779078 -0.132758 -0.081350766 0.081340745
0.17032437 -0.039154194 -0.14393748 -0.27001113 0.06668252 0.45629182 0.16013359 -0.045408018
-0.035096385 0.0967562 -0.07565766 0.0677548 0.12203586 0.22323093 0.030722976 0.23125117
-0.2882164 -0.58744705 0.18931064 -0.27503857 -0.19037437 0.04024441 -0.06153168 -0.30642822
-0.03465851 0.0015423348 0.108902395 -0.26868623 0.08297362 0.6186949 0.18102774 -0.11249129
0.25672996 -0.047157142 -0.18007565 0.11762258 0.22513963 0.042303514 -0.19839926 0.10539518
-0.32422525 -0.18982403 0.2747757 -0.16591115 0.19582035 -0.13809948 -0.26194662 -0.030800246
0.23530887 0.11047513 -0.17641741 -0.23461671 -0.2451055 -0.63657206 0.115827076 0.26496482
0.17778929 0.03582852 0.05473561 -0.013000012 -0.13915434 0.18458663 0.20765245 0.1618107
-0.03502654 -0.47050145 -0.01382947 0.044976823 -0.17770882 0.1277924 0.06798707 0.22469513
-0.031846013 -0.27822512 0.003865121 -0.105632335 0.11340807 0.13757874 0.23238592 -0.06414019
0.15594469 -0.1362137 -0.18445148 0.0865331 -0.20594686 0.13103583 0.26284188 -0.0001345358
-0.13668352 -0.41502628 0.23477563 0.1019044 -0.25950062 0.008864563 0.049113408 -0.22513269
-0.18683746 -0.2335314 0.21769764 0.16885167 -0.26902097 0.55937535 0.060799483 0.12005839
0.04824093 0.20826125 0.24389341 -0.032776095 -0.05562656 0.1746124 -0.2508845 0.24377297
-0.1361533 0.6240445 0.21471567 -0.10261507 0.07602259 -0.12702045 -0.014642986 -0.09372692
-0.27603963 0.34924805 -0.16732042 0.10194189 0.27975374 0.1694035 -0.33223492 -0.089057
-0.10738274 -0.17041816 0.013317859 -0.0049438905 0.12471462 0.0046204133 0.06838909 0.13697536
-0.11766736 0.33066887 0.109872594 0.037932906 -0.112102725 0.25779957 0.13689844 -0.15175986

critic.0.bias f4 [256]
00000000: e274 1b3e 87f4 9d3d 29e4 86be 05e1 49be
00000010: 8e3c 4f3d f36c b03d 0fb1 9b3e f948 163e
00000020: 0668 db3d cce5 7abd b981 e13d 2460 84bd
00000030: 67cc 16be 882d 1bbe a3c9 493e 68f5 45be
00000040: 5c5a d63b db4f 0f3e 5d62 643e fc39 3b3e
00000050: b465 87bd 2562 4f3e ca21 483d a730 f23d
00000060: 7ec4 3ebe aa2a 8cbd 1baa 4f3e 148c 1f3c
00000070: 9f21 a1bd 12e5 833e 9959 123e 4619 26be
00000080: d6f0 b0bd 7979 753e 7365 47be 9e7d c63d
00000090: dd0a 9d3d ab23 7a3e 1030 9fbe 27f0 be3d
000000a0: 95be 5b3e 6064 b6bc ba3b 91bc 868b cdbb
000000b0: 2524 473e 6279 6c3e 4039 42be 9afd e3bc
000000c0: 20a3 4e3e a07c 7d3e 5eac a0be 14b8 26be
000000d0: 1870 533e 50b4 c13d d990 983d 9224 b1bd
000000e0: 7431 08bd 0ceb e1bd 27d8 c63d bee3 82be
000000f0: 26ea be3c 7ac4 663d 4ac3 653d e44a 93bc
00000100: 2fa6 6ebe 85fc 023d 26aa 053d bdba fe3d
00000110: d75a bf3c b0ed 173e 0b07 033e c8e4 273e
00000120: 6e10 62bc 847a 49be 42ca 4bbe 8d33 a43d
00000130: 595e adbd 0617 42be da3c 42be 022e 163e
00000140: 7018 aabd 852c 473e deef 123e 6596 6b3d
00000150: d1e3 6cbe 604f f93b 8974 2abe b3d3 e3bd
00000160: 8a51 5cbe d386 67be 5813 1c3e 7ae7 043e
00000170: 65b0 083d 3bfb 723e d780 26bc 50c6 1fbd
00000180: 7057 3ebe 0cd4 41be 1b90 8f3d 08f5 6c3e
00000190: de58 413e 9d33 c93c 82f5 77be 8b27 0e3e
000001a0: 6bd6 05be f3ec 80be 3429 0b3d e3bc 5e3e
000001b0: 58db cebc 7339 59be 2214 993d 37f6 67bd
000001c0: 5a36 87be 8232 a3bd bec3 563e 3708 233d
000001d0: 2473 5fbe abee 7dbb a8eb 58be c85e 943e
000001e0: c625 4f3e 7615 423e db89 c7bc 0e99 8cbe
000001f0: 08b6 603e 2113 7bbe cdd9 9d3d 0ebf 193e
00000200: 5be0 36be 4c3d 9ebd ab1d 563e 3cd0 233e
00000210: 75d3 093e 005c 39be a36a 93be 4c36 86be
00000220: dc05 4b3e e5f7 9f3e 65be 26be c600 ce3d
00000230: b779 89be 1a1c b6bd 426b 953e 6327 093e
00000240: 4d13 f0bd ab01 1dbd 999e b53d 7cf9 883e
00000250: 4d82 8f3d 56de 4fbe 781a eebd 2981 80bb
00000260: bdaf 1bbe 7263 49be bce7 013e 50a8 813d
00000270: 6900 4f3e d71e 0cbe 77de 57bd b99e 61be
00000280: b97c 40bd b0a9 8abe 4d78 0dbe 78d8 62be
00000290: 518e 36be b35f 8cbe bf0b 42be 6127 693d
000002a0: 3745 4e3e ea8e fa3d 691e 9e3d 121c 53bd
000002b0: 52da 20be 55ff a439 e1f0 3dbe 1308 0b3e
000002c0: 8235 52be a3a2 85be 2d9e 68bc 7333 3c3e
000002d0: 176a 15bd baf0 0abe 657b 57be 8aea 9b3d
000002e0: 7302 1e3d 50a5 acbd 8527 debc 00f2 19be
000002f0: e22f c03d b35f 303e 2db4 4fbd c44d f6bd
00000300: 043a 0b3e 35c9 89be f48d b1bc ad72 263d
00000310: df8f 16be abac 5bbd 3c21 603e b365 e13d
00000320: a9ae 343e 67b4 5a3d 0b77 31be bb49 fd3d
00000330: 6426 2c3e d58d a23e 7d2b 3a3e 5b45 833d
00000340: cf8e ee3d 2ce1 8a3e 910b 56be 476a 6cbe
00000350: e77f cc3c d8ff 30be b2db 423d 7a13 b63d
00000360: 4668 39be 2d5a 4abe 38f6 923c be84 bcbd
00000370: 9195 703b b071 633d 6aee 69bc 4a18 28be
00000380: 497e 27be 872c acbd f8c5 70be ce40 49bc
00000390: 3a16 6d3e 7447 65be d4ff 88bc 0802 673e
000003a0: 70a3 87be dd0a 84be f033 4b3d a750 423e
000003b0: cb98 6d3e 3115 9d3c aad0 813e ecc4 87bd
000003c0: 2fed 273d d4a3 0fbe 3354 9dbd d328 8c3e
000003d0: 6cc8 673e 1194 8ebd dc35 183e ce13 3bbc
000003e0: 0812 bcbd 003b 89bd 6fd7 653e 841d 6a3e
000003f0: aae2 82be ec0d cbbd 1e8c e53d a0cd 24be
0.15181306 0.077126555 -0.26345947 -0.19714744 0.05059486 0.086145304 0.30408522 0.14676274
0.107132 -0.061254308 0.11011071 -0.0646365 -0.14726411 -0.15154088 0.19705825 -0.19331896
0.0065415334 0.13995306 0.22303148 0.18283838 -0.06611195 0.20252283 0.04886035 0.11825686
-0.18629643 -0.06844075 0.20279734 0.009737987 -0.07867741 0.25760704 0.14291991 -0.16220579
-0.08639686 0.2397212 -0.19472294 0.09691928 0.07668088 0.24427669 -0.31091356 0.09323149
0.2145942 -0.02226466 -0.017728675 -0.006272736 0.19447382 0.23093179 -0.18967152 -0.027830888
0.20179415 0.24754572 -0.31381506 -0.16281158 0.20648229 0.0945822 0.074495025 -0.08649553
-0.033250287 -0.1103116 0.097091965 -0.25564378 0.02330501 0.05633972 0.056094445 -0.017980047
-0.23305582 0.031979103 0.03263297 0.12437961 0.023358746 0.14836764 0.12795655 0.16395867
-0.013797862 -0.19675642 -0.19901374 0.08017645 -0.08465261 -0.18954095 -0.18968526 0.14665988
-0.08305442 0.19450577 0.14349315 0.057516474 -0.2313378 0.007608339 -0.16646017 -0.11124363
-0.2151548 -0.22610025 0.15241754 0.12978926 0.033371348 0.2372865 -0.010162554 -0.039007485
-0.18588042 -0.18928546 0.07009908 0.23140347 0.18881556 0.024560744 -0.24214748 0.13882272
-0.13070075 -0.25180778 0.03397484 0.21751742 -0.025251076 -0.21213321 0.07474543 -0.056631293
-0.26408654 -0.07968618 0.20973107 0.039802756 -0.21821266 -0.0038746994 -0.21183646 0.28978562
0.20229253 0.18953499 -0.024357727 -0.2746052 0.2194444 -0.24519016 0.07707558 0.15014288
-0.17859022 -0.07726535 0.20909755 0.15997404 0.1345957 -0.18101501 -0.28792295 -0.262133
0.19826454 0.31243816 -0.16283567 0.10058741 -0.26850674 -0.08892079 0.29183394 0.13393931
-0.11722431 -0.03833167 0.08868141 0.2675284 0.07007275 -0.20299658 -0.11626142 -0.003921647
-0.15203758 -0.19666842 0.12686056 0.06330931 0.20215 -0.1368364 -0.052702393 -0.22033204
-0.046993945 -0.27082586 -0.13815422 -0.22152889 -0.17827727 -0.27416763 -0.18949793 0.05692232
0.20143591 0.1223429 0.07720644 -0.05154044 -0.15708283 0.00031470755 -0.1854892 0.13577299
-0.20528224 -0.26100644 -0.014197868 0.18379001 -0.03647813 -0.13568392 -0.21043165 0.07613094
0.038576555 -0.08429968 -0.027118454 -0.15033722 0.09384133 0.17224006 -0.05070894 -0.12026551
0.1359635 -0.2691132 -0.021674134 0.040636707 -0.1470332 -0.053631466 0.21887678 0.11005726
0.17644753 0.0533947 -0.17330568 0.123675786 0.1681152 0.31748834 0.18180652 0.06409713
0.11648332 0.27124918 -0.2090285 -0.23087417 0.024963332 -0.17285097 0.0475728 0.088904336
-0.18106183 -0.19760962 0.017939672 -0.09205006 0.0036710242 0.055528343 -0.014278034 -0.16415516
-0.16356768 -0.084069304 -0.23513019 -0.012283517 0.2315301 -0.22390538 -0.01672355 0.22559369
-0.2649188 -0.25789538 0.04961008 0.18976079 0.23202817 0.019175144 0.2535451 -0.06629357
0.04099768 -0.14027339 -0.07682075 0.27374896 0.22635049 -0.06961835 0.14864296 -0.011418296
-0.09183127 -0.067007065 0.22445463 0.22862822 -0.25563556 -0.09914765 0.11208366 -0.16094065

critic.2.weight f4 [128, 256]
00000000: e11b 24bd 75cc 0b3e bf55 ab3d 3bbd ad3d
00000010: 87bd a8bd b9d7 a2bb bc0a 28be f3fb b83c
00000020: d1c8 23bc c781 0e3d aedb ce39 5828 a73d
00000030: d07a fa3c 75d8 23be 0609 bdbd 6889 e73c
00000040: 4608 f5bd 3b46 fb3d ee08 2c3e bcb9 72bd
00000050: df2e 413d 8c6b 8fbd c1c1 743e 95bd fcbc
00000060: 6a25 323d 4992 253d 77c8 01be cfe5 f2bc
00000070: 2cf8 2e3d fd43 7bbe e494 a7bc 4eb7 6bbd
00000080: 1f55 b0bd 4c88 343b ef5d dc3b 42dc 05be
00000090: a121 ef3d 5291 21be cb69 1cbd 6e8b 783d
000000a0: 5385 40bc 83b7 03bd 8f51 dbbc 0970 62be
000000b0: 24c4 3bbd f5af 2bbd 0122 013d e241 a73d
000000c0: 7cee b13d 3cff dd3d fd35 fa3c 99f1 743c
000000d0: b72e 48bd 9fb4 55bd b214 4dbe fd82 54be
000000e0: a39c bb3d 1df1 6ebc 3627 55b8 6cb2 e43d
000000f0: a7cc c0bd c84a ed3d 5985 b23c 89fc 88bd
00000100: dcfb 9a3d e28b 53bd c32f 3abd c7f9 253d
00000110: 42bb bfbd 090f 0c3e 85bd 17be 37fd 80bd
00000120: 7119 debd dba6 16be abbf b33d c658 86bd
00000130: 4c3c 443d d086 3b3e 5eaf 1c3e be10 20be
00000140: bad4 323e 259f 1bbd 0704 473d 35dd 4ebe
00000150: 7813 c83a 2ebe 4b3d 3b3d b239 97e3 3c3c
00000160: 805c 533d fa37 963d de2f 1d3e c2cf 813d
00000170: 3e38 ccbd a7b9 91bc 6dd9 d03c ecf8 583c
00000180: 474c 02bd 14f4 073d d5db 0bbe e5c7 ae3c
00000190: 1768 a73d 985b 5abe 7115 9ab9 8d08 543d
000001a0: c7ae b6bd 9374 92bd 2b1b b8bd 0d49 08bd
000001b0: c165 35be 5d11 333d 8f45 0d3e 2be8 573c
000001c0: 5ffe 843d 4beb 8e3d e76e b8bb 4d43 37bd
000001d0: 69f1 e63c 0023 273b de80 a5bd e00f 62bd
000001e0: 5c57 0b3e 891c 433e a63f b8bd af28 183e
000001f0: 53c6 273e 2075 f23d 9c37 f33c bda7 7b3d
00000200: 0472 053e 9ef5 34bd ebcc 5bbc 47b3 63be
00000210: 5f12 36be f138 73bd 5286 963c 181a ecbd
00000220: aa9e 44bd cd9a 3f3d c196 55bc 1ad2 603e
00000230: f225 be3d ebf4 683c 7b2d 45be da41 ae3d
00000240: 44ce 7b3d 4f32 c53d 3f54 b9bc 821d 6dbd
00000250: 39d5 a3bc 2d77 b93c e6d0 b33d d03c 32bd
00000260: be0d 00bd cdfe 8a3d babb 87bc e738 673d
00000270: f598 8fbd b6eb 143e 17fc 79bc 2556 9e3d
00000280: 4dda f13b a6ab 093d e5c1 0b3c 94b5 30be
00000290: 4e5b 323c cb97 5b3e 914a e33d 6f7f 3dbd
000002a0: e6e7 05be 2c40 b73c 680f 273b 4c6e d5bd
000002b0: f552 b8bd 65ec 3e3d 945d acbd e362 e93d
000002c0: b3fc 53bd fba2 733d 1d10 903d 597a 64bd
000002d0: dff1 07bd c28d 783e b00c 863d 6bfb 773d
000002e0: b3f2 1cbd 6262 43bc bfc5 513d 4260 bb3d
000002f0: 021a 68be c3c1 cf3d 5ea2 2b3e 6174 92bd
00000300: abd7 423b 65ff 24bb c7e4 81be 603f ab3d
00000310: 36c0 1ebd 4652 dfbc 7287 55bd cf76 873c
00000320: b80d c1bd 8113 15be 42c6 9d3d b817 26bd
00000330: 765d 6a3d e276 bf3c 17d1 8f3d f587 28be
00000340: 428b c73d c457 583c 3d56 9b3d e288 0ebe
00000350: 4541 ff3c 8594 12be 23aa ad3d dada 703d
00000360: 27ed 853e 1b11 253d 605f 82bd 02d4 f2bd
00000370: 964a 38bd 900e babc e3ea a53b 86ec 1b3d
00000380: b3fe a03d 65f9 b0be f55a 433e 8010 d4bd
00000390: 5424 dfbc 096e b33b b745 64be a95b 1d3c
000003a0: 0551 abbd 8a65 babd d1f1 333e d734 09bc
000003b0: 1493 bfbd 7f8e cf3d a0cf d4bc a074 16bd
000003c0: 105b b4bd 5938 d7bc a98b 24bd 6ca2 81bd
000003d0: 8700 67be c1d6 6c3d 2ffb b33c d203 0d3e
000003e0: 999c 223d 6181 803a 8bc9 9dbb d0cd 25be
000003f0: 3de6 f73d 3b78 0e3d 0e45 62be 21a7 963d
-0.04006565 0.13652213 0.08365964 0.084833585 -0.082392745 -0.004969564 -0.16410345 0.022581076
-0.009996609 0.034791734 0.00039455056 0.08161992 0.03057614 -0.1600054 -0.09230237 0.028263763
-0.11964469 0.12269255 0.16800281 -0.05925916 0.04716384 -0.07002935 0.23902036 -0.030852119
0.043492712 0.04042271 -0.12674128 -0.029650597 0.042717144 -0.24537654 -0.020456739 -0.05754786
-0.086099856 0.002754706 0.006725065 -0.13072303 0.11676336 -0.15778092 -0.03818683 0.060679846
-0.011750537 -0.032157432 -0.026772289 -0.2211305 -0.04584135 -0.041915853 0.03152657 0.08166863
0.086880654 0.10839698 0.030543322 0.0149501795 -0.048872676 -0.052174207 -0.20027426 -0.20753093
0.091607355 -0.014583853 -5.0819675e-05 0.11166844 -0.09414034 0.11586529 0.0217921 -0.06688792
0.075675696 -0.051647075 -0.045455705 0.04052141 -0.093618885 0.1367761 -0.1481839 -0.06298297
-0.10844696 -0.14712088 0.08776792 -0.06559901 0.047909066 0.18313146 0.15301272 -0.15631387
0.17463961 -0.03799357 0.048587825 -0.20201571 0.0015264591 0.049741916 0.00033996426 0.011528871
0.051601887 0.073348954 0.15350291 0.06338455 -0.09971665 -0.017788721 0.025494302 0.013242941
-0.031811025 0.033191755 -0.13658078 0.021335552 0.081741504 -0.21324003 -0.00029389144 0.051765967
-0.08920055 -0.07151141 -0.08989557 -0.03327279 -0.17714597 0.04371773 0.13796066 0.013177912
0.0649383 0.06978472 -0.005628455 -0.044741917 0.028191285 0.002550304 -0.0808122 -0.05519092
0.13607544 0.19053854 -0.08996515 0.1485927 0.16384248 0.11838746 0.029689603 0.061439265
0.13031775 -0.04417955 -0.0134155555 -0.22236358 -0.17780446 -0.059380475 0.018374596 -0.115284145
-0.048002876 0.04677849 -0.013036431 0.21955147 0.09284581 0.014218549 -0.1925563 0.08508654
0.061476007 0.09628736 -0.02262318 -0.05788947 -0.019999133 0.022639835 0.087800786 -0.043515027
-0.031263106 0.06786881 -0.016569007 0.05645075 -0.07011596 0.14543042 -0.015257857 0.077312745
0.00738076 0.033610962 0.008530115 -0.17256767 0.010886027 0.21444623 0.11098207 -0.04626411
-0.13076743 0.022369467 0.002549136 -0.10421428 -0.09000198 0.046612162 -0.08416286 0.11395814
-0.051754665 0.059481602 0.07034323 -0.055780742 -0.03318965 0.24272826 0.06545389 0.060542505
-0.038317394 -0.011925312 0.051213976 0.09149219 -0.22666171 0.10144379 0.16761157 -0.07151104
0.00297306 -0.002517664 -0.25369856 0.08361697 -0.038757525 -0.02726091 -0.052131124 0.016536145
-0.09426445 -0.14558221 0.0770383 -0.040549964 0.057218038 0.023372117 0.070223026 -0.16458113
0.09743358 0.013204519 0.07584808 -0.13919404 0.031159053 -0.14314468 0.08479717 0.058802463
0.26157495 0.040299516 -0.063658476 -0.118568435 -0.044993006 -0.022712022 0.005063401 0.038067363
0.0786108 -0.34565273 0.19077666 -0.103547096 -0.027239002 0.0054757637 -0.22292219 0.009604373
-0.083650626 -0.09101398 0.17572714 -0.008374414 -0.09354225 0.10134601 -0.02597791 -0.036732316
-0.08806431 -0.026271986 -0.040172253 -0.06329808 -0.22558795 0.057821993 0.02197036 0.13770989
0.039700124 0.0009804183 -0.0048152856 -0.16191792 0.12104461 0.03478263 -0.22096655 0.07356096
