policy/PPO/checkpoints/2025-10-09_20-33/ppo_soarm_2500.pth (torch, 895437 bytes, 33 tensors)

actor.0.weight f4 [256, 12]
0	0x3d06b66e	0.032888822
1	0x3d17ae72	0.0370316
2	0x3e73ed83	0.23821072
3	0xbe3faef9	-0.1871909
4	0x3e9e2b37	0.30892345
5	0x3e7c7dfe	0.24657437
6	0x3dc5a867	0.09651261
7	0xbe0d7ce3	-0.13817172
8	0xbda75ba8	-0.08171779
9	0xbe55b77b	-0.20870773
10	0xbdf79bff	-0.12090301
11	0x3e30141e	0.17195174
12	0xbe9900e2	-0.29883486
13	0xbd75f72a	-0.060050167
14	0x3debc931	0.115129836
15	0xbe28fe8e	-0.16503355
16	0xbecec47c	-0.4038428
17	0x3da5b892	0.080918446
18	0xbde1b9dc	-0.11021778
19	0x3df9b41d	0.12192557
20	0x3dcee8d3	0.101030014
21	0x3b3d0468	0.0028841738
22	0xbe6086ff	-0.21926497
23	0x3a18ad88	0.0005824198
24	0xbd98a37e	-0.07453059
25	0xbe04b577	-0.12959848
26	0xbc3a414f	-0.01136811
27	0x3b756646	0.0037444993
28	0xbe856307	-0.26052114
29	0xbe02a9d8	-0.12760103
30	0x3df6545c	0.12027809
31	0xbc01119c	-0.007877734
32	0x3dfa39a5	0.12218026
33	0xbe97cc1a	-0.29647905
34	0xbe89b6c5	-0.26897255
35	0x3e487c44	0.19578654
36	0xbd5db9c3	-0.054132234
37	0x3e29203a	0.165162
38	0x3e5510ca	0.20807186
39	0xb91e80a0	-0.00015115971
40	0x3e8f8ac6	0.28035563
41	0x3e147396	0.14497218
42	0x3e296592	0.16542652
43	0x3e34fcfc	0.17674631
44	0xbd286475	-0.04111143
45	0xbe5cc708	-0.215603
46	0x3e09b132	0.13446501
47	0xbe24e876	-0.16104302
48	0x3c63bd14	0.01390006
49	0xbe5d3042	-0.2160044
50	0xbe1378bf	-0.1440153
51	0xbd6ab4f6	-0.057301484
52	0x3ebd0b91	0.36922887
53	0xbe310442	-0.1728678
54	0x3da43d29	0.08019478
55	0x3e3466fc	0.1761741
56	0x3e0294aa	0.12752023
57	0xbe92fc65	-0.28708187
58	0xbe8f97b3	-0.28045425
59	0xbe1f603a	-0.15564051
60	0x3e7b86e5	0.24563177
61	0xbe16c3aa	-0.14723077
62	0xbe0c0077	-0.13672052
63	0xbe3c5bce	-0.18394396
64	0xbcf63218	-0.030053183
65	0x3eaadb00	0.3337021
66	0x3d25a7d4	0.040443256
67	0xbd86372d	-0.06553493
68	0x3e8e9464	0.27847588
69	0x3c2d5ea8	0.01058165
70	0xbe9c744e	-0.30557483
71	0xbde0a9ac	-0.10969862
72	0xbd223b59	-0.03960738
73	0x3d8b0110	0.06787312
74	0x3e660e38	0.22466362
75	0xbe7e88f6	-0.24856934
76	0xbd61543b	-0.05501197
77	0x3e5bf862	0.2148147
78	0xbd0809ca	-0.03321246
79	0x3e403285	0.18769272
80	0x3e1eaca0	0.15495539
81	0x3e859d9b	0.26096806
82	0xbe948c88	-0.29013467
83	0xbd0d63f1	-0.03451914
84	0x3dd31c24	0.10308102
85	0x3d7fc16c	0.06244032
86	0x3e30bd96	0.17259821
87	0x3e104d46	0.14091977
88	0xbec2772e	-0.37981552
89	0xbe28060c	-0.16408557
90	0xbda10a25	-0.07863263
91	0xbe28d0e8	-0.16485941
92	0xbdb71a93	-0.089406155
93	0x3e637ada	0.22214833
94	0xbe0c1b44	-0.13682276
95	0x3e8e9f86	0.27856082
96	0x3e3d7640	0.1850214
97	0x3e40917f	0.18805502
98	0x3d415494	0.0471998
99	0xbd20769d	-0.03917562
100	0xbe35feed	-0.17773028
101	0x3c84fdd2	0.016234312
102	0xbe50c030	-0.20385814
103	0x3e5188e8	0.20462382
104	0x3e587f38	0.2114228
105	0x3e988df2	0.29795796
106	0xbd1c1712	-0.03810794
107	0x3e94ce32	0.29063565
108	0xbe02dcbc	-0.12779516
109	0x3dbb3e62	0.09142758
110	0xbbc657d8	-0.0060529523
111	0xbda9c007	-0.082885794
112	0xbbfab8e7	-0.0076514366
113	0x3abdbf4e	0.0014476569
114	0x3d3975e3	0.04527844
115	0x3de41fcc	0.11138877
116	0x3df2bee8	0.11852819
117	0x3de186cd	0.11012039
118	0x3d55bc0a	0.05218128
119	0xbe35554d	-0.17708321
120	0xbe1c35ba	-0.1525487
121	0x3e57d5c9	0.21077646
122	0x3e48aca3	0.19597106
123	0xbdeeb92c	-0.116564125
124	0x3e5818f6	0.21103272
125	0x3dae14b6	0.08500044
126	0xbe028f67	-0.12750016
127	0x3e61723a	0.2201623
128	0xbe15a30e	-0.14612982
129	0x3d6fcb6f	0.05854362
130	0x3dfc87c1	0.123305805
131	0x3c177d87	0.009246237
132	0xbcb0f628	-0.021601751
133	0xbd64167c	-0.055685505
134	0xbd938268	-0.072026074
135	0x3c70b6f5	0.014692058
136	0xbe87186f	-0.2638583
137	0x3e797b36	0.24363407
138	0x3e1a9812	0.15097073
139	0x3cbd191c	0.023083262
140	0x3d46452b	0.048405807
141	0x3e6d0aa1	0.23148586
142	0x3d326c11	0.04356009
143	0x3e5e8619	0.21730842
144	0x3e3e743f	0.18599032
145	0xbd10fc62	-0.03539694
146	0x3e2dfee9	0.16991772
147	0x3d76f28e	0.060289912
148	0x3d7bd6e1	0.06148422
149	0x3bac1f32	0.005252742
150	0x3daa24e7	0.0830782
151	0x3e75dfc3	0.2401114
152	0xbc38aeb7	-0.011272124
153	0xbe3d4ebb	-0.18487065
154	0x3b0352bf	0.0020038334
155	0x3e9aa1a0	0.30201435
156	0x3c973340	0.018457055
157	0xbdc221fa	-0.09479137
158	0x3d98da6d	0.074635364
159	0x3e9291e2	0.28626925
160	0xbdf70201	-0.12060929
161	0x3e15ef91	0.14642169
162	0x3e318d40	0.17339039
163	0xbdffc205	-0.12488178
164	0x3c8f1777	0.017467244
165	0xbeb37563	-0.35050496
166	0xbe2b5399	-0.16731109
167	0xbe1e13cd	-0.15437241
168	0xbd2552fd	-0.040362347
169	0xbe4d7698	-0.20064771
170	0x3c91c121	0.017792286
171	0x3db966e7	0.0905283
172	0xbe53779e	-0.20651099
173	0x3e4774ff	0.19478224
174	0xbdbf8a30	-0.09352529
175	0x3e3983b0	0.18116641
176	0x3dfa9ae5	0.12236575
177	0xbe8b6f22	-0.27233225
178	0xbe36bf7d	-0.17846484
179	0x3d29fcee	0.04150098
180	0x3da4fe7d	0.08056352
181	0xbd821b5b	-0.06352874
182	0xbdfb9ebc	-0.122861356
183	0xbdc859ca	-0.09782751
184	0x3ce6ff07	0.028197778
185	0x3dfa5531	0.1222328
186	0x3d879c62	0.066216245
187	0x3e45da4a	0.19321552
188	0x3e9d8d86	0.30772036
189	0x3db90f69	0.090361424
190	0x3e243e7b	0.1603946
191	0x3e4d424e	0.20044824
192	0xbdeb3051	-0.11483825
193	0x3caaeafc	0.020864002
194	0xbd97ca01	-0.07411576
195	0xbe6f83fe	-0.23390195
196	0xbe6cc4f5	-0.23122008
197	0xbd7accac	-0.061230347
198	0x3e5eb705	0.21749504
199	0x3e0b7aec	0.1362111
200	0x3d9332ae	0.07187401
201	0x3df6f4c7	0.12058406
202	0xbde275fa	-0.110576585
203	0xbe45914c	-0.19293708
204	0x3e508f90	0.20367265
205	0xbe3d4619	-0.18483771
206	0xbe09b1b7	-0.13446699
207	0xbe8635b2	-0.2621284
208	0x3c2b1e09	0.010444173
209	0x3d85abda	0.06526919
210	0x3dbea4f2	0.093088046
211	0xbe3f1686	-0.18660936
212	0x3d3fd5d0	0.046834767
213	0x3cac708a	0.021049757
214	0xbd8e56c9	-0.06950147
215	0xbe58d781	-0.21175958
216	0x3e7f2d81	0.24919702
217	0x3e7b1a6c	0.24521798
218	0x3e15349e	0.14570853
219	0xbe56b426	-0.20967159
220	0x3e4f3a06	0.20236978
221	0x3e8d52d1	0.27602246
222	0x3ddaa68e	0.10676299
223	0x3dfb69d5	0.12276045
224	0xbdedcbb5	-0.1161112
225	0xbe3a363c	-0.18184751
226	0xbddfe849	-0.10932977
227	0x3d6271f3	0.05528445
228	0xbd9810ed	-0.07425103
229	0xbe5fde88	-0.21862233
230	0xbe3f603f	-0.18689059
231	0xbe7c651b	-0.24647944
232	0x3e9d4030	0.30713034
233	0xbdd6b226	-0.10483198
234	0x3e0d50bb	0.13800327
235	0x3e20b6dd	0.15694757
236	0x3d06efcd	0.032943536
237	0x3eaff083	0.34363183
238	0x3e1fd64d	0.15609093
239	0x3e4a2224	0.19739586
240	0x3e971e71	0.29515412
241	0x3e625a74	0.22104818
242	0xbd04083b	-0.03223441
243	0x3e1a9fb1	0.1509998
244	0x3dbbe278	0.09174055
245	0xbdcac078	-0.09899992
246	0xbd35088e	-0.04419761
247	0x3eb369b6	0.3504159
248	0x3e1a5e7b	0.15075104
249	0xbe182ebe	-0.1486158
250	0xbdc280aa	-0.09497197
251	0xbe0e98aa	-0.13925424
252	0xbd6f1368	-0.058368117
253	0x3dd18e31	0.10232199
254	0xbd894839	-0.067032285
255	0x3e35ae22	0.17742208

actor.0.bias f4 [256]
0	0x3e7bfb21	0.24607517
1	0xbe228553	-0.15871172
2	0x3e0f652e	0.1400344
3	0x3daf1a6f	0.08549964
4	0x3e65235d	0.22376771
5	0xbe225644	-0.1585322
6	0x3e81821a	0.25294572
7	0xbd71cd94	-0.059033945
8	0xbe8d88cc	-0.2764343
9	0x3d1f1fed	0.038848806
10	0x3da0358f	0.078227155
11	0xbe002285	-0.12513168
12	0x3d8c1672	0.068402186
13	0x3ce2bd10	0.027678043
14	0x3e5d1c0b	0.21592729
15	0xbdb74509	-0.08948714
16	0x3d4632b5	0.0483882
17	0x3e425c98	0.18980634
18	0xbdff99cd	-0.12480507
19	0xbbacc056	-0.0052719517
20	0x3d41db7f	0.04732847
21	0xbe08981e	-0.13339278
22	0x3da1cdcb	0.0790058
23	0xbbb6a387	-0.005573693
24	0x3df72faf	0.12069642
25	0xbdc3dd9f	-0.09563755
26	0xbdacbb82	-0.08434202
27	0xbe1a7e77	-0.15087305
28	0x3c95f0dc	0.018303327
29	0x3c686cea	0.014186123
30	0xbe64b253	-0.2233365
31	0x3e53e695	0.20693429
32	0x3e82da32	0.25557095
33	0xbd9afa7b	-0.075673066
34	0xbe81d487	-0.25357458
35	0x3d88bf76	0.06677143
36	0xbdc370d9	-0.09543008
37	0x3e0b9990	0.13632798
38	0x3e472835	0.19448932
39	0x3d1be5ff	0.03806114
40	0x3e6c9916	0.23105273
41	0xbd9f7b76	-0.0778722
42	0x3e44aeaf	0.19207262
43	0xbe2c8ced	-0.16850634
44	0xbdfe14e7	-0.124063306
45	0x3d3c7067	0.046005633
46	0x3e25ffee	0.1621091
47	0x3e49d5aa	0.19710413
48	0x3c228af9	0.009920829
49	0x3e8484a6	0.25882453
50	0xbbf3315c	-0.0074216556
51	0x3dfb06f5	0.12257186
52	0xbdf5a79f	-0.11994862
53	0x3dd26c83	0.10274603
54	0xbdfe6762	-0.124220625
55	0xbe0ec212	-0.1394122
56	0x3e90a5b2	0.28251415
57	0xbc39971f	-0.011327534
58	0xbc66ab62	-0.014078947
59	0x3d9d47d2	0.07679714
60	0xbda7bbe9	-0.08190138
61	0x3ddadce0	0.1068666
62	0x3d964dc2	0.0733905
63	0xbe2b287b	-0.16714661
64	0xbd3a2fb4	-0.04545565
65	0x3e0d2316	0.13782915
66	0xbda104b8	-0.07862228
67	0x3e397263	0.18110041
68	0x3d7bf7c2	0.061515577
69	0xbd0b2974	-0.03397508
70	0xbe63378b	-0.22189157
71	0xbe4b1f51	-0.19836165
72	0xbd98c299	-0.074589916
73	0x3dfec4a0	0.12439847
74	0x3d9f7485	0.07785896
75	0x3d355ef5	0.04428001
76	0xbdd45270	-0.10367286
77	0x3e4cfea4	0.20019013
78	0x3d4d7b14	0.050166205
79	0x3d083be4	0.03326024
80	0x3db64bed	0.089012004
81	0xbd66a526	-0.05630984
82	0x3e80316d	0.2503771
83	0xbe676839	-0.22598352
84	0xbe4ba115	-0.19885667
85	0x3deb6d6e	0.114954814
86	0x3e0e916a	0.13922659
87	0x3e41f6b5	0.18941768
88	0xbe4616c7	-0.19344626
89	0x3e13eb89	0.14445318
90	0x3e73ee1c	0.238213
91	0xbe6731c1	-0.22577573
92	0x3e353746	0.17696866
93	0xbc84e221	-0.016221108
94	0x3c014aaa	0.007891336
95	0xbd69363f	-0.0569365
96	0xbe3f9e94	-0.18712837
97	0xbd67de29	-0.056608353
98	0xbe6db6fe	-0.23214337
99	0x3d910d20	0.070825815
100	0x3de83810	0.11338818
101	0x3e81f324	0.25380814
102	0x3e86179a	0.26189882
103	0xbe800f2b	-0.25011572
104	0x3e311964	0.17294842
105	0xbb9af823	-0.0047292872
106	0xbe296a7c	-0.16544527
107	0x3e8ff774	0.2811848
108	0xbd522053	-0.051300358
109	0xbd3e286a	-0.04642526
110	0xbbfafe24	-0.0076596905
111	0xbe10b7fc	-0.14132684
112	0x3dd7d6cf	0.10539018
113	0xbe5c31cb	-0.2150337
114	0xbd429236	-0.04750272
115	0x3e4f9b8e	0.20274183
116	0xbd519e40	-0.05117631
117	0x3e83f28c	0.25770986
118	0xbe84a0c9	-0.2590392
119	0xbe97a46c	-0.2961763
120	0x3cb236a5	0.021754572
121	0xbe91bc8b	-0.2846416
122	0x3d5fcf29	0.054640923
123	0xbe462912	-0.19351605
124	0x3e49ea33	0.19718246
125	0xbdcfb51f	-0.10141968
126	0x3e395355	0.18098195
127	0xbdccd809	-0.10002143
128	0x3d9b3d85	0.07580093
129	0xbda187b8	-0.078872144
130	0xbcfaa831	-0.030597778
131	0x3e67787d	0.22604556
132	0x3d99b8fb	0.07505985
133	0xbdf61bb6	-0.12017004
134	0xbe4d866d	-0.2007081
135	0x3e524484	0.20533949
136	0x3e90f291	0.28310063
137	0xbd005351	-0.031329457
138	0xbe5cad54	-0.21550494
139	0x3d296a5b	0.041361194
140	0xbdf1f601	-0.118145
141	0xbdff7f25	-0.12475423
142	0xbe4b956e	-0.19881222
143	0x3e5a0deb	0.21294372
144	0xbe629cb0	-0.22130084
145	0xbd144f42	-0.0362084
146	0x3e318817	0.1733707
147	0x3dceea70	0.10103309
148	0xbd8558a2	-0.06511046
149	0xbe5daa33	-0.21646957
150	0x3e837d88	0.2568171
151	0x3e28e35f	0.16492985
152	0x3ddcfe1c	0.10790655
153	0xbe00abcb	-0.12565534
154	0xbde229d2	-0.11043133
155	0x3d1ddd58	0.038541168
156	0xbe664fd5	-0.22491391
157	0x3e0747fa	0.1321105
158	0xbc58e0b9	-0.013237172
159	0xbe891327	-0.26772425
160	0xbd6e9200	-0.058244705
161	0xbde9dc6b	-0.114189945
162	0x3d8cb00e	0.06869517
163	0x3e42bb25	0.19016702
164	0x3e7510e3	0.23932223
165	0x3cc62540	0.024187684
166	0x3e4c9af5	0.19980986
167	0x3e5c98a8	0.21542609
168	0xbe8f7326	-0.2801754
169	0x3e11d4c7	0.14241324
170	0x3e7fe707	0.24990474
171	0x3d8a7a62	0.06761624
172	0xbe0a5735	-0.1350983
173	0xbd5e6b0f	-0.054301318
174	0xbd86393c	-0.06553885
175	0xbe0f14c6	-0.13972768
176	0x3d9e6e1a	0.07735844
177	0xbc3e2491	-0.011605398
178	0x3d9be9c3	0.07612946
179	0x3e8b1854	0.27166998
180	0xbd7bc99d	-0.06147157
181	0x3e656ab1	0.22403981
182	0x3d8d979b	0.06913682
183	0x3d3a9bf9	0.045558903
184	0xbe2f7a55	-0.1713651
185	0x3de5f27e	0.11227892
186	0x3e1c22d7	0.15247665
187	0x3e07df30	0.13268733
188	0x3d7e0fed	0.062026907
189	0xb9b113a8	-0.00033774716
190	0x3da87f4a	0.082274035
191	0xbe2e0d22	-0.16997197
192	0x3e39d4e0	0.18147612
193	0x3e5c60ca	0.21521297
194	0xbde66ec5	-0.11251596
195	0xbe283004	-0.16424567
196	0xbda3d38f	-0.07999336
197	0xbdff2e4d	-0.12460003
198	0xbdf1ac12	-0.11800398
199	0x3e37de15	0.17955811
200	0x3b923c8a	0.004462783
201	0xbd8df7f8	-0.06932062
202	0xbd99f882	-0.07518102
203	0x3df5fecb	0.120114885
204	0x3e4db4ea	0.20088544
205	0x3e4c5328	0.19953597
206	0x3e135f8a	0.14391914
207	0x3e2bbad6	0.16770491
208	0x3e090650	0.13381314
209	0xbe623197	-0.2208923
210	0xbe353d75	-0.17699225
211	0x3d96d193	0.07364192
212	0x3da82e46	0.08211951
213	0x3e05df54	0.13073474
214	0x3e5eed4d	0.2177021
215	0x3db9d48d	0.09073744
216	0x3dc3f133	0.095674895
217	0x3e1a10a1	0.15045406
218	0x3e0424de	0.12904689
219	0xbe1f9ce6	-0.15587196
220	0xbe850ad4	-0.25984824
221	0xbe621019	-0.22076453
222	0x3e43ccf2	0.19121149
223	0xbe37b1aa	-0.17938867
224	0x3e50de7e	0.20397374
225	0xbe515c3c	-0.20445341
226	0x3bed3a8f	0.0072396467
227	0xbd5ea1ea	-0.054353632
228	0xbdd27306	-0.10275845
229	0x3d998acb	0.07497176
230	0xbcee0068	-0.029052928
231	0x3dff53b1	0.12467135
232	0xbdf1d082	-0.11807348
233	0x3dd8b633	0.10581627
234	0x3d1be694	0.038061693
235	0x3e1f4842	0.15554908
236	0xbd973510	-0.07383168
237	0xbca55005	-0.020179758
238	0x3e54c41f	0.2077794
239	0x3e939ace	0.28829044
240	0x3cc1a6f0	0.023639172
241	0xbe44bf90	-0.192137
242	0xbdad8bee	-0.08473955
243	0x3e33102c	0.17486638
244	0xbe8baa79	-0.27278498
245	0x3d2d1b17	0.042262163
246	0xbd1667fd	-0.036720265
247	0xbe4735af	-0.19454072
248	0x3e1e44c9	0.15455927
249	0x3d16e28b	0.036837142
250	0xbe81fccc	-0.2538818
251	0xbdb10239	-0.08643002
252	0xbe13659d	-0.14394231
253	0xbe86ae8b	-0.2630504
254	0xbd92fe1c	-0.07177374
255	0x3e28bfd2	0.16479424

actor.2.weight f4 [128, 256]
0	0x3cdf6cdc	0.027273588
1	0x3c8f9653	0.017527735
2	0x3db85e7f	0.09002399
3	0x3d1d58b4	0.038414672
4	0xbdec93f1	-0.11551655
5	0x3d6629cd	0.056192208
6	0xbd2ef3d5	-0.042713005
7	0x3d6e7dc4	0.05822541
8	0x3bfcdb7d	0.0077165947
9	0x3d10a9ef	0.03531831
10	0x3c7bad3a	0.015361125
11	0x3db8221e	0.08990882
12	0xbd720722	-0.059088834
13	0x3e0df00b	0.138611
14	0x3de83f4c	0.11340198
15	0x3d2a2569	0.041539583
16	0xbc9af33a	-0.018914808
17	0x3a67ffe5	0.0008850082
18	0xbd05b944	-0.032647386
19	0x3c20ad91	0.009807006
20	0x3d3ba464	0.045811072
21	0x3c2d8b86	0.010592347
22	0xbcfe2945	-0.031025538
23	0xbd55668c	-0.05209975
24	0xbc5df3dd	-0.013546911
25	0xbd1aac06	-0.03776171
26	0xbd6909d2	-0.05689413
27	0xbccc289e	-0.024921712
28	0xbdcac7ef	-0.099014156
29	0xbd385123	-0.044999253
30	0x39adb042	0.00033128454
31	0x3be86c26	0.0070929704
32	0xbc3ac08e	-0.011398448
33	0x3c2d0b30	0.010561749
34	0xbdb69f04	-0.089170486
35	0xbd4f463a	-0.050604083
36	0x3cd8c565	0.026461313
37	0x3d9846cf	0.07435381
38	0x3b58dfbe	0.0033092345
39	0xbd836af8	-0.06416887
40	0xbd1cb377	-0.03825709
41	0x3d585a4a	0.05282048
42	0x3d959a43	0.07304814
43	0xbd334787	-0.043769386
44	0x3ca35d78	0.01994203
45	0x3ae0d2ba	0.0017152645
46	0x3c2135ac	0.0098394565
47	0xbd799540	-0.06093335
48	0x38ae6b94	8.3170045e-05
49	0x3c6d31e0	0.014477223
50	0xbce0b13b	-0.02742826
51	0x3c351e3b	0.011054571
52	0x3d434620	0.0476743
53	0xbd308c79	-0.043102715
54	0x3d08409e	0.03326475
55	0xbc9381bf	-0.018006204
56	0xbd617bff	-0.055049893
57	0x3d24db56	0.040248238
58	0xbdad5860	-0.08464122
59	0x3c011893	0.007879394
60	0x3dad1d8b	0.084529005
61	0x3d1ae6b0	0.037817657
62	0xbb94783c	-0.0045309346
63	0x3cb49c2f	0.02204713
64	0xbca1b265	-0.019738385
65	0xbd000774	-0.031257108
66	0x3d888709	0.06666381
67	0xbc837da4	-0.016051121
68	0x3a185de7	0.00058123324
69	0xbd4d5222	-0.050127156
70	0xbc43f540	-0.011960328
71	0x3cf7a446	0.030229699
72	0x3d31886b	0.04334299
73	0x3d10a8fc	0.035317406
74	0x3d41d3f4	0.047321275
75	0x3d19a009	0.037506137
76	0x3d3bd0fc	0.0458536
77	0xbd1a08af	-0.037605938
78	0xbc3bdd4f	-0.011466338
79	0x3c466a4d	0.012110305
80	0xbd094743	-0.033515226
81	0x3d161ebb	0.0366504
82	0xbd6d4130	-0.057923496
83	0xbd2bce65	-0.04194488
84	0x3b0d72da	0.002158335
85	0xb9a9f4b3	-0.00032416507
86	0xbd900dfe	-0.07033919
87	0xbcd2b7df	-0.025722442
88	0xbcd37f79	-0.02581762
89	0xbbbaa310	-0.005695708
90	0x3c8e6bce	0.01738539
91	0xbd7d13e7	-0.06178656
92	0xbcf4593a	-0.029827703
93	0xbd14dadc	-0.036341533
94	0xbc69a463	-0.014260384
95	0xbd47b858	-0.04875979
96	0xbe1596f6	-0.14608368
97	0x3c8fe287	0.017564071
98	0xbc865a19	-0.016400384
99	0x3d5e8a84	0.054331318
100	0xbd8e0510	-0.06934559
101	0xbd3742c8	-0.044741422
102	0xbdd4e6d2	-0.10395588
103	0xbd13f5e3	-0.036123168
104	0xbc93be7b	-0.018035164
105	0x3d159e40	0.036527872
106	0xbd021a77	-0.03176352
107	0x3c8a5b1c	0.016889147
108	0x3d380e58	0.044935554
109	0x3d215067	0.03938332
110	0xbd280b86	-0.041026615
111	0x3c15ed8e	0.009150876
112	0xbddb7993	-0.10716548
113	0xbd32028f	-0.04345947
114	0x3cb803c9	0.022462742
115	0x3d000f37	0.03126451
116	0xbd1bd41e	-0.038044088
117	0xbcface5d	-0.03061598
118	0x3d0b4fae	0.034011535
119	0xbc0bff11	-0.008544699
120	0xbb494d85	-0.0030716371
121	0xbd555bd5	-0.05208953
122	0x3cf587ff	0.029972075
123	0x3aca4f8d	0.0015435085
124	0xbcbe41b9	-0.023224698
125	0xbc12eb3b	-0.008967216
126	0xbc238cbd	-0.009982285
127	0xbbda37b4	-0.0066594724
128	0x3d9ea145	0.077456035
129	0xbd72aa77	-0.0592446
130	0x3cb31a24	0.02186305
131	0xbbfff9a9	-0.007811744
132	0xbc8d5816	-0.017253917
133	0xbc185e84	-0.009299878
134	0xbdb2b3eb	-0.08725723
135	0x3b63bce9	0.003475005
136	0xbde99502	-0.11405374
137	0xbd722c51	-0.059124295
138	0x3ce7ceb1	0.0282968
139	0xbd091de2	-0.033475764
140	0xbe12ddd1	-0.14342429
141	0xbccc20ce	-0.024917986
142	0xbd2d09e6	-0.042245768
143	0x3d0cac86	0.03434422
144	0xbce8f1fa	-0.028435696
145	0xbd28ca04	-0.041208282
146	0xbd7107bc	-0.058845267
147	0x3b8f4b0f	0.0043729614
148	0xbd03759b	-0.03209458
149	0x3d464834	0.048408702
150	0xbbce39c9	-0.0062935096
151	0xbd47548a	-0.048664607
152	0x3d850c4c	0.06496486
153	0x3be75125	0.0070592337
154	0xbd3ae311	-0.045626704
155	0x3d2a04c7	0.041508462
156	0x3d288caa	0.041149773
157	0xbde30c99	-0.11086387
158	0xbd23f0ff	-0.040024754
159	0xbcce10ea	-0.02515455
160	0x3d95aed6	0.07308738
161	0x3d543408	0.051807433
162	0xbbd6814e	-0.006546176
163	0xbbd5cac4	-0.0065244157
164	0xbd7dddd3	-0.061979126
165	0x3d238e1d	0.03993045
166	0xbc84ec7e	-0.01622605
167	0xbbd61f2c	-0.0065344777
168	0x3d582cf1	0.052777234
169	0x3cf1dd68	0.02952452
170	0xbd01aa5e	-0.031656615
171	0x3bac2634	0.0052535776
172	0x3ce8a4ce	0.028398897
173	0x3e057fbd	0.1303701
174	0x3cf04be6	0.029333066
175	0xbbf8f863	-0.0075979694
176	0x3d3584f3	0.044316243
177	0x3d5f6f9f	0.05454981
178	0xbc9015fc	-0.017588608
179	0x3d4ffa5e	0.050775878
180	0xbc8e8c74	-0.017400958
181	0x3d7e1c80	0.0620389
182	0x3d80054a	0.06251009
183	0x3d4d4ac5	0.050120134
184	0x3d1473df	0.036243316
185	0xbd9e9574	-0.0774335
186	0x3d88a3da	0.06671877
187	0x3cdd39a5	0.027005026
188	0xbdecdee0	-0.115659475
189	0x3c899b69	0.016797738
190	0xbd586343	-0.05282904
191	0x3d21473e	0.039374582
192	0x3cacd48b	0.021097442
193	0x3a03239b	0.0005002559
194	0x3c6cbf5c	0.0144499205
195	0xbd823e1c	-0.06359503
196	0x3d358a95	0.044321615
197	0x3d2e46cc	0.042547986
198	0x3bb9d1be	0.005670755
199	0x3b6afb1e	0.0035855244
200	0x3c50c336	0.012741854
201	0xbd6eb6d5	-0.05827983
202	0xbce8e20f	-0.028428106
203	0xbc91b477	-0.017786248
204	0xbd8e2acb	-0.06941756
205	0x3bcac733	0.006188297
206	0x3d5c9b38	0.053858966
207	0xbd4d7285	-0.050158042
208	0x3d77d62e	0.060506992
209	0x3e0bfab8	0.1366986
210	0x3d351570	0.044209898
211	0xbcdf9e14	-0.027297057
212	0x3c95c2f9	0.018281447
213	0x3d64f7c8	0.055900365
214	0xbcefb10c	-0.029259227
215	0x3d540e98	0.05177173
216	0xbc9b0bc5	-0.01892651
217	0x3c26437a	0.010147924
218	0xbd891d2e	-0.06695019
219	0x3d96488f	0.07338058
220	0x3c945f83	0.01811195
221	0xbd28746e	-0.04112666
222	0xbd3eb6af	-0.04656094
223	0x3afcf21c	0.0019298228
224	0x3cd7bdd0	0.026335627
225	0x3966ae04	0.00021999335
226	0x3cf1199c	0.029431157
227	0xbdfb813b	-0.12280508
228	0x3d25c888	0.040474445
229	0x3c072ff3	0.008251178
230	0xbc10248f	-0.008797779
231	0xbd3f747a	-0.04674194
232	0xbdac6320	-0.08417344
233	0x3d254205	0.040346164
234	0x3d2e28d6	0.042519413
235	0xbd359c0d	-0.044338275
236	0x3db00b0e	0.085958585
237	0x3cd2056d	0.025637353
238	0x3c7c4cf2	0.015399205
239	0xbc9a9b10	-0.018872768
240	0xbc075a9d	-0.00826135
241	0xbc0625ab	-0.008187692
242	0x3d69e28a	0.05710081
243	0x3cd8805e	0.026428398
244	0xbd1e672f	-0.038672622
245	0x3cc1ebc6	0.023671996
246	0x3d209947	0.039208677
247	0x3d817cc7	0.063226275
248	0xbd476632	-0.048681445
249	0x3c950706	0.018191826
250	0xbc1924ab	-0.009347121
251	0x3c474bac	0.012164038
252	0xbdd0fe87	-0.10204797
253	0xbd60833f	-0.054812666
254	0xbcc51242	-0.024056558
255	0xbd41d100	-0.04731846

actor.2.bias f4 [128]
0	0x3c89ad6b	0.016806325
1	0xbc5cbdd6	-0.013472995
2	0x3d4a285b	0.049354892
3	0x3d4a67a2	0.04941524
4	0xbd878ae3	-0.066182874
5	0x3d88972f	0.06669461
6	0xbd327131	-0.04356498
7	0xbccd9609	-0.025095956
8	0x3d331516	0.04372128
9	0x3c5fe732	0.013665961
10	0x3c16f211	0.009212987
11	0xbbd541a9	-0.0065080714
12	0x3d8d7e4e	0.06908856
13	0xbd3a33e8	-0.045459658
14	0xbbd58973	-0.0065166294
15	0x3d1417e9	0.036155615
16	0xbbd180a0	-0.006393507
17	0x3d145cc1	0.03622127
18	0x3c89947c	0.016794436
19	0xbd0512bd	-0.032488573
20	0xbd71ba09	-0.059015308
21	0x3cdfec82	0.027334455
22	0x3d55f09e	0.052231424
23	0x3cd1b133	0.02559719
24	0xbb99a4d8	-0.0046888404
25	0xbd4ff35b	-0.05076919
26	0xbd2ddb5d	-0.04244553
27	0xbc08fe2e	-0.008361382
28	0xbd6ae338	-0.0573456
29	0xbcfff459	-0.031244444
30	0x3d159a04	0.036523834
31	0xbc8e9ec7	-0.017409695
32	0xbd1ed988	-0.038781673
33	0xbd2ae724	-0.04172434
34	0x3b9c9f0f	0.0047797034
35	0xbd3e88ec	-0.046517298
36	0x3d150931	0.03638572
37	0x3d35db1a	0.044398405
38	0x3d19a5c7	0.037511613
39	0xbd52d2c3	-0.05147053
40	0xbd727a02	-0.059198387
41	0x3d0d4467	0.03448906
42	0x3d53aed0	0.051680386
43	0x3ceb7796	0.028743546
44	0xbb11467c	-0.0022167256
45	0xbcd5f6d5	-0.026118675
46	0x3bcd04cb	0.006256675
47	0xbd163beb	-0.036678236
48	0x3d48b91a	0.04900465
49	0xbcc721cb	-0.024308106
50	0xbd4cb9bf	-0.04998183
51	0xbd4b12de	-0.04957854
52	0xbd4aef46	-0.049544595
53	0xbd141347	-0.036151197
54	0xbcfce46f	-0.030870644
55	0x3be14e34	0.0068757776
56	0xbc62dfb6	-0.013847282
57	0x3d1f2745	0.03885581
58	0xba3018fc	-0.000671759
59	0x3d87a9a4	0.06624153
60	0x3ce2ddfe	0.027693745
61	0x3d165dbb	0.036710482
62	0xbcfd661e	-0.030932482
63	0xbd4e2bb2	-0.05033464
64	0x3c517537	0.012784294
65	0xbbb7ca40	-0.005608827
66	0x3cefb3b2	0.02926049
67	0x3d85bd1b	0.0653021
68	0xbd15f4cc	-0.03661041
69	0xbcedd98a	-0.029034395
70	0x3d0f33f0	0.03496164
71	0xbd03bdd0	-0.03216344
72	0xbd55da80	-0.05221033
73	0xbd5377c8	-0.051627904
74	0xbcf98691	-0.030459674
75	0xbcd70953	-0.026249563
76	0x3d6e80c1	0.058228258
77	0xbd1b27e0	-0.037879825
78	0xbcc791d6	-0.024361532
79	0xbc5349a1	-0.0128959725
80	0xbd3dff04	-0.04638578
81	0x3ce93b23	0.028470581
82	0xbd81bcb2	-0.06334819
83	0xbd4e517c	-0.05037068
84	0x3c217ed2	0.0098568965
85	0xbcaabec3	-0.020842915
86	0xba795f92	-0.0009512837
87	0x3d3f2d06	0.046673797
88	0x3c9207c2	0.017825965
89	0xbd222908	-0.03958991
90	0x3d1ff39e	0.03905069
91	0x3d7c2f34	0.061568454
92	0xbd308807	-0.043098476
93	0xbcba0e32	-0.022711847
94	0xbd3c3a8f	-0.045954283
95	0xbc7ca925	-0.015421187
96	0xbd587324	-0.05284418
97	0xbd2f7b74	-0.042842343
98	0xbd3fa103	-0.046784412
99	0xbb9299d7	-0.0044739055
100	0xbd704222	-0.05865682
101	0xbc4a1d06	-0.012336021
102	0x3d14f2e2	0.036364444
103	0xbcf65c28	-0.03007324
104	0x3c8200ef	0.015869586
105	0xbbfc6f35	-0.0077036866
106	0x3d276742	0.04086996
107	0x3c545d3c	0.012961682
108	0x3c5ed3c7	0.013600296
109	0xbd12da0c	-0.035852477
110	0x3d2dce35	0.042432982
111	0xbc8c66fb	-0.017138949
112	0x3c19336c	0.009350639
113	0xbb710a46	-0.0036779805
114	0x3c465fbd	0.012107787
115	0xbd4972ac	-0.049181625
116	0xbce53090	-0.027977258
117	0xbcfff633	-0.031245327
118	0xbc14e206	-0.009087091
119	0x3d36ec5f	0.044659015
120	0x3c651a10	0.013983265
121	0xbd068946	-0.032845758
122	0x3ca4df84	0.020126112
123	0xbc68fe2d	-0.0142207565
124	0xbb9b1458	-0.00473265
125	0x3c0813f1	0.008305536
126	0x3d18f4ed	0.037342954
127	0xbcdc0dab	-0.026861986

actor.4.weight f4 [6, 128]
0	0xbc523014	-0.0128288455
1	0xbd94e365	-0.072699346
2	0x3a0186a0	0.000494102
3	0x3c50f985	0.012754803
4	0x3c9a8b45	0.018865237
5	0xbc723419	-0.014782929
6	0xbc8ef0b9	-0.01744877
7	0x3c13af26	0.009013927
8	0xbd870352	-0.0659243
9	0x3b107d09	0.0022047183
10	0x3b8a5878	0.004221972
11	0x3c4f4932	0.0126517285
12	0x3cfe94b9	0.031076776
13	0x3d2999fa	0.04140661
14	0x3bb6bf50	0.0055770054
15	0xbc940a88	-0.018071428
16	0x3dd0cea1	0.10195661
17	0x3c3ac3bd	0.011399207
18	0xbb4c50a1	-0.0031175988
19	0x3d5ed3ff	0.054401394
20	0x38a1e377	7.719447e-05
21	0x3d73a049	0.05947903
22	0x3ceddb1b	0.029035142
23	0x3d4bceb8	0.04975769
24	0x3a0f4187	0.00054647814
25	0x3c3ebf6f	0.011642321
26	0x3d1b483d	0.03791069
27	0xbd4a7efb	-0.049437504
28	0xbc3fa6ef	-0.011697515
29	0x3d233a63	0.039850604
30	0xbd8fc7d0	-0.07020533
31	0x3ce248a3	0.027622527
32	0x3bade626	0.005306977
33	0x3b76db09	0.0037667176
34	0x3ce933cb	0.02846708
35	0x3cca6145	0.024704585
36	0xbcb5157c	-0.022104971
37	0xbd900213	-0.070316456
38	0x38eb7152	0.00011226781
39	0xbb1158a2	-0.0022178073
40	0xbd47d380	-0.048785686
41	0x3cbb2b20	0.022847712
42	0x3cc3dc4b	0.023908755
43	0xbc173c60	-0.009230703
44	0x3c4bf683	0.01244891
45	0x3d0f3857	0.03496584
46	0x3ccd986e	0.025097098
47	0x3d70679d	0.058692563
48	0x3b404a75	0.0029341255
49	0xbd0d6293	-0.034517836
50	0x3bb38fc0	0.005479783
51	0xbb42ec05	-0.002974273
52	0x3c9af59c	0.018915944
53	0x3a135df8	0.00056216074
54	0x3d5d44ee	0.054020815
55	0xbbb75f7c	-0.0055960994
56	0x3cb9c0b2	0.022674892
57	0xbcaa1671	-0.020762654
58	0xbbf126c3	-0.007359357
59	0x3c3f960b	0.011693488
60	0x3c25f7a1	0.01012984
61	0xbcf7998b	-0.030224582
62	0xbc00b108	-0.007854708
63	0xbbd09ecd	-0.006366587
64	0x3d17a9d7	0.037027206
65	0x3d072578	0.032994717
66	0x3bd83fbb	0.006599394
67	0xbd0dd2e9	-0.034624968
68	0x3d2a699b	0.04160462
69	0x3c3e3f93	0.011611837
70	0x3da7e6f2	0.08198346
71	0x3cbf5886	0.023357641
72	0x3d7c40ac	0.061585113
73	0xbd2bed42	-0.041974314
74	0xbd68a01d	-0.05679332
75	0xbd41a9b0	-0.047280967
76	0x3b589c8a	0.003305229
77	0x3d7908e4	0.060799494
78	0x3d1b6b61	0.0379442
79	0xbc3eef9a	-0.011653805
80	0x3c873f85	0.01650978
81	0xbc2b6074	-0.010460008
82	0x3be964a5	0.0071225935
83	0xbbd8a11c	-0.0066110026
84	0xbcca5a5c	-0.02470129
85	0xbd0e28fd	-0.03470706
86	0xbd086c8d	-0.033306647
87	0x3c6c43c3	0.0144204525
88	0xbd1ab515	-0.03777035
89	0xbd1694b7	-0.03676292
90	0x3d65bd8a	0.05608896
91	0xbb870b6c	-0.0041212346
92	0x3d7c6c80	0.06162691
93	0x3cfcdb9a	0.030866433
94	0xbcbafda0	-0.022826016
95	0xbc23ed43	-0.010005298
96	0x3cab9417	0.020944638
97	0xbd5a0dc6	-0.05323579
98	0x3c5cdf4f	0.013480975
99	0x3b9cb582	0.0047823796
100	0xbd659ba9	-0.056056652
101	0xbd3c5be2	-0.045986064
102	0xbd9d233d	-0.07672737
103	0x3cdb99d4	0.02680675
104	0xbc4123ee	-0.011788351
105	0x3d783b65	0.060603518
106	0x3d710a9b	0.058848005
107	0x3d149052	0.036270447
108	0x3d6caaad	0.057779957
109	0xbd3a74b6	-0.04552146
110	0x3cedb581	0.029017212
111	0xbce75437	-0.028238399
112	0x3cb5f20b	0.022210142
113	0xbd5bdad9	-0.053675506
114	0xbc0a2833	-0.008432436
115	0x3da6bf06	0.081419036
116	0x3baab536	0.0052095903
117	0x3d771d9b	0.06033097
118	0x3de4b464	0.11167219
119	0xbc3f4a57	-0.011675439
120	0x3c96d3cc	0.01841154
121	0xbc940f0b	-0.01807358
122	0x3a946c8d	0.0011323855
123	0xbca7b17a	-0.02047037
124	0xbc0476b8	-0.008084945
125	0x3ca7ff90	0.020507604
126	0xbd171781	-0.03688765
127	0xbce29ce3	-0.0276627
128	0x3c636694	0.013879437
129	0x3c83010d	0.015991712
130	0x3d02281e	0.03177654
131	0x3d166869	0.036720667
132	0xbd262035	-0.04055806
133	0x3d225692	0.03963334
134	0x3d8ed771	0.06974686
135	0x3d33e3b4	0.043918326
136	0xbc9c8a81	-0.019109013
137	0x3c1ee61b	0.009698416
138	0xbc2ae7c0	-0.01043123
139	0x3d0dd5eb	0.034627836
140	0xbc6f7edf	-0.014617651
141	0xbcfd0f98	-0.030891225
142	0x3d2c368e	0.042044215
143	0xbaf7eca6	-0.0018915131
144	0xbcec3f06	-0.028838646
145	0x3ca0e416	0.01964001
146	0xbc473f71	-0.012161122
147	0x39cb8f1d	0.00038825805
148	0x3d005370	0.031329572
149	0xbcb2f709	-0.021846311
150	0x3d3cdbc6	0.04610803
151	0x3c11ac90	0.00889124
152	0x3c1501dc	0.009094682
153	0x3d11fcd6	0.035641514
154	0xbd2d1069	-0.042251978
155	0xbdcef7fb	-0.10105892
156	0xbd55aad7	-0.05216488
157	0xbb33db92	-0.0027444107
158	0xbd655071	-0.055984918
159	0xbc8eca8a	-0.017430563
160	0xbd3de1b2	-0.046357818
161	0x3d82cb9b	0.06386491
162	0x3cabdf15	0.020980397
163	0xbbf9bb42	-0.0076212
164	0x3cde9f34	0.027175523
165	0x3c1cf79e	0.009580521
166	0x3cd91b23	0.026502198
167	0x3d0fe90f	0.03513437
168	0xbc87e179	-0.016587006
169	0x3c5dca34	0.0135369785
170	0x3c995a8a	0.01871993
171	0x3b25d034	0.00253011
172	0xbb1a9a7b	-0.0023590613
173	0x3d5666db	0.052344184
174	0x3d0b399e	0.033990495
175	0xbd2817ec	-0.04103844
176	0xbcd3fc7c	-0.02587723
177	0x3c9805a9	0.018557386
178	0x3d2c5ae9	0.042078886
179	0xbcafe6ca	-0.021472353
180	0xbd246e11	-0.04014403
181	0x3c728bda	0.014803851
182	0x3c5a6532	0.013329791
183	0xbd4ad083	-0.04951526
184	0xbd5b8f4d	-0.05360346
185	0x3d169eda	0.036772586
186	0x3a2515e1	0.00062975107
187	0x3c908658	0.017642185
188	0xbd7f23cf	-0.06229001
189	0xbbe8da82	-0.0071061263
190	0xbd5c15d1	-0.053731743
191	0x3cffa0ce	0.031204607
192	0x3d1c16c7	0.03810766
193	0xbd80c94c	-0.06288394
194	0x3c27052e	0.010194106
195	0x3d65da12	0.05611617
196	0x3cc0c52b	0.023531517
197	0xbd6e5c1e	-0.05819332
198	0xbc8705ef	-0.016482322
199	0x3d89126a	0.06692965
200	0xbc5f61fc	-0.013634201
201	0xbc8d71c0	-0.017266154
202	0xbd5e7996	-0.054315172
203	0xbd059329	-0.032611046
204	0x3d3ccb0f	0.04609209
205	0xbb0585bc	-0.0020373901
206	0x3da64361	0.0811832
207	0xbd9e535f	-0.077307455
208	0xbc7794dc	-0.015111174
209	0x3d017580	0.031606197
210	0xbcbc50b6	-0.022987705
211	0xbd8929be	-0.06697415
212	0xbdaef5b3	-0.08542957
213	0x3d9c4403	0.0763016
214	0x3d352e9e	0.04423391
215	0xbd6f2f34	-0.058394626
216	0xbc9f1482	-0.019418959
217	0xbbfb6037	-0.007671382
218	0x3c86a1f7	0.016434653
219	0xb920998e	-0.00015315993
220	0x3d2ace8e	0.041700892
221	0x3ceb6bde	0.028737959
222	0xbcc9a815	-0.02461628
223	0xbc946cbe	-0.018118259
224	0xbc34f61a	-0.011045003
225	0xbd04aa8f	-0.03238922
226	0x3c95c7a5	0.018283674
227	0x3cc5caca	0.024144549
228	0xbd5eaee9	-0.054366026
229	0x3d5579e3	0.052118193
230	0x3cd99c03	0.02656365
231	0x3c968505	0.018373976
232	0x3aab4cec	0.0013069189
233	0x3d7ba094	0.061432436
234	0xbd26fd49	-0.040768895
235	0xbc5bbc46	-0.013411587
236	0xbd13b94d	-0.03606539
237	0xbdeb9b84	-0.115042716
238	0xbda70fcc	-0.0815731
239	0xbd4468b8	-0.04795143
240	0xbd1aa388	-0.03775361
241	0x3c7d4ca4	0.015460167
242	0xbc059231	-0.0081525305
243	0x3cb3c6d3	0.021945393
244	0x3d9b82f6	0.07593338
245	0x3d64344e	0.055713944
246	0x3d340a53	0.04395516
247	0xbc38084e	-0.011232449
248	0x3d1948e3	0.037423026
249	0x3c974f9d	0.01847058
250	0x3d9fc4a4	0.07801178
251	0x3c92e31d	0.017930562
252	0x3d410a59	0.04712901
253	0xbd2d272b	-0.04227368
254	0xbc82c01b	-0.015960744
255	0xbd7acec2	-0.061232336

actor.4.bias f4 [6]
0	0xbd92f2a9	-0.0717519
1	0x3d763092	0.060104914
2	0xbd41d243	-0.04731966
3	0x3bc3ff4f	0.005981363
4	0xbd458f1e	-0.04823219
5	0xbd856f42	-0.06515361

critic.0.weight f4 [256, 12]
0	0x3ce841ef	0.028351752
1	0xbcd47170	-0.025932997
2	0x3d035c73	0.03207059
3	0x3dde38ad	0.10850654
4	0xbcec78c9	-0.028866189
5	0x3df54133	0.119753264
6	0xbe778678	-0.2417239
7	0x3d8e0522	0.06934573
8	0xbddd51e4	-0.10806635
9	0x3eb041c3	0.34425172
10	0xbe0f71a7	-0.14008199
11	0x3e1acd8d	0.15117474
12	0x3dcebb0b	0.10094269
13	0x3e5a7619	0.21334113
14	0x3e845f07	0.2585375
15	0xbd04553c	-0.03230785
16	0xbe16d131	-0.14728238
17	0xbe1e14a0	-0.15437555
18	0x3e3790f4	0.17926389
19	0xbe810a31	-0.25203088
20	0xbe5f8a85	-0.21830185
21	0x3f1871f9	0.5954891
22	0x3e4c9945	0.19980343
23	0xbe3ca534	-0.18422395
24	0x3e9bb74d	0.30413285
25	0xbe6d4b35	-0.2317322
26	0x3e5587d4	0.20852596
27	0xbe931c35	-0.28732458
28	0x3ce5aa0e	0.02803519
29	0xbe5970b8	-0.21234405
30	0x3e402ac5	0.18766315
31	0xbcb3d580	-0.02195239
32	0xbe309594	-0.1724456
33	0x3e76c592	0.24098805
34	0x3cbe1c58	0.023206875
35	0x3db78095	0.08960072
36	0x3e25e5fd	0.16201015
37	0xbde7cd6b	-0.11318477
38	0x3e8ef0b3	0.27918014
39	0xbd54a95e	-0.051919334
40	0x3dceb1ab	0.10092481
41	0xbd8d1965	-0.06889609
42	0x3e0b5dcc	0.1361
43	0xbe1d21f5	-0.15344985
44	0xbe6c9847	-0.23104964
45	0x3ea97c8b	0.3310283
46	0xbe31e7e9	-0.17373623
47	0xbe1bf5a2	-0.1523042
48	0xbd41cb74	-0.04731317
49	0x3da220fd	0.07916448
50	0x3e3292d9	0.1743883
51	0xbe15d138	-0.14630592
52	0x3e406895	0.18789895
53	0x3e1908b9	0.14944734
54	0x3d6f499f	0.05841982
55	0x3dbf0e1a	0.093288615
56	0x3e5df80e	0.21676657
57	0xbf066d42	-0.52510464
58	0xbe6290aa	-0.22125497
59	0xbd96a395	-0.073554195
60	0xbccb4001	-0.024810793
61	0x3de79661	0.113079794
62	0xbe513e1f	-0.20433854
63	0xbe6baf35	-0.23016055
64	0x3dd42e8c	0.103604406
65	0x3d876de9	0.066127606
66	0xbe2cac09	-0.16862501
67	0x3e93312c	0.28748453
68	0xbdcee0df	-0.101014845
69	0xbf03e42e	-0.5152005
70	0x3e814830	0.25250387
71	0x3e839118	0.25696635
72	0x3e5e6fc4	0.21722323
73	0xbe38b23c	-0.18036741
74	0x3d8cef32	0.068815604
75	0x3e3a4a93	0.1819251
76	0x3d40df60	0.047088027
77	0x3e150d9b	0.14555971
78	0xbd61956d	-0.055074144
79	0xbe94c69a	-0.2905777
80	0xbe33790e	-0.17526647
81	0xbee80c6d	-0.4532198
82	0xbeb3ab9f	-0.35091874
83	0x3dac94be	0.08426808
84	0x3eb1a69c	0.34697425
85	0x3dd06df9	0.101772256
86	0xbe069899	-0.13144149
87	0x3d6589a9	0.056039486
88	0xbdb2ce56	-0.08730762
89	0x3d77af09	0.06046966
90	0xbe104fdf	-0.14092968
91	0xbda623e8	-0.08112317
92	0xbea02c3a	-0.31283742
93	0xbe4295b4	-0.1900242
94	0xbe2235db	-0.15840857
95	0xbc004e57	-0.007831178
96	0x3d07cc73	0.033153962
97	0xbde03789	-0.109480925
98	0xbe07a6ee	-0.13247272
99	0x3e74996d	0.23886652
100	0x3e15ef11	0.14641978
101	0xbdd03675	-0.10166637
102	0xbe0241f9	-0.12720479
103	0x3e03afcf	0.12860034
104	0x3e580c1f	0.21098374
105	0xbf1ad9dd	-0.60488683
106	0xbcaec532	-0.021334264
107	0x3de9b09a	0.11410637
108	0xbb8ca140	-0.0042916834
109	0xbe07e90d	-0.13272496
110	0xbd9e0349	-0.0771547
111	0x3da72ec0	0.08163214
112	0x3e2c309f	0.16815422
113	0xbd3cfe19	-0.046140764
114	0xbe203583	-0.15645413
115	0xbe887a54	-0.2665583
116	0x3d610718	0.054938406
117	0x3f0b7595	0.5447629
118	0x3e268e71	0.16265275
119	0xbd4e5d82	-0.050382145
120	0xbbf83a9d	-0.0075753466
121	0x3dac7f83	0.084227584
122	0xbd8a1e3e	-0.067440495
123	0x3d68e2bb	0.056856852
124	0x3df8f7b4	0.121566206
125	0x3e5ebf03	0.21752553
126	0x3d5797a1	0.05263484
127	0x3e766e8d	0.2406561
128	0xbe941afc	-0.28926837
129	0xbf2ac08a	-0.6670004
130	0x3e4f9f76	0.20275673
131	0xbe90beeb	-0.2827066
132	0xbe53878c	-0.20657176
133	0x3d27db29	0.04098049
134	0xbd6bc402	-0.057559974
135	0xbe9d1fc5	-0.306883
136	0xbd1b382d	-0.03789537
137	0xbbe7d9b4	-0.007075513
138	0x3dc9a91f	0.098467104
139	0xbe88ee45	-0.26744285
140	0x3d957233	0.072971724
141	0x3f35da48	0.71036196
142	0x3e38f696	0.18062815
143	0xbdece9d8	-0.1156804
144	0x3ea6918e	0.32532924
145	0xbd8c619d	-0.06854556
146	0xbe2a89dc	-0.16654152
147	0x3dd91c9e	0.106011614
148	0x3e91719c	0.2840699
149	0x3d36a343	0.044589292
150	0xbe0b38d3	-0.13595895
151	0x3e07e774	0.13271886
152	0xbeb04c6a	-0.344333
153	0xbeb6e19b	-0.35718998
154	0x3ea39beb	0.31954893
155	0xbe458078	-0.19287288
156	0x3e58ad13	0.21159773
157	0xbe0eefc5	-0.13958652
158	0xbe878024	-0.2646495
159	0xbd01489f	-0.031563397
160	0x3e6d427c	0.23169893
161	0x3dee2b3d	0.11629341
162	0xbe2a17d7	-0.16610657
163	0xbe712626	-0.23549709
164	0xbe717372	-0.23579195
165	0xbf377604	-0.7166445
166	0x3dec014f	0.11523687
167	0x3e892d60	0.2679243
168	0x3e4601b4	0.19336587
169	0x3d16e01d	0.036834825
170	0x3d4fa655	0.050695736
171	0xbc643066	-0.013927555
172	0xbe1cf174	-0.15326482
173	0x3e412ed9	0.18865527
174	0x3e5fe423	0.21864371
175	0x3e207e1e	0.1567311
176	0xbcba6bac	-0.02275642
177	0xbf07238f	-0.52788633
178	0xbcb402ea	-0.021974046
179	0x3d539282	0.051653393
180	0xbe5cde74	-0.21569234
181	0x3e090b4b	0.13383214
182	0x3d8c6acd	0.06856308
183	0x3e6ceaf3	0.23136501
184	0xbced9574	-0.029001929
185	0xbe91a2c2	-0.28444487
186	0xbceeef8d	-0.029166961
187	0xbdd68529	-0.10474617
188	0x3dd2d1ae	0.102938995
189	0x3e690ef6	0.22759613
190	0x3e717ec3	0.23583512
191	0xbd8338aa	-0.06407292
192	0x3e391456	0.18074164
193	0xbe1803f6	-0.14845261
194	0xbe369ce4	-0.17833287
195	0x3da0a181	0.078433044
196	0xbe465b98	-0.19370878
197	0x3e074dc7	0.13213263
198	0x3e9015e3	0.28141698
199	0x3c3d8a43	0.011568609
200	0xbe0e1710	-0.13875985
201	0xbf05564c	-0.52084804
202	0x3e816e2d	0.2527937
203	0x3dbc7eef	0.09203898
204	0xbe8c9fe6	-0.27465743
205	0x3c038012	0.00802614
206	0x3d581741	0.05275655
207	0xbe655e40	-0.22399235
208	0xbe2cccf9	-0.16875066
209	0xbe72a7a4	-0.23696762
210	0x3e53e086	0.20691118
211	0x3e31e8bd	0.17373939
212	0xbe8fdbc9	-0.2809737
213	0x3f1bf451	0.6091967
214	0x3d8db438	0.069191396
215	0x3de851f7	0.113437586
216	0xbaf5e9bd	-0.0018761676
217	0x3e6151db	0.22003882
218	0x3e758cb2	0.23979452
219	0xbce1bf57	-0.027557058
220	0xbdb68838	-0.089127004
221	0x3e2a6633	0.16640548
222	0xbe968f71	-0.29406312
223	0x3e6a9eca	0.22912136
224	0xbe06106c	-0.13092202
225	0x3f456214	0.7710278
226	0x3e40ad33	0.1881607
227	0xbdb69476	-0.089150354
228	0x3bfa4b12	0.0076383436
229	0xbde61e62	-0.11236264
230	0xbcb2bbe7	-0.021818114
231	0xbdb5aca8	-0.08870822
232	0xbeaa97c9	-0.33318928
233	0x3eae8de8	0.3409264
234	0xbe6b2bed	-0.22965975
235	0x3da61aec	0.08110604
236	0x3e968f57	0.29406235
237	0x3ea2df4e	0.31810993
238	0xbebcfc74	-0.36911356
239	0xbd8c4070	-0.06848228
240	0xbdb99fd2	-0.090636864
241	0xbe430613	-0.19045286
242	0x3cf6669b	0.030078223
243	0xbc80d80a	-0.015728015
244	0x3e2b6aac	0.16739911
245	0xba287529	-0.00064261496
246	0x3daeaf66	0.08529548
247	0x3e29cb77	0.16581522
248	0xbe16059c	-0.14650577
249	0x3e94845c	0.29007232
250	0x3e1bd9f8	0.15219867
251	0x3c11a659	0.008889758
252	0xbe0a1b36	-0.13486943
253	0x3e8bcc4e	0.2730431
254	0x3dff8ce9	0.12478048
255	0xbe1566a6	-0.14589939

critic.0.bias f4 [256]
0	0x3e318147	0.17334472
1	0x3da1e5bc	0.079051465
2	0xbea0b9f8	-0.31391883
3	0xbe6905b9	-0.2275609
4	0x3d1044fe	0.035222046
5	0x3dc9c294	0.09851566
6	0x3ea4094c	0.32038343
7	0x3e2e68ba	0.17032138
8	0x3dcac17d	0.09900186
9	0xbd87a342	-0.06622936
10	0x3dd1cdd5	0.102443375
11	0xbd8ae848	-0.067825854
12	0xbe326842	-0.17422584
13	0xbe18247b	-0.14857666
14	0x3e50a03b	0.20373623
15	0xbe45e41e	-0.19325301
16	0xbb59dbde	-0.0033242623
17	0x3e088835	0.13333209
18	0x3e722ba7	0.23649465
19	0x3e504bd8	0.20341432
20	0xbdc2e11c	-0.095155925
21	0x3e680c24	0.22660881
22	0x3d53b2fc	0.051684365
23	0x3e1ab3f9	0.15107717
24	0xbe4d540a	-0.2005159
25	0xbd26fe41	-0.04076982
26	0x3e5c0f60	0.2149024
27	0xbc09092b	-0.008364002
28	0xbda4ac34	-0.08040658
29	0x3e83b568	0.2572434
30	0x3e275360	0.16340399
31	0xbe3e92a3	-0.18610625
32	0xbdd0b341	-0.1019044
33	0x3e871f3d	0.2639102
34	0xbe3795d2	-0.17928246
35	0x3ddabcf4	0.10680571
36	0x3dc4bcc5	0.096063174
37	0x3e78cfb6	0.24297985
38	0xbeab5f24	-0.33471024
39	0x3dd6961f	0.10477852
40	0x3e6d32fd	0.23163982
41	0x3c18c647	0.009324617
42	0xbd23bb9d	-0.039973844
43	0x3bd2c12f	0.0064317207
44	0x3e643992	0.22287586
45	0x3e73c5b8	0.23805892
46	0xbe60c1b9	-0.219489
47	0xbc8d98e9	-0.017284827
48	0x3e4c4b21	0.19950534
49	0x3e83d9e8	0.25752187
50	0xbeac6029	-0.33667114
51	0xbe2e2125	-0.17004831
52	0x3e64e5eb	0.22353332
53	0x3db5bba4	0.0887368
54	0x3d80668d	0.0626956
55	0xbdcae03f	-0.09906053
56	0xbd802e25	-0.06258801
57	0xbdc07188	-0.09396654
58	0x3da13885	0.07872108
59	0xbe930287	-0.28712866
60	0x3d0b277f	0.033973213
61	0x3d74839f	0.059695836
62	0x3d6b41f0	0.05743593
63	0xbc8f1146	-0.017464291
64	0xbe5e344d	-0.21699639
65	0x3c615c3c	0.013754901
66	0x3d566c94	0.052349642
67	0x3e360c2a	0.17778078
68	0x3d2c233c	0.04202579
69	0x3e136f01	0.14397813
70	0x3e087263	0.13324885
71	0x3e32866c	0.1743409
72	0xbc202b9b	-0.009776021
73	0xbe54a7a1	-0.2076707
74	0xbe4d50fe	-0.20050427
75	0x3d7d66c5	0.061865587
76	0xbdd0e25d	-0.10199425
77	0xbe4eab39	-0.20182504
78	0xbe4bd7bb	-0.19906513
79	0x3e2762ae	0.16346237
80	0xbdaf8ca0	-0.08571744
81	0x3e39d299	0.18146743
82	0x3e1c29ae	0.15250275
83	0x3d7a757e	0.061147206
84	0xbe7556bc	-0.23958868
85	0x3c483814	0.012220401
86	0xbe44ca22	-0.19217733
87	0xbe0b2c50	-0.13591123
88	0xbe7fa194	-0.24963981
89	0xbe85b838	-0.2611711
90	0x3e220b2b	0.15824573
91	0x3e00dd4d	0.1258442
92	0x3ca4a29f	0.020097075
93	0x3e86e70a	0.26348144
94	0x3c325235	0.0108838575
95	0xbd4ebe78	-0.050474614
96	0xbe55d11c	-0.2088055
97	0xbe336954	-0.17520648
98	0x3d600bad	0.054698635
99	0x3e7e29c9	0.24820627
100	0x3e3191c6	0.17340764
101	0x3d2cef3f	0.04222035
102	0xbe6e8aa9	-0.23295082
103	0x3e04e8e2	0.12979463
104	0xbe02ba42	-0.12766364
105	0xbe87c7e1	-0.26519683
106	0x3d2bf79b	0.04198418
107	0x3e6fd388	0.23420537
108	0xbc4199fc	-0.011816498
109	0xbe5dcb59	-0.21659602
110	0x3d8a6441	0.06757403
111	0xbd8ae37a	-0.06781669
112	0xbe9e5261	-0.30922225
113	0xbd62db8a	-0.05538515
114	0x3e5838a5	0.21115358
115	0x3d493dc0	0.049131155
116	0xbe76f556	-0.24117026
117	0x3c6c53c5	0.014424269
118	0xbe653a80	-0.22385597
119	0x3ea13c0e	0.3149113
120	0x3e49fc14	0.19725066
121	0x3e464f4d	0.19366188
122	0xbcef2ef2	-0.02919719
123	0xbe90e36d	-0.28298512
124	0x3e6114ea	0.21980634
125	0xbe857309	-0.26064327
126	0x3df58ea3	0.119900964
127	0x3e2fdb24	0.1717344
128	0xbe3b3937	-0.18283544
129	0xbd9f97d0	-0.07792628
130	0x3e5bb43c	0.21455473
131	0x3e21e8df	0.1581149
132	0x3e0dbfde	0.13842723
133	0xbe41d367	-0.189283
134	0xbe98cce6	-0.29843825
135	0xbe8965a6	-0.26835364
136	0x3e5a6f6e	0.2133157
137	0x3eb396ff	0.35076138
138	0xbe43afde	-0.19110057
139	0x3dccdbfb	0.100028954
140	0xbe890710	-0.267632
141	0xbdda0869	-0.10646135
142	0x3ea028cf	0.31281134
143	0x3e10b528	0.14131606
144	0xbdf972ef	-0.12180125
145	0xbd4ed589	-0.05049661
146	0x3d9135f5	0.070903696
147	0x3e9199a7	0.2843754
148	0x3dc8251f	0.09772705
149	0xbe7d1c8a	-0.24717918
150	0xbdf573eb	-0.11985
151	0x3ca78dbb	0.020453325
152	0xbe0c64e6	-0.13710365
153	0xbe4f10b7	-0.2022122
154	0x3de293e1	0.11063362
155	0x3c943600	0.018092155
156	0x3e510086	0.20410356
157	0xbe14ffd3	-0.14550714
158	0xbd9257ca	-0.07145651
159	0xbe81279c	-0.25225532
160	0xbd59406f	-0.053039964
161	0xbe98840a	-0.29788238
162	0xbe03ae8f	-0.12859558
163	0xbe598101	-0.21240617
164	0xbe50d822	-0.20394948
165	0xbe965011	-0.2935796
166	0xbe3387a1	-0.17532207
167	0x3db4467e	0.08802508
168	0x3e5c0a34	0.21488267
169	0x3dfdc789	0.12391574
170	0x3d911857	0.070847206
171	0xbd6b271b	-0.05741034
172	0xbe34fd49	-0.17674746
173	0x3baac8f4	0.0052119438
174	0xbe532c51	-0.20622374
175	0x3e0a4c92	0.13505772
176	0xbe572bab	-0.21012752
177	0xbe8e3775	-0.27776685
178	0xbbb105f3	-0.0054023205
179	0x3e5451dd	0.20734353
180	0xbd4edae3	-0.050501715
181	0xbe175e77	-0.14782129
182	0xbe642f33	-0.2228363
183	0x3dbc723a	0.092014745
184	0x3d55b4dd	0.052174438
185	0xbdd9f6f2	-0.10642804
186	0xbced946b	-0.029001435
187	0xbe044e65	-0.1292053
188	0x3dd855dd	0.10563252
189	0x3e35da3b	0.1775903
190	0xbd688538	-0.056767672
191	0xbe082411	-0.13295008
192	0x3e2577ea	0.16159025
193	0xbe98e227	-0.2986004
194	0xbc81bc03	-0.015836721
195	0x3d3ad0dc	0.04560934
196	0xbe2dc864	-0.16970974
197	0xbd179b54	-0.037013367
198	0x3e4d62d7	0.20057236
199	0x3e0c733d	0.13715835
200	0x3e42c541	0.19020559
201	0x3d807c2b	0.06273683
202	0xbe401857	-0.18759285
203	0x3e19b96f	0.15012144
204	0x3e3aea73	0.18253498
205	0x3ea9156a	0.3302415
206	0x3e4693ae	0.19392273
207	0x3d95d838	0.07316631
208	0x3dfa5b4d	0.122244455
209	0x3e97dbd4	0.29659903
210	0xbe6c3c10	-0.23069787
211	0xbe755fe3	-0.23962359
212	0xba95734a	-0.0011402157
213	0xbe419bb1	-0.18907048
214	0x3d56077f	0.052253243
215	0x3ddb2c49	0.10701806
216	0xbe461762	-0.19344857
217	0xbe6165a9	-0.22011437
218	0x3d14fde4	0.03637494
219	0xbdd5c08b	-0.10437115
220	0xbc7c236d	-0.015389306
221	0x3da85aca	0.08220442
222	0xbd0807a3	-0.033210408
223	0xbe32e995	-0.17471917
224	0xbe36204b	-0.17785756
225	0xbd9d0123	-0.076662324
226	0xbe808f63	-0.25109395
227	0xbbc08256	-0.0058749123
228	0x3e7f31b0	0.24921298
229	0xbe6570fd	-0.22406383
230	0xbc742986	-0.014902478
231	0x3e82e17f	0.25562665
232	0xbe9291c4	-0.28626835
233	0xbe892c9d	-0.2679185
234	0x3d11f4b3	0.035633754
235	0x3e60b15f	0.21942662
236	0x3e6e5729	0.23275436
237	0x3c20ed98	0.009822272
238	0x3e935251	0.2877374
239	0xbdaa8c67	-0.08327561
240	0x3d67b4da	0.056568958
241	0xbe389cd2	-0.18028572
242	0xbdc4936e	-0.095984325
243	0x3e9c747c	0.3055762
244	0x3e767380	0.24067497
245	0xbdac840b	-0.08423623
246	0x3e272f3a	0.16326609
247	0xbccf8f07	-0.025336755
248	0xbdfdb91b	-0.12388822
249	0xbda077bb	-0.07835337
250	0x3e77f9ea	0.24216428
251	0x3e7e13dc	0.24812263
252	0xbe874949	-0.264231
253	0xbdfbfaeb	-0.12303718
254	0x3df75309	0.120763846
255	0xbe19760e	-0.1498644
