policy/PPO/checkpoints/2025-10-09_20-33/ppo_soarm_9000.pth (torch, 895437 bytes, 33 tensors)

actor.0.weight f4 [256, 12]
00000000: 13cf 903d d54b cf3c 46c2 853e d61e 4ebe
00000010: 65d5 973e 37cd 6c3e 115b 063e 7c88 f3bd
00000020: b0bd e4bd faa5 8fbe 28ff e9bd da61 223e
00000030: a7a3 88be e137 a23b d273 3e3d 50e3 c7bd
00000040: 9886 e4be 2dcb 053e 9c93 9bbd 82c4 713d
00000050: d4db 253e 67b1 d53d fb84 8fbe 1d28 763d
00000060: c58f 68bd 5e44 f4bd 7c37 ecbc 58e9 b73c
00000070: 6a79 81be 7665 e4bd 0828 073e f4e2 a2bc
00000080: 5eed 1d3e 7731 c2be 2feb 95be 6e4a 5b3e
00000090: 0159 c7bc a198 283e 4e19 643e c9ce 0cbc
000000a0: 13f1 873e 269f 0d3e c290 453e 457b 383e
000000b0: 9ce0 94bd 0ba8 89be 592a 143e a820 2dbe
000000c0: 14d8 1f3d 11d1 62be ae6a 19be 39c8 53bd
000000d0: ca38 c63e 46db 32be 044b c93d b585 343e
000000e0: d1cf 193e 2a02 b3be 3f26 93be 97ad 1cbe
000000f0: 94d2 623e e0ae 2fbe f180 00be 7415 50be
00000100: 56c4 37bd c765 a13e 52a2 423c 80f2 33bd
00000110: 9f3e 903e 7f56 f6bc 8bec 95be 3c00 03be
00000120: c8dd 21bd 1316 863d 283f 6f3e f82e 82be
00000130: 1bbd 64bd bbea 563e cf51 b9bc cba3 523e
00000140: 0d2d 153e 4aba ba3e 66f0 99be 8c32 11bd
00000150: 273f 5c3d aa30 be3d 2276 173e a51e 343e
00000160: 907d afbe 1dc4 0dbe 253d efbd a9d4 40be
00000170: f696 7cbd e80c 933e a400 34be 9749 a03e
00000180: 5267 113e 66f5 3d3e b449 6d3d 1c38 5bbd
00000190: 14d2 39be 9fc3 693c df22 75be 440b 593e
000001a0: 5f53 3d3e b1b3 be3e d5b6 bcbc ac21 8f3e
000001b0: 9a2c e4bd d78f 993d 14fc 793c ff63 ddbd
000001c0: a7a2 79bd 8a1d c7bc 2789 8b3d 8fc1 0a3e
000001d0: 4fdc b03d 36a0 5b3e f3ed 963d c443 4cbe
000001e0: 1906 08be 847e 5e3e 8957 513e 1eff f3bd
000001f0: 02b5 493e 2a21 a73d 0ae2 d2bd 2dfd 5f3e
00000200: 35b7 32be 8f25 ce3d 1d74 053e 64ad d43b
00000210: bde7 68bd 03d5 9abd 3483 78bd c6ad 27bc
00000220: 0e8c 9dbe 8322 6b3e 10c1 f33d 295d 413d
00000230: 6d69 293d 912e 953e 473d 6a3d 5f94 4a3e
00000240: ab7e 433e 8bbc 2ebb c51c 0e3e 4d52 cf3d
00000250: 3bca fa3d 3a01 143d 4a14 ae3d 4987 533e
00000260: a9ff e63c 15f7 85be ce21 2abd c978 ae3e
00000270: 9476 2c3d 98b0 c4bd 8357 993d ff34 943e
00000280: ea19 06be 5aed 143e 329e 423e 4dd6 fdbd
00000290: b217 d13c a7d9 e9be b916 36be 36c5 19be
000002a0: 68a1 80bc 6f1b 50be 39d7 523c a719 bf3d
000002b0: 501d 64be 1935 493e 3d3e 99bd 84df 3c3e
000002c0: da81 103e 1a37 b0be e3a7 44be f049 3d3d
000002d0: 6e37 773d d2c9 aabd e6b2 f1bd ea8b e6bd
000002e0: dc4a 953c 6637 df3d ebd6 2e3d 3e04 563e
000002f0: 5a66 a23e 4056 ae3d 4b7f 2f3e 7671 3e3e
00000300: d288 16be a2ae ae3c 61c1 abbd 03b1 6dbe
00000310: dfee 69be daaf 54bd e38a 413e 9a47 0a3e
00000320: cc34 ab3d 8ca1 3f3e 5e7f dbbd 7e54 46be
00000330: b550 403e a40c 4ebe a36d 08be 9e07 89be
00000340: 5614 c53c 11a5 6d3d d2e3 943d c96e 33be
00000350: 968b 803d 31df 17bc bfdf 82bd ca1e 62be
00000360: dfc9 7c3e feb9 6d3e f5fa 303e 1662 6fbe
00000370: 7b97 4f3e b034 863e 2b48 d03d 96b8 0c3e
00000380: cbb4 26be bf29 75be 3e07 a8bd 43d8 053d
00000390: 7d3b 98bd 1965 4fbe 616d 5bbe ef2f 64be
000003a0: 4900 a63e 6d38 b8bd 4feb 0e3e 40f5 0d3e
000003b0: e1dc 913d 19cf d43e 5f5b 083e 6ed2 5e3e
000003c0: ac68 8e3e 4d0c 293e 2d2b f03c ba21 ce3d
000003d0: 44dd a43d 3c8b 1cbe b383 7fbd cbc9 ce3e
000003e0: e038 c33d 9b3e 80be ec4b 3bbd bfcc 41be
000003f0: 6678 e1bd 902c 9d3d 3387 22bd 41eb 123e
0.07070746 0.025304714 0.2612478 -0.2012895 0.29654995 0.23125158 0.13120677 -0.11891267
-0.111689925 -0.28056318 -0.1142562 0.1585764 -0.26687357 0.004950509 0.046497174 -0.09760153
-0.44633937 0.13065787 -0.07596514 0.059025295 0.16197139 0.104342274 -0.28031144 0.06009685
-0.056777734 -0.119271025 -0.02883505 0.022450134 -0.25287944 -0.11152165 0.13198864 -0.01988361
0.1542258 -0.37928364 -0.29280993 0.21415111 -0.024334433 0.16464473 0.22275278 -0.008594223
0.26551113 0.13830242 0.19293502 0.18015774 -0.07269403 -0.2688602 0.1446928 -0.16906989
0.039024428 -0.22150065 -0.14982101 -0.05170462 0.38715202 -0.17466459 0.09828761 0.1762913
0.15020682 -0.3496259 -0.28740117 -0.15300594 0.22150642 -0.17156553 -0.12549187 -0.20320684
-0.044864975 0.31522962 0.0118795205 -0.043932438 0.28172776 -0.030070541 -0.2928203 -0.12793058
-0.039518148 0.06547179 0.23363936 -0.2542646 -0.055844408 0.2098798 -0.022622017 0.20570295
0.14567967 0.36470252 -0.30066222 -0.035448596 0.053771164 0.09286626 0.14791158 0.17589815
-0.34275484 -0.13844343 -0.11681584 -0.18831123 -0.061667405 0.28720784 -0.1757837 0.31306145
0.1419957 0.18550643 0.057931617 -0.053520307 -0.18146545 0.014267831 -0.23939084 0.21195704
0.18488835 0.3724647 -0.0230364 0.27955377 -0.111413196 0.074981384 0.015257854 -0.10810088
-0.060946133 -0.024306078 0.06813269 0.13550399 0.086357705 0.21447834 0.07369604 -0.19947726
-0.13283576 0.2172795 0.20443548 -0.11913894 0.19697955 0.081606224 -0.1029702 0.21873923
-0.174527 0.100657575 0.13032575 0.0064903963 -0.056861628 -0.0756016 -0.060672 -0.010234302
-0.30770916 0.22962384 0.11902058 0.047207985 0.041360307 0.2913709 0.057187345 0.19783162
0.19091289 -0.0026662673 0.13878162 0.101231195 0.12245604 0.036133982 0.084999636 0.20657076
0.02819808 -0.2616507 -0.041536145 0.34076527 0.042105272 -0.09603995 0.07487395 0.28946683
-0.13095823 0.14543667 0.19005659 -0.1239439 0.025523994 -0.45673868 -0.17782106 -0.15016636
-0.015701964 -0.20322965 0.012868696 0.09331065 -0.22276807 0.19649161 -0.07482574 0.1844464
0.14112034 -0.3441704 -0.19204669 0.04621309 0.060355596 -0.083392754 -0.118017 -0.11257155
0.018224172 0.10899238 0.04268543 0.20900056 0.31718713 0.08512545 0.17138402 0.1859797
-0.1470063 0.021323506 -0.083864935 -0.23212056 -0.22845028 -0.051925518 0.18900637 0.13503876
0.083596796 0.18713969 -0.10717653 -0.19368169 0.18780787 -0.2012201 -0.13323073 -0.26763624
0.024057548 0.058018748 0.07270016 -0.1752273 0.06276624 -0.009269522 -0.063903324 -0.22082058
0.24686383 0.23215482 0.17283233 -0.2337726 0.20272629 0.26212072 0.10170015 0.13742289
-0.16279905 -0.23941706 -0.08204506 0.032676946 -0.074332215 -0.2025341 -0.21428443 -0.2228391
0.32422093 -0.08995137 0.1395695 0.13863087 0.071222074 0.41564253 0.13316105 0.2175996
0.27814233 0.16508599 0.029317463 0.100650266 0.080500156 -0.15287489 -0.062381458 0.4038833
0.095323324 -0.25047764 -0.0457267 -0.1892576 -0.11009292 0.07674515 -0.039679717 0.14347555

actor.0.bias f4 [256]
00000000: e248 6e3e 9b28 cbbd 5b33 223e 66a9 9e3d
00000010: f1d5 673e 8602 35be 9908 813e e8f2 c8bc
00000020: 5235 93be a4cf 863c 2991 9a3d 7014 14be
00000030: aa72 db3d 279a 023d 70f0 613e 46e7 d4bd
00000040: 212a 433d 5a15 393e 45f3 16be 8294 743c
00000050: 3f54 2fbb f740 24be d115 983d e1b3 303d
00000060: a2d1 063e 0953 0bbe 457e bcbd b67b 19be
00000070: f967 8d3c 8af3 7b39 7f1d 59be b92f 073e
00000080: 7490 733e 40b3 99bd f52e 8ebe 4873 e23d
00000090: 7148 b4bd 21c0 163e 11a6 2c3e 8921 ae3c
000000a0: 34e5 783e 9dc6 6cbd 9191 4c3e 6ebb 4cbe
000000b0: 6987 74bd 5739 303d c1af 343e 486a 8a3e
000000c0: 4f44 acbc b146 883e 42b2 ea3a c704 003e
000000d0: e3ef 14be d71e cf3d 2d9e e1bd bc8d 07be
000000e0: 3140 8c3e e0fb 9cbb 8a38 29bc e038 d63d
000000f0: 6933 9bbd 2dc6 633d 3c6e f83d 2f1a e8bd
00000100: afb7 29bd 760b ed3d 4c9d 7ebd 7203 113e
00000110: a7e9 4b3d d192 16bd 978e 73be 71d8 32be
00000120: 1859 2cbd b69c d33d 4a4a 9c3d d1bf 813c
00000130: f25e a2bd 1204 543e b7ed 2f3d bf5c 033d
00000140: 3b75 d03d c3ff 62bd 9c62 893e 7ed0 65be
00000150: 5b5e 4ebe 9b41 003e 585a 0b3e d80b 553e
00000160: 7e93 46be 9816 033e d40d 773e 9d19 44be
00000170: 532a 453e f7b4 ab3c 3614 3a3b b810 81bd
00000180: 7b77 42be 78bb 91bd dd76 75be 72c9 713d
00000190: 8ffd ab3d ae95 7c3e 7a23 873e cad8 8dbe
000001a0: 72fd 3a3e 3524 69bc 88b7 33be af42 983e
000001b0: 8773 57bd 79cf aa3a 6400 eb3c b6b3 0fbe
000001c0: 029a 033e 30c0 38be da27 bcbd 9dc0 4c3e
000001d0: c8ce fc3a 03d7 8f3e ef97 80be 7a1d 9bbe
000001e0: 88dd 8b3c 8f8a 89be 318c 303d 8613 47be
000001f0: 7872 5d3e 661e b2bd ac84 433e 1fc1 f8bd
00000200: f844 c33d 0397 abbd 47f2 2dbd d03f 423e
00000210: 5958 f33d 46d7 9bbd aaaa 50be 7245 803e
00000220: 3860 973e e5b8 f9bc aac5 3abe 8104 8fbb
00000230: 6148 f1bd fc36 2ebe 50f0 57be e24e 243e
00000240: e127 60be fa10 0cbd 3e41 353e 45cb df3d
00000250: 8472 7cbd 564d 63be b9b9 853e 68bb 3f3e
00000260: b21d ff3d 3389 2abe 2dbb d8bd 73af d93c
00000270: ef36 57be 871d f33d f430 c3bb 5be0 88be
00000280: 71ea 36bd ebba f8bd 4000 873d 7042 1d3e
00000290: 043f 653e 3dcb ed3c 58c1 203e 16c9 803e
000002a0: dac5 98be ce1a 153e b17c 873e f922 013e
000002b0: b3e2 ffbd b7c0 74bd 8511 02bd ef38 23be
000002c0: 9b74 c43d 9b9d 03bd 1cb3 0d3e 601c 8b3e
000002d0: 7563 d4bc 3c1a 7f3e f4bf 213c 01e9 8b3c
000002e0: 98eb 02be 6866 043e 7a3a 223e 305e 0a3e
000002f0: 8737 693d c680 973b 8bab 393d bd5c 3ebe
00000300: cacc 503e e303 823e 7585 e4bd 2fcc 2dbe
00000310: 4d90 b0bd 6068 84bd f98c dabd 433f 403e
00000320: b99f c13d e13a 24bd 8fcf 7abd f763 ff3d
00000330: 5463 633e 5c4f 4e3e 0b0e db3d 61de 1d3e
00000340: c08c 1b3e 69f4 6cbe eb5a 63be 0ffa b13d
00000350: aae4 b83d 88be b23d 84e1 193e 8383 c13d
00000360: ea8c af3d 77c4 143e 38a0 f33d 6211 12be
00000370: df36 89be 1170 2fbe 290c 203e 0a44 47be
00000380: f9f8 483e 7b80 59be 1bd7 533d d3c9 68bd
00000390: c9ea 61bd 9c11 3f3d 87fd 8c3c da2b 043e
000003a0: 06e4 dbbd 6a87 bb3d 1a98 f33c 73f0 0c3e
000003b0: d904 adbd d917 6f39 71f6 513e d535 a33e
000003c0: f989 993c 80e3 3abe 3ffc 04be 0a0e 6f3e
000003d0: 0dd9 91be ca8a db3c ef84 9f3c ce81 42be
000003e0: 3cd8 593e 3bdd 3e3c f95a 86be dbd4 8abd
000003f0: 8aa6 18be 07c3 92be 25c3 89bd dc4c 293e
0.2326999 -0.09919854 0.15839903 0.07747154 0.22640206 -0.17676744 0.25201872 -0.02452989
-0.28751618 0.016456433 0.07547218 -0.14460921 0.1071523 0.031885292 0.22064376 -0.103956744
0.0476476 0.18074551 -0.14741237 0.014927985 -0.0026753095 -0.16040407 0.07426036 0.043140296
0.13165906 -0.13605894 -0.092037715 -0.14988598 0.017261492 0.0002402795 -0.21202658 0.13201798
0.23785573 -0.07504892 -0.277702 0.110571444 -0.088028796 0.14721729 0.16860224 0.021256225
0.24306184 -0.0578066 0.19977404 -0.19993374 -0.05969945 0.043023434 0.1764517 0.2703421
-0.021028666 0.26616433 0.0017905908 0.12501822 -0.14544635 0.10113304 -0.11016498 -0.13237661
0.27392724 -0.004790768 -0.010328421 0.10460067 -0.07578165 0.055608917 0.121304005 -0.11333119
-0.04143494 0.115744516 -0.06216173 0.1416147 0.049783375 -0.03676111 -0.23784862 -0.17465378
-0.042077154 0.103326246 0.07631357 0.015838536 -0.07928266 0.20704678 0.042951312 0.03207087
0.1017861 -0.055419695 0.26833045 -0.22442815 -0.20153181 0.12525027 0.13608682 0.208053
-0.19392201 0.12801588 0.24126369 -0.19150396 0.19254427 0.020960314 0.0028393394 -0.06302017
-0.1899089 -0.07115835 -0.23971124 0.059030004 0.08397972 0.24666473 0.26394254 -0.2770446
0.18260744 -0.014229824 -0.1755048 0.29738376 -0.05260041 0.0013031802 0.02868671 -0.14033398
0.12851718 -0.18042064 -0.091872886 0.19995351 0.00192877 0.28093728 -0.25115916 -0.30295926
0.017073408 -0.26863524 0.043102447 -0.19441041 0.21625698 -0.08697204 0.19093579 -0.1214621
0.09534639 -0.083784126 -0.04246738 0.18969655 0.11882085 -0.076094195 -0.20377603 0.25052983
0.29565597 -0.030483672 -0.18239465 -0.0043645506 -0.11781383 -0.17013162 -0.21087766 0.16045716
-0.21890213 -0.034195878 0.17700669 0.109274425 -0.061632648 -0.2219747 0.26118258 0.18723834
0.12456836 -0.166539 -0.10582576 0.026572919 -0.21017049 0.11870866 -0.0059567634 -0.2673367
-0.044657174 -0.12145027 0.065918446 0.15357375 0.2238732 0.029027576 0.15698755 0.25153416
-0.2983845 0.14561006 0.2646232 0.12610997 -0.12494411 -0.0597541 -0.03175499 -0.15939687
0.09592553 -0.032132726 0.13837856 0.27170086 -0.025926331 0.24912351 0.009872425 0.017078878
-0.12785184 0.1292969 0.1584262 0.13512492 0.05693772 0.0046235053 0.04532961 -0.18590064
0.20390621 0.2539359 -0.111582674 -0.16972421 -0.08621273 -0.064652205 -0.1067142 0.18774132
0.09454293 -0.040095214 -0.0612331 0.12470239 0.2220586 0.2014746 0.10696038 0.15416862
0.1519041 -0.2314011 -0.22202651 0.08690273 0.09027989 0.08727747 0.15027434 0.09448912
0.08571799 0.1452807 0.11895794 -0.14264444 -0.26799676 -0.17132594 0.15629639 -0.19459549
0.19626226 -0.21240418 0.051718812 -0.0568331 -0.05515555 0.046647653 0.017210735 0.12907353
-0.107368514 0.091566876 0.029735614 0.13763599 -0.0844819 0.000228017 0.20504166 0.31877008
0.018742548 -0.18250847 -0.12986849 0.23345199 -0.2848591 0.026799578 0.019472567 -0.18994829
0.21273893 0.011649425 -0.26241282 -0.0677888 -0.1490728 -0.2866442 -0.06726674 0.16533226

actor.2.weight f4 [128, 256]
00000000: a596 273c 529b 1a3d 8f55 333e 1fa5 873c
00000010: 5db1 a8bd 1338 7a3d 01dd 2bbd 53a1 8f3d
00000020: fbfa c43b 1c2f 183d 4cae 8fbc 0cd4 9d3d
00000030: 2b8b 42bd 5313 783e 3b43 363e 7254 b93c
00000040: 0e61 1c3c 9727 553c ebc1 4bbd ee58 39bb
00000050: 8d34 2c3d 8f44 433d df14 a5bd 258b 6cbd
00000060: c4e4 ebbc 392a 18bd 9096 80bd dc83 c1bc
00000070: 9a2f 51be d33e 44bd e60c 2d3c e59b 56b8
00000080: afdb b6bc 71e0 243d 3b03 0fbe 12ab 6abd
00000090: 64ca 5e3d 2d1a d13d 2f11 8fbc 8c6f c8bd
000000a0: 85f9 48bd 0cbc b63d 69bf 843d 28a6 85bd
000000b0: cdc2 3a3c 19d5 5c3b ab94 643d 433a 6abd
000000c0: e11a 043d d0b4 bb3d 7f38 7abc 8958 533d
000000d0: 3910 8e3d 9ae8 88bb 2463 723d 1e54 1c3d
000000e0: 0ee6 67bd d044 2d3d fb0f fdbd 7aa5 643b
000000f0: cb88 cf3d 5b89 ba3c 37a8 9a3b 13db 7f3d
00000100: d92c 1dbb 2682 5dbd f727 083e d2b7 aabc
00000110: 387f 05ba f4dd 7abd dd67 20bd 5d16 053d
00000120: e438 883d 5089 133d aa0e ba3d 87b8 4d3d
00000130: c5e5 033d 3e6e 32bc c257 003d 0b2c 563a
00000140: 2314 bdbc 0fbe 923c ed8a 67bd 6312 19bd
00000150: f9d2 4c3c 2fcd cd3c 5cd4 30bd ae9b c9ba
00000160: df7e 33bc c42f 45bd a283 893c 982c 94bd
00000170: 4a7e acbb c508 f6bc 5058 25bd 8564 61bd
00000180: 80a4 8ebe 4da5 0a3d 0acd 95bc b6f1 593d
00000190: 8cbd d6bd 5699 86bd 6582 e4bd 1ad8 29bd
000001a0: 9167 77bc 0f3f 093d 5480 58bd d4be 093d
000001b0: 8e52 ee3c 5869 243d 3a36 1abd b7ba 26bc
000001c0: 0c6c e7bd 0c62 76bd 9787 873c 5331 223d
000001d0: 7b7c 04bd bc87 96bb 3c4d 5f3d 8ba8 61bc
000001e0: 9866 2ebc b8c8 35bd 962e 143d 4873 03bc
000001f0: 31c4 9cbc c951 3b3b cd8e b63c fb8f 17bd
00000200: 62e4 db3d 53c9 95bd 9178 64bc bade 9d3a
00000210: 280a cabc d686 fc3b 2d3e fabd 5eb8 273d
00000220: 2f7b cfbd ffe9 d3bd 2b20 bc3c 683b 21bd
00000230: 2441 2ebe 0405 8dbc fd55 bcbc 76ba 703c
00000240: 105f a9bc d545 bfbd 3168 85bd f37e 7abd
00000250: 0028 f73b 7a77 813d 216b 8ebb 6ce0 54bd
00000260: cbf2 c03d 656c f73b 5b2b 06bd ca6a 4e3d
00000270: ea84 233d 2916 02be 77bb 7abd 2621 4a3b
00000280: 74f1 9a3d e2ee 923d 66e7 0fbd 5ef6 593c
00000290: 0e47 a4bd 836c 133d 08b5 b0bc 2e0d ffb8
000002a0: 6181 aa3d 008f 153d 0b15 0abd 1a68 843c
000002b0: 4481 033d 6c9a 1c3e 052b 2f3d ac5d 91bc
000002c0: 79f8 373d cc30 003d 54a7 223c 1c3c 833d
000002d0: b26c a8bc 05b7 cc3d 5635 813d 48a8 4b3d
000002e0: 7061 803c bdf9 9bbd 5a21 ab3d f3cd 9d3c
000002f0: 07a5 11be 3845 cf3c 14d8 a9bd 9b4c 1a3d
00000300: 89fe 9e3d cb03 f53c 27ff bd3c 569b d8bd
00000310: cc14 8d3d 395f d83c 35b9 253c e4e2 32bc
00000320: 2835 ff3c 751e 8cbd f401 6ebd 9159 f4bc
00000330: 6810 97bd 8960 dd3b de07 593d f774 4abd
00000340: 3b25 733d 261d 4a3e 8cd1 363d 446c 56bc
00000350: b6d8 2a3c ffc7 343d 5569 64bd 2fb8 3a3d
00000360: 0cde 23bc 78e7 a83c 714c 84bd 5079 7c3d
00000370: bf97 de3a 7933 d4bc fbd6 2ebd f67d ab3c
00000380: 40e6 743c 6573 01bc 50bf 2c3d e0cb d0bd
00000390: 1098 313d fba8 d63c 6e43 103c 05ef f9bc
000003a0: 25ac dcbd 693e 4c3d 10a7 c53c 9e9f 63bd
000003b0: 5690 d43d cd85 603d c6ab 883c df16 543a
000003c0: 0b99 96bc 026a 6f3c 71df 6d3d d441 233d
000003d0: 7fc8 0dbd 0623 0d3c 18ef 0a3d e74e 7c3d
000003e0: b2d8 29bd d3c7 0e3d cf4b 9ebb 8499 bc3d
000003f0: e8ca f7bd 6d66 53bd 6b08 22bd c8f8 e8bc
0.010228788 0.03774578 0.17513107 0.016558228 -0.08236954 0.061088633 -0.041958813 0.07013192
0.0060113645 0.037154302 -0.017539166 0.0770646 -0.047496002 0.24226122 0.17799084 0.022623274
0.009544624 0.013009927 -0.04974548 -0.0028281766 0.042042304 0.047672804 -0.080606215 -0.057749886
-0.028795607 -0.03714964 -0.062787175 -0.023622446 -0.20428315 -0.047911476 0.010562157 -5.1166764e-05
-0.02232155 0.040253107 -0.13966076 -0.05729205 0.054392233 0.10210071 -0.017464248 -0.09786901
-0.049066085 0.08922586 0.06481821 -0.065258324 0.011398983 0.0033696352 0.055805843 -0.05718447
0.032252196 0.091653466 -0.015272259 0.051598106 0.06936688 -0.004178119 0.05917658 0.038166158
-0.05661588 0.042301953 -0.12356564 0.003488867 0.10133513 0.022770574 0.00471976 0.062464785
-0.002398303 -0.054079197 0.13296495 -0.020839605 -0.00050925044 -0.061246827 -0.03916155 0.03249203
0.06651476 0.036019623 0.09084828 0.050224807 0.032201547 -0.010890542 0.031333692 0.0008170015
-0.023080891 0.017912893 -0.056528974 -0.03737105 0.012501472 0.025122253 -0.04317127 -0.0015381479
-0.010955541 -0.048141256 0.0167864 -0.07235068 -0.0052640783 -0.030033479 -0.040367424 -0.055027504
-0.2785988 0.03384905 -0.018286247 0.05320903 -0.10485372 -0.06572215 -0.11157683 -0.041465856
-0.015100376 0.033507403 -0.05285676 0.033629254 0.0290921 0.040139526 -0.03764937 -0.010176352
-0.11299905 -0.0601521 0.016544146 0.03959782 -0.032345276 -0.0045938175 0.054517016 -0.013773094
-0.010644577 -0.044380873 0.03617724 -0.008023091 -0.01913652 0.0028582683 0.02228489 -0.037002545
0.1073692 -0.0731379 -0.013944761 0.0012044527 -0.024663046 0.0077065034 -0.1221889 0.04094731
-0.10130917 -0.103473656 0.022964558 -0.039363295 -0.17017037 -0.017214306 -0.022990221 0.014692893
-0.020675212 -0.09339491 -0.065140136 -0.061156224 0.00754261 0.063216165 -0.004346267 -0.051971838
0.09421309 0.0075507634 -0.03275619 0.05039481 0.03992168 -0.12703766 -0.061213937 0.0030842512
0.07565585 0.071744695 -0.035132788 0.013303367 -0.08021365 0.035992157 -0.021570697 -0.000121618024
0.08325458 0.03651333 -0.033711474 0.01616292 0.0321057 0.15293282 0.042765636 -0.017744862
0.044914696 0.031296536 0.009927589 0.06407949 -0.020559642 0.09995846 0.06309001 0.049721032
0.015671462 -0.07615993 0.08355971 0.019263243 -0.14223109 0.02530156 -0.08293167 0.037670713
0.077633925 0.029909035 0.023192955 -0.10576503 0.06888732 0.026412593 0.010114958 -0.010918353
0.031153277 -0.06841747 -0.05810733 -0.029827865 -0.07376176 0.0067558927 0.05298602 -0.049427953
0.059361678 0.19737682 0.044633433 -0.013087336 0.0104276445 0.044136044 -0.055764515 0.045585807
-0.010001671 0.020618185 -0.064598925 0.06163913 0.001698248 -0.02590345 -0.04268549 0.020934086
0.014947474 -0.007901047 0.042174637 -0.10195136 0.04335791 0.026203623 0.008805139 -0.030509481
-0.107750215 0.049864206 0.024127513 -0.055572145 0.103790924 0.054815102 0.01668347 0.0008090566
-0.018383523 0.014612677 0.05807442 0.0398577 -0.034615036 0.008614307 0.033919424 0.061598685
-0.041466422 0.034858536 -0.0048308144 0.09208968 -0.12099248 -0.051611353 -0.03955881 -0.02843894

actor.2.bias f4 [128]
00000000: 8a7e 773c c6e0 64bc 9b6b 643d b1a2 8f3d
00000010: f073 c5bd 7c7c b73d 4a90 47bd b5bf ba3a
00000020: 0f20 a33c 58f2 30bb 4b77 ee3a 1ce3 0bbc
00000030: 48f2 d83d b79c 0bbd 3717 283c a99e 143d
00000040: f4b4 0b3b e254 7e3c b388 463d 68df 07bd
00000050: 29f3 82bd 2ecf e43c 33b2 363d 95e5 233c
00000060: d83f 903c 01ea d5bc 1e01 12bd fcd4 d5bb
00000070: 668c 61bd 5507 acbc 160f 823d 776c 65bd
00000080: 0f0f 09bd 40df 4ebd af29 94bb acff 5dbd
00000090: 4082 523d d601 133d adb7 043d 5db6 08bd
000000a0: d153 86bd d6e0 8c3c ba9c a33d af33 5f3d
000000b0: 478d 0bbc e1b0 17bd 0544 1a39 e58e 6fbd
000000c0: 02a1 ea3c c60b 9fbc b84b 89bd 8542 abbd
000000d0: ca51 6dbd 28fb 2cbd 9646 b9bc 07b1 4eba
000000e0: f598 b7bc 5565 1f3d 04d2 fdbc 0c5e 873d
000000f0: 5290 0b3d ecbd 5b3c fb5e 2ebd 3646 24bd
00000100: c375 053d 091f 5ebc 8fad 0d3d ab1a d33d
00000110: bce7 84bd 98cc abbc 0297 8f3c d8a3 46bc
00000120: 616a d5bc e6bc 31bd 3340 f53a af28 26bd
00000130: ccfa aa3d 2eef 43bd a170 08bd 4acb cfbc
00000140: 35d1 89bc 44ea bf3c 2766 d2bd fbd8 35bd
00000150: 9aae 2f3c 76ea 14bd 3628 c8bc a3be 3c3d
00000160: 1642 62bc 9ea5 9ebc a50c 3f3d d643 ac3d
00000170: e528 9bbd 649c 0cbd e544 59bd 4f51 0ebc
00000180: a69a 3cbd da6a 67bd 6bba e3bc 960a 103b
00000190: 9811 86bd 7c13 6fbc b55c 723d aeac 81bd
000001a0: 2bd4 513d e8a9 97bc f41a c73c e2b3 a2ba
000001b0: eec9 58bb c31e b7bc 1787 353d c3ca ccbc
000001c0: f3b6 253c 6f5f 88bb 891a 323d 9ca4 77bd
000001d0: ab83 13bd aaef 21bd c5f4 52bb 1730 3c3c
000001e0: 3ab8 2c3c a0ca 37bd 65c4 1c3d c6de 6bbc
000001f0: cae7 e23b 491d b43c deb7 4c3d 8b53 b0bb
0.015105853 -0.013969606 0.055766683 0.07013453 -0.09641254 0.089592904 -0.04872159 0.0014247807
0.019912748 -0.0026999917 0.0018193511 -0.008538034 0.105930865 -0.034085 0.010259441 0.036284123
0.0021317573 0.015523167 0.04847021 -0.03317204 -0.06394035 0.027930822 0.044603538 0.010003467
0.017608568 -0.026112558 -0.035645597 -0.006525634 -0.055065535 -0.02099959 0.06350534 -0.056011643
-0.033461627 -0.050505877 -0.0045215706 -0.054198906 0.051393747 0.035890423 0.03240173 -0.03337704
-0.065589555 0.017197054 0.079888776 0.05449265 -0.00851757 -0.03703392 0.00014711924 -0.058485884
0.028641228 -0.019414794 -0.06703895 -0.08362297 -0.05793933 -0.04223171 -0.022616666 -0.00078846555
-0.022411803 0.038914997 -0.030983932 0.06609735 0.03407318 0.01341198 -0.04257105 -0.04010602
0.03258301 -0.013557204 0.034589346 0.10307821 -0.06489512 -0.020971581 0.01752806 -0.012124024
-0.026051702 -0.04339304 0.001871115 -0.040566143 0.08348617 -0.04783552 -0.033310536 -0.02536549
-0.01682339 0.023427136 -0.1027339 -0.04439638 0.010722781 -0.036356412 -0.024433237 0.046080243
-0.013809701 -0.019366082 0.04664292 0.08411376 -0.075761594 -0.034328833 -0.05304422 -0.008686378
-0.04604592 -0.056498386 -0.027798852 0.0021978966 -0.065463245 -0.014592048 0.059170444 -0.06331764
0.05122773 -0.018513635 0.024304844 -0.0012413228 -0.0033079344 -0.022353536 0.044318285 -0.024999028
0.010114419 -0.004161767 0.043482337 -0.060459718 -0.03601424 -0.039535202 -0.003218935 0.011486075
0.01054197 -0.044870973 0.038273234 -0.014396375 0.006924604 0.02198662 0.049980037 -0.005381053

actor.4.weight f4 [6, 128]
00000000: 9910 0cbd eab3 14be 64b9 fcbc 79c4 863c
00000010: ab65 953c d25c 33bc 13c1 a5bc 9a1a 733c
00000020: d6a0 12be a62c 0fbc 55bc a13b 3f69 0e3c
00000030: 00b5 063d 908f b23d 0af6 053c 81bc 57bd
00000040: 75fb 123e db0a 233c 4f3a 883b 18c2 123e
00000050: 4d7a ab3b f8d3 ba3d 97c4 2e3d 47a6 963d
00000060: 00d8 bcbb 0b6e 303c 3a33 593d c7b0 a9bd
00000070: 137b e23c 6fb1 803d 252c d6bd 4853 053d
00000080: 456b 063d 086b 1cbc bf70 9e3d 58ef 283d
00000090: a3b7 3abd c5e8 debd 2b27 64bc a6b6 12bc
000000a0: f5fd aebd dc50 353d 4f3c 4b3d 71e1 fbbc
000000b0: de84 b13c b665 ab3d c661 473d f722 be3d
000000c0: 853f 273b 23d5 27bd 84fa 3ebb c5c8 1fbc
000000d0: 4307 943c 8477 02ba fa5d 963d 86e9 9abc
000000e0: 1fc7 a93d af63 13bd 5095 0cbd 40f3 9d38
000000f0: 87c3 e03c a175 88bd 3ffa 2abc ae83 53bc
00000100: cfba 923d 28d7 7a3d 3172 93bc 5524 28bd
00000110: 7e75 723d bc25 343d c8dc d53d ec3d d53c
00000120: fafb 9d3d dece 4cbd 5e66 a0bd cb40 72bd
00000130: a435 0f3c 70f5 a03d babf 4e3d 1a4c 4a3b
00000140: 02ab 5b3d c6a5 95bc 91ba 2b3b 8274 013a
00000150: 9897 93bc 7c4e 9cbd e491 8dbd 7596 7c3d
00000160: a396 31bd 055c bfbd b464 b63d fab2 c13b
00000170: 6aa2 b43d 4912 983d 8159 0cbd 6aa9 c43a
00000180: cfc0 293d 5198 84bd f0a4 e4bb 42cd cfbb
00000190: a2d8 e9bd d442 57bd a7ce e8bd d819 b23c
000001a0: b8d7 07bc c6e5 753d 4b33 833d a2d7 d23d
000001b0: 8e3c b43d bda0 00bd e5ee 303d f98a 17bd
000001c0: 25e0 d93c 4e23 cabd d9a6 7bbb a116 223e
000001d0: 2fd8 9f3b f6e6 923d 938e 263e 88ca bbbc
000001e0: f355 1c3d 9c09 24bd 8a9b 923b ce15 61bd
000001f0: 4de7 c43a 82c5 353d 0663 99bd 8965 0cbc
00000200: da03 c23c e21a a33d cc1b d53c c3eb 123d
00000210: 00c8 2abd 261f 413d 31e8 ba3d 8aab 343d
00000220: c316 c13c af9d 2ebb 5e89 ed3b e29f 9d3d
00000230: dacf 44bc d413 a4bd 354b 1a3d f089 8e3b
00000240: 4ea0 88bd f7c6 6f3c 8bb8 09bb c2f5 b2bc
00000250: f7cb 6a3d 926f 63bd 3d8d 223d 2af4 533c
00000260: 05b4 263b 56ff b23c 7fd7 bcbd 68e2 01be
00000270: 4ee3 72bd bdd1 afbc 8108 53bd e8f2 c8bc
00000280: e452 40bd d376 cb3d 5a57 e13c e5fd 3abd
00000290: 7437 903c 2236 803d 689f e93c 7736 cf3c
000002a0: 7b06 a0bc 2afb 913b 5ec0 593c 89f5 7d3b
000002b0: 61cd 9ebb db7f 3a3d 563f 2e3d 809b 4dbd
000002c0: d51c e5bc 195e 823d 3394 573d 0326 0fbd
000002d0: 537a 32bd 8fad b13b a9aa 15bd 3a61 86bd
000002e0: 71b7 b5bd 8938 943d 1d4f 6d3c 8fc1 bf3c
000002f0: 6c38 cbbd 7081 193c a2f2 76bd cb8e 383d
00000300: 8eb6 ff3c 733f a0bd caa6 cfbb ba95 623d
00000310: 8e64 983c 0a2d c3bd 2163 36bd 6369 773d
00000320: e8f4 07bd 4411 a9bc bc88 35bd ea1c 86bc
00000330: b4df 423d 7dcf c3bc 7514 a13d f41b a1bd
00000340: 8e71 0abd f6da a33d 85c9 12bd ea63 83bd
00000350: bf8a c6bd 32f7 b23d 1eb8 963d 2126 b7bd
00000360: f5d3 54bc 6f24 0d3d dcbe cebc 056b d73b
00000370: 37f8 b43c 7a9a 5dbb fe67 adbc 31b5 1ebd
00000380: ed6b 28bd 035d e4bc 9bf8 46ba ca21 d73c
00000390: f65a b7bd 12c2 753d daec 213d d14a a23b
000003a0: 7292 203c 26ae 5d3d dbe0 9dbd 5375 23bd
000003b0: b07f 1cbd d0f7 29be 81f6 e0bd 0336 31bd
000003c0: 51dd 31bd eb3c 7c3d d7c7 33bc ea3c 52bc
000003d0: 99b5 c03d 86ff 833c c59f 073c 517a ddbb
000003e0: b69e 1f3d 9625 0a3d 9eaf 8d3d 8e45 a93d
000003f0: eca5 683d b5ca 4bbd 3ee9 dabc 794c 85bd
-0.034195516 -0.14521757 -0.03085012 0.016451107 0.018236956 -0.010947423 -0.020233667 0.014837885
-0.14319167 -0.008738672 0.004935781 0.008692085 0.03288746 0.087187886 0.008176336 -0.052670006
0.14353736 0.009951319 0.0041573416 0.14331853 0.0052330852 0.09122461 0.04266795 0.07355934
-0.005763054 0.010768424 0.05302737 -0.08285671 0.027646577 0.06283843 -0.10457639 0.032550126
0.032817144 -0.009547003 0.07736348 0.04124388 -0.045585286 -0.10884241 -0.013925354 -0.00895468
-0.08544532 0.044266567 0.04961806 -0.030747147 0.021669801 0.08369009 0.04867723 0.09284013
0.0025520038 -0.040974747 -0.0029141018 -0.009752457 0.018069869 -0.00049769157 0.07342143 -0.01891018
0.082899325 -0.035983738 -0.034322083 7.531652e-05 0.027436985 -0.06663061 -0.01043564 -0.012909813
0.07164537 0.061240345 -0.017998787 -0.041050274 0.05919408 0.0439813 0.10442501 0.026030503
0.07714076 -0.05000197 -0.07832025 -0.059143823 0.008740816 0.078593135 0.050475813 0.0030868114
0.053629883 -0.018267523 0.0026203732 0.00049383205 -0.018016621 -0.07632157 -0.06912592 0.061666925
-0.04335655 -0.09343723 0.08905926 0.0059112282 0.088200405 0.074253626 -0.034265045 0.0015004103
0.041443642 -0.064743645 -0.00697767 -0.0063416073 -0.114182726 -0.052553967 -0.11367541 0.021740839
-0.008291177 0.060033582 0.06406268 0.10295035 0.088006124 -0.031403292 0.043196578 -0.03699777
0.026596138 -0.09870015 -0.003839901 0.15828945 0.004878066 0.071729586 0.16265325 -0.022923723
0.038167905 -0.040048227 0.004474108 -0.054952435 0.0015022546 0.04437781 -0.0748959 -0.00856913
0.023683477 0.07964112 0.026014231 0.03586937 -0.04169464 0.047148846 0.09126318 0.044108905
0.023570424 -0.002664428 0.0072490415 0.07696511 -0.012012446 -0.080115944 0.03766938 0.0043499395
-0.06671201 0.014634839 -0.0021014537 -0.021845702 0.057323422 -0.055526324 0.039685477 0.012936631
0.002543689 0.02185027 -0.0922079 -0.12684023 -0.059298806 -0.021462316 -0.05152178 -0.02452989
-0.04695405 0.09934773 0.027507473 -0.04565229 0.017604567 0.06260325 0.028518394 0.025294526
-0.01953434 0.00445499 0.013290493 0.0038751087 -0.0048462604 0.04553209 0.04254087 -0.050197124
-0.02796785 0.06365604 0.05263157 -0.03494836 -0.04357369 0.005422301 -0.036539707 -0.06561513
-0.08872879 0.07237346 0.014484194 0.023407726 -0.09922871 0.009369239 -0.060289986 0.045058053
0.031214979 -0.07824602 -0.0063370215 0.05531857 0.018602636 -0.09530075 -0.04452813 0.06040324
-0.033192545 -0.020638116 -0.044319853 -0.01637121 0.04757662 -0.023902649 0.0786523 -0.0786666
-0.0337997 0.08000748 -0.035836715 -0.064155415 -0.096944325 0.08738555 0.07359336 -0.089428194
-0.012989988 0.034458574 -0.025237493 0.006574037 0.022091014 -0.0033814 -0.021167751 -0.038747016
-0.04111855 -0.027876383 -0.00075901457 0.026261229 -0.08952896 0.059999533 0.03953252 0.0049527665
0.00980054 0.05412116 -0.077089034 -0.03990681 -0.03820771 -0.16598439 -0.10984517 -0.0432644
-0.043423954 0.061581533 -0.0109729385 -0.012831906 0.09409637 0.016113054 0.008277838 -0.006758966
0.038969718 0.03372725 0.06918262 0.0826522 0.05679886 -0.049753863 -0.026722547 -0.065087266

actor.4.bias f4 [6]
00000000: 0cd5 97bd 2d52 783d 5e89 3fbd d803 c73c
00000010: 24b8 8dbd 8e5a d6bb
-0.07413682 0.060625244 -0.046761863 0.024293825 -0.06919888 -0.0065415567

critic.0.weight f4 [256, 12]
00000000: 3e26 45bc 5631 74bd 7f0d 7e3d ba27 993d
00000010: 62e7 acbc 02af b83d cb00 97be 70d7 c63d
00000020: 5ca4 31be 369b ee3e 0d7a 8dbe d4f7 b93d
00000030: 9b8c b23d 4625 803e fc13 683e fb2b 7e3b
00000040: 3484 bcbd 6313 debd 1610 1f3e 337c 92be
00000050: 1334 3bbe fb73 433f 99a9 a33e 58d1 0fbe
00000060: cfc0 d33e c239 79be 87f5 653e 1576 95be
00000070: ff99 6dbc f3d4 7fbe 173b a13e ab5b 863c
00000080: a726 33be b395 653e 2974 923d f60b be3d
00000090: 09b4 473e 7df0 b5bd 13cf 833e 03cd 7cbc
000000a0: ed85 043e 0dfe 69bd 400f 423e 7af8 15be
000000b0: d3b1 48be c0cd 7e3e fe31 39be 79b4 eabd
000000c0: 22f8 77bd b7d6 7c3d 8406 3f3e 8116 2bbe
000000d0: 3fad 393e 2911 113e 6669 853d f432 f63d
000000e0: d343 583e c7e8 45bf 9437 84be 4a66 b4bd
000000f0: aaac c8bc 28f8 e83d 6e0e 50be 694d 72be
00000100: 884c dd3d 1dc0 a73d c7c8 3dbe e683 763e
00000110: 9db0 a2bd 0742 09bf 0a4a f23e 7446 8a3e
00000120: 8dff 223e 5f9e 5cbe 3bde c93d 02f6 1a3e
00000130: f96e 253d efb3 d23d 96ac e0bd d227 8bbe
00000140: f540 4abe aab3 22bf e763 f8be 46f4 433d
00000150: 1633 d03e ce83 ea3d 87f2 13be 02f4 5f3d
00000160: e1c3 06be 149f b03d 2a80 cabd 2ec2 0dbe
00000170: 465a 9bbe 9f5f 9dbd f286 7ebb ec0b 98ba
00000180: 7352 3b3e f789 03be 0655 ebbd 30a4 613e
00000190: 3f91 893d 5642 e4bd 68b6 e03c 0659 0b3e
000001a0: d80b 5e3e b9ae 1abf 7055 7a3e e968 e23d
000001b0: 4282 9a3b e701 c2bd b62b ddbd 17eb fe3d
000001c0: 22cc 313e 0c0a 81bc b0cd 27be dee0 9fbe
000001d0: 0cf5 9f3d 889a 413f 9c1b 793e 535e 72bc
000001e0: 57f1 623c 0dc6 843d 5751 42bd cbf1 203d
000001f0: 8f80 a33d c62a 5d3e c5ce 773d 2a18 603e
00000200: 0707 86be 6606 4bbf 584d 013f 7a95 8cbe
00000210: fd07 0dbe 1b97 483d d1e9 75bd 060d 95be
00000220: dbb5 adbd c59e 92bc c557 183e 454c 8fbe
00000230: dd64 6e3d 6296 803f 140c 6d3e e957 efbd
00000240: 3b46 a03e a0c2 5dbd dc48 35be 7b40 043e
00000250: 6362 953e ae4e 913d f942 0bbe b9a1 f73d
00000260: b8db 92be a6a9 1bbf 7f19 1a3f 7089 13be
00000270: ca37 2c3e d0a4 24be c2e1 7cbe 8232 55bd
00000280: e828 873e d446 df3d 8a1d 49be c9f7 67be
00000290: d119 61be ec69 79bf 7a66 233e 98d2 873e
000002a0: 0ce6 2a3e 9073 80bc 2750 cb3d 914d 7fbd
000002b0: c365 27be c692 203e f253 523e 60a0 4a3e
000002c0: ea9b ebbc 2efd 45bf fe98 283e e0e0 cd3c
000002d0: 8253 37be 7484 3d3e 6de5 f73c 865a 913e
000002e0: b31d 03bd d26c 88be 6769 5c38 5dd4 21be
000002f0: 7e3c 233e 8bbc d23e b4e0 a53e d93a a83b
00000300: 1077 243e f243 10be 78f1 3dbe d440 bf3d
00000310: 1fcc 2dbe 7fff 263e 8750 863e 3a5f eabc
00000320: a5e0 9abd 7b05 41bf 9c24 043f de53 093e
00000330: 63a0 70be b3c9 7d3d e8ae 773b e688 2ebe
00000340: a878 1fbe e212 45be cc85 773e 401b 0b3e
00000350: e9a5 80be 005e 513f ecc5 5d3d ea28 253e
00000360: 5deb 493d f614 613e 62d5 793e 39a9 cabc
00000370: 251b f8bd 3a38 133e 03d3 86be bedc 5f3e
00000380: 22e5 22be 62da 873f 6c5c 0c3e 1bf8 d7bd
00000390: 4f3f efbb 6a8f 10be d454 573b 3312 01be
000003a0: 0625 b5be b1da 9e3e 1b53 86be 636b b43d
000003b0: cb44 733e bd4a f63e da51 02bf 0372 fabd
000003c0: a118 45bd ffef b5bd daf1 7ebd 480d 973d
000003d0: 61ea 743e c9d1 993d 3e10 0c3e 650d 9e3d
000003e0: b467 41bd 54de c23e f86e 2c3e d074 fb3d
000003f0: bb3e 21be 1539 823e 5b09 123e 6321 36be
-0.012033043 -0.059617363 0.06202459 0.0747828 -0.021106426 0.09017755 -0.29492792 0.0970906
-0.17347854 0.46602792 -0.2763218 0.090804726 0.087182246 0.25028437 0.22663873 0.0038783539
-0.09204903 -0.108435415 0.1553348 -0.2861038 -0.18281583 0.7634885 0.3196533 -0.14044702
0.4135804 -0.24338439 0.22456942 -0.29191652 -0.014502048 -0.24983577 0.31490394 0.016401133
-0.17495213 0.22420387 0.07151062 0.09279625 0.19502272 -0.0888376 0.25743923 -0.015429738
0.12941714 -0.057127047 0.1895113 -0.14645568 -0.19599085 0.24883175 -0.18085477 -0.11460204
-0.060539372 0.061728206 0.1865483 -0.16707803 0.18132494 0.14166702 0.06514244 0.12021437
0.21119623 -0.77308315 -0.25823653 -0.088085726 -0.024496395 0.11375457 -0.20318004 -0.23662342
0.10805613 0.081909396 -0.18533622 0.24073753 -0.079438426 -0.53616375 0.47322112 0.27006876
0.15917797 -0.21544789 0.0985684 0.15132907 0.040389035 0.10288226 -0.10970418 -0.27178818
-0.19751342 -0.63555396 -0.4851372 0.04784038 0.40663975 0.11450921 -0.14447986 0.054676063
-0.1316066 0.08624092 -0.098877266 -0.13843605 -0.3034231 -0.07684254 -0.0038837758 -0.0011600233
0.1829317 -0.12845598 -0.11490826 0.22035289 0.067171566 -0.11145465 0.027430728 0.13608178
0.21684206 -0.60422856 0.24446654 0.11055166 0.004715235 -0.09473019 -0.10799353 0.124471836
0.17363027 -0.015751861 -0.16387057 -0.31226248 0.07810411 0.7562642 0.24326938 -0.014792996
0.013851485 0.06483088 -0.047440853 0.03929309 0.07983505 0.21598348 0.060499925 0.21884218
-0.26177236 -0.7930664 0.5050864 -0.27457792 -0.13772579 0.04897223 -0.060037438 -0.291115
-0.08481952 -0.017897973 0.14877231 -0.27987877 0.05820166 1.0045893 0.23149139 -0.116866894
0.31303582 -0.054140687 -0.17703575 0.12915222 0.29176626 0.07095085 -0.13599767 0.12091393
-0.28683257 -0.6080574 0.60195154 -0.14407897 0.16818157 -0.16078496 -0.24695495 -0.05205012
0.26398396 0.10902181 -0.19640175 -0.22653116 -0.21982504 -0.9742725 0.1595706 0.26527858
0.16689318 -0.015680104 0.09927397 -0.062329832 -0.16347413 0.1568099 0.20539835 0.1978774
-0.028760869 -0.77339447 0.16464612 0.025131643 -0.1790295 0.18507558 0.030260766 0.28389376
-0.032010745 -0.26645523 5.255025e-05 -0.15803666 0.15941045 0.41159472 0.32397997 0.0051339683
0.16061044 -0.14088419 -0.18549144 0.09338537 -0.16972397 0.16308402 0.26233312 -0.02860986
-0.07562379 -0.7539899 0.5161836 0.13410899 -0.23498683 0.061959933 0.0037793461 -0.1704441
-0.1557337 -0.19245484 0.24172133 0.13584614 -0.2512658 0.8178406 0.05414383 0.16128889
0.049296726 0.21980652 0.24397805 -0.024738895 -0.121145524 0.14376917 -0.26332864 0.2186155
-0.1590772 1.061352 0.13707131 -0.10545369 -0.007301248 -0.14117208 0.0032856958 -0.12604599
-0.3537981 0.31026223 -0.2623528 0.08809545 0.23756711 0.48103896 -0.50906146 -0.12228777
-0.04811919 -0.08883666 -0.062242366 0.0737558 0.23917533 0.075107165 0.13678071 0.077173986
-0.04721804 0.38060248 0.16839206 0.122781396 -0.15746586 0.25434175 0.14261381 -0.17786174

critic.0.bias f4 [256]
00000000: fc5e e73d da8a fb3d ab16 9fbe 056b 42be
00000010: 4a82 a93c bb96 e43d 0a62 913e eb3c 353e
00000020: 9e79 c33d 09ff fabc cf70 e23d 6d56 8dbd
00000030: 2c71 00be f9d9 1abe 9477 353e 600b febd
00000040: 50b6 1e3d 7188 393e 2f79 613e f932 193e
00000050: b67f 993c a19b 4b3e 8912 1d3d e1da 3b3e
00000060: 2a1b 12be 4b63 92bd 4f3c 383e 60aa 8c3c
00000070: f381 90bd a358 943e 0b9c 083e 7059 10be
00000080: 686d bdbd ebfd 4b3e 906b 81be 171c cd3d
00000090: 99b4 863d bffc 823e b972 a5be c1dc 1e3e
000000a0: 14f7 543e 7e36 d33a b78c 0b3c 056b c9bb
000000b0: 2672 373e d919 5e3e c7d9 17be 7c7e f1bc
000000c0: bc67 5c3e 7d03 743e 946e 8dbe 012e 83bd
000000d0: d6d8 5f3e 4d4f 0b3e 2d5c a13d cecc 9fbd
000000e0: e346 86bd 349a 06be c18e 073e d1ff 65be
000000f0: 5a39 213d e2f5 843d a787 7a3d 1d5a 8fbc
00000100: 3432 80be 141e c03c 0552 133d 5c44 fc3d
00000110: d095 b3bb 6960 1c3e 804e 2a3e ad9a 0d3e
00000120: 497a a03c 0bfb 37be 6d94 0abe ab87 fe3d
00000130: 3004 d8bc 1709 2fbe f07b 36be 4c38 d83d
00000140: 94e1 94bd 4e47 533e d6c5 133e 5065 333d
00000150: 1798 8dbe 576b 9bbc 36b1 02be 43af 13be
00000160: a082 efbd daf9 7ebe abba 0c3e 98eb 203e
00000170: 14e2 ec3c d870 813e f4af 11bc 82c2 b63b
00000180: 7647 5cbe 590b 33be f5f9 903d 90da 683e
00000190: 2896 503e 015f e3bb 7161 88be a293 553e
000001a0: 1a29 27be 5167 69be 359c aa3c bd3f 213e
000001b0: 07bb 0abd a26e 6dbe 86b5 c83d 6c84 bfbc
000001c0: e96b 50be 188f 8dbd b24d 823e 5e69 fb3b
000001d0: 47f1 5bbe cc02 d1b9 cca5 44be b80a 853e
000001e0: 3c51 623e 79c6 4d3e 38d1 1bbc d6ef 8fbe
000001f0: f538 5b3e 017a 70be b212 a73d 19c2 2a3e
00000200: 46a6 45be a9b5 03be e1cb 5d3e f0a9 3a3e
00000210: 3d2b 2a3e dc79 2abe 7457 98be f515 7cbe
00000220: 8037 403e 6226 b53e 4204 4cbe f4ab b03d
00000230: 2e95 8bbe ba9c d8bd d936 913e 5b5b 033e
00000240: f21a 10be 4615 60bd c5d2 e33d d1c7 7a3e
00000250: 914a b93d fb2f 69be 9b5d 1dbe 4841 32bc
00000260: 44d2 2dbe 5f4e 6dbe a94b 0c3e 4335 e7bb
00000270: 3b35 283e 0f3a 08be 82d8 3fbd 4085 94be
00000280: 221f 89bd 35b1 a0be 7156 24be 909b 77be
00000290: 1637 2abe f5a0 77be 3532 54be d2bc b43c
000002a0: 4905 443e 1461 bf3d f721 963d 1ab0 6cbc
000002b0: c845 19be da32 56bc bc24 4bbe c96a 3a3e
000002c0: 1a2d 78be 49c3 8cbe 1f96 44bd 4132 0a3e
000002d0: 027e f5bc 9283 fdbd 195b 52be 501c a23d
000002e0: 9c7b 813c e2f1 76bd 75bc ce3c 62ab 2ebe
000002f0: e8cb a93d be24 193e 9e5c 93bd 9b62 f3bd
00000300: 9444 173e dbd4 8dbe e86b 91bc 38f1 d23c
00000310: 72cf 09be 0aa2 87bd cb06 7a3e 6596 c73d
00000320: 968b 3b3e 3783 383d 1802 55be fa50 223e
00000330: c0d9 143e 3cd0 a63e 7783 783e fa72 813d
00000340: f2bb ac3d ca7d 8d3e be6f 47be b186 61be
00000350: c152 ffbc 157c 48be 6cca cc3c 5f13 cd3d
00000360: 04ba 35be cedb 2fbe 8b9a a0ba 0b89 9fbd
00000370: 2467 c63c ee0e 95bb d69f 09bd 8fa0 18be
00000380: 9d78 5bbe 4417 babd d5a3 7bbe 3cd2 acbc
00000390: e8d9 5e3e 8df6 8fbe c72b 34bd 428f 983e
000003a0: 9cbe 94be e177 7abe c583 853d 8b1a 793e
000003b0: c3f7 573e b7b6 a43d 78e3 893e 0228 34bd
000003c0: 9bfb 533b 262e 2dbe 0aea 89bd c464 6f3e
000003d0: ff9a 763e 71bd fabb 11d3 3b3e c592 a2b9
000003e0: 45cc 42bd 86bb 5f3b dfc0 613e b2b8 6a3e
000003f0: 782d 89be a978 91bd 9f2f 013e 7b8c 31be
0.11297414 0.12282343 -0.31071982 -0.18986137 0.02069201 0.11161562 0.2839511 0.1769902
0.09544681 -0.030639188 0.11056673 -0.0690125 -0.12543172 -0.15122212 0.17721397 -0.12404513
0.038748085 0.18118455 0.22018884 0.14960851 0.018737655 0.19883586 0.038347755 0.18345214
-0.14268175 -0.07147845 0.17991756 0.017171085 -0.07056036 0.28973874 0.13340776 -0.14096618
-0.09249383 0.19921081 -0.25277376 0.10015123 0.06577415 0.25583455 -0.3231409 0.15513898
0.20797378 0.0016114262 0.008517436 -0.006146791 0.17914638 0.21689548 -0.14829169 -0.029479258
0.21523947 0.23829456 -0.27623427 -0.06405259 0.2186006 0.1360447 0.07878909 -0.07802735
-0.06556489 -0.13144761 0.1323805 -0.22460867 0.039361335 0.06492211 0.061164524 -0.017499024
-0.25038302 0.023451842 0.03596689 0.12317726 -0.0054805055 0.15271153 0.16631508 0.13828535
0.01958956 -0.17966859 -0.13533182 0.1242822 -0.026369184 -0.17093311 -0.17820716 0.10557613
-0.07269588 0.2063267 0.14430937 0.04379779 -0.27655098 -0.018972082 -0.12762913 -0.14422326
-0.116948366 -0.24899998 0.13743083 0.15714872 0.028916396 0.25281405 -0.008892048 0.0055773864
-0.21511635 -0.17484798 0.070789255 0.22739625 0.2036978 -0.0069388156 -0.26636842 0.20857099
-0.16324273 -0.22793318 0.020826438 0.1574697 -0.03386977 -0.23186734 0.09800248 -0.023378573
-0.20353664 -0.069120586 0.25449902 0.007672473 -0.21478759 -0.0003986567 -0.19203871 0.2598474
0.22101301 0.20095243 -0.009510331 -0.28112668 0.21408446 -0.23484041 0.08157863 0.16675605
-0.1930171 -0.12862267 0.21659805 0.18228889 0.16618057 -0.16648048 -0.2975422 -0.24617751
0.18771172 0.35380846 -0.19923499 0.086265475 -0.27262253 -0.10576768 0.28362158 0.12827818
-0.14072779 -0.054707788 0.111241855 0.24490286 0.090474255 -0.2277221 -0.15367739 -0.010879822
-0.16974741 -0.23174427 0.13700737 -0.00705591 0.16426556 -0.13303398 -0.046837337 -0.29007912
-0.06695391 -0.31385198 -0.160486 -0.24180436 -0.16622576 -0.24182494 -0.20722277 0.022062693
0.19142641 0.09344688 0.07330697 -0.014446283 -0.14968026 -0.013073647 -0.19838232 0.18204798
-0.24235955 -0.2749274 -0.04799473 0.13495733 -0.029967312 -0.12378611 -0.20542563 0.079155564
0.015806012 -0.06028927 0.025236348 -0.17057565 0.08290845 0.14955422 -0.071954 -0.11884042
0.14772254 -0.27701458 -0.017751649 0.025749788 -0.1345804 -0.066227034 0.24416654 0.09745482
0.18314967 0.04504701 -0.2080158 0.15851203 0.1453619 0.32580745 0.242689 0.06320758
0.08434285 0.27635032 -0.1947622 -0.22024037 -0.03116739 -0.19578584 0.024998866 0.1001346
-0.1774674 -0.17173693 -0.0012253089 -0.07789811 0.024219103 -0.004548899 -0.033599697 -0.14904998
-0.21432729 -0.09086469 -0.24574216 -0.021096341 0.21762812 -0.2811779 -0.04398706 0.29796797
-0.29051673 -0.24459793 0.06519274 0.24326532 0.21090607 0.080426626 0.26931357 -0.043983467
0.0032346013 -0.16912135 -0.067340925 0.23378283 0.24082564 -0.0076519777 0.18342234 -0.000310084
-0.047558088 0.0034138872 0.2204623 0.22922018 -0.26792502 -0.07103092 0.12615822 -0.17338745

critic.2.weight f4 [128, 256]
00000000: 4f65 53be 9c1d 6b3c f956 c23e 125a bd3e
00000010: 74a9 d63d 201c 63be fe9d cbbe 6bda 85be
00000020: 77c1 27bd 64ab d63b 454d 40bd 4ebd 303d
00000030: 4179 6f3e a813 2abe 9550 5cbe 3a19 9a3d
00000040: 0c27 87be cf3b 813e c071 b33c e0ba 9abe
00000050: 2300 5f3e 284f acbe 5be4 893d 3637 a4be
00000060: 4f34 883e 70f3 38be d1fa f7bc 2ace 2e3e
00000070: f1b1 d3bd e426 f2bd c7c9 5ebe 0e09 ff3d
00000080: 96d2 cd3d 02c3 9abe b71f 1dbe b7b0 65be
00000090: 2a24 47bd 2c77 3fbd da13 6a3e 0c56 c13b
000000a0: 39ec 9dbe 7673 82be c5cc b73d c0be 30be
000000b0: 78d7 94be 5927 db3c f4cc 9d3e 5987 9fbd
000000c0: 5db7 453e 25d3 d0bd 2083 8a3e abc5 a83c
000000d0: 068f 53be 867e e83c d6c8 95bd 1200 99bd
000000e0: 2b8f bf3e 159e 35be 86f2 5b3e 61db 653d
000000f0: 04bb 67be 84d5 28bd 6fa9 123e 3344 67be
00000100: 9cd4 ddbd a846 f33d 0738 6fbe d399 1d3d
00000110: 656e 51be cf64 763e 0183 bcbd 7df5 90be
00000120: 3eb5 29bd 7c19 9dbc e0c1 643e c4a8 6a3c
00000130: 0053 6d3e 6e46 ad3e 9272 8b3e 5152 6bbe
00000140: 981e 953e 0e65 1d3e 0a7c d4bd e375 9abe
00000150: b63b 883e c8ea 503d 04e5 373e af6e 993e
00000160: 9fe3 903e 08e0 bc3e 7381 583b bb12 173d
00000170: 6e7b 193d 811b 40be 0290 14be b1da 21bc
00000180: f595 103e 7928 9bbd 5541 3fbc cf69 43be
00000190: c5a7 f33d eb42 82be ea56 15be 1f51 193e
000001a0: 5593 e23c 27e4 d83d 9bf1 8f3d c060 5fbe
000001b0: 4cc6 16be b7dc 0e3e bf01 193c 7e04 ab3d
000001c0: 8a94 b93e ed80 f1bd baf2 88be 5a2c 50be
000001d0: 3f5b 963e 9135 42be 29e5 1f3d e990 91be
000001e0: ab77 55bc 9953 773e e0e9 003e ae37 be3e
000001f0: ab84 75ba 72f4 903e 5cc5 14be e6b8 11be
00000200: 1550 3c3d 7313 29be 38a6 aabd 5aeb dcbd
00000210: ba53 8bbe bce5 a43d a52c ccbb 59f1 023d
00000220: fdff 58be 10ae 88be 826d 79ba 370a 7b3d
00000230: 5472 dabb 903f 213e 16f2 68be 4d46 b8bd
00000240: e0a8 d73d c308 1fbd de77 5e3e d4a7 64be
00000250: f7f0 33be e106 a43e 9c64 6d3d c568 8dbe
00000260: 0c76 34be 08bd b4bc 05bb 3e3e 7849 b73e
00000270: d636 403c 3bb9 9a3e a890 253e 89b0 bf3e
00000280: f1b9 8abd d268 8f3e 13b2 0dbe 2746 95be
00000290: 5a06 453e a10f 453e 8a07 9fbd deb3 a3be
000002a0: 2ed3 98be ba91 39be 5b2e 6a3e fddf 333d
000002b0: 29a1 be3d b9bb 4e3d 6698 683d 8208 373d
000002c0: f959 903d ccbf 873e e47b c6bd b95c afbe
000002d0: 7f15 323e b721 033f e4fc 793e abc3 17be
000002e0: e809 29be 69f2 453e e70d 1e3e 57a5 b7bd
000002f0: c1c6 bdbe ed5f 953c f72d 273d 4764 bb3d
00000300: 026d 3cbe 2f81 ad3d 9e39 84be 44c6 f8bd
00000310: 8529 623e 6a30 62be ede5 c13d dbbd 7ebe
00000320: 5c54 4cbd 5f98 e4be 0c40 8f3e e0b5 9bbe
00000330: 4877 ffbd e83d dabd 9d4b 84bd e138 74be
00000340: e3fe 2a3d 9bb1 7dbe da28 8f3e 5866 493d
00000350: e383 983e ca5b 2d3c 492b a0bd 73c1 c5bd
00000360: d839 4a3e 341b 7f3e 8aec 89be d600 353d
00000370: 36a9 053e 8f42 5fbe fd57 333e 6aa3 203e
00000380: 868a ba3e c12e 8abe 7057 693e 3cc1 b0bd
00000390: 603d c4bd fd9c 103e 37b2 88bd e179 96be
000003a0: b341 28bd af98 2b3d e79b 163e 452e 84be
000003b0: a296 28be e095 14bd 7254 9ebe e146 293e
000003c0: 11ce b5be f191 8a3e 9483 373e 112e 7dbe
000003d0: 1d69 e7be e106 183e 60e8 89bd 120e af3e
000003e0: 1f34 993e d56b 0e3e e204 61be 96c7 95be
000003f0: c4b5 3b3e 5536 543e ee76 e1be fb80 a8bd
-0.20644115 0.014350321 0.3795698 0.3698278 0.10481539 -0.22178698 -0.39768976 -0.26143202
-0.040955987 0.006551193 -0.04694869 0.043149285 0.23386098 -0.16609061 -0.21515115 0.07524343
-0.26396978 0.25240943 0.021904826 -0.302207 0.21777396 -0.3365414 0.067330085 -0.32073373
0.26602408 -0.18061614 -0.030270966 0.17070833 -0.10336674 -0.11823824 -0.2175666 0.12452899
0.10049932 -0.30226904 -0.1534413 -0.22430693 -0.048618473 -0.04674451 0.22859135 0.00590015
-0.30844286 -0.25478715 0.089746036 -0.17260265 -0.2907064 0.02675216 0.3082043 -0.077894874
0.19308229 -0.101965226 0.27053165 0.020602068 -0.20660028 0.028380644 -0.07313697 -0.074707165
0.37413916 -0.17736085 0.21479234 0.05611742 -0.22629935 -0.04121925 0.14322446 -0.2258461
-0.10831568 0.11878711 -0.23361216 0.038476776 -0.20452268 0.24061893 -0.092046745 -0.28312293
-0.04143261 -0.019177191 0.22339582 0.014322463 0.23176193 0.33842796 0.27235848 -0.2298062
0.29124904 0.1537058 -0.10375221 -0.30168065 0.26608056 0.051005155 0.17958456 0.29967257
0.2829866 0.36889672 0.0033036142 0.036883097 0.037471227 -0.18760492 -0.1450806 -0.0098788
0.14119704 -0.07576079 -0.011673291 -0.19083332 0.11897234 -0.2544168 -0.14583936 0.14972351
0.027658144 0.105903916 0.070285045 -0.21814251 -0.14724082 0.13951384 0.009338795 0.08350466
0.3624614 -0.11792169 -0.26747686 -0.20329419 0.2936649 -0.18965746 0.039036904 -0.2843087
-0.013029019 0.24152984 0.12589216 0.37151855 -0.00093657774 0.28311497 -0.14528412 -0.1423069
0.04597481 -0.16511326 -0.08332485 -0.10787077 -0.27212316 0.08051631 -0.006230908 0.03196845
-0.21191402 -0.266953 -0.0009514914 0.06128904 -0.006666461 0.15746903 -0.22748598 -0.08997784
0.10530257 -0.038826715 0.21725413 -0.22329646 -0.1757239 0.32036498 0.057957277 -0.27618995
-0.17623156 -0.022062793 0.1862603 0.3579824 0.011731824 0.30219445 0.16168463 0.37439373
-0.06773747 0.2800966 -0.13837461 -0.29155084 0.19240704 0.19244243 -0.0776511 -0.31973165
-0.29848617 -0.18121997 0.22869246 0.043914784 0.093080826 0.050471995 0.056785963 0.044685848
0.07048411 0.26513517 -0.09691599 -0.3425043 0.17391013 0.5122332 0.24412876 -0.14820735
-0.16507685 0.19330753 0.15434991 -0.08967083 -0.370657 0.018234218 0.04081532 0.09149986
-0.18400958 0.084719054 -0.25825208 -0.12147191 0.22086151 -0.22088781 0.09467683 -0.24877112
-0.04988514 -0.446475 0.2797855 -0.30412197 -0.12473923 -0.10656339 -0.064597346 -0.23849823
0.041746985 -0.24774782 0.27960855 0.04916987 0.29788122 0.010580966 -0.07820756 -0.09656038
0.19748628 0.24912721 -0.26938277 0.04419025 0.1305283 -0.21802734 0.17514034 0.15687338
0.3643381 -0.26988795 0.22787261 -0.086306065 -0.09582019 0.14122386 -0.06674617 -0.2938986
-0.04107828 0.041893657 0.1470791 -0.2581655 -0.16463712 -0.036275744 -0.30923802 0.16530944
-0.3550878 0.2706447 0.17921287 -0.24724604 -0.45197383 0.14846374 -0.06733775 0.34190422
0.29922578 0.13908322 -0.21974519 -0.29253834 0.18331057 0.20723851 -0.4403605 -0.08227726

critic.2.bias f4 [128]
00000000: d806 c0be fae0 983d ca65 1f3e abb2 aa3e
00000010: 6f8d a03d 2dbd 9fbe b8fe 38bd 8734 f83c
00000020: ffea 9abe b883 953e c112 9d3e a848 fd3d
00000030: e747 99bd dfbf 29be 1096 2e3e 207c 48bd
00000040: cf55 b5be ac54 103e bb24 c4be 838d 3f3d
00000050: a0fd bbbc f8a8 c93e ae1e b63e 611e b23e
00000060: 01eb 203e 948a c2bd 86da 9dbe 26ef 88be
00000070: 02db 853e 165c bb3d 6cae 79bd d329 b2be
00000080: 8194 75be 3bf1 a9be 04c4 d8bc 99a0 a7be
00000090: 2c2f b9be c892 2fbe faa4 7e3e e119 b1bc
000000a0: 4e77 7e3c d093 c23e 5db6 ab3e d8ee 4d3e
000000b0: 6e34 6dbe 79aa d0bd b741 abbe 9299 9b3d
000000c0: 2f6d d4be 2b05 a83e a494 b7bd cecc afbe
000000d0: adb4 80bd d41e a73e e6a0 dc3c e745 a33e
000000e0: dacf 993e c6e4 5c3b 1291 98bd dda1 ab3e
000000f0: 8522 bbbe 4bba 9fbe 7831 cf3e 93c2 513d
00000100: 49e3 913e 10f6 c2be 0315 833d 0354 843e
00000110: c5a8 5fbd 593e a93e 9eb5 d23d 2ee5 cabe
00000120: 5ced 13bd 88c8 8abc 57d5 85be 415c b63e
00000130: 1734 82bd 0d26 ab3e 0896 52bc ac41 93bd
00000140: fe20 a63e fcbc ab3d ffd9 ca3e 6683 383e
00000150: 28e0 cabe 9c43 d4bd 997a afbe de10 f2bb
00000160: 30b3 953e 1b73 7c3c cb55 a3be 94c9 a53e
00000170: be1e 153d 70c4 c5be 6ceb ba3e 8e99 043e
00000180: bb48 d3be 296d 3ebd 9377 063d 53d7 64bc
00000190: 4e66 32be 9a24 8dbe 3a7d 6bbe 529b 9dbb
000001a0: ff36 a43e 139f ab3e 5cc5 d03e db71 32bc
000001b0: 1232 f7bd 43cd 943e 55a3 9abe 7062 7ebe
000001c0: ba6c abbe a456 8b3d 592f c63e 5d35 1c3e
000001d0: 9a26 c3be 3c0a c33e 5557 5e3d 53b5 b0be
000001e0: 254b 27be d12a a33d f9ea 093d 0629 3dbe
000001f0: 9213 a2be d2d5 a5bd dd3b 36be bc11 b03e
-0.3750522 0.07464786 0.15566173 0.33339438 0.07839476 -0.31199017 -0.045164794 0.030298484
-0.30257413 0.29202056 0.3067837 0.12367374 -0.074844174 -0.165771 0.17049432 -0.0489465
-0.3541703 0.140948 -0.38309273 0.046765815 -0.022948086 0.39386725 0.35570282 0.34788802
0.15714647 -0.09499088 -0.30830783 -0.26744956 0.26143652 0.091484234 -0.060957357 -0.34797534
-0.23982431 -0.33191857 -0.026460655 -0.32739714 -0.36168802 -0.17145836 0.24867621 -0.021618785
0.015531374 0.38003397 0.3353757 0.20110643 -0.23164532 -0.10188765 -0.33448574 0.075976506
-0.4148955 0.32816443 -0.08963898 -0.3433594 -0.06284461 0.32640707 0.026932191 0.3188927
0.3004139 0.0033705696 -0.07449545 0.3352193 -0.36549774 -0.31196818 0.4046743 0.05121095
0.28493717 -0.38078356 0.06400492 0.25845346 -0.05460431 0.3305538 0.10288547 -0.39627975
-0.036115035 -0.016941324 -0.26139328 0.3561726 -0.063575916 0.33427468 -0.012853153 -0.0719026
0.32447046 0.08385655 0.39619443 0.18018875 -0.39624143 -0.10364458 -0.34273222 -0.0073872646
0.29238272 0.015408303 -0.31901392 0.32380354 0.03640627 -0.38626432 0.36507738 0.12949201
-0.41266426 -0.046490822 0.03282888 -0.013967353 -0.17421839 -0.27566987 -0.22996989 -0.0048097754
0.3207321 0.33519801 0.40775573 -0.010891403 -0.12070097 0.29062852 -0.30202737 -0.24842238
-0.3348139 0.06803635 0.38707998 0.15254731 -0.38115388 0.38093746 0.054282505 -0.3451334
-0.16337259 0.07967151 0.033671353 -0.1847268 -0.31655556 -0.080974236 -0.17796274 0.3438853
