policy/PPO/checkpoints/2025-10-09_20-33/ppo_soarm_2000.pth (torch, 895437 bytes, 33 tensors)

actor.0.weight f4 [256, 12]
000000 ec 61 c9 3c 90 26 1d 3d f4 70 71 3e fd be 3d be
       0.024582826 0.038366854 0.23578244 -0.18529887
000010 2c d0 a3 3e c4 d8 7b 3e ff 05 b4 3d 64 81 11 be
       0.3199476 0.24594408 0.08790206 -0.14209515
000020 49 4b 9e bd fb a6 43 be c4 3a fb bd 97 7c 32 3e
       -0.07729203 -0.19106667 -0.12267068 0.1743034
000030 65 de 94 be 64 3b 98 bd 58 b5 04 3e b1 0b 38 be
       -0.29075924 -0.07433203 0.12959802 -0.1797321
000040 58 99 d4 be 27 61 73 3d 7f 5c d2 bd b5 7d 0b 3e
       -0.41523242 0.059418824 -0.102715485 0.13622172
000050 1c 4a b2 3d 67 04 2f bc 62 d8 52 be 2b 35 59 bc
       0.087055415 -0.010682202 -0.20590356 -0.013257305
000060 be 98 96 bd 20 5e 05 be ff ad 09 bc 49 9f 8d ba
       -0.07353352 -0.13024187 -0.0084033 -0.0010804917
000070 35 e8 77 be a5 7c 06 be 8f c9 f9 3d ec ba ed bb
       -0.24209674 -0.13133486 0.121966474 -0.007254949
000080 56 e4 ec 3d 94 59 8c be 47 49 88 be 01 96 45 3e
       0.11566989 -0.27412093 -0.26618406 0.19295503
000090 9c 36 69 bd 92 77 27 3e 0c a6 54 3e fe 72 53 ba
       -0.056936845 0.16354206 0.20766467 -0.00080661464
0000a0 05 b0 93 3e 07 3c 17 3e c0 9c 26 3e 64 fb 34 3e
       0.2884523 0.14768992 0.16270733 0.17674023
0000b0 7f 45 1a bd da eb 3e be 90 83 09 3e 4d 0d 25 be
       -0.037663933 -0.18644658 0.13429093 -0.16118355
0000c0 68 05 5c 3a d2 db 5b be ec 1e 15 be 36 f6 5d bd
       0.00083931396 -0.21470574 -0.14562577 -0.054189883
0000d0 59 af be 3e 38 07 30 be 4c e4 8a 3d 19 f7 31 3e
       0.37243155 -0.17190254 0.067818254 0.17379417
0000e0 78 36 05 3e 01 2b 92 be 74 4e 90 be 8a 49 1d be
       0.1300906 -0.28548434 -0.28184855 -0.15360084
0000f0 d8 07 74 3e ac 5d 16 be a1 61 0a be 37 46 3c be
       0.23831117 -0.1468417 -0.13513805 -0.1838616
000100 e4 0a 0f bd d7 9d a8 3e d9 1c 0b 3d bc 8f 86 bd
       -0.034922495 0.32932922 0.03396306 -0.06570384
000110 ed 1c 8d 3e ea 88 73 39 8b 36 9c be bc 49 e0 bd
       0.2756113 0.0002322529 -0.30510363 -0.10951564
000120 87 ab 0c bd 2f de 8a 3d fe 9a 66 3e ec 2b 80 be
       -0.03434327 0.067806594 0.22520062 -0.2503351
000130 0d cf 58 bd 94 49 57 3e 09 6e f0 bc 5b 31 40 3e
       -0.052931834 0.21024162 -0.029349344 0.18768828
000140 5d 05 1c 3e 3f ed 6d 3e 71 ad 93 be 7d 38 13 bd
       0.15236421 0.23235033 -0.28843263 -0.035942543
000150 9f dd f1 3d 4a 29 78 3d 08 ad 34 3e dc 3d 0c 3e
       0.11809849 0.06058625 0.17644131 0.13695472
000160 07 4b c9 be 24 b8 34 be 6e 23 83 bd 37 0d 26 be
       -0.39315054 -0.17648369 -0.06403242 -0.16215979
000170 c9 26 c3 bd 9f ea 51 3e a5 dc 09 be 05 39 8d 3e
       -0.09528882 0.20499657 -0.13463075 0.27582565
000180 5e 8f 49 3e 36 4f 3f 3e 1e 6f 45 3d 83 d8 23 bd
       0.19683596 0.1868256 0.048201673 -0.040001404
000190 a5 13 45 be 2f 3a 6b 3c c1 55 45 be c0 e7 53 3e
       -0.19245775 0.014357134 -0.19270994 0.20693874
0001a0 22 4f 58 3e a0 12 92 3e ca 76 1c bd 2c 7b 94 3e
       0.21123937 0.28529835 -0.038199224 0.29000223
0001b0 8f 8c f8 bd 96 0f c7 3d 56 74 39 bc c6 ac a5 bd
       -0.121361844 0.0971977 -0.011319241 -0.080895945
0001c0 cd 54 7a 3c 78 c7 27 3c 03 ea 50 3d b6 55 d9 3d
       0.015279007 0.010240428 0.05100442 0.10612051
0001d0 31 86 f6 3d f8 82 e1 3d 03 37 48 3d f1 1a 32 be
       0.12037314 0.110113084 0.04888059 -0.1739309
0001e0 9e 0b 16 be 24 d9 56 3e af 17 47 3e 4e 42 ef bd
       -0.14652869 0.2098127 0.19442628 -0.116825685
0001f0 3c 6a 58 3e 17 7a b6 3d 48 7f fa bd 10 a7 61 3e
       0.21134275 0.089100055 -0.12231308 0.22036386
000200 a0 82 11 be 96 5b 87 3d 3f 07 fb 3d 82 b5 17 3c
       -0.14209986 0.066092655 0.122572415 0.009259583
000210 6a 4d 94 bc 76 9e 62 bd 74 7c 8f bd d8 bb 4c 3c
       -0.01810332 -0.0553269 -0.070061594 0.012495957
000220 b2 d9 84 be 72 94 76 3e 6f 76 1e 3e 35 0e c4 3c
       -0.25947338 0.24080065 0.15474866 0.023932556
000230 9b ae 2e 3d cc 99 5d 3e 95 9e 3a 3d a9 c1 5c 3e
       0.042646986 0.216407 0.04556139 0.2155825
000240 8e 97 35 3e 1c 6a 1e bd b0 51 30 3e f8 dc 75 3d
       0.17733595 -0.038675413 0.17218661 0.060025185
000250 98 b0 4f 3d 47 17 06 bb bc 6c 98 3d 84 af 77 3e
       0.050705522 -0.0020460652 0.074426144 0.24188048
000260 9a ef 2b bc 0a 67 3f be ad aa 6d 3b c8 06 9a 3e
       -0.010494137 -0.1869165 0.003626506 0.300833
000270 80 52 82 3c 0b f8 be bd a5 a2 99 3d 15 ca 91 3e
       0.01590848 -0.09324654 0.07501725 0.2847449
000280 03 6f cf bd 5e ca 12 3e 7c 9a 2f 3e c8 3f 02 be
       -0.10128596 0.1433501 0.17148775 -0.12719643
000290 14 28 6d 3c d7 7d a8 be 75 d9 2a be bf 17 1e be
       0.014474887 -0.32908508 -0.16684516 -0.15438746
0002a0 ec 37 29 bd 83 7f 4d be e0 8e a3 3c 97 8f b1 3d
       -0.041313097 -0.20068173 0.019965589 0.08669966
0002b0 ee 8f 3e be f6 d8 44 3e 95 1f c0 bd 18 6c 39 3e
       -0.18609592 0.19223389 -0.09381024 0.1810764
0002c0 e9 1b ef 3d e7 9b 82 be 1e 5b 34 be 32 37 21 3d
       0.11675245 -0.2550957 -0.17612883 0.03935928
0002d0 16 94 90 3d 12 b7 7d bd 74 6a fc bd 3f 3e c3 bd
       0.07059495 -0.061942168 -0.12324992 -0.09533357
0002e0 c8 bc df 3c 0b 41 fa 3d fa da 69 3d 99 92 44 3e
       0.027311698 0.12219437 0.057093598 0.19196548
0002f0 2a 54 9d 3e e7 a6 9d 3d 10 6d 23 3e a7 d7 4e 3e
       0.30728275 0.0769785 0.15959573 0.20199452
000300 66 ab d3 bd 2e bf a4 3c a0 9d 93 bd 96 87 71 be
       -0.10335426 0.020110693 -0.07207799 -0.23586878
000310 eb 0c 77 be ad aa 75 bd af ed 6a 3e 50 c9 0e 3e
       -0.24126022 -0.059977222 0.22942232 0.13943982
000320 0d 68 8b 3d 40 df e7 3d 1d 09 e1 bd bb 39 47 be
       0.068069555 0.113218784 -0.10988066 -0.19455616
000330 c3 18 47 3e d8 f6 3b be 07 a5 09 be e5 dc 84 be
       0.1944304 -0.18355882 -0.13441859 -0.2594978
000340 ba 4d 73 3b e6 26 81 3d a8 a6 ad 3d 48 17 40 be
       0.0037125186 0.063062474 0.08479053 -0.18758881
000350 ee d5 3d 3d 7e b8 fd 3b 97 6e 90 bd 1c 33 57 be
       0.046346597 0.0077429404 -0.07052343 -0.2101559
000360 0b 6b 80 3e f4 0f 79 3e a1 dd 13 3e d4 d5 54 be
       0.25081667 0.24322492 0.14440013 -0.20784694
000370 de 27 40 3e cd 6c 8e 3e 05 c7 dd 3d f9 20 fd 3d
       0.18765208 0.27817383 0.108289756 0.12359805
000380 78 1a e0 bd 59 aa 26 be b0 0c e3 bd a6 af 66 3d
       -0.109425485 -0.1627592 -0.11086404 0.056319855
000390 68 b8 ac bd 57 3f 63 be 3f ba 3c be b4 8b 7c be
       -0.0843361 -0.22192131 -0.18430422 -0.24662668
0003a0 88 65 97 3e 87 e5 e4 bd 6b a4 02 3e 71 6c 23 3e
       0.2956965 -0.11176591 0.12758033 0.15959336
0003b0 49 f2 03 3d 4c b2 a2 3e 3d 80 22 3e 23 3d 48 3e
       0.032213483 0.31776655 0.15869232 0.19554572
0003c0 1a 49 9c 3e 76 20 70 3e 1f 7f 39 bd cf ff 26 3e
       0.30524522 0.23449883 -0.045287248 0.1630852
0003d0 28 06 bc 3d d4 d5 b0 bd d1 78 0a bd f3 b8 ac 3e
       0.09180862 -0.086345345 -0.033806626 0.33734855
0003e0 92 5c 27 3e 91 39 f9 bd 14 c3 df bd e6 20 01 be
       0.16343907 -0.12169183 -0.1092588 -0.12610206
0003f0 d8 e5 58 bd f2 d8 d6 3d be e4 8a bd 8e 26 35 3e
       -0.05295357 0.10490598 -0.0678191 0.17690489

actor.0.bias f4 [256]
000000 99 63 7e 3e 9b b1 30 be e7 7e 0c 3e 0a d1 ae 3d
       0.24842681 -0.17255251 0.13720284 0.08535965
000010 0c 3a 67 3e f5 25 22 be ae c7 80 3e c7 01 7d bd
       0.22580737 -0.15834792 0.25152344 -0.061769273
000020 d1 db 8d be 11 09 2c 3d 71 3c a0 3d df e6 01 be
       -0.2770677 0.042000834 0.07824028 -0.12685727
000030 7e aa 89 3d 55 a0 e2 3c 8f ea 5a 3e 75 1a b4 bd
       0.06721972 0.027664343 0.2137854 -0.08794109
000040 de 90 3f 3d fc 00 44 3e eb 7a fd bd 4b 5f e9 bb
       0.046769015 0.19141 -0.1237696 -0.0071219555
000050 91 b9 77 3d d1 29 08 be 11 73 ae 3d 6b 8e 13 bc
       0.060479704 -0.13297202 0.08518041 -0.009006123
000060 2f 09 fe 3d 34 de be bd d3 05 a1 bd fc 9d 1c be
       0.124040954 -0.09319726 -0.07862439 -0.15294641
000070 a3 9e a4 3c 9b 81 6a 3c 30 40 64 be cb ba 5c 3e
       0.020095175 0.014313127 -0.2229011 0.21555631
000080 7b 77 84 3e 8a 79 97 bd ed 63 81 be da db 7f 3d
       0.25872406 -0.073962286 -0.2527155 0.062465526
000090 fa cc bd bd d3 8f 09 3e 69 95 4b 3e 69 b5 2b 3d
       -0.09267612 0.13433771 0.19881214 0.041921053
0000a0 22 4e 6e 3e 04 7b af bd 95 80 3f 3e 3f bd 2a be
       0.23271993 -0.08568385 0.18701394 -0.16673754
0000b0 42 61 05 be 8c 93 3e 3d e8 33 26 3e 87 c3 41 3e
       -0.13025382 0.04652743 0.16230738 0.18922244
0000c0 82 59 22 3c 04 97 82 3e 7e 85 01 bc 0c 28 fd 3d
       0.009909036 0.2550584 -0.007905362 0.12361154
0000d0 da bb e6 bd c0 49 d6 3d 4b 0e 06 be b2 f1 0e be
       -0.112662986 0.104632854 -0.1309139 -0.13959387
0000e0 ad e8 90 3e 49 01 22 bc 38 a9 61 bc 8c 03 9c 3d
       0.28302518 -0.009888002 -0.013773255 0.07617864
0000f0 ce 58 ad bd f2 ed e8 3d 10 f5 85 3d 55 ff 33 be
       -0.08464204 0.113735095 0.065408826 -0.1757787
000100 68 7d 40 bd 63 b1 12 3e 44 42 ad bd 99 77 3d 3e
       -0.046994597 0.1432548 -0.08459905 0.18502654
000110 66 85 82 3d 38 05 19 bd 5d 97 63 be e7 64 4c be
       0.063731 -0.037358493 -0.2222571 -0.19960366
000120 c7 81 bc bd 39 57 03 3e cd b5 9d 3d 78 9e 5d 3d
       -0.092044406 0.12826242 0.07700691 0.054106206
000130 b0 d9 df bd 79 86 50 3e 41 07 58 3d 80 ba 1b 3d
       -0.109301925 0.20363797 0.052741293 0.038019657
000140 04 b2 b6 3d 00 72 66 bd 52 40 7e 3e 75 40 66 be
       0.089206725 -0.056261063 0.24829224 -0.22485526
000150 be 3c 3f be e2 db e9 3d a5 85 11 3e 66 8f 43 3e
       -0.18675515 0.114188924 0.14211138 0.19097671
000160 5a f4 40 be b6 62 17 3e e4 92 72 3e 22 cf 6c be
       -0.18843213 0.14783749 0.23688847 -0.2312589
000170 d1 d8 36 3e 12 83 9d bc 15 8b c7 3b 6d 92 73 bd
       0.17856146 -0.019227538 0.006089578 -0.059465814
000180 51 d2 3e be 1b 83 62 bd 19 07 6f be b7 0f 95 3d
       -0.18634917 -0.055300813 -0.23342551 0.07278388
000190 33 57 ef 3d 9a bb 81 3e 19 5c 86 3e 58 57 80 be
       0.11686554 0.2533844 0.2624214 -0.25066638
0001a0 ee ae 2e 3e d4 61 9e bb fa 98 2b be b5 8c 8f 3e
       0.17058918 -0.0048334394 -0.16757575 0.28037038
0001b0 6a f5 56 bd 3c e9 4b bd a7 48 79 bc 44 4b 13 be
       -0.05248014 -0.049782977 -0.015215076 -0.1438418
0001c0 5d 25 da 3d 27 7c 62 be 44 43 49 bd fe ae 4e 3e
       0.10651658 -0.22117673 -0.049136415 0.20183942
0001d0 c6 6a 83 bd 50 05 83 3e 24 ce 85 be 4a 28 90 be
       -0.0641685 0.2558999 -0.26133835 -0.28155738
0001e0 58 ca a0 3c 2a ba 90 be b9 55 6d 3d dc 92 45 be
       0.019627735 -0.28267032 0.05794308 -0.19294304
0001f0 45 4c 45 3e 67 5c d4 bd ec 84 37 3e 27 a7 c5 bd
       0.19267376 -0.10369187 0.179218 -0.096510224
000200 1b 9c 9c 3d 3a 4c 97 bd a1 4d 0f bd 84 4b 6b 3e
       0.07646962 -0.07387586 -0.034986142 0.22978026
000210 e5 13 86 3d d6 d2 00 be ce 54 4b be 29 27 46 3e
       0.06546763 -0.12580428 -0.19856569 0.19350876
000220 2b b3 91 3e 31 94 f3 bc 01 03 5d be 73 4b 47 3d
       0.28457007 -0.02973375 -0.21583177 0.04865594
000230 f3 03 f3 bd 35 37 fe bd 4f a3 40 be 92 64 63 3e
       -0.11865988 -0.12412874 -0.18812297 0.22206333
000240 b2 c0 60 be 1a ce 15 bd 29 78 34 3e b6 37 ca 3d
       -0.21948507 -0.036573507 0.17623962 0.09873907
000250 fe 69 93 bd ac c7 5b be 3d ad 82 3e 09 4e 28 3e
       -0.07197951 -0.21462888 0.25522795 0.16436018
000260 cc ac df 3d dc b5 ef bd eb 25 dc bd 90 63 16 3d
       0.1092163 -0.11704609 -0.1074942 0.036716044
000270 e0 92 68 be fb fb 08 3e db 07 3d bc 38 eb 87 be
       -0.22712278 0.13377373 -0.011537517 -0.26546645
000280 2a 34 74 bd fd b8 ed bd 91 cf 87 3d 64 9b 46 3e
       -0.05962006 -0.11607549 0.06631387 0.19395214
000290 b5 03 78 3e 42 d0 a7 3c bb 25 57 3e 08 4e 4d 3e
       0.24220164 0.020485047 0.21010487 0.20049298
0002a0 41 94 8e be 1e dc 0f 3e 86 e0 7f 3e 8c 09 83 3d
       -0.27847484 0.14048812 0.24987993 0.06398305
0002b0 f4 9b 06 be 3b af 62 bd 5b b7 91 bd 20 07 0d be
       -0.13145429 -0.055342894 -0.071150504 -0.13772249
0002c0 61 ee 9d 3d cd 3f 45 bc 92 a5 8a 3d 8b 2a 8b 3e
       0.07711483 -0.012039137 0.06769861 0.27180895
0002d0 57 23 82 bd 10 2d 62 3e 41 ed 9a 3d a4 78 50 3d
       -0.06354397 0.22087502 0.07564784 0.050896302
0002e0 49 b9 32 be 31 b9 e9 3d 10 99 17 3e 07 37 07 3e
       -0.17453493 0.114122756 0.14804482 0.13204585
0002f0 00 8b 81 3d fb 98 a4 3b 59 b3 b6 3d 9d ff 2b be
       0.0632534 0.0050231195 0.089209266 -0.16796727
000300 61 1d 38 3e 78 d0 57 3e 14 22 eb bd ef 0a 2b be
       0.17979957 0.21075618 -0.11481109 -0.1670339
000310 63 12 9f bd 94 0f 01 be 8b 85 fe bd 51 1c 3a 3e
       -0.07767179 -0.12603599 -0.12427815 0.18174864
000320 2e 51 8a bb 57 e1 97 bd b5 d2 9e bd 9c 98 f5 3d
       -0.004221103 -0.07416027 -0.07755033 0.119919986
000330 36 a2 4d 3e a3 f9 4a 3e 44 2b 1c 3e 61 85 32 3e
       0.2008141 0.19821791 0.1525088 0.17433693
000340 55 3b 06 3e e3 23 63 be 10 3f 2b be b8 b0 96 3d
       0.13108571 -0.22181658 -0.16723275 0.07357925
000350 ce ef ab 3d 35 ea 0f 3e 05 6f 6a 3e 65 74 b7 3d
       0.083953485 0.14054187 0.22893913 0.08957747
000360 f4 fe df 3d 92 a7 1d 3e ec c2 07 3e 23 4f 26 be
       0.109373 0.15395954 0.1325795 -0.16241126
000370 1d 4d 85 be 4f b3 6f be f6 f9 4a 3e cd a5 2b be
       -0.26035395 -0.23408245 0.19821915 -0.16762467
000380 f0 63 52 3e fd ff 53 be 8d 4f 86 3a d2 e1 52 bd
       0.20545936 -0.2070312 0.0010247097 -0.05148489
000390 99 70 e1 bd ec 02 a9 3d 04 cf 18 bd 22 55 00 3e
       -0.110078044 0.082525104 -0.0373068 0.12532476
0003a0 1c 9d f4 bd b1 1c e1 3d 88 e7 18 3d 64 18 22 3e
       -0.11944029 0.109918006 0.03733018 0.15829617
0003b0 f0 1f 9b bd bf 2d f1 bc 6a 45 54 3e d4 f6 92 3e
       -0.07574451 -0.029440759 0.20729604 0.2870394
0003c0 67 d9 ae 3c e5 33 47 be e9 3d ad bd c3 6e 24 3e
       0.0213439 -0.1945339 -0.08459074 0.16057877
0003d0 fe 58 8b be 0e 3f 38 3d d4 d0 36 bd 6a ad 49 be
       -0.27216333 0.04498201 -0.044632748 -0.19695058
0003e0 da fc 1b 3e c1 e6 2a 3d 37 2a 82 be a3 cf b0 bd
       0.15233174 0.04172397 -0.25422832 -0.086333536
0003f0 df e8 10 be fe ed 84 be 0e 70 8a bd a9 37 30 3e
       -0.14151333 -0.25962824 -0.06759654 0.17208733

actor.2.weight f4 [128, 256]
000000 8d 11 0c 3d f9 a7 92 3c 99 72 86 3d 91 51 34 3d
       0.034196425 0.017902361 0.065648265 0.0440231
000010 59 9f f8 bd 9c c4 5e 3d bc d7 e7 bc 10 24 7e 3d
       -0.12139768 0.05438672 -0.028301112 0.06204611
000020 de 50 5b 3c 1b 90 11 3d b7 7f b8 3c f8 ec af 3d
       0.013385979 0.03553782 0.022521837 0.0859012
000030 c0 ba 6b bd bb 97 cf 3d 6f 1a ac 3d a6 7f 1e 3d
       -0.057551146 0.10136362 0.08403479 0.038695954
000040 a9 d8 8d bc 54 6a 87 3a ca 05 c4 bc d2 70 54 3c
       -0.017315226 0.0010331371 -0.023928542 0.012966352
000050 40 69 37 3d c7 bd e1 3b 32 d6 dc bc 3a 5a 46 bd
       0.04477811 0.0068890783 -0.026957605 -0.04842589
000060 3f a9 ba bb 35 03 26 bd e4 6f 64 bd c5 31 00 bd
       -0.0056964452 -0.040530402 -0.05577077 -0.031297464
000070 83 b6 58 bd a2 92 43 bd c1 ca 0f 3c e6 d2 c9 3b
       -0.05290843 -0.04774726 0.008776368 0.0061591743
000080 59 c1 45 bc cd 9e 33 3c 99 88 96 bd e1 07 42 bd
       -0.012070023 0.010963154 -0.07350273 -0.047370795
000090 24 1f d7 3c 35 cb 85 3d ea 19 77 3b a2 1d 63 bd
       0.026259966 0.06532899 0.0037704655 -0.055448182
0000a0 23 b7 f4 bc 2e 52 51 3d 66 da 87 3d 28 f4 24 bd
       -0.029872483 0.051103763 0.06633453 -0.040271908
0000b0 7c 13 bc 3c 97 ea 8e 3b dd 5a df 3b b7 c2 73 bd
       0.02295851 0.0043614614 0.0068162517 -0.059511866
0000c0 80 a6 31 bb c9 cd ab 3a 00 6e 03 bd 41 13 09 3c
       -0.0027107298 0.0013107593 -0.032087326 0.008366407
0000d0 1a 89 3e 3d 5c 2a 34 bd dd ba ad 3c 23 3a be bc
       0.04651747 -0.04398571 0.021207267 -0.023221081
0000e0 87 9f 6c bd 39 26 08 3d b5 58 a3 bd a5 50 ca 3b
       -0.057769325 0.033239577 -0.07975904 0.0061741644
0000f0 41 58 a2 3d b3 5c 18 3d 9e fb a4 bb ad d3 be 3c
       0.07926989 0.03719778 -0.005034878 0.023294294
000100 e8 49 a8 bc f6 ea dd bc 6c f4 5f 3d 56 df 95 bc
       -0.020543054 -0.027089577 0.05467646 -0.018294971
000110 a5 10 85 bb 00 29 3c bd c6 ca d5 bb 5e 73 02 3d
       -0.004060822 -0.04593754 -0.0065244166 0.031848304
000120 b9 7d 30 3d 3d b4 02 3d 10 20 8e 3d d5 41 16 3d
       0.04308865 0.03191017 0.06939709 0.036683876
000130 7f 30 47 3d 96 e6 26 bd 74 e7 8c bc 69 ca 2d 3c
       0.048630234 -0.040747248 -0.01720021 0.01060734
000140 64 42 02 bd d0 ef 1d 3d aa ec 6f bd 70 66 f0 bc
       -0.031801596 0.03855878 -0.05857531 -0.029345721
000150 1c a0 01 3c 25 9b 83 bc 28 c4 9e bd df ab cc bc
       0.007911708 -0.01606519 -0.077522576 -0.024984298
000160 4c 27 e2 bc 7d f5 ae bb e1 47 53 3c 2b 0d 78 bd
       -0.027606629 -0.005339323 0.012895555 -0.060559433
000170 06 08 18 bd 96 01 0d bd 80 a0 ab bb ba 6d 46 bd
       -0.037117027 -0.03442534 -0.005237639 -0.048444487
000180 0c a8 e4 bd fc e5 91 3c 6c 43 4d bc 30 2b 5d 3d
       -0.11164865 0.01780986 -0.012528282 0.053996265
000190 59 c3 89 bd 09 e1 ed bc d5 60 c4 bd 71 fa 1f bd
       -0.06726713 -0.02903797 -0.09588782 -0.0390572
0001a0 07 0a a3 bc 9d 37 fe 3c de 98 f1 bc 7c 9d c1 3b
       -0.019902242 0.031032378 -0.029491838 0.005908666
0001b0 d2 27 4f 3d ed ee 2a 3d db fc 26 bd 7f 18 72 3c
       0.050575085 0.041731764 -0.040768486 0.014776348
0001c0 84 7c da bd e0 cd 26 bd d9 c6 b6 3c 8b f0 31 3c
       -0.10668281 -0.04072368 0.022311615 0.010860573
0001d0 5d af 17 bd 58 4b 33 bd 59 fe e7 3c bf ed ee bb
       -0.037032474 -0.043773025 0.028319525 -0.007291525
0001e0 c0 b2 a2 3b 2c 8e 45 bd da d5 8a 3c 45 22 c7 ba
       0.0049651563 -0.04823129 0.016947675 -0.0015192708
0001f0 17 42 ba bc 1b 53 c8 bb 0b e2 7b ba 35 e3 1a bb
       -0.022736592 -0.0061134226 -0.0009608573 -0.002363396
000200 06 57 97 3d 8a 82 57 bd 13 c0 c7 3c 07 db 30 bc
       0.07389645 -0.052614726 0.02438358 -0.010794408
000210 05 c4 84 bc 05 92 10 bc a7 3a 8d bd 38 86 91 3b
       -0.01620675 -0.008823876 -0.06895953 0.004441049
000220 12 ea c7 bd 65 47 3a bd a0 e0 01 3d 74 c1 11 bd
       -0.09761442 -0.045478243 0.03170836 -0.035584882
000230 1e a4 fe bd fb e6 e5 bc c1 53 30 bd 5b 7b 16 3d
       -0.124336466 -0.028064242 -0.043048624 0.036738735
000240 80 41 08 bd 58 7b a4 bc 0c 6a 6c bd f2 d8 61 3c
       -0.03326559 -0.020078346 -0.05771832 0.013784634
000250 04 8d 17 bd 31 65 1e 3d e9 76 38 ba fa 9e 47 bd
       -0.036999717 0.038670722 -0.0007036762 -0.048735596
000260 ac 88 82 3d a7 39 7d 3b 61 50 2c bd e9 5f 1b 3d
       0.06373724 0.00386391 -0.042068843 0.037933264
000270 9f 3c 34 3d 2d 6a ea bd de 6a 19 bd d8 ea d9 bc
       0.044003125 -0.11446033 -0.037455432 -0.02660124
000280 ff af 89 3d 9e 8d 1e 3d a6 d0 35 bb 7e 12 30 bc
       0.06723022 0.038709275 -0.0027742772 -0.010746596
000290 1e 2a 83 bd 24 5b 21 3d da 92 88 bc fe 45 c6 bb
       -0.064045176 0.03939356 -0.016671587 -0.006050824
0002a0 63 d3 40 3d 06 7e c7 3c e7 d8 0e bd d7 1a df 3b
       0.047076594 0.024352085 -0.034874823 0.0068086195
0002b0 09 c0 e6 3c 67 2b f2 3d 5f 09 f3 3c 96 69 77 bc
       0.028167741 0.118246846 0.029667554 -0.015100857
0002c0 d4 af 4e 3d 0a 83 4c 3d 44 9b 8b bc bc 7d 2c 3d
       0.05046065 0.049929656 -0.01704181 0.042112097
0002d0 fe fd 71 bc f0 12 3a 3d 38 20 7d 3d e8 36 45 3d
       -0.014770029 0.045428216 0.061798304 0.048148066
0002e0 b2 2c 27 3d 9f 34 90 bd b2 9d 42 3d f9 d1 d1 3c
       0.04081411 -0.07041287 0.04751367 0.025612818
0002f0 9b 26 e6 bd ce 0d 2f 3c 2c 31 56 bd f7 cc ea 3c
       -0.11237832 0.010684444 -0.052292988 0.028662188
000300 64 84 41 bb c5 33 8e 39 1d bc 15 3c 93 f0 64 bd
       -0.0029528374 0.00027122922 0.009139088 -0.055893492
000310 af 71 2b 3d 5c 6e 38 3d ad 3c 84 3b ef 96 3a 3c
       0.041856464 0.045027122 0.0040355534 0.011388524
000320 72 c8 55 3c 39 9b 62 bd 92 95 5c bc 44 5a 90 bc
       0.013048278 -0.055323813 -0.013463395 -0.017621167
000330 fe 0c 8f bd 64 ee 21 3b 62 89 55 3d 99 d2 4d bd
       -0.069849 0.0024708742 0.05213297 -0.05024967
000340 4c a6 5a 3d ed ee eb 3d 0b 7e 31 3d f7 5d d7 bc
       0.05338125 0.11520181 0.043333095 -0.026289923
000350 0e 36 8b 3c d6 c2 5e 3d 61 98 ec bc e6 a3 7d 3d
       0.016993549 0.05438503 -0.028881254 0.061923884
000360 11 20 b0 bc 4d 38 0f 3c 50 63 84 bd 4d 13 93 3d
       -0.021499665 0.0087414505 -0.06464255 0.07181416
000370 53 c2 a5 3c 35 ee 21 bd 34 dd 4e bd 6f 40 9b 38
       0.020234263 -0.039533813 -0.050503924 7.402978e-05
000380 9d 8b c0 3c 82 71 ef b8 fb 5d f3 3c 74 10 00 be
       0.023504073 -0.000114175506 0.0297079 -0.12506276
000390 72 36 27 3d 89 ad 84 3b 9d 62 05 bc 55 54 35 bd
       0.040823407 0.0040490073 -0.008141187 -0.04426988
0003a0 1a 7b 94 bd 11 70 1d 3d 6d 87 2a 3d 1d 9b 34 bd
       -0.07250042 0.038436953 0.04163306 -0.04409324
0003b0 60 6a b3 3d 75 db b9 3c 25 00 dd 3b 4f 8b 9c bc
       0.08760524 0.022687653 0.006744402 -0.019109396
0003c0 5d 91 5c bc 2a 71 5d bb 8d 73 5f 3d 6a c2 d9 3c
       -0.013462392 -0.0033789375 0.054553557 0.026581962
0003d0 9a 95 08 bd 03 86 9e 3c e5 66 29 3d f9 16 72 3d
       -0.033345796 0.019351011 0.041357893 0.05910394
0003e0 38 7a 4f bd f2 e5 86 3c 7d 5b 92 bc 03 a3 8e bb
       -0.050653666 0.016467068 -0.01786589 -0.0043529286
0003f0 b4 cf af bd c8 a3 60 bd ef 9f 75 bc a7 cc 4c bd
       -0.08584538 -0.054843694 -0.014991744 -0.04999986

actor.2.bias f4 [128]
000000 20 f9 6c 3c aa b9 64 bc 26 85 52 3d 48 67 4b 3d
       0.014463693 -0.013960281 0.05139651 0.049659044
000010 40 23 71 bd 4d 89 62 3d 53 2d 28 bd 21 50 da bc
       -0.058871508 0.05530672 -0.04105885 -0.026649537
000020 c4 12 38 3d cf c6 80 3c 27 ef 46 3c 75 f9 c4 bb
       0.04493977 0.0157198 0.012141979 -0.006011183
000030 44 2d 67 3d f7 f8 3c bd 9d 3e 1b bc 4c 21 1e 3d
       0.056439653 -0.04613587 -0.009475377 0.038605973
000040 a4 27 e3 bb c0 f0 1e 3d ff a3 75 3c d1 8e 03 bd
       -0.0069322158 0.038803816 0.014992713 -0.032118622
000050 79 51 69 bd ae 23 eb 3c 2b 89 62 3d f3 30 e7 3c
       -0.056962464 0.028703537 0.055306595 0.028221583
000060 3d e4 50 bb 42 0e 57 bd 36 22 25 bd 89 1e 11 bc
       -0.0031874322 -0.05250383 -0.04031583 -0.008857378
000070 18 98 69 bd fe f5 0a bd 28 4d 10 3d b7 b8 81 bc
       -0.057029814 -0.033926003 0.035229832 -0.01583515
000080 35 da 28 bd b6 68 20 bd 81 b5 cc 3b d9 7b 38 bd
       -0.041223723 -0.03916236 0.006247223 -0.045039985
000090 e4 c6 1b 3d df c5 3a 3d e9 a0 1f 3d 04 90 5b bd
       0.038031474 0.04559886 0.038971815 -0.05360414
0000a0 f8 2a 72 bd 33 3a 0b 3d 11 e8 52 3d 43 73 05 3d
       -0.05912301 0.03399105 0.051490847 0.032580625
0000b0 c0 61 87 bb 6c 76 d8 bc 30 5a 2a 3b 09 0f 16 bd
       -0.0041315258 -0.026423655 0.0025993697 -0.036635432
0000c0 4e 5f 48 3d 3a 86 c5 bc be d9 41 bd 73 83 45 bd
       0.048919015 -0.024111856 -0.047326796 -0.048221063
0000d0 82 f8 48 bd b0 50 f7 bc e2 43 07 bd da 5b 2c 3c
       -0.04906512 -0.030189842 -0.033023722 0.010519946
0000e0 d8 7d 6a bc aa 2d 1d 3d 2a bd 35 ba fe 15 8b 3d
       -0.01431223 0.038373627 -0.00069327897 0.06791304
0000f0 1d 70 da 3c e0 97 16 3d 8b c8 fd bc c7 01 4e bd
       0.026664788 0.036765933 -0.030979415 -0.050294664
000100 1b 8c 3c 3c 0f bc f6 bb 27 3c f4 3c a0 01 76 3d
       0.011508013 -0.0075297426 0.02981384 0.060060143
000110 4b 5d 10 bd 51 93 ef bc 41 7e 07 3d 18 8c 1a bd
       -0.03524522 -0.02924505 0.03307939 -0.03773126
000120 b5 e1 4f bd 63 3a 5c bd f9 f9 01 bd 73 b9 c7 bc
       -0.05075236 -0.05376662 -0.031732533 -0.024380421
000130 92 1e 71 3d 25 32 1e bd 91 ad aa bc 20 f5 72 bc
       0.058867045 -0.03862204 -0.020834716 -0.01482895
000140 e9 37 4b bd 4f 48 ea 3c dc 02 56 bd e9 3f 58 bd
       -0.049613867 0.028598933 -0.05224882 -0.052795324
000150 11 32 df 3b d2 5c b0 bc bb 7a c2 ba 5f 4c 41 3d
       0.0068113883 -0.021528635 -0.0014837602 0.047191974
000160 e3 aa d9 3c 0d e5 1f bd 06 c7 1f 3d 78 a6 78 3d
       0.026570743 -0.0390368 0.039008163 0.060705632
000170 d6 3b 2d bd f4 72 c2 bc ec ca 34 bd 67 f9 92 bc
       -0.042293392 -0.023736455 -0.044138834 -0.01794119
000180 91 e3 67 bd b2 b1 2a bd cd 9c 46 bd 16 14 de bb
       -0.05661351 -0.04167337 -0.04848938 -0.006777297
000190 0b 01 72 bd 10 e2 a3 bb e5 e0 0c 3d f3 a0 dd bc
       -0.059083026 -0.005001314 0.034394164 -0.027054286
0001a0 7d 4f 81 3c 33 47 c4 bb e9 7a 29 3d b9 8b 55 3c
       0.015784973 -0.005989933 0.041376982 0.013033801
0001b0 94 a2 73 3c db 48 18 bd 89 70 25 3d 1c 3d 74 bc
       0.014870305 -0.037178855 0.040390525 -0.014907148
0001c0 0f 29 79 3b bf 2d 5f bb 3a b6 54 3c 1b e1 45 bd
       0.0038018858 -0.0034054366 0.012982899 -0.04831038
0001d0 1f f9 d4 bc 0d 23 02 bd 9c bf 0b bc 02 89 3f 3d
       -0.025997696 -0.03177171 -0.00852957 0.04676152
0001e0 e6 db 4a 3c 65 df ff bc f0 04 c3 3c c0 9c 64 bc
       0.012381529 -0.031234453 0.023806065 -0.013953388
0001f0 a2 32 bc bb 04 f3 b9 3b 72 eb 1d 3d 80 bc f6 bc
       -0.0057433406 0.0056747217 0.038554616 -0.03011918

actor.4.weight f4 [6, 128]
000000 58 aa 2c bc fd 04 60 bd 49 6b e9 3b 9f f6 93 3b
       -0.01053866 -0.054692257 0.007123385 0.0045154835
000010 fe 34 92 3c 5b 16 7d bc a2 f7 d5 bc 3f e7 38 3c
       0.017847534 -0.0154472245 -0.026119057 0.011285602
000020 d8 6c 1a bd bf c4 db 3b 15 ed 4c 3c 04 ba 30 bc
       -0.037701458 0.0067068036 0.012507697 -0.010786537
000030 b4 23 03 3d ce 1e f1 3c 2f 74 d5 3b 19 ec 36 bc
       0.03201647 0.029433634 0.0065140943 -0.0111646885
000040 15 63 c0 3d 4b 9c ad 3b 1c 09 03 bc c5 60 27 3d
       0.093938984 0.0052981726 -0.007997777 0.04086377
000050 32 8d a5 bc 15 a7 f7 3c f5 47 48 3c 36 bf 65 3c
       -0.020208929 0.030231038 0.012224187 0.014022639
000060 cd ad d8 b9 43 95 9a 3c ec d1 1c 3d a5 c3 1d bd
       -0.00041328222 0.018870002 0.038286135 -0.03851666
000070 eb 04 2f 3c de 38 01 3d eb f4 66 bd d0 8d e0 3c
       0.010682325 0.031548373 -0.056385916 0.027411371
000080 fe 4e 72 3a fe ce a7 bc 34 77 12 3c a4 d8 a5 3c
       0.0009243338 -0.020484444 0.008939553 0.020244904
000090 8f d2 d6 bc 08 76 72 bd 7b 03 90 bc 1f 15 ed bb
       -0.026223449 -0.059194595 -0.017579785 -0.007235184
0000a0 ad 6e 2d bd d9 a4 90 3c 8a 37 47 3c ba 03 57 bc
       -0.042341877 0.01765673 0.012159238 -0.013123447
0000b0 79 3b 03 3c 08 90 b8 3c a3 98 98 3c 23 af 59 3d
       0.008009785 0.022529617 0.01862747 0.05314554
0000c0 d4 da 61 3c 78 f9 1b bd e5 2b b8 bb 87 41 a0 3b
       0.013785083 -0.03807971 -0.005620467 0.004890624
0000d0 32 e7 ea 3c 16 c8 2e ba 56 3b 31 3d f5 3a 3f bb
       0.028674696 -0.00066673884 0.043269478 -0.0029179428
0000e0 8d e1 af 3c cf 73 e1 bc 0b 13 f4 3a 8c 9d 24 bc
       0.021469856 -0.027521042 0.0018621398 -0.010047328
0000f0 13 4e af 3c 9e f6 70 bc aa 7f 26 3c 48 3b b3 bc
       0.021399533 -0.014707236 0.010162273 -0.021878853
000100 bc ca 82 3c 39 d1 0a 3d 93 7e 4f 3c 94 9d 07 bd
       0.015965812 0.033890937 0.012664455 -0.033109263
000110 08 89 15 3d 05 e8 63 3c 54 0f 9e 3d 8f b5 bb 3c
       0.036507636 0.013910298 0.07717767 0.022913722
000120 20 88 66 3d 5e e0 14 bd c8 04 49 bd f0 53 ff bc
       0.056282163 -0.036346786 -0.049076825 -0.031167954
000130 1c 1e 67 bb 46 31 59 3d 75 fb 0b 3d ad 76 71 b9
       -0.003526575 0.053025506 0.034175355 -0.00023027761
000140 2e 98 08 3c 33 f6 8b bc 5b f5 cb 3b 79 61 ba 3b
       0.008337064 -0.01708517 0.006224317 0.005687889
000150 84 72 46 3b 01 26 0f bd 3b a3 ca bc ca 53 84 3c
       0.003028066 -0.034948353 -0.024736037 0.016153235
000160 f5 e0 14 bd a9 d6 9e bc c0 5e 38 3d c6 67 7c bc
       -0.03634735 -0.019389467 0.045012236 -0.015405601
000170 9a 63 5b 3d e5 6f aa 3c b7 82 a1 bc 69 ae 84 bc
       0.053561784 0.020805309 -0.01971565 -0.016196446
000180 07 4c 9a 3c 1e a8 4f bd 4e 39 95 3c a9 e8 6b bb
       0.01883508 -0.05069744 0.018215802 -0.003599683
000190 6a 8b 5c bc fe d3 39 bd b4 e8 8b bd 63 44 4d bb
       -0.013460973 -0.045368187 -0.06831494 -0.003132128
0001a0 9d 2d 68 bc ac e5 14 3c 4f 92 6c 3d 1c db c5 3c
       -0.014171031 0.009087961 0.05775672 0.024152331
0001b0 06 c5 4f 3d 75 5a a7 3a fd 4d 30 3d 46 99 c4 bc
       0.050725006 0.0012768047 0.043043125 -0.023998868
0001c0 42 f8 c0 3c d7 35 26 bd 2d 3b 0f bc a1 d3 86 3d
       0.023555879 -0.04057869 -0.008742136 0.06583334
0001d0 6c b1 d4 bc 91 ab 4b 3d 9d 9d a2 3d f8 2b a6 bb
       -0.025963508 0.049724165 0.079402186 -0.0050711595
0001e0 3d 92 0f 3c 08 66 d0 bc 35 69 c5 ba 28 0d c7 bc
       0.008762893 -0.025439277 -0.0015061261 -0.024298266
0001f0 77 f8 31 bc d8 6c b4 3c 07 17 04 bd d9 3e 2f 3a
       -0.010862461 0.022024557 -0.032248523 0.0006685085
000200 dd e1 2b bc 5b fe 9e 3c cd e0 f6 3c ca d7 35 3d
       -0.010490862 0.019408396 0.03013649 0.044395246
000210 f8 0a 23 bd d4 49 22 3d 27 9d 81 3d f7 fe 13 3d
       -0.039805382 0.03962119 0.063288026 0.036131825
000220 cb 07 d3 bc 3e 58 34 3c f2 dc 37 bc 70 73 00 3c
       -0.025760552 0.011007367 -0.011222111 0.007840022
000230 68 5a 80 bc f0 4d cc ba dd c6 24 3d a2 be b1 3b
       -0.015668109 -0.0015587192 0.040228713 0.0054243365
000240 71 2f dd bc 99 39 94 3c 88 b7 b2 bb 21 1c 06 bc
       -0.02700016 0.018093871 -0.0054540075 -0.008185417
000250 4f 54 f3 3c bb b7 12 3c f0 a7 28 3d 1b 05 d7 3b
       0.029703287 0.008954938 0.041175783 0.006561888
000260 31 0a de 3c e6 29 f3 3c e5 bb 17 bd b1 70 b0 bd
       0.027104469 0.029683065 -0.037044425 -0.08615244
000270 31 26 b9 bc 29 65 87 bc e7 d2 48 bd 1a 59 db bc
       -0.022601219 -0.01652773 -0.049029257 -0.026775885
000280 b0 b2 1a bd b4 74 24 3d 58 e0 d1 3b 26 df b3 3b
       -0.037768066 0.04015036 0.0064049177 0.005489248
000290 88 9b 19 3d 50 03 d1 3b b3 de d3 3c 52 63 90 3c
       0.03750184 0.0063785687 0.025863027 0.017625485
0002a0 4f 3b 75 bc aa 51 ab ba c8 48 01 3d ab 30 89 3c
       -0.014967754 -0.0013070602 0.03156355 0.01674684
0002b0 6d a3 78 bc 9b 0c 0d 3d c8 42 f8 3c c1 25 4d bd
       -0.0151756825 0.03443585 0.030305281 -0.050084833
0002c0 92 13 d3 bc 95 fd 93 3c ce f2 fa 3c 5a e6 c3 bc
       -0.025766168 0.018065253 0.030633356 -0.023913551
0002d0 bd c2 3b bd 5f cc 5f 3c 0f 10 77 3b c4 84 35 bd
       -0.045840014 0.013659566 0.003769878 -0.04431607
0002e0 25 95 42 bd d8 64 04 3d 30 e5 47 bc ac 6c f8 3c
       -0.047505517 0.032322735 -0.012200639 0.030325256
0002f0 c7 63 03 bd 2e b6 b3 bc 6a ff 20 bd 62 ec d9 3c
       -0.032077577 -0.021937456 -0.03930608 0.026601974
000300 e2 34 0b 3d ea 7e 82 bd 36 fe 7a 3c 6a 1a 6c 3d
       0.03398598 -0.06371863 0.015319398 0.057642378
000310 b0 fd 86 3c 93 57 c6 bc c2 ee b1 bc 25 4d 84 3d
       0.01647839 -0.02421168 -0.021720294 0.06460027
000320 bc 8d 6a bc 1e 5b 75 bc e6 2d 26 bd ff a9 a1 bc
       -0.014316019 -0.014975337 -0.040571116 -0.01973438
000330 61 d2 5b 3d 5c 45 9e bb 49 d3 a0 3d 04 c2 95 bd
       0.05366743 -0.0048300456 0.078527994 -0.07312396
000340 9a e1 f5 bb 12 85 18 3c e0 b1 b4 bc 81 bc 81 bd
       -0.0075037004 0.00930907 -0.022057474 -0.063347824
000350 5c bb a4 bd ed 62 8c 3d 40 d6 4b 3c a9 44 85 bc
       -0.080435485 0.06854806 0.012441218 -0.016268091
000360 cc 90 a1 bc 61 0d 91 3b f1 ca 56 3c 3f 6a f6 3a
       -0.019722365 0.0044266437 0.013109908 0.0018799974
000370 20 a5 06 3d db 4f 45 3c e8 dc 92 bc 19 eb 4d bc
       0.03287232 0.012042965 -0.017927602 -0.012568259
000380 a3 54 8d bc e5 b7 ee bc 99 c0 88 3c 1e c4 96 ba
       -0.017252272 -0.029140422 0.0166934 -0.0011502539
000390 9e 05 5d bd 55 6e 5a 3d 0f a3 1a 3d 0d 6b 83 3b
       -0.053960435 0.053327877 0.03775316 0.004010564
0003a0 c6 66 56 3c b8 0a 21 3d d1 c9 3d bd d1 c5 be bc
       0.013086027 0.039316863 -0.046335045 -0.023287686
0003b0 6b 70 3a bd 0a fe 90 bd d1 12 99 bd c7 91 34 bd
       -0.045517366 -0.07079704 -0.07474292 -0.044084337
0003c0 ca 2e 1b bd be 57 43 3c e9 4b f0 3b 62 1a 21 3c
       -0.03788642 0.011922775 0.007333268 0.00983295
0003d0 07 d1 76 3d 86 c3 4c 3d 43 89 29 3d 4c f5 76 bc
       0.060257938 0.049991153 0.04139067 -0.015073132
0003e0 14 51 97 3c 45 a5 ac 3a cf 80 9f 3d 4a 56 9a 3b
       0.018471278 0.0013171813 0.0778824 0.0047099935
0003f0 43 41 2f 3d ff 9f 08 bd 16 ba e7 ba c1 aa 56 bd
       0.042786848 -0.03335571 -0.0017679359 -0.052408937

actor.4.bias f4 [6]
000000 0b 63 91 bd 80 60 75 3d a1 ee 31 bd f7 08 60 3c
       -0.07098969 0.059906483 -0.043440465 0.013674012
000010 9c cd 3c bd 10 10 93 bd
       -0.046094522 -0.07180798

critic.0.weight f4 [256, 12]
000000 d6 8b e5 3c 15 a4 ef bc 93 f7 13 3d ec f6 de 3d
       0.02802078 -0.029253045 0.036124777 0.1088694
000010 74 22 c5 bc 64 05 eb 3d 64 a3 78 be f6 1d 9f 3d
       -0.02406428 0.114756376 -0.24281079 0.077693865
000020 58 c5 ed bd ae 06 b3 3e 08 f4 03 be 63 1d 15 3e
       -0.11609906 0.34966034 -0.1288606 0.14561991
000030 69 33 e2 3d 3f b4 5a 3e 26 5e 84 3e a9 c4 05 bd
       0.11044962 0.21357821 0.2585308 -0.032658253
000040 b0 ec 19 be e3 0a 1f be 17 97 40 3e bc c3 80 be
       -0.15031695 -0.15531497 0.18807636 -0.25149333
000050 c2 09 60 be ce 54 1b 3f 03 8f 4d 3e 2f b2 3c be
       -0.21878722 0.60676277 0.20074086 -0.18427347
000060 dd d8 99 3e 52 84 61 be 7b 6d 47 3e 5e 95 90 be
       0.30048266 -0.22023132 0.19475357 -0.28238958
000070 de fa 07 3d 11 69 43 be dc 04 3c 3e 10 af 19 bd
       0.03319823 -0.19083048 0.18361229 -0.03752047
000080 3a d3 1f be 46 3f 74 3e 4c 42 d1 3b 59 7e d0 3d
       -0.1560792 0.23852262 0.006386077 0.10180349
000090 e9 2a 29 3e 41 83 d7 bd cb fd 89 3e ad d1 4c bd
       0.16520275 -0.105230816 0.2695144 -0.05000465
0000a0 34 fb c9 3d e6 3c 5c bd a2 4a 0e 3e ec 7f 29 be
       0.09862366 -0.053769015 0.13895658 -0.16552705
0000b0 f0 0c 60 be 00 be ab 3e 48 3d 40 be a6 ea 12 be
       -0.21879935 0.33543396 -0.18773377 -0.14347324
0000c0 62 0c 52 bd 8b 85 a3 3d f3 80 31 3e 84 d5 16 be
       -0.05128134 0.07984456 0.17334346 -0.14729887
0000d0 c9 12 3d 3e 29 98 1a 3e 39 4b 62 3d 4c 81 b6 3d
       0.18464197 0.15097107 0.05524752 0.0891138
0000e0 a3 d6 61 3e 81 95 08 bf 2a e3 68 be 79 f7 91 bd
       0.22054534 -0.53353125 -0.22742906 -0.0712728
0000f0 7e 94 e4 bc f5 a3 d6 3d 96 fb 47 be 5a 52 71 be
       -0.027902838 0.10480491 -0.19529566 -0.23566571
000100 1f f9 cf 3d 7e d1 60 3d 76 6e 2f be 14 c8 98 3e
       0.10154938 0.054887287 -0.17131981 0.29840147
000110 eb bc e5 bd 8a 95 04 bf 18 85 85 3e 2d 9b 7d 3e
       -0.11217674 -0.5179068 0.26078105 0.24766226
000120 03 1e 59 3e cc 05 3e be 2a 84 98 3d 82 b0 37 3e
       0.21202855 -0.18556899 0.07447083 0.17938426
000130 fd 41 3d 3d 57 b3 0e 3e 1c 01 75 bd 61 5f 91 be
       0.04620551 0.139356 -0.05981551 -0.2839308
000140 55 58 3a be de 2a ea be 7f 23 b0 be bb 1c a1 3d
       -0.18197758 -0.4573583 -0.3440208 0.07866808
000150 76 cd ad 3e e2 a8 bb 3d 58 17 f7 bd 30 6b 4e 3d
       0.33945817 0.09163071 -0.12064999 0.05039519
000160 e0 83 a2 bd 19 15 4f 3d 98 18 18 be ae 68 84 bd
       -0.079353094 0.05055723 -0.14853132 -0.064652786
000170 70 34 a8 be f8 c1 43 be 76 d0 13 be 11 dc aa bc
       -0.32852507 -0.19116962 -0.1443499 -0.020856889
000180 2f cb c3 3c a4 a4 e0 bd cf 69 07 be dd 05 76 3e
       0.023900596 -0.10968903 -0.13223957 0.24025674
000190 8c 56 1b 3e 55 9b ce bd 11 21 0b be c7 7f 04 3e
       0.15169734 -0.10088221 -0.13586833 0.12939368
0001a0 a8 1d 57 3e 20 f3 1d bf 49 37 b4 bc ab 83 e8 3d
       0.21007407 -0.61699104 -0.021999018 0.11353239
0001b0 e6 b8 88 3a 41 ca 04 be 2d 4d a4 bd 82 fd aa 3d
       0.0010431081 -0.12967779 -0.080225326 0.08349134
0001c0 91 65 2d 3e 6c e1 32 bd 9f 6f 1b be 40 28 8a be
       0.16933276 -0.04367201 -0.15179299 -0.26983833
0001d0 f9 f1 6e 3d 53 f6 0c 3f 45 60 24 3e 2a 4b 41 bd
       0.05833623 0.5506336 0.16052349 -0.047190823
0001e0 e0 e1 7d bc 36 df a8 3d df ff 86 bd 24 bf 62 3d
       -0.015495747 0.08245699 -0.06591772 0.055358067
0001f0 6d 35 fd 3d 4c 6e 5e 3e 48 4a 3a 3d ff 4d 78 3e
       0.12363706 0.21721762 0.045480996 0.24248503
000200 7a 02 95 be 25 3c 2d bf 37 da 4d 3e c5 c6 91 be
       -0.29103452 -0.676699 0.20102774 -0.28471962
000210 bf 98 4f be 11 74 2e 3d b4 26 72 bd 67 7b 9c be
       -0.20273112 0.04259116 -0.05911894 -0.305629
000220 26 59 0c bd ff 2d b7 bb eb fc cf 3d f2 49 89 be
       -0.034264706 -0.0055902 0.10155662 -0.26814228
000230 26 aa 97 3d f1 5a 37 3f 6e 02 39 3e ff 3d ea bd
       0.074055 0.7162314 0.18067333 -0.11437606
000240 06 10 a8 3e 86 4e 81 bd 81 de 30 be da 08 db 3d
       0.32824725 -0.06313805 -0.17272379 0.10695048
000250 60 70 8e 3e f2 04 53 3d 0f 87 07 be ce d1 f9 3d
       0.2782011 0.051518388 -0.13235115 0.1219822
000260 21 0d ab be a5 53 b8 be d7 87 9c 3e 76 ae 3d be
       -0.33408454 -0.36001316 0.30572388 -0.18523583
000270 44 c7 52 3e 47 26 10 be 38 ef 86 be a5 b8 03 bd
       0.20583826 -0.14077102 -0.26354384 -0.032158513
000280 f8 28 6c 3e f5 ca ec 3d d0 41 2f be 55 9e 70 be
       0.23062503 0.115621485 -0.17114949 -0.23497899
000290 cd 47 72 be ef 7a 39 bf b8 02 ec 3d 5f ab 88 3e
       -0.23660202 -0.72453207 0.11523956 0.26693246
0002a0 c5 ea 3c 3e 50 b7 0c 3d e4 c0 5a 3d fb 40 66 bc
       0.18448932 0.034354508 0.05340661 -0.0140535785
0002b0 26 f4 18 be 27 bc 3e 3e 61 61 57 3e 11 b3 23 3e
       -0.14936885 0.18626462 0.21033241 0.15986277
0002c0 00 50 d4 bc c9 a3 09 bf c6 e2 95 bc d9 09 49 3d
       -0.025917053 -0.5376554 -0.01829661 0.049081657
0002d0 ce 36 5a be 23 02 10 3e 5c 27 79 3d d0 85 6f 3e
       -0.21309969 0.14063315 0.06082855 0.23390889
0002e0 a3 02 df bc 4c 39 8d be 32 68 db bc 85 1c ec bd
       -0.027222937 -0.27582777 -0.026783083 -0.11528877
0002f0 fe b7 e7 3d a4 f9 67 3e 7a ad 63 3e ca ee 65 bd
       0.113143906 0.22653824 0.22234145 -0.05613593
000300 51 3d 36 3e 89 5a 19 be b0 65 35 be 3c 74 9c 3d
       0.17796828 -0.14975943 -0.17714572 0.076393574
000310 20 dc 4a be ca 23 06 3e 84 14 8f 3e 00 2c 36 3c
       -0.19810534 0.1309959 0.2794534 0.011118889
000320 d5 02 0e be 52 dd 06 bf c1 a6 7f 3e 43 48 bb 3d
       -0.13868268 -0.5268146 0.24965955 0.09144642
000330 de 15 88 be 11 cd 1d 3c d9 9b 50 3d fb 1a 66 be
       -0.26579183 0.009631411 0.050929878 -0.2247123
000340 fb d6 30 be a6 e8 70 be 56 62 5c 3e ba a2 2f 3e
       -0.17269509 -0.23526248 0.21521887 0.17151919
000350 17 b3 8e be a2 8e 1e 3f a2 11 88 3d a6 c7 eb 3d
       -0.2787101 0.6193639 0.06643988 0.11512689
000360 57 79 97 39 3b ca 61 3e 05 93 75 3e e3 cd cb bc
       0.0002889137 0.22049801 0.23981865 -0.024878448
000370 ac fd ac bd b4 6a 29 3e 46 da 95 be 2d 35 6e 3e
       -0.084468216 0.1654461 -0.29268092 0.23262472
000380 75 25 09 be de 59 47 3f f9 71 46 3e 9f 20 b9 bd
       -0.13393195 0.778715 0.19379415 -0.09039425
000390 3f 3a bc 3b c9 13 ec bd cb 38 93 bc a5 2f b2 bd
       0.005744248 -0.11527211 -0.017971417 -0.08700494
0003a0 6b ab a7 be b2 d7 ab 3e 05 df 6d be cb 20 b7 3d
       -0.3274797 0.33563 -0.23229606 0.08941802
0003b0 89 81 92 3e 5a 20 a5 3e cf c3 b7 be e4 aa 96 bd
       0.28614452 0.32251245 -0.35891578 -0.073568135
0003c0 0b 66 a8 bd 41 cf 39 be d8 11 a5 3c f6 6f 41 bc
       -0.08222588 -0.18145467 0.02015011 -0.011806479
0003d0 55 b0 22 3e 12 7c 2a 3c ad ae bf 3d ab 6b 1b 3e
       0.15887578 0.010405557 0.09359489 0.15177791
0003e0 75 54 08 be 07 3a 97 3e 54 65 0b 3e 03 d0 a0 3c
       -0.13313468 0.2953646 0.13612872 0.019630438
0003f0 f5 c9 0b be 0f ed 86 3e ac b4 0a 3e 5a 20 1a be
       -0.13651259 0.26352736 0.13545483 -0.15051404

critic.0.bias f4 [256]
000000 2a d1 2b 3e db cc a1 3d 5d 7a 9a be 95 fa 5f be
       0.16779009 0.07900401 -0.3017148 -0.21872933
000010 26 9d 19 3d 90 b4 b6 3d 86 2b a1 3e f4 11 21 3e
       0.037503384 0.08921158 0.31478518 0.15729505
000020 82 94 c9 3d bc 19 81 bd b0 ae cd 3d 64 3c 88 bd
       0.09842779 -0.063037366 0.100430846 -0.066521436
000030 41 96 2a be be 28 19 be ee fd 4d 3e 43 c3 3d be
       -0.1665888 -0.14956948 0.20116398 -0.18531518
000040 bf 55 80 bb 08 43 0a 3e 98 e5 70 3e d7 16 4b 3e
       -0.0039164717 0.13502133 0.23525083 0.19832931
000050 ce e1 ac bd 7b 7d 5c 3e 20 7c 56 3d e5 3f 08 3e
       -0.08441506 0.21532242 0.05236447 0.13305624
000060 f3 f8 46 be 02 32 47 bd 0b 98 57 3e 94 6c b6 bb
       -0.19430904 -0.048631676 0.21054094 -0.0055671427
000070 ff 36 a1 bd 0a 1c 83 3e 26 87 23 3e a1 19 37 be
       -0.07871818 0.2560733 0.15969524 -0.1788087
000080 c4 0e cb bd db d3 81 3e 79 ae 39 be f3 ce d1 3d
       -0.09914926 0.25356945 -0.18132962 0.102445506
000090 03 65 be 3d f6 df 77 3e fc 61 a8 be 9c 98 d5 3d
       0.0929661 0.24206528 -0.32887256 0.104294986
0000a0 65 87 66 3e ce 25 81 bc 97 3f e1 bc 83 29 2f 3b
       0.22512586 -0.015765097 -0.027496142 0.0026727624
0000b0 c7 8c 56 3e 48 76 6d 3e c2 69 59 be 6e b0 98 bc
       0.2095214 0.23189652 -0.2123175 -0.018638816
0000c0 48 42 4f 3e 02 48 83 3e c1 ba a9 be de cf 29 be
       0.20240128 0.25640875 -0.33150294 -0.16583201
0000d0 e0 76 5d 3e d5 14 b7 3d 09 3f 83 3d c2 80 c7 bd
       0.21627378 0.0893952 0.064085074 -0.097413555
0000e0 2b 74 53 bd f3 c7 c3 bd 22 f2 a7 3d 6d 02 8d be
       -0.05162446 -0.09559622 0.0820048 -0.27540913
0000f0 16 fe d0 3c 02 1f 74 3d 4a d5 79 3d cf 4f aa bc
       0.025511783 0.059599884 0.060994424 -0.020790009
000100 5d c6 5f be dc 10 85 3c 2a 29 32 3d 83 9f 2f 3e
       -0.21853013 0.01624339 0.04349629 0.17150693
000110 83 61 0f 3d b7 e5 14 3e ab 8c 06 3e d0 ad 2c 3e
       0.035005104 0.14540754 0.13139598 0.16863179
000120 55 3d 64 bc 79 9f 52 be 51 52 48 be e9 19 87 3d
       -0.013930638 -0.20568646 -0.19562651 0.06596739
000130 89 93 be bd bc 1d 4a be 12 03 48 be 34 18 22 3e
       -0.09305484 -0.19737905 -0.19532421 0.15829545
000140 6e 0e ab bd da 7e 3a 3e d8 f5 1b 3e 12 7b 73 3d
       -0.083523616 0.18212453 0.152305 0.05944354
000150 d8 6f 6a be f5 18 40 3c e9 f6 37 be aa 13 00 be
       -0.22894228 0.0117247 -0.17965282 -0.12507501
000160 2a 4b 75 be 39 19 81 be 6c f2 1f 3e 93 d3 03 3e
       -0.23954454 -0.25214556 0.1561982 0.12873678
000170 a7 0a b2 3c 24 8b 83 3e 8c 1c 02 3c 26 30 36 bd
       0.021733595 0.25692093 0.007941376 -0.04447951
000180 0e 37 4f be 61 25 37 be 41 60 67 3d 41 17 7b 3e
       -0.20235845 -0.17885353 0.05648828 0.2452059
000190 9a 57 38 3e 29 af 14 3d 14 13 6e be f1 89 0b 3e
       0.18002167 0.03629986 -0.23249465 0.13626839
0001a0 55 9d 03 be fb 4d 87 be 01 b8 23 3d e9 cf 68 3e
       -0.12852986 -0.26426682 0.0399704 0.22735561
0001b0 2b 37 7d bc aa 84 57 be 91 28 8f 3d 43 92 7a bd
       -0.015455048 -0.21046701 0.06990159 -0.061174642
0001c0 c5 66 9a be 08 2d 7b bd 81 a9 53 3e 72 9f 33 3d
       -0.30156532 -0.061322242 0.2067013 0.04385323
0001d0 b5 ef 6a be 9e 9c 39 3c 1c f7 63 be 72 f3 9b 3e
       -0.22943003 0.011328844 -0.22262233 0.30459172
0001e0 47 36 4c 3e 73 a2 45 3e 64 bc e6 bc 75 95 8e be
       0.1994258 0.1930025 -0.028166004 -0.27848402
0001f0 3a bb 60 3e 90 a6 81 be ef 33 d6 3d 94 36 2b 3e
       0.21946421 -0.2532239 0.10459124 0.16720039
000200 62 57 38 be fd b7 a5 bd 49 cc 54 3e 64 18 21 3e
       -0.18002084 -0.080917336 0.20781054 0.1573196
000210 80 f5 0a 3e fd 58 41 be e5 8c 97 be 05 46 89 be
       0.13570213 -0.18881603 -0.29599681 -0.26811233
000220 3f cb 52 3e 62 fd ab 3e 16 08 3d be e4 fe ce 3d
       0.20585345 0.33591753 -0.18460116 0.1010721
000230 ac 2d 88 be 08 f9 d3 bd 3b 4c 9c 3e cf 2e 11 3e
       -0.26597345 -0.10350233 0.3052691 0.14178012
000240 33 87 f3 bd f4 8e 3e bd 17 37 96 3d a5 1b 8e 3e
       -0.118910216 -0.04652305 0.07334726 0.27755466
000250 b8 90 b7 3d f6 c7 75 be 76 34 e8 bd 0b ea 6d 3c
       0.0896315 -0.2400206 -0.11338131 0.014521132
000260 7d 41 0e be b0 01 4c be 4b 51 e6 3d 06 83 14 3d
       -0.1389217 -0.19922519 0.11245974 0.036257766
000270 ec 95 4f 3e df 66 11 be d6 ba 8a bd 6e af 6f be
       0.20272034 -0.14199398 -0.067739174 -0.23406765
000280 09 5b 40 bd 2b bf 90 be 21 49 03 be 4a 52 5c be
       -0.046961818 -0.2827085 -0.12820865 -0.21515766
000290 47 42 4a be e4 f8 92 be b2 46 35 be f9 4a 9c 3d
       -0.19751845 -0.28705513 -0.1770275 0.076314874
0002a0 7a b0 56 3e 16 2b fa 3d d0 f5 9e 3d 2b c7 6e bd
       0.20965758 0.12215249 0.07761729 -0.05829541
0002b0 74 0c 32 be ab f8 f9 3b 31 ca 4f be f7 65 0b 3e
       -0.17387563 0.0076285205 -0.20291974 0.13613115
0002c0 e8 44 56 be 5d 97 8a be 4a db b7 bb 0b f1 4e 3e
       -0.20924723 -0.27068606 -0.005610858 0.20209138
0002d0 68 d3 4b bd 00 9a 12 be 2f ca 5e be c5 c9 b7 3d
       -0.04976216 -0.14316559 -0.21756814 0.08974031
0002e0 9a 51 32 3d fe 7b d0 bd d8 97 c4 bc b3 2b 08 be
       0.043534853 -0.101799 -0.023998186 -0.1329792
0002f0 80 e2 ce 3d 8b 83 39 3e ff 51 5e bd b7 65 06 be
       0.10101795 0.18116586 -0.054277416 -0.13124739
000300 7b 53 1e 3e 68 88 94 be 27 1f 8f bc 14 bc 38 3d
       0.15461533 -0.2901032 -0.01747091 0.04510124
000310 25 2a 28 be 08 e3 1e bd 39 fd 4d 3e 40 77 fb 3d
       -0.16422327 -0.038790733 0.20116128 0.122786045
000320 88 f1 3d 3e 9a 1b 71 3d cb 6b 30 be fb 1b 10 3e
       0.18549168 0.058864214 -0.1722862 0.14073174
000330 10 aa 39 3e 85 3c a8 3e 39 8c 43 3e 98 47 8d 3d
       0.1813128 0.32858673 0.1909646 0.06898421
000340 e4 1a f1 3d 48 b0 92 3e 2c af 61 be 76 c3 75 be
       0.11772707 0.28650117 -0.22039479 -0.24000344
000350 bc c2 a8 3c a9 d6 3f be ae 1c 51 3d 49 42 d6 3d
       0.02060067 -0.1873423 0.05105274 0.10461862
000360 b7 75 42 be e7 f8 5b be d3 1f ed 3c d9 7a d1 bd
       -0.18990217 -0.21481667 0.028945839 -0.102285095
000370 8c 9f 33 bc 70 cc 93 3d 06 42 fa bc c5 da 2b be
       -0.010963332 0.07216728 -0.03054906 -0.16782673
000380 99 8e 2e be 66 81 a2 bd e1 86 7b be 11 ea 33 bc
       -0.17046584 -0.07934837 -0.24563171 -0.010981099
000390 11 d5 76 3e 45 bd 65 be 1f 1d 7d bc 9f 58 7b 3e
       0.24104716 -0.22435482 -0.015448838 0.24545525
0003a0 db 23 8f be 6e cb 88 be be cd 2a 3d 80 3a 54 3e
       -0.27957043 -0.26717705 0.041700117 0.20725441
0003b0 d5 55 69 3e 2a 08 67 3c 36 3b 8b 3e 76 2e a8 bd
       0.22786649 0.014101068 0.27193612 -0.08211987
0003c0 80 e0 46 3d ed 46 2d be 5c ee be bd 04 0d 95 3e
       0.048553944 -0.16921587 -0.09322807 0.29111493
0003d0 3e 19 71 3e f3 b7 9a bd 16 6e 1d 3e 5a 92 a6 bc
       0.23544785 -0.07554617 0.15374026 -0.020333458
0003e0 f6 19 ea bd 75 bb 96 bd b9 23 6e 3e 2f 34 77 3e
       -0.11430733 -0.07359973 0.23255815 0.24141
0003f0 5a 69 85 be 48 21 ed bd 65 72 ee 3d 7b 45 1b be
       -0.2605694 -0.115786135 0.11642913 -0.15163223
