policy/PPO_fail/checkpoints/2025-09-09_16-10/best_25.43.pth (torch, 258485 bytes, 33 tensors)

actor.0.weight f4 [128, 12]
-0.26241976 -0.03204163 0.098800324 0.20597225 -0.08940131 0.17355862 0.1982535 -0.03542574
0.1771252 0.16555905 -0.203212 -0.13444488 -0.014610626 0.036828272 0.01715384 0.18613064
-0.25207907 0.20509295 -0.15193741 -0.03704323 -0.09687031 0.20526755 -0.02935008 0.17544203
-0.042385917 0.047523197 -0.1759264 0.1604173 0.11285637 0.2278291 -0.2596322 -0.015384361
-0.23540415 0.20795694 0.2938234 -0.1913248 0.071318425 0.26093152 0.21884258 0.008447309
-0.0732691 -0.04835449 -0.24560566 -0.15786107 -0.07142994 0.19755796 -0.09868823 0.22222051
-0.29012612 0.07346213 0.010245677 0.074781574 0.1784029 -0.060374003 -0.19974467 -0.10839321
-0.27192405 -0.25214705 -0.11938137 -0.25108606 0.09494461 -0.10832491 0.10522515 -0.17248622
0.18913174 0.2080751 0.0052853585 -0.19537584 -0.02157883 0.19496506 -0.010780367 -0.2969616
0.23901923 0.039879143 -0.15981472 0.09417254 -0.30143172 0.003914386 0.24703002 -0.2819193
0.16114525 0.18411204 0.22358578 0.27241462 -0.10369222 -0.050386384 -0.26217034 0.24856858
0.01985769 -0.27751186 -0.14487745 -0.21551651 -0.108164415 -0.1179023 0.13455282 -0.22501256
-0.1439128 -0.040061183 -0.13449566 0.030354548 0.087732546 0.07260579 0.016833274 -0.0379522
0.0031187872 0.21128838 0.08414769 0.06862182 -0.26112458 -0.19264384 0.0030719342 0.17879559
0.15066211 0.018889943 -0.23481743 -0.013648374 -0.051194612 -0.1770982 0.031722903 -0.13177572
0.23458824 0.19721784 0.089754105 0.11732184 -0.10197526 -0.2575656 0.12797874 -0.030660206
0.2007783 0.08171967 0.048150487 -0.25649717 -0.23952857 0.2517562 0.2658826 0.12217285
-0.036727063 -0.179148 0.057826757 -0.1840193 -0.24233936 -0.012155721 0.07823269 0.26276973
0.28936452 0.25827277 0.22742893 0.10396957 -0.09900595 0.21235883 0.21494907 0.0066854963
-0.23955147 0.21688299 -0.043710735 0.054681934 0.21667694 0.12895766 -0.2447026 -0.05241836
0.2307265 0.022592634 0.27682707 -0.06576825 0.23819447 -0.0926791 -0.20733961 -0.079758085
-0.07548221 -0.11497333 -0.18066736 0.23209278 0.03626842 -0.15406634 -0.26121294 0.10477023
0.27351657 0.071842134 0.1752292 -0.03055854 -0.24253857 -0.24863686 -0.072021976 0.05419818
0.20591176 -0.25720492 0.102389954 -0.12492201 0.18924432 -0.10381052 0.005269114 -0.055568613
-0.22512482 -0.12203695 0.029302135 -0.048107006 0.24437308 0.026275903 0.083833635 -0.08444221
0.048056964 0.2117269 0.2010147 -0.17995882 0.21545078 -0.24727589 -0.24839713 -0.16930316
0.24602592 -0.16240162 -0.08564586 0.03218861 -0.17693223 -0.06139549 0.14612736 -0.2238403
0.14369167 0.2713644 0.18830541 0.14499192 0.26523483 -0.28521875 0.18887025 0.03405966
0.16833675 -0.18990122 -0.29647925 -0.16167144 -0.2644084 0.21536638 0.17274728 -0.22087657
-0.21252276 0.032469817 -0.17710969 0.063686244 0.12559219 -0.040791266 -0.1526395 -0.073664434
0.20661698 0.29007423 -0.10703481 0.09718791 -0.11420087 0.07036214 0.17155625 -0.09116604
-0.024571229 0.2165271 -0.009762639 0.019260852 0.26717716 -0.17349121 -0.25881633 -0.040425774
00000000: e25b 86be 163e 03bd d357 ca3d 64ea 523e
00000010: 0918 b7bd 5ab9 313e f702 4b3e 951a 11bd
00000020: 4f60 353e 5088 293e ce16 50be ebab 09be
00000030: 6861 6fbc 3ed9 163d 3686 8c3c 0899 3e3e
00000040: 8210 81be e303 523e 7b95 1bbe a4ba 17bd
00000050: f163 c6bd a831 523e 946f f0bc 13a7 333e
00000060: db9c 2dbd afa7 423d 0d26 34be 6f44 243e
00000070: 3e21 e73d 084c 693e 83ee 84be b00e 7cbc
00000080: c90d 71be aaf2 543e 0570 963e a6ea 43be
00000090: 650f 923d d198 853e 4518 603e 9566 0a3c
000000a0: 1c0e 96bd 5c0f 46bd 0d80 7bbe 55a6 21be
000000b0: dc49 92bd a24c 4a3e 0e1d cabd c68d 633e
000000c0: 698b 94be 5073 963d 7cdd 273c 1527 993d
000000d0: 40af 363e bb4a 77bd de89 4cbe 42fd ddbd
000000e0: a139 8bbe 6b19 81be 387e f4bd 5a8e 80be
000000f0: 5272 c23d 73d9 ddbd 4980 d73d 3aa0 30be
00000100: c0ab 413e a411 553e cd30 ad3b 9b10 48be
00000110: 16c6 b0bc eca4 473e 23a0 30bc 5a0b 98be
00000120: 75c1 743e 5058 233d 78a6 23be 88dd c03d
00000130: 4255 9abe 4044 803b 70f5 7c3e ba57 90be
00000140: 4303 253e de87 3c3e acf3 643e ee79 8b3e
00000150: 965c d4bd f461 4ebd 313b 86be c388 7e3e
00000160: 98ac a23c 0916 8ebe c15a 14be 5cb0 5cbe
00000170: 4e85 ddbd c376 f1bd 37c8 093e b169 66be
00000180: e15d 13be 3217 24bd 3bb9 09be 1aaa f83c
00000190: 1fad b33d 58b2 943d efe5 893c c473 1bbd
000001a0: 9164 4c3b fb5b 583e a055 ac3d 9989 8c3d
000001b0: 1fb2 85be 6d44 45be 8152 493b 3116 373e
000001c0: 2b47 1a3e 15bf 9a3c fb73 70be 6e9d 5fbc
000001d0: 71b1 51bd 3b59 35be e0ef 013d 37f0 06be
000001e0: e637 703e 79f3 493e 00d1 b73d 6f46 f03d
000001f0: 68d8 d0bd a3df 83be dc0c 033e 1d2b fbbc
00000200: d498 4d3e a45c a73d 7239 453d 9953 83be
00000210: fa46 75be 30e6 803e c421 883e c235 fa3d
00000220: 1e6f 16bd 9372 37be c0db 6c3d 8e6f 3cbe
00000230: cf27 78be ca28 47bc 7638 a03d c189 863e
00000240: 9627 943e 543c 843e 21e3 683e ffed d43d
00000250: a2c3 cabd 9874 593e 9c1b 5c3e 0212 db3b
00000260: fb4c 75be 9316 5e3e 070a 33bd 2afa 5f3d
00000270: 8fe0 5d3e 7a0d 043e 5293 7abe a2b4 56bd
00000280: 9143 6c3e 3014 b93c 47bc 8d3e 81b1 86bd
00000290: 40e9 733e 8ace bdbd d650 54be 3558 a3bd
000002a0: 6b96 9abd 2377 ebbd dd00 39be bba9 6d3e
000002b0: 328e 143d 91c3 1dbe b4bd 85be c691 d63d
000002c0: 5d0a 8c3e f821 933d 496f 333e e755 fabc
000002d0: 085c 78be a99a 7ebe 4280 93bd e9fe 5d3d
000002e0: 88da 523e 5db0 83be d3b1 d13d 1cd7 ffbd
000002f0: 43c9 413e 9c9a d4bd 88a8 ac3b ea9b 63bd
00000300: 1f87 66be 82ee f9bd 080b f03c da0b 45bd
00000310: f03c 7a3e 9040 d73c f8b0 ab3d 0af0 acbd
00000320: 61d7 443d f0ce 583e ccd6 4d3e 2047 38be
00000330: 219f 5c3e e435 7dbe d15b 7ebe cf5d 2dbe
00000340: 38ee 7b3e 9c4c 26be 1967 afbd 34d8 033d
00000350: b92d 35be d679 7bbd 69a2 153e 6436 65be
00000360: e923 133e 46f0 8a3e 22d3 403e c378 143e
00000370: dccc 873e 3108 92be 3467 413e 2482 0b3d
00000380: 7860 2c3e 7775 42be 21cc 97be 338d 25be
00000390: 8a60 87be 0189 5c3e aae4 303e 782d 62be
000003a0: 919f 59be 12ff 043d 3e5c 35be ef6d 823d
000003b0: 3d9b 003e be14 27bd 874d 1cbe 61dd 96bd
000003c0: 6793 533e 9c84 943e 1135 dbbd 740a c73d
000003d0: 25e2 e9bd 071a 903d 71ac 2f3e 43b5 babd
000003e0: 9a49 c9bc 48b9 5d3e 7af3 1fbc efc8 9d3c
000003f0: 72cb 883e aea7 31be 9383 84be 7f95 25bd

actor.0.bias f4 [128]
-0.006620285 0.04394994 0.1506029 0.13649315 0.21198 0.20122792 0.13000455 -0.24882239
-0.2540109 0.2460755 -0.036965836 0.28945872 -0.09871415 0.23613934 -0.29251808 0.17310579
0.14422093 0.3019745 0.25697258 0.27518627 -0.07639439 -0.15177548 -0.008005494 -0.30510008
-0.13816908 0.13050233 -0.22812192 0.025638169 0.08705273 -0.19303954 0.11384796 0.035139848
0.26406214 0.26717308 -0.036933158 -0.21120107 0.07202653 -0.078037694 -0.045295693 0.26593256
-0.17355138 -0.034869872 -0.04739341 0.19799365 -0.30260283 -0.19707894 0.049754206 0.20893283
-0.22939657 0.2120912 0.12046673 -0.020739418 0.28154203 0.28589478 0.14968838 0.11008999
0.06811439 -0.09732564 -0.2046272 -0.014015564 0.10328082 0.12657955 -0.060905594 -0.08560135
-0.0691743 -0.19791907 0.20315373 -0.03337511 0.23863998 0.1414839 -0.17178872 0.09906896
-0.081763856 0.05588881 0.15011203 0.1539066 0.13472283 -0.26006752 -0.19412696 -0.0069829198
0.23194745 -0.105747 -0.16375548 0.18789946 -0.030451786 -0.26346636 -0.12651654 0.20059392
-0.22251053 0.17136076 -0.043070443 0.13693357 -0.01735268 -0.07198177 -0.06877704 -0.20307545
-0.29506642 -0.06760523 0.1681464 0.18983021 0.1503354 -0.2420781 0.17553894 -0.2983349
-0.29640165 0.006425689 0.19559877 0.11446615 0.21835928 -0.10077052 0.040733982 0.046703186
-0.16808948 -0.2583849 -0.25529817 -0.24942224 -0.21333556 0.26483405 -0.12990738 -0.1377594
0.063594386 0.12554897 -0.23504637 0.23212431 0.07255234 0.18825184 0.085233964 0.20563738
00000000: faee d8bb da04 343d a637 1a3e dcc4 0b3e
00000010: 4911 593e b10e 4e3e ea1f 053e 4ccb 7ebe
00000020: b70d 82be 37fb 7b3e 7d69 17bd ef33 943e
00000030: a52a cabd 83ce 713e eec4 95be a542 313e
00000040: a7ae 133e 679c 9a3e e991 833e 37e5 8c3e
00000050: a974 9cbd 086b 1bbe 7a29 03bc 1436 9cbe
00000060: 327c 0dbe 67a2 053e cb98 69be 2307 d23c
00000070: b448 b23d 28ac 45be 1f29 e93d cdee 0f3d
00000080: 2733 873e e9ca 883e 3947 17bd 1845 58be
00000090: a582 933d 3ad2 9fbd fa87 39bd 5028 883e
000000a0: 74b7 31be b6d3 0ebd 981f 42bd d9be 4a3e
000000b0: c2ee 9abe 10cf 49be 11cb 4b3d 7df2 553e
000000c0: efe6 6abe 6f2e 593e 43b7 f63d b6e5 a9bc
000000d0: 4726 903e cd60 923e e947 193e dc76 e13d
000000e0: 8f7f 8b3d aa52 c7bd cb89 51be 89a1 65bc
000000f0: e584 d33d 129e 013e 2578 79bd c34f afbd
00000100: 41ab 8dbd 4cab 4abe 8807 503e 57b4 08bd
00000110: 0a5e 743e 28e1 103e 62e9 2fbe abe4 ca3d
00000120: cf73 a7bd aaeb 643d f8b6 193e b199 1d3e
00000130: c8f4 093e 9227 85be 38c9 46be fad0 e4bb
00000140: a283 6d3e e291 d8bd 84af 27be b768 403e
00000150: 0676 f9bc 10e5 86be 8d8d 01be 7e68 4d3e
00000160: cdd9 63be 3279 2f3e a26a 30bd 5038 0c3e
00000170: 3527 8ebc 2e6b 93bd fada 8cbd 03f3 4fbe
00000180: f212 97be 9c74 8abd 922e 2c3e da62 423e
00000190: 86f1 193e 52e3 77be 7bc0 333e 5abf 98be
000001a0: f5c1 97be 968e d23b 0b4b 483e 3b6d ea3d
000001b0: 9399 5f3e c660 cebd add8 263d d74b 3f3d
000001c0: a61f 2cbe 074b 84be 71b6 82be 8b68 7fbe
000001d0: a374 5abe 5498 873e 7106 05be cd10 0dbe
000001e0: c63d 823d e98f 003e ffaf 70be ffb1 6d3e
000001f0: 5296 943d 17c5 403e 258f ae3d 9b92 523e

actor.2.weight f4 [64, 128]
0.031905904 -0.04251146 0.004092532 -0.037457395 -0.03805755 -0.0058618854 -0.041120768 -0.013348738
0.04651748 0.032753754 -0.07804266 -0.0043171137 -0.035668697 -0.06793385 0.0035206578 0.0723556
-0.0708921 0.027418682 0.08959359 0.07948472 0.042150266 -0.040443137 0.009034802 -0.095064245
0.07145174 0.0507549 0.07899445 0.041871812 0.0723477 -0.07284252 -0.029467534 0.05048936
0.012609651 -0.0127751 -0.050041072 0.044020556 -0.014473456 -0.030115979 0.078024425 0.090659894
0.045655582 0.036564674 0.005879658 0.066380456 -0.033578705 -0.053331494 0.06295516 0.0689051
-0.05117926 -0.018105254 0.031207364 -0.07235563 0.050625235 -0.034562387 -0.051898926 -0.05271582
-0.092888445 0.0064054737 0.06774741 -0.091858305 -0.06540381 -0.025592258 0.042550594 0.04149643
-0.019880163 -0.025454301 0.009431377 0.023401342 -0.016052032 -0.014662429 0.0019889646 0.059049882
0.07335801 0.049038235 0.042996883 0.041547976 0.09414274 0.01763522 0.09219545 0.092178114
0.020197792 0.045481548 0.018191691 -0.0015171604 -0.056249473 0.07287071 -0.05582862 0.02954974
0.07397306 0.078959614 0.050965257 0.0919413 -0.0426083 0.07702517 -0.03461474 0.04491485
-0.06407261 -0.046601772 0.066543765 -0.051528323 -0.025491096 -0.018146003 -0.07838424 -0.0026164015
-0.070430115 -0.011098252 0.019967526 0.0613948 0.0028274814 0.004580478 -0.024620606 0.06643374
0.024465071 0.039623767 -0.042269472 -0.06700851 0.037822876 0.06596427 -0.065642156 -0.06840518
0.043107 -0.033588372 -0.06564265 -0.025647888 0.043358374 0.05313593 0.09159606 -0.036349874
-0.046611536 -0.0006217974 -0.07359317 -0.036093347 -0.089460984 -0.06810799 -0.09269953 0.04809045
0.06521503 -0.07211903 0.0033417519 -0.005595261 0.051370703 -0.019324917 0.026538776 -0.0033644196
0.04400969 0.044141095 -0.08480504 -0.07875894 0.016302444 0.05381726 0.0671438 -0.010271743
-0.039127164 -0.0749053 0.08296593 -0.0415331 0.03671153 0.070215285 -0.059964996 0.034983285
0.017040774 -0.0958489 0.08894251 0.006898897 0.026386091 -0.06118972 -0.06663409 -0.0409742
0.008639316 0.027481958 -0.03255983 -0.061764296 0.08093788 0.041372605 -0.047820307 -0.08568943
-0.035215855 0.040048607 -0.024653919 -0.0056552202 0.04480455 0.042559687 -0.07772745 0.045539487
-0.07487849 -0.014365948 0.09465882 0.01445505 0.047354363 -0.07734006 -0.05999668 0.0056188065
0.08955621 0.04544202 -0.00083876634 -0.030302742 -0.068396226 -0.049418885 0.00021729675 -0.008540733
0.011853909 -0.009350294 0.00056722364 0.021006644 0.05520142 0.042410392 0.0016579254 0.03138687
-0.052772112 -0.06267521 -0.039098654 0.089409046 -0.06928429 0.03956984 0.079117 -0.084799
0.045576856 0.020651989 -0.043618735 0.06364185 0.09031279 0.04630439 -0.045344386 -0.0011892078
-0.038468182 -0.010486855 0.07689455 0.0050720987 0.050450776 0.06905256 -0.060479473 0.06507834
0.07079896 -0.089313336 -0.020239318 0.040651444 0.080804326 0.081045896 -0.086533315 -0.014530805
0.09267493 0.021255339 0.0442438 0.06007603 0.041194085 0.010395443 -0.031902056 -0.08050719
-0.08755821 -0.002004794 -0.012022249 -0.0552359 0.027391104 -0.07838995 -0.030134074 0.030994395
00000000: c4af 023d 7f20 2ebd a61a 863b ed6c 19bd
00000010: 3ce2 1bbd 0f15 c0bb 406e 28bd aab4 5abc
00000020: 1d89 3e3d cd28 063d d5d4 9fbd 9376 8dbb
00000030: 5719 12bd e720 8bbd d6ba 663b 2c2f 943d
00000040: e12f 91bd 259d e03c d87c b73d e3c8 a23d
00000050: c2a5 2c3d b4a7 25bd b506 143c 0bb1 c2bd
00000060: 4a55 923d 5fe4 4f3d d8c7 a13d c781 2b3d
00000070: 082b 943d 762e 95bd e665 f1bc eecd 4e3d
00000080: b698 4e3c a74e 51bc def7 4cbd e64e 343d
00000090: 1322 6dbc c9b5 f6bc 45cb 9f3d e5ab b93d
000000a0: 5901 3b3d d7c4 153d 25aa c03b 7af2 873d
000000b0: d389 09bd 2072 5abd a3ee 803d 1e1e 8d3d
000000c0: 58a1 51bd 7851 94bc 96a6 ff3c 302f 94bd
000000d0: 685c 4f3d 4a91 0dbd f893 54bd 8bec 57bd
000000e0: 4c3c bebd 02e5 d13b 27bf 8a3d 3520 bcbd
000000f0: 6ff2 85bd dba6 d1bc 8849 2e3d 29f8 293d
00000100: b9db a2bc 8a85 d0bc 1086 1a3c 2cb4 bf3c
00000110: 8d7f 83bc af3a 70bc 4a59 023b 4ade 713d
00000120: b93c 963d 51dc 483d 801d 303d 362e 2a3d
00000130: e9cd c03d bd77 903c f8d0 bc3d e1c7 bc3d
00000140: d775 a53c dc4a 3a3d be06 953c 75db c6ba
00000150: d965 66bd 3d3d 953d 8dac 64bd 4c12 f23c
00000160: 307f 973d 94b5 a13d f2c0 503d b84b bc3d
00000170: 0a86 2ebd 5fbf 9d3d 30c8 0dbd a2f8 373d
00000180: 8038 83bd 80e1 3ebd 1948 883d 5d0f 53bd
00000190: b4d2 d0bc eda6 94bc eb87 a0bd ef77 2bbb
000001a0: aa3d 90bd 71d5 35bc f092 a33c 1d79 7b3d
000001b0: 444d 393b d617 963b 27b1 c9bc 6a0e 883d
000001c0: f96a c83c 884c 223d c122 2dbd c23b 89bd
000001d0: 29ec 1a3d 4618 873d 656f 86bd 0418 8cbd
000001e0: f790 303d f693 09bd a76f 86bd 851b d2bc
000001f0: 8d98 313d 10a5 593d b796 bb3d 9be3 14bd
00000200: bdeb 3ebd 1e00 23ba 04b8 96bd 9ed6 13bd
00000210: 5237 b7bd 347c 8bbd 40d9 bdbd 7efa 443d
00000220: 758f 853d 24b3 93bd 4b01 5b3b 7458 b7bb
00000230: 166a 523d 4a4f 9ebc d967 d93c 987d 5cbb
00000240: 8143 343d 4bcd 343d 44ae adbd 5e4c a1bd
00000250: b48c 853c 7d6f 5c3d b082 893d d04a 28bc
00000260: ce43 20bd f367 99bd 0bea a93d 9d1e 2abd
00000270: d45e 163d 08cd 8f3d db9d 75bd a24a 0f3d
00000280: 1899 8b3c 6e4c c4bd 7e27 b63d 2410 e23b
00000290: a527 d83c 12a2 7abd 7477 88bd 90d4 27bd
000002a0: eb8b 0d3c d821 e13c 755d 05bd 8ffc 7cbd
000002b0: c2c2 a53d 5276 293d 3adf 43bd f17d afbd
000002c0: 803e 10bd 020a 243d 04f7 c9bc 6d4f b9bb
000002d0: fa84 373d 1153 2e3d 922f 9fbd 9d87 3a3d
000002e0: e559 99bd 275f 6bbc 7cdc c13d e0d4 6c3c
000002f0: a6f6 413d 7764 9ebd 14bf 75bd f71d b83b
00000300: 3f69 b73d 6921 3a3d a8e0 5bba 753d f8bc
00000310: 5213 8cbd 756b 4abd 27da 6339 6eee 0bbc
00000320: e636 423c fa31 19bc bcb1 143a 2016 ac3c
00000330: e21a 623d 85b6 2d3d bf4e d93a 858f 003d
00000340: 9227 58bd dc5b 80bd e925 20bd 171c b73d
00000350: ece4 8dbd fc13 223d 1808 a23d 19ab adbd
00000360: ccae 3a3d 5c2e a93c 8fa9 32bd a956 823d
00000370: e9f5 b83d aca9 3d3d 09bb 39bd 31df 9bba
00000380: d090 1dbd 0fd1 2bbc e47a 9d3d d933 a63b
00000390: 79a5 4e3d 6e6b 8d3d 53b9 77bd cb47 853d
000003a0: 0cff 903d e9e9 b6bd edcc a5bc 2182 263d
000003b0: bd7c a53d 64fb a53d 6138 b1bd 9d12 6ebc
000003c0: 5bcc bd3d ad1f ae3c fd38 353d 4912 763d
000003d0: 21bb 283d a651 2a3c bbab 02bd f4e0 a4bd
000003e0: b851 b3bd dd62 03bb f8f8 44bc 0a3f 62bd
000003f0: 4f63 e03c e98a a0bd bcdb f6bc f5e7 fd3c

actor.2.bias f4 [64]
-0.0679902 -0.039173663 0.05567059 -0.03274887 -0.06572239 -0.08621822 0.037025735 0.053486623
0.03993299 0.020960663 0.027452696 -0.053513847 0.018293312 -0.06586939 0.08271356 -0.045576297
-0.026725234 0.0029968517 -0.032089904 0.08361022 -0.06684006 -0.004265937 -0.07403985 0.04270253
-0.04681728 0.01735154 0.02176129 -0.05904578 0.008153727 -0.035546727 0.05806758 -0.07232973
0.026039492 0.01772971 0.020885194 -0.045510925 0.0727242 0.003830964 -0.060790543 0.060016144
0.016148176 -0.06818921 -0.03774518 -0.068827756 0.050982982 0.08961901 -0.07350174 -0.044256963
0.029270614 0.06476022 0.0035484198 -0.00728091 0.00035053925 -0.0074127805 0.07559008 0.07689173
-0.08615291 0.06477492 -0.056287125 0.009887254 -0.0839698 0.025640363 -0.06091704 -0.0362396
00000000: 723e 8bbd 9074 20bd d806 643d ae23 06bd
00000010: 7699 86bd 2e93 b0bd 4ca8 173d ca14 5b3d
00000020: c690 233d b2b5 ab3c 7ae4 e03c 5631 5bbd
00000030: dbdb 953c 88e6 86bd ba65 a93d 36ae 3abd
00000040: e1ee dabc d466 443b b470 03bd d63b ab3d
00000050: 71e3 88bd 46c9 8bbb 34a2 97bd d9e8 2e3d
00000060: 7ac3 3fbd d124 8e3c bc44 b23c fdd9 71bd
00000070: 3697 053c 7299 11bd 45d8 6d3d 9c21 94bd
00000080: c650 d53c e63d 913c 6d17 ab3c aa69 3abd
00000090: 6df0 943d e910 7b3b 81ff 78bd 7dd3 753d
000000a0: 2e49 843c c9a6 8bbd b19a 1abd 91f5 8cbd
000000b0: 88d3 503d 2c8a b73d 1588 96bd ca46 35bd
000000c0: edc8 ef3c 02a1 843d 9b8c 683b b394 eebb
000000d0: 95c8 b739 e9e6 f2bb f9ce 9a3d 6979 9d3d
000000e0: f070 b0bd b7a8 843d 548d 66bd 26fe 213c
000000f0: 5cf8 abbd bd0b d23c 2584 79bd fa6f 14bd

actor.4.weight f4 [6, 64]
0.04555882 0.08086184 0.045144953 0.04102249 0.03546756 -0.10517395 0.05838773 0.05561444
0.020408068 -0.04451607 -0.0018157214 -0.04037214 0.073361 -0.030771766 0.10304373 0.030317446
-0.07606023 -0.1071844 -0.07988249 0.09758818 -0.07827842 0.039205927 0.06567203 0.029414065
-0.10666994 0.073699445 -0.050050933 -0.10526743 0.026136836 -0.011943708 0.014620051 0.09711823
-0.047768187 0.0947796 0.105706975 -0.0060393973 0.033273164 -0.03323768 0.08162139 -0.094512835
-0.08982719 0.06333331 0.06213489 0.01543075 -0.123727426 -0.00011117874 -0.025749076 -0.090563096
-0.04586082 -0.0031852622 -0.0626421 -0.042400364 0.022134656 0.057014227 -0.09750817 0.0113676265
0.052930567 0.06328874 -0.08084689 0.11715981 -0.01081116 0.108284876 -0.042487487 0.019827653
0.13896757 -0.046303876 0.07215182 0.008834086 -0.06498289 -0.10953436 0.11230623 -0.0128463935
0.0969741 0.004346349 0.043366376 0.06275814 -0.029354267 -0.13018863 0.030525234 -0.036442634
0.105601065 -0.12062511 0.07341254 0.034251094 -0.10655981 -0.0239125 -0.048967656 0.06568723
-0.14575563 0.09984715 -0.07846868 -0.04971793 -0.028335268 -0.11107671 0.12556596 -0.040599126
-0.1088235 -0.073446594 -0.091964275 -0.04219948 0.13188808 0.12216255 -0.053977553 0.028946878
0.13272595 0.08708824 -0.04893108 -0.019445904 0.0073153106 0.04067106 -0.06698473 -0.07477197
-0.04888089 0.05036161 0.12860537 0.0868792 0.060435623 0.055848666 -0.036342587 -0.108596586
0.049361873 -0.023458354 0.05310609 -0.120863624 -0.13148889 -0.079548836 -0.07099769 -0.053935137
-0.033496987 0.017074194 0.12684031 -0.11587237 -0.0042347647 0.011099885 -0.04886178 0.07993296
0.12416935 -0.026475409 -0.0034376928 -0.100561775 0.1395161 -0.08052404 -0.033069395 0.019940492
0.058235805 -0.057498712 0.052346542 -0.052530445 -0.075053826 -0.05347736 -0.09614695 -0.021971934
0.100299515 -0.049465943 -0.13953069 0.13128433 -0.099185616 0.09237259 -0.102832995 0.05594759
0.031294476 -0.10095339 0.09812141 0.13306166 -0.12817039 -0.12890285 0.13564779 -0.08486843
0.03750222 0.066561855 0.07018661 -0.07737249 -0.01824341 -0.036695324 0.07452338 0.08518089
-0.064280555 -0.13351724 0.0011714683 0.010923413 0.021423655 0.13528802 -0.061567377 -0.06576114
0.14220318 -0.09355055 0.14648679 -0.041537166 0.046030242 0.13358973 -0.061003122 -0.11429446
-0.12163453 0.072868615 0.05325112 0.04541597 -0.040779497 -0.08511029 -0.0130328825 0.09504435
0.0071792053 -0.024010727 -0.029597742 -0.09130059 0.06902741 -0.07137753 -0.12259708 -0.026731938
0.09250646 0.09079593 -0.021080993 -0.029353295 0.015818544 -0.051241584 -0.041829973 -0.09063212
0.000623814 0.100505136 -0.067213215 -0.12138168 -0.020690791 -0.043906223 0.10081049 0.014645957
-0.11531732 0.055220537 -0.026443949 0.02177937 -0.09340827 0.025683032 -0.106285065 -0.0804262
-0.12128307 0.07665412 0.08305474 0.08257527 0.013082184 -0.11973136 -0.062148355 -0.0445165
0.02020548 -0.08745241 0.0010302257 -0.046781495 -0.03008092 0.054224126 -0.024034534 -0.03552044
-0.08471457 0.066985466 0.03171032 0.099638216 0.09753183 0.09220803 0.078138106 0.08581016
00000000: e39b 3a3d e49a a53d eae9 383d 3307 283d
00000010: 6f46 113d 7165 d7bd f927 6f3d f8cb 633d
00000020: d22e a73c 7c56 36bd 80fd edba 425d 25bd
00000030: 4b3e 963d 1215 fcbc 9708 d33d 4b5c f83c
00000040: 77c5 9bbd 7f83 dbbd 6e99 a3bd 50dc c73d
00000050: 7050 a0bd 6596 203d 0f7f 863d c4f5 f03c
00000060: c575 dabd bcef 963d 3502 4dbd 7396 d7bd
00000070: eb1c d63c 8baf 43bc f088 6f3c ece5 c63d
00000080: 93a8 43bd cf1b c23d e67c d83d 23e6 c5bb
00000090: 7149 083d 3c24 08bd 1e29 a73d f28f c1bd
000000a0: 51f7 b7bd e5b4 813d 2881 7e3d 42d1 7c3c
000000b0: ce64 fdbd a228 e9b8 baef d2bc 2579 b9bd
000000c0: 8ed8 3bbd d5bf 50bb 804a 80bd 01ac 2dbd
000000d0: bd53 b53c c087 693d 5db2 c7bd 483f 3a3c
000000e0: b9cd 583d 879d 813d 0e93 a5bd 7cf1 ef3d
000000f0: 4b21 31bc 76c4 dd3d 5c07 2ebd 9a6d a23c
00000100: 844d 0e3e 22a9 3dbd 55c4 933d d8bc 103c
00000110: c015 85bd 8d53 e0bd cf00 e63d ae79 52bc
00000120: 5b9a c63d d16b 8e3b f1a0 313d 5787 803d
00000130: 5c78 f0bc 2b50 05be 0e10 fa3c df44 15bd
00000140: 5f45 d83d 4c0a f7bd 5059 963d e04a 0c3d
00000150: 083c dabd 26e4 c3bc 4f92 48bd 0787 863d
00000160: f740 15be aa7c cc3d 30b4 a0bd 07a5 4bbd
00000170: 5d1f e8bc 307c e3bd 5d94 003e 454b 26bd
00000180: dbde debd 2b6b 96bd c457 bcbd 5dd9 2cbd
00000190: ab0d 073e 5c30 fa3d 9117 5dbd 0122 ed3c
000001a0: 50e9 073e 525b b23d f56b 48bd 044d 9fbc
000001b0: 46b5 ef3b b396 263d 4a2f 89bd 0c22 99bd
000001c0: 5437 48bd fa47 4e3d 20b1 033e b9ed b13d
000001d0: 588b 773d 92c1 643d f7db 14bd e367 debd
000001e0: ad2f 4a3d bc2b c0bc c585 593d 5987 f7bd
000001f0: 06a5 06be 80ea a2bd 3d67 91bd 17eb 5cbd
00000200: 2334 09bd 2edf 8b3c 6de2 013e 7e4e edbd
00000210: c8c3 8abb 4bdc 353c 4a23 48bd e4b3 a33d
00000220: 804c fe3d f5e2 d8bc ea4a 61bb 55f3 cdbd
00000230: 4fdd 0e3e cae9 a4bd c673 07bd 3e5a a33c
00000240: ab88 6e3d c583 6bbd 5469 563d 2a2a 57bd
00000250: d2b5 99bd 140b 5bbd b1e8 c4bd 7cfe b3bc
00000260: d569 cd3d cd9c 4abd 22e1 0ebe 666f 063e
00000270: d421 cbbd d72d bd3d 1b9a d2bd 4d29 653d
00000280: a32e 003d a7c0 cebd e1f3 c83d 5141 083e
00000290: 193f 03be 1cff 03be 41e7 0a3e 80cf adbd
000002a0: ee9b 193d 9551 883d ffbd 8f3d 7875 9ebd
000002b0: 3473 95bc d64d 16bd b79f 983d 5273 ae3d
000002c0: 86a5 83bd beb8 08be f48b 993a 1df8 323c
000002d0: a980 af3c f188 0a3e 132e 7cbd c7ad 86bd
000002e0: b69d 113e 6e97 bfbd a200 163e e022 2abd
000002f0: 358a 3c3d bfcb 083e 69de 79bd 3713 eabd
00000300: 861b f9bd 243c 953d d91d 5a3d 1906 3a3d
00000310: 6708 27bd 4e4e aebd df87 55bc 9da6 c23d
00000320: 8a3f eb3b 25b2 c4bc f776 f2bc cefb babd
00000330: 3e5e 8d3d 622e 92bd 2e14 fbbd f0fc dabc
00000340: 0774 bd3d 37f3 b93d 0cb2 acbc 5276 f0bc
00000350: e495 813c b2e2 51bd e855 2bbd 559d b9bd
00000360: 7387 233a a3d5 cd3d 15a7 89bd f596 f8bd
00000370: bc7f a9bc 03d7 33bd bb75 ce3d 99f5 6f3c
00000380: 7d2b ecbd ee2e 623d fba0 d8bc a66a b23c
00000390: d64c bfbd 3965 d23c fcab d9bd 7eb6 a4bd
000003a0: 4263 f8bd d6fc 9c3d 9b18 aa3d 391d a93d
000003b0: a856 563c b735 f5bd 468f 7ebd ef56 36bd
000003c0: f685 a53c 401a b3bd a308 873a f49d 3fbd
000003d0: 436c f6bc 1e1a 5e3d 12e4 c4bc e27d 11bd
000003e0: d57e adbd ad2f 893d aee2 013d 1f0f cc3d
000003f0: c5be c73d 90d7 bc3d df06 a03d 3dbd af3d

actor.4.bias f4 [6]
0.11918998 0.039907567 -0.080580644 -0.07132091 0.09901672 -0.006195597
00000000: e019 f43d 1e76 233d 7707 a5bd b210 92bd
00000010: 47c9 ca3d 6f04 cbbb

critic.0.weight f4 [128, 12]
0.0759968 -0.121262416 0.24689266 -0.22488022 9.4630144e-05 0.06481991 -0.24339513 0.27898914
0.25540876 -0.15288772 0.08301031 -0.18497616 -0.030901287 -0.12039251 0.025278429 -0.32258633
-0.24074855 -0.1659612 0.24524735 -0.15397486 -0.020884214 -0.0020465266 0.21010184 -0.13516642
-0.24900576 0.06705544 -0.20020317 -0.0561861 -0.16874474 -0.14808382 -0.04378734 -0.14458881
0.32008207 0.23133057 0.10456556 0.26175687 -0.15683211 0.0689356 0.13881241 0.08329139
0.08516679 -0.27795672 0.29778528 0.011507173 0.009420627 0.28110862 0.15795276 0.1640926
0.009352084 0.18063138 0.11955614 0.11156415 0.10272825 0.19094457 -0.0347327 0.066075206
0.23261666 -0.10546619 0.2620771 0.2185784 -0.1576722 0.10381915 -0.17750578 0.29895142
0.23348974 0.16988608 -0.14091374 0.24783595 0.11646007 -0.22404082 0.070096105 -0.23951593
0.12282985 0.26499355 -0.07417692 0.017860629 0.30372703 0.15016827 0.062024698 0.2102439
0.058489054 0.12654407 -0.08142379 0.18178527 0.1949857 -0.24262957 -0.16755779 -0.035694677
0.07844568 -0.23337992 0.009763629 -0.07934082 -0.08483562 -0.24994147 0.0536394 -0.03556122
-0.23827988 0.103921674 0.29214108 0.2014392 0.06244815 0.012506376 -0.042143464 0.11066572
-0.0981823 -0.08906366 -0.22336936 -0.012124261 -0.04670817 0.19118716 -0.0070182686 0.15365416
0.06230725 -0.28010526 -0.16181538 -0.26817292 0.288684 0.09267335 0.15114345 -0.14558387
0.10393903 -0.23645766 -0.121011026 -0.23766568 0.24296497 -0.24130443 -0.1568301 0.023621593
0.164084 0.22694612 -0.010921338 -0.20058629 0.23860018 0.16113073 0.10224017 0.2265405
0.029311376 0.0772836 0.0584609 -0.16057913 -0.08535573 -0.09465924 -0.020539397 -0.24603005
-0.2651447 0.29685757 -0.024778113 -0.057798762 -0.055874985 0.24112329 -0.24205121 0.03270585
-0.027177203 -0.24677877 0.23151389 -0.2520454 -0.06540917 0.32435334 -0.23879802 0.1661935
-0.26938322 0.084421225 0.07281132 -0.2714238 0.17546067 0.21360752 0.07217771 0.22524258
0.06684269 0.13766494 -0.14522022 -0.11796331 -0.11122214 -0.2184946 0.00439118 -0.15674746
0.024228591 -0.28198436 0.06705258 -0.011812986 -0.10339727 0.14127488 -0.320685 0.09135931
-0.188387 0.18038198 -0.04477015 -0.24352798 -0.08783301 -0.017087517 -0.3100483 0.14041401
-0.12040764 0.21497141 0.15608294 0.097388454 -0.24689443 0.21088654 0.22269976 0.06811836
0.044567388 0.19424762 -0.023794236 0.089676164 0.009456842 0.050981496 0.08588181 0.064667314
0.056162875 -0.22367793 -0.2669529 0.28828228 0.08530962 0.22700499 0.20173708 -0.056492954
-0.2580315 0.2838668 -0.0071206754 -0.19171089 -0.21988319 -0.20888233 -0.24794035 -0.1694056
0.2743641 -0.012994876 -0.14678156 0.08288053 -0.23985936 0.12209224 0.110118255 0.17286538
0.04547454 -0.12369449 -0.22269805 -0.008345889 -0.07430597 -0.009804607 -0.15553991 -0.029929524
0.15003908 0.049969498 -0.16424006 0.2886671 0.07902343 -0.2486731 -0.075487144 0.11085479
-0.011526014 -0.036698867 0.2584921 0.27588153 0.17416212 0.11433663 -0.20288031 0.23151569
00000000: 36a4 9b3d 6e58 f8bd 6ed1 7c3e 0047 66be
00000010: 2c74 c638 4dc0 843d 933c 79be aad7 8e3e
00000020: f0c4 823e 998e 1cbe 4f01 aa3d 646a 3dbe
00000030: b224 fdbc 5990 f6bd b514 cf3c 092a a5be
00000040: ca86 76be bcf1 29be 1f22 7b3e 96ab 1dbe
00000050: 5f15 abbc 051f 06bb f024 573e 1169 0abe
00000060: 5efb 7ebe 5d54 893d 0f02 4dbe 6523 66bd
00000070: 6ccb 2cbe 49a3 17be 5b5a 33bd 170f 14be
00000080: cce1 a33e ece1 6c3e 7826 d63d ff04 863e
00000090: 9998 20be 1c2e 8d3d d724 0e3e ad94 aa3d
000000a0: ed6b ae3d 5850 8ebe 5077 983e 9588 3c3c
000000b0: f958 1a3c 78ed 8f3e 5ebe 213e e407 283e
000000c0: 7c39 193c 6ff7 383e d9d9 f43d bf7b e43d
000000d0: 3063 d23d f986 433e e043 0ebd 7052 873d
000000e0: 1033 6e3e a8fe d7bd f82e 863e 04d3 5f3e
000000f0: d274 21be 229f d43d 13c4 35be 2910 993e
00000100: ef17 6f3e 9ef6 2d3e b14b 10be b5c8 7d3e
00000110: 9e82 ee3d f56a 65be 8c8e 8f3d aa43 75be
00000120: 378e fb3d 3cad 873e 12ea 97bd 7450 923c
00000130: 1c82 9b3e b6c5 193e 9c0d 7e3d 2d4a 573e
00000140: 3892 6f3d c594 013e 84c1 a6bd eb25 3a3e
00000150: 55aa 473e e373 78be 4594 2bbe 9534 12bd
00000160: 21a8 a03d 25fb 6ebe a1f7 1f3c 717d a2bd
00000170: 4cbe adbd a8f0 7fbe fdb4 5b3d a4a8 11bd
00000180: a4ff 73be e3d4 d43d 8493 953e 1446 4e3e
00000190: a2c9 7f3d 8be7 4c3c a09e 2cbd b6a4 e23d
000001a0: cd13 c9bd 0267 b6bd f0ba 64be d6a4 46bc
000001b0: 1151 3fbd 91c6 433e 81f9 e5bb 8457 1d3e
000001c0: e335 7f3d f569 8fbe eeb2 25be f64d 89be
000001d0: 64ce 933e 86cb bd3d 59c5 1a3e f013 15be
000001e0: fcdd d43d f521 72be a1d4 f7bd a25e 73be
000001f0: cfcb 783e 8218 77be 1298 20be 1282 c13c
00000200: a305 283e 9064 683e 69ef 32bc 7e66 4dbe
00000210: 9b53 743e 74ff 243e 4b63 d13d 3cfa 673e
00000220: 691e f03c dd46 9e3d b274 6f3d db6e 24be
00000230: fcce aebd b4dc c1bd 3d42 a8bc 4def 7bbe
00000240: 0cc1 87be b7fd 973e 78fb cabc 65be 6cbd
00000250: 2bdd 64bd 06e9 763e 46dc 77be 92f6 053d
00000260: baa2 debc 93b3 7cbe fa11 6d3e 180c 81be
00000270: 3ef5 85bd a411 a63e 7887 74be a12e 2a3e
00000280: 99ec 89be 09e5 ac3d 1a1e 953d 0ff8 8abe
00000290: f6ab 333e eebb 5a3e e8d1 933d fea5 663e
000002a0: d2e4 883d 0af8 0c3e 9cb4 14be bf96 f1bd
000002b0: 6fc8 e3bd 0cbd 5fbe e3e3 8f3b 6882 20be
000002c0: 0a7b c63c 4160 90be dd52 893d 418b 41bc
000002d0: f3c1 d3bd 5daa 103e d330 a4be 971a bb3d
000002e0: 86e8 40be 0eb6 383e e860 37bd 665f 79be
000002f0: cbe1 b3bd 1ffb 8bbc a7be 9ebe b1c8 0f3e
00000300: 4898 f6bd 7721 5c3e 35d4 1f3e 9973 c73d
00000310: e5d1 7cbe a4f2 573e 680b 643e a481 8b3d
00000320: 4b8c 363d d9e8 463e 21ec c2bc 23a8 b73d
00000330: dff0 1a3c f9d1 503d cde2 af3d 4c70 843d
00000340: 0b0b 663d d40b 65be 0dae 88be bc99 933e
00000350: cfb6 ae3d ff73 683e 2a94 4e3e 2865 67bd
00000360: b41c 84be fd56 913e 8e54 e9bb dc4f 44be
00000370: 0f29 61be 40e5 55be 13e4 7dbe a978 2dbe
00000380: 7479 8c3e 76e8 54bc e84d 16be 44bd a93d
00000390: b19d 75be 7f0b fa3d ae85 e13d 9f03 313e
000003a0: 8343 3a3d 8953 fdbd f50a 64be 32bd 08bc
000003b0: ba2d 98bd 81a3 20bc db45 1fbe c32e f5bc
000003c0: d8a3 193e d1ac 4c3d 8c2e 28be 2dcc 933e
000003d0: 09d7 a13d 29a4 7ebe 0199 9abd d607 e33d
000003e0: 9bd7 3cbc 8d51 16bd 1459 843e 5840 8d3e
000003f0: 8e57 323e 5329 ea3d dbbf 4fbe 7312 6d3e

critic.0.bias f4 [128]
0.12238311 0.06027455 0.11854789 0.24527557 0.016302431 -0.062411778 -0.102033444 0.26172617
0.21779203 -0.021131529 -0.16753046 0.07126692 0.072440736 -0.2415259 -0.14829318 -0.10718456
0.19383807 -0.16978595 0.0899379 -0.0031973505 0.108523615 0.18207845 -0.24438898 0.14567095
0.07098576 0.014587132 -0.2723157 0.2648775 0.14370789 -0.18767801 -0.17587477 0.039219063
-0.07663577 0.19692709 0.13109396 0.16524552 -0.059077848 0.0091916155 -0.23591071 0.2545432
-0.24836703 -0.07911494 0.009562277 0.25077486 0.09818429 -0.18463598 -0.1753999 0.14599536
-0.202815 -0.015904566 -0.2019714 0.012753709 0.028537953 -0.27908292 -0.1919047 0.22215204
0.23326984 0.26432562 0.13539462 0.2985072 -0.2725732 0.004111114 -0.004853129 0.18786833
0.038845263 0.0889686 0.11083885 -0.09441797 -0.10247013 0.020126149 -0.20878974 -0.09932915
0.054579575 -0.29929122 -0.1053251 0.18465164 -0.2554392 -0.01946371 0.041292198 0.13700028
0.017909458 0.20708315 -0.026523288 0.0749088 0.21933864 -0.2870051 -0.15090606 -0.10289626
0.21721405 0.11801058 0.01148983 -0.16312759 -0.15274231 0.018875157 -0.10413308 0.158704
0.11515795 0.067391485 -0.011829119 -0.16351144 0.089454986 0.021724585 -0.022325875 0.1655459
-0.037168875 -0.2091637 -0.15478317 0.057112876 -0.05312857 -0.012583582 0.20218368 -0.25133923
0.15151899 -0.18707396 -0.28670773 0.12127783 0.036136147 0.11153524 -0.123292655 0.13483106
-0.29701558 0.27610117 -0.20489012 -0.021616431 -0.24788775 -0.1295064 -0.048299946 0.2732809
00000000: ffa3 fa3d 72e2 763d 3cc9 f23d 8529 7b3e
00000010: ad8c 853c 7ea3 7fbd e9f6 d0bd f900 863e
00000020: e004 5f3e 071c adbc 1b8d 2bbe 64f4 913d
00000030: cf5b 943d 9152 77be 2bda 17be 9483 dbbd
00000040: 7d7d 463e 5edc 2dbe 5d31 b83d a48a 51bb
00000050: a141 de3d c672 3a3e 1b41 7abe c42a 153e
00000060: fb60 913d defe 6e3c f76c 8bbe 069e 873e
00000070: 2928 133e aa2e 40be 8418 34be 2ba4 203d
00000080: 37f3 9cbd 41a7 493e 7f3d 063e 1f36 293e
00000090: 9dfb 71bd 6e98 163c 9492 71be 7c53 823e
000000a0: ed53 7ebe 0307 a2bd 19ab 1c3c 9065 803e
000000b0: d814 c93d 3711 3dbe 089c 33be cf7f 153e
000000c0: bcae 4fbe 4b4a 82bc 97d1 4ebe eff4 503c
000000d0: 6dc8 e93c f5e3 8ebe aa82 44be d37b 633e
000000e0: 4ade 6e3e b055 873e e3a4 0a3e f0d5 983e
000000f0: b78e 8bbe 86b6 863b ff06 9fbb 8e60 403e
00000100: 361c 1f3d 2b35 b63d 7bff e23d 355e c1bd
00000110: dcdb d1bd 98df a43c facc 55be 156d cbbd
00000120: d58e 5f3d b33c 99be b0b4 d7bd 5215 3d3e
00000130: edc8 82be 5c72 9fbc 0222 293d cd49 0c3e
00000140: dbb6 923c 9b0d 543e 5e47 d9bc c969 993d
00000150: 4f9a 603e 55f2 92be 1e87 1abe 46bb d2bd
00000160: 5c6d 5e3e 88af f13d d73f 3c3c eb0a 27be
00000170: 7b68 1cbe 13a0 9a3c b943 d5bd 4d83 223e
00000180: eed7 eb3d 8c04 8a3d ecce 41bc 8b6f 27be
00000190: 2d34 b73d c2f7 b13c c1e4 b6bc dd84 293e
000001a0: 643e 18bd 022f 56be 7b7f 1ebe 31ef 693d
000001b0: 589d 59bd 5e2b 4ebc 3d09 4f3e 89af 80be
000001c0: cb27 1b3e 5190 3fbe 5bcb 92be 8360 f83d
000001d0: 7f03 143d 976c e43d dc80 fcbd 2711 0a3e
000001e0: 6d12 98be 225d 8d3e b7ce 51be f114 b1bc
000001f0: 49d6 7dbe 539d 04be 2ad6 45bd 79eb 8b3e

critic.2.weight f4 [64, 128]
0.09161831 0.034721408 0.030491553 0.012156506 -0.117397934 -0.060370617 0.04626646 -0.10734055
0.028646339 -0.12227208 -0.000597229 -0.12853406 0.054955266 -0.05288698 -0.098448135 -0.029757045
-0.010435442 -0.060573876 -0.07691575 0.0030917516 0.0233834 -0.012729437 -0.011791227 0.024623288
-0.0627045 0.0041964874 -0.040207595 0.015951129 -0.06625047 0.032094494 -0.056383427 -0.013283264
0.009245311 -0.026940806 -0.11016157 -0.03849815 -0.10558562 0.05544844 -0.115476444 -0.10136781
0.030609446 -0.005397021 0.012371768 0.08998409 -0.019825626 0.025697466 0.104803406 0.027428437
0.022113591 -0.017135525 -0.06810371 0.09296734 0.031383734 0.074356616 0.012005934 -0.06511982
0.06081764 -0.005111463 0.005627002 0.0032024018 0.08012618 0.055216756 0.017322812 -0.009055746
0.10567993 -0.026499439 0.04997529 0.115152426 0.07522143 -0.01833394 0.09974319 0.06502043
0.024570998 0.01534939 0.05106995 0.1068779 0.030600661 0.046912324 -0.01298958 0.016925404
0.00859431 0.011660674 -0.026918128 0.096402824 -0.023335028 0.10463918 -0.025736293 0.091686435
-0.1017578 -0.023029178 -0.0025389446 -0.14490318 0.045683052 0.0013596604 0.07278382 0.04612942
-0.008129287 0.07674196 0.085466124 -0.007815137 0.06269886 -0.07859641 0.024857737 -0.04909386
-0.022293366 -0.0839783 0.031159483 0.037991725 -0.08310488 0.016087037 0.105906144 0.0024098887
0.013414375 -0.0010115772 0.048177812 0.018324912 -0.023516959 -0.0447256 0.014417888 0.036763832
-0.030763866 -0.07623027 -0.011486499 0.048129193 0.055001 0.059253085 -0.013872492 -0.00023710298
-0.01926742 -0.051070213 -0.04620257 -0.040187497 0.115615375 0.081287324 0.07595778 0.08146989
-0.027342247 0.0948874 -0.018769367 0.055224314 0.10746605 -0.01643459 0.01033707 0.10322895
-0.046651106 -0.070326224 -0.05143907 -0.0023704758 0.043103714 -0.003956756 0.0664691 -0.039333034
0.11958004 -0.023085099 -0.0029929474 0.07362027 -0.05696488 0.0218894 0.018599961 0.017977443
0.00049373065 0.024424365 0.10061383 0.060957387 0.08512843 0.05437744 -0.018167332 -0.01926851
0.057081856 0.01775448 0.1043333 -0.0893487 0.06327585 0.032255035 -0.046204235 0.03528301
-0.031813197 0.06405675 -0.09019824 -0.07420401 -0.027869841 0.056089938 0.007586647 0.043280788
-0.03354462 -0.051578835 0.058385957 -0.02279882 0.07006759 -0.0633638 0.016047763 0.07416064
0.024122003 0.0629629 -0.05218143 0.0063910387 -0.09644533 0.09994048 0.030101817 -0.04397784
0.10448288 0.008282237 0.07446614 -0.08201695 -0.02151136 0.060626537 -0.045189578 0.040162418
0.067276396 0.0053100307 -0.03252643 -0.03150107 0.008157659 -0.017104225 0.010956727 0.019984012
0.08374717 -0.045601573 -0.121411 -0.013789222 -0.10009711 0.065713726 -0.028276999 -0.030409956
-0.055851728 -0.053376913 -0.06282909 -0.13368657 0.01590873 0.11630679 0.035230964 0.015351532
-0.017589381 -0.025025986 0.058012784 -0.0771601 0.07839067 -0.008186957 0.007958906 0.063434415
-0.0020421816 0.040160444 -0.09946817 -0.07705188 -0.099259295 0.091577515 -0.066638246 0.011887834
-0.050731085 0.060756277 -0.093915135 0.0069912695 0.06060869 -0.09322372 0.07708067 -0.0054510087
00000000: 61a2 bb3d 0938 0e3d 6cc9 f93c 152c 473c
00000010: 546e f0bd 2e47 77bd e681 3d3d 5dd5 dbbd
00000020: baab ea3c c969 fabd 5c8f 1cba 6f9e 03be
00000030: c618 613d 05a0 58bd 2d9f c9bd 0cc5 f3bc
00000040: 6bf9 2abc 501c 78bd 0186 9dbd fc9e 4a3b
00000050: 8b8e bf3c 218f 50bc fe2f 41bc c7b6 c93c
00000060: 386b 80bd b082 893b b8b0 24bd f1ab 823c
00000070: 54ae 87bd 8475 033d 4ff2 66bd 0ca2 59bc
00000080: a579 173c f7b2 dcbc 649c e1bd 3cb0 1dbd
00000090: 463d d8bd e71d 633d ea7e ecbd ed99 cfbd
000000a0: a9c0 fa3c 7ed9 b0bb f5b2 4a3c 9449 b83d
000000b0: 5a69 a2bc 7e83 d23c 2ba3 d63d 9ab1 e03c
000000c0: 9027 b53c cd5f 8cbc f579 8bbd a965 be3d
000000d0: 3b8c 003d 4848 983d 89b4 443c 8a5d 85bd
000000e0: eb1b 793d 0f7e a7bb b762 b83b 63df 513b
000000f0: 3219 a43d f72a 623d 92e8 8d3c 8d5e 14bc
00000100: b86e d83d 5a15 d9bc e4b2 4c3d 09d5 eb3d
00000110: b10d 9a3d 0f31 96bc 2846 cc3d 6e29 853d
00000120: 1e49 c93c 027c 7b3c b92e 513d cde2 da3d
00000130: 3dae fa3c 2327 403d 3fd2 54bc 25a7 8a3c
00000140: 26cf 0c3c 690c 3f3c 6883 dcbc d86e c53d
00000150: 1a29 bfbc 114d d63d ebd4 d2bc 19c6 bb3d
00000160: 6566 d0bd b0a7 bcbc 6c64 26bb 8061 14be
00000170: 271e 3b3d a236 b23a af0f 953d 34f2 3c3d
00000180: b330 05bc e42a 9d3d dd08 af3d 0f0b 00bc
00000190: 4368 803d 28f7 a0bd 74a2 cb3c a516 49bd
000001a0: 94a0 b6bc d1fc abbd 2c42 ff3c 369d 1b3d
000001b0: e432 aabd f6c8 833c 52e5 d83d 39ef 1d3b
000001c0: f7c7 5b3c e696 84ba 1956 453d 201e 963c
000001d0: a3a6 c0bc 3132 37bd 0139 6c3c ac95 163d
000001e0: 8104 fcbc 9e1e 9cbd de31 3cbc 1e23 453d
000001f0: bb48 613d 5db3 723d 7349 63bc d99e 78b9
00000200: b5d6 9dbc 002f 51bd e83e 3dbd a59b 24bd
00000210: c1c7 ec3d f879 a63d c18f 9b3d b0d9 a63d
00000220: d9fc dfbc 5354 c23d 37c2 99bc e432 623d
00000230: 2917 dc3d d5a1 86bc d05c 293c b369 d33d
00000240: 3b15 3fbd 3207 90bd c6b1 52bd fc59 1bbb
00000250: 858d 303d ada7 81bb f420 883d ad1b 21bd
00000260: 61e6 f43d f61c bdbc 5325 44bb 39c6 963d
00000270: 0254 69bd 6651 b33c f25e 983c 6e45 933c
00000280: b46d 013a 9b15 c83c a00e ce3d 74ae 793d
00000290: d057 ae3d e1ba 5e3d a8d3 94bc ffd8 9dbc
000002a0: aace 693d d871 913c b2ac d53d 74fc b6bd
000002b0: c596 813d db1d 043d a740 3dbd eb84 103d
000002c0: 8e4e 02bd 2f30 833d dbb9 b8bd 46f8 97bd
000002d0: 4b4f e4bc 90be 653d 6899 f83b 3247 313d
000002e0: 1566 09bd 5444 53bd 1d26 6f3d 97c4 babc
000002f0: 997f 8f3d e1c4 81bd 9976 833c 89e1 973d
00000300: 829b c53c b1f2 803d 32bc 55bd eb6b d13b
00000310: 2185 c5bd 98ad cc3d 1698 f63c 1c22 34bd
00000320: 1ffb d53d 38b2 073c b481 983d 81f8 a7bd
00000330: 9738 b0bc 8853 783d b518 39bd 5981 243d
00000340: 35c8 893d c4ff ad3b 6f3a 05bd 4407 01bd
00000350: b4a7 053c 291e 8cbc d883 333c 83b5 a33c
00000360: a383 ab3d b7c8 3abd 55a6 f8bd 30ec 61bc
00000370: b7ff ccbd eb94 863d 2aa5 e7bc 4d1e f9bc
00000380: c8c4 64bd c0a1 5abd 8aac 80bd 22e5 08be
00000390: 0653 823c 4132 ee3d 584e 103d fe84 7b3c
000003a0: 9b17 90bc 4c03 cdbc d09e 6d3d 1d06 9ebd
000003b0: 4a8b a03d 9622 06bc 1266 023c e7e9 813d
000003c0: 1fd6 05bb 477f 243d f8b5 cbbd 60cd 9dbd
000003d0: 7548 cbbd fe8c bb3d a279 88bd 31c5 423c
000003e0: 66cb 4fbd 93db 783d 9456 c0bd 0517 e53b
000003f0: d140 783d 14ec bebd 78dc 9d3d 609e b2bb

critic.2.bias f4 [64]
-0.012575102 0.038721893 0.019183032 0.045439754 -0.033124194 0.09362467 0.05056594 -0.030052701
-0.10035731 -0.024335219 -0.017284958 0.046427507 0.092847176 0.022155559 0.026306776 -0.001947099
0.10446332 -0.055258017 -0.051111273 0.05916174 0.06743694 -0.08626483 -0.0702776 -0.07103326
0.060351226 0.03417556 0.02067455 0.024902154 -0.017082233 0.014783926 0.055728234 -0.0037942585
-0.004250798 0.097759925 0.03965313 -0.017066903 -0.035405707 -0.0817253 -0.021199478 -0.067336164
0.04400695 -0.012076293 0.05152047 0.03736005 0.013701163 0.06378173 -0.051933523 -0.100843154
0.041659553 -0.09000121 0.054001894 0.05768633 0.015766667 0.043678373 -0.09462598 -0.055967316
-0.057509642 -0.094135635 -0.08166101 -0.030043678 -0.09063777 -0.03714907 0.039651062 0.006859594
00000000: cd07 4ebc d99a 1e3d bc25 9d3c 091f 3a3d
00000010: 3cad 07bd 4abe bf3d 3b1e 4f3d 1531 f6bc
00000020: 2288 cdbd a75a c7bc 2f99 8dbc c52a 3e3d
00000030: a926 be3d 937f b53c 4f81 d73c cd35 ffba
00000040: ddf0 d53d 3b56 62bd 0e5a 51bd 9553 723d
00000050: 611c 8a3d 9dab b0bd b4ed 8fbd e379 91bd
00000060: d932 773d acfb 0b3d ad5d a93c 9aff cb3c
00000070: 0af0 8bbc 4838 723c 4a43 643d 18a9 78bb
00000080: 474a 8bbb 5b36 c83d 526b 223d e4cf 8bbc
00000090: 9305 11bd 985f a7bd 87aa adbc 8be7 89bd
000000a0: a240 343d a5db 45bc 2107 533d da06 193d
000000b0: d87a 603c ff9f 823d 3fb8 54bd db86 cebd
000000c0: 35a3 2a3d 8e52 b8bd 1731 5d3d 8048 6c3d
000000d0: 1929 813c 18e8 323d 44cb c1bd fc3d 65bd
000000e0: 3b8f 6bbd 2fca c0bd e33d a7bd 291e f6bc
000000f0: 4ca0 b9bd a029 18bd 2769 223d 72c6 e03b

critic.4.weight f4 [1, 64]
-0.14081459 0.08021045 -0.13676569 0.06519584 -0.10783396 0.1397174 0.11042922 -0.103127375
-0.11531153 0.03732858 0.13189323 0.14490874 0.13389613 -0.09684389 0.07026152 0.10267881
0.1288465 0.12342146 -0.08527343 0.081881724 -0.11964582 -0.0694755 -0.13508873 0.11886903
0.070920855 0.13518919 0.037626937 -0.08469065 -0.10073193 -0.04937325 0.14983268 -0.14348872
0.1185938 0.02711866 0.0994851 -0.099509686 0.15953767 -0.10175357 -0.0663467 -0.12011137
-0.14222538 -0.12974812 0.06951628 0.15756488 -0.15677184 -0.053049266 0.12428796 -0.14376406
-0.1265164 -0.12921615 -0.05435811 -0.02242884 -0.14083561 0.14990082 -0.09710951 0.08199616
0.09813258 -0.12578742 -0.08548173 -0.08865937 -0.16015206 -0.040790305 0.044987913 -0.064680435
00000000: b331 10be 6045 a43d 4e0c 0cbe 6685 853d
00000010: 0dd8 dcbd 1412 0f3e b728 e23d 7234 d3bd
00000020: 7428 ecbd dae5 183d 050f 073e f562 143e
00000030: 111c 093e 1756 c6bd 46e5 8f3d 4549 d23d
00000040: 56f0 033e 64c4 fc3d d6a3 aebd 9bb1 a73d
00000050: de08 f5bd 2c49 8ebd b354 0abe 9b71 f33d
00000060: f43e 913d 096f 0a3e b41e 1a3d 4b72 adbd
00000070: 8b4c cebd 9b3b 4abd bd6d 193e b5ee 12be
00000080: 4ee1 f23d f427 de3c d8be cb3d bccb cbbd
00000090: d85d 233e 2d64 d0bd c7e0 87bd f3fc f5bd
000000a0: 88a3 11be b1dc 04be 8d5e 8e3d b058 213e
000000b0: cc88 20be 304a 59bd b08a fe3d e336 13be
000000c0: 848d 01be 3d51 04be 9ca6 5ebd b0bc b7bc
000000d0: 3637 10be 9a7f 193e 5ae1 c6bd 9aed a73d
000000e0: bcf9 c83d 6bce 00be 0c11 afbd 0b93 b5bd
000000f0: e7fe 23be bc13 27bd 3f45 383d 2d77 84bd

exp_avg f4 [128, 12]
0.00046777778 0.024856243 -0.021047883 -0.00023180433 -0.009719124 -0.0013147971 0.00013900203 -0.0036532145
0.0018077751 0.0 -0.0033464024 0.002230935 -0.0002094504 -0.01786084 0.015350913 -0.0002001243
0.0060496195 0.0011293016 -6.643234e-05 0.0026918936 -0.0015279845 0.0 0.002591345 -0.0017275634
-3.0684187e-05 0.003544198 -0.002763851 -1.6786285e-05 -0.0011132675 -4.5658056e-05 -1.0021829e-05 -0.0005450231
0.00029565708 0.0 -0.00054899603 0.00036599737 -0.00027300607 -0.016315255 0.014033462 0.00027164406
0.0059929877 0.0009537996 -8.1682316e-05 0.0024691678 -0.0014035284 0.0 0.0023441277 -0.0015627518
-0.00039541372 -0.007569272 0.0068739457 -0.00063638523 0.00271117 0.0006938702 -0.000121854726 0.0010229286
-0.0003964183 0.0 0.00085871737 -0.0005724782 -0.0007088697 -0.025370603 0.02154021 0.0013354884
0.010088896 0.0010045941 -0.00020107458 0.0038487855 -0.0021398722 0.0 0.0035993198 -0.0023995466
3.644308e-05 -0.0015834642 0.0013777112 -0.0004469888 0.00039036918 0.00021287285 8.168743e-06 0.00020254123
-5.5339115e-05 0.0 0.00018059315 -0.00012039546 -0.00013941938 -0.0057617533 0.0047833887 0.0005763572
0.0028059636 0.00019277995 -3.9141287e-05 0.0008575058 -0.00041318138 0.0 0.0007539029 -0.00050260185
-4.5902016e-05 0.0066548544 -0.0061542615 0.000703439 -0.0016696696 -0.0008503682 -7.200805e-06 -0.0010137652
0.0006737669 0.0 -0.0010205444 0.0006803631 -0.00036379695 -0.010989659 0.009228173 0.0004739179
0.0045164893 0.00036644904 -0.00010127044 0.0016269695 -0.00080698344 0.0 0.0014751144 -0.0009834095
4.3222182e-05 0.013453257 -0.011091923 -0.0001887542 -0.004704857 -0.00057188596 1.3924111e-05 -0.0020444244
0.0011231782 0.0 -0.001983879 0.001322586 8.31574e-05 0.010431818 -0.008386097 -0.0008856987
-0.0044156113 -0.00019861112 2.2311444e-05 -0.0016013997 0.000859739 0.0 -0.0015183458 0.0010122306
9.5185365e-05 0.0035429515 -0.0029869964 0.0005665262 -0.0012333839 -0.00028258577 3.3048516e-05 -0.00043710825
5.4381344e-05 0.0 -0.0003424786 0.00022831916 -4.5920267e-05 -0.008233774 0.0070719216 -0.00025799012
0.0028385376 0.0005858423 -1.6720824e-05 0.0012221873 -0.0006587065 0.0 0.0011626449 -0.00077509665
0.00028233405 -0.0026745822 0.0019506576 3.148163e-05 0.0005984301 0.00010836955 7.782244e-05 0.00045100157
-0.00031390804 0.0 0.00051773526 -0.00034515685 -0.00014801863 -0.011549401 0.009915882 -6.917751e-05
0.0041499618 0.0007365415 -4.520698e-05 0.0017262198 -0.00094086875 0.0 0.0016307245 -0.0010871496
-0.0002906361 0.009228686 -0.0075033326 0.0003376874 -0.0029126282 -0.0005929531 -7.6824945e-05 -0.0013945762
0.00075363304 0.0 -0.0013912456 0.00092749717 4.4434917e-05 0.007672419 -0.006077528 -0.0008763178
-0.0029591438 7.3626034e-06 7.2249304e-06 -0.0012407845 0.000784538 0.0 -0.0012489037 0.0008326024
0.0006388927 0.024076588 -0.02063559 -0.00091537007 -0.008974628 -0.0011136378 0.00018257002 -0.003673934
0.0021253475 0.0 -0.0034883304 0.0023255532 -0.00019276011 0.0027888885 -0.0021294944 -0.0010979174
-0.0017458873 -4.173114e-05 -5.576407e-05 -0.00050740206 0.00039218186 0.0 -0.00051452086 0.00034301387
0.00024009583 -0.0024974737 0.0021818522 -0.0007489452 0.00015555334 0.00040982754 6.378439e-05 0.0003814744
-0.00026255992 0.0 0.00043917997 -0.0002927866 -0.00033931038 -0.013111062 0.01147779 0.00020144091
00000000: 1240 f539 529f cb3c 9c6c acbc 8010 73b9
00000010: f63c 1fbc 4555 acba 13c1 1139 c56a 6fbb
00000020: def2 ec3a 0000 0000 514f 5bbb e134 123b
00000030: ea9f 5bb9 e550 92bc 6582 7b3c 75d8 51b9
00000040: e33b c63b 1305 943a 9751 8bb8 7b6a 303b
00000050: a746 c8ba 0000 0000 8ed3 293b 696f e2ba
00000060: e5b2 00b8 c745 683b ba21 35bb 46d0 8cb7
00000070: 0feb 91ba f780 3fb8 6e23 28b7 e2df 0eba
00000080: 6c02 9b39 0000 0000 80ea 0fba 56e3 bf39
00000090: 4122 8fb9 92a7 85bc 9bec 653c 736b 8e39
000000a0: d360 c43b 6808 7a3a dc4c abb8 c3d1 213b
000000b0: 99f6 b7ba 0000 0000 f09f 193b 40d5 ccba
000000c0: 884f cfb9 a807 f8bb d63e e13b 17d3 26ba
000000d0: e2ad 313b d7e4 353a 428c ffb8 ca13 863a
000000e0: 5dd6 cfb9 0000 0000 8c1b 613a 5d12 16ba
000000f0: 71d3 39ba 03d6 cfbc 1875 b03c 8e0b af3a
00000100: e64b 253c 96ac 833a 8cd7 52b9 e83b 7c3b
00000110: 193d 0cbb 0000 0000 91e2 6b3b b641 1dbb
00000120: 76da 1838 3e8c cfba 5194 b43a d259 eab9
00000130: 77aa cc39 9f36 5f39 7c0c 0937 3f61 5439
00000140: ec1b 68b8 0000 0000 9b5d 3d39 d27c fcb8
00000150: 1b31 12b9 17cd bcbb f9bd 9c3b ad16 173a
00000160: 42e4 373b f924 4a39 a32b 24b8 3dca 603a
00000170: 44a0 d8b9 0000 0000 91a1 453a 0ac1 03ba
00000180: ea86 40b8 f710 da3b b0a9 c9bb fe66 383a
00000190: d1d8 daba 3eeb 5eba 729e f1b6 51e0 84ba
000001a0: bb9f 303a 0000 0000 cac3 85ba 655a 323a
000001b0: 00bc beb9 f80d 34bc c331 173c 2f78 f839
000001c0: 0fff 933b f51f c039 2761 d4b8 0a40 d53a
000001d0: be8b 53ba 0000 0000 a058 c13a bfe5 80ba
000001e0: 7749 3538 0d6b 5c3c e6ba 35bc 52ec 45b9
000001f0: 332b 9abb 9eea 15ba 9a9b 6937 c0fb 05bb
00000200: 9b37 933a 0000 0000 f703 02bb 9f5a ad3a
00000210: ca64 ae38 37ea 2a3c d765 09bc 3c2e 68ba
00000220: d5b0 90bb 4442 50b9 7629 bb37 0fe6 d1ba
00000230: 1c60 613a 0000 0000 3b03 c7ba d3ac 843a
00000240: 419e c738 dd30 683b 7cc1 43bb ee82 143a
00000250: 7fa9 a1ba 0528 94b9 939d 0a38 ad2b e5b9
00000260: 8617 6438 0000 0000 b38e b3b9 f568 6f39
00000270: 839a 40b8 f4e6 06bc 94bb e73b d942 87b9
00000280: c206 3a3b 3693 193a b243 8cb7 cd31 a03a
00000290: 0cad 2cba 0000 0000 e463 983a db2f 4bba
000002a0: 3c06 9439 0b48 2fbb 35ad ff3a 250b 0438
000002b0: f7df 1c3a 7644 e338 9b34 a338 6874 ec39
000002c0: 0694 a4b9 0000 0000 a0b8 073a 2bf6 b4b9
000002d0: 7335 1bb9 b339 3dbc 3976 223c 6513 91b8
000002e0: 67fc 873b 7714 413a a09c 3db8 5342 e23a
000002f0: a2a4 76ba 0000 0000 09be d53a b07e 8eba
00000300: 8460 98b9 ea33 173c 84de f5bb a30b b139
00000310: cbe1 3ebb 6970 1bba 141d a1b8 36ca b6ba
00000320: 758f 453a 0000 0000 755a b6ba 4823 733a
00000330: a15f 3a38 ea68 fb3b 0026 c7bb b1b8 65ba
00000340: 32ee 41bb 480c f736 ae6d f236 d2a1 a2ba
00000350: 74a9 4d3a 0000 0000 41b2 a3ba 0043 5a3a
00000360: 5d7b 273a 443c c53c f80b a9bc 72f5 6fba
00000370: 510a 13bc 7cf7 91ba 4470 3f39 62c6 70bb
00000380: 6a49 0b3b 0000 0000 799c 64bb 4f68 183b
00000390: a61f 4ab9 c9c5 363b fd8e 0bbb ffe7 8fba
000003a0: 42d6 e4ba 7808 2fb8 37e4 69b8 2d03 05ba
000003b0: c29d cd39 0000 0000 e9e0 06ba 8bd6 b339
000003c0: 3cc2 7b39 a8ac 23bb 68fd 0e3b dd54 44ba
000003d0: 081c 2339 1fde d639 fcc3 8538 a100 c839
000003e0: 32a8 89b9 0000 0000 bd41 e639 2781 99b9
000003f0: 78e5 b1b9 c8cf 56bc 570d 3c3c e239 5339
