policy/PPO_fail/checkpoints/2025-09-09_16-10/ppo_soarm_800.pth (torch, 258647 bytes, 33 tensors)

actor.0.weight f4 [128, 12]
00000000: 825e 80be 45ec 1fbd c0b0 da3d 1ed2 483e
00000010: 920b b0bd d80e 3a3e 47f5 553e cbc8 e5bc
00000020: 9063 2a3e 5088 293e 6b56 47be 506c 12be
00000030: c60c 81bc 9e31 843c f3a5 1e3d 2f83 273e
00000040: 88c5 7cbe b4a0 683e cc8e 1cbe fceb 7fbc
00000050: 8bcb f6bd a831 523e cbcd c1bb 8da7 1b3e
00000060: f2d1 2ebd b81f 7f3d 0027 44be 5549 343e
00000070: ee98 e73d 1820 593e 62d9 84be cd4e fabc
00000080: 0415 60be aaf2 543e 8dd5 8d3e 6bb5 32be
00000090: 05c6 8e3d 5fb2 843e 31ce 603e dded b73b
000000a0: 6d2e 8abd f378 45bd 3ebb 7cbe 2bd6 1fbe
000000b0: 5700 94bd a24c 4a3e 14cb c6bd b1e4 613e
000000c0: a5f9 9abe 5cd0 853d ec65 9c3c 4266 8d3d
000000d0: d449 383e a0d6 4dbd 76f1 57be e90e cdbd
000000e0: 9d74 8fbe 6b19 81be 3868 e2bd be13 85be
000000f0: 117a ba3d 4db9 dcbd 1640 d43d 2b44 31be
00000100: 3eaa 423e 81e4 523e d71c d83a 2bce 48be
00000110: 97c5 9dbc eca4 473e 8828 3cbc ceae 97be
00000120: 1ace 763e 32b9 313d 030f 27be 5a82 d03d
00000130: c6c1 9cbe 82e2 a13a 5e9f 7e3e c947 92be
00000140: 061a 2b3e de87 3c3e 331a 603e cfe6 8d3e
00000150: ab7e e6bd 709e 05bd 823a 90be e51a 893e
00000160: ea0a 8c3c 057a 98be 9579 1cbe 5163 6fbe
00000170: 3df4 b1bd c376 f1bd 45e3 e93d 2a93 51be
00000180: 9941 1ebe 8c93 02bd e43f 13be 4bac 263d
00000190: 0bdd b33d 8acf 7f3d dd53 dc3b 9eab 3fbd
000001a0: 9881 743c fb5b 583e 5c0d 973d ddd1 a13d
000001b0: 0c27 87be 61a5 3ebe 285c a8bb 795e 403e
000001c0: 32e5 183e bf2a 243c adb8 73be 58a8 aabc
000001d0: ffe7 1fbd 3b59 35be c1a7 bd3c 9c52 fcbd
000001e0: 03af 733e f1ce 543e 6947 a23d 8f3e 033e
000001f0: 661e d9bd 901b 89be bdaf 063e 1d27 2abd
00000200: 3d54 593e a45c a73d 622f 153d 8ea4 7abe
00000210: 7912 6cbe 9c6d 7f3e 35b3 893e b72b f83d
00000220: e19e 10bd 85ae 33be 4fd8 873d 940b 3abe
00000230: 7d10 7bbe ca28 47bc ca49 a53d 9345 853e
00000240: e7f8 993e 411c 883e 23b7 603e dc0d df3d
00000250: 76b1 ccbd 6f64 503e 91fd 663e e1e2 7aba
00000260: ceec 6dbe 9316 5e3e eeba 53bd 8855 803d
00000270: 9147 623e ccac fe3d 5546 75be 51e4 69bd
00000280: 7f06 6a3e f583 eb3c ef06 903e 90f6 78bd
00000290: 9493 6e3e 8ace bdbd b979 4ebe 3e06 afbd
000002a0: b858 a5bd 9078 03be b5bb 2abe 3f8c 5d3e
000002b0: a9fb 323d f39f 0fbe e139 88be 1166 f33d
000002c0: f901 833e f821 933d b940 433e e970 3cbd
000002d0: 67ef 79be 1fcd 84be 80c7 7abd d0ae 2c3d
000002e0: c7ac 533e c86f 7bbe abc3 ce3d f901 e9bd
000002f0: 19f5 353e 9c9a d4bd 7143 903c 5414 8bbd
00000300: 025a 61be e230 ecbd c79d b73c b50f 2dbd
00000310: 7a29 773e 176b a03c 05b0 b53d 9d77 bbbd
00000320: d3ab 663d f0ce 583e 296a 463e 7cda 30be
00000330: d2e3 5b3e 2a11 80be 8c59 7abe 2f41 2fbe
00000340: 0743 7a3e b8a0 20be 5bd2 afbd ab3e 103d
00000350: c3fb 38be d679 7bbd e258 193e ddec 68be
00000360: abc4 113e 686b 8d3e a39c 3c3e de31 1b3e
00000370: 4c64 853e edbf 93be c30a 403e 0c7e ef3c
00000380: 8cbd 303e 7775 42be ed83 9abe 341d 20be
00000390: dee2 84be 780d 513e 4725 3d3e 7b00 6bbe
000003a0: 1812 5abe 08dc 383d 6c4a 31be 9f49 993d
000003b0: 6697 ec3d be14 27bd 0a48 10be 67e8 aebd
000003c0: cd67 593e 34a0 8d3e 7b9c bcbd 6909 a93d
000003d0: 1406 e8bd 74b6 af3d 9120 353e ccc0 9dbd
000003e0: 1641 2abd 48b9 5d3e c74c bc3b 38e0 753b
000003f0: 9b01 903e a814 32be 3b7f 84be 6d33 2ebd
-0.25072104 -0.039043684 0.10678244 0.19611403 -0.08595957 0.18169725 0.20894347 -0.028049847
0.16639543 0.16555905 -0.1946656 -0.1429913 -0.015753161 0.01613694 0.03873248 0.16358636
-0.24684727 0.22717553 -0.15288848 -0.015620228 -0.120505415 0.20526755 -0.005914425 0.15200634
-0.04268069 0.06228611 -0.19155502 0.17606099 0.11308466 0.21203649 -0.259471 -0.030555153
-0.21883017 0.20795694 0.2770199 -0.17452018 0.06971363 0.25917336 0.21953656 0.0056130723
-0.06747136 -0.04821105 -0.24680802 -0.15609042 -0.07226627 0.19755796 -0.09706703 0.22059895
-0.3026859 0.06533882 0.019091569 0.0690427 0.17996913 -0.05025351 -0.21088204 -0.100126095
-0.28018656 -0.25214705 -0.110550344 -0.25991625 0.091053136 -0.10777531 0.10363786 -0.1731116
0.19010255 0.2059498 0.0016488087 -0.19609897 -0.019259257 0.19496506 -0.011484273 -0.29625553
0.24102059 0.043389507 -0.1631432 0.101811126 -0.30616587 0.001235083 0.24865481 -0.28570393
0.16709146 0.18411204 0.21884994 0.27715155 -0.11254629 -0.0326218 -0.28169638 0.2677833
0.017095048 -0.29780594 -0.15280755 -0.2337773 -0.08689163 -0.1179023 0.11420301 -0.20466295
-0.15454711 -0.031878993 -0.14379841 0.040691655 0.08782395 0.062453784 0.0067238645 -0.046794526
0.014923476 0.21128838 0.07375595 0.07901356 -0.26396978 -0.18617775 -0.005137939 0.18786038
0.14931181 0.010019957 -0.23800917 -0.020832226 -0.039039608 -0.1770982 0.02315128 -0.12320444
0.2379723 0.20782067 0.07923777 0.12816833 -0.10601501 -0.2677884 0.13152976 -0.041541208
0.2122354 0.08171967 0.03642214 -0.24476835 -0.23053922 0.24944156 0.26894537 0.12117713
-0.03530777 -0.17547043 0.066330545 -0.18168479 -0.24518009 -0.012155721 0.08070715 0.26029643
0.3007271 0.26584056 0.21944861 0.10891315 -0.099947855 0.20350812 0.22557665 -0.0009570551
-0.23234865 0.21688299 -0.051691942 0.06266314 0.22097613 0.12435302 -0.23952611 -0.057102505
0.2285404 0.028749445 0.2813029 -0.060782015 0.23298484 -0.0926791 -0.20163621 -0.085461125
-0.080735624 -0.1283896 -0.16673167 0.21635531 0.043697033 -0.1402586 -0.26606658 0.11884702
0.25587443 0.071842134 0.19067658 -0.046006117 -0.24407731 -0.25937745 -0.061225414 0.0421589
0.20671378 -0.2455436 0.100959145 -0.113773294 0.17769279 -0.10381052 0.017610284 -0.06790987
-0.22006992 -0.11532761 0.022414101 -0.042251308 0.24136916 0.019582314 0.08871464 -0.09153674
0.056316208 0.2117269 0.19376434 -0.17270845 0.21473625 -0.25013095 -0.24448222 -0.1711471
0.24439631 -0.1568631 -0.08585044 0.035216015 -0.1806479 -0.06139549 0.14975312 -0.22746606
0.14235179 0.27621007 0.18419127 0.15155742 0.26053083 -0.28857365 0.18754105 0.029234909
0.17259806 -0.18990122 -0.30178776 -0.1563614 -0.25954336 0.20415294 0.18471251 -0.22949402
-0.21295965 0.045131713 -0.17313546 0.07484745 0.115523145 -0.040791266 -0.1408998 -0.08540421
0.21231003 0.27661288 -0.09209534 0.08253748 -0.11329284 0.08579722 0.17688204 -0.07702789
-0.041565977 0.2165271 0.0057464573 0.0037517678 0.28126225 -0.17390692 -0.2587832 -0.042529512

actor.0.bias f4 [128]
00000000: f97c 78bc 310d a83c ed6c 2b3e c21b 0a3e
00000010: 2606 503e fcc6 4e3e 6bf9 093e bdf4 69be
00000020: 5d77 79be 1c61 823e dfbe cebc c1ef 923e
00000030: 45d2 b9bd 60f7 6b3e 9ead 9dbe 979f 243e
00000040: 4d1b 1b3e 70c1 983e b649 863e e0e2 863e
00000050: 2638 bcbd c633 1cbe cda1 81bc cf1c 99be
00000060: ae81 17be 305e 053e 381b 72be 47f3 853c
00000070: 69fc 973d af9c 36be f65c 013e a5fd e23c
00000080: dce2 8a3e 2bd3 843e d100 4bbd 59d3 4ebe
00000090: 8ff1 9a3d 687a afbd 04d1 82bd f4be 853e
000000a0: c220 2ebe 7b9e 19bd 7219 44bd 9d74 3b3e
000000b0: b6d4 99be c6d7 3fbe 3871 093d d7d6 4c3e
000000c0: 348e 70be 90cd 553e fef8 053e a149 c1bc
000000d0: c968 8f3e b63d 8d3e e7ec 093e d21d ed3d
000000e0: 9cc1 963d 7e45 e8bd 5ac3 59be 8851 0b3b
000000f0: e08a db3d 3068 093e 0dff a1bd 2ab8 b7bd
00000100: 015a 92bd bd63 53be cda0 5e3e f83a 3bbd
00000110: b324 6a3e 82c4 063e 3e66 26be b658 db3d
00000120: 50ad aebd 8c4d 7e3d f82c 0e3e e127 203e
00000130: 7d98 0b3e 3f50 84be b8d1 4abe 4872 2abc
00000140: 9fd3 663e edbb e5bd 2fd1 20be 4548 3b3e
00000150: c545 c8bc 2733 8cbe c56b f5bd e60d 3f3e
00000160: 38f3 5fbe 48a7 243e a02c 5ebd 3734 0e3e
00000170: 9061 bebb 1753 aebd a964 73bd 30f2 52be
00000180: 9c40 9abe 8382 51bd 87b0 263e beb1 3f3e
00000190: bef8 1d3e ec25 79be 2827 323e 74c5 97be
000001a0: a36f 8fbe 72cd ad3c 3b0d 4a3e 851e c03d
000001b0: 0247 673e 1bd0 b6bd a61d 333d cecd 183d
000001c0: 6bef 21be 0377 87be dd4c 7fbe 1edc 80be
000001d0: 784f 5cbe 5ecb 8c3e ff6d f8bd e857 16be
000001e0: bb6d a03d f690 fc3d 70f4 6dbe 06f3 7a3e
000001f0: 171c 8f3d 8fbe 393e e8dc ae3d 89ae 4c3e
-0.015166515 0.020514103 0.1674077 0.13487151 0.20314845 0.20193094 0.13474052 -0.22847266
-0.2436194 0.25464714 -0.025237499 0.28698543 -0.09073309 0.23043585 -0.30796522 0.16076504
0.15147133 0.2983508 0.26228112 0.26344967 -0.09190397 -0.15254125 -0.015824223 -0.29904792
-0.14795563 0.13024211 -0.23643196 0.016351355 0.0742119 -0.17833208 0.12633118 0.027708838
0.27126205 0.25942358 -0.049561325 -0.2019781 0.07565605 -0.08568269 -0.06387523 0.26122248
-0.17004684 -0.037504654 -0.04787583 0.18306203 -0.30045098 -0.18734655 0.03355524 0.2000383
-0.23491746 0.20879197 0.13083264 -0.02359468 0.28009632 0.27586144 0.13469277 0.115779534
0.07361147 -0.113413796 -0.21265927 0.0021258313 0.10719848 0.1341865 -0.07909975 -0.089706734
-0.07146073 -0.20643516 0.21741028 -0.045710534 0.22865562 0.131609 -0.1624994 0.1071028
-0.085291505 0.062085673 0.13884342 0.15640213 0.13632388 -0.25842473 -0.19806564 -0.010403223
0.22541665 -0.112174846 -0.15704797 0.18289287 -0.024447331 -0.27382776 -0.11983446 0.18657646
-0.21870124 0.16079438 -0.054241776 0.13887106 -0.00580997 -0.08511942 -0.05942217 -0.206002
-0.30127418 -0.051149856 0.16278277 0.18720147 0.15426919 -0.24330872 0.1739775 -0.29642832
-0.2801486 0.021216128 0.1973161 0.09380821 0.22585681 -0.08926412 0.043729447 0.037305646
-0.15813987 -0.26457986 -0.24931665 -0.25167936 -0.2151469 0.27498907 -0.12130355 -0.14681971
0.078334294 0.123323366 -0.23237777 0.24506769 0.069877796 0.18139099 0.08538228 0.19988455

actor.2.weight f4 [64, 128]
00000000: 017a 1f3d 1948 6bbd 6e45 50bc d461 57bd
00000010: 709b 5cbd 028d 283c bfb2 6bbd 2032 fcbc
00000020: 56fc 7a3d c66e 093d 4659 c1bd 82a8 a5bc
00000030: 239a 26bd 891f adbd 1829 483c f33d 9f3d
00000040: 6025 68bd 603c ae3c 5d0e 953d e6ad 8c3d
00000050: 5b80 d83c d418 3dbd e836 d1bb 8a6d abbd
00000060: 4edc b23d 51bc 1b3d 0f3b 9f3d ce51 6b3d
00000070: f1b2 653d 2a77 6abd 7093 3cbd 50b8 743d
00000080: 8955 82bb 6339 f2bc 6b0a 0bbd 6301 193d
00000090: 9acc 24bc 0632 07bd 5c05 c33d f1a7 983d
000000a0: c11a f63c 85a2 5b3d ccd5 ad3c e379 a93d
000000b0: 5206 8cbc 311d 1abd 33d6 463d 8dfc 543d
000000c0: 8070 11bd 7e6f 8ebb 4c86 733c 7c0b b4bd
000000d0: 56de 113d a55a 95bc a7d1 0fbd 10ae 16bd
000000e0: 009e 9fbd e1e2 b03c 2f81 a83d 6e33 bcbd
000000f0: 81d3 a6bd f9d8 2bbd 8f63 d73c 7759 703d
00000100: d144 53bb 458b 1bbc 223d f6bb 788f eb3c
00000110: cef4 bdbc 6ee0 f2bc 19ec 5abc 3f60 4a3d
00000120: 72f0 b73d 841c 853d 3a24 e03c 26aa ce3c
00000130: 5310 9e3d 70ca 0b3d 477e 9c3d b27d a93d
00000140: af05 833b 6a56 7e3d 4ee1 f73a c615 6e3c
00000150: 6772 94bd c4c0 b63d 8b80 80bd d2df 763c
00000160: 110d ba3d 42c9 7f3d 4be0 153d 4cdb 9e3d
00000170: 8a54 d8bc b7ec bf3d 09a8 50bd 4b1a 663d
00000180: e674 42bd 8289 81bd bbd0 593d f0e0 88bd
00000190: 3347 25bd 2184 29bb 138e 7cbd b7bc 423c
000001a0: 858e b1bd f5d9 dabc 866c 613b 3be6 9f3d
000001b0: 4525 63bc c3e1 953c 0805 24bd ae48 513d
000001c0: cfea 263d d254 623d 2a63 d1bc f88a 51bd
000001d0: b986 be3c a7b6 513d 71c6 4abd 84dd 55bd
000001e0: 5fda df3c 7184 8ebc 06b3 4dbd 4d0f 2cbd
000001f0: 4407 de3c f86a 153d e0ed 9c3d 1d06 53bd
00000200: 4180 46bd a801 663c f23a 61bd 9af1 a5bc
00000210: cd37 8dbd 4f33 adbd af54 9cbd 8018 8a3d
00000220: 0a10 553d 93d4 8abd c6df 973c 4589 4c3c
00000230: acc1 423d 38d9 00bb 9e13 993c f20f 62bb
00000240: e79c 033d 09db 473d e5c6 88bd 023c 8bbd
00000250: 720e 033d 7fd4 3c3d 78f4 aa3d 02d9 07bd
00000260: 41b5 63bd 0ccc 7abd 4596 aa3d de64 6dbd
00000270: 7157 5b3d 90d5 583d b85c 2fbd 9765 d43c
00000280: b77d 0f3d 8a25 9fbd 8267 8d3d ed8c 3e3c
00000290: 63ac b23c 9cec 79bd c040 abbd d30b c6bc
000002a0: 4cf5 ed3c d331 283c 562a 44bd b997 a0bd
000002b0: f1f7 823d 409a ce3c 1211 08bd 3379 8cbd
000002c0: 801a 60bd 14e2 dc3c 4370 fbbb de68 2c3c
000002d0: 07a0 813d 3905 d73c 0a47 c2bd e338 ee3c
000002e0: 708b b9bd e491 f7bc 0ec5 a73d 3e87 7d3c
000002f0: 2f1c 833d ae1c 70bd e913 2ebd 8600 3fbc
00000300: 59bc 923d 7d13 dc3c 76e6 863c 3fb8 0bbd
00000310: 39ed 6abd ffa7 0ebd 4480 7a3c d3ba db3b
00000320: 9c13 bcbb ec49 d5bc 5928 993c b815 1c3d
00000330: 10f9 943d 8aa3 d03c 9c0c 953c 5855 253d
00000340: 4e80 0ebd 0627 a3bd 7f96 b2bc f9b7 943d
00000350: aeb2 4dbd 9b10 b63c 8ef8 ac3d 7d01 8dbd
00000360: 144b ed3c a904 1c3d ffbd edbc 32d0 9f3d
00000370: 621f 973d d6ca e93c 6232 e5bc 1b01 30bc
00000380: 2e75 63bd 3061 f53b a8f2 b73d c83d a53c
00000390: 02cb 863d 257e 583d 8345 a3bd 7c3f 323d
000003a0: 5fff b23d 6adb a2bd 17b0 60bb d31f b63c
000003b0: 5ae8 cc3d 11b6 843d 3276 90bd 9f53 0b3b
000003c0: fa80 993d 9d2b a63b 1d18 e03c f833 2d3d
000003d0: 86d4 643d 5dbb cb3c aeb3 49bd 1186 c8bd
000003e0: c321 92bd bfb5 8abc 2042 e3bc c309 1bbd
000003f0: 3c93 373d a8b1 78bd 529e 9fbc 91ed 4a3d
0.03893471 -0.057441805 -0.012711866 -0.05258353 -0.053859174 0.010287525 -0.057543512 -0.03078562
0.061275803 0.033552907 -0.09440856 -0.020221952 -0.04067434 -0.084532805 0.012216829 0.07775488
-0.05667627 0.021269023 0.0727813 0.06869106 0.026428392 -0.046166256 -0.006384719 -0.08370502
0.08733426 0.03802139 0.077749364 0.057451062 0.056078855 -0.05724255 -0.046039045 0.059746087
-0.0039774817 -0.02956838 -0.033945482 0.037354838 -0.010058546 -0.03300669 0.095225066 0.07453907
0.030042054 0.053621788 0.02122011 0.08275201 -0.017092858 -0.037625495 0.04854412 0.051998664
-0.03550768 -0.004346787 0.014863562 -0.08791253 0.035612427 -0.0182317 -0.03511205 -0.036787093
-0.07793808 0.02159256 0.08227765 -0.09189497 -0.0814581 -0.041954968 0.02629259 0.05867907
-0.0032237063 -0.009493654 -0.007514612 0.028754935 -0.023188021 -0.029648032 -0.013361954 0.049408194
0.08981408 0.064995795 0.027361024 0.025227617 0.07717957 0.034128606 0.07641273 0.082759276
0.0039984803 0.06209413 0.001891175 0.014531558 -0.07248383 0.08923486 -0.062745176 0.015068011
0.090845235 0.062447794 0.036590856 0.07756671 -0.026407499 0.09371322 -0.0509415 0.05617742
-0.047474764 -0.06325056 0.053177577 -0.066835284 -0.040351104 -0.0025866108 -0.06165893 0.011885813
-0.086697616 -0.026715258 0.003439696 0.07807585 -0.013863866 0.018296128 -0.04004386 0.051094703
0.040751275 0.055256672 -0.02555998 -0.05115792 0.0232576 0.05119958 -0.049505655 -0.052213207
0.027325807 -0.017397137 -0.05021956 -0.04200678 0.027103074 0.036478966 0.076625586 -0.051519502
-0.048462156 0.014038481 -0.054987855 -0.020256806 -0.06895409 -0.08457052 -0.076333396 0.06742954
0.05201725 -0.067788266 0.01853932 0.0124838995 0.04754798 -0.0019660722 0.018686112 -0.0034494367
0.032132056 0.048792873 -0.06678561 -0.06798555 0.031996198 0.04610109 0.0834741 -0.03316594
-0.05559278 -0.06122975 0.08329443 -0.057957523 0.053550187 0.052938044 -0.042813033 0.025927348
0.035032 -0.07770832 0.06904508 0.011630279 0.021810716 -0.061016664 -0.083619595 -0.02417556
0.02904763 0.010265785 -0.047891937 -0.07841439 0.06394947 0.025220037 -0.033219405 -0.068590544
-0.054712772 0.026963271 -0.0076732947 0.010523049 0.06329351 0.026247608 -0.09486206 0.02907986
-0.09059799 -0.030220933 0.08191882 0.015474139 0.0640186 -0.0586211 -0.042499457 -0.01165784
0.07164831 0.026864761 0.016467314 -0.034111258 -0.05735514 -0.034828182 0.01528937 0.006705621
-0.0057396423 -0.026036225 0.018695997 0.03810665 0.072740674 0.025468607 0.01819449 0.040364593
-0.03479033 -0.079664275 -0.021800278 0.072616525 -0.05021923 0.022224715 0.084458455 -0.068850495
0.028966464 0.03809038 -0.029021261 0.07803382 0.07379033 0.028539103 -0.027978126 -0.010742451
-0.055531673 0.0074883923 0.0898183 0.020171061 0.065816894 0.052854676 -0.07972243 0.043517575
0.087401144 -0.07952006 -0.0034284645 0.022231972 0.10005255 0.06480039 -0.07053794 0.002125956
0.074953035 0.005071117 0.027355248 0.04228589 0.05586674 0.024869615 -0.04924362 -0.09791196
-0.07135346 -0.016932366 -0.027741492 -0.037851106 0.044818148 -0.0607163 -0.019484673 0.049542967

actor.2.bias f4 [64]
00000000: 2497 adbd c202 adbc 23fd 883d 24dc c1bc
00000010: 3155 97bd b06a bbbd 5108 d73c c2f1 8f3d
00000020: c81b 2d3d 44f5 b83c 63e7 df3c 847c 91bd
00000030: 4ad3 a33c 3ca1 91bd 3c45 8a3d 61a7 50bd
00000040: 94ba a1bc 896d 3e3c d762 33bd 9e38 973d
00000050: 2c42 72bd 0acc 5abc 034f 99bd 51eb de3c
00000060: c361 1abd 8dc6 ac3c e685 773c fffe 83bd
00000070: 6fb5 0e3c 3dfa 34bd 0a0e 763d ac2b 83bd
00000080: fa13 253c d34f eb3c 0c20 b23c d23d 0bbd
00000090: 4824 5b3d fefa f43b b366 98bd 40fa 453d
000000a0: 5263 d33b a315 81bd c500 ebbc 10d0 5ebd
000000b0: 9eca 793d 0fa3 8b3d a5fb 98bd 23a7 25bd
000000c0: a175 d43c aaef 413d 0791 093b 7655 87bc
000000d0: 1a91 76bc 209d dcbb ed89 9b3d aa6f a13d
000000e0: cd42 b9bd ff13 9a3d 1f84 70bd f3d5 853c
000000f0: f3e5 86bd 5b49 ff3c dad5 35bd e8ac a1bc
-0.084760934 -0.02111948 0.06688907 -0.023664542 -0.07389296 -0.091512084 0.026249083 0.070285335
0.042262822 0.02257789 0.027332013 -0.071038276 0.019998211 -0.07110831 0.06751487 -0.050940875
-0.019742288 0.011622795 -0.043795433 0.07383846 -0.059145138 -0.013354311 -0.074857734 0.027211817
-0.03769089 0.02109077 0.0151076075 -0.06445121 0.008710249 -0.04418396 0.060071982 -0.06404814
0.010075564 0.028724587 0.021743797 -0.033994503 0.053501397 0.0074762097 -0.07441463 0.04833436
0.006451049 -0.06302955 -0.02868689 -0.054397643 0.060984246 0.0681821 -0.074698724 -0.040442597
0.025934996 0.047347702 0.0020990984 -0.016520243 -0.015049243 -0.006732598 0.07594667 0.07882626
-0.09045944 0.07523345 -0.05871975 0.01633737 -0.06586828 0.031162908 -0.044393398 -0.019735768

actor.4.weight f4 [6, 64]
00000000: 517a 403d d804 a83d bdeb 3b3d 6574 253d
00000010: 4ce1 023d d73a d5bd 7eff 683d 9ff5 6e3d
00000020: 41e7 ab3c e59b 3fbd 0de7 cbb9 cca9 2bbd
00000030: d33b 993d 2b48 fabc 7921 d43d fe43 fd3c
00000040: e2af 9dbd 5591 dbbd 80d3 a3bd ffea c53d
00000050: 4df5 9cbd 3a63 1b3d 1571 913d 80be dd3c
00000060: a637 d8bd 4eb2 953d 9b3c 55bd 48b6 d5bd
00000070: afda cf3c 6b70 31bc f11c 5e3c dded c93d
00000080: c674 41bd 028b c03d 3e8d da3d 882c 9dbb
00000090: 102e 023d 244c 0cbd 3712 a93d 0545 c5bd
000000a0: 480d bcbd 301c 833d bb9f 813d 162e 703c
000000b0: e8e3 ffbd 9829 5dbb 85c6 c9bc 3aaa b7bd
000000c0: 43ed 54bd 09a4 90bb 7e63 82bd 36f9 15bd
000000d0: 8f14 a73c c78f 6c3d e663 c9bd c5dd 503c
000000e0: 9b78 5b3d 489a 7f3d 79ae a3bd 7fea f23d
000000f0: f1c2 1dbc 22d5 df3d 5abc 2ebd a0ce 9e3c
00000100: d9de 163e 9b35 2dbd 022b 833d 34bb 4c3b
00000110: 93cc 78bd 934a d5bd 6c6c de3d a263 56bc
00000120: 7251 ba3d 8fbb 87ba f501 203d 0d7b 6e3d
00000130: c966 c5bc fb09 00be b5d5 193d 3e7b febc
00000140: 658f cc3d 7731 00be d2e0 9c3d 88db f33c
00000150: f253 d4bd 08c5 d7bc d1fa 3dbd df0d 923d
00000160: 2961 10be b905 c13d 969a 9cbd 8a08 35bd
00000170: 75ed 07bd 226e d8bd c825 f63d 3ab8 13bd
00000180: 7ce9 d2bd 9db4 a2bd 5501 b2bd 9fc3 1abd
00000190: f962 033e 132a ef3d 2637 46bd 9c76 dc3c
000001a0: e711 033e 730f bc3d 7c0b 3bbd d540 cfbc
000001b0: 8908 c03a b056 353d 88ed 7cbd 59af 8ebd
000001c0: ccbf 33bd 2042 3d3d d483 fc3d 0769 b83d
000001d0: 290d 8a3d 94c2 793d ab84 22bd 19ae d4bd
000001e0: f524 603d b1df eebc 4d45 6f3d 6ce6 efbd
000001f0: f4d8 0cbe 7060 9cbd f3b9 9ebd 02bf 74bd
00000200: e6bb 1bbd 4ec4 7f3c baea 063e 89c4 e7bd
00000210: 03f0 1fbc 7fb2 063c 2e5c 41bd e192 a53d
00000220: ea1d 043e acc4 c3bc 884c 08ba d3bf c9bd
00000230: 3947 0c3e 1c3f abbd 402a 1dbd b0bb 8b3c
00000240: 6a87 783d 07a5 5fbd fc83 3e3d 54aa 4dbd
00000250: d4f6 9bbd 91e4 56bd a5ba c9bd 0547 ccbc
00000260: 14ed c83d 8c55 40bd bdec 10be ddd9 033e
00000270: c3d0 c6bd a965 b73d fd69 cdbd 2dbf 5c3d
00000280: abee e83c 6451 c9bd 580d c43d 0638 063e
00000290: a568 01be 5e4d 01be a724 083e ab51 acbd
000002a0: ac72 223d 7ed4 843d 57b4 8c3d c2eb 98bd
000002b0: df11 81bc 47e1 1ebd 8038 933d 4ad7 a93d
000002c0: 6e3a 8fbd 51a8 06be 5f0b 783b 6414 0c3c
000002d0: 82b9 823c 6b4d 083e 7e2d 75bd fdea 8bbd
000002e0: 6de8 0e3e 49c8 b9bd cf63 133e e2ce 31bd
000002f0: 2f1a 4b3d e45c 073e 5a94 6fbd aac6 e4bd
00000300: 5923 ffbd 6405 573d b412 723d 0bf1 8a3d
00000310: 3249 33bd 33e4 dbbd d742 f03b b06c a23d
00000320: 45b6 c33b 037d 37bb a8b8 09bc 66e0 90bd
00000330: b902 413d d200 c2bd 72df 04be 6ff3 49bd
00000340: 65c7 ea3d f05b eb3d 935a 1dbd a617 10bc
00000350: d6fb 53bb f906 08bd a107 60bd db08 a6bd
00000360: 9395 a8bc c433 fb3d ab05 61bd aaf1 12be
00000370: a3bf 2eba a5b6 87bd 0637 fc3d ddc5 cbbb
00000380: 745a 0dbe 8583 9e3d ce3e 46bd 76cb 3a3a
00000390: 476b 95bd c189 443d 52db 03be 22f7 7bbd
000003a0: 056c cebd f06c 713d df19 843d d822 d83d
000003b0: f6aa 103d 2cf7 d9bd 70c1 acbd f6f1 86bd
000003c0: 8669 c2ba e7f2 88bd 6cf8 bd3c 4d48 89bd
000003d0: d263 1abd 599d 073d fd9a eeba 2298 6cbd
000003e0: bb39 dabd 083d b73d ed7a 243c 90e5 a33d
000003f0: 9030 ba3d 79b5 943d 2626 d03d 389c df3d
0.04699165 0.08204049 0.045879114 0.040394206 0.03195314 -0.104116134 0.05688428 0.05833971
0.020984294 -0.046779532 -0.00038891323 -0.041909978 0.07482114 -0.03055199 0.10357947 0.03091621
-0.076995626 -0.10721079 -0.07999325 0.096639626 -0.07663975 0.037936427 0.07101647 0.027068377
-0.10557489 0.073093995 -0.05205975 -0.10435158 0.025372831 -0.010830025 0.013556705 0.09859822
-0.047230504 0.09401514 0.10671471 -0.0047965683 0.03178221 -0.0342523 0.08255427 -0.09632305
-0.09182221 0.06401861 0.06329294 0.014659425 -0.124946415 -0.0033746716 -0.024630794 -0.08968015
-0.051984083 -0.0044140858 -0.06366633 -0.03661462 0.020395545 0.057754304 -0.09833507 0.0127481865
0.053581815 0.062402993 -0.079922624 0.11861133 -0.009628997 0.10929324 -0.042660095 0.019385636
0.14733447 -0.04228745 0.064046875 0.0031239511 -0.060741972 -0.104146145 0.108605236 -0.013085278
0.09097566 -0.001035558 0.039064366 0.05822282 -0.024096863 -0.12503807 0.037557323 -0.031064626
0.09988288 -0.1251887 0.076600686 0.029767767 -0.10367574 -0.026339069 -0.046381775 0.07131552
-0.14099564 0.0942492 -0.076466724 -0.044197597 -0.03318544 -0.10567881 0.12018925 -0.036064364
-0.1029844 -0.079446055 -0.0869166 -0.037784215 0.12830724 0.11677947 -0.048392437 0.026912026
0.12799798 0.09182634 -0.04566525 -0.025299469 0.0014650981 0.044272125 -0.061749965 -0.06967039
-0.043884084 0.04620564 0.12329832 0.090044074 0.06740791 0.06097658 -0.039677303 -0.10384769
0.054722745 -0.029159399 0.0584157 -0.11713871 -0.13754636 -0.076355815 -0.07750311 -0.05975247
-0.03802099 0.0156107675 0.13175479 -0.11316783 -0.009761813 0.008221268 -0.04720705 0.080846556
0.12902036 -0.023897491 -0.00051993923 -0.09851041 0.13699044 -0.083616465 -0.03837037 0.01705727
0.060676016 -0.05460074 0.04651259 -0.050211266 -0.07615438 -0.05246407 -0.09850053 -0.024936209
0.09810844 -0.046956584 -0.14152808 0.12876077 -0.09707787 0.08954937 -0.10029981 0.053893257
0.028434118 -0.09829977 0.095728576 0.13107309 -0.12637575 -0.1262717 0.13295232 -0.084140144
0.03966014 0.06485842 0.068703346 -0.07466842 -0.015755592 -0.03878906 0.07188511 0.08293016
-0.069935665 -0.13150145 0.0037848575 0.008549783 0.015957598 0.13310783 -0.059857838 -0.0683193
0.13955851 -0.090714045 0.14393543 -0.04341019 0.049585517 0.13219029 -0.05849109 -0.11170705
-0.12457914 0.052495375 0.059099868 0.067842565 -0.043770976 -0.10736885 0.0073321867 0.07930887
0.005972656 -0.0027998097 -0.008405842 -0.070740506 0.047121737 -0.09472813 -0.12975863 -0.049304422
0.11463813 0.11492145 -0.038416456 -0.008794701 -0.003234615 -0.033209775 -0.054694775 -0.08107158
-0.020579135 0.12265733 -0.054937046 -0.1435 -0.00066661293 -0.066266336 0.123151824 -0.0062186555
-0.13804036 0.07739929 -0.04839974 0.0007125655 -0.07295852 0.047982935 -0.12876633 -0.06151498
-0.10079197 0.05894178 0.06450247 0.10553521 0.03531929 -0.106428474 -0.08435333 -0.06589119
-0.0014832474 -0.06686955 0.023189746 -0.067032434 -0.037692852 0.033109043 -0.0018204149 -0.057762273
-0.106555425 0.08947188 0.010039073 0.0800277 0.09091294 0.07261176 0.10163526 0.10918468

actor.4.bias f4 [6]
00000000: 03f4 f13d fe60 0d3d 5688 9fbd 756a 47bd
00000010: 51fe df3d b891 fdbb
0.1181412 0.034516327 -0.07789676 -0.04868551 0.10937179 -0.0077383183

critic.0.weight f4 [128, 12]
00000000: d352 9b3d d1ee 09be f0e7 8f3e d6ec a5be
00000010: 9a1a f0bc 2ca9 ef3d faf2 76be 0602 a03e
00000020: 6e02 153e 998e 1cbe 7427 143e 4e91 7cbe
00000030: b998 b0bc 22b1 8abd f98b babc 82e2 b3be
00000040: 17f1 85be 8d7b 48be ddd6 803e e117 40be
00000050: 6e70 96bd 051f 06bb d0a5 433e ccd3 edbd
00000060: c90b 80be fe9e 8a3d ca27 66be 3f38 fa3c
00000070: e838 06be c31f 45be f4d9 45bd 9f8e 2bbe
00000080: 0426 dc3e ece1 6c3e 13f6 4b3d bc0f a23e
00000090: 9298 2abe e047 363c be65 433e c861 e43d
000000a0: 4306 dc3d d765 7bbe 6b0e 953e cdf6 473d
000000b0: 0311 853d 78ed 8f3e ac0f 373e 98b6 123e
000000c0: 023f 3c3a 1f36 043e 0b7f 2a3e ee03 0b3e
000000d0: e3a2 f73d d603 613e 9b77 24bd da7d c93d
000000e0: 1673 913e a8fe d7bd 7f40 8f3e 77b0 4d3e
000000f0: e7de 2bbe 4c35 6d3d 9c4b 0cbe 369c a93e
00000100: 7b8c 813e dc31 453e dd15 18be 46b9 8c3e
00000110: 8c43 2f3e f56a 65be c933 a83d 30cb 80be
00000120: 31eb 053e 8cb6 933e cbf6 e5bd a663 de3d
00000130: efcf a43e f2a2 dd3d 5404 863d c24e 393e
00000140: a89d fb3d c594 013e a86e 02be b333 693e
00000150: 0915 3d3e 909f 99be 4dbd edbd dbd9 5bbb
00000160: 1004 cf3d 91c9 4ebe e233 173b 0da5 30bd
00000170: 8e47 dcbc a8f0 7fbe bece 943d 0c91 5fbd
00000180: c92f 7dbe c957 4c3d c577 ae3e 6986 6a3e
00000190: 6906 a63d 9b25 2b3d 54da 43bd acb3 133e
000001a0: 9f0e 33bd 0267 b6bd cebf 52be ac2b f3bc
000001b0: aa37 66bd b5b8 193e bcee e13c 16e8 3c3e
000001c0: 8b38 9d3d b1b2 86be d30d 2dbe 967a 7cbe
000001d0: 852f b03e 86cb bd3d 54f1 203e ea3f 1bbe
000001e0: dfab be3d 972f 91be 1365 a0bd 62ec 68be
000001f0: 0df7 7a3e c679 5ebe 3946 27be ee3d 553d
00000200: 8ed3 523e 9064 683e 482e b33b c72e 5ebe
00000210: bfa4 6f3e d5ba f53d 278a 0b3e 7b0e 873e
00000220: 54f9 663d c911 bf3d 22e0 613d e3db 0dbe
00000230: c44c cebc b4dc c1bd 53cb 82bc 0e4f 80be
00000240: e941 81be bf56 a73e 8a1c 45bd 7d21 a5bd
00000250: c746 4abd 05a0 713e 29a7 6ebe 6ed2 c43c
00000260: 0298 abbd 93b3 7cbe 5424 723e 2a95 83be
00000270: da1b 46bd 27bf a93e 492a 7dbe 075a 353e
00000280: 5787 77be a8c3 b13d 88b5 ab3d eb65 89be
00000290: 0a61 1e3e eebb 5a3e e61f 9c3d df7e 623e
000002a0: af9b 9a3d dc1c 2c3e eb6f 36be c658 94bd
000002b0: a3e8 ccbd e60b 75be d2e3 f83b 82b7 35be
000002c0: 43ad ab3c 4160 90be 2763 3d3d ee7f 133c
000002d0: 38ab d9bd 094a 333e 4a6d bebe 5c5a 413e
000002e0: a968 31be db11 eb3d 0510 4abd c4e1 97be
000002f0: 6604 ba3c 1ffb 8bbc faca c5be 3be1 5d3e
00000300: 9be1 f6bd 0430 503e 937f 163e f345 373e
00000310: 4852 4ebe e8fa 383e d02c 623e bae3 6f3d
00000320: 6385 163e d9e8 463e 468f 82bd 28be 043e
00000330: 4623 5a3c 9ad1 d33d 4cf3 353d 21bf 023d
00000340: 24b1 193c 056b 79be 1941 86be 9bc9 823e
00000350: aedb c53c ff73 683e 27a9 433e 7fb9 3bbd
00000360: 947f 79be ed56 9c3e 7137 aabc 6091 62be
00000370: ef59 52be c22c 52be a09a 72be bc60 2cbe
00000380: 724a 583e 76e8 54bc 3a0d 06be 593c 893d
00000390: 3316 7fbe 91be 923d 53ff 1e3e c8ce 4b3e
000003a0: 9f04 843d 4fe4 c5bd 5680 6abe d68a ba3c
000003b0: cad0 aebc 81a3 20bc 06ea 0ebe 7e07 3cbd
000003c0: 7dd4 143e ea70 493c fe9e 0bbe b452 ab3e
000003d0: c710 e03d c8b6 75be 5870 a3bd 15fd 033e
000003e0: 80aa 603d 8d51 16bd e236 833e 9062 8e3e
000003f0: f0fc 313e a16e f93d df23 6fbe 1b45 a63e
0.07584157 -0.13470007 0.28106642 -0.32407254 -0.02930956 0.11702189 -0.24116126 0.31251544
0.14551708 -0.15288772 0.14468175 -0.24664804 -0.021557199 -0.06772067 -0.022771822 -0.3513375
-0.261605 -0.19578381 0.25163928 -0.18759109 -0.07345663 -0.0020465266 0.19106221 -0.11612663
-0.2500899 0.067686066 -0.22476116 0.030544398 -0.13107646 -0.19250397 -0.04830356 -0.16753624
0.42997754 0.23133057 0.04979522 0.3165263 -0.16659763 0.011125535 0.1908178 0.11151463
0.10743382 -0.24550568 0.29112563 0.048819352 0.06497385 0.28110862 0.17877072 0.14327466
0.000718102 0.1291127 0.16650026 0.13575718 0.12091615 0.2197412 -0.040153127 0.098384574
0.28408116 -0.10546619 0.27978894 0.20086847 -0.16784249 0.057912156 -0.13700718 0.33126992
0.2530249 0.19257301 -0.1485209 0.27485102 0.17115611 -0.22404082 0.08213002 -0.2515502
0.13078 0.2885021 -0.11228713 0.1085885 0.3218989 0.10822095 0.06543794 0.1809645
0.1228593 0.12654407 -0.12737525 0.22773628 0.18465056 -0.3000455 -0.11608372 -0.00335466
0.10108197 -0.20194079 0.0023071696 -0.043126155 -0.026889589 -0.24994147 0.072659954 -0.054581687
-0.2472526 0.049888406 0.34075752 0.22902836 0.081066914 0.04178391 -0.047815636 0.14424008
-0.043715116 -0.08906366 -0.2058098 -0.02968391 -0.05620543 0.15011866 0.027579658 0.18447909
0.076768 -0.26308206 -0.16899805 -0.24656138 0.34411255 0.09267335 0.1571706 -0.151611
0.093101256 -0.2835662 -0.078317784 -0.22746423 0.24508305 -0.2172614 -0.16335382 0.052061014
0.20588514 0.22694612 0.0054681636 -0.21697532 0.2340269 0.11998526 0.1362692 0.26378235
0.05639012 0.09329564 0.05514539 -0.13853411 -0.02518309 -0.09465924 -0.015966093 -0.25060314
-0.25245598 0.3268337 -0.04812292 -0.08063028 -0.049383905 0.23596199 -0.23305954 0.024026122
-0.083786026 -0.24677877 0.2364667 -0.2569974 -0.048366405 0.3315365 -0.24723162 0.17710124
-0.24172722 0.086798966 0.08384234 -0.2683557 0.15466705 0.21360752 0.07623272 0.2211871
0.075492255 0.16807884 -0.17816131 -0.07243495 -0.100053094 -0.2393032 0.0075955177 -0.17745784
0.020956641 -0.28198436 0.046237137 0.009002669 -0.106283605 0.17508711 -0.37192756 0.18882126
-0.17325081 0.11478015 -0.049331684 -0.29664433 0.022707175 -0.017087517 -0.3863142 0.2166795
-0.120547496 0.20330817 0.14697103 0.17897777 -0.20148575 0.18064463 0.22087407 0.058566786
0.1469932 0.19424762 -0.063749835 0.12963164 0.013314074 0.10342713 0.04442148 0.031920556
0.0093806125 -0.24357231 -0.2622154 0.25544438 0.024152603 0.22700499 0.19107495 -0.0458312
-0.24365073 0.3053507 -0.02077839 -0.22125769 -0.2054212 -0.20524886 -0.23691797 -0.16833776
0.21122149 -0.012994876 -0.13090983 0.067009635 -0.24910812 0.07165254 0.15527086 0.199031
0.06446194 -0.09662687 -0.22900519 0.02277128 -0.021339793 -0.009804607 -0.1395646 -0.045905583
0.14534183 0.012294987 -0.1363487 0.33461535 0.109407 -0.23995507 -0.07980412 0.12889512
0.0548501 -0.036698867 0.2562781 0.27809572 0.17381644 0.12179304 -0.23353527 0.32474598

critic.0.bias f4 [128]
00000000: 61ac 783d 4170 a23d d07a 313e 39d8 653e
00000010: e4a7 b8ba 0377 98bd 4cb6 65bd a887 783e
00000020: c009 4d3e 207b debc 6655 3cbe bf96 883d
00000030: 1b37 8a3d d879 7bbe cf89 02be 1648 fdbc
00000040: b067 6f3e 55f1 22be 3fb0 973d 6b11 9dbc
00000050: f7ca e23d 2fc6 773e b981 7ebe bea0 083e
00000060: 07c5 523d 70bf eb3c c859 8dbe 8e00 9c3e
00000070: 40ed 203e 9c1a 83be e6e8 69be a849 8b3c
00000080: 2eec 09be 1a8b 853e 3915 e63d 7f30 133e
00000090: 3f0e d9bc e8f0 1d3c 43b2 3ebe d476 843e
000000a0: 8e6d 8ebe a9d4 f2bd b3f8 8b3d a6ba 773e
000000b0: ee27 e23d 5725 31be 81b2 20be b2ee 003e
000000c0: 4697 3cbe bd94 0cbd e1c3 5abe 13ea 92bb
000000d0: 95d3 dd3d 4b70 89be 436a 34be 30c2 593e
000000e0: 4a4b 673e 01ac 403e e4db 4c3e cf46 ad3e
000000f0: 2b80 9dbe 37b2 7ebd 4e81 efbb 7743 6e3e
00000100: 7a7c 2abc a4e9 9a3d 5549 073e 21bf c1bd
00000110: 5410 c5bd f444 163d cfe2 54be b7ad cabd
00000120: 1a40 a03d 4401 97be e2f5 bbbc 4f05 f03d
00000130: 274d 8fbe 2a30 9a3c 037f 023e 975a fa3d
00000140: 03ee ac3c b586 7d3e 66b3 a9bb 7581 513d
00000150: 9047 453e 6314 96be 4f27 1ebe 420a 07be
00000160: ffb8 793e 5a57 9b3d c9ff 073d ca54 38be
00000170: adbf 13be 2fa4 c73d d001 a3bd 9f59 353e
00000180: 3da8 d53d 9567 cbba 8bae 80bd a590 0fbe
00000190: 30dd b83d 1269 c83b cbcd d2bc 9e2b 2e3e
000001a0: d548 26bd e948 21be f5b0 68be c494 183d
000001b0: 57b6 903c 8a39 bebd 9971 623e da51 94be
000001c0: f36b 303e e34e 12be 1e9d b6be 8765 aa3d
000001d0: 26f1 e3ba d302 ed3d 5564 f4bd eb09 0a3e
000001e0: e726 c0be 7b57 8b3e 3499 44be 8944 113d
000001f0: ca02 88be 8bd2 67be 3a8a cdbc cedd 583e
0.06071127 0.07931567 0.17332006 0.22445764 -0.0014088121 -0.07444575 -0.056082055 0.24270499
0.2002325 -0.02715832 -0.18391952 0.066693775 0.06748792 -0.24558198 -0.12747882 -0.030918162
0.23379397 -0.15912373 0.07406663 -0.019173345 0.11073869 0.24196695 -0.24854173 0.13342568
0.05145743 0.028777808 -0.2760756 0.30469173 0.15715504 -0.2560624 -0.2284275 0.017002895
-0.13469002 0.2608269 0.11234517 0.14373969 -0.02649605 0.009639956 -0.18622689 0.2587191
-0.2781796 -0.11856968 0.06834545 0.24192294 0.11042772 -0.172994 -0.15693094 0.12591055
-0.18417081 -0.034321535 -0.21363784 -0.00448347 0.10831372 -0.26843485 -0.1761866 0.21265483
0.22587314 0.18815614 0.20005757 0.33843085 -0.30761847 -0.062181678 -0.0073091155 0.23267923
-0.010405654 0.07564095 0.13211568 -0.09460283 -0.09622255 0.036686853 -0.20789646 -0.09896415
0.078247264 -0.29493153 -0.022944394 0.117197625 -0.2798855 0.018821795 0.12743764 0.1222431
0.021109587 0.24758418 -0.0051788567 0.05114885 0.1926558 -0.2931243 -0.15444683 -0.13187507
0.24386977 0.0758502 0.03320292 -0.18001094 -0.14428587 0.097481124 -0.0795933 0.17709969
0.104324795 -0.0015518541 -0.062832914 -0.14020021 0.09026563 0.006116041 -0.025732895 0.17008826
-0.0405968 -0.1575047 -0.22723754 0.03725125 0.017665071 -0.092883185 0.22113647 -0.28968698
0.1722868 -0.14287905 -0.35666746 0.08320146 -0.0017390593 0.11572804 -0.11933199 0.13480346
-0.3752968 0.2721518 -0.19199067 0.03546575 -0.26564628 -0.2263891 -0.025090326 0.21178362

critic.2.weight f4 [64, 128]
00000000: f7b7 323d 9331 053d bf86 8c3d 9c74 50bd
00000010: 434b e4bd 3b44 c2bc e426 da3d a0dd 44be
00000020: 8586 ccbc d977 a0bd 2624 47bd 2e5a a9bd
00000030: 831d ce3d faf1 4dbc 7dd9 31bd 7ec4 223c
00000040: b1a8 073d 8610 adbd bcf7 37bd 9544 7a3c
00000050: b5c1 6e3d 1702 c13c f91b e0bc cbbf 813d
00000060: 6ddf 3bbd 2a84 e9bc cff8 97bd eb7a 513d
00000070: 356d edbc 0f7f 16bc 7ba7 c5bd b4cc 8ebd
00000080: f3e9 13bd c67e 6a3c 6a2b 11be caf6 36bd
00000090: 3cb9 69bd 8d2f d63d 67de 8abd 3830 21be
000000a0: 70df c3bb 2315 35bd f0ce 833d eb8c 6f3c
000000b0: 9f2e a33c f896 2d3c c32c e03d 2704 61bd
000000c0: 4b66 713d 0890 86bd 526b dfbd 28f8 e53b
000000d0: e05a 943d b1a8 443d 7226 b83c 5072 06bd
000000e0: 6b1c 363c 5a67 57bd b2b2 1a3d b013 133d
000000f0: c5b1 173d 2433 373c 220f e3bc ae36 023d
00000100: ecdd 4a3d 7c2d 99bd e202 a03d f150 9b3d
00000110: 95f0 e93c 4294 fb3c 7ef0 8a3d 8a19 c73c
00000120: c3d7 8b3d 1e8c ccbc f945 c13d ac90 573d
00000130: 6b1f febb 5cd9 d43d 33bb ea3c 1e8d 44bd
00000140: 9f5a 443d 86aa 4c3d adce 8dbd 60ff 063d
00000150: bed5 93bd 9a79 713d caca 86bd f828 603d
00000160: e9ec 46bd b25e abbd 88f6 393d 8e3c ecbd
00000170: 5610 be3d f069 1a3d c274 083e 8bf3 5d3d
00000180: fbe1 69bd d15e f93c 1984 3c3d 1bb1 623d
00000190: 7400 843b 012c e2bd 1ad6 593d c43a 8abd
000001a0: 16fc 7f3c e70b bbbc c7cb 83bc 0376 1dbd
000001b0: 7287 2cbd 5c3a b0bc 7e1e fb3d 36f9 0abd
000001c0: c14e 9e3c 90e1 873d 213b 863c 36bf 10bd
000001d0: 0b5b 88bd c640 1fbc 4924 a93d 70da c8bc
000001e0: 16d1 83bd 6846 31bd df82 543d e283 c23d
000001f0: a8a7 6c3c 2148 aa3c a328 303d 263e 6fbd
00000200: 8ce0 083d 6a1c 40bd 2d08 b6bd f769 be3c
00000210: 73cd d73d 3e49 253d 7501 333c ab24 303e
00000220: a0ae f53c cfa6 3d3d c7fc 0e3d d097 8e3b
00000230: 3a89 5e3d 07d5 7dbd 7b2a 4fbd 141b 713d
00000240: 6bd1 c3bd 3ed7 2fbd 8db1 b8bd be6f 88bc
00000250: 3434 703b 8588 37bd caa0 b33d 5c77 aabd
00000260: c620 ca3d 6caa 6b3c 7e3b 113d 46ce 0a3d
00000270: 712b cfbd 0e85 8b3d 8be3 813d 4c99 a53d
00000280: 11cb 4e3d 0149 b0bc 72e0 0a3e 0fd2 833d
00000290: 358d 023d 8a62 e8b7 f60f 91bd be63 2e3d
000002a0: 35d6 c93d 45c0 7a3d c55a 423d 38e1 10bc
000002b0: 984d 963c 6e72 513d 31c1 44bd f455 fa3d
000002c0: 5b81 98bd b24d f63d 7cc6 32bd a551 7f3c
000002d0: 29d2 96bd e0af b13d 2846 24b9 ffaf d73b
000002e0: a1f9 b93c b0e8 363a f50d b23c 2bdc 75bd
000002f0: fffd f23d 6a5d 6fbc 8839 873d c78d eb3c
00000300: 49e0 ae3d a79a ee3d 317a a3bd 8326 4d3d
00000310: de20 31bd f59d 3b3d 3339 883d 39ef 053b
00000320: c8da 663d b3ed 603d d3a5 d83c 5dfa bcbc
00000330: 313b b33c cd4e 94ba bb60 bbbd e896 e13d
00000340: f786 c13c 89c0 1abd 4d08 803c c06c 173d
00000350: a017 7d3d 7490 0a3d 11b2 613d d5e3 7b3d
00000360: 4ff8 ce3c c6e5 a33c 6d30 2fbe b095 43bd
00000370: 52c3 1cbe f2da ca3c 7d10 c0bd 1c4d 2abd
00000380: ce04 23bb 5ddc 1abb 124b 99bc a5fe 4bbe
00000390: f9ad a23d 5e06 1c3e ae81 5639 44e6 f93c
000003a0: cf15 7ebd d2c9 babd 35c3 e13d 3758 af3b
000003b0: 501b 063d 1c62 0b3d eeff 0abc 940b d73d
000003c0: bcfe 5dbc 2d0b 02bd 0e65 81bd 7833 99bc
000003d0: 302d 53bd c57b 553d c248 10be c0e6 a03d
000003e0: d773 4ebc 6c7c bd3c e67a 26be a65e 37bd
000003f0: cefc d83d 1f3f 4dbd 3dcf 803c 0529 6b3d
0.043632474 0.03251798 0.06861638 -0.050892457 -0.111471675 -0.023714175 0.10651949 -0.19225168
-0.024966488 -0.07835359 -0.04861846 -0.082691535 0.10064223 -0.012569899 -0.043420304 0.009934543
0.03311986 -0.08450417 -0.044913992 0.01527514 0.058290202 0.023560567 -0.027357088 0.0633541
-0.045867372 -0.028505404 -0.07420503 0.051142614 -0.028982738 -0.009185567 -0.09651085 -0.06972638
-0.036111783 0.014312452 -0.14176717 -0.04466895 -0.05706142 0.10458288 -0.06780701 -0.1574105
-0.0059775636 -0.04420961 0.064359546 0.014621 0.019919692 0.010595076 0.109460376 -0.0549356
0.058935445 -0.065704405 -0.109091416 0.007018108 0.072438955 0.04801244 0.02247927 -0.03282386
0.011115174 -0.052588798 0.037768073 0.035907447 0.03703477 0.0111816265 -0.027717177 0.031790428
0.049528047 -0.074793786 0.0781305 0.07583798 0.028557101 0.030710343 0.067841515 0.02430417
0.06828263 -0.024969157 0.09437174 0.052628204 -0.00775521 0.103930205 0.028653717 -0.047986142
0.047937986 0.04996731 -0.06924186 0.03295839 -0.072185025 0.05895386 -0.06581648 0.05472657
-0.04856578 -0.08367671 0.045401126 -0.115349874 0.092804596 0.037698686 0.1332579 0.05418734
-0.057100277 0.03044072 0.046024416 0.055344682 0.0040283743 -0.11043549 0.0531827 -0.0674949
0.015624067 -0.022832824 -0.01608838 -0.038442623 -0.04212136 -0.021512203 0.12261675 -0.033929072
0.019324662 0.066348195 0.016385617 -0.035338603 -0.0665799 -0.009720033 0.08258874 -0.024518222
-0.06436364 -0.043280035 0.05188262 0.09497811 0.014444269 0.020786347 0.043007504 -0.05840888
0.03341727 -0.046902098 -0.08888278 0.023243887 0.10537233 0.040353052 0.01092564 0.17201488
0.029990494 0.04630166 0.034909036 0.0043515936 0.05433009 -0.061970737 -0.050577622 0.058863714
-0.09561428 -0.04292988 -0.0901824 -0.016654845 0.003665221 -0.04480793 0.087709025 -0.08323547
0.09869532 0.014383893 0.035457127 0.033888124 -0.10115708 0.068124875 0.063422285 0.0808588
0.050486628 -0.021519186 0.13562182 0.0643655 0.031872947 -2.7702441e-05 -0.070831224 0.04257559
0.0985531 0.06121852 0.047449846 -0.008842759 0.018347546 0.05113452 -0.048035804 0.122234255
-0.074465476 0.12026538 -0.04364632 0.01558343 -0.073643036 0.086761236 -0.00015666394 0.0065822597
0.02270204 0.0006977422 0.02173517 -0.06002442 0.11864852 -0.014609674 0.0660277 0.028754128
0.08538873 0.11650591 -0.079822905 0.050085556 -0.043244235 0.045804936 0.06651535 0.0020436777
0.05636099 0.054914188 0.026446259 -0.023068601 0.02187881 -0.0011314988 -0.09149309 0.11015111
0.023623927 -0.037781272 0.015628958 0.036968946 0.06179011 0.033829167 0.055101458 0.061496574
0.025264887 0.020007025 -0.17108317 -0.047750175 -0.15308884 0.024762604 -0.09378145 -0.041577443
-0.002487469 -0.0023629882 -0.018712554 -0.19921358 0.07943339 0.15236804 0.0002045694 0.030505307
-0.062032517 -0.091205254 0.11023561 0.005351092 0.03274089 0.03402911 -0.00848387 0.10500255
-0.013549503 -0.03174894 -0.06318103 -0.0187013 -0.051556766 0.05211999 -0.14090255 0.07856512
-0.012600861 0.023130618 -0.1625782 -0.044768 0.10595094 -0.050109025 0.015723819 0.057412166

critic.2.bias f4 [64]
00000000: 5853 5c3c 48ec 083c 3cad ae3c 4462 973c
00000010: 0e08 7dbb 59fa 803d da47 a33c 7aa1 2bbd
00000020: 057b 9fbd 8d1b 27bd a94b 8ebc 3947 473d
00000030: 90af e43d 29ec 3c3d 52c8 79b8 5433 563c
00000040: 7efc f13d d706 27bd 49d0 8bbd 1918 0e3d
00000050: 2699 ac3d 2d7e 63bd 2e22 92bd 89b4 c9bd
00000060: b3dc 263d 2443 813c e316 c3bb c837 4f3c
00000070: 164e cf3b c418 343d 2c46 933d 61bb 83bc
00000080: d7cc 94bc e752 f23d 6e74 163d 7e13 3f3a
00000090: 2572 72bd f1cc 60bd 8d79 b23b ef27 9abd
000000a0: 30a7 ef3c 1354 8cbc 2d2a a33c 102d 513d
000000b0: 039d 343b 705d ab3d f297 1abd 711c e8bd
000000c0: 3285 863d 12bd 78bd dc61 993d cf41 a73d
000000d0: 54c6 3e3b e1dd 443d df25 87bd b92f a6bd
000000e0: fb9a 26bd 67ab 77bd fcc7 c7bd ba6a 38bd
000000f0: 810d 80bd 9baf 53bc dd25 883c da80 1ebc
0.013447605 0.008357115 0.021322839 0.018479474 -0.0038609537 0.0629775 0.019931722 -0.041902043
-0.07787136 -0.04079776 -0.017370062 0.048651908 0.111662984 0.046123657 -5.955279e-05 0.013073761
0.11815737 -0.040778007 -0.068268366 0.03469095 0.08427648 -0.055540252 -0.071354255 -0.098488875
0.04073782 0.015779085 -0.005953656 0.012647577 0.0063264472 0.04396893 0.071911186 -0.01608056
-0.018164081 0.118322186 0.03673213 0.00072889763 -0.059190888 -0.054882947 0.005446619 -0.07527148
0.029254526 -0.017129933 0.019917572 0.051068366 0.0027559407 0.08367431 -0.037742563 -0.1133355
0.06568374 -0.060727187 0.07489368 0.08166849 0.0029109912 0.048063163 -0.0659902 -0.08114571
-0.040675145 -0.060466196 -0.09754941 -0.045023657 -0.06252576 -0.012920286 0.016619617 -0.009674275

critic.4.weight f4 [1, 64]
00000000: 9d05 15be 8f14 e93d e1a1 00be 8ace e33d
00000010: fdce d7bd 11bd 0f3e 851c de3d 85ec bbbd
00000020: 446a f0bd 6bb1 cd3d d47d f63d d1d3 083e
00000030: 78aa fa3d e8b7 c3bd 6733 de3d 2f7c ba3d
00000040: 1634 f03d 34b9 e43d fe4a 97bd fac3 0f3e
00000050: a394 30be d83c d3bd 02a3 fdbd 845d 0a3e
00000060: 097d 053e a901 013e 8434 933d b61b 96bd
00000070: 550b 22be f031 84bd eede 0d3e 0e78 07be
00000080: c2c7 393e 05f5 813c f48d b43d 2cf8 18be
00000090: 6ad4 533e 0544 c5bd 7313 7abd e548 dfbd
000000a0: 277d 05be 6831 f2bd 8e98 883d 0abb 153e
000000b0: cd0a 15be d6a2 edbd e60f e73d 08b8 07be
000000c0: 826f 27be 6252 0cbe c6b7 b3bd 2761 93bd
000000d0: 8d8f 03be 8a28 0e3e 02b6 13be 600f 003e
000000e0: 5b13 b13d 53b6 27be 4bc2 97bd 2b21 9dbd
000000f0: 4956 41be 4fb2 75bd fa59 bb3d 24ab 59bd
-0.14552923 0.11380874 -0.12561752 0.111233786 -0.10537527 0.14036967 0.108452834 -0.09175972
-0.117390186 0.100436054 0.120357186 0.13362052 0.122395456 -0.09556562 0.10849648 0.091057174
0.117286846 0.11168137 -0.073873505 0.14039603 -0.172442 -0.103143394 -0.12384607 0.13512236
0.13035978 0.1259829 0.07187751 -0.07329504 -0.15824635 -0.06454837 0.13854572 -0.13229391
0.18142608 0.015863905 0.08816138 -0.1493842 0.20686498 -0.09632114 -0.061053704 -0.109025754
-0.13036023 -0.1182583 0.066697225 0.14622131 -0.14554901 -0.11603324 0.11282329 -0.13253796
-0.1635113 -0.13703302 -0.087752864 -0.07196265 -0.12847729 0.13882652 -0.14424899 0.12505865
0.0864627 -0.16378145 -0.07410105 -0.07672342 -0.18880571 -0.0599845 0.09148021 -0.053141728

exp_avg f4 [128, 12]
00000000: 547e 7cb9 6e2d a23b 60e2 3339 aabe 39bb
00000010: 0678 41bb 2b50 26b9 2768 5838 274a f8b9
00000020: 4282 0fba 0000 0000 04a3 9839 fd83 4bb9
00000030: b7ef d839 e929 8c3b c7b8 98bb aa23 8a3b
00000040: abf0 703a 3355 66b9 0040 0238 9d11 2aba
00000050: d51e 533a 0000 0000 591e a4ba 1ed3 5a3a
00000060: d6fa b5b9 2385 74bb 612b 853b dc7a 6abb
00000070: 47c1 13ba 674b 0a39 679a 48b7 3a30 133a
00000080: 83eb 36ba 0000 0000 92a1 903a 6dd7 40ba
00000090: a88f 70ba 0bd9 d9bb b06c e83b dc20 cabb
000000a0: 515c c1ba c3af 243a 80ab d6b8 219d 823a
000000b0: 7ad5 9cba 0000 0000 9f90 f53a bfb5 a3ba
000000c0: 1fe4 453a 3698 fe3a d04e b5bb f9b3 db3b
000000d0: 337b 413b 4805 dbb7 31ec fb37 0bbe 01ba
000000e0: cede aa3a 0000 0000 6a40 e2ba 9ed5 963a
000000f0: aaf7 d9ba 0f30 4ebc dfa4 4d3c 9924 32bc
00000100: 93d7 3ebb 556e ad3a fb15 7cb9 c962 f33a
00000110: 7b11 07bb 0000 0000 5267 563b 8bef 0ebb
00000120: 3e72 b83a 0264 dc3b 1562 1cbc 2fc1 1e3c
00000130: 7f92 713b 06e9 6eba f365 0b39 0fd5 90ba
00000140: 70c6 ee3a 0000 0000 e21b 28bb 2d25 e03a
00000150: 2db5 80ba b56e 58bc 018a 2f3c 8e16 00bc
00000160: 21b6 f2b8 4751 213a 2f8b 02b9 22ea ed3a
00000170: a8ef c3ba 0000 0000 d27b 313b 16a5 ecba
00000180: 10f6 7d39 1790 2ebb fa77 39ba 5839 113b
00000190: 42ce ee3a 58a9 adb8 e1ec 17b8 6437 6c39
000001a0: 4156 f239 0000 0000 46ed dcb9 d948 9339
000001b0: 6d0e ec38 c6d4 85bb 14ab b53a f7f4 bd37
000001c0: 0f7a 953a 1e15 7db8 d059 39b8 e36c 053a
000001d0: cb0a 3cb6 0000 0000 3bab a939 a939 62b9
000001e0: c873 15b9 62e2 d5ba 3b04 2c3b bb25 1ebb
000001f0: 3c91 b5b9 3924 5739 038c 2a38 7a4c 8639
00000200: 9b58 03ba 0000 0000 22ff 3a3a 2c54 f9b9
00000210: 5553 1c3a f1c5 8f3b d544 59bb 84b3 173b
00000220: bbfb 8f39 9d25 b4b9 0df0 dc38 ab95 1bba
00000230: ea21 e039 0000 0000 63f0 4eba 96f5 093a
00000240: 1c1d b8ba a805 d1bb e47c 353c 39fa 40bc
00000250: 6a53 8dbb 1019 383a f79b 90b8 5cb5 983a
00000260: f908 16bb 0000 0000 80b9 503b 5426 0bbb
00000270: e999 3938 4f15 3db9 ee95 0cb9 2740 f039
00000280: 2f4c e339 cc42 7138 6274 db36 0fd8 be36
00000290: 438d 6a38 0000 0000 e372 17b8 7dee c937
000002a0: 48ea 57ba 71e4 89ba dc3a 653b 2bac 8cbb
000002b0: d1ec 1abb c114 a039 b79f a1b8 6c45 8c39
000002c0: cc02 50ba 0000 0000 66f3 7b3a 9bf7 27ba
000002d0: 8ba2 82b9 13b0 d6ba 16aa bf3a 166f 8dba
000002e0: 6247 97b9 2b51 9739 e0b9 31b8 f7a4 6f39
000002f0: a59c 5ab9 0000 0000 ce1c b539 bf7b 71b9
00000300: 8de8 3aba 59df 96bb bb4d cf3b d5e6 cabb
00000310: d0cb 0abb 0a64 493a d6cd 75b8 cc20 413a
00000320: 10c4 9cba 0000 0000 45fb dd3a d8fc 93ba
00000330: 2b18 053a fa14 0d3b 02b4 43bb 93a6 4b3b
00000340: d40e a53a 2bcb 17b9 edd7 8238 6f1e c4b9
00000350: 6988 173a 0000 0000 3785 58ba d058 103a
00000360: e717 953a 4f42 d83b d10b 0abc 4f6f 063c
00000370: f23f 403b 64dc 5cba d3c7 0839 4f73 8bba
00000380: 47b2 cc3a 0000 0000 d5b0 15bb 6f96 c73a
00000390: 6ca5 5a3b 3dde b23c 442a d6bc 0820 c63c
000003a0: b092 dc3b 86cd 05bb e73d 9b39 e6ff 5cbb
000003b0: 4052 983b 0000 0000 4bf8 e3bb dcfa 973b
000003c0: 0fc3 873a 37e5 343c d486 26bc 29be 0b3c
000003d0: 47de d93a 4c2c 54ba 5a58 1c39 9591 d0ba
000003e0: 60d9 d03a 0000 0000 e942 2cbb 8bae e53a
000003f0: b2a8 1aba a3e1 3cbb d97e a63b 6f48 b5bb
-0.00024079654 0.0049492633 0.00017155102 -0.0028342404 -0.0029521002 -0.00015860859 5.1595413e-05 -0.00047357494
-0.0005474427 0.0 0.00029113155 -0.00019408758 0.00041377332 0.004277457 -0.004660699 0.0042156773
0.0009191136 -0.00021966248 3.105402e-05 -0.000648761 0.00080536056 0.0 -0.0012521251 0.0008347499
-0.00034709898 -0.00373108 0.004064009 -0.0035778796 -0.00056364055 0.00013188795 -1.1956879e-05 0.00056147913
-0.0006977843 0.0 0.001103448 -0.00073563197 -0.000917668 -0.006648188 0.0070930347 -0.006168468
-0.0014752244 0.0006282294 -0.000102362595 0.0009965041 -0.0011965476 0.0 0.0018735117 -0.0012490078
0.00075489463 0.0019424025 -0.005533077 0.006704804 0.0029522895 -2.6109294e-05 3.0031517e-05 -0.0004949278
0.0013036372 0.0 -0.0017261629 0.0011507755 -0.0016629596 -0.0125847 0.012551515 -0.010872983
-0.0029120191 0.0013231734 -0.00024040781 0.0018568869 -0.0020609784 0.0 0.0032715392 -0.002181026
0.0014072133 0.006725789 -0.009544869 0.009689613 0.0036861 -0.00091137027 0.00013294052 -0.0011049825
0.0018217098 0.0 -0.0025651385 0.0017100923 -0.000981962 -0.013209988 0.010714055 -0.007817877
-0.000115733834 0.0006153774 -0.00012449616 0.0018151442 -0.0014948742 0.0 0.002708186 -0.001805457
0.00024219626 -0.0026636177 -0.0007075068 0.0022159424 0.0018219429 -8.2808256e-05 -3.6221816e-05 0.00022527348
0.000462221 0.0 -0.00042138452 0.000280923 0.00011256044 -0.0040842025 0.0013860189 2.2644626e-05
0.0011404174 -6.0339567e-05 -4.419108e-05 0.0005089773 -2.8020465e-06 0.0 0.00032361769 -0.0002157452
-0.00014252879 -0.0016318078 0.0026247639 -0.0024131376 -0.00034631218 0.00020517492 4.0661555e-05 0.0002561545
-0.00050104567 0.0 0.00071333547 -0.00047555694 0.0005963345 0.00438761 -0.00331526 0.002314777
0.0002746264 -0.000343603 0.000105351304 -0.0005935083 0.00042749877 0.0 -0.0007894097 0.00052627304
-0.0014046761 -0.006378848 0.0110771395 -0.011778408 -0.0043129222 0.00070227776 -6.895506e-05 0.0011650729
-0.0022893532 0.0 0.0031848848 -0.0021232562 4.4250777e-05 -0.00018032383 -0.00013407294 0.00045824164
0.00043353575 5.7521087e-05 6.5402573e-06 5.687594e-06 5.5921508e-05 0.0 -3.6108202e-05 2.4072122e-05
-0.000823651 -0.0010520351 0.003497771 -0.004292985 -0.0023639689 0.0003053304 -7.7068275e-05 0.00026754604
-0.0007934987 0.0 0.00096111593 -0.00064074405 -0.00024916636 -0.0016379379 0.0014622833 -0.0010790552
-0.0002885415 0.0002886144 -4.2373198e-05 0.0002285427 -0.00020848455 0.0 0.0003454447 -0.0002302965
-0.00071299897 -0.004604262 0.006326405 -0.006192068 -0.002117861 0.00076824485 -5.860425e-05 0.0007367253
-0.0011960287 0.0 0.0016935846 -0.0011290563 0.00050771487 0.0021527396 -0.0029861932 0.0031074628
0.001259292 -0.00014476168 6.2391024e-05 -0.00037406708 0.00057805196 0.0 -0.00082595967 0.0005506398
0.0011374921 0.0065997015 -0.008425669 0.008205249 0.002933499 -0.0008425175 0.00013044411 -0.0010639223
0.0015617096 0.0 -0.0022840996 0.0015227328 0.003336276 0.021834487 -0.0261432 0.024185196
0.0067313537 -0.002041669 0.00029610025 -0.0033721863 0.004648477 0.0 -0.006957089 0.004638059
0.0010357815 0.011040977 -0.0101639815 0.008529224 0.001662203 -0.0008093759 0.00014910233 -0.0015912527
0.0015933923 0.0 -0.0026284999 0.0017523331 -0.00058997713 -0.0028821013 0.0050810394 -0.0055323164
