policy/PPO_fail/checkpoints/2025-09-09_16-10/ppo_soarm_600.pth (torch, 258647 bytes, 33 tensors)

actor.0.weight f4 [128, 12]
-0.25200194 -0.03249811 0.099879846 0.20403193 -0.08892045 0.17496622 0.20758405 -0.034853432
0.17469491 0.16555905 -0.20216598 -0.13549092 -0.014470745 0.028461233 0.02551388 0.17896487
-0.24500479 0.21315342 -0.15152243 -0.028661089 -0.10467566 0.20526755 -0.020890268 0.16698228
-0.04340514 0.05172056 -0.18002248 0.16255368 0.10922265 0.22438814 -0.26038396 -0.01943651
-0.23248388 0.20795694 0.2900384 -0.18753892 0.06909348 0.2560924 0.22322406 0.0018823207
-0.06967227 -0.04414171 -0.24719806 -0.15296343 -0.07591134 0.19755796 -0.09347421 0.21700624
-0.29904467 0.07066273 0.012973199 0.07586896 0.18168022 -0.057312265 -0.20777285 -0.10570376
-0.27313465 -0.25214705 -0.11722975 -0.25323793 0.08999853 -0.109658256 0.105753906 -0.17492211
0.18991861 0.20816673 0.00093436165 -0.19418739 -0.021269795 0.19496506 -0.009654741 -0.29808524
0.24202503 0.040957086 -0.16070512 0.09861448 -0.30246955 0.0029795794 0.24975131 -0.2831233
0.16326435 0.18411204 0.22180736 0.27419356 -0.11290599 -0.04584473 -0.2671701 0.2509754
0.015662229 -0.28255996 -0.1531812 -0.21998246 -0.10381238 -0.1179023 0.13013528 -0.22059499
-0.15464245 -0.038011134 -0.13693276 0.032585226 0.08698395 0.07000748 0.0068141823 -0.04019127
0.0065332577 0.21128838 0.08153654 0.07123299 -0.2648699 -0.19113882 0.00054615416 0.18158656
0.14910643 0.015581836 -0.23829637 -0.015560865 -0.04608392 -0.1770982 0.02911426 -0.129167
0.238677 0.20281231 0.08430642 0.12172317 -0.10701717 -0.26251522 0.13173723 -0.036223523
0.20565522 0.08171967 0.042639863 -0.25098646 -0.22978447 0.25199747 0.2660573 0.1240559
-0.03710384 -0.17863594 0.0666679 -0.18428372 -0.24230276 -0.012155721 0.07793247 0.26307115
0.29857746 0.2609631 0.22480091 0.10282325 -0.10219595 0.20957378 0.22341749 0.0041467906
-0.23862284 0.21688299 -0.045639638 0.05661085 0.22179556 0.12718645 -0.243002 -0.052972928
0.23119164 0.024177046 0.2820392 -0.06397546 0.23701677 -0.0926791 -0.2056922 -0.0814051
-0.0804584 -0.12116056 -0.17403375 0.22502445 0.042214528 -0.14731117 -0.2657302 0.111207284
0.26549476 0.071842134 0.1821583 -0.037487336 -0.24290392 -0.2531656 -0.06789778 0.05026842
0.20902692 -0.2532744 0.10233902 -0.12045431 0.1862049 -0.10381052 0.009605193 -0.059904628
-0.2202939 -0.117276296 0.024065504 -0.04420154 0.24005559 0.021023214 0.08818094 -0.08942803
0.054048356 0.2117269 0.19586033 -0.17480445 0.21708322 -0.24599665 -0.24944238 -0.16565248
0.24513374 -0.16302955 -0.08406878 0.030868156 -0.17522967 -0.06139549 0.14447322 -0.22218616
0.14393583 0.27525523 0.18505643 0.1498348 0.2621651 -0.287904 0.18882377 0.030308098
0.17083693 -0.18990122 -0.30030316 -0.15784614 -0.25857678 0.2127405 0.17529233 -0.21887471
-0.20993087 0.034683723 -0.17197758 0.06587517 0.12594317 -0.040791266 -0.15129876 -0.07500524
0.2135003 0.28624845 -0.10247216 0.09401052 -0.11104863 0.0749281 0.17800018 -0.08715115
-0.029752808 0.2165271 -0.0055681514 0.015066339 0.27862158 -0.17418624 -0.2585912 -0.042265724
00000000: 6606 81be bd1c 05bd ce8d cc3d bfed 503e
00000010: ed1b b6bd 582a 333e ea90 543e 79c2 0ebd
00000020: 39e3 323e 5088 293e 9904 4fbe 22be 0abe
00000030: b416 6dbc 8827 e93c 7c02 d13c 9142 373e
00000040: 89e2 7abe e444 5a3e b228 1bbe a9ca eabc
00000050: 3160 d6bd a831 523e 1122 abbc 67fd 2a3e
00000060: 97c9 31bd f0d8 533d d057 38be 7974 263e
00000070: 20b0 df3d 01c6 653e 0c51 85be 5139 9fbc
00000080: 4110 6ebe aaf2 543e ea7f 943e 340a 40be
00000090: e280 8d3d 8b1e 833e d994 643e 34b8 f63a
000000a0: 56b0 8ebd f0cd 34bd 7d21 7dbe 72a2 1cbe
000000b0: 6877 9bbd a24c 4a3e 686f bfbd e236 5e3e
000000c0: 621c 99be 9fb7 903d 8a8d 543c 2f61 9b3d
000000d0: 610a 3a3e 44c0 6abd 68c2 54be 377b d8bd
000000e0: 4ed8 8bbe 6b19 81be 2716 f0bd 67a8 81be
000000f0: 2651 b83d 8294 e0bd 8195 d83d c81e 33be
00000100: 067a 423e a929 553e f3ef 743a 0fd9 46be
00000110: fe3d aebc eca4 473e eb2e 1ebc a19e 98be
00000120: 69d5 773e 9ec2 273d e28f 24be 63f6 c93d
00000130: 4add 9abe 0c45 433b cfbe 7f3e 8af5 90be
00000140: c52e 273e de87 3c3e 7821 633e 1963 8c3e
00000150: 413b e7bd afc7 3bbd 85ca 88be d97f 803e
00000160: 134e 803c b3ab 90be 88db 1cbe 1543 61be
00000170: 969b d4bd c376 f1bd 2f42 053e a7e3 61be
00000180: 975a 1ebe 90b1 1bbd 1a38 0cbe 1678 053d
00000190: a424 b23d 1560 8f3d 8149 df3b 9a9f 24bd
000001a0: f014 d63b fb5b 583e a1fc a63d 9ae2 913d
000001b0: 079d 87be e5b9 43be c92b 0f3a d4f1 393e
000001c0: 5baf 183e f54a 7f3c f703 74be 00f3 7ebc
000001d0: 7ec2 3cbd 3b59 35be 0781 ee3c 5b44 04be
000001e0: be67 743e 08ae 4f3e d8a8 ac3d ff49 f93d
000001f0: d12b dbbd 6568 86be 20e6 063e 1e5f 14bd
00000200: 4897 523e a45c a73d 23a7 2e3d 4c81 80be
00000210: 9f4c 6bbe d005 813e aa38 883e 0511 fe3d
00000220: 32fa 17bd 57ec 36be 2e89 883d dfb4 3cbe
00000230: 371e 78be ca28 47bc 0f9b 9f3d 43b1 863e
00000240: 25df 983e f59c 853e 3632 663e ff94 d23d
00000250: 1c4c d1bd 829a 563e 8ec7 643e cde1 873b
00000260: 8c59 74be 9316 5e3e a1f0 3abd c7e0 673d
00000270: 601e 633e 2a3d 023e 84d5 78be 24fa 58bd
00000280: 80bd 6c3e f10e c63c 7167 903e 9105 83bd
00000290: 86b4 723e 8ace bdbd faa0 52be b8b7 a6bd
000002a0: 60c7 a4bd 0723 f8bd e735 32be cf6c 663e
000002b0: 24e9 2c3d bdd8 16be ca0d 88be a5c0 e33d
000002c0: eeee 873e f821 933d b587 3a3e 528c 19bd
000002d0: cebb 78be ec9e 81be fe0d 8bbd 42e6 4d3d
000002e0: 270b 563e 2fad 81be 1f97 d13d c0b0 f6bd
000002f0: 7fac 3e3e 9c9a d4bd 195f 1d3c 8e5e 75bd
00000300: b994 61be 8e2e f0bd 0525 c53c ad0c 35bd
00000310: 22d1 753e e038 ac3c 3598 b43d 0b26 b7bd
00000320: cf61 5d3d f0ce 583e 9c8f 483e f0ff 32be
00000330: 104b 5e3e 8ce6 7bbe d36d 7fbe cea0 29be
00000340: 5704 7b3e 38f1 26be 412c acbd 37df fc3c
00000350: 686f 33be d679 7bbd caf0 133e c584 63be
00000360: ea63 133e 41ee 8c3e 6f7f 3d3e 4b6e 193e
00000370: 813a 863e 2768 93be 055b 413e b048 f83c
00000380: e0ef 2e3e 7775 42be 56c1 99be 6ba2 21be
00000390: 2d64 84be a5d8 593e d57f 333e b120 60be
000003a0: 1ef8 56be 8510 0e3d e41a 30be 90e9 863d
000003b0: 3ff7 003e be14 27bd 10ee 1abe 599c 99bd
000003c0: d39f 5a3e 288f 923e ecdc d1bd 9688 c03d
000003d0: 776d e3bd e773 993d ae45 363e 4d7c b2bd
000003e0: 29bc f3bc 48b9 5d3e 0a75 b6bb ced8 763c
000003f0: 7da7 8e3e e15d 32be 1166 84be d31e 2dbd

actor.0.bias f4 [128]
-0.007665693 0.035490014 0.1543888 0.13127887 0.20982781 0.20010197 0.13178304 -0.24440484
-0.25139955 0.24868418 -0.03145521 0.28976017 -0.096785165 0.23449185 -0.29944643 0.16877046
0.14937533 0.30363053 0.26079652 0.27384815 -0.080589436 -0.15246621 -0.010482923 -0.30587533
-0.14315112 0.1323492 -0.23230766 0.020629337 0.08237438 -0.18984458 0.118987486 0.030940617
0.2671582 0.26686567 -0.03947004 -0.20861949 0.07166713 -0.07699872 -0.05189437 0.26382208
-0.17317465 -0.035278473 -0.045471508 0.19525313 -0.30437183 -0.1960871 0.047017954 0.20661858
-0.23137271 0.21145679 0.12376683 -0.021052858 0.28060055 0.283643 0.14685969 0.11173405
0.07042701 -0.1021752 -0.20742786 -0.0105392225 0.104607426 0.1311021 -0.06560115 -0.08564582
-0.072480276 -0.20171091 0.20763375 -0.039007746 0.23720704 0.13909844 -0.16775365 0.1022107
-0.084135726 0.05720982 0.14699514 0.15585513 0.13477914 -0.26095253 -0.19722688 -0.007571586
0.2299148 -0.107341684 -0.15970896 0.1862123 -0.030753378 -0.2663998 -0.12770449 0.1980721
-0.22323819 0.17066075 -0.045035552 0.1414661 -0.013295602 -0.07651887 -0.066611975 -0.20483683
-0.2981101 -0.06209435 0.1679886 0.1904749 0.15259093 -0.24228343 0.17530538 -0.2997057
-0.29283693 0.011826398 0.19828644 0.10805561 0.22157547 -0.09749349 0.04263746 0.04248482
-0.16604266 -0.26402807 -0.25366378 -0.25171384 -0.21591392 0.27023494 -0.12935543 -0.1373981
0.0709631 0.12658231 -0.23693472 0.23753604 0.07455887 0.18853803 0.0864015 0.20567483
00000000: 7e30 fbbb fa5d 113d 1918 1e3e f86d 063e
00000010: 1add 563e 88e7 4c3e 22f2 063e 4345 7abe
00000020: 71b7 80be 11a7 7e3e 2ed7 00bd 725b 943e
00000030: 4d37 c6bd a21e 703e 0b51 99be 2ad2 2c3e
00000040: d9f5 183e 7675 9b3e 1f87 853e d335 8c3e
00000050: 130c a5bd 1a20 1cbe 91c0 2bbc b19b 9cbe
00000060: 3596 12be 8c86 073e 0fe2 6dbe dbfe a83c
00000070: e6b3 a83d 9e66 42be b6af f33d 2d77 fd3c
00000080: f6c8 883e 9ea2 883e 56ab 21bd 59a0 55be
00000090: 37c6 923d 81b1 9dbd 318f 54bd b013 873e
000000a0: b254 31be 2980 10bd 5540 3abd 70f0 473e
000000b0: a0d6 9bbe 0fcb 48be e695 403d d293 533e
000000c0: f8ec 6cbe 2188 583e 7779 fd3d 0b77 acbc
000000d0: e0aa 8f3e a839 913e 6362 163e d2d4 e43d
000000e0: 093c 903d 3b41 d1bd f867 54be b4ac 2cbc
000000f0: 6b3c d63d a13f 063e e559 86bd 1367 afbd
00000100: 8a70 94bd 4e8d 4ebe f19d 543e 96c6 1fbd
00000110: 67e6 723e d26f 0e3e 9dc7 2bbe d853 d13d
00000120: 5a4f acbd d854 6a3d e585 163e 7d98 1f3e
00000130: 8b03 0a3e 929b 85be d8f5 49be 111b f8bb
00000140: c96e 6b3e f5d5 dbbd bf8a 23be 70ae 3e3e
00000150: 82ee fbbc 8e65 88be f7c4 02be 6ad3 4a3e
00000160: 8d98 64be b1c1 2e3e 3377 38bd 7ddc 103e
00000170: ccd5 59bc edb5 9cbd dc6b 88bd bfc0 51be
00000180: e3a1 98be a556 7ebd 3405 2c3e da0b 433e
00000190: cc40 1c3e 2619 78be 4183 333e 0773 99be
000001a0: b9ee 95be 82c3 413c 9a0b 4b3e 424c dd3d
000001b0: aee4 623e abaa c7bd 9ea4 2e3d 9004 2e3d
000001c0: 1607 2abe b02e 87be 38e0 81be a3e0 80be
000001d0: 8a18 5dbe 3c5c 8a3e c075 04be 16b2 0cbe
000001e0: 1a55 913d cb9e 013e 049f 72be a63c 733e
000001f0: 52b2 983d 1d10 413e 45f3 b03d 6c9c 523e

actor.2.weight f4 [64, 128]
0.03843567 -0.048519302 -0.0020606276 -0.04346955 -0.043290377 0.0006667789 -0.04724573 -0.020354874
0.052051168 0.03957329 -0.08465078 -0.010111668 -0.04155422 -0.07382729 0.009220761 0.079200715
-0.06431661 0.029334063 0.08384871 0.073710546 0.035949912 -0.046440456 0.0029257569 -0.09625583
0.077513464 0.044952344 0.07318362 0.04792311 0.06629294 -0.06701346 -0.03554198 0.056464355
0.006728677 -0.01863952 -0.04562277 0.037635297 -0.020153139 -0.036289133 0.08323043 0.084765024
0.04054339 0.042786684 0.012226043 0.07289632 -0.027635587 -0.047308385 0.056880716 0.06298016
-0.046959892 -0.0112706 0.025076224 -0.078495555 0.047914878 -0.027934281 -0.04522282 -0.046658654
-0.0868916 0.012428187 0.07407626 -0.08590764 -0.06926627 -0.0314363 0.036513943 0.04716003
-0.0139498 -0.019850997 0.0033406774 0.029349305 -0.010659412 -0.020794189 -0.004340597 0.062054753
0.07936795 0.055058427 0.03909022 0.035551753 0.088249326 0.023562444 0.085841864 0.08631667
0.014358563 0.051537786 0.012047517 0.004764527 -0.06225494 0.07884273 -0.055974193 0.023667742
0.08003026 0.07304688 0.044871494 0.08580531 -0.0365379 0.082978815 -0.04073531 0.04260201
-0.058062784 -0.05255512 0.06038931 -0.05767152 -0.02742343 -0.012124592 -0.07230056 0.0007607145
-0.07720459 -0.015952976 0.013859783 0.06750872 -0.0030024734 0.010319745 -0.030666627 0.060410894
0.03034545 0.04560821 -0.03619325 -0.062457427 0.031492226 0.059764113 -0.05960316 -0.062435854
0.036933042 -0.02815745 -0.05960417 -0.031594113 0.037343442 0.04718392 0.08500557 -0.03905722
-0.04963796 0.0040809265 -0.06756659 -0.031240944 -0.082004376 -0.07350118 -0.088191286 0.055227738
0.06297468 -0.07504854 0.0072992407 0.00011207241 0.050210774 -0.01449298 0.02303367 -0.006868376
0.0400413 0.039725304 -0.07989164 -0.07339523 0.021066684 0.049656834 0.07237947 -0.01781795
-0.044069134 -0.069059305 0.08834461 -0.04689669 0.041572217 0.06468716 -0.05507787 0.029182786
0.022408256 -0.09049885 0.082812965 0.013780211 0.03170219 -0.056801736 -0.06967087 -0.036065582
0.01653928 0.022858715 -0.03750165 -0.06704142 0.07631905 0.03658858 -0.042644393 -0.08125661
-0.04104099 0.03492766 -0.019647563 -0.00050643337 0.04903815 0.037488837 -0.083197124 0.040560115
-0.08029776 -0.019104293 0.09119555 0.00920479 0.04998218 -0.07111317 -0.05458121 0.0015396819
0.08423879 0.039339446 0.0038953912 -0.034545522 -0.07091705 -0.044735488 0.005073239 -0.007847477
0.0065797414 -0.01446611 0.005077981 0.0259521 0.059838116 0.037779793 0.0073304228 0.035951506
-0.04707797 -0.06746355 -0.033655778 0.0834656 -0.06265068 0.034459896 0.07727599 -0.07882725
0.041377816 0.025697216 -0.03836393 0.068831116 0.08550013 0.041135546 -0.039957654 0.003734384
-0.043162297 -0.005086195 0.08192093 0.009665432 0.051049855 0.06398563 -0.06712176 0.057816125
0.07636028 -0.09110218 -0.015509561 0.03467621 0.08702717 0.07452043 -0.08148276 -0.008995673
0.087271735 0.016217453 0.039621152 0.05601232 0.046690445 0.014969794 -0.037325535 -0.08580802
-0.0825379 -0.005023997 -0.016883496 -0.050069217 0.032788027 -0.073177785 -0.027893988 0.03502393
00000000: b96e 1d3d 2dbc 46bd 980b 07bb 200d 32bd
00000010: 4051 31bd c6ca 2e3a bd84 41bd 44bf a6bc
00000020: 9b33 553d 9a17 223d 635d adbd 69ab 25bc
00000030: c234 2abd c332 97bd ad12 173c fc33 a23d
00000040: 6db8 83bd fd4d f03c dfb8 ab3d 8ef5 963d
00000050: 3740 133d 5938 3ebd 0ebe 3f3b c721 c5bd
00000060: 61bf 9e3d f31f 383d 4be1 953d 064b 443d
00000070: 98c4 873d 5a3e 89bd 7894 11bd 2b47 673d
00000080: 3c7c dc3b e8b1 98bc f1de 3abd 7827 1a3d
00000090: 3218 a5bc eaa3 14bd b774 aa3d 4999 ad3d
000000a0: d310 263d 1741 2f3d be4f 483c aa4a 953d
000000b0: 0764 e2bc 70c6 41bd c1fb 683d befb 803d
000000c0: 0459 40bd 53a8 38bc a76c cd3c 47c2 a0bd
000000d0: 6442 443d 6fd6 e4bc 903b 39bd 251d 3fbd
000000e0: 39f4 b1bd 989f 4b3c 4bb5 973d 58f0 afbd
000000f0: 79db 8dbd 5ac3 00bd a58f 153d e02a 413d
00000100: b48d 64bc 8f9e a2bc 44ef 5a3b f46d f03c
00000110: d0a4 2ebc 9358 aabc 913b 8ebb 202d 7e3d
00000120: aa8b a23d f284 613d 111d 203d b79e 113d
00000130: 10bc b43d 0706 c13c dccd af3d cbc6 b03d
00000140: 2e40 6b3c 4919 533d f362 453c c01f 9c3b
00000150: 09ff 7ebd 4c78 a13d 3245 65bd dae2 c13c
00000160: e8e6 a33d 9a99 953d 2ccb 373d b2ba af3d
00000170: c4a8 15bd ccf0 a93d 12da 26bd 727f 2e3d
00000180: 3ed3 6dbd 0a44 57bd c85a 773d f938 6cbd
00000190: 1aa7 e0bc 3aa6 46bc 5112 94bd b06a 473a
000001a0: 711d 9ebd d1af 82bc 2514 633c 0342 8a3d
000001b0: 25c5 44bb 2614 293c 9438 fbbc 6a71 773d
000001c0: 0597 f83c adcf 3a3d 603f 14bd 5cd3 7fbd
000001d0: fefd 003d 37cb 743d 7122 74bd bdbc 7fbd
000001e0: 1a47 173d 74aa e6bc 8123 74bd d468 01bd
000001f0: 70f5 183d ed43 413d 6617 ae3d 77fa 1fbd
00000200: 2c51 4bbd 4bb9 853b 5a60 8abd 02ed ffbc
00000210: e9f1 a7bd c987 96bd a29d b4bd 7b36 623d
00000220: def8 803d 0db3 99bd 782e ef3b 6b08 eb38
00000230: d0a9 4d3d f773 6dbc 1bb1 bc3c 1d10 e1bb
00000240: 5902 243d 00b7 223d 3a9e a3bd 3d50 96bd
00000250: 0a94 ac3c f764 4b3d b03b 943d f3f6 91bc
00000260: d681 34bd f76e 8dbd 05ee b43d be16 40bd
00000270: a147 2a3d b47a 843d 5599 61bd bd10 ef3c
00000280: 8591 b73c 7657 b9bd d899 a93d 65c6 613c
00000290: 28da 013d f0a8 68bd 9aaf 8ebd 81b9 13bd
000002a0: 627d 873c 3342 bb3c 559b 19bd 034d 89bd
000002b0: 294d 9c3d e8dd 153d e3ab 2ebd de69 a6bd
000002c0: 991a 28bd 4e10 0f3d edf3 a0bc 2bc2 04ba
000002d0: 3adc 483d e58d 193d 4163 aabd 5d22 263d
000002e0: 2773 a4bd 9b80 9cbc bcc4 ba3d b0cf 163c
000002f0: 1dba 4c3d c8a3 91bd 8c90 5fbd 27cf c93a
00000300: 6385 ac3d 6622 213d d249 7f3b 9b7f 0dbd
00000310: f53c 91bd 8f3c 37bd 6a3d a63b b492 00bc
00000320: df9a d73b 4303 6dbc 3165 a63b 8099 d43c
00000330: d018 753d fcbe 1a3d 0b34 f03b e341 133d
00000340: d4d4 40bd 542a 8abd a4da 09bd 03f0 aa3d
00000350: 004f 80bd d225 0d3d e042 9e3d 2e70 a1bd
00000360: c97b 293d f882 d23c 7f23 1dbd 54f7 8c3d
00000370: b11a af3d bf7d 283d a3aa 23bd 91bc 743b
00000380: f3ca 30bd 19aa a6bb 29c6 a73d c35b 1e3c
00000390: a719 513d e60a 833d 2277 89bd 9ad0 6c3d
000003a0: c762 9c3d c893 babd d01b 7ebc a408 0e3d
000003b0: 4d3b b23d 2b9e 983d 6fe0 a6bd 9662 13bc
000003c0: 86bb b23d 77da 843c ca49 223d 2d6d 653d
000003d0: 7b3e 3f3d de43 753c a9e2 18bd 1dbc afbd
000003e0: a109 a9bd 57a0 a4bb 424f 8abc 6115 4dbd
000003f0: bd4c 063d 3cde 95bd ef81 e4bc 4175 0f3d

actor.2.bias f4 [64]
-0.07363357 -0.034244172 0.059409253 -0.02803729 -0.068917036 -0.088232405 0.0352832 0.057304148
0.041179236 0.022960711 0.027238837 -0.057211395 0.016748574 -0.06852214 0.076546445 -0.04803999
-0.022636589 0.006597525 -0.035630092 0.08020524 -0.0634218 -0.008673856 -0.073833674 0.038802065
-0.045382727 0.019127019 0.01988955 -0.061847247 0.009471426 -0.040734433 0.061420493 -0.071453676
0.019028662 0.021283032 0.017958658 -0.043552097 0.06866421 0.008358068 -0.06731458 0.0577212
0.014286596 -0.06686212 -0.036688413 -0.06304325 0.055301923 0.08341457 -0.076107174 -0.043141723
0.028649563 0.061473407 0.0059018144 -0.009070503 -0.005417057 -0.00837527 0.07712447 0.076611355
-0.08832739 0.068255655 -0.057679642 0.0103006745 -0.07814951 0.0250109 -0.05502462 -0.029704552
00000000: 32cd 96bd 9e43 0cbd 1e57 733d 75ae e5bc
00000010: 6024 8dbd 31b3 b4bd 1e85 103d c1b7 6a3d
00000020: 8fab 283d 1a18 bc3c fb23 df3c 7f56 6abd
00000030: 4e34 893c 5655 8cbd 62c4 9c3d 95c5 44bd
00000040: 5e70 b9bc 0d30 d83b dcf0 11bd a542 a43d
00000050: 4ae3 81bd ca1c 0ebc 1c36 97bd eaee 1e3d
00000060: 3de3 39bd 44b0 9c3c 69ef a23c 8a53 7dbd
00000070: 0a2e 1b3c 26d9 26bd 0e94 7b3d 4e56 92bd
00000080: ffe1 9b3c c159 ae3c 091e 933c af63 32bd
00000090: d29f 8c3d 47f0 083c 3adc 89bd 116d 6c3d
000000a0: 5412 6a3c 02ef 88bd 9746 16bd d21c 81bd
000000b0: 4584 623d 42d5 aa3d 14de 9bbd 60b5 30bd
000000c0: 7db2 ea3c 8acb 7b3d 0264 c13b 729c 14bc
000000d0: 9181 b1bb 6e38 09bc 6ff3 9d3d 6ae6 9c3d
000000e0: fee4 b4bd 9fc9 8b3d 7d41 6cbd 29c4 283c
000000f0: da0c a0bd a9e3 cc3c 7f61 61bd f656 f3bc

actor.4.weight f4 [6, 64]
0.04557565 0.08247659 0.045965303 0.03963681 0.03284967 -0.10340407 0.056638177 0.057208683
0.021107025 -0.047297854 -0.0015160292 -0.042305462 0.075571306 -0.029778933 0.10322317 0.03163662
-0.07764038 -0.10791984 -0.07887071 0.0961425 -0.07666101 0.03767394 0.07065048 0.027576566
-0.10502119 0.072333336 -0.05156646 -0.103645675 0.024813026 -0.0100928955 0.012876054 0.099012375
-0.04643678 0.09322134 0.1073311 -0.0042952225 0.031578965 -0.03495403 0.08331105 -0.09633488
-0.09236458 0.06506347 0.06375647 0.01385431 -0.12569313 -0.0018953977 -0.023975749 -0.08902008
-0.050749764 -0.0047928197 -0.06432191 -0.036975194 0.020839062 0.058615554 -0.09884287 0.013117669
0.054275945 0.061627887 -0.0790858 0.11883886 -0.0097670555 0.109630816 -0.04362897 0.018526377
0.13865446 -0.04623889 0.07209776 0.008523822 -0.06685772 -0.10941902 0.11201722 -0.01254774
0.098276675 0.0038343293 0.043513633 0.06269911 -0.029301755 -0.1304442 0.029757747 -0.036388807
0.105006106 -0.11898255 0.070744015 0.034165204 -0.106321484 -0.024465796 -0.05292371 0.066126876
-0.14558014 0.09951008 -0.07915878 -0.049474083 -0.029295888 -0.111026675 0.12549278 -0.040361457
-0.108400986 -0.07401951 -0.09186069 -0.04205988 0.13182099 0.12213541 -0.05386847 0.02878961
0.13257435 0.087906614 -0.048464928 -0.019824045 0.006842467 0.04034884 -0.06695009 -0.074560724
-0.048838235 0.050240345 0.128513 0.082460776 0.060168568 0.056212354 -0.033912007 -0.10872376
0.049627345 -0.023693902 0.053350978 -0.120347545 -0.13138318 -0.07917789 -0.07143905 -0.05413698
-0.03433132 0.018501213 0.12740782 -0.11721081 -0.006132133 0.012284905 -0.050333396 0.08131213
0.12550014 -0.027868615 -0.004181698 -0.10187991 0.1409201 -0.07953005 -0.034192387 0.021165926
0.056758787 -0.058732517 0.051658455 -0.053747185 -0.073679775 -0.054996934 -0.095665745 -0.023050494
0.10167947 -0.05093165 -0.14106905 0.13271248 -0.10054106 0.093583174 -0.10425143 0.057361808
0.032550797 -0.102338046 0.099522024 0.13450596 -0.1295296 -0.13023898 0.13698216 -0.08635349
0.036133192 0.06786415 0.071608864 -0.07879243 -0.019819383 -0.038154442 0.07580872 0.086643964
-0.06574213 -0.13482836 -0.00013818666 0.0129590975 0.02079781 0.1367158 -0.06375778 -0.064615965
0.14343442 -0.09489122 0.14783445 -0.04026308 0.047130212 0.13507222 -0.062931046 -0.11597938
-0.114555605 0.06467306 0.046180602 0.053945635 -0.033717938 -0.093469605 -0.0048571946 0.08685902
0.00043842688 -0.015639348 -0.021388842 -0.08297419 0.060505968 -0.08052169 -0.116250746 -0.03516846
0.10096068 0.099804826 -0.023687884 -0.021179317 0.007963666 -0.043346126 -0.040608965 -0.08235522
-0.007655397 0.108852774 -0.059469115 -0.12971945 -0.012510205 -0.052380063 0.10927658 0.0064674225
-0.123982586 0.063598424 -0.034865167 0.013519727 -0.08515906 0.034083758 -0.11472612 -0.07228339
-0.11297895 0.06861542 0.074931644 0.091318645 0.021479307 -0.111692466 -0.07059618 -0.052629504
0.011843821 -0.07917465 0.009544367 -0.05024627 -0.023948269 0.045876324 -0.015479388 -0.0443188
-0.09296019 0.07536151 0.023371153 0.09153929 0.089899205 0.08399358 0.08614884 0.09460979
00000000: 88ad 3a3d 7de9 a83d 1d46 3c3d 355a 223d
00000010: 608d 063d 83c5 d3bd 6ffd 673d a753 6a3d
00000020: a4e8 ac3c 65bb 41bd 80b5 c6ba 7e48 2dbd
00000030: 21c5 9a3d f3f2 f3bc ab66 d33d 6795 013d
00000040: eb01 9fbd 1405 ddbd f886 a1bd 5ce6 c43d
00000050: 7300 9dbd fd4f 1a3d 33b1 903d 40e8 e13c
00000060: 5a15 d7bd 8023 943d 5a37 53bd 2f44 d4bd
00000070: b044 cb3c ac5c 25bc 16f6 523c 00c7 ca3d
00000080: 7e34 3ebd d4ea be3d 68d0 db3d f0be 8cbb
00000090: f258 013d f52b 0fbd fc9e aa3d 394b c5bd
000000a0: a429 bdbd ff3f 853d c192 823d 30fd 623c
000000b0: b3b5 00be fe6e f8ba ca68 c4bc 2950 b6bd
000000c0: fcde 4fbd 160d 9dbb 35bb 83bd 4d73 17bd
000000d0: aeb6 aa3c dd16 703d 216e cabd 7eeb 563c
000000e0: 7450 5e3d 866d 7c3d bcf7 a1bd ca61 f33d
000000f0: 0006 20bc 1f86 e03d 4ab4 32bd a1c4 973c
00000100: 6ffb 0d3e fe64 3dbd fea7 933d 80a7 0b3c
00000110: b3ec 88bd 1417 e0bd 4969 e53d 0995 4dbc
00000120: 4845 c93d 5f49 7b3b 5a3b 323d 6468 803d
00000130: 3c0a f0bc 2a93 05be 85c6 f33c 6e0c 15bd
00000140: 710d d73d 20ad f3bd 3de2 903d d0f0 0b3d
00000150: 14bf d9bd 7e6c c8bc 88c6 58bd 876d 873d
00000160: f612 15be f1cb cb3d 001e a2bd 56a5 4abd
00000170: eefd efbc f461 e3bd 2e81 003e 0e52 25bd
00000180: 5601 debd 8a97 97bd 7521 bcbd fb46 2cbd
00000190: 15fc 063e 2122 fa3d 2fa5 5cbd 30d8 eb3c
000001a0: 92c1 073e 6208 b43d 2983 46bd 0966 a2bc
000001b0: c636 e03b d344 253d 211d 89bd 4bb3 98bd
000001c0: 9a0a 48bd d2c8 4d3d e998 033e 32e1 a83d
000001d0: 5173 763d ed3e 663d 51e7 0abd 90aa debd
000001e0: 0b46 4b3d b719 c2bc 8e86 5a3d c678 f6bd
000001f0: 5089 06be 0528 a2bd a34e 92bd bdbe 5dbd
00000200: 009f 0cbd db8f 973c 3277 023e 390c f0bd
00000210: 0ff0 c8bb a046 493c 642a 4ebd f986 a63d
00000220: 1c83 003e b94c e4bc a006 89bb 6aa6 d0bd
00000230: 5c4d 103e a7e0 a2bd 510d 0cbd 2a64 ad3c
00000240: e77b 683d 8291 70bd d197 533d 0226 5cbd
00000250: 6ce5 96bd 7744 61bd 67ec c3bd 64d4 bcbc
00000260: 533d d03d b59d 50bd 6874 10be c8e5 073e
00000270: 79e8 cdbd 89a8 bf3d c681 d5bd 37f4 6a3d
00000280: fc53 053d 9c96 d1bd 34d2 cb3d eebb 093e
00000290: 68a3 04be 5e5d 05be 0d45 0c3e 19da b0bd
000002a0: 6600 143d 5cfc 8a3d aba7 923d ed5d a1bd
000002b0: 425c a2bc d547 1cbd 9a41 9b3d 6472 b13d
000002c0: cfa3 86bd 7210 0abe 33e6 10b9 6552 543c
000002d0: 2b60 aa3c 3aff 0b3e 7093 82bd 6055 84bd
000002e0: 79e0 123e 5456 c2bd ea61 173e e6ea 24bd
000002f0: 9c0b 413d 5f50 0a3e fee1 80bd 9986 edbd
00000300: 219c eabd 4f73 843d df27 3d3d 19f6 5c3d
00000310: d21b 0abd fe6c bfbd 1a29 9fbb 24e3 b13d
00000320: a9dc e539 171e 80bc a737 afbc 5fee a9bd
00000330: 1bd5 773d 8ee8 a4bd df14 eebd ce0c 10bd
00000340: 79c4 ce3d 7966 cc3d 180d c2bc 3f80 adbc
00000350: 097a 023c b58b 31bd 9655 26bd dba9 a8bd
00000360: 20da fabb 34ee de3d e395 73bd 2dd5 04be
00000370: 9af7 4cbc 7a8c 56bd 66cc df3d acec d33b
00000380: 95ea fdbd e43f 823d c7ce 0ebd d881 5d3c
00000390: e067 aebd 699b 0b3d 87f5 eabd 5009 94bd
000003a0: 8261 e7bd 3e86 8c3d c375 993d 4505 bb3d
000003b0: 5ff5 af3c 05bf e4bd bb94 90bd 0992 57bd
000003c0: 960c 423c 5226 a2bd fa5f 1c3c 08cf 4dbd
000003d0: 292f c4bc d0e8 3b3d 429d 7dbc a187 35bd
000003e0: e961 bebd 2357 9a3d dc74 bf3c f478 bb3d
000003f0: 131d b83d d304 ac3d ce6e b03d c7c2 c13d

actor.4.bias f4 [6]
0.11737015 0.04014025 -0.08190614 -0.0628731 0.10268504 -0.008122826
00000000: c35f f03d 1a6a 243d 68be a7bd 9dc3 80bd
00000010: 894c d23d 9a15 05bc

critic.0.weight f4 [128, 12]
0.077171125 -0.113217846 0.24928226 -0.28429112 -0.0065090708 0.0790948 -0.24203998 0.28529716
0.19396277 -0.15288772 0.10555725 -0.20752265 -0.029633233 -0.08446141 -0.00016387807 -0.3806959
-0.27092993 -0.17623734 0.24654676 -0.17492461 -0.08090446 -0.0020465266 0.20816512 -0.1332297
-0.25260177 0.055999443 -0.20013322 -0.00023138299 -0.15786031 -0.16025205 -0.04781546 -0.1487848
0.38353705 0.23133057 0.08266932 0.2836529 -0.15795088 0.03225383 0.16404326 0.14480473
0.11621485 -0.2686832 0.2965863 0.03195419 0.07440067 0.28110862 0.15780176 0.1642436
0.008899652 0.14815876 0.14136201 0.16766043 0.13014284 0.19774438 -0.035108224 0.08332703
0.2933727 -0.10546619 0.2601038 0.22055222 -0.15970567 0.071174726 -0.15503879 0.35541615
0.26072085 0.17765914 -0.14309216 0.2658532 0.17500924 -0.22404082 0.06973899 -0.23915868
0.119223006 0.26199624 -0.0789933 0.0694393 0.30884716 0.13708416 0.0575279 0.2029213
0.10846801 0.12654407 -0.1010937 0.20145531 0.19314171 -0.27965292 -0.14237358 0.029394431
0.11000082 -0.22458005 0.0077666887 -0.05916308 -0.017936157 -0.24994147 0.052395687 -0.034317493
-0.23850536 0.07087976 0.31376362 0.26244184 0.09066903 0.018425936 -0.04233761 0.12750109
-0.033650704 -0.08906366 -0.2269045 -0.008589115 -0.048397444 0.16529807 0.008327976 0.20940734
0.08401642 -0.27882752 -0.16363646 -0.2572923 0.3487275 0.09267335 0.14359447 -0.1380349
0.105025284 -0.26110375 -0.10631304 -0.19392693 0.26064858 -0.24115354 -0.15514354 0.034068134
0.21779424 0.22694612 -0.016365651 -0.19514154 0.23847963 0.1296531 0.123669736 0.2810741
0.055430565 0.08427718 0.058404725 -0.14355789 -0.028019574 -0.09465924 -0.021652868 -0.24491629
-0.26349849 0.30741307 -0.023246402 -0.11103348 -0.06243005 0.25670627 -0.24075626 0.038682867
-0.09284637 -0.24677877 0.2550298 -0.27556074 -0.06220893 0.3166342 -0.22667173 0.15135866
-0.26333022 0.10394322 0.0737106 -0.25754 0.14567441 0.21360752 0.09112213 0.2062978
0.06501153 0.14560138 -0.14992562 -0.10627475 -0.11321354 -0.21553572 0.0006639292 -0.15982258
0.010263494 -0.28198436 0.06768902 -0.012449172 -0.10503298 0.15359125 -0.34339663 0.15527955
-0.1969952 0.14886957 -0.04673826 -0.2692653 -0.020559378 -0.017087517 -0.3498441 0.18020941
-0.12145849 0.1927607 0.16779394 0.15191257 -0.22776695 0.20893365 0.22168896 0.075688116
0.1042017 0.19424762 -0.03410213 0.09998406 0.010374327 0.08860912 0.057031166 0.019324189
0.026345806 -0.23844662 -0.26604626 0.26389965 0.035844628 0.22700499 0.19363505 -0.048391413
-0.25573868 0.28273228 0.007094081 -0.2544277 -0.21898752 -0.18168737 -0.24543092 -0.1504578
0.19950113 -0.012994876 -0.10941816 0.045518383 -0.24086627 0.08999044 0.13152647 0.2293684
0.07268907 -0.1171454 -0.22372554 0.008558884 -0.013341071 -0.009804607 -0.15781899 -0.027651014
0.14929837 0.020507867 -0.14478585 0.34506494 0.103463 -0.24337709 -0.07614042 0.12584129
0.046893645 -0.036698867 0.25550628 0.27886733 0.17512868 0.107101165 -0.20634939 0.29033095
00000000: e50b 9e3d c2de e7bd d943 7f3e 9b8e 91be
00000010: 0b4a d5bb 74fc a13d 54d9 77be 7812 923e
00000020: 2d9e 463e 998e 1cbe 662e d83d d180 54be
00000030: 65c1 f2bc 1bfa acbd afd6 2bb9 93ea c2be
00000040: 54b7 8abe 9077 34be c176 7c3e 701f 33be
00000050: 3db1 a5bd 051f 06bb 3d29 553e 5e6d 08be
00000060: 0555 81be ac5f 653d b9ef 4cbe 669f 72b9
00000070: 22a6 21be 1d19 24be 25da 43bd 0b5b 18be
00000080: f85e c43e ece1 6c3e 884e a93d f43a 913e
00000090: e0bd 21be 981c 043d f5fa 273e b147 143e
000000a0: 0d02 ee3d d890 89be 29da 973e 66e2 023d
000000b0: 615f 983d 78ed 8f3e c996 213e 792f 283e
000000c0: d9cf 113c eeb6 173e 34c1 103e 2daf 2b3e
000000d0: 2a44 053e 817d 4a3e a4cd 0fbd 5da7 aa3d
000000e0: f234 963e a8fe d7bd 532c 853e 71d8 613e
000000f0: e289 23be 0ec4 913d 7dc2 1ebe 1bf9 b53e
00000100: 347d 853e 47ec 353e c086 12be e91d 883e
00000110: 9f35 333e f56a 65be 51d3 8e3d 03e6 74be
00000120: 312b f43d 5f24 863e 3dc7 a1bd 3136 8e3d
00000130: 3721 9e3e ca5f 0c3e 60a2 6b3d 9aca 4f3e
00000140: 7a24 de3d c594 013e 370a cfbd 4d4a 4e3e
00000150: f1c6 453e ab2e 8fbe 61ca 11be 97cc f03c
00000160: 1c48 e13d 50f8 65be b57f fe3b fc54 72bd
00000170: d9ee 92bc a8f0 7fbe dc9c 563d 8090 0cbd
00000180: c03a 74be 6829 913d a0a5 a03e c75e 863e
00000190: afb0 b93d fdf1 963c 346a 2dbd a58f 023e
000001a0: 52d5 09bd 0267 b6bd a759 68be 5cb9 0cbc
000001b0: 663c 46bd e643 293e 1072 083c e16e 563e
000001c0: cd10 ac3d 7bc2 8ebe 5190 27be d1bb 83be
000001d0: 698c b23e 86cb bd3d 6e0a 133e 0559 0dbe
000001e0: 7f17 d73d 64af 85be a7ba d9bd c894 46be
000001f0: bb73 853e f4f0 76be f3dd 1ebe 078b 0b3d
00000200: 7405 5f3e 9064 683e 4211 86bc 2fd3 47be
00000210: 0134 743e c8c3 043e 8f46 fd3d f2e8 8f3e
00000220: 290b 633d 8499 ac3d cb39 6f3d d700 13be
00000230: 4e89 e5bc b4dc c1bd 5b61 b1bc 56cb 7abe
00000240: 46e9 86be 3f65 9d3e 3d6f bebc 8565 e3bd
00000250: a7b6 7fbd 016f 833e cf88 76be ed71 1e3d
00000260: 3d26 bebd 93b3 7cbe 4493 823e 4c16 8dbe
00000270: cace 7ebd e11d a23e a21c 68be c4fd 1a3e
00000280: 38d3 86be 2fe0 d43d 95f5 963d 48dc 83be
00000290: ac2b 153e eebb 5a3e 3d9e ba3d bb3f 533e
000002a0: c424 853d 8718 153e 1a86 19be 93a6 d9bd
000002b0: 80dc e7bd 65b5 5cbe 890b 2e3a 88a8 23be
000002c0: 3728 283c 4160 90be 8aa0 8a3d 9df7 4bbc
000002d0: 881b d7bd 0647 1d3e afd1 afbe 9a01 1f3e
000002e0: 1cb9 49be 4471 183e 9e70 3fbd 24dd 89be
000002f0: 246c a8bc 1ffb 8bbc c41e b3be d188 383e
00000300: 3bbf f8bd 1063 453e 2dd2 2b3e f88e 1b3e
00000310: bd3b 69be b4f2 553e 6e02 633e 5f02 9b3d
00000320: b367 d53d d9e8 463e adae 0bbd 71c4 cc3d
00000330: 15f9 293c b378 b53d 8399 693d c34d 9e3c
00000340: 29d3 d73c 5a2b 74be 3737 88be db1d 873e
00000350: d1d1 123d ff73 683e 4448 463e 1336 46bd
00000360: 2ef0 82be 49c2 903e 7775 e83b 5944 82be
00000370: 443e 60be 410c 3abe 3e52 7bbe 9c11 1abe
00000380: 064a 4c3e 76e8 54bc a116 e0bd 7c71 3a3d
00000390: a6a5 76be e84c b83d e0ae 063e 8ddf 6a3e
000003a0: 02de 943d ede9 efbd 4f18 65be 903a 0c3c
000003b0: 8294 5abc 81a3 20bc 4d9b 21be 6184 e2bc
000003c0: ace1 183e 1d00 a83c be42 14be 5aac b03e
000003d0: 69e4 d33d d837 79be 82ef 9bbd 8adc 003e
000003e0: 8d13 403d 8d51 16bd b8d1 823e b3c7 8e3e
000003f0: ef54 333e db57 db3d 414d 53be 42a6 943e

critic.0.bias f4 [128]
0.09983618 0.062211975 0.14044495 0.24542657 0.018275697 -0.062054567 -0.08236353 0.26296976
0.2213272 -0.013582792 -0.16208576 0.0723801 0.048924286 -0.26047114 -0.1489296 -0.067389235
0.2041463 -0.1616838 0.052575324 -0.0009187976 0.11150939 0.20646766 -0.23009196 0.115214005
0.070972614 0.013123411 -0.28154105 0.28048694 0.13794865 -0.22367361 -0.19004713 0.036565248
-0.09308247 0.22810042 0.13245986 0.16165328 -0.05848691 -0.011704896 -0.20268396 0.27534577
-0.248276 -0.09262682 0.03486919 0.26452026 0.104494914 -0.18558793 -0.1751569 0.14715946
-0.20206569 -0.010640247 -0.18915476 0.018437596 0.06353991 -0.2777384 -0.19377287 0.22267479
0.24538372 0.2362129 0.18096565 0.32898843 -0.28363734 -0.020675445 0.013187467 0.21529865
0.029126672 0.09717844 0.112580135 -0.0990842 -0.075589284 0.023448087 -0.21349688 -0.08022216
0.0658315 -0.27255702 -0.07231872 0.15689239 -0.25721842 -0.011800619 0.080179274 0.14179306
0.022446934 0.22369267 0.015438043 0.075254224 0.21182126 -0.27252892 -0.15504266 -0.1326288
0.21923697 0.11285007 0.014753218 -0.16343053 -0.16265902 0.06589227 -0.102880865 0.15838268
0.11056784 0.042313613 -0.034129824 -0.15752298 0.08364859 0.026314579 -0.0434279 0.16084243
-0.062473774 -0.1889306 -0.17932305 0.059913523 -0.021353489 -0.04277856 0.20445222 -0.25829294
0.15241547 -0.17100935 -0.32483768 0.10498978 0.0005131432 0.119724765 -0.13887747 0.1539684
-0.34056237 0.2828747 -0.21105291 -0.011425657 -0.24111603 -0.17118134 -0.04955169 0.2541508
00000000: e976 cc3d fcd1 7e3d cdd0 0f3e 1a51 7b3e
00000010: eab6 953c ee2c 7ebd 36ae a8bd f9a3 863e
00000020: 99a3 623e 5c8a 5ebc cff9 25be 053c 943d
00000030: d564 483d 795c 85be 0081 18be 5e03 8abd
00000040: ba0b 513e 7090 25be 3959 573d 77db 70ba
00000050: 095f e43d 426c 533e 3a9d 6bbe 52f5 eb3d
00000060: 175a 913d 9303 573c 2626 90be fc9b 8f3e
00000070: 6942 0d3e b20a 65be b79b 42be 71c5 153d
00000080: 06a2 bebd 2893 693e 8fa3 073e 7088 253e
00000090: f88f 6fbd e4c5 3fbc 628c 4fbe 1ffa 8c3e
000000a0: 103c 7ebe 21b3 bdbd ffd2 0e3d 336f 873e
000000b0: 6e01 d63d c30a 3ebe 555c 33be f8b0 163e
000000c0: 4fea 4ebe 6e54 2ebc c9b1 41be 710a 973c
000000d0: 3621 823d ba33 8ebe 656c 46be dc04 643e
000000e0: df45 7b3e cbe1 713e 0f4f 393e 2c71 a83e
000000f0: ea38 91be 8d5f a9bc 3f10 583c 4077 5c3e
00000100: 0f9b ee3c 7d05 c73d 6a90 e63d a8ec cabd
00000110: 8ece 9abd 3416 c03c ed9e 5abe 844b a4bd
00000120: aad2 863d 988c 8bbe d61b 94bd 66a8 203e
00000130: 22b2 83be 6257 41bc 0835 a43d 3332 113e
00000140: a2e2 b73c b10f 653e d8ef 7c3c e31e 9a3d
00000150: ace7 583e e988 8bbe 81c3 1ebe d8cf 07be
00000160: a87f 603e f01d e73d 7bb7 713c 555a 27be
00000170: 1690 26be 87f2 863d 34b3 d2bd 122f 223e
00000180: 6471 e23d 0a51 2d3d b7cb 0bbd b44d 21be
00000190: f44f ab3d ac91 d73c 74e1 31bd e1b3 243e
000001a0: 80e4 7fbd 0677 41be 76a0 37be e267 753d
000001b0: 83ed aebc 9238 2fbd ec5b 513e f93e 84be
000001c0: cd12 1c3e 131d 2fbe 2051 a6be e204 d73d
000001d0: 7584 063a 4232 f53d e535 0ebe e4a9 1d3e
000001e0: 315e aebe f4d4 903e 411e 58be ae32 3bbc
000001f0: 1fe7 76be 294a 2fbe b7f6 4abd 0e20 823e

critic.2.weight f4 [64, 128]
0.07103465 0.06643605 0.044282023 -0.06286658 -0.13656574 -0.057916526 0.0777255 -0.20125057
-0.02747424 -0.10439283 -0.023483107 -0.114245765 0.09071143 -0.035901714 -0.06412704 -0.014373387
0.009068336 -0.066287 -0.056279667 -0.013001007 0.029019395 -0.0017538385 -0.0536736 0.040166732
-0.07906905 0.001963211 -0.047756247 0.025732659 -0.013558182 0.014194212 -0.069092155 -0.049522128
-0.010272804 -0.010867914 -0.17103505 -0.06808414 -0.08298307 0.08008125 -0.092605956 -0.1706989
0.019102342 -0.016352782 0.038146622 0.04906063 -0.0041041286 0.037360065 0.13703002 -0.019767974
0.04133939 -0.054182224 -0.090083994 0.043898787 0.048426 0.07693691 0.046028823 -0.06008343
0.006994802 -0.026409918 0.014434196 0.012042301 0.058075428 0.03707676 -0.0018696521 0.0070856195
0.080870576 -0.05252582 0.10410453 0.10346261 0.044906646 -0.0028409353 0.094337344 0.04695859
0.04077395 -0.0095806895 0.069102235 0.07986142 0.015395091 0.07485263 0.003740795 -0.06457463
0.01948374 0.024525082 -0.05076704 0.06296549 -0.045588154 0.083678715 -0.036524333 0.07956988
-0.07563544 -0.0481345 0.07166283 -0.1513485 0.10680532 0.013993752 0.104377605 0.09429111
-0.025488347 0.056226987 0.07125517 0.076024696 0.036202203 -0.13725103 0.067164265 -0.020739945
0.0010887262 -0.05007509 0.010009724 -0.011833394 -0.067743026 0.00342415 0.1559041 -0.0074323663
0.042109497 0.03460782 0.04005622 -0.005890279 -0.042483937 -0.036460776 0.062715106 0.0029526474
-0.040959984 -0.06834397 0.067434266 0.06749989 0.038504623 0.04533026 0.00969142 -0.02847997
0.005245893 -0.08105169 -0.0637669 0.035616484 0.13137117 0.07477588 0.040844373 0.17852782
0.03225599 0.07307445 0.00815778 0.036648586 0.067830294 -0.037346054 -0.027714452 0.08399569
-0.07002642 -0.061103314 -0.07597319 0.012101167 0.033314142 -0.018815905 0.11208724 -0.058786917
0.1320309 -0.016402768 0.008495613 0.05994383 -0.11306885 0.043595817 0.035278138 0.057924654
0.023792353 0.0044834497 0.16488747 0.08758745 0.059100304 0.025862452 -0.04487422 0.053778235
0.07242188 0.032776598 0.07474704 -0.0445344 0.043734517 0.024466908 -0.07638098 0.08575959
-0.05489264 0.104763746 -0.06448642 -0.022540137 -0.04869492 0.057500396 -0.023791336 0.03427795
0.024061773 -0.02641016 0.04578246 -0.035460018 0.09587631 -0.041364763 0.03916491 0.054175936
0.052976295 0.09279693 -0.10545177 0.022000886 -0.06230871 0.08002796 0.039474063 -0.022017427
0.08440043 0.03706622 0.052584518 -0.051205322 -0.0025063264 0.029017488 -0.06577369 0.12508264
0.052413978 -0.011502495 -0.0047166706 0.0056505734 0.034256797 0.0077605695 0.02559429 0.035992753
0.053733096 -0.016280917 -0.19741407 -0.011969557 -0.16484812 0.04924821 -0.06380866 -0.0814264
-0.034470737 -0.029071607 -0.044721164 -0.21988903 0.046507798 0.17858104 -0.010927954 -0.016243951
-0.044849657 -0.06257024 0.08305304 -0.024020925 0.05910223 0.008360147 -0.0416465 0.07725785
-0.033826973 0.00076285464 -0.087551266 -0.048897974 -0.07647578 0.07931629 -0.11853282 0.04966786
-0.036758203 0.04891731 -0.17631243 -0.01614833 0.08090023 -0.07544819 0.049741693 0.026689619
00000000: 9d7a 913d a00f 883d 1161 353d 32c0 80bd
00000010: e4d7 0bbe e139 6dbd 8c2e 9f3d a114 4ebe
00000020: a811 e1bc e8cb d5bd a55f c0bc aff9 e9bd
00000030: eac6 b93d ad0d 13bd 0a55 83bd 5b7e 6bbc
00000040: 5c93 143c 7bc1 87bd 8285 66bd 2d02 55bc
00000050: 15ba ed3c 0ee1 e5ba d9d8 5bbd df85 243d
00000060: f4ee a1bd 37a9 003b 0e9c 43bd 4ccd d23c
00000070: 2323 5ebc d78e 683c 3080 8dbd b7d7 4abd
00000080: 434f 28bc 560f 32bc d023 2fbe b36f 8bbd
00000090: 07f3 a9bd a301 a43d 31a8 bdbd b1cb 2ebe
000000a0: 847c 9c3c 45f6 85bc a23f 1c3d cdf3 483d
000000b0: ed7b 86bb de06 193d 9951 0c3e 72f0 a1bc
000000c0: 7e53 293d 2eee 5dbd f57d b8bd 37cf 333d
000000d0: 575a 463d 1991 9d3d b888 3c3d 0b1a 76bd
000000e0: a734 e53b 9d59 d8bc 687d 6c3c 124d 453c
000000f0: 80e0 6d3d cddd 173d 1d0f f5ba 7c2e e83b
00000100: 799f a53d 5025 57bd c134 d53d 34e4 d33d
00000110: 08f0 373d fc2e 3abb f033 c13d a757 403d
00000120: 9602 273d 53f8 1cbc 7985 8d3d 628e a33d
00000130: b13b 7c3c 564c 993d 2028 753b b43f 84bd
00000140: 5d9c 9f3c d3e8 c83c 1af1 4fbd 0df4 803d
00000150: a5ba 3abd bf5f ab3d 8a9a 15bd 89f5 a23d
00000160: c1e6 9abd ae28 45bd f6c3 923d 1afb 1abe
00000170: bfbc da3d 0d46 653c edc3 d53d b31b c13d
00000180: f0cc d0bc 454e 663d 3bee 913d d6b2 9b3d
00000190: c348 143d 898b 0cbe 6b8d 893d d1e6 a9bc
000001a0: 97b3 8e3a 8a1b 4dbd d3ff 233c dae0 41bc
000001b0: dbbc 8abd b467 603b 53a5 1f3e 358b f3bb
000001c0: 027b 2c3d eec0 0d3d fe11 243d 3e03 c1bb
000001d0: a303 2ebd e557 15bd c770 803d 3481 413b
000001e0: a8c5 27bd ecf7 8bbd fa1a 8a3d 623d 8a3d
000001f0: 06b7 1d3d 39ac 393d c3c8 1e3c d34e e9bc
00000200: bde5 ab3b 6efe a5bd 3898 82bd 97e2 113d
00000210: 2a86 063e 1924 993d 6e4c 273d ffcf 363e
00000220: db1e 043d 0fa8 953d 36a8 053c d41c 163d
00000230: 9cea 8a3d 2df8 18bd 6b09 e3bc ef05 ac3d
00000240: 036a 8fbd 7847 7abd d597 9bbd f943 463c
00000250: 6974 083d d023 9abc ff8d e53d 8dca 70bd
00000260: 1c33 073e 195f 86bc 2f31 0b3c a987 753d
00000270: a490 e7bd 8791 323d cf7f 103d 6742 6d3d
00000280: 2ee8 c23c e7e9 923b 43d8 283e 0d61 b33d
00000290: 2913 723d 7edd d33c 08ce 37bd 9146 5c3d
000002a0: ec51 943d c140 063d fa14 993d b469 36bd
000002b0: f722 333d d36e c83c a26d 9cbd b9a2 af3d
000002c0: 1bd7 60bd 608e d63d 7511 84bd 18a6 b8bc
000002d0: 5374 47bd 8985 6b3d 0ce6 c2bc 0967 0c3d
000002e0: 321d c53c 1f5a d8bc 6486 3b3d 863e 11bd
000002f0: cc5a c43d 196e 29bd 626b 203d 96e7 5d3d
00000300: acfd 583d 510c be3d 19f7 d7bd 343b b43c
00000310: 6b37 7fbd b3e5 a33d 8eaf 213d e45d b4bc
00000320: 22da ac3d c0d2 173d dd62 573d acbc 51bd
00000330: 2e41 24bb 15b6 ed3c 5bb4 86bd aa15 003e
00000340: 0ab0 563d f674 3cbc 4d8e 9abb 7228 b93b
00000350: db50 0c3d 604c fe3b 1eab d13c 236d 133d
00000360: 3c17 5c3d 8f5f 85bc ea26 4abe f61b 44bc
00000370: f2cd 28be 7eb8 493d 1dae 82bd e2c2 a6bd
00000380: 3031 0dbd 9427 eebc 8a2d 37bd 972a 61be
00000390: f67e 3e3d f3dd 363e 290b 33bc 0912 85bc
000003a0: 46b4 37bd d324 80bd b617 aa3d 88c7 c4bc
000003b0: 2e15 723d fff8 083c 8595 2abd 5d39 9e3d
000003c0: 278e 0abd 4ffa 473a 144e b3bd 3e49 48bd
000003d0: 559f 9cbd 9470 a23d 56c1 f2bd 8770 4b3d
000003e0: c58f 16bd 845d 483d 3f8b 34be 8149 84bc
000003f0: 05af a53d 9584 9abd f2bd 4b3d 30a4 da3c

critic.2.bias f4 [64]
-0.00932242 0.03179546 0.017242428 0.041358534 -0.02760364 0.085850865 0.044062544 -0.05888123
-0.10006511 -0.018484468 -0.007664429 0.05220131 0.117019065 0.026627822 0.02308074 0.02807767
0.1284988 -0.024608392 -0.08039261 0.05745222 0.06264375 -0.07905972 -0.07853479 -0.075413324
0.06341134 0.0365168 0.016514942 -0.00038715583 -0.016756127 0.021047693 0.08588488 -0.039303698
0.0044287094 0.13059989 0.042107303 -0.02140031 -0.035913244 -0.07807353 -0.01583453 -0.103963114
0.014994918 -0.021280915 0.0432886 0.067716606 -0.021015996 0.061237413 -0.02119743 -0.13256629
0.04316565 -0.08537078 0.053564146 0.059414893 0.0009138019 0.047490682 -0.089012474 -0.058669653
-0.036980815 -0.0845271 -0.10863257 -0.053544715 -0.08538672 -0.033983894 0.03892823 -0.024207167
00000000: 10bd 18bc f53b 023d fe3f 8d3c 9167 293d
00000010: 0721 e2bc 94d2 af3d ed7a 343d 722d 71bd
00000020: f0ee ccbd bd6c 97bc e425 fbbb 0ad1 553d
00000030: b1a7 ef3d 9722 da3c d213 bd3c 2403 e63c
00000040: 3095 033e 8a97 c9bc e1a4 a4bd 0553 6b3d
00000050: 5e4b 803d 10ea a1bd d9d6 a0bd 4d72 9abd
00000060: cedd 813d a492 153d 584a 873c 2dfb cab9
00000070: 2544 89bc 366c ac3c 69e4 af3d eafc 20bd
00000080: b51e 913b fabb 053e b578 2c3d b44f afbc
00000090: c419 13bd 04e5 9fbd 6bb7 81bc 9dea d4bd
000000a0: 3fad 753c 5055 aebc 634f 313d 01af 8a3d
000000b0: bd29 acbc 15d4 7a3d 3ca6 adbc 75bf 07be
000000c0: 77ce 303d e0d6 aebd 1466 5b3d 085d 733d
000000d0: 358c 6f3a 9785 423d 2c4c b6bd 974f 70bd
000000e0: 3279 17bd 8b1c adbd c17a debd b451 5bbd
000000f0: 3cdf aebd b232 0bbd 3573 1f3d 1c4e c6bc

critic.4.weight f4 [1, 64]
-0.1591206 0.11984334 -0.14538662 0.1160608 -0.12172431 0.15756755 0.124298945 -0.1098688
-0.13204677 0.10501105 0.1389203 0.15250437 0.14056495 -0.116834834 0.11528813 0.10918419
0.1354362 0.12978667 -0.092013635 0.1398781 -0.17285848 -0.10667844 -0.14229377 0.1456788
0.13725612 0.14487402 0.081938244 -0.091427 -0.15767603 -0.07696479 0.15668003 -0.15040809
0.18570483 0.03400493 0.10790427 -0.15995216 0.21546489 -0.11367572 -0.08077643 -0.1271167
-0.14846812 -0.13685068 0.08419714 0.1643373 -0.16366051 -0.11488405 0.13092712 -0.1506558
-0.16909248 -0.14669633 -0.10379376 -0.0789959 -0.14697686 0.15753603 -0.1424427 0.1260218
0.10466779 -0.16831471 -0.09224351 -0.094889656 -0.20228745 -0.07440574 0.094319716 -0.071261086
00000000: 83f0 22be 6d70 f53d 3be0 14be 49b1 ed3d
00000010: 984a f9bd 6359 213e 7290 fe3d e502 e1bd
00000020: 4537 07be 0910 d73d 2041 0e3e 1b2a 1c3e
00000030: 42f0 0f3e 1a47 efbd 2f1c ec3d f69b df3d
00000040: caaf 0a3e cce6 043e a571 bcbd 343c 0f3e
00000050: d001 31be 3a7a dabd 75b5 11be d32c 153e
00000060: de8c 0c3e db59 143e 3dcf a73d 143e bbbd
00000070: d375 21be b79f 9dbd bb70 203e 9404 1abe
00000080: 6829 3e3e c148 0b3d eafc dc3d 80ca 23be
00000090: d4a2 5c3e d1ce e8bd 1d6e a5bd e12a 02be
000000a0: 0708 18be 9622 0cbe 8d6f ac3d 0a48 283e
000000b0: 9f96 27be 5448 ebbd c211 063e 8445 1abe
000000c0: 9426 2dbe 9037 16be d391 d4bd 9ac8 a1bd
000000d0: 1a81 16be 2051 213e 80dc 11be dc0b 013e
000000e0: 115c d63d b15a 2cbe 2aea bcbd 8255 c2bd
000000f0: 7124 4fbe 0962 98bd b22a c13d 55f1 91bd

exp_avg f4 [128, 12]
-0.00021491598 0.016319733 -0.013684295 0.0023592566 -0.00026567688 -0.0010978113 -8.165198e-05 -0.0020666276
0.00050923397 0.0 -0.0017581665 0.001172111 -0.00012803408 0.003574959 -0.0032055494 0.0007332251
-0.00020829587 -0.00011036279 -3.077586e-05 -0.00046018852 0.00014206993 0.0 -0.00039867137 0.000265781
0.00011791197 0.0005558154 -0.00036580785 0.00021237403 -5.2222316e-05 -9.844675e-05 3.0917523e-05 -7.482926e-05
2.1834367e-05 0.0 -7.493855e-05 4.9959024e-05 -6.0098114e-06 0.0012943993 -0.0012586322 0.00045108068
-0.00021516862 -5.2149503e-06 -1.3728576e-06 -0.00016660983 7.177337e-05 0.0 -0.00016190036 0.00010793361
0.00050662266 -0.014944033 0.012495475 -0.0013915957 0.00065397145 0.001014111 0.00016160567 0.0018818832
-0.00048674314 0.0 0.0016378241 -0.0010918827 0.000147157 -0.0033713477 0.0024857211 0.00017869976
7.634941e-05 0.00036834407 3.588533e-05 0.00043127954 -6.457161e-05 0.0 0.0003413451 -0.00022756346
-4.51435e-05 -0.001776339 0.001695375 -0.0008640045 -0.000300976 0.00012566235 -2.4337223e-06 0.00023749819
-0.00012773015 0.0 0.00023593694 -0.00015729124 0.0001857585 -0.008933099 0.0074940096 -0.0010730216
0.0002455807 0.0004840985 5.7776335e-05 0.0011155686 -0.00020062804 0.0 0.0008993578 -0.00059957185
-9.959616e-05 -0.015040722 0.012374182 -0.0019242363 0.001453985 0.00085748226 -3.3967965e-05 0.0018908764
-0.00038048808 0.0 0.0015933588 -0.0010622393 9.235615e-05 -0.004050995 0.0033489852 -0.00080720807
-0.00027382674 0.00037809034 2.9054674e-05 0.0005393072 -0.00020883327 0.0 0.0005012161 -0.000334144
0.000307822 0.00048132119 0.00012616253 -0.00015406095 -0.00032791737 -0.0001431948 8.3936764e-05 -4.6937097e-05
-0.00010083426 0.0 -7.599057e-06 5.0659796e-06 0.00019286046 0.0061596404 -0.004754028 0.0006486456
-0.00041394364 -0.0003895314 5.2949337e-05 -0.0007580964 4.1996485e-05 0.0 -0.0005813295 0.000387553
-0.00020022441 0.016718011 -0.013726142 0.001914832 -0.0009731044 -0.0011462896 -7.6133394e-05 -0.002102815
0.0004854243 0.0 -0.0018170458 0.0012113638 -1.7776921e-06 0.00087755214 -0.0007132607 2.7020318e-05
-0.00041004937 -2.250588e-05 6.3820007e-06 -0.00011308683 2.4885438e-05 0.0 -9.741745e-05 6.494496e-05
-0.0003439662 0.0014499947 -0.0017529009 0.00078432285 0.000672648 -7.988968e-05 -9.866232e-05 -0.0002222129
0.0002424871 0.0 -0.00026140767 0.00017427176 -8.1565537e-07 -0.0021072365 0.0016277595 -0.0002310091
-0.00011177343 0.00023872705 8.031461e-06 0.00026841002 -6.3320644e-05 0.0 0.0002321089 -0.0001547392
0.000438198 0.003117718 -0.0023132504 0.0006482143 -0.0003433892 -0.00019236183 0.00010944249 -0.00036378164
-5.3982654e-05 0.0 -0.00025269034 0.00016846022 0.00045827896 -0.0017871627 0.0017112977 -0.00013997254
-0.0004711144 0.0001579641 0.00014110847 0.0002372036 -0.0001614484 0.0 0.00025620696 -0.0001708047
-8.240046e-05 -0.004596969 0.0041113566 -0.0012510612 7.9975e-05 0.00016028581 -1.0081371e-05 0.00057073234
-0.00014939623 0.0 0.00050107116 -0.0003340474 -0.00012587603 0.0040354617 -0.0032465048 -0.00034997266
-0.0006233178 -8.486756e-05 -2.6106927e-05 -0.00046662558 -0.000103147446 0.0 -0.00025242183 0.00016828116
-0.00031550202 0.004490507 -0.0037366862 0.0002271749 -0.00044310445 -0.00026131864 -7.808226e-05 -0.0005772212
0.00014886685 0.0 -0.00048691302 0.0003246087 1.47378805e-05 0.015983848 -0.013229019 0.0018220833
00000000: 125b 61b9 f6b0 853c 1834 60bc c29d 1a3b
00000010: 8c4a 8bb9 6fe4 8fba 933c abb8 4270 07bb
00000020: 1d7e 053a 0000 0000 4772 e6ba 85a1 993a
00000030: e340 06b9 dc49 6a3b 3214 52bb e735 403a
00000040: ff69 5ab9 9272 e7b8 5415 01b8 7545 f1b9
00000050: 9bf8 1439 0000 0000 c404 d1b9 8658 8b39
00000060: 8247 f738 24b4 113a e6c9 bfb9 b8b0 5e39
00000070: 4909 5bb8 3275 ceb8 70ad 0138 a7ed 9cb8
00000080: f228 b737 0000 0000 5428 9db8 188b 5138
00000090: e3a7 c9b6 d5a8 a93a b0f8 a4ba 067f ec39
000000a0: e39e 61b9 15fc aeb6 0743 b8b5 fcb3 2eb9
000000b0: 0985 9638 0000 0000 ccc3 29b9 6a5a e238
000000c0: dfce 043a d1d7 74bc d2b9 4c3c 3466 b6ba
000000d0: 486f 2b3a ebeb 843a b174 2939 86a9 f63a
000000e0: 8f31 ffb9 0000 0000 42ac d63a 811d 8fba
000000f0: 284e 1a39 d4f1 5cbb 7be7 223b 5a61 3b39
00000100: c71d a038 4e1e c139 9483 1638 5c1d e239
00000110: 9f6a 87b8 0000 0000 90f6 b239 1a9e 6eb9
00000120: 7758 3db8 0cd4 e8ba 5837 de3a 5c7e 62ba
00000130: 51cc 9db9 3bc4 0339 0853 23b6 ef08 7939
00000140: 4def 05b9 0000 0000 d765 7739 8cee 24b9
00000150: 2bc8 4239 225c 12bc 4f90 f53b a1a4 8cba
00000160: 49c1 8039 9ace fd39 de54 7238 4538 923a
00000170: ae5f 52b9 0000 0000 e1c2 6b3a 962c 1dba
00000180: 48de d0b8 5c6d 76bc 15bd 4a3c a836 fcba
00000190: a493 be3a a9c8 603a d378 0eb8 49d7 f73a
000001a0: 3f7c c7b9 0000 0000 40d8 d03a d63a 8bba
000001b0: 55af c138 36be 84bb a67a 5b3b d19a 53ba
000001c0: 6790 8fb9 6d3a c639 70ba f337 4b60 0d3a
000001d0: 41fa 5ab9 0000 0000 0b64 033a 0c30 afb9
000001e0: 2b63 a139 d659 fc39 7f4a 0439 6c8b 21b9
000001f0: 53ec abb9 9026 16b9 3507 b038 53de 44b8
00000200: fb76 d3b8 0000 0000 67fb feb6 6ffc a936
00000210: 963a 4a39 cfd6 c93b adc7 9bbb df09 2a3a
00000220: 9306 d9b9 053a ccb9 eb15 5e38 fdba 46ba
00000230: 6225 3038 0000 0000 5d64 18ba 7c30 cb39
00000240: 55f3 51b9 36f4 883c 9de3 60bc 1afb fa3a
00000250: ee17 7fba 193f 96ba cea9 9fb8 62cf 09bb
00000260: 8c80 fe39 0000 0000 f129 eeba a0c6 9e3a
00000270: 0999 eeb5 870b 663a 1efa 3aba b1a9 e237
00000280: e5fb d6b9 02cb bcb7 f824 d636 0829 edb8
00000290: 12c1 d037 0000 0000 984c ccb8 0f33 8838
000002a0: 5d56 b4b9 c00d be3a 98c1 e5ba 049b 4d3a
000002b0: a554 303a 728a a7b8 eee8 ceb8 d201 69b9
000002c0: 2344 7e39 0000 0000 8b0d 89b9 b8bc 3639
000002d0: 69f3 5ab5 9019 0abb 8c5a d53a 083b 72b9
000002e0: e767 eab8 ce52 7a39 ddbe 0637 62b9 8c39
000002f0: 03cb 84b8 0000 0000 4262 7339 7d41 22b9
00000300: f1bd e539 a152 4c3b e799 17bb edec 293a
00000310: eb08 b4b9 bcb4 49b9 7d84 e538 f2b9 beb9
00000320: 6f6b 62b8 0000 0000 867b 84b9 b2a4 3039
00000330: 2945 f039 3b3f eaba 9f4d e03a 98c5 12b9
00000340: e8ff f6b9 2aa3 2539 84f6 1339 dbb9 7839
00000350: 7a4a 29b9 0000 0000 8453 8639 0a1a 33b9
00000360: 69ce acb8 2ca2 96bb 8fb8 863b a6fa a3ba
00000370: 40b8 a738 6512 2839 2923 29b7 339d 153a
00000380: 3fa7 1cb9 0000 0000 515a 033a 1523 afb9
00000390: 97fd 03b9 e83b 843b 50c3 54bb 897c b7b9
000003a0: 2666 23ba edfa b1b8 3300 dbb7 6da5 f4b9
000003b0: dd50 d8b8 0000 0000 7c57 84b9 a174 3039
000003c0: f769 a5b9 1a25 933b 31e3 74bb cc35 6e39
000003d0: 7950 e8b9 9801 89b9 18c0 a3b8 a950 17ba
000003e0: 2419 1c39 0000 0000 5c48 ffb9 3e30 aa39
000003f0: b742 7737 8ff0 823c 87be 58bc f8d2 ee3a
