policy/PPO/checkpoints/2025-10-11_14-37/ppo_soarm_6000.pth (torch, 895437 bytes, 33 tensors)

actor.0.weight f4 [256, 12]
-0.4187295 -0.15814112 -0.10263074 -0.032773755 -0.107364945 -0.10441037 0.0028554972 0.10221869
0.30350658 0.21137111 0.19273625 0.17235182 -0.28251007 -0.16853642 -0.12840569 -0.0076410933
-0.07815481 0.05978319 0.048558388 0.12561086 -0.024376757 0.21241575 -0.26077867 0.15813813
0.19984199 0.053517688 -0.06491331 -0.13950188 0.2966657 0.14563753 0.07595039 0.19342607
-0.05422208 -0.30828032 -0.15176494 -0.34879473 -0.052415077 0.08884056 0.1756994 0.05470246
-0.3068821 0.12288533 0.30315736 -0.23337324 -0.07286604 0.32816145 -0.18123657 0.17453992
-0.12971412 -0.023815304 -0.044757847 -0.2162428 0.17545837 -0.03571828 -0.066564605 0.14597584
-0.040832113 0.30397376 0.22399524 -0.30408403 -0.041692767 0.024222264 -0.20294571 -0.12411215
0.13416597 0.13073362 -0.20589781 -0.0037336862 -0.04945938 -0.12842336 0.16687357 -0.32248443
0.07911323 -0.23986535 -0.21231012 -0.032695886 0.17929676 0.2926644 -0.12407503 0.25778025
-0.053607892 -0.2981922 0.21204296 0.15811454 -0.381048 0.01904903 -0.22402787 -0.18941937
-0.16498598 0.08052173 -0.022661896 -0.14176068 0.06004058 0.15817933 -0.021556275 -0.08181507
0.29770508 -0.008745583 0.08234934 0.30636865 0.28130722 0.17187399 0.19727875 0.04290966
0.06540573 0.34683168 -0.009120992 0.18690895 -0.05261973 0.1981407 0.021057516 0.11598649
-0.28021047 -0.08832177 -0.088564955 0.23848003 -0.2678859 -0.25974807 -0.1642679 -0.2664045
0.23599939 -0.14442717 -0.07954516 -0.054610927 0.018329743 0.20372573 -0.039078724 0.28916568
0.21915479 -0.09060715 -0.051935334 -0.18489984 -0.13081473 -0.05810386 -0.22994143 0.0950759
0.0425588 0.011891078 -0.18599215 0.012217987 -0.15050167 -0.3212958 0.07188304 -0.15018968
-0.04869936 -0.19503912 0.050045643 0.264882 0.25543594 0.31404603 -0.11182015 -0.03983154
-0.19620222 -0.25575393 -0.07131966 0.08599412 -0.015840342 -0.16837755 -0.26543695 -0.23757635
-0.0679682 -0.15604815 -0.27189207 0.19687964 0.27232528 0.30421123 -0.18243814 0.20853204
-0.24292186 -0.06815235 -0.13939118 -0.08368473 -0.33760524 0.1424912 -0.19288918 0.3382247
0.10449111 -0.24983545 -0.007828938 -0.23427181 -0.14618702 0.067967184 -0.10982881 0.045413308
-0.2519384 -0.1571609 -0.28822693 -0.04252224 -0.063103475 0.34075168 -0.180762 -0.23660973
0.08689331 0.08561024 -0.012101466 -0.0072958847 -0.31073543 -0.20729989 -0.18986762 -0.14012207
0.15261309 0.24536139 0.28723043 0.20031449 0.051301647 -0.16494441 -0.03509159 -0.057196643
0.024351282 0.08299403 0.23621216 -0.2251606 0.18568742 -0.4277087 -0.2734459 0.34998372
0.118046455 0.045792613 0.07997839 0.08063234 0.07746883 0.2358716 0.10542585 -0.3076415
-0.04127684 0.036039498 0.05370119 0.3147178 0.2453707 0.21284041 -0.0016294013 0.063198544
0.30849946 -0.25469318 0.100339346 -0.1369563 -0.06951572 0.024830759 0.15370846 -0.33611265
0.33542982 -0.018088525 0.057427205 -0.19579832 0.3406962 0.1389479 0.044746064 -0.17239484
0.1687306 -0.19409096 -0.12821746 -0.1440501 0.21457492 -0.1508154 0.16383211 -0.03546941
00000000: b763 d6be bfef 21be 1130 d2bd c63d 06bd
00000010: 27e2 dbbd 1bd5 d5bd 4b23 3b3b 0858 d13d
00000020: 3765 9b3e ab71 583e a75c 453e ff7c 303e
00000030: 29a5 90be d094 2cbe c87c 03be 2362 fabb
00000040: a10f a0bd 38df 743d 29e5 463d 22a0 003e
00000050: c4b1 c7bc 8483 593e c884 85be f6ee 213e
00000060: 61a3 4c3e 5d35 5b3d 45f1 84bd 95d9 0ebe
00000070: 91e4 973e 0122 153e e18b 9b3d 7c11 463e
00000080: f917 5ebd ebd6 9dbe 4568 1bbe 3995 b2be
00000090: 31b1 56bd 0af2 b53d 8bea 333e b00f 603d
000000a0: a71f 9dbe 4eab fb3d 7137 9b3e 65f9 6ebe
000000b0: ca3a 95bd c704 a83e 1496 39be 98ba 323e
000000c0: c7d3 04be 5018 c3bc 0154 37bd c16e 5dbe
000000d0: 5cab 333e 554d 12bd 0653 88bd b17a 153e
000000e0: 933f 27bd 73a2 9b3e 025f 653e e7b0 9bbe
000000f0: 09c6 2abd c56d c63c 00d1 4fbe 832e febd
00000100: ce62 093e 09df 053e e0d6 52be dcb0 74bb
00000110: eb95 4abd 6a81 03be e8e0 2a3e ae1c a5be
00000120: 1e06 a23d 439f 75be d367 59be 1fec 05bd
00000130: 9299 373e 1cd8 953e 0d1b febd c6fb 833e
00000140: f393 5bbd a6ac 98be ca21 593e c7e8 213e
00000150: b918 c3be b60c 9c3c 9067 65be 27f7 41be
00000160: 16f2 28be 94e8 a43d 71a5 b9bc b629 11be
00000170: 1ced 753d c3f9 213e c996 b0bc a98e a7bd
00000180: cd6c 983e a249 0fbc c5a6 a83d 5adc 9c3e
00000190: 8007 903e bcff 2f3e 7103 4a3e 0ac2 2f3d
000001a0: 70f3 853d ec93 b13e 3770 15bc 0f65 3f3e
000001b0: c987 57bd 65e5 4a3e d080 ac3c 538a ed3d
000001c0: bf77 8fbe 0be2 b4bd 8b61 b5bd 1c34 743e
000001d0: 5728 89be b3fd 84be d835 28be 2c66 88be
000001e0: d3a9 713e b7e4 13be 93e8 a2bd b5af 5fbd
000001f0: 4228 963c 7a9d 503e 0311 20bd 860d 943e
00000200: 1d6a 603e 3e90 b9bd 25ba 54bd 6256 3dbe
00000210: 4cf4 05be 50fe 6dbd c475 6bbe 27b7 c23d
00000220: 2352 2e3d ccd2 423c ba74 3ebe f42d 483c
00000230: 1c1d 1abe e280 a4be 6a37 933d 53cb 19be
00000240: fb78 47bd 56b8 47be a9fc 4c3d 9d9e 873e
00000250: 80c8 823e a4ca a03e f601 e5bd 6626 23bd
00000260: 3ce9 48be 2ef2 82be 0b10 92bd af1d b03d
00000270: 9bc3 81bc 2a6b 2cbe 5ae7 87be 3747 73be
00000280: e932 8bbd 16cb 1fbe 7035 8bbe d19a 493e
00000290: 386e 8b3e 93c1 9b3e 10d1 3abe 6c89 553e
000002a0: 82c0 78be 7693 8bbd 90bc 0ebe e662 abbd
000002b0: 98da acbe 37e9 113e be84 45be ca2b ad3e
000002c0: 6fff d53d ddd4 7fbe f244 00bc f3e4 6fbe
000002d0: 0db2 15be 6132 8b3d eded e0bd 4e03 3a3d
000002e0: 12fe 80be c9ee 20be 7b92 93be cd2b 2ebd
000002f0: 653c 81bd 0177 ae3e ac19 39be d249 72be
00000300: 1ff5 b13d 6c54 af3d 3a45 46bc 5112 efbb
00000310: b718 9fbe 6c46 54be a86c 42be 297c 0fbe
00000320: 9b46 1c3e 0440 7b3e de0f 933e 3e1f 4d3e
00000330: ad21 523d 30e7 28be 33bc 0fbd 0747 6abd
00000340: 577c c73c c6f8 a93d 9ae1 713e 8090 66be
00000350: d824 3e3e a2fc dabe 1a01 8cbe 1131 b33e
00000360: 57c2 f13d 0991 3b3d b6cb a33d 9122 a53d
00000370: faa7 9e3d 5388 713e 82e9 d73d 3083 9dbe
00000380: e711 29bd 279e 133d c7f5 5b3d b122 a13e
00000390: 7542 7b3e d6f2 593e a391 d5ba 3d6e 813d
000003a0: a4f3 9d3e 2567 82be b77e cd3d 463e 0cbe
000003b0: 425e 8ebd e069 cb3c c065 1d3e f516 acbe
000003c0: 75bd ab3e 632e 94bc ca38 6b3d 5b7f 48be
000003d0: bb6f ae3e 5c48 0e3e a647 373d 4688 30be
000003e0: b7c7 2c3e c8bf 46be 704b 03be df81 13be
000003f0: 87b9 5b3e 5a6f 1abe 9bc3 273e 5f48 11bd

actor.0.bias f4 [256]
0.14188957 0.016136343 -0.028632492 -0.09143293 0.26991844 -0.18726145 0.013328293 -0.28825253
-0.17339636 -0.15782812 0.13467675 -0.2518846 0.10150293 -0.032664314 0.20605625 0.10748723
-0.0239979 -0.14186183 -0.21534413 -0.25616324 -0.18622153 0.10093645 0.10311297 0.020352118
0.0212916 0.2409925 0.2935616 0.16308804 0.18503426 0.2598211 0.1701343 0.09802974
-0.029854562 0.037986226 -0.1877814 -0.17217204 0.012896929 0.097951755 0.17541017 0.015223228
-0.19809712 0.005374493 0.21917553 0.1861816 -0.21929394 -0.07842144 -0.15021762 0.02362142
0.21420062 -0.17309783 -0.020627826 0.14800099 0.1576994 -0.13130707 0.11486088 0.23839775
0.06250173 0.2048418 0.14117822 0.09585379 -0.22976987 -0.20303337 -0.03728246 0.14627719
-0.17349377 0.2574315 -0.11216971 -0.11007162 -0.046599958 -0.07933959 -0.20989078 -0.17108348
-0.043324232 0.1796667 -0.0057010646 0.13847436 -0.048864603 -0.27104253 -0.04657653 -0.20268635
0.28501457 0.23809592 -0.046378758 0.040291086 -0.18561871 -0.23158032 -0.15942696 -0.12616572
0.01802374 0.22186428 -0.19667415 -0.10312685 -0.03593547 0.35583422 -0.121918835 -0.23575763
-0.11547319 0.22014612 -0.079253286 0.25868553 0.13614738 0.14449862 -0.24146116 0.17612506
0.094748884 -0.16675483 -0.28982615 -0.05231387 0.11576506 -0.14673626 -0.07903252 0.12844647
-0.17093009 -0.13910563 -0.30569917 -0.096537635 -0.24374858 0.20879768 0.2075207 0.114375345
0.2886115 0.08321186 -0.05871128 0.18822038 0.13486409 0.115065716 0.13478883 -0.26389942
-0.08172617 0.14390734 0.24055809 0.09728581 0.09113832 0.15674408 0.15315913 0.19079392
-0.08371039 -0.05765453 0.21825074 0.2777147 0.2882104 -0.0016195555 -0.101762116 -0.15831035
-0.2349446 0.1589405 -0.16312233 0.05803301 -0.1661969 0.06267649 0.24293993 0.19317238
0.056448955 -0.23932913 0.069477364 -0.2283103 -0.019495362 0.12999019 -0.047090594 -0.103622325
-0.0016268854 0.10744763 0.2589395 -0.066608354 0.18816186 0.24121949 -0.16444379 0.16027762
0.25197256 -0.10677282 -0.257546 -0.024707025 -0.005919573 0.118807964 -0.15183884 -0.024191776
0.06328156 -0.2419602 0.1710579 0.068782106 -0.29600534 0.20268711 0.101654515 0.02940806
0.025965808 -0.17328191 0.023481846 -0.21477142 -0.12989247 0.041303948 0.0059326473 0.071276024
-0.057779275 0.031112406 0.07173756 0.30613258 -0.14872028 -0.0974578 -0.08925547 -0.22193815
0.115181126 0.18457307 0.17375433 0.06814737 0.1941258 0.07428152 0.2826315 -0.18370733
-0.20953667 0.13683641 0.20794654 -0.059996746 0.25910282 -0.0054903305 0.094817966 -0.19101498
-0.21611299 0.0860494 -0.071777835 -0.18590449 -0.108581886 -0.23425885 -0.16352235 0.1621451
-0.19103853 -0.17408039 0.07260717 0.18560554 0.06644455 -0.029614246 0.025459701 -0.15114984
0.109244145 -0.09049349 0.24461399 -0.19919373 0.00064338866 -0.0060913777 -0.14777973 -0.011038315
-0.045925085 -0.034027655 0.13874869 -0.039794665 -0.22000931 0.125366 -0.09900549 0.12369269
0.0074578607 -0.14119402 0.08581619 -0.029569745 0.023291893 -0.1955749 0.2599339 0.19519152
00000000: 804b 113e 5d30 843c b08e eabc 3041 bbbd
00000010: c032 8a3e 77c1 3fbe ea5e 5a3c d695 93be
00000020: d18e 31be b29d 21be b4e8 093e 05f7 80be
00000030: c5e0 cf3d 04cb 05bd 6900 533e 4422 dc3d
00000040: 3e97 c4bc 3a44 11be 2c83 5cbe d427 83be
00000050: dbb0 3ebe c5b7 ce3d e52c d33d 7cb9 a63c
00000060: b96b ae3c bdc6 763e b54d 963e 8d00 273e
00000070: 9f79 3d3e 4507 853e b037 2e3e d1c3 c83d
00000080: 8e91 f4bc 7297 1b3d c449 40be de4d 30be
00000090: a44d 533c ee9a c83d b99e 333e d96a 793c
000000a0: f9d9 4abe 841c b03b 8d6f 603e 64a6 3e3e
000000b0: 978e 60be 6c9b a0bd a6d2 19be b581 c13c
000000c0: 6857 5b3e 8f40 31be b0fb a8bc 928d 173e
000000d0: f47b 213e 5c75 06be 2e3c eb3d 8a1e 743e
000000e0: e800 803d 0cc2 513e 0691 103e fe4e c43d
000000f0: cb48 6bbe fbe7 4fbe 7eb5 18bd b0c9 153e
00000100: 5aa8 31be 10ce 833e 3cb9 e5bd 3b6d e1bd
00000110: 99df 3ebd cc7c a2bd 9ced 56be 8230 2fbe
00000120: c074 31bd 8cfa 373e ffcf babb 39cc 0d3e
00000130: 4026 48bd 16c6 8abe 08c7 3ebd 038d 4fbe
00000140: 6eed 913e 6bcf 733e a7f7 3dbd 4408 253d
00000150: d512 3ebe 6423 6dbe d240 23be 9631 01be
00000160: 86a6 933c 6430 633e f364 49be 2c34 d3bd
00000170: 1231 13bd e72f b63e 95b0 f9bd 736a 71be
00000180: 357d ecbd fc6d 613e 8c4f a2bd 6e72 843e
00000190: 386a 0b3e 72f7 133e 9841 77be 215a 343e
000001a0: b40b c23d c7c1 2abe 1864 94be 1247 56bd
000001b0: 3b16 ed3d 0842 16be cddb a1bd 7987 033e
000001c0: 4c08 2fbe b571 0ebe 9a84 9cbe 86b5 c5bd
000001d0: 3a99 79be 0fcf 553e 4e80 543e 9f3d ea3d
000001e0: e3c4 933e fb6a aa3d 3d7b 70bd d8bc 403e
000001f0: d019 0a3e 93a7 eb3d 1506 0a3e d31d 87be
00000200: 0d60 a7bd 725c 133e dc54 763e c83d c73d
00000210: baa6 ba3d 8581 203e bfd5 1c3e 7b5f 433e
00000220: 5a70 abbd 2827 6cbd 1f7d 5f3e 9f30 8e3e
00000230: 5090 933e 4447 d4ba a868 d0bd 1c1c 22be
00000240: 5195 70be 4cc1 223e 8a09 27be 06b4 6d3d
00000250: 852f 2abe 885c 803d 3fc5 783e fbce 453e
00000260: 0537 673d b212 75be 264a 8e3d 2dca 69be
00000270: bdb4 9fbc 261c 053e 11e2 40bd f137 d4bd
00000280: 373d d5ba 810d dc3d b893 843e f669 88bd
00000290: 81ad 403e 3e02 773e f463 28be d11f 243e
000002a0: 8c02 813e b5ab dabd 12dd 83be 6366 cabc
000002b0: faf8 c1bb 9751 f33d a47b 1bbe d52d c6bc
000002c0: c399 813d 6ac4 77be cd29 2f3e a2dd 8c3d
000002d0: 038e 97be 368d 4f3e 3e30 d03d 2ce9 f03c
000002e0: 3fb6 d43c d070 31be 005d c03c 0aed 5bbe
000002f0: 8802 05be 542e 293d a766 c23b 2af9 913d
00000300: f6a9 6cbd 72df fe3c 24eb 923d 69bd 9c3e
00000310: 214a 18be f497 c7bd 92cb b6bd c143 63be
00000320: 15e4 eb3d b900 3d3e a8ec 313e d990 8b3d
00000330: eac8 463e e920 983d 13b5 903e c61d 3cbe
00000340: c890 56be d81e 0c3e f0ef 543e 26bf 75bd
00000350: 20a9 843e 3be8 b3bb ec2f c23d 6e99 43be
00000360: b94c 5dbe ab3a b03d 4200 93bd bf5d 3ebe
00000370: 2e60 debd 8de1 6fbe 6772 27be 5d09 263e
00000380: 9b9f 43be 2142 32be 11b3 943d 610f 3e3e
00000390: 1514 883d 9399 f2bc dd90 d03c 06c7 1abe
000003a0: 65bb df3d a754 b9bd 177c 7a3e 71f9 4bbe
000003b0: 15a9 283a 2e9a c7bb 9253 17be 0cda 34bc
000003c0: f11b 3cbd 9560 0bbd 2314 0e3e bbff 22bd
000003d0: 1f4a 61be f25f 003e 64c3 cabd 9852 fd3d
000003e0: 1261 f43b 2a95 10be 66c0 af3d 403c f2bc
000003f0: a4ce be3c c944 48be 0e16 853e 49e0 473e

actor.2.weight f4 [128, 256]
0.15522425 0.17281789 -0.014589309 0.03144096 0.12034494 0.028673626 0.02528637 0.090693474
0.012529998 -0.04665249 0.038237434 -0.07665447 -0.05396366 0.15382558 -0.042822544 0.02968088
0.01492049 0.04502776 -0.0038623547 -0.114750564 0.010450002 -0.038244292 -0.075500555 0.027067723
-0.004755463 0.012198498 -0.040954456 0.0024371985 0.0060002333 0.020208431 0.032204077 -0.0044878274
-0.04050678 0.023084113 0.046855114 -0.07998502 -0.055909645 -0.030703919 0.036318723 -0.044048525
-0.07030913 -0.059125226 0.07066838 -0.050972138 -0.09390531 -0.030446872 0.010493729 0.055790026
0.056356188 0.02306817 -0.1049351 -0.027957382 0.17666368 0.12252923 -0.030623851 -0.10177884
0.05037824 -0.058868293 -0.097359486 0.015338469 -0.024571592 0.04663616 -0.020499885 -0.0116051985
0.013713073 0.036798768 -0.017114904 -0.021351451 0.01058503 0.039060656 -0.036300376 0.017268728
-0.036121868 -0.022405248 -0.049798433 0.0041292165 -0.1803371 -0.02325336 0.053338174 0.047964454
0.07992347 0.042765696 -0.0055835797 0.19588405 0.07944679 -0.073133074 -0.02673685 -0.11059395
-0.083291605 -0.05280761 0.08644745 0.040388882 0.00027907686 0.04300749 -0.028837454 0.1687425
-0.07713371 -0.025480775 0.06397507 0.0067075356 -0.0012487726 0.0047733816 0.025252698 -0.061251204
0.05853266 0.035637025 0.056806445 0.0016938099 0.024275254 -0.075967245 -0.11027257 -0.029421706
0.12055163 0.09023207 -0.042116784 0.066256955 0.041308686 -0.013031332 -0.03316182 -0.0075624953
-0.0017750884 0.13036972 -0.0076850643 -0.05014291 -0.0016706154 -0.025972072 -0.027248483 0.027050273
-0.06364762 -0.042646844 0.08079737 -0.09939854 -0.044184443 0.09669815 -0.11585386 0.056392968
-0.052100517 0.06429988 -0.057524785 0.07337536 -0.08889293 0.01425718 0.010543734 -0.034266595
0.04828964 0.055194955 0.17393686 -0.052119024 0.019548636 -0.08956578 0.031597525 -0.04458089
0.104610495 0.005461712 -0.021255033 0.0039685857 -0.073038004 0.009530114 0.019336028 -0.0086823
0.024452377 -0.015834415 -0.039767347 0.017644588 -0.034849647 -0.014308484 -0.031935003 -0.03667285
0.056016672 0.022952521 -0.106769875 0.1305046 0.027360195 -0.09356582 -0.037763342 -0.06706677
0.06580038 -0.12549843 -0.095622756 0.04986806 -0.044995423 -0.03208543 -0.04983974 -0.067922845
0.040136684 -0.033670105 0.0020406623 -0.036903825 0.008235936 -0.11127874 -0.034587495 0.05378533
0.037747335 -0.07797883 -0.057740252 0.08891387 -0.03878967 0.0016086991 -0.007394091 -0.048522677
-0.02753998 -0.0014195783 0.035822913 0.07257749 0.06022354 0.021406185 0.011582625 -0.041355707
0.027626047 0.06490657 0.065891385 -0.018908648 -0.05138862 0.030016454 -0.06484733 0.017384857
-0.15869027 0.0014898302 -0.100454465 -0.025008054 -0.082742095 -0.2214735 0.01354767 -0.079403244
-0.014588711 -0.1101769 0.06404321 0.047898754 0.0030191476 -0.078242674 0.018829037 -0.042645212
0.04114071 0.0746371 0.035570886 0.050159417 0.045282193 -0.06879077 0.038124572 0.04117373
-0.029490585 -0.020134391 0.05090036 0.1446627 -0.008278676 -0.026679046 0.013664662 0.056024134
-0.012181255 -0.016621813 -0.009949903 0.08223909 -0.026824769 -0.06018494 0.08236404 0.064580195
00000000: 1bf3 1e3e 2cf7 303e ff07 6fbc 3cc8 003d
00000010: 6877 f63d f4e4 ea3c 5d25 cf3c 80bd b93d
00000020: 9f4a 4d3c ae16 3fbd db9e 1c3d 05fd 9cbd
00000030: 0009 5dbd 7484 1d3e b166 2fbd 5125 f33c
00000040: 1275 743c 076f 383d 8f1f 7dbb 5802 ebbd
00000050: 7c36 2b3c 0ca6 1cbd 09a0 9abd 21bd dd3c
00000060: b7d3 9bbb 35dc 473c dcbf 27bd 68b9 1f3b
00000070: 9b9d c43b 278c a53c 6ce8 033d a00e 93bb
00000080: 70ea 25bd e51a bd3c 26eb 3f3d 30cf a3bd
00000090: 8301 65bd c986 fbbc f1c2 143d 3a6c 34bd
000000a0: 3cfe 8fbd 4b2d 72bd 95ba 903d 29c8 50bd
000000b0: 6d51 c0bd b86b f9bc e4ed 2b3c 1584 643d
000000c0: bfd5 663d 75f9 bc3c 37e8 d6bd e106 e5bc
000000d0: 53e7 343e 9bf0 fa3d dfde fabc 6d71 d0bd
000000e0: 6a59 4e3d e11f 71bd 6964 c7bd 344e 7b3c
000000f0: 5d4a c9bc 8f05 3f3d 60ef a7bc bb23 3ebc
00000100: ccac 603c 4eba 163d 8e34 8cbc 3de9 aebc
00000110: d56c 2d3c 11fe 1f3d b4af 14bd 2677 8d3c
00000120: 86f4 13bd 368b b7bc 71f9 4bbd 614e 873b
00000130: 4aaa 38be d57d bebc 2179 5a3d 6076 443d
00000140: ebae a33d 152b 2f3d 76f6 b6bb d495 483e
00000150: 00b5 a23d cbc6 95bd 3d07 dbbc 157f e2bd
00000160: ca94 aabd cb4c 58bd 5c0b b13d d06e 253d
00000170: 1051 9239 9f28 303d 863c ecbc d5ca 2c3e
00000180: 47f8 9dbd 0fbd d0bc 5d05 833d e3ca db3b
00000190: dbad a3ba 076a 9c3b bfde ce3c 8be2 7abd
000001a0: f1bf 6f3d 21f8 113d e0ad 683d d402 de3a
000001b0: e6dc c63c b794 9bbd 96d6 e1bd ca05 f1bc
000001c0: c6e3 f63d 97cb b83d a682 2cbd bab1 873d
000001d0: 4c33 293d 5e81 55bc b0d4 07bd cfce f7bb
000001e0: 15aa e8ba a47f 053e fed2 fbbb a762 4dbd
000001f0: 8df8 daba 62c3 d4bc 3638 dfbc 8998 dd3c
00000200: af59 82bd 75ae 2ebd 1779 a53d 7691 cbbd
00000210: bffa 34bd ae09 c63d ca44 edbd 50fc 663d
00000220: 5a67 55bd a8af 833d 1c9f 6bbd d245 963d
00000230: 7f0d b6bd f296 693c a0bf 2c3c 215b 0cbd
00000240: 5ccb 453d 1b14 623d 811c 323e c27a 55bd
00000250: 7624 a03c 436e b7bd 686c 013d 749a 36bd
00000260: 073e d63d 29f8 b23b 091f aebc e90a 823b
00000270: f394 95bd 3224 1c3c 9766 9e3c 3540 0ebc
00000280: 5a50 c83c 2db7 81bc 16e3 22bd 628b 903c
00000290: 81be 0ebd 226e 6abc 47ce 02bd 4536 16bd
000002a0: bd71 653d ed06 bc3c 2aaa dabd ffa2 053e
000002b0: 7d22 e03c 709f bfbd bcad 1abd 4d5a 89bd
000002c0: 5ac2 863d a982 00be ddd5 c3bd 7342 4c3d
000002d0: 1f4d 38bd 036c 03bd c124 4cbd 221b 8bbd
000002e0: 5d66 243d aae9 09bd a2bc 053b 7728 17bd
000002f0: 05f0 063c 1ce6 e3bd 9eab 0dbd 024e 5c3d
00000300: f39c 1a3d 5db3 9fbd 0b81 6cbd 7a18 b63d
00000310: ebe1 1ebd fcda d23a 224a f2bb b7bf 46bd
00000320: 869b e1bc 2511 baba 0cbb 123d 82a3 943d
00000330: f5ac 763d 065c af3c 0dc5 3d3c 9a64 29bd
00000340: 0550 e23c bced 843d 10f2 863d 4fe6 9abc
00000350: e07c 52bd 11e5 f53c adce 84bd b06a 8e3c
00000360: b47f 22be 6846 c33a 12bb cdbd b1dd ccbc
00000370: b074 a9bd f3c9 62be 0cf7 5d3c 2b9e a2bd
00000380: 7d05 6fbc 6da4 e1bd 1629 833d 7c31 443d
00000390: e4dc 453b b23d a0bd 5a3f 9a3c bfac 2ebd
000003a0: 2983 283d 56db 983d c7b2 113d f673 4d3d
000003b0: d279 393d 2de2 8cbd 8328 1c3d c9a5 283d
000003c0: 3d96 f1bc e1f0 a4bc e57c 503d 7522 143e
000003d0: 49a3 07bc 048e dabc bfe1 5f3c 9079 653d
000003e0: e393 47bc 782a 88bc eb04 23bc f86c a83d
000003f0: 9ebf dbbc 7c84 76bd 7aae a83d 9f42 843d

actor.2.bias f4 [128]
-0.0009850975 0.06495114 -0.05844626 -0.044153363 -0.036996827 -0.03235253 0.020024264 -0.053707983
-0.042856913 -0.018754363 0.049744144 -0.05136804 -0.02388937 0.05711914 -0.048739392 0.03488792
-0.045890864 0.050452113 -0.028746929 0.05706768 -0.0039493134 0.032921962 0.050530747 -0.030807
-0.042378686 0.034810267 0.01890085 0.03630666 -0.007925045 -0.029968219 0.0013526579 -0.059178934
-0.044330023 -0.0611029 0.003911359 -0.06400896 -0.019067887 -0.042310916 -0.030988222 -0.017768765
-0.016243877 0.032120522 -0.03594024 -0.020047663 0.034369446 -0.022787867 0.054072794 0.003195173
0.0019758474 -0.06287569 -0.044034835 -0.005859712 0.0418154 -0.058415595 -0.029583296 0.022018204
0.03546461 0.0012654822 0.045388293 -0.060090285 -0.04445146 -0.04048894 -0.047609758 -0.009053683
-0.036270563 -0.005439482 -0.03558317 0.037991818 0.031336587 -0.039919402 -0.047773477 -0.04318744
0.054344356 -0.008884641 -0.04929079 0.017807836 -0.044730466 0.047812432 0.0669222 0.033903494
0.045774147 0.0135990055 0.034474995 0.006135444 0.019682778 -0.019313017 0.033783857 0.021776097
0.062202066 0.022626905 -0.031729437 0.0045156386 -0.03275373 0.024350164 0.05423639 -0.06265616
0.033023383 0.030129565 -0.06647169 -0.047047548 -0.033711035 -0.025291672 0.025020123 -0.034961928
0.017723294 -0.05431872 0.0036379793 -0.023328124 -0.0050239963 -0.031792328 0.05280664 -0.054124948
-0.036447093 0.050842263 -0.03216424 -0.005128939 0.037282895 -0.012451764 0.049623016 0.03663759
0.05135837 0.057623204 -0.042368665 0.0044689416 0.052813213 -0.031512443 0.037809722 -0.03244422
00000000: 631e 81ba 1a05 853d 5865 6fbd 28da 34bd
00000010: fc89 17bd 1684 04bd ed09 a43c e7fc 5bbd
00000020: bb8a 2fbd c0a2 99bc 84c0 4b3d 4b67 52bd
00000030: a4b3 c3bc c2f5 693d f5a2 47bd a3e6 0e3d
00000040: 0ff8 3bbd e0a6 4e3d ae7e ebbc cdbf 693d
00000050: 3e69 81bb 2ed9 063d 54f9 4e3d f65e fcbc
00000060: 4695 2dbd 3695 0e3d f5d5 9a3c 4bb6 143d
00000070: 0cd8 01bc e97f f5bc ab4b b13a 9c65 72bd
00000080: 6693 35bd 0947 7abd db2a 803b 2117 83bd
00000090: 4234 9cbc 364e 2dbd 03db fdbc cd8f 91bc
000000a0: e111 85bc cf90 033d 1336 13bd ff3a a4bc
000000b0: fac6 0c3d 9fad babc 6f7b 5d3d 1c66 513b
000000c0: 387d 013b f8c4 80bd df5d 34bd d402 c0bb
000000d0: a046 2b3d 3145 6fbd ab58 f2bc 855f b43c
000000e0: 5743 113d 89de a53a 13e9 393d 3b21 76bd
000000f0: bc12 36bd bbd7 25bd 7302 43bd e655 14bc
00000100: 7190 14bd af3d b2bb a8bf 11bd 4f9d 1b3d
00000110: cb5a 003d 8782 23bd 1fae 43bd 50e5 30bd
00000120: 3098 5e3d e390 11bc 24e5 49bd bde1 913c
00000130: 4b37 37bd f8d6 433d 820e 893d 64de 0a3d
00000140: ac7d 3b3d 5dce 5e3c a735 0d3d d60b c93b
00000150: c73d a13c 5536 9ebc f160 0a3d c963 b23c
00000160: 98c7 7e3d 0f5c b93c baf6 01bd ecf7 933b
00000170: c628 06bd ff79 c73c fa26 5e3d df51 80bd
00000180: 8743 073d 47d2 f63c 4f22 88bd eeb4 40bd
00000190: 9514 0abd 7b30 cfbc 00f7 cc3c 3d34 0fbd
000001a0: 7130 913c 4e7d 5ebd 2a6b 6e3b 9f1a bfbc
000001b0: 56a0 a4bb ac38 02bd c64b 583d 1fb2 5dbd
000001c0: 8c49 15bd fa3f 503d a6be 03bd a910 a8bb
000001d0: f3b5 183d 7c02 4cbc 8141 4b3d 4c11 163d
000001e0: 275d 523d 4f06 6c3d c48a 2dbd 3370 923b
000001f0: ab52 583d 3113 01bd 5ede 1a3d 3be4 04bd

actor.4.weight f4 [6, 128]
0.11934139 -0.0012710186 -0.07595873 -0.011076183 -0.1194407 -0.056932572 0.028457595 0.09246504
0.016072402 0.03696128 0.006410605 -0.0150379175 0.0130822705 0.0023300636 0.021899095 0.103676714
0.025977232 0.047433175 -0.012030782 0.002636705 -0.05030183 -0.08805449 -0.05990546 0.004847333
0.06552573 -0.0060189296 0.011207895 -0.017175991 -0.05530779 0.03237718 0.024690665 -0.015892621
-0.010929182 -0.08097301 -0.04800243 -0.020271895 -0.010017829 0.007979267 -0.0057047457 0.029309303
-0.0018574374 0.0052723964 -0.029344458 0.023929706 0.05391879 0.08092084 0.03367525 -0.016243992
0.017988643 -0.06261718 0.043649185 -0.00048556915 0.030927077 0.006315376 0.04984714 0.04184005
-0.070057385 -0.038015906 0.024613185 -0.06544318 -0.05888732 0.05690972 -0.011752081 -0.0025057686
-0.008160315 -0.08896354 0.03860859 -0.028433446 -0.019779973 -0.00046851698 -0.060785208 0.03579981
-0.049318925 0.028639562 0.01982679 -0.05986426 -0.0714231 0.013706638 -0.022816114 -0.037640072
0.005788345 0.026027443 0.06062917 -0.055195633 -0.009829833 -0.026252693 -0.04274245 -0.019767093
-0.008422615 0.01046835 0.067720175 0.056094512 -0.08484461 0.023538927 0.03615899 -0.024704544
0.018747464 -0.015891284 0.025939124 0.03762755 -0.02473385 -0.039603017 0.0314306 0.02131203
-0.017213954 -0.031041415 0.1014676 -0.08273595 -0.08072026 0.034613498 0.043245472 0.034699228
-0.02530591 -0.046547554 -0.08363321 -0.045072444 0.08372758 0.00042662676 0.0030655325 -0.018858453
0.06308625 0.00059036963 -0.08943914 -0.024845416 -0.012548973 -0.050161872 -0.005302283 0.0005578257
0.081849135 0.022604551 -0.01211124 0.050306913 0.02193203 -0.022189707 -0.023579162 0.038948376
0.014161051 0.038573027 0.012067049 -0.0565973 0.0035800755 0.048274733 -0.058395244 0.15729484
-0.030496262 -0.03148705 -0.035439402 0.011002496 0.0015017282 -0.13616769 0.059951294 0.013795955
-0.022965858 -0.002714353 -0.03516352 -0.020389399 -0.045372415 0.027811656 -0.039065648 -0.036099255
-0.008210873 0.025442354 0.033936467 0.07671924 -0.00813445 -0.0040174318 0.0018530823 -0.010402365
0.011557466 0.00020681333 -0.007984726 -0.011001706 0.004956735 0.05273338 0.1009526 0.0119185345
0.045747433 -0.01134107 0.050886724 -0.030812915 -0.029908612 -0.041024905 0.065882504 -0.039884392
0.020112649 -0.056505818 0.03637394 0.031816777 -0.014389806 -0.07092803 -0.074569754 -0.053431503
-0.005378979 0.067447454 -0.07947964 -0.062113635 0.013384463 -0.021186061 0.06603201 -0.051605802
0.030031484 -0.076343805 -0.011505217 0.06370556 0.042168155 -0.040765412 -0.024162514 -0.047556072
0.00807571 0.07007207 0.026154792 0.000109333836 0.008203421 -0.007026112 0.02034441 -0.05705905
-0.016802747 0.002600557 0.011827476 -0.08354835 -0.054315545 0.028000142 -0.025428845 0.011249309
-0.024446605 -0.096361704 -0.028366182 -0.02888453 0.09446121 -0.091231816 -0.0115938615 0.06481239
-0.076861896 -0.05396435 0.049761757 -0.018349223 -0.0023525215 -0.05618912 0.004233202 -0.08483665
-0.021489998 -0.00734205 -0.014868525 0.02756849 -0.002803959 0.0072648847 -0.004228421 0.0054547377
-0.07341754 0.03164337 0.006348049 -0.0555508 0.0375392 -0.101224236 0.0049134176 0.019294484
00000000: 4269 f43d 4f98 a6ba 4090 9bbd e178 35bc
00000010: 539d f4bd 2132 69bd e71f e93c 505e bd3d
00000020: 45aa 833c b664 173d 0d10 d23b 9961 76bc
00000030: 0557 563c fbb3 183b bb65 b33c 7554 d43d
00000040: 34ce d43c 4a49 423d c21c 45bc 92cc 2c3b
00000050: 4b09 4ebd ea55 b4bd 6d5f 75bd 60d6 9e3b
00000060: 5b32 863d 713a c5bb 52a1 373c aab4 8cbc
00000070: 6c8a 62bd ef9d 043d 1444 ca3c 3e31 82bc
00000080: 5010 33bc 2dd5 a5bd 329e 44bd 3f11 a6bc
00000090: d221 24bc 79bb 023c e0ee babb 101a f03c
000000a0: 4275 f3ba 11c4 ac3b ca63 f0bc 3b08 c43c
000000b0: f3d9 5c3d d3b9 a53d 0fef 093d 1f12 85bc
000000c0: eb5c 933c 703d 80bd 7dc9 323d fd93 feb9
000000d0: c85a fd3c 37f1 ce3b 842c 4c3d 7960 2b3d
000000e0: 3f7a 8fbd 91b6 1bbd 97a1 c93c 1307 86bd
000000f0: d533 71bd 2b1a 693d cd8b 40bc d237 24bb
00000100: d8b2 05bc 8432 b6bd 0a24 1e3d 42ed e8bc
00000110: 9c09 a2bc 49a3 f5b9 e9f9 78bd d2a2 123d
00000120: a402 4abd 849d ea3c cb6b a23c 3a34 75bd
00000130: 4646 92bd ce91 603c dce8 babc 7a2c 1abd
00000140: 28ac bd3b 8137 d53c 4b56 783d d114 62bd
00000150: 4f0d 21bc e30f d7bc b512 2fbd 99ee a1bc
00000160: 02ff 09bc 7183 2b3c e0b0 8a3d 5cc3 653d
00000170: 03c3 adbd b5d4 c03c 731b 143d 2f61 cabc
00000180: 4894 993c 702e 82bc 497e d43c 591f 1a3d
00000190: a59e cabc c636 22bd 5fbd 003d 9196 ae3c
000001a0: 4704 8dbc 914a febc 3fce cf3d 7771 a9bd
000001b0: aa50 a5bd e2c6 0d3d 2a22 313d c720 0e3d
000001c0: 574e cfbc a6a8 3ebd e347 abbd e29d 38bd
000001d0: 5e79 ab3d e0ac df39 1ae7 483b 0b7d 9abc
000001e0: 5d33 813d 09c3 1a3a de2b b7bd 9d88 cbbc
000001f0: 359a 4dbc 8976 4dbd c6be adbb 0d3b 123a
00000200: 85a0 a73d 2e2d b93c 396e 46bc 9f0e 4e3d
00000210: cdaa b33c 30c7 b5bc 1629 c1bc 5588 1f3d
00000220: c103 683c c0fe 1d3d dfb4 453c 92d2 67bd
00000230: b39f 6a3b babb 453d da2f 6fbd e611 213e
00000240: 4cd3 f9bc 91f8 00bd e828 11bd d043 343c
00000250: a3d5 c43a 8b6f 0bbe 7d8f 753d 6e08 623c
00000260: e522 bcbc 49e3 31bb a007 10bd ab07 a7bc
00000270: 6dd8 39bd 45d5 e33c 4d03 20bd d0dc 13bd
00000280: e686 06bc 7c6c d03c f700 0b3d fa1e 9d3d
00000290: 5b46 05bc a9a4 83bb 20e3 f23a ae6e 2abc
000002a0: 875b 3d3c 08dc 5839 5ed2 02bc 8040 34bc
000002b0: 1b6c a23b f5fe 573d 3dc0 ce3d f545 433c
000002c0: a961 3b3d e5cf 39bc 996e 503d 5e6b fcbc
000002d0: e802 f5bc bb09 28bd 68ed 863d d15d 23bd
000002e0: 48c3 a43c a572 67bd d7fc 143d 4f52 023d
000002f0: 39c3 6bbc b742 91bd 07b8 98bd feda 5abd
00000300: 2542 b0bb e421 8a3d 39c6 a2bd de6a 7ebd
00000310: 824a 5b3c 648e adbc ca3b 873d 9b60 53bd
00000320: 9604 f63c 245a 9cbd 6180 3cbc 1078 823d
00000330: 84b8 2c3d a2f9 26bd 77f0 c5bc 28ca 42bd
00000340: fc4f 043c f281 8f3d 9342 d63c 284a e538
00000350: a467 063c 4d3b e6bb 52a9 a63c c0b6 69bd
00000360: eaa5 89bc 1b6e 2a3b 08c8 413c 661b abbd
00000370: fa79 5ebd 8e60 e53c 2750 d0bc 064f 383c
00000380: 3f44 c8bc 4959 c5bd 3260 e8bc 409f ecbc
00000390: e174 c13d bfd7 babd 2ef4 3dbc 5cbc 843d
000003a0: c569 9dbd b909 5dbd fcd2 4b3d 1c51 96bc
000003b0: c32c 1abb 9026 66bd acb6 8a3b d6be adbd
000003c0: cb0b b0bc 9495 f0bb 1d9b 73bc 50d7 e13c
000003d0: a0c2 37bb 450e ee3b 918e 8abb a8bd b23b
000003e0: ef5b 96bd 7a9c 013d 4b03 d03b 3c89 63bd
000003f0: b4c2 193d a74e cfbd bc00 a13b 770f 9e3c

actor.4.bias f4 [6]
-0.04518583 0.04670485 -0.027510531 -0.05423547 0.018292997 0.09021486
00000000: c714 39bd 964d 3f3d c45d e1bc 0326 5ebd
00000010: 32db 953c 92c2 b83d

critic.0.weight f4 [256, 12]
0.019961046 0.025000324 0.0870919 0.1607103 -0.052052394 -0.036086828 -0.13161008 0.04348763
-0.19205664 -0.58989704 -0.10246629 0.4743913 0.078777485 -0.20232989 0.17733008 0.25718465
-0.22545291 0.123523444 -0.16018565 0.24642704 -0.20203595 0.45275426 0.022625297 -0.5823968
-0.2792303 -0.07790497 -0.18604271 -0.066381946 -0.2749744 0.12809071 0.06944241 0.28452414
-0.26595378 -0.7161456 0.3049099 0.51065034 0.011108784 0.07798961 -0.09099261 -0.34212187
0.17662054 0.22267579 -0.19375287 0.31119257 -0.043334056 -0.59599954 -0.00248778 -0.48571572
-0.08674353 0.062862396 -0.033198703 -0.09923083 -0.114065096 0.23843177 0.1303483 0.24815083
-0.006839166 0.710683 0.2791235 -0.4911284 -0.2653613 0.016447939 0.033380304 -0.089891545
-0.06695454 -0.061585225 -0.01370476 0.021905372 -0.12254755 0.32544962 -0.37950322 -0.106371865
-0.008835812 0.16331811 0.17753343 -0.08666729 -0.122794256 -0.297504 -0.034494262 0.008551657
0.25474674 0.7691085 -0.27227363 0.17080578 0.31736892 0.22989869 0.2492729 0.049143396
-0.14473377 -0.2848026 0.17803292 -0.034176297 -0.23541746 0.6856187 0.058595415 -0.39579162
-0.19832426 0.078076944 -0.20160738 -0.18235494 -0.23357156 0.14951523 0.14991154 -0.22519678
0.19521858 -0.5049694 -0.1632709 0.23964375 -0.10502388 -0.060148016 -0.18657407 -0.28249758
0.034182835 -0.16311496 -0.0315062 -0.10598344 -0.18293864 -0.4936924 0.15331447 -0.12637208
0.23551184 0.026881292 -0.025223758 0.22844048 -0.19907661 -0.04113722 0.0679655 -0.25090328
0.112803474 0.77685523 0.066360466 0.10487268 -0.04984929 -0.046026263 -0.04395136 -0.26991716
-0.01919841 -0.11402572 -0.07658605 -0.05295434 0.18134312 -0.56855655 -0.014721099 0.1922633
0.20132549 0.08083189 0.072542556 0.1621982 0.10438336 -0.14765958 -0.2005442 -0.12846293
-0.12186799 0.75582325 -0.32334232 -0.47967643 -0.08955659 -0.027839018 0.03404466 0.27746764
-0.17333724 -0.040047754 -0.2828746 -0.082133815 0.17060329 0.0679904 -0.26113945 0.10771688
0.14634244 -0.047636073 -0.2171859 -0.08185802 0.15469398 0.11698859 0.039707083 -0.14937754
-0.2304868 0.46845585 0.24760732 0.092511415 0.13915895 -0.1084873 0.03874848 0.24864967
-0.23358834 0.22728984 -0.028847044 -0.24815117 0.092624746 -0.7095184 0.10211617 0.16402689
-0.15146905 -0.09271825 0.11634626 0.38594487 0.03951327 0.31871697 -0.29533088 -0.17879899
-0.03537619 0.37374356 -0.39852223 0.56139064 0.15932946 -0.008122693 0.0087919505 -0.15192237
0.10984159 0.15715896 0.03295204 -0.030159213 0.093505986 -0.6425999 0.10337717 0.25587934
0.1960919 0.1810485 0.28367773 0.1101151 0.19196647 0.26418388 -0.1891797 0.053216837
-0.32979792 -0.82062626 -0.20294853 0.16952124 0.0419908 0.09332002 0.15698631 -0.15128052
-0.021970235 0.19904472 -0.23450637 0.12198002 -0.1413898 0.88723 0.086454295 0.028681913
-0.009366146 -0.022923166 0.18335108 0.22510901 0.0072422023 0.1768329 0.05590238 -0.23252457
-0.05846186 0.6990988 -0.074566506 0.30374786 -0.0409778 -0.1261463 -0.030436551 0.16560599
00000000: 5985 a33c 7bcd cc3c 3d5d b23d 3e91 243e
00000010: e434 55bd c8cf 13bd cbc4 06be 1620 323d
00000020: 7faa 44be 7e03 17bf d9d9 d1bd 6be3 f23e
00000030: 1756 a13d 912f 4fbe 0496 353e b5ad 833e
00000040: 21dd 66be dcf9 fc3d b507 24be 5f57 7c3e
00000050: 83e2 4ebe 68cf e73e b058 b93c f517 15bf
00000060: 46f7 8ebe a48c 9fbd fb81 3ebe 42f3 87bd
00000070: 72c9 8cbe 362a 033e d237 8e3d 26ad 913e
00000080: 182b 88be 5155 37bf 271d 9c3e fbb9 023f
00000090: 9e01 363c 04b9 9f3d 555a babd 992a afbe
000000a0: 04dc 343e 1f05 643e 2767 46be a254 9f3e
000000b0: 0d7f 31bd 6d93 18bf 060a 23bb bbaf f8be
000000c0: 98a6 b1bd 00be 803d 5dfb 07bd 8939 cbbd
000000d0: f69a e9bd 7527 743e 067a 053e 401b 7e3e
000000e0: 151b e0bb 52ef 353f 47e9 8e3e 2f75 fbbe
000000f0: 70dd 87be d4bd 863c c9b9 083d 0f19 b8bd
00000100: 761f 89bd ca40 7cbd ee89 60bc e572 b33c
00000110: 36fa fabd 55a1 a63e 3f4e c2be 7ed9 d9bd
00000120: 15c4 10bc dd3c 273e 53cb 353e 9f7e b1bd
00000130: 8e7b fbbd 7252 98be db49 0dbd 401c 0c3c
00000140: 2a6e 823e 4be4 443f 7367 8bbe b6e7 2e3e
00000150: 2e7e a23e 906a 6b3e 6541 7f3e 964a 493d
00000160: 1735 14be a5d1 91be 434e 363e 72fc 0bbd
00000170: 4611 71be b584 2f3f bf01 703d 33a5 cabe
00000180: 8415 4bbe cee6 9f3d 2a72 4ebe 41bb 3abe
00000190: 622d 6fbe 851a 193e 6982 193e fc99 66be
000001a0: 61e7 473e ad45 01bf 7d30 27be 2c65 753e
000001b0: c316 d7bd c45d 76bd 460d 3fbe 86a3 90be
000001c0: 4d03 0c3d 9c07 27be a50c 01bd d90d d9bd
000001d0: 4454 3bbe 40c5 fcbe 78fe 1c3e af67 01be
000001e0: 042a 713e 2836 dc3c 0ea2 cebc 4dec 693e
000001f0: bdda 4bbe 807f 28bd 7f31 8b3d 6576 80be
00000200: 8205 e73d fcdf 463f ffe7 873d 7dc7 d63d
00000210: c52e 4cbd 0986 3cbd 5706 34bd 9532 8abe
00000220: fc45 9dbc 5186 e9bd 26d9 9cbd a6e6 58bd
00000230: 03b2 393e ec8c 11bf c430 71bc ace0 443e
00000240: 4528 4e3e 318b a53d 3191 943d 4917 263e
00000250: f1c6 d53d 1334 17be 755b 4dbe c98b 03be
00000260: ed95 f9bd a27d 413f 208d a5be 2698 f5be
00000270: 7269 b7bd a70e e4bc 6a72 0b3d 3d10 8e3e
00000280: 517f 31be 1d09 24bd f1d4 90be c635 a8bd
00000290: a1b2 2e3e 8d3e 8b3d 12b4 85be ab9a dc3d
000002a0: cbda 153e 0b1e 43bd fb65 5ebe 2da5 a7bd
000002b0: 1968 1e3e b797 ef3d e5a3 223d 6df6 18be
000002c0: bb04 6cbe 72d9 ef3e c68c 7d3e a076 bd3d
000002d0: af7f 0e3e 972e debd bab6 1e3d 059e 7e3e
000002e0: c831 6fbe abbe 683e a350 ecbc 571b 7ebe
000002f0: 0bb2 bd3d ffa2 35bf 4822 d13d aaf6 273e
00000300: b41a 1bbe 11e3 bdbd f346 ee3d 919a c53e
00000310: abd8 213d df2e a33e 9c35 97be 1517 37be
00000320: a0e6 10bd 515b bf3e 1b0b ccbe 4cb7 0f3f
00000330: 4327 233e 0b15 05bc 1d0c 103c 8a91 1bbe
00000340: a1f4 e03d 47ee 203e b8f8 063d 7410 f7bc
00000350: 1180 bf3d 6d81 24bf 69b7 d33d 9e02 833e
00000360: 51cc 483e c764 393e 353e 913e 0784 e13d
00000370: dc92 443e 1c43 873e 53b8 41be e6f9 593d
00000380: 46db a8be 9014 52bf bdd1 4fbe fa96 2d3e
00000390: 8cfe 2b3d 911e bf3d 05c1 203e 48e9 1abe
000003a0: ecfa b3bc 61d2 4b3e 7022 70be a9d0 f93d
000003b0: 7dc8 10be 8121 633f f30e b13d 55f6 ea3c
000003c0: 7774 19bc 5dc9 bbbc 63c0 3b3e fa82 663e
000003d0: ff4f ed3b af13 353e e5f9 643d ec1a 6ebe
000003e0: b475 6fbd 24f8 323f 53b6 98bd d784 9b3e
000003f0: 56d8 27bd 7f2c 01be 1356 f9bc 9e94 293e

critic.0.bias f4 [256]
0.0093342075 -0.18855405 0.17624888 -0.18403737 -0.17289901 0.1133916 0.111693025 -0.212964
0.0012180426 -0.1384367 -0.18890996 0.19413613 -0.20062792 -0.08568536 -0.28626233 -0.047873776
-0.0046164603 0.07871245 0.033097602 0.2789387 -0.00472927 0.015599409 0.2490862 0.29145372
0.19961573 -0.031817038 0.26359758 0.025596192 -0.021932678 0.0194996 0.2498442 -0.26798958
-0.17828552 0.04950685 0.07757433 0.022455208 0.31156838 0.096341215 0.23515017 -0.23269022
-0.12037307 0.08981156 -0.17813973 -0.029953377 -0.0247148 -0.21741 -0.2273678 0.20110652
0.06714733 -0.17202581 -0.20217718 0.28845507 -0.035154067 0.041995887 0.24522147 0.26087925
0.25220004 0.010135662 -0.12154629 -0.04433121 -0.13638741 -0.042910255 -0.016257353 0.15890706
0.25570643 -0.08029376 0.12158546 -0.034226 -0.008880349 0.3449996 0.11198604 -0.15192218
0.034313418 -0.14743978 -0.012418003 -0.018466847 -0.08243873 0.11601373 -0.09381028 0.13695593
-0.2321496 0.0764393 0.30654308 0.111458786 -0.061719794 0.14173289 -0.11204095 0.27967337
-0.14117081 -0.03458585 0.1074245 -0.12755753 0.27164817 0.16921993 0.1315704 0.19147232
0.07291912 -0.006303723 0.25427365 0.06502879 0.032165077 0.19609474 0.21566105 -0.07491349
-0.12968336 0.15127546 0.06628468 0.21257323 -0.12840356 0.16960871 -0.34100834 -0.008179611
0.14808236 0.09106325 -0.136254 0.00079402095 -0.34479842 -0.021775313 0.06613231 0.05167328
0.055432383 0.11129889 0.36947492 -0.110099435 -0.18704769 -0.15942545 0.15503933 0.10410354
-0.19538341 -0.11149351 0.011241211 0.1464713 -0.0023623807 -0.12792 -0.06193149 0.17806993
-0.15468492 -0.010706059 0.19161242 0.06168167 -0.010898673 0.072122484 0.25054756 0.119335316
0.12623811 0.10232058 -0.3295445 0.055750255 -0.1399964 -0.1069367 0.104361296 0.026733981
0.30941 0.12168598 0.1747366 0.10317836 0.33129764 0.046812367 0.21030994 -0.2019574
0.105398595 0.0154770985 0.014926245 0.22824906 0.14310636 -0.026062334 0.15290575 -0.027782438
-0.18597537 0.055466525 -0.21006857 -0.12851378 0.072620675 0.056177545 -0.028774943 -0.014350544
0.28121945 0.15254153 -0.09643337 0.0642291 0.10461374 0.12880854 -0.10517083 -0.1291453
0.1309514 -0.1706253 0.07190333 -0.22412534 0.24385403 -0.21053317 0.07397788 -0.13421798
0.21341702 0.052361414 -0.13872866 -0.08531186 -0.23193696 0.2831049 -0.13452536 0.06998255
0.122459345 0.21964863 -0.036292203 -0.13015066 -0.10284589 0.0021312556 0.22053595 0.21231228
0.022698091 0.105796814 0.35268942 -0.12167039 -0.113193706 0.01670021 -0.14626352 0.0052524484
-0.20260167 -0.04280057 0.3123147 -0.06615832 -0.020299671 -0.16882311 0.18463245 -0.16928366
-0.05087237 0.09007014 0.0961322 -0.22793776 -0.14577006 0.15006214 0.04644095 0.36666316
0.032652967 -0.13855898 -0.022086846 0.11011617 -0.2190137 0.24936834 -0.026521742 0.16567244
0.19667545 0.049650818 -0.21361348 -0.27624142 -0.16370773 -0.14890529 -0.13523532 0.262948
0.186809 0.0931708 -0.09279606 0.27360466 -0.2532275 -0.009042889 -0.21296406 -0.16011211
00000000: 81ee 183c 5014 41be 967a 343e 4b74 3cbe
00000010: 700c 31be db39 e83d 50bf e43d 3c13 5abe
00000020: baa6 9f3a 5ac2 0dbe 9d71 41be 9fcb 463e
00000030: 6871 4dbe ce7b afbd fa90 92be 4b17 44bd
00000040: ad45 97bb fe33 a13d 5a91 073d 0ed1 8e3e
00000050: fef7 9abb aa94 7f3c 7410 7f3e 6c39 953e
00000060: 1168 4c3e 9552 02bd 43f6 863e 1baf d13c
00000070: 29ac b3bc a0bd 9f3c 28d7 7f3e ee35 89be
00000080: 7b90 36be b2c7 4a3d 4adf 9e3d fcf3 b73c
00000090: e485 9f3e 8b4e c53d 35cb 703e 5846 6ebe
000000a0: 2886 f6bd 20ef b73d 436a 36be c960 f5bc
000000b0: b176 cabc baa0 5ebe 1bd3 68be deee 4d3e
000000c0: 8a84 893d 8927 30be 8907 4fbe 62b0 933e
000000d0: b6fd 0fbd e103 2c3d 561b 7b3e f791 853e
000000e0: 5d20 813e 0c10 263c 43ed f8bd a594 35bd
000000f0: 24a9 0bbe aac2 2fbd 242e 85bc 88b8 223e
00000100: f4eb 823e 0e71 a4bd cc01 f93d 9030 0cbd
00000110: e27e 11bc caa3 b03e f058 e53d 7d91 1bbe
00000120: 3a8c 0c3d 74fa 16be e174 4bbc c947 97bc
00000130: a3d5 a8bd 9b98 ed3d 9b1f c0bd 2d3e 0c3e
00000140: a0b8 6dbe 358c 9c3d 37f3 9c3e 8144 e43d
00000150: e5cd 7cbd 6d22 113e ba75 e5bd 5931 8f3e
00000160: 158f 10be e4a9 0dbd 6001 dc3d 719e 02be
00000170: 7815 8b3e fd47 2d3e 64ba 063e 5211 443e
00000180: 9f56 953d 768f cebb 2830 823e d02d 853d
00000190: 87bf 033d 0fcd 483e 40d6 5c3e 3e6c 99bd
000001a0: b7cb 04be f4e7 1a3e 43c0 873d ccac 593e
000001b0: 397c 03be e8ad 2d3e a598 aebe c603 06bc
000001c0: e7a2 173e 5f7f ba3d 2b86 0bbe d825 503a
000001d0: 6b89 b0be 2462 b2bc 6070 873d 5ca7 533d
000001e0: 110d 633d acf0 e33d d12b bd3e d07b e1bd
000001f0: 6e89 3fbe 6d40 23be a1c2 1e3e 3d34 d53d
00000200: 9712 48be b656 e4bd 0e2d 383c 93fc 153e
00000210: 2cd2 1abb 76fd 02be e0ab 7dbd f757 363e
00000220: b965 1ebe 7768 2fbc 0c36 443e eba5 7c3d
00000230: 5990 32bc f4b4 933d c547 803e 1366 f43d
00000240: 9044 013e 748d d13d 0fba a8be 615a 643d
00000250: 375b 0fbe a101 dbbd 60bb d53d 3901 db3c
00000260: fd6a 9e3e 8036 f93d 27ee 323e 2d4f d33d
00000270: d89f a93e 53be 3f3d 7d5b 573e eccd 4ebe
00000280: 38db d73d a893 7d3c 368d 743c 1fba 693e
00000290: 798a 123e ad80 d5bc 5393 1c3e ff97 e3bc
000002a0: 5470 3ebe de30 633d 371c 57be 1e99 03be
000002b0: 26ba 943d 6d1a 663d 6eb9 ebbc 8b1e 6bbc
000002c0: fffb 8f3e d933 1c3e dc7e c5bd 8c8a 833d
000002d0: bb3f d63d 63e6 033e ce63 d7bd aa3e 04be
000002e0: 2018 063e 66b8 2ebe 0e42 933d 1d81 65be
000002f0: dfb4 793e 0296 57be b781 973d 7070 09be
00000300: fe89 5a3e ec78 563d e30e 0ebe fcb7 aebd
00000310: e280 6dbe 20f3 903e 04c1 09be 0353 8f3d
00000320: f7cb fa3d 92eb 603e 22a7 14bd 3746 05be
00000330: dea0 d2bd 89ac 0b3b 2dd4 613e 6468 593e
00000340: 59f1 b93c 00ac d83d b593 b43e 532e f9bd
00000350: 1ad2 e7bd e1ce 883c 1bc6 15be bb1c ac3b
00000360: d076 4fbe a74f 2fbd b6e7 9f3e 037e 87bd
00000370: 7f4b a6bc f7df 2cbe 4a10 3d3e b258 2dbe
00000380: 8c5f 50bd b276 b83d f5e0 c43d 8468 69be
00000390: bf44 15be e4a9 193e de38 3e3d 46bb bb3e
000003a0: 1ebf 053d 68e2 0dbe 79ef b4bc 9684 e13d
000003b0: 2145 60be 6a5a 7f3e 2044 d9bc 09a6 293e
000003c0: 4a65 493e a85e 4b3d 7ebd 5abe 846f 8dbe
000003d0: 00a3 27be a17a 18be 217b 0abe 1fa1 863e
000003e0: dc4a 3f3e 55d0 be3d dc0b bebd e915 8c3e
000003f0: 09a7 81be a028 14bc 4013 5abe 6ef4 23be

critic.2.weight f4 [128, 256]
0.1216726 -0.15098025 0.25962028 0.035216693 -0.33384794 0.014911464 -0.08549478 -0.22301781
0.14162229 -0.06748158 -0.1254859 0.116788134 -0.29921532 -0.010875731 0.0896359 0.085550494
0.16587314 0.06513584 0.15094212 -0.17048483 -0.050325222 0.13255885 -0.0026965945 -0.08157725
0.26770222 -0.07470222 0.08638176 0.027575983 -0.124051824 -0.012607417 -0.32429308 0.0035241013
-0.1344537 0.056035288 0.09010764 -0.21326852 -0.092285365 0.21732503 0.14440903 0.03782135
-0.20388284 0.09004661 0.18122149 0.10463756 0.10254667 -0.107322186 -0.12973104 -0.11991993
0.08140898 -0.14426637 0.24268381 0.2615775 0.12710866 0.27183077 0.27918953 -0.19993469
-0.008354221 -0.057828177 -0.036042757 -0.14773983 -0.14777943 -0.03933739 -0.042406134 -0.11259585
-0.036915995 -0.012872859 -0.17889547 0.16074799 0.031388875 0.031755377 0.13531312 -0.045168616
-0.17856075 -0.13288496 0.040248822 0.0561014 0.06912465 0.027829293 -0.01736814 0.13792199
-0.060494848 -0.27294472 -0.030302212 -0.010279073 0.0388296 -0.09741331 0.075661175 0.061494347
-0.21032932 -0.32152015 0.04935612 -0.040016633 -0.25300547 0.12972891 0.11834603 0.07104162
-0.037174057 -0.15595196 -0.058338825 0.04855278 -0.059992224 -0.01909596 -0.038089518 -0.26300925
-0.0904931 -0.039427683 0.18353114 0.09434859 -0.076749325 0.020057302 -0.043245804 0.09872644
0.04980809 0.19079876 0.07750585 -0.01725003 -0.20024873 0.018647 0.10704034 0.20339538
0.031004148 -0.16030762 0.060541727 -0.01702023 0.13920197 -0.092875235 -0.04361573 -0.11649498
-0.23650968 0.10422995 0.069961354 0.013518032 0.23372073 -0.23507953 -0.06790269 0.015519062
-0.019856954 0.04971425 0.12689947 -0.0022621497 -0.053141963 0.18108378 0.15705287 0.12388801
0.08724418 0.21175995 -0.113269694 0.045039218 -0.01877216 -0.026204702 0.110027395 -0.07569357
0.092809096 -0.010299312 0.1364472 0.07264825 -0.25625035 0.02294962 -0.0655794 -0.19851215
-0.070113696 0.0767199 0.108360335 -0.16590703 0.082432166 0.037153702 -0.059464816 0.17533217
-0.09197106 0.040978167 -0.41871297 0.27173832 -0.09397249 -0.16339308 0.06440705 -0.07469181
0.20481996 0.14050548 -0.25806686 0.15364172 0.020237302 0.06366102 -0.23251538 0.009488236
-0.0041556205 -0.10079782 0.016882658 -0.14773029 0.069494985 -0.047766138 0.05306613 -0.049156345
0.2759955 -0.14450075 -0.27213576 -0.01047202 -0.011077548 0.08209933 0.04922534 0.20823091
0.14659984 -0.20645106 0.091704816 -0.027598824 -0.19236974 0.1065233 -0.0985334 0.040337697
0.06725135 0.050656162 -0.25430042 0.05766953 -0.1398516 -0.05965152 -0.15384074 -0.36169523
-0.11207145 0.17477623 -0.113389164 -0.061861243 -0.008100878 -0.10727402 0.23474999 -0.1305134
-0.10021035 -0.09224625 0.10654309 0.025101468 0.13718347 -0.015931852 0.09185561 -0.30128738
0.117958464 -0.018161036 -0.034081113 -0.006123022 0.041304134 0.25590461 -0.20251569 -0.17433834
-0.36400312 0.030660683 0.07844524 -0.0041511203 -0.15773284 0.054415137 -0.17980339 0.17879398
-0.117710724 -0.07122488 -0.036835503 0.030998431 0.063806206 -0.35775423 -0.12770231 -0.06435238
00000000: 7c2f f93d 919a 1abe f3ec 843e 613f 103d
00000010: 1eee aabe 374f 743c e317 afbd c85e 64be
00000020: 6f05 113e c833 8abd 607f 00be 9e2e ef3d
00000030: c032 99be 1f30 32bc 0793 b73d 1935 af3d
00000040: a6da 293e f065 853d 9290 1a3e 9393 2ebe
00000050: d221 4ebd 82bd 073e 59b9 30bb f911 a7bd
00000060: 4410 893e 7afd 98bd ece8 b03d 07e7 e13c
00000070: e20e febd 578f 4ebc be09 a6be 9cf4 663b
00000080: 3bae 09be 4285 653d 5b8a b83d 1063 5abe
00000090: 1c00 bdbd 748a 5e3e f6df 133e 8fea 1a3d
000000a0: aac6 50be 5b6a b83d 2092 393e 384c d63d
000000b0: fd03 d23d bccb dbbd 37d8 04be 9598 f5bd
000000c0: c0b9 a63d 90ba 13be 1b82 783e 7ced 853e
000000d0: c628 023e 672d 8b3e eef1 8e3e aebb 4cbe
000000e0: 24e0 08bc 3ddd 6cbd 92a1 13bd 1c49 17be
000000f0: 7e53 17be 3e20 21bd 0eb2 2dbd a798 e6bd
00000100: 3a35 17bd afe8 52bc 6030 37be 1f9b 243e
00000110: 9f91 003d ed11 023d 868f 0a3e ba02 39bd
00000120: a1d8 36be ff12 08be f3db 243d 95ca 653d
00000130: 3991 8d3d 42fa e33c a147 8ebc 6c3b 0d3e
00000140: 72c9 77bd 69bf 8bbe 583c f8bc 8f69 28bc
00000150: c90b 1f3d a180 c7bd 3ff4 9a3d 7fe1 7b3d
00000160: 9260 57be 4a9e a4be a529 4a3d 7be8 23bd
00000170: ef89 81be a8d7 043e 675f f23d 457e 913d
00000180: d343 18bd dfb1 1fbe b1f4 6ebd 48df 463d
00000190: 68ba 75bd 216f 9cbc c103 1cbd 26a9 86be
000001a0: 7254 b9bd ec7e 21bd 96ef 3b3e d539 c13d
000001b0: c02e 9dbd 364f a43c 8322 31bd 1631 ca3d
000001c0: 9103 4c3d c060 433e 63bb 9e3d ef4f 8dbc
000001d0: 010e 4dbe 98c1 983c f737 db3d e146 503e
000001e0: 69fc fd3c ae27 24be 9afa 773d 026e 8bbc
000001f0: f68a 0e3e 5f35 bebd 68a6 32bd ec94 eebd
00000200: 982f 72be 8376 d53d e647 8f3d bc7a 5d3c
00000210: 7d54 6f3e b0b8 70be 9110 8bbd aa43 7e3c
00000220: 0dab a2bc 2ba1 4b3d eff1 013e 9340 14bb
00000230: 63ab 59bd 076e 393e 78d2 203e ffb8 fd3d
00000240: 14ad b23d 9ad7 583e f1f9 e7bd 0b7b 383d
00000250: 13c8 99bc 3eab d6bc 0b56 e13d 3b05 9bbd
00000260: b212 be3d 72be 28bc d1b8 0b3e 9bc8 943d
00000270: 3f33 83be d700 bc3c 7e4e 86bd c546 4bbe
00000280: c597 8fbd 531f 9d3d 06ec dd3d 88e3 29be
00000290: 32d2 a83d 7b2e 183d 6191 73bd 478a 333e
000002a0: 535b bcbd b9d8 273d 8c61 d6be 4921 8b3e
000002b0: a674 c0bd 8450 27be d8e7 833d 05f8 98bd
000002c0: 53bc 513e abe0 0f3e 5721 84be 4154 1d3e
000002d0: b3c8 a53c b560 823d 8318 6ebe 8c74 1b3c
000002e0: df2b 88bb 166f cebd 804d 8a3c 9c46 17be
000002f0: 6353 8e3d 6da6 43bd df5b 593d 2a58 49bd
00000300: 484f 8d3e 01f8 13be 6155 8bbe d692 2bbc
00000310: 9b7e 35bc b223 a83d 83a0 493d 7c3a 553e
00000320: 451e 163e e867 53be bccf bb3d ee16 e2bc
00000330: 93fc 44be e328 da3d e1cb c9bd 2439 253d
00000340: 13bb 893d d67c 4f3d aa33 82be e336 6c3d
00000350: 4235 0fbe 2755 74bd 6d88 1dbe 1e30 b9be
00000360: b785 e5bd 8af8 323e 9438 e8bd 3762 7dbd
00000370: 8cb9 04bc 7bb2 dbbd 4d62 703e 4ea5 05be
00000380: 153b cdbd 9aeb bcbd 4333 da3d 98a1 cd3c
00000390: d379 0c3e 8483 82bc cb1e bc3d 5742 9abe
000003a0: 3594 f13d 74c6 94bc a398 0bbd a2a3 c8bb
000003b0: 862e 293d ee05 833e 4660 4fbe c085 32be
000003c0: 9e5e babe 1d2c fb3c e6a7 a03d 1f06 88bb
000003d0: b884 21be 68e2 5e3d 611e 38be c515 373e
000003e0: 5212 f1bd 5ade 91bd d3e0 16bd 6cf0 fd3c
000003f0: d4ac 823d 902b b7be 65c4 02be 2ecb 83bd
