policy/PPO/checkpoints/2025-10-11_14-37/ppo_soarm_1500.pth (torch, 895437 bytes, 33 tensors)

actor.0.weight f4 [256, 12]
-0.3667624 -0.16708106 -0.09137822 -0.04711154 -0.03834741 -0.113742754 0.047026817 0.1115391
0.2878354 0.15222813 0.20700477 0.1687068 -0.2440724 -0.17128275 -0.12220078 -0.016571037
-0.014341878 0.05592998 0.079530396 0.12888871 -0.0373842 0.1300317 -0.25080413 0.16289146
0.19202863 0.13937658 -0.14469111 -0.06325209 0.26166803 0.25131685 0.06996615 0.10670267
0.01848114 -0.2746375 -0.23311675 -0.272898 -0.053810306 0.057683464 0.20228264 0.035193313
-0.29809573 0.074585155 0.29897225 -0.20053437 -0.09113558 0.28926367 -0.15852329 0.14789592
-0.1416137 -0.025014505 -0.033855397 -0.22407177 0.20020676 -0.03160746 -0.08151421 0.14913379
-0.060474772 0.17851025 0.22883685 -0.2946816 -0.05106701 0.086815275 -0.25682196 -0.066305034
0.21677937 0.19389099 -0.21763876 -0.06371967 -0.0055330843 -0.13299796 0.10924478 -0.24873993
0.053284407 -0.22877128 -0.2162366 -0.026211323 0.15566051 0.30057666 -0.14010254 0.24657588
-0.055954434 -0.2634599 0.20482542 0.18254064 -0.33979225 0.044424817 -0.24866447 -0.16108546
-0.06297492 0.10223193 0.011362793 -0.1635711 0.08634082 0.09629769 -0.052561615 -0.046407834
0.23382482 -0.007999999 0.08361885 0.30609685 0.21556908 0.17416735 0.13696444 0.041338507
0.061823 0.2687161 -0.008662884 0.18136676 -0.012496483 0.23206912 -0.022282446 0.16318777
-0.22827424 -0.078359194 -0.052230258 0.20364118 -0.2041624 -0.18919514 -0.21502957 -0.23449247
0.22883783 -0.11511489 -0.09966661 -0.037197795 -0.04324583 0.23197289 -0.04131938 0.25911885
0.22627072 -0.046589825 -0.06884838 -0.14889225 -0.123359494 -0.059712548 -0.22632731 0.097807914
0.063392766 0.004791368 -0.17285186 0.015993811 -0.1499055 -0.26025593 0.06399928 -0.13105325
-0.08983841 -0.19264527 0.050808962 0.25590828 0.18239164 0.32721335 -0.14837302 -0.04255276
-0.20593141 -0.18522643 -0.064273655 0.09096383 0.020449921 -0.16961628 -0.2550309 -0.24308094
-0.021060346 -0.16853154 -0.24022317 0.19976296 0.24993598 0.22961724 -0.17289108 0.22553006
-0.1553057 -0.022100143 -0.1853522 -0.046323027 -0.25570577 0.18960544 -0.11728783 0.2930124
0.14987415 -0.25065234 -0.051693615 -0.19591732 -0.08031674 0.11929808 -0.16155341 0.093164824
-0.18572855 -0.106004976 -0.23455577 -0.09283119 -0.0147255855 0.2539187 -0.22923203 -0.19230963
0.1645049 0.102695934 -0.03669672 0.013159411 -0.25983354 -0.18963924 -0.1239308 -0.1578279
0.18356343 0.24888909 0.26665825 0.19859423 0.013223369 -0.22186044 0.024889184 -0.1148799
-0.06120437 0.024564734 0.2105856 -0.16937706 0.12630461 -0.31500635 -0.21703048 0.30873647
0.049854446 0.04609365 0.073542744 0.0916794 0.091734394 0.24371997 0.035720356 -0.30716076
-0.025089815 0.0020610278 0.044282384 0.30424687 0.20331536 0.22603413 -0.01161296 0.078174084
0.23222677 -0.24880028 0.072179064 -0.15200059 -0.054176826 0.03251564 0.13361193 -0.3229739
0.24138828 -0.07940645 0.1195637 -0.24864253 0.29421663 0.075967446 -0.038244303 -0.11027819
0.109253936 -0.16886052 -0.07216723 -0.18754268 0.15737003 -0.22957629 0.23827714 -0.107212424
00000000: 48c8 bbbe 4c17 2bbe 8124 bbbd 08f8 40bd
00000010: 2c12 1dbd f6f1 e8bd 319f 403d 9d6e e43d
00000020: 295f 933e b1e1 1b3e 0ff9 533e 7ac1 2c3e
00000030: 1dee 79be bf64 2fbe 6744 fabd fcbf 87bc
00000040: 32fa 6abc d616 653d d5e0 a23d 67fb 033e
00000050: 2d20 19bd 0827 053e 6669 80be 05cd 263e
00000060: 27a3 443e bcb8 0e3e e829 14be 508a 81bd
00000070: 5af9 853e 9aac 803e 6a4a 8f3d ee86 da3d
00000080: c265 973c 499d 8cbe 28b6 6ebe 49b9 8bbe
00000090: 3268 5cbd 7f45 6c3d 2e23 4f3e dd26 103d
000000a0: 01a0 98be 1ac0 983d e412 993e e258 4dbe
000000b0: 4aa5 babd 5e1a 943e ee53 22be 0772 173e
000000c0: 2f03 11be 38eb ccbc f5ab 0abd 1273 65be
000000d0: 0003 4d3e d376 01bd ecf0 a6bd 87b6 183e
000000e0: 65b4 77bd 64cb 363e 3554 6a3e 82e0 96be
000000f0: a42b 51bd 35cc b13d 2b7e 83be efca 87bd
00000100: 69fb 5d3e 5c8b 463e b2dc 5ebe 757f 82bd
00000110: e04e b5bb 9e30 08be babb df3d aeb5 7ebe
00000120: c040 5a3d 0543 6abe 216d 5dbe 21b9 d6bc
00000130: 7865 1f3e 2fe5 993e 0a77 0fbe 637e 7c3e
00000140: 7a30 65bd 37e4 86be c1bd 513e efeb 3a3e
00000150: 40f9 adbe ccf6 353d e6a1 7ebe 96f3 24be
00000160: fff8 80bd f95e d13d 022b 3a3c 2f7f 27be
00000170: 75d3 b03d b937 c53d d94a 57bd 2416 3ebd
00000180: c66f 6f3e 6e12 03bc 5c40 ab3d bab8 9c3e
00000190: 24be 5c3e ed58 323e 6840 0c3e 9152 293d
000001a0: 1d3a 7d3d 2895 893e c5ee 0dbc 35b8 393e
000001b0: 0cbe 4cbc 87a3 6d3e ad89 b6bc b21a 273e
000001c0: b9c0 69be c97a a0bd 65ef 55bd 5087 503e
000001d0: f30f 51be 5fbc 41be b630 5cbe cb1e 70be
000001e0: 7754 6a3e 5bc1 ebbd 021e ccbd b75c 18bd
000001f0: 8a22 31bd 4d8a 6d3e 833e 29bd 3aab 843e
00000200: 83b3 673e f9d4 3ebd 6100 8dbd 3677 18be
00000210: e7a3 fcbd 2595 74bd 59c2 67be 844f c83d
00000220: 11d4 813d e800 9d3b 1400 31be 7405 833c
00000230: d480 19be 4440 85be 0e12 833d d332 06be
00000240: 33fd b7bd cd44 45be 0f1d 503d 6906 833e
00000250: e0c4 3a3e 8288 a73e 19ef 17be ce4b 2ebd
00000260: afdf 52be ffab 3dbe e8a1 83bd 3f4b ba3d
00000270: 9886 a73c e4af 2dbe 6993 82be 36ea 78be
00000280: bf86 acbc 8893 2cbe 10fd 75be a98e 4c3e
00000290: 38ef 7f3e c820 6b3e 5c0a 31be 5af1 663e
000002a0: 7508 1fbe 5c0b b5bc f8cc 3dbe 37bd 3dbd
000002b0: deeb 82be ee27 423e 9a34 f0bd b905 963e
000002c0: 9c78 193e 8155 80be afbc 53bd 8d9e 48be
000002d0: 1a7d a4bd 8d52 f43d 426e 25be 33cd be3d
000002e0: a02f 3ebe 2319 d9bd 632f 70be 471e bebd
000002f0: 9543 71bc a201 823e cdbb 6abe d1ec 44be
00000300: f973 283e 3f52 d23d 4d4f 16bd 929a 573c
00000310: e708 85be ca30 42be 6ecf fdbd a39d 21be
00000320: 0df8 3b3e c8dc 7e3e 6e87 883e 495c 4b3e
00000330: d4a6 583c 622f 63be 67e4 cb3c 2746 ebbd
00000340: 6fb1 7abd fb3b c93c c0a3 573e 2e71 2dbe
00000350: ff55 013e 8348 a1be 3d3d 5ebe b512 9e3e
00000360: 2d34 4c3d b2cc 3c3d 949d 963d 69c2 bb3d
00000370: 3edf bb3d ba91 793e 824f 123d 2d44 9dbe
00000380: 2889 cdbc 4f12 073b 7261 353d 3fc6 9b3e
00000390: e731 503e 7e75 673e 4944 3ebc bc19 a03d
000003a0: dbcc 6d3e 80c5 7ebe 9ed2 933d 0ba6 1bbe
000003b0: 85e8 5dbd 1f2f 053d 91d1 083e d65c a5be
000003c0: 7d2e 773e d99f a2bd d0dd f43d 269c 7ebe
000003d0: 90a3 963e d294 9b3d 0fa6 1cbd 88d9 e1bd
000003e0: 87c0 df3d c6e9 2cbe 6acc 93bd 300b 40be
000003f0: 9c25 213e 0c16 6bbe ecfe 733e 3092 dbbd

actor.0.bias f4 [256]
0.12985495 0.008705546 0.05264949 -0.11688644 0.26373687 -0.12979527 0.021475153 -0.26124582
-0.17437273 -0.11030873 0.15579936 -0.24920616 0.09757374 -0.040758837 0.25071058 0.15555362
-0.0039782007 -0.1971589 -0.20869392 -0.2381264 -0.24429947 0.025366405 0.08734995 0.003415298
-0.014815849 0.23340647 0.27949244 0.19476667 0.16431214 0.2289909 0.12341038 0.1371978
-0.081836134 0.021396989 -0.20919478 -0.13378195 -0.004534719 0.16725855 0.11697633 0.045866445
-0.19032843 -0.040682863 0.23019038 0.18640524 -0.22055069 -0.13915887 -0.20751427 -0.047014583
0.15044849 -0.22280706 -0.03787855 0.15208507 0.1460869 -0.11892512 0.12953821 0.23527156
0.060410816 0.24694248 0.15948874 0.05839705 -0.23186935 -0.15925154 -0.09027516 0.15969688
-0.22676435 0.23736797 -0.1245049 -0.12737323 0.013946684 -0.09395333 -0.19695501 -0.20261575
-0.10745604 0.21731676 -0.032158513 0.18825169 -0.043702424 -0.25144732 -0.030312598 -0.24546197
0.25591922 0.23063713 -0.10667717 0.04436217 -0.15547438 -0.2195849 -0.21788774 -0.11069772
0.01464978 0.23162666 -0.19119434 -0.014315329 -0.03172025 0.3040041 -0.2146359 -0.24352252
-0.14526603 0.18801035 -0.09374317 0.24655652 0.19961593 0.10438244 -0.2343425 0.17804277
0.10860185 -0.15640196 -0.28961068 -0.14467521 0.10412712 -0.20398898 -0.09841369 0.12407185
-0.19899243 -0.13643664 -0.2270395 -0.09850917 -0.24676585 0.18046243 0.20783968 0.12204268
0.29294768 0.0747564 -0.09145094 0.21251133 0.09584204 0.14250705 0.13897635 -0.18086302
-0.089404136 0.20149921 0.23194967 0.08766904 0.115595214 0.18831469 0.15354383 0.20462523
-0.063523665 -0.09282342 0.22116943 0.2780167 0.28103885 -0.06620195 -0.14616968 -0.18860309
-0.2465725 0.1877485 -0.16530907 0.08558587 -0.19017382 0.0776193 0.1822701 0.17805646
0.051643737 -0.26053694 0.06155813 -0.22756575 -0.015718644 0.138846 0.047134936 -0.08781566
-0.019088238 0.17786494 0.17488982 -0.11328807 0.21998186 0.16158131 -0.20047173 0.121353485
0.20799854 -0.14186014 -0.25575316 -0.026478251 -0.004808673 0.09548495 -0.13470796 -0.017318109
-0.006078192 -0.2454254 0.18261981 0.06178563 -0.28018433 0.19969091 0.07186709 0.034776084
0.030479452 -0.22508246 0.11072765 -0.24525224 -0.17203985 0.054351363 0.012956731 0.080182046
0.022643497 0.06939944 0.077830315 0.2838989 -0.18652965 -0.094968624 -0.048094504 -0.21080336
0.11026315 0.16873534 0.22992702 0.11332693 0.24415809 0.08653957 0.26772222 -0.1611941
-0.2136089 0.18575478 0.20699865 -0.09051252 0.26207525 0.005793302 0.06235546 -0.2508093
-0.22949389 0.13014896 -0.022667073 -0.13285461 -0.12259191 -0.22395678 -0.23307456 0.16842294
-0.18945482 -0.18712284 0.059838742 0.22923632 -0.0050169784 -0.04697066 0.036225263 -0.16008575
0.1376516 -0.12164449 0.23872599 -0.18801558 -0.04044206 -0.00428232 -0.21309309 0.013001865
-0.103060186 0.036847465 0.09887825 -0.044859625 -0.23220001 0.17400405 -0.102842934 0.109418705
0.01699635 -0.14466405 0.07787494 -0.026385302 0.048892133 -0.2342776 0.25418878 0.21861751
00000000: b2f8 043e b5a1 0e3c fea6 573d 2862 efbd
00000010: 8508 873e 0de9 04be a9ec af3c 03c2 85be
00000020: c48e 32be 8be9 e1bd de89 1f3e e62f 7fbe
00000030: bed4 c73d bdf2 26bd 235d 803e 7349 1f3e
00000040: 915b 82bb 06e4 49be dcb3 55be 68d7 73be
00000050: a429 7abe 35cd cf3c 88e4 b23d 31d3 5f3b
00000060: 2dbe 72bc 1b02 6f3e a219 8f3e ea70 473e
00000070: 7141 283e 977c 6a3e 95be fc3d 957d 0c3e
00000080: b499 a7bd bd48 af3c 2837 56be 23fe 08be
00000090: fb97 94bb d345 2b3e 4991 ef3d 74de 3b3d
000000a0: 75e5 42be 13a3 26bd 07b7 6b3e 04e1 3e3e
000000b0: 0ad8 61be aa7f 0ebe 9f7e 54be 5d92 40bd
000000c0: 2b0f 1a3e 8927 64be 8a26 1bbd 30bc 1b3e
000000d0: ce97 153e 038f f3bd aaa5 043e 07eb 703e
000000e0: 5571 773d 7dde 7c3e 0451 233e bf31 6f3d
000000f0: 296f 6dbe d612 23be 2fe2 b8bd 9487 233e
00000100: ea34 68be 9710 733e 6dfc febd 216e 02be
00000110: a280 643c 9a6a c0bd 93ae 49be 817a 4fbe
00000120: ea11 dcbd 4988 5e3e a5b8 03bd 0dc5 403e
00000130: 5001 33bd b4bd 80be 2052 f8bc 625a 7bbe
00000140: d807 833e 242c 6c3e 8f79 dabd 1bb5 353d
00000150: ad34 1fbe ddda 60be f71d 5fbe 7cb5 e2bd
00000160: a105 703c 8a2f 6d3e 73c8 43be d78a 6abc
00000170: 18ed 01bd 6da6 9b3e 83c9 5bbe f85d 79be
00000180: 9ec0 14be c985 403e 6bfc bfbd 5079 7c3e
00000190: 1e68 4c3e 76c6 d53d 7bf7 6fbe d850 363e
000001a0: a66a de3d d627 20be da47 94be bd25 14be
000001b0: 9940 d53d 7de2 50be 1e8d c9bd 6219 fe3d
000001c0: acc4 4bbe 0cb6 0bbe 0b7d 68be 2dbf c9bd
000001d0: 30b0 7cbe 25cb 383e edd3 543e 83f1 f93d
000001e0: 3dfd 953e e219 993d a14a bbbd 929c 593e
000001f0: d548 c43d 5eed 113e d14f 0e3e 2834 39be
00000200: 8419 b7bd cf55 4e3e 3784 6d3e d38b b33d
00000210: 2fbd ec3d 91d5 403e 983a 1d3e 4789 513e
00000220: b218 82bd 351a bebd 3d7a 623e 3458 8e3e
00000230: 53e4 8f3e e394 87bd 81ad 15be 2b21 41be
00000240: 807d 7cbe 2541 403e c846 29be a547 af3d
00000250: edbc 42be def6 9e3d 03a5 3a3e 6f54 363e
00000260: 6288 533d 1965 85be 6124 7c3d ff06 69be
00000270: 63c4 80bc a52d 0e3e 9010 413d b2d8 b3bd
00000280: f05e 9cbc 3a22 363e 5116 333e 9303 e8bd
00000290: ed42 613e 9275 253e 7648 4dbe 2d88 f83d
000002a0: 92fd 543e c943 11be 14f2 82be ebe8 d8bc
000002b0: 1392 9dbb 9d8d c33d e2f0 09be b5de 8dbc
000002c0: 922b c7bb cc50 7bbe b000 3b3e ee12 7d3d
000002d0: 5274 8fbe c67b 4c3e 0e2f 933d 5e71 0e3d
000002e0: 0bb0 f93c 047c 66be 2ec5 e23d 6723 7bbe
000002f0: 372b 30be 899f 5e3d 7848 543c 7c36 a43d
00000300: db7e b93c 4b21 8e3d 8065 9f3d 325b 913e
00000310: a101 3fbe e97e c2bd befe 44bd d6dc 57be
00000320: a5d1 e13d f5c8 2c3e fd71 6b3e f317 e83d
00000330: 9404 7a3e a83b b13d e312 893e 1110 25be
00000340: 4bbc 5abe 8036 3e3e 74f7 533e a15e b9bd
00000350: ba2e 863e bdd5 bd3b 7068 7f3d 146a 80be
00000360: 7200 6bbe c545 053e 4cb0 b9bc 0a0b 08be
00000370: 7811 fbbd ed54 65be 19ab 6ebe 1077 2c3e
00000380: 7200 42be 219d 3fbe 7819 753d edbc 6a3e
00000390: 7765 a4bb 4f64 40bd f160 143d 85ed 23be
000003a0: 8bf4 0c3e bf20 f9bd 9674 743e 2887 40be
000003b0: 93a6 25bd b452 8cbb 1335 5abe c605 553c
000003c0: 3811 d3bd 5eed 163d ae80 ca3d babe 37bd
000003d0: d7c5 6dbe 1e2e 323e 519f d2bd ea16 e03d
000003e0: ee3b 8b3c d022 14be e67c 9f3d fd25 d8bc
000003f0: 1e43 483d 78e6 6fbe 0825 823e 45dd 5f3e

actor.2.weight f4 [128, 256]
0.12498526 0.14006655 -0.005342965 -0.0012836003 0.07934557 0.033624627 0.07453483 0.07686386
-0.0039479644 -0.035713803 0.02550256 -0.011828219 -0.017752165 0.08857648 -0.046919763 0.01939728
-0.018185772 0.05792319 0.031725373 -0.07342806 0.018295554 -0.04057676 -0.034575883 0.02012524
-0.028245091 -0.034288164 0.0029353464 0.0029588456 0.040923268 0.009157237 -0.0015690181 0.00024300715
-0.03507461 0.017425919 0.060121287 -0.060175456 -0.034853917 -0.04822326 0.037085984 0.00074510067
-0.058736585 -0.050846983 0.0191719 -0.062426604 -0.067454495 -0.058592938 0.012460005 0.0553804
0.05347956 0.025346983 -0.07727711 -0.06626061 0.011240564 0.022334522 0.0074728457 -0.0013279557
0.08605544 -0.063250594 -0.083138704 0.03898643 -0.032873947 0.013094511 -0.043308992 -0.024011977
0.035126608 -0.05185745 0.0029109372 -0.022920864 -0.003942354 0.028534282 -0.026439443 -0.005078208
-0.045079973 -0.012542023 -0.039359 0.006734028 -0.080859944 0.037425384 0.04002288 0.05459144
0.07959797 0.004521783 -0.004297708 0.07087492 0.06490105 -0.06853837 -0.014077396 -0.07211919
-0.0322401 -0.04507117 0.01930408 0.037681755 -0.026611004 0.016796414 -0.027043924 0.11560462
-0.0572107 -0.015709404 0.0724991 0.013740707 -0.005656659 -0.01305677 -0.018770231 -0.045196906
0.029951416 0.033984687 0.026159693 -0.004504788 0.06444362 -0.03220697 -0.054738604 -0.06612863
0.05491788 0.009437827 -0.021642199 0.026567925 0.071600996 -0.0025318793 -0.010333892 -0.015555363
-0.018056188 0.031985655 0.0057222447 -0.025586758 0.009957865 -0.022733705 -0.038255274 0.050048478
-0.047496572 -0.047680244 -0.029304806 -0.114372246 -0.044213027 0.0675699 -0.10208016 0.054009043
0.014787776 0.05007841 0.008018359 0.04967234 -0.09417132 0.010431833 0.019732486 0.009445356
0.061819147 0.030297447 0.0874638 -0.06132889 -0.008360435 -0.06054633 0.030775337 -0.015650045
0.041158475 -0.05306943 0.007560498 -0.03766278 -0.039366476 0.05793742 0.027677353 0.019894067
0.025593547 -0.026926931 -0.042172994 -0.016380353 -0.031437907 -0.008534482 0.0008472465 -0.015799107
0.060882315 0.009140263 -0.084899254 0.112994835 0.1023174 -0.044953983 -0.0011269059 -0.056840073
0.052631754 -0.08288498 -0.052874014 0.07197061 -0.02701479 0.0015108094 -0.021480575 -0.012666653
0.05807198 -0.01592186 0.014040757 -0.016464967 -0.014445687 -0.06611015 0.0012153109 0.03181687
0.033212062 -0.06218129 -0.009270476 0.073164254 -0.026685787 0.044328604 -0.03073097 -0.07697742
-0.044879775 -0.011540203 0.03160418 0.06266916 0.060540274 -0.011524225 -0.060813393 -0.033024434
0.034055434 0.041787732 0.006314045 -0.04490058 -0.013695136 0.044924557 -0.069050014 0.017891668
-0.029169139 -0.012254441 -0.06300231 -0.033765033 -0.038672112 -0.18165287 0.024403552 -0.021396704
-0.048762985 -0.05306699 0.0879445 0.050837778 0.00067099975 -0.06569545 -0.011326101 -0.042736795
0.049805503 0.06243807 0.0057408204 0.0473873 0.06744932 -0.035290617 0.04325493 0.03171471
-0.03095769 0.01625658 0.0011276233 0.07311268 0.033326194 -0.027583495 0.017575227 -0.008984271
0.049383413 0.045429606 -0.03521243 0.032962 -0.0072175367 -0.05429283 0.059329543 0.042443343
00000000: 46f8 ff3d 9b6d 0f3e 0a14 afbb 7b3e a8ba
00000010: ee7f a23d fab9 093d b8a5 983d cd6a 9d3d
00000020: ed5d 81bb a348 12bd bfea d03c 25cb 41bc
00000030: fd6c 91bc 9667 b53d f02e 40bd 0be7 9e3c
00000040: 54fa 94bc de40 6d3d 77f2 013d 7361 96bd
00000050: 8fe0 953c d133 26bd 719f 0dbd b0dd a43c
00000060: 4062 e7bc bf71 0cbd f15e 403b 31e9 413b
00000070: 289f 273d 3c08 163c 83a7 cdba bccf 7e39
00000080: 65aa 0fbd cdc0 8e3c bd41 763d 8a7a 76bd
00000090: fbc2 0ebd c185 45bd 79e7 173d dc52 433a
000000a0: c695 70bd ed44 50bd 630e 9d3c 0ab3 7fbd
000000b0: 9525 8abd 26ff 6fbd 0c25 4c3c 8fd6 623d
000000c0: 620d 5b3d 7aa4 cf3c 7643 9ebd a5b3 87bd
000000d0: 582a 383c e3f6 b63c c6de f43b cd0e aeba
000000e0: d63d b03d 8789 81bd a044 aabd 3cb0 1f3d
000000f0: d5a6 06bd 5c8a 563c c564 31bd c4b4 c4bc
00000100: ebe0 0f3d 7a68 54bd 6cc5 3e3b 89c4 bbbc
00000110: dd2e 81bb bac0 e93c 8897 d8bc 1967 a6bb
00000120: c7a5 38bd 0f7d 4dbc e736 21bd 1fa9 dc3b
00000130: e699 a5bd 5c4b 193d 08ef 233d 469b 5f3d
00000140: 4304 a33d 772b 943b cad3 8cbb df26 913d
00000150: d7ea 843d d85d 8cbd e1a4 66bc 3ab3 93bd
00000160: 320e 04bd 8c9c 38bd 9723 9e3c 2f58 1a3d
00000170: 52ff d9bc a298 893c 388b ddbc 1dc2 ec3d
00000180: c455 6abd 02b1 80bc 687a 943d b420 613c
00000190: 7f5b b9bb 10ec 55bc 07c4 99bc 6420 39bd
000001a0: ac5c f53c 8733 0b3d da4c d63c e79c 93bb
000001b0: 04fb 833d 75eb 03bd 9635 60bd 726e 87bd
000001c0: 92f1 603d 1ea1 1a3c fb4a b1bc faa4 d93c
000001d0: 8ba3 923d e3ed 25bb 7c4f 29bc ecdb 7ebc
000001e0: 92ea 93bc 6403 033d ab81 bb3b 529b d1bc
000001f0: 5026 233c 093c babc 90b1 1cbd a2ff 4c3d
00000200: c48b 42bd 5c4c 43bd a210 f0bc ff3b eabd
00000210: b818 35bd 1662 8a3d 670f d1bd 9638 5d3d
00000220: 6e48 723c 051f 4d3d 6f5f 033c 3975 4b3d
00000230: e5dc c0bd 47ea 2a3c 06a6 a13c b2c0 1a3c
00000240: 1336 7d3d 5a32 f83c 3920 b33d 0134 7bbd
00000250: 35fa 08bc 6eff 77bd 8f1c fc3c 8634 80bc
00000260: ca95 283d 555f 59bd 0ebe f73b 4a44 1abd
00000270: be3e 21bd ca4f 6d3d 9ebb e23c e2f8 a23c
00000280: 8fa9 d13c de95 dcbc 97bd 2cbd 1730 86bc
00000290: 09c5 00bd 36d4 0bbc c019 5e3a 216d 81bc
000002a0: bc5f 793d 0bc1 153c a9df adbd d669 e73d
000002b0: c98b d13d ab21 38bd b0b4 93ba 23d1 68bd
000002c0: 6594 573d 9abf a9bd 6c92 58bd 5465 933d
000002d0: 1f4e ddbc 5a06 c63a 08f8 afbc cb87 4fbc
000002e0: e2dc 6d3d 8f6e 82bc 340b 663c 8ae1 86bc
000002f0: 9aad 6cbc c264 87bd 114b 9f3a 6852 023d
00000300: 5f09 083d cfb1 7ebd 32e3 17bc 24d7 953d
00000310: 279c dabc e991 353d 84bf fbbc 56a6 9dbd
00000320: dbd3 37bd 1f13 3dbc 6273 013d b058 803d
00000330: 14f9 773d 1ad0 3cbc 7717 79bd a144 07bd
00000340: b67d 0b3d 9d29 2b3d 0ce6 ce3b ace9 37bd
00000350: 9061 60bc d002 383d 186a 8dbd 8c91 923c
00000360: 1ef4 eebc dac6 48bc 5b07 81bd 344d 0abd
00000370: a666 1ebd 3603 3abe f5e9 c73c 2448 afbc
00000380: b2bb 47bd c65c 59bd 3f1c b43d 463b 503d
00000390: 08e6 2f3a 568b 86bd 1c91 39bc c70c 2fbd
000003a0: db00 4c3d 10bf 7f3d 7e1d bc3b 2f19 423d
000003b0: de22 8a3d e58c 10bd 152c 313d 49e7 013d
000003c0: fb9a fdbc 852c 853c c2cc 933a 1abc 953d
000003d0: 0c81 083d c8f6 e1bc ecf9 8f3c c432 13bc
000003e0: 4346 4a3d 6514 3a3d e93a 10bd 2a03 073d
000003f0: 1681 ecbb 2962 5ebd 8903 733d 12d9 2d3d

actor.2.bias f4 [128]
-0.0044772713 0.064436145 -0.05677531 -0.03495771 -0.039513078 -0.02895988 0.01717392 -0.057448804
-0.04614893 -0.018793978 0.041737914 -0.04588758 -0.015499544 0.06290509 -0.053930864 0.03231157
-0.052631147 0.059231933 -0.037999038 0.05814696 -0.004379526 0.034369107 0.048448548 -0.038890343
-0.044935416 0.040002633 0.011389922 0.040062997 0.0048782504 -0.019508451 -0.0009413398 -0.049212374
-0.04322652 -0.06262686 0.0054217004 -0.05487752 -0.019626131 -0.046008084 -0.02490504 -0.008535916
-0.028420944 0.029502805 -0.036445286 -0.020197866 0.028284471 -0.028644828 0.057440687 -0.00043161632
0.01573667 -0.058604185 -0.04837597 -0.011429769 0.039549563 -0.060387895 -0.03255928 0.009979062
0.03451858 0.004715232 0.049344286 -0.059802666 -0.03743387 -0.045355447 -0.044115808 -0.003782523
-0.028851183 0.004633888 -0.03690033 0.027833277 0.045338072 -0.04676477 -0.046244156 -0.048546936
0.051806957 -0.008335146 -0.042754013 0.014307754 -0.03133976 0.044731002 0.06518947 0.03592956
0.04527987 0.013292166 0.03684209 -0.00020508573 0.027042087 -0.034594756 0.04942844 0.023870233
0.06084754 0.025482882 -0.04517303 0.0043221754 -0.030527502 0.020994708 0.043665737 -0.056864154
0.042930502 0.03807571 -0.060549445 -0.05036019 -0.030357301 -0.024532834 0.020969322 -0.035372462
0.01828013 -0.047156602 0.0065527176 -0.016415931 0.0041627805 -0.039863493 0.049706254 -0.055137116
-0.033899512 0.057939697 -0.031121459 0.010985217 0.042829074 -0.008377532 0.05742259 0.03260367
0.0470608 0.061202884 -0.039909866 0.0014925898 0.05491672 -0.030942962 0.04848662 -0.036659762
00000000: 13b6 92bb 19f7 833d 3a8d 68bd d12f 0fbd
00000010: 77d8 21bd 453d edbc 52b0 8c3c 704f 6bbd
00000020: a906 3dbd d4f5 99bc 60f5 2a3d 9df4 3bbd
00000030: cdf1 7dbc 62d4 803d 9ce6 5cbd 2359 043d
00000040: c293 57bd 2f9d 723d e1a4 1bbd 822b 6e3d
00000050: 2082 8fbb 9fc6 0c3d fc71 463d 7b4b 1fbd
00000060: 330e 38bd cdd9 233d cc9c 3a3c 1919 243d
00000070: bbd9 9f3b 30d0 9fbc 3fc4 76ba ea92 49bd
00000080: 4b0e 31bd 8342 80bd 85a8 b13b 40c7 60bd
00000090: fbc6 a0bc f972 3cbd a805 ccbc 3ada 0bbc
000000a0: 0ad3 e8bc deaf f13c a747 15bd ff75 a5bc
000000b0: d6b4 e73c 8fa8 eabc ed46 6b3d 904a e2b9
000000c0: 30ea 803c f10a 70bd e225 46bd ed43 3bbc
000000d0: b9fe 213d 4c59 77bd e15c 05bd 387f 233c
000000e0: 5b63 0d3d 3c82 9a3b 3c1d 4a3d a4f3 74bd
000000f0: 4254 19bd a2c6 39bd c7b2 34bd 35e4 77bb
00000100: 5159 ecbc dfd7 973b cd24 17bd 9d02 e43c
00000110: 6ab4 393d 6a8c 3fbd 836a 3dbd 27d9 46bd
00000120: 8833 543d 2390 08bc d51e 2fbd 126b 6a3c
00000130: 1f5e 00bd db37 373d 0f82 853d e02a 133d
00000140: 6377 393d 63c7 593c bbe7 163d 480c 57b9
00000150: 5e87 dd3c 3bb3 0dbd 7a75 4a3d 828b c33c
00000160: 453b 793d 7ac1 d03c 5b07 39bd 09a1 8d3b
00000170: d014 fabc 18fd ab3c d8da 323d 63ea 68bd
00000180: e5d7 2f3d 47f5 1b3d b202 78bd 7d46 4ebd
00000190: e0af f8bc 15f9 c8bc dbc7 ab3c b7e2 10bd
000001a0: 36c0 953c 4827 41bd 2eb8 d63b b47a 86bc
000001b0: ef67 883b e747 23bd c998 4b3d 75d7 61bd
000001c0: 37da 0abd 2d52 6d3d 6ef2 febc 57fb 333c
000001d0: 8a6d 2f3d ea41 09bc f333 6b3d 6d8b 053d
000001e0: d3c2 403d e0af 7a3d 8778 23bd 01a3 c33a
000001f0: 5bf0 603d 187c fdbc e899 463d 8c28 16bd

actor.4.weight f4 [6, 128]
0.09564351 -0.018928012 -0.04456307 -0.0259185 -0.058991846 -0.060917933 0.02691014 0.08352506
-0.019962214 0.027339237 0.043374583 -0.045317702 -0.023039114 0.0045584403 0.010713614 0.05962502
0.03867212 0.038611237 0.02320393 0.00091779395 -0.02400331 -0.05171023 -0.004973 0.030918589
0.058364686 -0.043187506 0.012345472 -0.026509264 -0.04170391 -0.021064479 0.0011656904 -0.040527258
-0.033937424 -0.02683872 -0.016139163 -0.06665387 0.034187716 0.04157353 -0.0053131194 -0.00066361704
0.042179726 0.042778388 -0.0019532915 0.0067660557 0.04140222 0.06918497 0.014729325 -0.013235155
0.03282441 -0.044438325 0.003936952 0.008397842 0.08618547 0.033196736 0.029167106 0.06405466
-0.06484117 -0.00786585 -0.010524778 -0.011444071 -0.024801765 0.020247592 -0.012610961 -0.04814712
-0.027299816 -0.068288125 0.041142847 0.0012868764 -0.042508516 0.01868729 -0.074283056 0.04000769
-0.054783702 0.018830644 -0.035220962 -0.0759916 -0.07376272 0.0537097 -0.06163459 -0.028890533
-0.009019393 0.0018542997 0.0031560976 0.00046692326 -0.028372418 0.008344544 -0.041353665 0.012927669
-0.0038989503 -0.00633241 0.07639832 0.04501312 -0.023924945 -0.008725676 0.04243446 -0.06847552
-0.039637636 0.0018355525 -0.028486336 -0.008600679 -0.025701193 -0.02431139 0.033757485 0.01964885
-0.014737505 -0.06497424 0.026037125 -0.08518052 -0.06441078 0.0386468 0.001445612 0.027113575
0.0037188781 -0.025425462 -0.07153343 -0.08281864 0.082115084 -0.019903108 -0.046395995 -0.013107951
0.026317714 -0.011435237 -0.046616666 0.022820339 -0.0076966602 -0.04696838 -0.060504045 -0.0069606816
0.07074712 -0.007934838 -0.0046103206 0.04665825 0.015728172 -0.035065453 -0.032452583 0.029897708
-0.022264263 0.05740804 0.018175233 -0.054143026 -0.007422428 0.03880753 -0.04098012 0.1199149
-0.02933818 -0.031476207 -0.0425608 0.0042319098 0.01422898 -0.11079089 0.061240982 0.026700234
-0.009489238 -0.032776747 -0.047338065 -0.037352063 -0.041719977 -0.0016525711 -0.02914834 -0.027865585
-0.013629383 0.032638002 0.03691114 0.08082954 0.024784708 0.01694391 0.02847879 -0.0025064948
0.014886943 0.012141887 0.021280041 -0.011621272 0.0004311903 0.046651382 0.068227746 -0.003146152
0.053825967 -0.015167103 0.023893941 0.00734109 -0.0014116513 -0.0018314405 0.058658503 -0.05004845
0.033042468 -0.028382977 -0.0050967997 0.040822618 0.0021896984 -0.06741515 -0.059121788 -0.056516234
0.008403842 0.08394323 -0.07835353 -0.04205923 0.00032025267 -0.00946425 0.07178157 -0.026151588
0.030676503 -0.067586645 -0.033880662 0.058219183 0.042909943 -0.029906997 -0.039601307 -0.042060144
-0.005736934 0.046281107 -0.024870886 0.0038652099 -0.008820644 0.0027607973 0.013514722 0.013307133
-0.012062601 -0.008771489 0.017844915 -0.0718902 -0.020819847 -0.01941592 -0.02795289 -0.0028656512
-0.03794407 -0.07816944 -0.03430776 -0.0562287 0.07048996 -0.06538402 0.00037156875 0.07071611
-0.05647473 -0.051484503 0.007317727 -0.028464692 0.021297082 -0.030825201 -0.01721496 -0.06563687
0.026755223 0.023651218 -0.01737438 0.0052716313 -0.017809976 -0.0110198455 -0.029882034 -0.017611716
-0.07482418 -0.01091657 0.02408868 -0.018624375 0.051476475 -0.07381999 -0.026493693 -0.00040323075
00000000: bfe0 c33d eb0e 9bbc c487 36bd 0953 d4bc
00000010: 6fa1 71bd 1585 79bd a772 dc3c 300f ab3d
00000020: cc87 a3bc 89f6 df3c 8ca9 313d 0e9f 39bd
00000030: 86bc bcbc f85e 953b 2788 2f3c 5d39 743d
00000040: a866 1e3d d126 1e3d 2b16 be3c 1c98 703a
00000050: 97a2 c4bc 1bce 53bd 8cf4 a2bb fb48 fd3c
00000060: cf0f 6f3d 62e5 30bd aa44 4a3c f529 d9bc
00000070: b8d1 2abd 6a8f acbc 14ca 983a e9ff 25bd
00000080: f801 0bbd e0dc dbbc 4736 84bc d381 88bd
00000090: 6b08 0c3d 0149 2a3d ad19 aebb 96f6 2dba
000000a0: a6c4 2c3d 6438 2f3d cb02 00bb cab5 dd3b
000000b0: 6095 293d d9b0 8d3d 4453 713c 43d8 58bc
000000c0: e372 063d f604 36bd 8c01 813b 1a97 093c
000000d0: 0282 b03d 4df9 073d dbef ee3c 172f 833d
000000e0: 73cb 84bd c4df 00bc 1e70 2cbc ea7f 3bbc
000000f0: 122d cbbc 47de a53c 349e 4ebc ea35 45bd
00000100: dda3 dfbc a5da 8bbd 6785 283d 68ac a83a
00000110: 691d 2ebd 1616 993c b721 98bd 1bdf 233d
00000120: e064 60bd b942 9a3c db43 10bd 7ca1 9bbd
00000130: e910 97bd b4fe 5b3d 8d74 7cbd d7ab ecbc
00000140: 13c6 13bc f90b f33a 88d6 4e3b 61cd f439
00000150: 466d e8bc 8eb7 083c 7662 29bd 93ce 533c
00000160: 8885 7fbb 1b80 cfbb b976 9c3d ad5f 383d
00000170: 3ffe c3bc 23f6 0ebc c2cf 2d3d e53c 8cbd
00000180: 135b 22bd ec96 f03a 2d5c e9bc dde9 0cbc
00000190: 4f8b d2bc ae28 c7bc 4a45 0a3d a0f6 a03c
000001a0: 9375 71bc 3711 85bd cf4b d53c 2073 aebd
000001b0: cde9 83bd 1b4c 1e3d b17a bd3a 4a1d de3c
000001c0: 6cb8 733b 0f49 d0bc 1e80 92bd d29c a9bd
000001d0: f42b a83d d80b a3bc ba09 3ebd bbc2 56bc
000001e0: 3f98 d73c dc5a 3bbc 1ef1 3ebd b8f1 ba3c
000001f0: 4434 fcbb eb61 40bd 17d3 77bd 6e16 e4bb
00000200: dee3 903d 1f01 02bc 2c12 97bb b91c 3f3d
00000210: 5ed8 803c cba0 0fbd 00ed 04bd 0aec f43c
00000220: 8b63 b6bc b124 6b3d 3ae4 943c 14c5 5dbd
00000230: d737 f3bb a5f4 1e3d c5da 27bd f195 f53d
00000240: 9f56 f0bc 32ed 00bd 3c54 2ebd d5ab 8a3b
00000250: ab20 693c 56e6 e2bd d3d7 7a3d 73ba da3c
00000260: c078 1bbc e940 06bd 8fe5 41bd 7afe 18bd
00000270: 91e2 2abd 169b d8ba 80c8 eebc 5e46 e4bc
00000280: c74d 5fbc 6daf 053d 2330 173d f589 a53d
00000290: 4d09 cb3c f4cd 8a3c 5a4c e93c 0144 24bb
000002a0: 5de8 733c c4ee 463c 7b53 ae3c 2667 3ebc
000002b0: 6211 e239 8515 3f3d fdba 8b3d ac2f 4ebb
000002c0: 9e78 5c3d 717f 78bc 3abd c33c 878d f03b
000002d0: 2807 b9ba f20c f0ba e643 703d 9aff 4cbd
000002e0: 8a57 073d 6b83 e8bc 0e03 a7bb 9e35 273d
000002f0: 0b81 0f3b f410 8abd b029 72bd 917d 67bd
00000300: 45b0 093c 6eea ab3d d177 a0bd 4d46 2cbd
00000310: 96e7 a739 f10f 1bbc 3702 933d db3b d6bc
00000320: 4a4d fb3c de6a 8abd 73c6 0abd 3d77 6e3d
00000330: 56c2 2f3d 85ff f4bc fb34 22bd 4247 2cbd
00000340: e4fc bbbb 4291 3d3d 07be cbbc 764f 7d3b
00000350: 7684 10bc 7eee 343b da6c 5d3c 2906 5a3c
00000360: 37a2 45bc 4bb6 0fbc 802f 923c 2b3b 93bd
00000370: 628e aabc 230e 9fbc 76fd e4bc a6cd 3bbb
00000380: 3e6b 1bbd 4d17 a0bd 4b86 0cbd 1150 66bd
00000390: 0a5d 903d 0fe8 85bd 1dcf c239 9cd3 903d
000003a0: 0c52 67bd 6ae1 52bd 8bc9 ef3b c92e e9bc
000003b0: 3877 ae3c 2285 fcbc 6306 8dbc a06c 86bd
000003c0: c52d db3c 33c0 c13c b754 8ebc a6bd ac3b
000003d0: 3ae6 91bc 958c 34bc 2bcb f4bc 7246 90bc
000003e0: 6b3d 99bd 6adb 32bc a055 c53c 2592 98bc
000003f0: ffd8 523d ef2e 97bd 4d09 d9bc b768 d3b9

actor.4.bias f4 [6]
-0.0547521 0.042157806 -0.015023931 -0.026080446 0.021715745 0.07427138
00000000: bd43 60bd aaad 2c3d ef26 76bc a9a6 d5bc
00000010: 38e5 b13c 981b 983d

critic.0.weight f4 [256, 12]
0.012219133 0.05878156 0.06312491 0.19216558 -0.0075794705 0.03386333 -0.14520617 0.013548496
-0.16050902 -0.49147785 -0.13477509 0.19937208 -0.044628035 -0.2269779 0.19261089 0.23340163
-0.15079759 0.102935225 -0.25986418 0.25493026 -0.20318331 0.3915707 0.035531167 -0.26959258
-0.26061586 -0.038422737 -0.21588391 -0.029932912 -0.25357464 0.21247073 0.0791981 0.2508337
-0.23255904 -0.61382955 0.26227108 0.25229922 -0.026233139 0.092904195 -0.110812046 -0.32397425
0.2120928 0.2200088 -0.20489731 0.28411967 -0.0026234684 -0.42433524 -0.054214742 -0.33802038
-0.086253 0.07305029 -0.053306174 -0.08773703 -0.11405218 0.22720096 0.13803636 0.23146842
0.007687601 0.61320794 0.26255628 -0.1650335 -0.31203693 -0.086314976 0.12602527 -0.20022371
-0.099533565 -0.19358034 -0.044410348 0.117266506 -0.20768814 0.24986239 -0.27289957 0.085703455
0.02999992 0.14736226 0.19371004 -0.10356932 -0.15577172 -0.2961124 -0.009719082 0.032505047
0.21560784 0.5942769 -0.22346006 0.16580038 0.27802128 0.23352854 0.23663035 0.05079102
-0.12011377 -0.28320965 0.15336628 -0.048304446 -0.21898478 0.6062945 0.052725572 -0.10246325
-0.12877303 0.078372315 -0.19233188 -0.18153569 -0.28583145 0.15179694 0.19945681 -0.20879503
0.17257895 -0.4693705 -0.15626839 -0.048192017 -0.15454252 -0.057753596 -0.19247721 -0.28133506
0.0686963 -0.17700359 -0.051862307 -0.12302286 -0.14946482 -0.3230255 0.12356944 -0.03659248
0.26883677 0.021648863 -0.023961857 0.22219023 -0.2196183 -0.036221325 0.1000352 -0.24313344
0.096354924 0.6249588 0.0905184 0.23661263 -0.028663918 -0.034220114 -0.04561199 -0.26076123
-0.01775937 -0.07461217 -0.065915234 -0.05882025 0.18609221 -0.4588209 -0.02225833 -0.10266445
0.20869835 0.06413675 0.08057325 0.14542383 0.07276171 -0.19021212 -0.19019239 -0.11420295
-0.14062633 0.63125676 -0.29880533 -0.22412209 -0.1579177 -0.108312204 0.11491376 0.17756234
-0.20716272 -0.16049042 -0.3237995 -0.022858577 0.13278715 0.08890749 -0.18847598 0.056141604
0.21277435 -0.010485385 -0.25273618 -0.046138894 0.116441794 0.15213981 0.08330642 -0.18177748
-0.19746079 0.36776313 0.20083748 0.025204122 0.118412174 -0.08497579 0.022139493 0.27446818
-0.20113812 0.2538336 -0.04987905 -0.2750404 0.1262274 -0.5669963 0.058641516 -0.022035455
-0.083644375 -0.09983432 0.13470341 0.37569815 0.0052010803 0.32999882 -0.26594514 -0.15419748
-0.06967425 0.2598355 -0.36588472 0.2522603 0.17229132 0.035772603 -0.025492093 -0.10911769
0.13702963 0.24259394 0.036839545 -0.06959285 0.13040498 -0.5418822 0.054416742 0.032055013
0.1816336 0.20102972 0.27085185 0.1328239 0.21462993 0.2803126 -0.20967996 0.035096664
-0.31092227 -0.7063898 -0.23390527 -0.012574579 0.07460897 0.092876144 0.15560888 -0.15413427
-0.033860054 0.22358975 -0.21189061 0.12958068 -0.16588236 0.6966055 0.11206907 0.13001971
0.005633443 -0.021911943 0.18471049 0.22552915 -0.011688332 0.16725321 0.056305416 -0.2236711
-0.058997456 0.55982953 -0.07445301 0.21256877 -0.06627687 -0.12149348 -0.032434657 0.17308556
00000000: c232 483c efc4 703d a247 813d 0ec7 443e
00000010: 355d f8bb 46b4 0a3d edb0 14be 83fa 5d3c
00000020: 7a5c 24be fca2 fbbe 7b02 0abe 3228 4c3e
00000030: e3cb 36bd e56c 68be ca3b 453e d600 6f3e
00000040: af6a 1abe b4cf d23d eb0c 85be 3886 823e
00000050: 490f 50be f47b c83e 2189 113d 0a08 8abe
00000060: 716f 85be 2961 1dbd ac10 5dbe de35 f5bc
00000070: 89d4 81be ed91 593e 9d32 a23d 466d 803e
00000080: f523 6ebe ef23 1dbf 6548 863e 5d2d 813e
00000090: e1e6 d6bc 8e44 be3d 6df1 e2bd f4df a5be
000000a0: db2e 593e fd49 613e 9ad0 51be 2278 913e
000000b0: 7fee 2bbb 7842 d9be 4710 5ebd 0211 adbe
000000c0: 6aa5 b0bd 649b 953d 9357 5abd 79af b3bd
000000d0: 3094 e9bd 5ea7 683e 6759 0d3e 0f06 6d3e
000000e0: 45e8 fb3b 32fb 1c3f c76d 863e 8bfe 28be
000000f0: 4ec3 9fbe e8c5 b0bd c50c 013e 7207 4dbe
00000100: 41d8 cbbd ed39 46be a0e7 35bd 6c29 f03d
00000110: 33ac 54be eddb 7f3e 7eb9 8bbe 4b85 af3d
00000120: 64c2 f53c 22e6 163e ed5b 463e 271c d4bd
00000130: 9f82 1fbe 0b9c 97be c93c 1fbc 0324 053d
00000140: 4dc8 5c3e 8822 183f b7d2 64be 93c7 293e
00000150: ce58 8e3e 1b22 6f3e 3a4f 723e 3f0a 503d
00000160: 35fe f5bd db00 91be 0d0c 1d3e e2da 45bd
00000170: 8c3d 60be 1e36 1b3f c5f6 573d 41d8 d1bd
00000180: 14dd 03be aa81 a03d a6f2 44be 7ee4 39be
00000190: 8058 92be a870 1b3e 683e 4c3e 5dce 55be
000001a0: 89b8 303e 5551 f0be d204 20be fe64 45bd
000001b0: 6540 1ebe 098f 6cbd bf18 45be 260b 90be
000001c0: a5b0 8c3d 6e40 35be 926d 54bd 69f3 fbbd
000001d0: 4e0d 19be 9963 a5be f911 fd3d ffe1 15bd
000001e0: f9a4 893e f558 b13c a84b c4bc d685 633e
000001f0: 9fe3 60be d05c 14bd 41df cc3d f9f7 78be
00000200: bb55 c53d 4dfd 1f3f b661 b93d 954a 723e
00000210: 98d0 eabc 642a 0cbd a3d3 3abd 7f82 85be
00000220: 197c 91bc 44ce 98bd 91fe 86bd 81ed 70bd
00000230: f58e 3e3e 93ea eabe 1a57 b6bc bd41 d2bd
00000240: 05b5 553e 215a 833d 9703 a53d fce9 143e
00000250: 1704 953d f7c6 42be cbc1 42be 3ce3 e9bd
00000260: 5900 10be 0b9a 213f 03fd 98be 4380 65be
00000270: 2db5 21be cad2 ddbd e857 eb3d e7d2 353e
00000280: 7722 54be 9a57 24be 0cc9 a5be e941 bbbc
00000290: 5bf9 073e 2115 b63d d9ff 40be bdf4 653d
000002a0: 85e1 593e e4ca 2bbc a366 81be 23fc 3cbd
000002b0: 0979 ee3d 8aca 1b3e 8e9c aa3d e023 3abe
000002c0: 2933 4abe 734b bc3e 57a8 4d3e e078 ce3c
000002d0: 1582 f23d c907 aebd e25d b53c 1887 8c3e
000002e0: 27f7 4dbe 7af6 813e fa4d 4cbd 18d2 8cbe
000002f0: c141 013e ab26 11bf 1632 703d b383 b4bc
00000300: be4d abbd f075 ccbd b1ef 093e 825b c03e
00000310: d36d aa3b 9bf5 a83e f629 88be f2e5 1dbe
00000320: 60b1 8ebd 2909 853e 3e55 bbbe 4328 813e
00000330: 236d 303e 4b86 123d cbd4 d0bc 1879 dfbd
00000340: 7f51 0c3e 8c6a 783e 10e5 163d b286 8ebd
00000350: e288 053e cbb8 0abf 17e4 5e3d 1e4c 033d
00000360: 29fe 393e bcda 4d3e 18ad 8a3e fd02 083e
00000370: f3c7 5b3e 2285 8f3e 58b6 56be 85c1 0f3d
00000380: 3431 9fbe f6d5 34bf dd84 6fbe 9b05 4ebc
00000390: 96cc 983d d935 be3d ef57 1f3e 60d5 1dbe
000003a0: d7b0 0abd b6f4 643e daf9 58be ccb0 043e
000003b0: 11dd 29be bd54 323f 7884 e53d e323 053e
000003c0: bf98 b83b ad80 b3bc bf24 3d3e 1df1 663e
000003d0: 6b80 3fbc 6d44 2b3e 82a0 663d 090a 65be
000003e0: 51a7 71bd fd50 0f3f d27a 98bd a1ab 593e
000003f0: 2bbc 87bd 93d1 f8bd 34da 04bd 573d 313e

critic.0.bias f4 [256]
0.05147467 -0.20640711 0.22110488 -0.15635371 -0.16984418 0.012668332 0.08005605 -0.20987539
-0.004724622 -0.11854631 -0.20596409 0.21122414 -0.22762191 -0.1364962 -0.24933553 -0.009998332
-0.018629836 0.12736657 0.05970259 0.25991446 -0.00213882 0.033481024 0.20264149 0.25837177
0.22777975 -0.061767675 0.28509015 -0.018614244 -0.08459959 0.019191643 0.2548368 -0.2588907
-0.21168594 0.10898871 0.115383096 0.0059068417 0.29682308 0.11206456 0.27160072 -0.18768907
-0.12187626 0.11255903 -0.13785262 0.009131864 0.013028378 -0.25416422 -0.24429856 0.209994
0.073446915 -0.22316363 -0.17267595 0.2992403 0.012045269 0.064904675 0.26230985 0.23274031
0.2386939 -0.031076504 -0.13042644 -0.07204586 -0.1434918 -0.069000244 -0.059247702 0.09591302
0.2185512 -0.11640553 0.095892064 0.0028033068 0.013257163 0.29563564 0.12671547 -0.1763168
0.027067933 -0.18205686 0.017514654 0.0031250524 -0.055719413 0.128133 -0.113187134 0.15654494
-0.24345492 0.057818707 0.27881393 0.091122456 -0.01938327 0.12973918 -0.09575465 0.25445223
-0.17127036 -0.066426694 0.14989758 -0.11303906 0.191856 0.16799337 0.17634618 0.19554351
0.081510715 -0.018174462 0.21554764 0.08098962 0.04952971 0.14895454 0.19418877 -0.09269634
-0.16378747 0.16584092 0.09968159 0.20281905 -0.14151476 0.15008654 -0.3830634 -0.0022442443
0.124245584 0.10739427 -0.11209668 0.009055165 -0.34064558 -0.03078771 0.12957065 0.0895566
0.031072803 0.06408785 0.3593101 -0.094070554 -0.16050874 -0.20470935 0.14145963 0.09132319
-0.21392582 -0.09412915 0.023761988 0.14601697 0.041863974 -0.14662984 -0.08658914 0.14677176
-0.16425815 0.049510214 0.24428582 0.049691193 -0.0041274526 0.10030966 0.24531798 0.10853496
0.17816474 0.116217524 -0.3543927 0.09084562 -0.20074964 -0.13351902 0.11338358 0.02848036
0.30747926 0.10792753 0.2446331 0.11848851 0.27097753 0.054653186 0.1920717 -0.22754325
0.072405234 0.016237192 0.059274666 0.20958608 0.15733081 0.013150317 0.1549304 0.012088803
-0.20819433 0.04262821 -0.22873276 -0.11575073 0.03723118 0.04760173 -0.030439094 0.056675974
0.29707804 0.15910254 -0.11301798 0.10352918 0.11356384 0.14896104 -0.13697973 -0.054701068
0.17292644 -0.19964182 0.06202578 -0.2605482 0.23947696 -0.20260568 0.102540426 -0.12086626
0.23595817 0.025334656 -0.18293533 -0.06448275 -0.22886394 0.321049 -0.09530317 0.10170619
0.10614732 0.15175724 -0.007634175 -0.1564609 -0.12593505 0.028353464 0.17851162 0.18984723
0.08232016 0.090894856 0.30312708 -0.14261645 -0.11871594 -0.020340072 -0.16695945 -0.018475767
-0.222422 0.0042237234 0.27266628 -0.10987578 -0.04733725 -0.18715535 0.19221114 -0.17842641
-0.069218904 0.08072463 0.108911425 -0.21014805 -0.11273677 0.17990512 0.06304862 0.29716533
0.06079686 -0.18401133 -0.010877742 0.09221065 -0.20531434 0.25388467 -0.052973814 0.116076805
0.1589961 0.03318816 -0.18138544 -0.22241154 -0.17040552 -0.12562604 -0.14530969 0.29157898
0.14393428 0.08293188 -0.09061511 0.2487676 -0.22079176 -0.01894738 -0.1666858 -0.15979409
00000000: 1bd7 523d 635c 53be 5169 623e 301b 20be
00000010: a2eb 2dbe d68e 4f3c 6df4 a33d 93e9 56be
00000020: 00d1 9abb 68c8 f2bd 40e8 52be 244b 583e
00000030: b815 69be a9c5 0bbe d051 7fbe 0bd0 23bc
00000040: 999d 98bc 626c 023e b48a 743d 8213 853e
00000050: 722b 0cbb 6623 093d 4081 4f3e 4e49 843e
00000060: 183f 693e 1a00 7dbd 56f7 913e e67c 98bc
00000070: 8d42 adbd cb37 9d3c f879 823e 528d 84be
00000080: 33c4 58be 7935 df3d f94d ec3d 2e8e c13b
00000090: 32f9 973e 1b82 e53d 400f 8b3e 9031 40be
000000a0: 439a f9bd 5985 e63d 3d29 0dbe d09d 153c
000000b0: fa74 553c d021 82be 6729 7abe ab08 573e
000000c0: 566b 963d 0285 64be f7d1 30be 0636 993e
000000d0: 8559 453c beec 843d 7a4d 863e 7a53 6e3e
000000e0: 2c6c 743e 2794 febc 828e 05be c88c 93bd
000000f0: 84ef 12be 0050 8dbd b8ad 72bd 0c6e c43d
00000100: e3cb 5f3e 0666 eebd 0f63 c43d afb7 373b
00000110: 9234 593c 8e5d 973e b3c1 013e 648c 34be
00000120: 92bd dd3c 1d6d 3abe e47a 8f3c aecd 4c3b
00000130: 0a3a 64bd 4c35 033e a8ce e7bd 514d 203e
00000140: 3f4c 79be 4fd3 6c3d b3c0 8e3e 699e ba3d
00000150: aac9 9ebc 59da 043e 041b c4bd 9047 823e
00000160: 7f61 2fbe b80a 88bd c07e 193e 0681 e7bd
00000170: e675 443e 7406 2c3e 1894 343e 8f3c 483e
00000180: 17ef a63d 9ce2 94bc 85b8 5c3e e3dd a53d
00000190: aadf 4a3d 8a87 183e 6cd9 463e 94d7 bdbd
000001a0: e7b7 27be 34d2 293e dd25 cc3d ccaf 4f3e
000001b0: 3fe9 10be 49b0 193e e320 c4be 2c14 13bb
000001c0: 7874 fe3d 87f1 db3d f292 e5bd 1d5c 143c
000001d0: 1969 aebe 8236 fcbc 2bae 043e 7369 b73d
000001e0: 648c fe3c 7e40 833d 7ef7 b73e 10a8 c0bd
000001f0: 675c 24be 549f 51be cbda 103e a707 bb3d
00000200: 5f0f 5bbe c9c6 c0bd 80a8 c23c 7985 153e
00000210: 8f79 2b3d 2226 16be a655 b1bd 564b 163e
00000220: 4a33 28be 39cb 4a3d 1026 7a3e fe88 4b3d
00000230: 953f 87bb 276f cd3d a334 7b3e 9447 de3d
00000240: d170 363e 7403 ee3d f672 b5be 450d ba3d
00000250: 5091 4dbe 36b9 08be a735 e83d a54f e93c
00000260: ec6d 9d3e 1c09 dd3d 1981 7a3e 1baa f23d
00000270: 91bd 8a3e 05dc 5f3d 72ae 443e 1901 69be
00000280: 3249 943d dc03 853c fec9 723d bc9d 563e
00000290: 541b 213e 6d74 573c 13a6 1e3e 1d10 463c
000002a0: e530 55be eb9a 2e3d ec38 6abe b80e edbd
000002b0: b97f 183d 08fa 423d 685b f9bc 1125 683d
000002c0: 9d1a 983e c7eb 223e f875 e7bd 1b07 d43d
000002d0: 2994 e83d 3e89 183e 6a44 0cbe 3a0e 60bd
000002e0: a113 313e e86e 4cbe bf0e 7e3d 9366 85be
000002f0: 7339 753e dd77 4fbe b700 d23d bb88 f7bd
00000300: 059f 713e a08a cf3c 6653 3bbe 880f 84bd
00000310: 4f5b 6abe 8960 a43e 4f2e c3bd 564b d03d
00000320: c463 d93d 4066 1b3e 1a28 fabb 4937 20be
00000330: 1ef5 00be 8645 e83c c0cb 363e 5067 423e
00000340: 7997 a83d 1527 ba3d 7933 9b3e 0c0a 12be
00000350: 5821 f3bd 39a0 a6bc 6bf7 2abe 7e5a 97bc
00000360: 98c2 63be 2967 8a3b ea9a 8b3e 8e06 e1bd
00000370: b4e4 41bd a7a5 3fbe ffd2 443e 6ab5 36be
00000380: a4c2 8dbd f452 a53d f40c df3d 0d31 57be
00000390: 89e2 e6bd 0c39 383e a31f 813d 0e26 983e
000003a0: 2106 793d 776d 3cbe 8f38 32bc f0d8 bc3d
000003b0: ec3d 52be 2cfd 813e 12fb 58bd adb9 ed3d
000003c0: e0cf 223e 4ff0 073d 1bbd 39be dabf 63be
000003d0: c97e 2ebe 1da4 00be 10cc 14be d749 953e
000003e0: 8263 133e 31d8 a93d 6a94 b9bd efbc 7e3e
000003f0: 3c17 62be 8937 9bbc afaf 2abe 10a1 23be

critic.2.weight f4 [128, 256]
0.0027630515 -0.06330119 0.102695905 0.13142623 -0.10425889 0.044671535 -0.18568194 -0.06938522
0.064310595 -0.0021553114 -0.1847794 0.06642271 -0.12385621 0.013265404 -0.030345373 0.13709454
0.041800268 0.028189365 0.21771915 -0.24972017 -0.10107949 0.21152265 -0.03611063 -0.07236719
0.3245986 -0.14733946 0.06698665 -0.016236478 -0.05420623 -0.07647483 -0.029260576 -0.16004905
-0.051301565 -0.036172602 0.103074744 -0.28560314 -0.088599235 0.28793344 0.13888803 -0.027109243
-0.11987062 0.13143067 0.24478361 0.11997026 0.04175039 -0.022742342 -0.12238594 0.026863415
0.18584904 -0.07793112 0.20439321 0.28634214 0.050906807 0.19318317 0.19727466 -0.18923765
-0.076216966 -0.027009469 -0.10628189 -0.07948075 -0.23793842 -0.015169333 -0.06928675 -0.01572662
-0.08909839 0.0054365112 -0.106752336 0.07662769 -0.030853666 0.012173641 0.06281193 0.035860106
-0.2605519 -0.0760956 0.088200286 0.13206163 0.12540692 0.13036576 -0.12358707 0.1990615
-0.17465033 -0.3137762 -0.09016354 -0.07968186 0.048699725 -0.25340006 0.17372102 -0.029417321
-0.08668805 -0.2585452 0.041653015 0.021711381 -0.07493255 0.053347796 0.07543474 0.1602719
-0.0014327833 -0.1881779 -0.07634402 0.04574188 0.0027217043 -0.032225057 0.07998983 -0.11423169
-0.14832197 0.101087034 0.08183697 0.18533033 -0.05766637 -0.0594438 -0.064896666 0.16616821
-0.08219179 0.24283749 0.10365837 0.0993684 -0.058754403 -0.059243053 0.021280915 0.23035854
-0.01138506 -0.15987015 0.00126264 0.016406758 0.10496013 -0.01928778 -0.1345473 0.07037555
-0.22425796 0.16771524 0.17493142 0.12003805 0.060268514 -0.20591415 0.023895655 -0.07893109
-0.086884 0.010522711 0.04208698 0.048833072 -0.051595315 0.15933539 0.085416675 0.05130218
-0.014953614 0.034892924 -0.11335645 0.06261191 -0.06020655 -0.03156853 0.017769929 -0.13899165
-0.078942575 0.07472718 0.071580224 0.10255735 -0.06888808 0.013042358 -0.104618646 -0.25276503
0.13501206 0.14456007 0.052910455 -0.22235842 0.041721202 0.07163226 0.026682256 0.08550842
-0.03266167 -0.009035411 -0.23355223 0.17839932 -0.16884191 -0.2284719 -0.01586207 -0.0770845
0.2153667 0.17059758 -0.08163995 0.18867083 0.13632081 0.09807914 -0.065665334 -0.014586162
0.00925963 -0.116867796 0.09654971 -0.12651838 -0.0077334256 -0.11069104 0.11515336 0.023306295
0.12668085 0.008071135 -0.18199587 0.035817195 -0.1612546 0.098222785 0.08051088 0.20419754
0.070812754 -0.07492851 0.02217796 -0.093650095 -0.26626393 0.15796714 -0.1164522 -0.014792823
0.004330071 0.13700068 -0.09314949 0.01877615 -0.24122576 -0.09201557 -0.17100324 -0.30616802
-0.027299734 0.19620351 -0.13716035 0.039684094 -0.063541085 -0.039559256 0.09581748 -0.004777897
-0.18772824 -0.14850353 0.09669579 0.11933626 0.20973279 0.04227485 0.2506859 -0.047647234
0.045263 -0.04503577 0.03496171 -0.07764922 -0.06241693 0.08978895 -0.18145663 -0.2052216
-0.22334939 -0.062501766 0.09799867 0.0017423008 -0.08387654 0.12795413 -0.27821457 0.2202649
-0.14179486 -0.0067243273 -0.16634057 -0.0358306 0.1464585 -0.29446268 -0.06418381 -0.19254294
00000000: 5014 353b 0ea4 81bd 3b52 d23d 9994 063e
00000010: af85 d5bd 80f9 363d 6823 3ebe d719 8ebd
00000020: 46b5 833d 2040 0dbb d036 3dbe a108 883d
00000030: 53a8 fdbd 2357 593c dc96 f8bc 8362 0c3e
00000040: c236 2b3d 62ed e63c c5f1 5e3e a5b6 7fbe
00000050: c302 cfbd 6599 583e bde8 13bd 4035 94bd
00000060: ca31 a63e 28e0 16be 4c30 893d 5d02 85bc
00000070: 5a07 5ebd d69e 9cbd e0b3 efbc e6e3 23be
00000080: 9721 52bd b929 14bd da18 d33d 933a 92be
00000090: 8473 b5bd 036c 933e aa38 0e3e 3414 debc
000000a0: ba7e f5bd c395 063e 8ea8 7a3e f8b2 f53d
000000b0: 7502 2b3d 264e babc 7ba5 fabd aa10 dc3c
000000c0: 364f 3e3e 5a9a 9fbd 744c 513e 709b 923e
000000d0: a883 503d cfd1 453e 5e02 4a3e 84c7 41be
000000e0: a417 9cbd f642 ddbc 52aa d9bd cec6 a2bd
000000f0: 21a6 73be cb88 78bc 36e6 8dbd 1dd5 80bc
00000100: 3779 b6bd c324 b23b f8a0 dabd faee 9c3d
00000110: d4c0 fcbc f373 473c 8ba3 803d 0ce2 123d
00000120: 0f67 85be 03d8 9bbd 5aa2 b43d 2a3b 073e
00000130: ac6a 003e 9a7e 053e 381b fdbd c7d6 4b3e
00000140: 89d7 32be 46a7 a0be a9a7 b8bd 3e30 a3bd
00000150: 5d79 473d a7bd 81be ece3 313e 98fc f0bc
00000160: 8189 b1bd 0960 84be 5a9c 2a3d 11dc b13c
00000170: 3d76 99bd 3883 5a3d 877d 9a3d 511e 243e
00000180: 3bcc bbba b5b1 40be 415a 9cbd d65b 3b3d
00000190: 9f5e 323b 6cfe 03bd b5d1 a33d 4ef2 e9bd
000001a0: b7e1 17be b806 cf3d 249a a73d 3cc7 3d3e
000001b0: 9233 6cbd 587b 73bd 8be8 84bd 0028 2a3e
000001c0: 2b54 a8bd 64aa 783e d74a d43d a981 cb3d
000001d0: 75a8 70bd d8a8 72bd 5055 ae3c 1ce3 6b3e
000001e0: 6788 3abc 00b5 23be 2b7f a53a 7767 863c
000001f0: 56f5 d63d 6801 9ebc c4c6 09be 0e21 903d
00000200: e1a3 65be 8bbd 2b3e 3921 333e 82d6 f53d
00000210: 1edc 763d 29db 52be d2c0 c33c a0a6 a1bd
00000220: 3df0 b1bd 7367 2c3c 6663 2c3d 3005 483d
00000230: 9c55 53bd d128 233e f0ee ae3d 3c22 523d
00000240: 0100 75bc e2eb 0e3d 6d27 e8bd ac3a 803d
00000250: 259b 76bd 014e 01bd 3e92 913c d453 0ebe
00000260: a5ac a1bd 900a 993d a798 923d 9709 d23d
00000270: 3215 8dbd 9daf 553c 4d42 d6bd 6b6a 81be
00000280: 9a40 0a3e 8e07 143e a2b8 583d edb1 63be
00000290: dae3 2a3d efb3 923d bf94 da3c 0a1f af3d
000002a0: 3ec8 05bd 4309 14bc 5128 6fbe 50ae 363e
000002b0: e5e4 2cbe 8af4 69be 2cf1 81bc 7ade 9dbd
000002c0: 1789 5c3e 22b1 2e3e d932 a7bd ed32 413e
000002d0: af97 0b3e b7dd c83d 8c7b 86bd ccfa 6ebc
000002e0: b4b5 173c 6258 efbd dbbb c53d 098e 01be
000002f0: ad68 fdbb fcb1 e2bd 86d5 eb3d d8ec be3c
00000300: a0b8 013e cb3c 043c 205d 3abe 0db5 123d
00000310: ed1f 25be 0729 c93d e3e2 a43d 2919 513e
00000320: 4706 913d 1e74 99bd 8eae b53c 9fcb bfbd
00000330: bf53 88be 23c2 213e 7e7e eebd 995d 72bc
00000340: 45e3 8d3b e849 0c3e 29c5 bebd 71d0 993c
00000350: e303 77be a972 bcbd 791b 2fbe 0ec2 9cbe
00000360: b1a3 dfbc 93e9 483e c373 0cbe ca8b 223d
00000370: d421 82bd e308 22bd f43b c43d e88f 9cbb
00000380: d53b 40be 4f11 18be 7108 c63d 9266 f43d
00000390: 31c4 563e 6528 2d3d e759 803e bf29 43bd
000003a0: b265 393d 6d77 38bd 0334 0f3d 8e06 9fbd
000003b0: e5a8 7fbd 45e3 b73d c4cf 39be 9c25 52be
000003c0: b4b5 64be ed00 80bd 87b3 c83d ea5d e43a
000003d0: 77c7 abbd 6806 033e 2472 8ebe 1f8d 613e
000003e0: ac32 11be bf57 dcbb 2f55 2abe 1bc3 12bd
000003f0: 38f9 153e d0c3 96be cd72 83bd fa29 45be
