policy/PPO/checkpoints/2025-10-11_14-37/ppo_soarm_9500.pth (torch, 895437 bytes, 33 tensors)

actor.0.weight f4 [256, 12]
0	0xbed05648	-0.40690827
1	0xbe1719cb	-0.14755933
2	0xbde77987	-0.113024764
3	0xbcf8c6b0	-0.03036818
4	0xbded5aa4	-0.11589554
5	0xbdcdb0fb	-0.10043522
6	0x3cacade8	0.021079019
7	0x3dc0900a	0.09402473
8	0x3e9fef63	0.31237325
9	0x3e7c69c8	0.24649727
10	0x3e392dcc	0.18083876
11	0x3e2e4d50	0.1702168
12	0xbe8af78f	-0.27141997
13	0xbe232e77	-0.15935694
14	0xbe0b39aa	-0.13596216
15	0xbb9cae43	-0.004781516
16	0xbdb26c2d	-0.08712039
17	0x3d8274d6	0.06369941
18	0x3d88ccaa	0.066796616
19	0x3df4a40c	0.11945352
20	0xbc846b7e	-0.016164538
21	0x3e804c1a	0.2505806
22	0xbe8c89ad	-0.27448788
23	0x3e1d66f4	0.15371305
24	0x3e7135ec	0.23555726
25	0x3d03eab6	0.03220626
26	0xbd3bc760	-0.045844436
27	0xbe2ba6b7	-0.16762815
28	0x3e822afe	0.25423425
29	0x3dd8a7af	0.10578858
30	0x3dd99347	0.10623794
31	0x3e5ae0fb	0.21374886
32	0xbd9e9582	-0.0774336
33	0xbea324a6	-0.31863898
34	0xbe010087	-0.12597857
35	0xbec25ea0	-0.37962818
36	0xbd9d3116	-0.07675378
37	0x3dcd59a0	0.1002686
38	0x3e293e0f	0.1652758
39	0x3d9109e2	0.07081963
40	0xbe927bcd	-0.28610078
41	0x3e12b3f9	0.14326467
42	0x3e917bc0	0.28414726
43	0xbe78b21f	-0.24286698
44	0xbd877d85	-0.06615738
45	0x3eb650f9	0.35608652
46	0xbe425b96	-0.1898025
47	0x3e409cde	0.1880984
48	0xbe012558	-0.12611902
49	0xbd0e045f	-0.034672137
50	0xbd0e36b9	-0.034720156
51	0xbe6ad98c	-0.2293455
52	0x3e2ae6e3	0.16689639
53	0xbd630547	-0.055424955
54	0xbd70e0e1	-0.05880821
55	0x3e2122c0	0.15735912
56	0xbd56252f	-0.052281555
57	0x3eaeddab	0.34153494
58	0x3e73c447	0.23805343
59	0xbeabedd7	-0.33579895
60	0xbc844552	-0.016146336
61	0x3ca5c92b	0.020237526
62	0xbe4d7da2	-0.20067456
63	0xbe1255db	-0.14290564
64	0x3dd648ba	0.1046309
65	0x3de651ac	0.112460464
66	0xbe39f2db	-0.18159048
67	0x39c9d7f0	0.00038498593
68	0xbd6e0f9b	-0.05812035
69	0xbe079052	-0.13238648
70	0x3e36aa04	0.17838293
71	0xbead4a05	-0.33845535
72	0x3dca2477	0.09870236
73	0xbe6ca6c3	-0.2311049
74	0xbe6554fb	-0.22395699
75	0xbced4f85	-0.028968582
76	0x3e2d603a	0.16931239
77	0x3e96d6ca	0.29460746
78	0xbdde5c4c	-0.10857448
79	0x3e7a438f	0.24439834
80	0xbd1c4c6c	-0.03815882
81	0xbea4df1e	-0.32201475
82	0x3e4e5c6b	0.20152442
83	0x3e251c67	0.16124116
84	0xbec129f7	-0.3772733
85	0x3c8f4f3a	0.017493833
86	0xbe651c31	-0.22374035
87	0xbe52b882	-0.20578197
88	0xbe2f5d22	-0.17125371
89	0x3d9eccac	0.07753882
90	0xbc8646a2	-0.016391102
91	0xbe0ea3d3	-0.13929681
92	0x3d52137c	0.051288113
93	0x3e2e1f74	0.17004186
94	0xbc442f1d	-0.011974123
95	0xbdc15a49	-0.09441049
96	0x3e95d501	0.29264072
97	0xbc295d66	-0.010337209
98	0x3db1b516	0.086771175
99	0x3e9e7d7f	0.3095512
100	0x3e8fb92a	0.28070956
101	0x3e23285e	0.15933368
102	0x3e4ab1e4	0.19794422
103	0x3d44b6e4	0.04802598
104	0x3d81957c	0.0632734
105	0x3ec7c6eb	0.3901895
106	0xbc41252d	-0.011788649
107	0x3e391a6e	0.18076488
108	0xbd9892da	-0.07449885
109	0x3e4a9043	0.19781594
110	0x3cb2068d	0.02173164
111	0x3dcd7c64	0.10033491
112	0xbe7cc8c0	-0.24685955
113	0xbd66acbc	-0.056317076
114	0xbdea5e9f	-0.11443829
115	0x3e74068a	0.2383062
116	0xbe8a7e04	-0.27049267
117	0xbea48b80	-0.3213768
118	0xbe259e76	-0.1617373
119	0xbe8339c0	-0.25629997
120	0x3e7cc883	0.24685864
121	0xbe0f0286	-0.13965806
122	0xbdb20248	-0.08691841
123	0xbd3ebad7	-0.046564903
124	0x3c30def6	0.0107953455
125	0x3e5648b4	0.20926172
126	0xbce5ac64	-0.028036304
127	0x3e8fe19f	0.28101823
128	0x3e6f801b	0.23388712
129	0xbdc8dc32	-0.09807624
130	0xbd83b222	-0.064304605
131	0xbe3ea11a	-0.18616143
132	0xbdedb744	-0.11607221
133	0xbd6b6806	-0.05747225
134	0xbe6e24e1	-0.23256256
135	0x3da82eec	0.08212075
136	0x3d0e3eb4	0.034727767
137	0x3bf182fe	0.007370352
138	0xbe35b229	-0.17743744
139	0x3c13556f	0.008992537
140	0xbe1b3e99	-0.15160598
141	0xbeba4449	-0.36380222
142	0x3da1c9ef	0.07899844
143	0xbe1e7666	-0.15474853
144	0xbcc31174	-0.023812033
145	0xbe470fa5	-0.19439562
146	0x3d4cb0ed	0.049973417
147	0x3e89eb07	0.26937124
148	0x3e780972	0.24222353
149	0x3e9b540f	0.3033757
150	0xbdbedacb	-0.09319075
151	0xbd2ec02e	-0.042663746
152	0xbe42fd7c	-0.19042009
153	0xbe93241e	-0.28738493
154	0xbd9cbf7e	-0.07653712
155	0x3dbbfaee	0.091787204
156	0xbcb656c8	-0.022258177
157	0xbe27d0df	-0.16388272
158	0xbe8b0437	-0.27151653
159	0xbe74e480	-0.23915291
160	0xbd834aac	-0.06410727
161	0xbe13017f	-0.1435604
162	0xbe8b784c	-0.27240217
163	0x3e44eb4e	0.19230387
164	0x3e8fd421	0.2809153
165	0x3ea624cc	0.3244995
166	0xbe42d0c2	-0.19024947
167	0x3e4988c3	0.19681077
168	0xbe69e137	-0.22839819
169	0xbd9df145	-0.07712034
170	0xbe055012	-0.13018826
171	0xbddc5581	-0.10758496
172	0xbeb5840b	-0.35452303
173	0x3e11bac9	0.14231409
174	0xbe363f22	-0.17797521
175	0x3eb26dde	0.34849447
176	0x3dc02eb7	0.0938391
177	0xbe8a0079	-0.26953486
178	0xba84aa7b	-0.0010121608
179	0xbe765064	-0.24054104
180	0xbe2a5002	-0.16632083
181	0x3d180289	0.037111793
182	0xbda3a965	-0.07991294
183	0x3c5da60b	0.013528357
184	0xbe82e6a5	-0.25566593
185	0xbe2aaf06	-0.16668329
186	0xbe9a3e64	-0.30125725
187	0xbc181525	-0.009282385
188	0xbdc0885b	-0.09401008
189	0x3eba54c9	0.3639281
190	0xbe1a7c50	-0.15086484
191	0xbe8eab05	-0.27864853
192	0x3d2b9d44	0.041898027
193	0x3dac0531	0.08399428
194	0xbc24ed9b	-0.010066415
195	0xbc0f5918	-0.008749269
196	0xbe924c2e	-0.28573745
197	0xbe3c1f4b	-0.18371312
198	0xbe6aae76	-0.22918114
199	0xbe08e287	-0.13367663
200	0x3e1437fb	0.1447448
201	0x3e7f9750	0.24960065
202	0x3e94fc97	0.2909896
203	0x3e581af1	0.21104027
204	0x3da63ef6	0.081174776
205	0xbe10055e	-0.14064547
206	0xbd724c58	-0.05915484
207	0xbd0081c1	-0.031373743
208	0x3c5eb274	0.013592351
209	0x3db9100f	0.09036266
210	0x3e84beab	0.25926718
211	0xbe811f51	-0.25219205
212	0x3e5a5ca4	0.21324402
213	0xbee8c2d0	-0.4546113
214	0xbe9a2668	-0.30107427
215	0x3ec374bd	0.38175002
216	0x3dfd8e51	0.1238066
217	0x3d4f4f6c	0.050612852
218	0x3da348d0	0.07972872
219	0x3d8dded1	0.069272645
220	0x3d8b72d4	0.06809011
221	0x3e6a46f3	0.22878627
222	0x3de19c06	0.11016087
223	0xbe9d33f5	-0.30703703
224	0xbd4fdd0f	-0.050747927
225	0x3d002de1	0.031293754
226	0x3d5db4d2	0.05412752
227	0x3eab20d4	0.33423483
228	0x3e65ac5f	0.22429036
229	0x3e4b0a9e	0.19828269
230	0x3c39518c	0.011310946
231	0x3d650f9a	0.055923082
232	0x3ea417da	0.32049447
233	0xbe8a2089	-0.26977947
234	0x3d9c9af1	0.0764674
235	0xbdfd8754	-0.123793274
236	0xbdada79f	-0.08479237
237	0x3ce07529	0.027399616
238	0x3e338d03	0.1753426
239	0xbeb5db49	-0.35518864
240	0x3eb5baeb	0.3549417
241	0x3c331f93	0.010932821
242	0x3cd82d93	0.026388919
243	0xbe25da93	-0.1619666
244	0x3eaa8ab1	0.33308938
245	0x3e1077a6	0.14108142
246	0x3d61c54a	0.05511979
247	0xbe541f86	-0.2071515
248	0x3e4acc06	0.19804391
249	0xbe54d6fb	-0.20785134
250	0xbe1abb2b	-0.15110461
251	0xbdfad3b9	-0.12247414
252	0x3e4d2ffe	0.20037839
253	0xbdb5b86a	-0.08873065
254	0x3dcece49	0.100979395
255	0x3d357a29	0.044305954

actor.0.bias f4 [256]
0	0x3e1bb7f1	0.15206887
1	0x3cda944f	0.026682047
2	0xbd5c6ba7	-0.053813603
3	0xbda7bc5d	-0.08190224
4	0x3e8434fe	0.2582168
5	0xbe48b5da	-0.19600621
6	0x3cc4e01c	0.024032645
7	0xbe9771e4	-0.2957908
8	0xbe311d4d	-0.17296334
9	0xbe246b38	-0.16056526
10	0x3e13f104	0.14447409
11	0xbe826b93	-0.25472698
12	0x3dd87e56	0.10570972
13	0xbcd6d159	-0.026222872
14	0x3e48e122	0.19617131
15	0x3d9c8025	0.07641629
16	0xbcee4e69	-0.029090123
17	0xbdebfb47	-0.11522537
18	0xbe5e626c	-0.21717232
19	0xbe8bc273	-0.2729679
20	0xbe22e9dd	-0.15909524
21	0x3e2c8ea4	0.16851288
22	0x3dc381e9	0.09546263
23	0x3d15a875	0.036537606
24	0x3d28ef49	0.041243825
25	0x3e7bf214	0.24604064
26	0x3e91ab6f	0.28451106
27	0x3df4c43c	0.11951491
28	0x3e4756a7	0.19466649
29	0x3e86f0a6	0.26355475
30	0x3e3b1f87	0.18273745
31	0x3db5d690	0.08878815
32	0xbd38b41d	-0.045093644
33	0x3d78f2f1	0.060778562
34	0xbe31e3be	-0.17372033
35	0xbe3337c1	-0.17501737
36	0x3bfad484	0.0076547284
37	0x3da347fc	0.07972714
38	0x3e3c9ce6	0.18419227
39	0x3c4aa066	0.0123673435
40	0xbe46ea5d	-0.1942534
41	0x3bc0fa22	0.005889193
42	0x3e6c1fdc	0.23059028
43	0x3e35d26d	0.17756052
44	0xbe578383	-0.21046261
45	0xbda5ab96	-0.08089368
46	0xbe05bc96	-0.13060221
47	0x3d313b32	0.043269344
48	0x3e6283c6	0.2212058
49	0xbe084949	-0.13309206
50	0xbc826b33	-0.015920257
51	0x3e27249a	0.16322556
52	0x3e1f00dd	0.15527673
53	0xbdfa323f	-0.12216615
54	0x3df608af	0.12013375
55	0x3e771d4a	0.24132267
56	0x3d8f1858	0.06987065
57	0x3e51f5bb	0.20503895
58	0x3e176984	0.14786345
59	0x3dd33e7b	0.103146516
60	0xbe778c74	-0.24174672
61	0xbe4e099e	-0.20120856
62	0xbcd196a5	-0.025584528
63	0x3e266544	0.16249567
64	0xbe2c0f46	-0.16802701
65	0x3e8e2a01	0.2776642
66	0xbddf8dc0	-0.109157085
67	0xbdcf26d7	-0.1011483
68	0xbd2bb10f	-0.041916903
69	0xbda2e2de	-0.07953428
70	0xbe59f577	-0.21285044
71	0xbe224ed1	-0.15850379
72	0x3b48f5f5	0.003066418
73	0x3e37003b	0.17871182
74	0x3be71efc	0.007053254
75	0x3e16da31	0.14731671
76	0xbd7a6695	-0.061132986
77	0xbe880221	-0.26564124
78	0xbd253412	-0.04033286
79	0xbe4d20d0	-0.20032048
80	0x3e9921d8	0.29908633
81	0x3e6d1dab	0.23155849
82	0xbd236a94	-0.039896563
83	0x3d2b41b3	0.041810703
84	0xbe4a6f0a	-0.1976892
85	0xbe792ae7	-0.24332772
86	0xbe2024d8	-0.15639055
87	0xbdf10469	-0.11768419
88	0x3ba07212	0.0048964107
89	0x3e5db78f	0.21652053
90	0xbe4c49c4	-0.19950014
91	0xbe05f844	-0.13082987
92	0xbd069655	-0.03285821
93	0x3ebd9220	0.37025547
94	0xbdf95081	-0.12173558
95	0xbe6f3c6a	-0.2336289
96	0xbddfd51b	-0.109293185
97	0x3e5560c9	0.20837702
98	0xbd98cdf7	-0.0746116
99	0x3e835ec7	0.25658247
100	0x3dcf2de6	0.10116176
101	0x3e0f82b0	0.14014697
102	0xbe77a056	-0.24182257
103	0x3e40534f	0.1878178
104	0x3daf18f7	0.085496835
105	0xbe1f1ef2	-0.15539148
106	0xbe93f77e	-0.2889976
107	0xbd26dc99	-0.040737722
108	0x3dc7fc91	0.0976497
109	0xbe0ef828	-0.13961852
110	0xbd99c4d4	-0.07508245
111	0x3e1ca0fb	0.15295784
112	0xbe33232f	-0.1749389
113	0xbe149163	-0.14508586
114	0xbe9c343a	-0.30508596
115	0xbdaab20d	-0.08334742
116	0xbe86f630	-0.263597
117	0x3e5f89bd	0.21829887
118	0x3e51890d	0.20462437
119	0x3e023a6d	0.127176
120	0x3e9a7d7c	0.30173862
121	0x3db505d4	0.08839002
122	0xbd72ca45	-0.05927493
123	0x3e437b80	0.1909008
124	0x3e1f3d3b	0.15550701
125	0x3dd56e32	0.10421409
126	0x3e1434d1	0.14473273
127	0xbe8ad3e9	-0.271148
128	0xbd8abacc	-0.0677391
129	0x3ddd256a	0.10798152
130	0x3e718e34	0.23589402
131	0x3dbb928a	0.091588095
132	0x3db90f9d	0.09036181
133	0x3e25c47e	0.16188237
134	0x3e1cd5a9	0.1531588
135	0x3e35d4f3	0.17757015
136	0xbdcbb5bf	-0.09946775
137	0xbd587e7a	-0.052854992
138	0x3e6750e0	0.22589445
139	0x3e936a62	0.287921
140	0x3e93cebf	0.28868672
141	0x3c8b476f	0.017001836
142	0xbdd0f023	-0.102020524
143	0xbe28e042	-0.16491798
144	0xbe7cdc20	-0.24693346
145	0x3e28da92	0.16489628
146	0xbe15b371	-0.14619233
147	0x3d8c678e	0.06855689
148	0xbe338721	-0.17532016
149	0x3d739edc	0.059477672
150	0x3e89e0d8	0.26929355
151	0x3e3ef38e	0.18647596
152	0x3d530f23	0.051528107
153	0xbe763ed8	-0.2404741
154	0x3d922097	0.07135122
155	0xbe72acb8	-0.236987
156	0xbc847a53	-0.01617161
157	0x3e083425	0.13301142
158	0xbd510f63	-0.051040065
159	0xbdf5dbc4	-0.120048076
160	0xbb734a39	-0.0037123098
161	0x3d921895	0.07133595
162	0x3e85bc2a	0.2612012
163	0xbd9dbe73	-0.07702341
164	0x3e41ed2b	0.18938129
165	0x3e7fe1ad	0.24988432
166	0xbe2d4224	-0.16919762
167	0x3e24fa4c	0.16111106
168	0x3e8127e2	0.2522574
169	0xbdf22af8	-0.11824602
170	0xbe89cfd2	-0.26916367
171	0xbce0ab77	-0.02742551
172	0x3aecde02	0.0018071535
173	0x3df8cf83	0.12148955
174	0xbe2fabd6	-0.17155394
175	0xbc7c9e71	-0.015418635
176	0x3d9b1fe0	0.07574439
177	0xbe7f1e8d	-0.24913998
178	0x3e323ce2	0.17406037
179	0x3d8ea9ee	0.06966005
180	0xbea3661e	-0.31913847
181	0x3e5b036e	0.21388027
182	0x3dd8df39	0.10589451
183	0x3d0fe535	0.0351307
184	0x3cdf033a	0.027223218
185	0xbe347fd1	-0.17626883
186	0x3cd5785e	0.026058372
187	0xbe584c35	-0.2112282
188	0xbdfa4f0e	-0.1222211
189	0x3d4606b4	0.048346236
190	0x3b27e35c	0.0025617694
191	0x3d888dcd	0.06667671
192	0xbdc9856c	-0.09839901
193	0x3cd80e96	0.026374143
194	0x3d7294a1	0.059223775
195	0x3e9a1d2c	0.3010038
196	0xbe2996b1	-0.1656139
197	0xbddf9ea9	-0.10918934
198	0xbdb2b50d	-0.08725939
199	0xbe6ae820	-0.22940111
200	0x3e0395f6	0.12850174
201	0x3e477ecf	0.19481967
202	0x3e21e5fb	0.15810387
203	0x3d240c4f	0.0400508
204	0x3e26be1b	0.16283457
205	0x3d9dabb2	0.07698764
206	0x3e9295ec	0.28630006
207	0xbe4c016d	-0.19922419
208	0xbe5cb529	-0.21553482
209	0x3e073616	0.13204226
210	0x3e6499f2	0.2232435
211	0xbd8cf49b	-0.06882592
212	0x3e8a901a	0.27063066
213	0x3b99cc43	0.0046935393
214	0x3dceb164	0.10092428
215	0xbe30d51f	-0.17268799
216	0xbe6e98cd	-0.23300476
217	0x3db386e7	0.08765965
218	0xbdafc67b	-0.08582779
219	0xbe45be1e	-0.19310805
220	0xbde66530	-0.11249769
221	0xbe7ebed7	-0.24877487
222	0xbe0bd6b6	-0.13656124
223	0x3e19c4c2	0.15016463
224	0xbe30a59b	-0.17250673
225	0xbe416ca4	-0.188891
226	0x3d94a71b	0.07258435
227	0x3e290792	0.16506794
228	0x3dfa05ae	0.122081146
229	0xbd2473f9	-0.040149663
230	0x3cb8e7ff	0.022571562
231	0xbe2be0b7	-0.1678494
232	0x3de5ad70	0.11214721
233	0xbdb08850	-0.086197495
234	0x3e8785b1	0.26469186
235	0xbe495a94	-0.19663459
236	0x3c1624eb	0.009164075
237	0xbbae82f8	-0.0053256713
238	0xbe016f13	-0.12640028
239	0x3b3fbd0b	0.0029256965
240	0xbc7a9fa6	-0.015296852
241	0xbd354d07	-0.044262912
242	0x3e1fba8a	0.15598503
243	0xbd33b689	-0.04387525
244	0xbe72c675	-0.23708518
245	0x3dc8f69c	0.09812662
246	0xbdb26595	-0.087107815
247	0x3e0f402c	0.13989323
248	0x3c9d7daf	0.01922497
249	0xbe0dd823	-0.13851981
250	0x3d889c16	0.06670396
251	0xbc8e8dcb	-0.017401597
252	0x3c7da77a	0.015481824
253	0xbe1833d4	-0.14863521
254	0x3e8c0376	0.2734639
255	0x3e3efbca	0.18650737

actor.2.weight f4 [128, 256]
0	0x3e144522	0.14479497
1	0x3e26e7ae	0.16299316
2	0xbb5ffb87	-0.0034177022
3	0x3ce596da	0.028026033
4	0x3e0dcd21	0.13847782
5	0x3d0c2520	0.034215093
6	0x3c90ed27	0.017691208
7	0x3dd31d79	0.10308356
8	0x3c9db056	0.019249123
9	0xbd10b2cf	-0.035326775
10	0x3d6f887d	0.058479775
11	0xbda1c222	-0.07898356
12	0xbd656b76	-0.056010686
13	0x3e155370	0.1458261
14	0xbd27a066	-0.040924452
15	0x3d1e8e4d	0.038709927
16	0x3c60337f	0.013684153
17	0x3c49ca48	0.012316294
18	0xbce8066b	-0.028323373
19	0xbdb7a603	-0.08967211
20	0x3c3a2ff3	0.011363971
21	0xbd2df9b8	-0.04247448
22	0xbd94ccb2	-0.07265605
23	0x3cca68ea	0.02470823
24	0xbc4ee37e	-0.012627481
25	0x3c56a731	0.013101385
26	0xbced64e2	-0.028978769
27	0x3bcf35d7	0.006323557
28	0xbb928aae	-0.0044720983
29	0x3cc7e140	0.0243994
30	0x3bf220f7	0.0073891836
31	0xbc8fad1f	-0.017538605
32	0xbc6b73f6	-0.014370909
33	0x3c1888eb	0.009309988
34	0x3d2e587e	0.04256486
35	0xbdafe6cb	-0.08588942
36	0xbd94c2b7	-0.072637014
37	0xbcdbbdc8	-0.026823893
38	0x3d056b3f	0.03257298
39	0xbd11b82c	-0.03557603
40	0xbca00d9b	-0.019537738
41	0xbd906e00	-0.07052231
42	0x3d907519	0.070535846
43	0xbd2d1658	-0.042257637
44	0xbdcfd0a2	-0.101472154
45	0xbcf5e5d8	-0.030016825
46	0x3bdf8d9b	0.0068223006
47	0x3d68461b	0.056707483
48	0x3d45c807	0.048286464
49	0x3cb4de5e	0.02207869
50	0xbde335e4	-0.11094263
51	0xbd02242c	-0.031772777
52	0x3e466617	0.19374882
53	0x3e0ebc23	0.13938956
54	0xbd1bec8d	-0.03806739
55	0xbde2a4ff	-0.11066627
56	0x3d610b6d	0.054942537
57	0xbd57aebb	-0.05265687
58	0xbdbeca5c	-0.09315941
59	0xba25631d	-0.00063090195
60	0xbcca9325	-0.024728367
61	0x3d42b234	0.04753323
62	0xbc77c742	-0.01512319
63	0xbd106afb	-0.035258275
64	0x3c50195c	0.012701359
65	0x3c901113	0.017586267
66	0xbcb7186c	-0.022350512
67	0xbd10362d	-0.035207916
68	0x3cd4ee02	0.025992397
69	0x3d2ef2ee	0.042712145
70	0xbd5e6ebb	-0.05430482
71	0xbb83c5e4	-0.004021393
72	0xbd7748bf	-0.06037211
73	0xbc05b946	-0.008161848
74	0xbd832141	-0.06402827
75	0xbc0b7d7d	-0.008513805
76	0xbe42a58f	-0.19008468
77	0xbd58110d	-0.052750636
78	0x3cd80d50	0.026373535
79	0x3c877fd7	0.016540451
80	0x3d8b938d	0.068152525
81	0x3d2f8d6c	0.04285948
82	0xbc136af5	-0.0089976685
83	0x3e5b901e	0.21441695
84	0x3d8942b1	0.067021735
85	0xbd8d7b1a	-0.069082454
86	0xbd2efa55	-0.042719204
87	0xbdefbbd8	-0.1170575
88	0xbda6efe3	-0.081512235
89	0xbd3abdc9	-0.04559115
90	0x3dbe43a3	0.092902444
91	0x3cf42d96	0.029806893
92	0xbb92d5bb	-0.004481045
93	0x3d296263	0.041353595
94	0xbcae75ff	-0.0212965
95	0x3e318678	0.17336452
96	0xbdd3c968	-0.103411496
97	0xbcb4a31f	-0.022050438
98	0x3d31f8d5	0.043450195
99	0x3c471f67	0.012153483
100	0x3b8ee5ed	0.0043609054
101	0x3cb870ac	0.022514664
102	0x3cdea809	0.027179735
103	0xbd846c88	-0.06466013
104	0x3d91bca2	0.07116057
105	0x3d1eac79	0.0387387
106	0x3d534dc5	0.05158784
107	0xbcc51d56	-0.02406184
108	0x3ce88410	0.028383285
109	0xbdc0e136	-0.094179556
110	0xbdb9c6eb	-0.09071144
111	0xbd0ffb47	-0.035151746
112	0x3e171f9b	0.1475815
113	0x3dbde79f	0.09272694
114	0xbd5fedf7	-0.0546703
115	0x3d73f85a	0.05956302
116	0x3d64eecb	0.055891793
117	0xbcbf5706	-0.023356926
118	0x3a9a21ec	0.0011759377
119	0xbc03dd65	-0.00804839
120	0xbc55f9a5	-0.013060008
121	0x3df8b88e	0.12144576
122	0xbbbb67ee	-0.0057191765
123	0xbd4c59ff	-0.049890514
124	0xbba4e806	-0.005032542
125	0xbd18c426	-0.037296437
126	0xbc408c36	-0.011752179
127	0x3cadeace	0.021230128
128	0xbd9ae2d0	-0.07562792
129	0xbd20eccf	-0.03928834
130	0x3db0c241	0.08630801
131	0xbdba4e0c	-0.090969175
132	0xbd3ff89c	-0.04686795
133	0x3dd04aee	0.10170542
134	0xbded3977	-0.11583226
135	0x3d768089	0.060181174
136	0xbcda9b4e	-0.026685383
137	0x3d2c4820	0.04206097
138	0xbda665c9	-0.08124883
139	0x3da47bb8	0.0803141
140	0xbdc0ffbd	-0.09423778
141	0x3bbb9029	0.0057239723
142	0x3c1f6e22	0.009730848
143	0xbc4370c7	-0.011928744
144	0x3d2f229a	0.042757608
145	0x3d55727f	0.052111145
146	0x3e2d7665	0.16939695
147	0xbd61f9d4	-0.055169895
148	0x3c870d2f	0.016485779
149	0xbd962766	-0.073317334
150	0x3c1d2abe	0.00959271
151	0xbd1448e1	-0.036202315
152	0x3de10ac9	0.10988385
153	0xbbda702f	-0.0066662054
154	0xbcb40da0	-0.021979153
155	0x3c13180d	0.008977902
156	0xbda9a620	-0.08283639
157	0x3b953fd5	0.0045547285
158	0x3c8e605f	0.017379938
159	0x3b485e67	0.0030573846
160	0x3ce82aae	0.028340664
161	0xb9d7228e	-0.0004103374
162	0xbd723b77	-0.05913874
163	0x3cae4e18	0.021277472
164	0xbd1de4f0	-0.03854841
165	0xbbcf0bd8	-0.0063185506
166	0xbd04f98b	-0.032464545
167	0xbd25099f	-0.04029238
168	0x3d5be611	0.053686205
169	0x3d1a48f0	0.037667215
170	0xbdbc9e29	-0.09209854
171	0x3e0919eb	0.13388793
172	0x3c62c318	0.013840459
173	0xbddd0005	-0.10791019
174	0xbcfa277c	-0.030536406
175	0xbca3c195	-0.019989768
176	0x3d76eb8d	0.060283232
177	0xbe05edb1	-0.13078953
178	0xbdd89568	-0.10575372
179	0x3d43a311	0.047762934
180	0xbd3742c8	-0.044741422
181	0xbd0a67a1	-0.033790234
182	0xbd407872	-0.046989866
183	0xbd861bf7	-0.065483026
184	0x3d104965	0.035226244
185	0xbd0b96c2	-0.03407932
186	0xb886bf92	-6.425301e-05
187	0xbb8b7048	-0.0042553283
188	0xb93c34c2	-0.00017948731
189	0xbdf0a7e8	-0.117507756
190	0xbd01424b	-0.031557363
191	0x3d62428b	0.05523924
192	0x3d166c79	0.03672454
193	0xbd8db8f9	-0.06920046
194	0xbd6df955	-0.05809911
195	0x3da131ac	0.07870802
196	0xbd11065f	-0.035406467
197	0x3affc3e2	0.0019513334
198	0xbc620700	-0.013795614
199	0xbd340c72	-0.04395718
200	0xbd076a19	-0.033060167
201	0x3ae67ab8	0.001758418
202	0x3d0c39a0	0.034234643
203	0x3de26811	0.11055005
204	0x3d7ca835	0.061683852
205	0x3cfb28ee	0.030659165
206	0x3bf7c0fa	0.0075608464
207	0xbcbe4d15	-0.023230115
208	0x3ce5d692	0.028056417
209	0x3d9b53a1	0.0758431
210	0x3d5f70dd	0.054550994
211	0xbb9aeaef	-0.0047277133
212	0xbd600e62	-0.054701217
213	0x3cf16d91	0.02947119
214	0xbd631a54	-0.05544503
215	0x3c697c0f	0.014250769
216	0xbe247261	-0.16059257
217	0xbccdbfaf	-0.025115816
218	0xbd88c142	-0.06677486
219	0xbd0569cb	-0.032571595
220	0xbdab7747	-0.0837236
221	0xbe4e366d	-0.2013795
222	0x3bf3fe15	0.0074460604
223	0xbda7a03b	-0.081848584
224	0xbc9a31e1	-0.018822612
225	0xbde35285	-0.11099724
226	0x3d0bae6b	0.034101885
227	0x3d5bad48	0.05363205
228	0x3b2ce66e	0.0026382464
229	0xbd956b8b	-0.07295903
230	0x3d271d31	0.040799323
231	0xbc84b3c9	-0.01619901
232	0x3cbf5cc4	0.023359664
233	0x3d75783b	0.059929114
234	0x3cf56499	0.029955195
235	0x3d53e688	0.051733524
236	0x3d2477b2	0.040153213
237	0xbd92096b	-0.071307026
238	0x3cac0d27	0.021002365
239	0x3d106cf5	0.03526016
240	0xbcf60ffe	-0.030036923
241	0xbd1091d7	-0.035295334
242	0x3cf845f1	0.030306788
243	0x3e0eced7	0.1394609
244	0xbbe371f6	-0.0069410754
245	0xbcc873e2	-0.02446932
246	0x3cc8ed09	0.02452709
247	0x3d585168	0.05281201
248	0xbca999eb	-0.020703277
249	0xbcc20237	-0.023682697
250	0x3c6b8dbc	0.014377054
251	0x3db3d827	0.08781462
252	0xbc78c516	-0.015183708
253	0xbd974d12	-0.07387747
254	0x3d9c8ffb	0.076446496
255	0x3d21bec3	0.039488565

actor.2.bias f4 [128]
0	0x3b6fd438	0.0036594998
1	0x3d962531	0.073313124
2	0xbd2e85a1	-0.042607907
3	0xbd2cff02	-0.042235382
4	0xbcf1b013	-0.029502904
5	0xbcc0e914	-0.02354864
6	0x3cd72ed3	0.026267445
7	0xbd028adf	-0.03187072
8	0xbd183095	-0.037155706
9	0xbcc54294	-0.024079598
10	0x3d507484	0.050892368
11	0xbd47d728	-0.048789173
12	0xbccbd40f	-0.02488139
13	0x3d8dd3b7	0.06925147
14	0xbd69bdb4	-0.05706568
15	0x3d4c67f4	0.049903825
16	0xbd69b9b5	-0.05706187
17	0x3d80dcfb	0.06292149
18	0xbd2be718	-0.041968435
19	0x3d79c202	0.060976036
20	0xbacb0210	-0.0015488286
21	0x3c650fc5	0.0139808105
22	0x3d3e96e5	0.046530623
23	0xbd1ef82c	-0.038810894
24	0xbd5431db	-0.05180536
25	0x3d41bf12	0.04730136
26	0x3ca923fa	0.020647038
27	0x3d2a974f	0.041648205
28	0xbc326ff4	-0.0108909495
29	0xbcfeb941	-0.031094195
30	0xbc6d9e05	-0.014503007
31	0xbd8a2584	-0.06745437
32	0xbd12e411	-0.035862032
33	0xbd5980de	-0.053101413
34	0x3c031dda	0.008002723
35	0xbd344d23	-0.044018876
36	0xbcd04f14	-0.025428332
37	0xbd766bf9	-0.060161564
38	0xbcd75457	-0.026285334
39	0x3a83eee9	0.0010065708
40	0xbcb096cc	-0.02155628
41	0x3cb6fce9	0.022337394
42	0xbd06ddc7	-0.032926347
43	0xbd1346f0	-0.035956323
44	0x3c812167	0.015762998
45	0xbb05daab	-0.0020424526
46	0x3d8187c0	0.063247204
47	0x3c12ed26	0.008967673
48	0x3a2d3b34	0.0006608248
49	0xbd739cf4	-0.059475854
50	0xbd3b34e4	-0.045704737
51	0xbca0d141	-0.01963103
52	0x3cde1b06	0.027112495
53	0xbd848a56	-0.06471698
54	0xbc45684c	-0.012048792
55	0x3c5f0156	0.013611158
56	0x3cba46fd	0.022738928
57	0xbc2f703b	-0.01070791
58	0x3d46fcbe	0.048580877
59	0xbd6a46eb	-0.05719654
60	0xbd11483a	-0.03546927
61	0xbd346fdb	-0.044051986
62	0xbd8ccdfe	-0.068752274
63	0xbb2616dc	-0.0025343215
64	0xbd339ae3	-0.043848883
65	0x3ad93f3b	0.001657463
66	0xbd42673c	-0.047461733
67	0x3cee24d7	0.029070301
68	0x3d47406e	0.04864543
69	0xbd433b3b	-0.04766391
70	0xbd1bb2cf	-0.038012322
71	0xbd24a3b6	-0.04019519
72	0x3d57a6e7	0.052649405
73	0xbca0ba5d	-0.019620115
74	0xbd6bdb9f	-0.057582494
75	0x3cb963b7	0.022630556
76	0xbd361139	-0.04445002
77	0x3d1d7a37	0.03844663
78	0x3d939a96	0.07207219
79	0x3c50fb21	0.012755186
80	0x3d8a5ba3	0.067557596
81	0x3c8c2910	0.017109424
82	0x3d234908	0.03986457
83	0x3c810eaa	0.015754063
84	0x3d2ae902	0.04172612
85	0xbd129e2d	-0.03579538
86	0x3d3cfef1	0.04614157
87	0xbba7eca1	-0.005124644
88	0x3d5f0adf	0.054453727
89	0x3d2554d3	0.040364098
90	0xbd051f58	-0.032500595
91	0xbc349b94	-0.011023421
92	0xbd339506	-0.04384329
93	0x3d38f8c7	0.045159128
94	0x3d2fe4f2	0.04294295
95	0xbd3ae4e1	-0.045628432
96	0x3d0e7d45	0.034787435
97	0x3c91bda9	0.017790632
98	0xbd69450f	-0.056950625
99	0xbd354c09	-0.044261966
100	0xbcc227a7	-0.023700548
101	0xbd14be57	-0.036314335
102	0x3cad8c6d	0.021185124
103	0xbcfc662c	-0.030810438
104	0x3c8a83de	0.016908582
105	0xbd8b8ffe	-0.06814574
106	0x3c889bd9	0.016675876
107	0xbc632717	-0.0138643
108	0xbc5b8872	-0.01339923
109	0xbd3ecaec	-0.04658024
110	0x3d6e3692	0.05815751
111	0xbd911c74	-0.07085505
112	0xbd4301b9	-0.047609065
113	0x3d553635	0.05205365
114	0xbcf61a56	-0.030041855
115	0x3bbb1016	0.0057087047
116	0x3d3ca586	0.046056293
117	0xbb86077d	-0.004090248
118	0x3d4b8432	0.04968662
119	0x3d1da605	0.038488407
120	0x3d303aa1	0.043024663
121	0x3d9d3747	0.07676559
122	0xbd072bb2	-0.033000655
123	0xbbf70154	-0.007538
124	0x3d8fe49a	0.07026024
125	0xbd24903f	-0.040176626
126	0x3d3c8755	0.0460275
127	0xbcea0949	-0.02856888

actor.4.weight f4 [6, 128]
0	0x3dd2246c	0.10260853
1	0x3ba555f0	0.005045645
2	0xbd708448	-0.058719903
3	0xbd040d34	-0.032239154
4	0xbdd988d6	-0.106218025
5	0xbd81f989	-0.06346423
6	0x3cf615f3	0.030039763
7	0x3dbfdf92	0.093688145
8	0xbcd579dc	-0.026059084
9	0x3d2d3088	0.04228261
10	0x3b9f80a2	0.004867629
11	0xbc29be0d	-0.010360253
12	0x3c2e8162	0.010650964
13	0xbc7b7f98	-0.015350245
14	0x3d6d2ff8	0.057907075
15	0x3dbaecc2	0.09127189
16	0x3d33903e	0.043838732
17	0x3d450fd9	0.048110817
18	0x3adf3316	0.0017028775
19	0x3bd07b7f	0.006362378
20	0xbd5e9634	-0.054342464
21	0xbdb9232a	-0.0903991
22	0xbd8b4e7c	-0.06802079
23	0x3c9dde94	0.019271173
24	0x3da10e04	0.078640014
25	0x3c819c09	0.015821474
26	0x3d069ab1	0.03286237
27	0xbcbf641b	-0.023363164
28	0xbd764d83	-0.060132515
29	0x3cf17f4e	0.029479649
30	0x3d4e15e4	0.050313845
31	0xbc6dd716	-0.0145166125
32	0xbcc7bb0e	-0.024381187
33	0xbda04427	-0.07825499
34	0xbd4bfff3	-0.04980464
35	0xbd062365	-0.0327486
36	0xbd2d151c	-0.04225646
37	0x3ce540e7	0.02798505
38	0xbc957f51	-0.018249186
39	0x3d127a5f	0.035761233
40	0xbb83ed23	-0.0040260716
41	0xbcac71f8	-0.021050438
42	0xbcc91663	-0.024546808
43	0x3b5a360a	0.003329637
44	0x3cb24da7	0.021765543
45	0x3da3377e	0.07969569
46	0x3ca2df0b	0.019881746
47	0xbcfd492e	-0.030918684
48	0x3c3a90a6	0.011387026
49	0xbd89e11d	-0.0673239
50	0x3c0d7581	0.008633972
51	0x3c9666f5	0.01835964
52	0x3d53c399	0.05170021
53	0x3c6a5fe6	0.0143050905
54	0x3d81cd2b	0.06337961
55	0x3d414708	0.04718688
56	0xbda20bb2	-0.07912387
57	0xbd021c99	-0.031765554
58	0xbb600528	-0.003418276
59	0xbd444412	-0.04791648
60	0xbd5ad14b	-0.053422254
61	0x3d80f6be	0.06297062
62	0xbc206a2d	-0.009790939
63	0xbd03afeb	-0.03215019
64	0x3a9d1bcc	0.0011986434
65	0xbdc00438	-0.09375805
66	0x3d762b66	0.06009998
67	0xbcd5e0d6	-0.026108187
68	0x3bc4d0a3	0.0060063167
69	0x3b68085e	0.0035405378
70	0xbd931ab1	-0.07182825
71	0x3cf4a2b7	0.029862745
72	0xbd9133ea	-0.0708998
73	0x3cfe1212	0.031014476
74	0x3c791416	0.015202543
75	0xbda6b362	-0.08139683
76	0xbd84ecd8	-0.06490487
77	0x3c9f0008	0.019409195
78	0xbca4d942	-0.020123128
79	0xbcb3ed07	-0.02196361
80	0x388cb44b	6.7093024e-05
81	0x3d1a2dbe	0.03764128
82	0x3d15cac2	0.036570318
83	0xbd66957d	-0.056294907
84	0xbc355894	-0.011068482
85	0xbcc26ca0	-0.023733437
86	0xbc8758d9	-0.016521858
87	0x3ba0bf44	0.004905613
88	0xbbd13c52	-0.0063853646
89	0xbbd1d693	-0.006403753
90	0x3d3a71c4	0.04551865
91	0x3d5b07a9	0.053474102
92	0xbd7fb150	-0.062424958
93	0x3bb8f8ab	0.005644878
94	0x3d312070	0.043243825
95	0xbd0c6c1e	-0.034282796
96	0x3c9e271f	0.019305764
97	0xbb3c68c7	-0.0028748976
98	0x3cde69b8	0.02715002
99	0x3d140073	0.03613324
100	0xbd48747f	-0.048939224
101	0xbc7b312c	-0.015331548
102	0x3d3afac4	0.045649305
103	0x3cba9309	0.02277519
104	0xbc51f7e2	-0.0128154475
105	0xbcaf263f	-0.021380542
106	0x3db99206	0.09061055
107	0xbdb96f33	-0.09054413
108	0xbda62896	-0.0811321
109	0x3c0a9c95	0.008460184
110	0x3d2291db	0.03968988
111	0x3d8a4c03	0.06752779
112	0xbb86a9be	-0.0041095903
113	0xbd139293	-0.036028456
114	0xbdc6c073	-0.097046755
115	0xbd4d414c	-0.0501111
116	0x3dc3f3b2	0.095679656
117	0xbccf3c4b	-0.025297305
118	0xbad90782	-0.0016558024
119	0xbccb06bb	-0.024783483
120	0x3dbd6738	0.09248203
121	0xbc83e8ed	-0.016102279
122	0xbdab93c5	-0.08377794
123	0xbca61850	-0.020275265
124	0x3c0995e8	0.008397557
125	0xbd13af47	-0.03605583
126	0xbc0193d1	-0.007908777
127	0xbc93967f	-0.018016098
128	0x3c0b6a07	0.008509166
129	0x3d417f8f	0.04724079
130	0x3bafb70e	0.005362398
131	0x3d05f86d	0.03270762
132	0x3d5ed383	0.054400932
133	0x3d25cc59	0.040478084
134	0xbc8ba6c0	-0.017047286
135	0x3c9346e1	0.017978134
136	0x3ca9068c	0.020633005
137	0xbca32741	-0.019916179
138	0x3c07b339	0.008282476
139	0xbd4d3d78	-0.05010745
140	0xbb0a9bec	-0.0021150066
141	0x3d06736d	0.032824922
142	0xbd5ba0f4	-0.053620294
143	0x3e00b12d	0.12567587
144	0xbc541f90	-0.012946978
145	0xbd1ca1ac	-0.03824012
146	0x3cf2dac3	0.02964533
147	0x3cd08c81	0.025457622
148	0x3b6a312d	0.0035734877
149	0xbdaad3c6	-0.08341174
150	0x3d644aaa	0.055735268
151	0xbce66390	-0.028123647
152	0xbd729d7e	-0.059232228
153	0x3cb0b145	0.021568904
154	0x3c149b95	0.009070297
155	0xbc8913fa	-0.016733158
156	0x3c060a39	0.008181148
157	0x3cf9fd09	0.030516164
158	0xbd1cfa1a	-0.038324453
159	0xbcfa34f3	-0.030542826
160	0xbcaf9f51	-0.021438273
161	0x3d74e91f	0.059792634
162	0x3c95d476	0.018289786
163	0x3da82e63	0.082119726
164	0xbd66bd3a	-0.056332804
165	0xbcbbb835	-0.022914985
166	0xbd044d8c	-0.032300517
167	0xbc395374	-0.011311401
168	0x3c25d7c9	0.010122248
169	0xbd3155f5	-0.043294866
170	0xbc53c53b	-0.012925441
171	0xbcd1ac27	-0.025594784
172	0xbbce302f	-0.006292365
173	0x3cbc39b9	0.022976743
174	0x3d8b2119	0.06793422
175	0x3c9b2b71	0.018941613
176	0x3d7f2a92	0.062296458
177	0xbd0819ff	-0.033227917
178	0x3c9e6897	0.019336982
179	0xbca318aa	-0.019909222
180	0xbcacb7dc	-0.021083765
181	0xbc6be319	-0.014397406
182	0xbcd16a8a	-0.025563497
183	0xbcb50a1d	-0.022099549
184	0x3d450d41	0.048108343
185	0xbcdda594	-0.027056493
186	0xbb989229	-0.0046560955
187	0x3ca2d134	0.019875146
188	0x3d100c01	0.035167698
189	0xbd2e513f	-0.04255795
190	0xbd5d4d77	-0.054028954
191	0xbd3f2269	-0.046663675
192	0xbd9895b7	-0.07450431
193	0x3d0d0c5c	0.034435615
194	0xbdda76e7	-0.1066721
195	0xbd817ba4	-0.06322411
196	0xbcdcee63	-0.02696914
197	0xbc4ed64b	-0.012624334
198	0x3dc2c954	0.095110565
199	0xbd5f2d24	-0.05448641
200	0x3d2b99ff	0.04189491
201	0xbd5bbb3f	-0.05364537
202	0xba8c6bd0	-0.0010713283
203	0x3d8087ae	0.06275879
204	0x3d85e818	0.06538409
205	0xbd6f1d6e	-0.058377676
206	0xbcd27cc2	-0.025694255
207	0xbda47c30	-0.080314994
208	0x3c51a317	0.012795231
209	0x3cc8d273	0.024514413
210	0x3c319aa3	0.010840091
211	0x3b59c34e	0.0033227983
212	0x3c87a372	0.016557429
213	0x3b217a19	0.0024639426
214	0x3c1f4471	0.009720908
215	0xbcec264b	-0.028826853
216	0xba9c9c54	-0.0011948445
217	0x3ae19047	0.0017209136
218	0xbd355745	-0.04427268
219	0xbdb3189b	-0.087449275
220	0xbca7c873	-0.020481324
221	0x3c920d9a	0.017828751
222	0xbcd020ee	-0.025406327
223	0x3c8edffa	0.017440785
224	0xbcaca40b	-0.021074316
225	0xbd88d722	-0.06681658
226	0xbca94853	-0.02066437
227	0xbcc9be50	-0.02462688
228	0x3d8fa655	0.07014147
229	0xbd2d1981	-0.04226065
230	0xbb5b074d	-0.00334211
231	0x3c8eb629	0.017420845
232	0xbc3a6c7f	-0.011378407
233	0xbd152f29	-0.03642193
234	0x3ad3f031	0.0016169605
235	0x3ce9717a	0.028496493
236	0x3bbfa606	0.005848649
237	0xbd1cb42c	-0.038257763
238	0x3c22aa88	0.009928353
239	0xbdca39a7	-0.098742776
240	0xbbc3f962	-0.0059806565
241	0x3d233d17	0.03985318
242	0x3d940b97	0.07228773
243	0x3c086fe3	0.008327457
244	0xbd271a6d	-0.040796686
245	0x3c8baf64	0.017051406
246	0x3c3ad387	0.011402971
247	0x3c998526	0.018740248
248	0xbd3f659c	-0.04672776
249	0x3cdf9f55	0.027297655
250	0x3cc3a36a	0.023881633
251	0xbd930ee9	-0.07180578
252	0x3c343cd4	0.011000831
253	0xbd4b7ed4	-0.0496815
254	0x3c9f1817	0.019420667
255	0x3cb723d5	0.022355953

actor.4.bias f4 [6]
0	0xbcf664da	-0.030077387
1	0x3d82b70d	0.063825704
2	0xbd1a0a22	-0.03760732
3	0xbd62bf26	-0.055358075
4	0x3d3c6b26	0.046000622
5	0x3da5d069	0.08096392

critic.0.weight f4 [256, 12]
0	0xbbbf711b	-0.0058423406
1	0x3ca9392f	0.02065715
2	0x3dbbe807	0.09175115
3	0x3df5f32c	0.12009272
4	0xbd16d85b	-0.036827426
5	0xbce6e972	-0.028187487
6	0xbe2240ae	-0.15844986
7	0x3d683394	0.056689814
8	0xbe799fff	-0.2437744
9	0xbeffdf78	-0.4997518
10	0xbd54647c	-0.051853642
11	0x3f34879f	0.7051944
12	0x3de41df4	0.111385256
13	0xbe7c7466	-0.24653777
14	0x3e62a7f9	0.22134389
15	0x3e1d7af1	0.1537893
16	0xbe901155	-0.28138223
17	0x3d92f03e	0.07174729
18	0xbe0056ac	-0.12533063
19	0x3e9d7297	0.30751488
20	0xbe84fde7	-0.25974962
21	0x3f0b4037	0.5439486
22	0x3de0f244	0.109837085
23	0xbf0ff8f7	-0.56239265
24	0xbe99c1e4	-0.3003074
25	0xbda9d761	-0.082930334
26	0xbe3369de	-0.17520854
27	0xbdca2347	-0.0987001
28	0xbe81cfe3	-0.25353917
29	0x3e0aa2f2	0.13538721
30	0x3d3d0ab2	0.046152778
31	0x3e942de2	0.28941256
32	0xbe9d4d75	-0.30723158
33	0xbf2ec3e3	-0.6826765
34	0x3ea1ffa5	0.31640354
35	0x3f20fa89	0.62882286
36	0x3c1699c0	0.00919193
37	0x3d60fad3	0.054926705
38	0xbd929b9e	-0.07158588
39	0xbeae33f7	-0.3402402
40	0x3e2d93ec	0.16950959
41	0x3e520d40	0.20512867
42	0xbe45afe8	-0.19305384
43	0x3eae6d2d	0.3406767
44	0xbd5d72bc	-0.054064497
45	0xbf36caf5	-0.7140344
46	0x3cbb3a97	0.022855086
47	0xbf1dce7e	-0.6164321
48	0xbdb351b9	-0.08755822
49	0x3d6ed0d6	0.05830463
50	0xbd0a2949	-0.03373078
51	0xbdb60095	-0.0888683
52	0xbe009eed	-0.12560625
53	0x3e68a00b	0.22717302
54	0x3e077243	0.13227181
55	0x3e834a56	0.2564265
56	0x3c7c30e4	0.015392516
57	0x3f284fb5	0.65746623
58	0x3e97255f	0.295207
59	0xbf1e3188	-0.6179433
60	0xbe83bed6	-0.25731534
61	0x3b5e8fdb	0.0033960256
62	0x3d4f083a	0.050544955
63	0xbdabd862	-0.08390881
64	0xbd80dd79	-0.062922426
65	0xbdb3454c	-0.08753452
66	0xbb963397	-0.0045837867
67	0x3c89e685	0.016833553
68	0xbda32bc5	-0.07967333
69	0x3e0e6b76	0.1390818
70	0xbee2a24d	-0.4426445
71	0xbecef7a1	-0.404233
72	0xbbf9982c	-0.0076170173
73	0x3e2a5e3f	0.16637515
74	0x3e33c1f9	0.17554463
75	0xbdb29442	-0.08719684
76	0xbe018ed1	-0.12652136
77	0xbe948a50	-0.29011774
78	0xbd1b93ca	-0.03798274
79	0x3b043f43	0.0020179308
80	0x3e824f7b	0.25451264
81	0x3f63f344	0.8904307
82	0xbe89a5de	-0.2688436
83	0x3e7d4589	0.24733557
84	0x3eb1e1ca	0.34742576
85	0x3e5def08	0.21673214
86	0x3e85d2a4	0.2613727
87	0xbbb34143	-0.0054704263
88	0xbe521c3a	-0.2051858
89	0xbebfbf6a	-0.37450725
90	0x3e56103f	0.20904635
91	0xbba2f398	-0.0049728863
92	0xbe88c0b4	-0.2670952
93	0x3f5c4887	0.8604817
94	0x3e02503d	0.12725921
95	0xbea4e513	-0.3220602
96	0xbe607d05	-0.21922691
97	0x3da3dafe	0.08000754
98	0xbe4f88ca	-0.20267025
99	0xbdf863a6	-0.121283814
100	0xbe561012	-0.20904568
101	0x3e28f0aa	0.16498056
102	0x3e01879b	0.12649386
103	0xbe79cd6a	-0.24394765
104	0x3e5ac9e8	0.21366084
105	0xbf1c7952	-0.6112262
106	0xbe5ae526	-0.21376476
107	0x3e037e05	0.12841041
108	0xbe08bd04	-0.13353354
109	0xbd8a2b8c	-0.06746587
110	0xbe390faf	-0.18072389
111	0xbea5dd40	-0.32395363
112	0x3d6d079a	0.057868578
113	0xbe1c5996	-0.1526855
114	0xbd64e232	-0.05587978
115	0xbdb44a7b	-0.088032685
116	0xbe488545	-0.19582088
117	0xbf0f02bd	-0.55863553
118	0x3e37a88c	0.1793539
119	0xbdcc858d	-0.0998641
120	0x3e36df9f	0.17858742
121	0x3d1527ed	0.03641503
122	0xbd07c17f	-0.033143517
123	0x3e64e110	0.2235148
124	0xbe33c6b9	-0.17556275
125	0xbce9a37a	-0.028520335
126	0x3bb37b6e	0.0054773604
127	0xbe82c0f0	-0.25537825
128	0x3dd4ce8e	0.1039096
129	0x3f6557b4	0.8958695
130	0x3dc31750	0.09525931
131	0x3e87be84	0.2651254
132	0xbd0a5f21	-0.03378213
133	0xbd84bfa7	-0.06481867
134	0xbcacf297	-0.02111177
135	0xbe657d9f	-0.22411202
136	0xbd6ad4ea	-0.057331957
137	0xbe1e5bfd	-0.15464778
138	0xbd846a97	-0.06465643
139	0xbd0f89e9	-0.03504363
140	0x3e208184	0.15674406
141	0xbf2a20fb	-0.66456574
142	0xbce1b423	-0.027551716
143	0x3e10866a	0.14113775
144	0x3e5e8d69	0.21733631
145	0x3db6938c	0.08914861
146	0x3d6cc42a	0.057804264
147	0x3e4783d0	0.19483876
148	0x3db933a9	0.090430565
149	0xbe224a47	-0.15848647
150	0xbe3bd244	-0.18341929
151	0xbe0cef89	-0.1376325
152	0xbdadff77	-0.08495992
153	0x3f46f82a	0.7772242
154	0xbea926aa	-0.3303731
155	0xbf0fcedf	-0.56175035
156	0xbdeaebd9	-0.114707656
157	0xbca84681	-0.020541431
158	0x3cb2f69a	0.021846104
159	0x3e6c3f00	0.23070908
160	0xbe0849a9	-0.13309349
161	0xb910a0ec	-0.00013792858
162	0xbe9dc343	-0.30813035
163	0xbd9407e4	-0.072280675
164	0x3dfe6fbe	0.12423657
165	0x3e7f6ae0	0.24943113
166	0xbe4a9783	-0.1978436
167	0x3eecec70	0.46274137
168	0x3e1c472e	0.15261528
169	0xbc7c5fdd	-0.015403715
170	0xbe7cf90a	-0.24704376
171	0xbdc5b9bf	-0.09654569
172	0x3e0f8a48	0.14017594
173	0x3dff0872	0.12452783
174	0x3d294da6	0.041333817
175	0xbe2fd63d	-0.17171569
176	0xbe8001b1	-0.2500129
177	0x3f33bae0	0.70207024
178	0x3e86cd7c	0.26328647
179	0x3ecec454	0.4038416
180	0x3e5661fe	0.20935819
181	0xbd8e0adf	-0.06935667
182	0xbc184ac8	-0.009295173
183	0x3e859211	0.26088002
184	0xbe7d5c85	-0.24742325
185	0x3e7c21db	0.2462229
186	0x3d31f334	0.043444827
187	0xbe8d97fb	-0.27655014
188	0x3dc33360	0.095312834
189	0xbf0f1b32	-0.5590087
190	0x3dde0667	0.10841065
191	0x3ee1249f	0.43973252
192	0xbe40c133	-0.188237
193	0xbdb4078e	-0.087905034
194	0x3df29c93	0.118462704
195	0x3ead6bc5	0.33871284
196	0x3d5c4880	0.05378008
197	0x3e9fb07a	0.31189328
198	0xbeacd3ab	-0.3375524
199	0xbe3ec541	-0.18629934
200	0xbd8922bd	-0.06696079
201	0x3ee46e5a	0.44615442
202	0xbec1699e	-0.37775892
203	0x3f3e7de2	0.7441083
204	0x3e507bf2	0.20359781
205	0xbcef40e7	-0.029205753
206	0x3d05c179	0.032655213
207	0xbe03cece	-0.12871858
208	0x3d49e5b2	0.04929132
209	0x3dca85e1	0.098888166
210	0x3d972a6c	0.07381138
211	0xbc8193e8	-0.015817598
212	0x3da45965	0.08024863
213	0xbf43f298	-0.76542044
214	0x3da5c66a	0.08094485
215	0x3e02e9d1	0.12784506
216	0x3e7cc036	0.24682698
217	0x3e23bfdf	0.15991162
218	0x3e9b8f52	0.30382782
219	0x3de2bb0a	0.11070831
220	0x3e28edda	0.16496983
221	0x3e7eeaaf	0.24894212
222	0xbe0a226f	-0.13489698
223	0x3d853e9a	0.06506081
224	0xbea85359	-0.3287609
225	0xbf792e35	-0.9733613
226	0xbe6fc699	-0.23415603
227	0x398dfe20	0.00027082954
228	0x3d43ad80	0.047772884
229	0x3da49787	0.08036714
230	0x3e305ec0	0.17223644
231	0xbe114f2b	-0.14190356
232	0xbd501b7b	-0.050807457
233	0x3e307e46	0.1723567
234	0xbe719a2d	-0.2359397
235	0x3e098df6	0.1343306
236	0xbe1ec91c	-0.15506405
237	0x3f7e177c	0.99254584
238	0x3df27a5a	0.11839743
239	0x3d30f104	0.0431986
240	0xbb23ea5d	-0.0025011518
241	0xbb313f84	-0.0027045915
242	0x3e281dcf	0.16417621
243	0x3e44c497	0.19215618
244	0xbb192694	-0.0023368942
245	0x3e3d17d9	0.18466128
246	0x3d72e81f	0.0593034
247	0xbe74b595	-0.23897393
248	0xbdb417f4	-0.08793631
249	0x3f6f9709	0.93589836
250	0xbd0704be	-0.032963507
251	0x3f16c8a1	0.58899885
252	0xbc89e0b0	-0.016830772
253	0xbe012067	-0.12610017
254	0xbd091682	-0.03346873
255	0x3e3755be	0.17903802

critic.0.bias f4 [256]
0	0xbcdeacca	-0.027182002
1	0xbe76c585	-0.24098785
2	0x3e1b5516	0.15169176
3	0xbe4bc2bd	-0.19898506
4	0xbe2756cd	-0.16341706
5	0x3e11eb88	0.14250004
6	0x3de3b680	0.111187935
7	0xbe745941	-0.23862173
8	0x3c6500a9	0.013977208
9	0xbe18b4cb	-0.14912717
10	0xbe43fb46	-0.19138822
11	0x3e34c7d5	0.17654355
12	0xbe373636	-0.17891774
13	0xbdf6c732	-0.12049712
14	0xbe93e4d8	-0.2888553
15	0xbd2b90c9	-0.041886125
16	0xbca0fba4	-0.019651242
17	0x3d8697a0	0.06571889
18	0x3cd90ef0	0.02649638
19	0x3e887f9c	0.26659858
20	0xbc9a5524	-0.018839426
21	0x3cdb8bb3	0.026800012
22	0x3e6f1581	0.23348047
23	0x3eabc56d	0.3354906
24	0x3e494969	0.1965691
25	0xbd0c4634	-0.03424664
26	0x3e6a1c86	0.22862443
27	0x3d5fba73	0.05462117
28	0x3b3da826	0.0028939336
29	0x3d3e417e	0.046449177
30	0x3e883a29	0.26606873
31	0xbe8cd3d9	-0.27505377
32	0xbe140f6e	-0.14459011
33	0x3ce97bf7	0.028501494
34	0x3d56937b	0.052386742
35	0x3cd06b92	0.025441919
36	0x3eaac28e	0.33351558
37	0x3dc23461	0.09482647
38	0x3e5161f9	0.2044753
39	0xbe8d1834	-0.27557528
40	0xbdda1573	-0.10648622
41	0x3db52022	0.088440195
42	0xbe46587c	-0.19369692
43	0xbd438e6b	-0.047743242
44	0xbd079c4d	-0.033108044
45	0xbe7e9fb7	-0.24865614
46	0xbe563357	-0.20918022
47	0x3e5d15ee	0.21590397
48	0x3d8cb73f	0.06870889
49	0xbe206cfe	-0.15666577
50	0xbe63db17	-0.22251545
51	0x3e8e9766	0.27849883
52	0xbdb58bef	-0.08864581
53	0x3cc8e641	0.024523856
54	0x3e5cb881	0.21554758
55	0x3e96c32b	0.29445776
56	0x3e6e7538	0.23286903
57	0x3d08d987	0.033410575
58	0xbe0aee55	-0.13567479
59	0xbd21258d	-0.03934245
60	0xbe192c2a	-0.14958254
61	0x3c512b8f	0.012766733
62	0xbd736f17	-0.059432115
63	0x3e3c7bc6	0.18406591
64	0x3e8692f5	0.26283994
65	0xbd4564c0	-0.048191786
66	0x3e1ab95d	0.15109773
67	0xbd094c09	-0.03351978
68	0xbd0c4893	-0.0342489
69	0x3eb76d95	0.35825792
70	0x3deeb88b	0.116562925
71	0xbe415715	-0.18880875
72	0x3cb5a1c9	0.022171872
73	0xbde9bb22	-0.11412646
74	0xbd163bca	-0.036678113
75	0xbcb7fd4b	-0.022459647
76	0xbdc51a38	-0.096241415
77	0x3e133907	0.14377223
78	0xbe06657d	-0.13124652
79	0x3e16c1e6	0.14722404
80	0xbe75ba16	-0.23996767
81	0x3dbf5eac	0.09344229
82	0x3e9eed24	0.310403
83	0x3de79aea	0.113088444
84	0xbdbb7108	-0.091524184
85	0x3e055d54	0.13023883
86	0xbdb38519	-0.08765621
87	0x3e95349a	0.29141694
88	0xbdf03f61	-0.117308386
89	0xbcacf2f2	-0.02111194
90	0x3de9daaf	0.11418664
91	0xbe06520b	-0.13117234
92	0x3e8a35db	0.26994213
93	0x3e300ab4	0.17191583
94	0x3e03102c	0.12799138
95	0x3e514bf0	0.20439124
96	0x3cbca2a8	0.02302678
97	0x3ca27547	0.019831313
98	0x3e91a9df	0.28449914
99	0x3d82fabf	0.06395482
100	0x3c9ac311	0.018891843
101	0x3e77e48e	0.2420828
102	0x3e6f57ce	0.23373339
103	0xbd78dc8c	-0.060757205
104	0xbde2dccd	-0.11077271
105	0x3e37cbea	0.17948881
106	0x3d47e645	0.048803587
107	0x3e6c3a5f	0.23069142
108	0xbdfa4033	-0.12219276
109	0x3e213fa4	0.15746933
110	0xbec3b35f	-0.38222787
111	0x3c11b8f7	0.008894197
112	0x3e13d9b8	0.14438522
113	0x3db27272	0.08713235
114	0xbe187599	-0.1488861
115	0x3bb5c26b	0.005546858
116	0xbea1fd5e	-0.31638616
117	0xbcba0db8	-0.02271162
118	0x3cf7df05	0.030257711
119	0x3d304f53	0.0430444
120	0x3d8ee0b0	0.069764495
121	0x3dfe3116	0.12411706
122	0x3ec161f6	0.3777005
123	0xbe0a0d98	-0.13481748
124	0xbe528f84	-0.2056256
125	0xbe160554	-0.1465047
126	0x3e06d50b	0.13167207
127	0x3dfbc078	0.1229257
128	0xbe38f4e6	-0.18062171
129	0xbdf0dc2c	-0.117607445
130	0x3c903ae9	0.017606216
131	0x3e1efb76	0.15525612
132	0xbcb40a8d	-0.021977687
133	0xbde61402	-0.11234285
134	0xbd63fbf7	-0.055660214
135	0x3e474e0b	0.19463365
136	0xbe2d6976	-0.16934761
137	0xbc06671d	-0.008203295
138	0x3e473bd8	0.19456422
139	0x3ded8f63	0.115996145
140	0xbcdeb88a	-0.027187604
141	0x3d9e8174	0.07739535
142	0x3e7854de	0.24251124
143	0x3e02d04f	0.12774776
144	0x3d9f7dba	0.07787652
145	0x3dffbf31	0.12487639
146	0xbe9aa4f3	-0.3020397
147	0x3cf14bf3	0.02945516
148	0xbe45bd85	-0.19310577
149	0xbd801c98	-0.06255454
150	0x3defab42	0.11702587
151	0x3ca8745e	0.0205633
152	0x3e9750ce	0.29553837
153	0x3e046220	0.12928057
154	0x3e0d908d	0.13824673
155	0x3dd17682	0.10227682
156	0x3eb232ab	0.34804282
157	0x3da9f16a	0.08297999
158	0x3e5b6e4c	0.21428794
159	0xbe531b47	-0.20615874
160	0x3dffca6c	0.12489781
161	0x3c72cf0c	0.014819872
162	0xbc37b5c1	-0.011212767
163	0x3e6cb049	0.23114122
164	0x3e32263f	0.17397402
165	0xbd167022	-0.036728032
166	0x3e3a39e6	0.18186149
167	0xbd8800bb	-0.06640764
168	0xbe45ffb1	-0.1933582
169	0x3d6bacbc	0.05753778
170	0xbe4720f0	-0.19446158
171	0xbe26bd7e	-0.16283223
172	0x3da9464f	0.082653634
173	0x3d7f5a21	0.062341813
174	0xbd7986a2	-0.06091941
175	0xbc0e0273	-0.008667576
176	0x3e81fefa	0.25389844
177	0x3e0fac58	0.14030588
178	0xbd9b8997	-0.075946026
179	0x3d751851	0.059837643
180	0x3ded36fe	0.115827546
181	0x3de7c75e	0.11317323
182	0xbda0010f	-0.07812702
183	0xbe23f8c4	-0.16012865
184	0x3e16ff9c	0.14745945
185	0xbe16814c	-0.1469776
186	0x3db5cc07	0.08876806
187	0xbe567ca2	-0.20945981
188	0x3e8d8617	0.27641365
189	0xbe602c3f	-0.21891879
190	0x3d8ec387	0.06970888
191	0xbe148042	-0.14502051
192	0x3e3a4d43	0.18193536
193	0x3d909d48	0.07061249
194	0xbdd66f6d	-0.104704715
195	0xbdb9d5b5	-0.090739645
196	0xbe763444	-0.24043375
197	0x3e7fd6ed	0.24984331
198	0xbe0f860c	-0.14015979
199	0x3d711d28	0.058865696
200	0x3e11a9fc	0.14225
201	0x3e76f603	0.24117284
202	0xbd139172	-0.03602738
203	0xbe086555	-0.13319905
204	0xbdbe481f	-0.092911
205	0x3c305e26	0.010764634
206	0x3e6f4617	0.23366581
207	0x3e61bf5c	0.22045654
208	0xbc1d437f	-0.009598612
209	0x3ddfe4e7	0.109323315
210	0x3ec723e8	0.38894582
211	0xbe183a18	-0.14865911
212	0xbdf5a6d2	-0.11994709
213	0x3d0f5c7b	0.035000306
214	0xbe12c581	-0.14333154
215	0x3d078167	0.033082392
216	0xbe4758ee	-0.19467518
217	0xbd5c79d0	-0.053827107
218	0x3ead2f83	0.3382531
219	0xbda2ae54	-0.07943407
220	0xbcf8ba82	-0.030362371
221	0xbe132688	-0.14370167
222	0x3e2b4bca	0.1672813
223	0xbe055ee3	-0.13024478
224	0xbd532ad6	-0.051554523
225	0x3da278fe	0.07933234
226	0x3dfa8f32	0.122343436
227	0xbe665736	-0.22494206
228	0xbe1e94b4	-0.15486413
229	0x3e2670bf	0.16253947
230	0x3d761fae	0.060088806
231	0x3ec2e7a2	0.38067347
232	0xbc2eadc3	-0.010661545
233	0xbe2248f3	-0.1584814
234	0xbc9edf23	-0.01939351
235	0x3db20516	0.08692376
236	0xbe63827e	-0.22217748
237	0x3e739663	0.23787837
238	0xbc8b8b4e	-0.0170342
239	0x3e2c6ee0	0.1683917
240	0x3e6f9ab8	0.23398864
241	0x3d36f15a	0.044663765
242	0xbe8296ad	-0.25505581
243	0xbe962fd0	-0.29333353
244	0xbe1d8640	-0.15383244
245	0xbe23eba1	-0.16007854
246	0xbe088246	-0.13330945
247	0x3e863555	0.26212564
248	0x3e37b09a	0.17938462
249	0x3dd031b2	0.10165729
250	0xbdccfd21	-0.10009218
251	0x3e8b630e	0.2722401
252	0xbe75161d	-0.23934217
253	0x3b8ed1bf	0.0043585
254	0xbe51aede	-0.20476863
255	0xbe30e0da	-0.17273274
