policy/PPO/checkpoints/2025-10-11_14-37/ppo_soarm_7000.pth (torch, 895437 bytes, 33 tensors)

actor.0.weight f4 [256, 12]
000000 ef 69 d8 be 5f f7 24 be e8 ca ce bd f8 c5 0e bd
       -0.4226832 -0.1610999 -0.10097295 -0.034856766
000010 c6 42 d6 bd 98 02 d1 bd a2 94 bd 39 f0 a9 d7 3d
       -0.10461955 -0.10205573 0.0003615963 0.1053046
000020 07 b6 9b 3e 5f 7f 56 3e 94 b0 45 3e 05 97 2f 3e
       0.30412313 0.20947026 0.1930564 0.17147453
000030 32 61 92 be d2 ab 2f be b8 a2 01 be 56 02 1e bc
       -0.2858978 -0.17155388 -0.12659729 -0.009644112
000040 ef 8c 9b bd 2d 72 7b 3d 9b d2 40 3d 38 2e 04 3e
       -0.0759524 0.061388183 0.04707585 0.12908256
000050 1c c8 c7 bc 14 c5 5a 3e 31 4c 85 be 51 d1 20 3e
       -0.024387412 0.21364242 -0.26034692 0.15704848
000060 dd ce 5f 3e cf 6e 40 3d 22 20 6f bd b7 03 10 be
       0.21856256 0.046980675 -0.058380254 -0.14063917
000070 0d 00 8e 3e 10 50 fe 3d 63 2b c0 3d d3 3f 4c 3e
       0.27734414 0.124176145 0.09383275 0.19946222
000080 3c 88 70 bd 2a 73 98 be f2 58 14 be 9b fc b5 be
       -0.058723673 -0.29775363 -0.14487055 -0.35544285
000090 40 4a 81 bd dc ca ba 3d 7d 41 31 3e 89 5e 5a 3d
       -0.0631299 0.091207236 0.17310138 0.053312812
0000a0 f9 4c 9a be a7 02 07 3e 23 2c 96 3e 5c 0b 71 be
       -0.3013685 0.13184606 0.2933055 -0.2353949
0000b0 cd b1 97 bd 5a a0 a7 3e e6 79 39 be da ee 32 3e
       -0.0740696 0.32739526 -0.18112907 0.17473927
0000c0 9f db 07 be 93 f9 c4 bc 6a 44 36 bd 3b 56 5c be
       -0.13267373 -0.024044788 -0.04449884 -0.2151727
0000d0 8c 2f 36 3e b4 72 20 bd ac c7 8a bd c1 b1 15 3e
       0.17791575 -0.03917189 -0.06776366 0.14618589
0000e0 1b bd 25 bd 07 e1 9f 3e f9 cc 65 3e c0 ce 9e be
       -0.04046355 0.3122637 0.22441472 -0.31017113
0000f0 bb 77 06 bd 8e 8a a9 3c d0 35 4d be b6 0c fb bd
       -0.032829028 0.02069595 -0.20040059 -0.12258284
000100 47 b5 f8 3d 14 74 f1 3d 47 7a 4a be 26 3e 80 ba
       0.12143951 0.11789718 -0.19773208 -0.0009784147
000110 4e cb 48 bd bd 6b 07 be 73 91 2e 3e 15 f4 a6 be
       -0.04902201 -0.13224693 0.17047672 -0.32608095
000120 64 ad b4 3d b3 88 74 be a6 31 5b be cc 21 e0 bc
       0.08822134 -0.23880272 -0.21405658 -0.027359866
000130 35 19 33 3e f9 16 93 3e 66 41 eb bd ef 5d 82 3e
       0.17490084 0.28728464 -0.11487083 0.2546229
000140 c1 fb 3f bd fc 31 97 be 76 2c 55 3e b1 c8 21 3e
       -0.04687095 -0.29530323 0.20817742 0.15799214
000150 1a 9e c5 be 46 38 7e 3c 8b 69 62 be 86 42 44 be
       -0.38597184 0.015516346 -0.22110574 -0.19166002
000160 bf bc 2c be d4 c7 9b 3d 5e 77 e0 bc ce d6 0d be
       -0.16868876 0.076064736 -0.027400669 -0.13851473
000170 ac de 67 3d a0 49 1d 3e a9 f8 84 bc d1 60 b1 bd
       0.05660884 0.15360117 -0.016231852 -0.086610444
000180 19 fb 98 3e 79 44 9b bb 25 f9 a2 3d 2e f9 9c 3e
       0.29879072 -0.004738387 0.07957677 0.3065886
000190 9a 6f 8f 3e 1f d4 2e 3e f5 de 4d 3e 00 13 28 3d
       0.28014833 0.17073105 0.20104583 0.041033745
0001a0 aa 7d 86 3d 96 20 b9 3e 93 7a 4a bc 3d 5c 41 3e
       0.06566937 0.36157674 -0.0123583255 0.18882842
0001b0 0f c3 72 bd 1c c5 49 3e d3 31 b9 3c 06 7d e7 3d
       -0.059268054 0.19704098 0.022606766 0.11303143
0001c0 24 1b 8d be 88 5e ac bd 70 a0 c7 bd ac dd 74 3e
       -0.2755977 -0.08416468 -0.09747398 0.23912686
0001d0 96 f4 8a be 9c fd 8d be 46 40 24 be f0 b7 87 be
       -0.2713973 -0.2773255 -0.16040143 -0.2650752
0001e0 fe 05 75 3e ba ac 16 be 5b bb a0 bd 2c 81 56 bd
       0.23928067 -0.14714327 -0.07848235 -0.05236928
0001f0 b1 70 96 3c 30 e9 4d 3e f8 7a 0a bd 7d bc 94 3e
       0.018364282 0.20108485 -0.03380868 0.29050055
000200 cf 62 64 3e dd 87 ad bd f7 26 5c bd 60 c4 3f be
       0.22303317 -0.084731795 -0.053748097 -0.18727255
000210 c2 c8 ff bd 1c ad 6b bd 2d fb 6b be 3b bf cd 3d
       -0.124894634 -0.057538137 -0.23045035 0.1004624
000220 fc ed 1e 3d 0f 84 c5 3b 1d 54 3b be cd 15 23 3c
       0.03880118 0.0060277055 -0.18293805 0.009953928
000230 4a fe 15 be 66 c4 ab be ad 17 92 3d ff 9d 19 be
       -0.14647785 -0.33548278 0.07133422 -0.15001677
000240 30 03 09 bd 8f 4d 46 be cf 4b 4a 3d 74 24 8a 3e
       -0.033450305 -0.19365524 0.049388703 0.26980937
000250 ed cd 7d 3e 9b f6 9c 3e 5b 3b c9 bd 5f b3 29 bd
       0.24785586 0.30656895 -0.09825774 -0.041430827
000260 43 fc 45 be 68 7f 81 be c8 2f 98 bd ee c2 b7 3d
       -0.19334511 -0.25292516 -0.074309886 0.08972727
000270 1b f3 b4 bc 6f 3d 2f be af 48 87 be 4f 81 74 be
       -0.022088578 -0.17113279 -0.2642264 -0.23877452
000280 e4 2e 80 bd 6e bf 1d be 31 ee 8c be fc c3 4b 3e
       -0.06258944 -0.15405056 -0.27525476 0.19898981
000290 9b 92 8c 3e 58 33 9d 3e 47 2d 3b be 3b ed 51 3e
       0.274556 0.30703235 -0.1827899 0.20500652
0002a0 66 92 79 be b7 83 a9 bd 10 7d 01 be 3d df c0 bd
       -0.24372253 -0.08277076 -0.12645364 -0.09417579
0002b0 6a 95 af be 22 26 0a 3e e8 54 46 be 2f e7 b4 3e
       -0.3429368 0.13491109 -0.19368327 0.3533263
0002c0 7a 53 c0 3d 9d b2 85 be 0c 4c 8f 3b ae 9e 76 be
       0.09390922 -0.26112834 0.004373079 -0.24083969
0002d0 0a 6f 24 be 6b 0d 58 3d 1c ea c3 bd 69 8d f8 3c
       -0.16057983 0.05274717 -0.09566137 0.030340867
0002e0 14 da 7b be 5d 75 25 be 12 b4 99 be 0f 84 dc bc
       -0.24594909 -0.16158052 -0.30020195 -0.02691844
0002f0 68 c6 9c bd 09 04 ad 3e f1 87 2a be d4 84 81 be
       -0.076550305 0.3379214 -0.1665342 -0.25296652
000300 54 39 8b 3d 99 e9 a2 3d 7f ac dc bb f9 59 95 bc
       0.06798044 0.079547115 -0.0067344303 -0.018231379
000310 b8 b0 9a be 62 ca 49 be 8c e5 54 be 82 81 07 be
       -0.3021295 -0.19706109 -0.2079069 -0.13232997
000320 0e a3 13 3e dc 88 6c 3e c3 c6 96 3e 0f 73 4c 3e
       0.14417669 0.23099083 0.29448518 0.19965766
000330 2f f0 8d 3d 4e a7 1d be 8e 50 3c bd c6 8d 2d bd
       0.06930577 -0.15395853 -0.04597526 -0.042371534
000340 8c 92 82 3c 39 11 ac 3d 29 16 81 3e 8d df 72 be
       0.01593902 0.084017225 0.2521222 -0.2371809
000350 2a 54 4c 3e d0 63 d9 be 50 e5 92 be 64 6f ba 3e
       0.19953981 -0.42458963 -0.28690577 0.3641311
000360 d5 a9 fb 3d 94 7a 47 3d 8d 18 a1 3d 0d 06 a2 3d
       0.12288252 0.048700884 0.07866011 0.0791131
000370 f4 50 86 3d 82 3b 6f 3e f5 19 de 3d 1b 9c 9d be
       0.06558409 0.23362544 0.10844795 -0.30783162
000380 f9 8a 39 bd e5 c9 01 3d a4 da 61 3d 29 20 a5 3e
       -0.04529855 0.031686682 0.055140153 0.322511
000390 15 44 7b 3e d5 7d 5e 3e b3 f2 87 bb 2f 96 87 3d
       0.2453769 0.21727689 -0.004148805 0.06620442
0003a0 e8 76 9f 3e 2a 6e 83 be 5b 3e cc 3d 6c eb 10 be
       0.31145406 -0.25669986 0.09972831 -0.14152306
0003b0 bb c6 8c bd 42 0d ed 3c 1c be 1b 3e 35 e5 ac be
       -0.06873842 0.028936986 0.1520924 -0.3376862
0003c0 6f db b3 3e 54 b3 0a 3b 67 2b 1d 3d 96 04 33 be
       0.35128352 0.0021164017 0.03837147 -0.17482218
0003d0 da af aa 3e d0 79 11 3e b0 d1 6c 3d 87 7e 47 be
       0.3333729 0.14206624 0.05781716 -0.1948186
0003e0 12 90 40 3e 70 12 3c be 59 24 16 be 70 63 05 be
       0.18804958 -0.18366408 -0.14662303 -0.13026214
0003f0 0b ac 66 3e 09 bd 01 be 2d 22 0f 3e 6b 36 6b bc
       0.22526567 -0.12669767 0.13977881 -0.014356236

actor.0.bias f4 [256]
000000 6b 0a 10 3e 03 25 6e 3c 0f b7 09 bd 8f 74 bc bd
       0.14066474 0.0145351915 -0.033621844 -0.09201919
000010 e3 6b 8a 3e 98 ff 40 be c9 8b 94 3c e3 8c 95 be
       0.27035436 -0.18847501 0.018133061 -0.2920905
000020 23 4a 2f be 7b 6e 24 be 0a ea 0a 3e aa 92 7e be
       -0.17118125 -0.1605777 0.13565841 -0.24860635
000030 04 52 d6 3d 70 7c 06 bd 1b da 45 3e 6c 26 be 3d
       0.10464862 -0.032833517 0.19321482 0.09284672
000040 c3 91 05 bd b0 a4 03 be 73 ae 5d be 05 83 81 be
       -0.032609712 -0.12855792 -0.21648578 -0.25295272
000050 c1 c2 29 be 16 94 ff 3d 3a 1f db 3d e3 23 c3 3c
       -0.16578199 0.12479417 0.10699315 0.023820823
000060 39 7d a1 3c 9b 59 76 3e 33 79 96 3e 7c 93 19 3e
       0.019713031 0.2405762 0.29389343 0.14997667
000070 9e a5 41 3e 32 03 86 3e 30 ae 2c 3e 22 ab bc 3d
       0.18910834 0.26174313 0.16863322 0.092123285
000080 e2 16 f3 bc 68 ef 2d 3d 10 52 3f be f2 95 31 be
       -0.029673997 0.042464644 -0.18683648 -0.17342356
000090 47 3e 3f 3c b3 c5 ba 3d 1e 02 35 3e af 91 7d 3c
       0.011672563 0.091197394 0.17676589 0.015476628
0000a0 14 99 46 be 4f fb 00 3c 1b f3 61 3e ad e7 3a 3e
       -0.19394332 0.007872417 0.22065394 0.1825244
0000b0 70 ac 60 be e0 9d a3 bd 29 b7 15 be db 05 01 3d
       -0.2194078 -0.07989097 -0.14620651 0.031499725
0000c0 6d 15 5f 3e d5 94 18 be b6 72 b7 bc c1 c8 16 3e
       0.21785517 -0.14900525 -0.022393566 0.14725019
0000d0 a2 b3 1f 3e 67 ed 05 be 21 6b f0 3d 02 f2 76 3e
       0.15595868 -0.13078843 0.11739183 0.24115756
0000e0 12 0f 82 3d 6b de 50 3e a6 33 11 3e 0d 71 d9 3d
       0.06350531 0.20397346 0.14179859 0.10617266
0000f0 ad d6 6d be 3e 84 50 be d3 c5 0e bd 23 8b 13 3e
       -0.23226424 -0.20362946 -0.03485663 0.14408545
000100 26 23 2e be a2 5a 83 3e 1e 38 df bd 7a a3 e2 bd
       -0.17005596 0.25655085 -0.108993754 -0.11066337
000110 ee 35 32 bd 39 f7 a4 bd 47 0b 56 be 21 98 2d be
       -0.043508463 -0.080549665 -0.2090274 -0.16952564
000120 28 eb f2 bc bc fa 39 3e 76 7a 55 bb 60 28 0d 3e
       -0.029653147 0.18162054 -0.0032574213 0.13784933
000130 9c 86 49 bd c9 7a 8b be 90 44 41 bd b6 31 50 be
       -0.04920064 -0.27242115 -0.047184527 -0.20331463
000140 6f 8e 92 3e 29 f2 70 3e 89 eb 39 bd 44 a5 22 3d
       0.28624293 0.23529877 -0.04539064 0.03970839
000150 45 d4 46 be b5 e1 6b be 20 6b 1d be 02 b6 fb bd
       -0.19416912 -0.23035319 -0.15372896 -0.122905746
000160 93 0c 91 3c 64 ec 5f 3e 31 cd 4b be 62 68 01 be
       0.017706191 0.2186752 -0.19902493 -0.12637475
000170 fb ac 08 bd 89 06 b7 3e 2a 78 fd bd 0e 68 71 be
       -0.033368092 0.35747173 -0.12376435 -0.2357485
000180 cb eb ef bd c6 b0 5e 3e 47 e6 a4 bd d3 c1 84 3e
       -0.11714896 0.21747121 -0.080517344 0.25929126
000190 2a 59 f5 3d 2a 17 17 3e 5a 7e 77 be 86 e7 36 3e
       0.11979897 0.1475493 -0.24169293 0.17861757
0001a0 6f 09 bf 3d ee fc 26 be d7 0b 96 be b9 2c 5f bd
       0.09327971 -0.16307423 -0.29305908 -0.05448601
0001b0 32 0e ee 3d 4e f8 15 be a6 0f 9b bd aa f1 06 3e
       0.11623801 -0.14645502 -0.07571344 0.13178125
0001c0 0f a6 2f be e8 9a 11 be db d9 9c be 73 c4 c2 bd
       -0.1715319 -0.14219248 -0.3063496 -0.09510126
0001d0 09 c4 7a be 4c 44 54 3e 06 62 54 3e ff 90 ed 3d
       -0.24488844 0.20729178 0.20740518 0.115999214
0001e0 6b aa 94 3e 69 e7 aa 3d 75 9c 72 bd 28 a0 42 3e
       0.2903627 0.08344919 -0.05923124 0.19006407
0001f0 9e 41 17 3e 2c f7 e5 3d e9 5f 0c 3e 48 1b 89 be
       0.14771125 0.11228785 0.13708462 -0.26778626
000200 d5 bf a0 bd 3a c8 f8 3d 35 56 73 3e c4 7f c2 3d
       -0.07849089 0.12147565 0.23763354 0.094970256
000210 94 81 b9 3d 46 3b 1c 3e 9d b0 1c 3e d8 54 3f 3e
       0.09057918 0.15256986 0.15301748 0.18684709
000220 dd 5d ad bd 58 1b 79 bd ee ea 5b 3e af af 8e 3e
       -0.084651686 -0.060817093 0.21476337 0.2786841
000230 6d 7b 93 3e ea ce 31 3b 0e 49 d0 bd 8a 92 22 be
       0.28805104 0.0027131387 -0.10170184 -0.15876213
000240 01 7a 6f be 3c 6d 23 3e 99 47 26 be 20 3f 6d 3d
       -0.23386385 0.15959638 -0.1623825 0.05792153
000250 9f ab 2b be 5f 50 7b 3d 64 aa 80 3e 40 52 47 3e
       -0.16764687 0.061355945 0.25129998 0.1946497
000260 b7 7a 5e 3d c1 f9 77 be d5 0c 91 3d cf 58 6b be
       0.05431625 -0.24216367 0.07082526 -0.22983097
000270 c1 b2 a7 bc 8f e5 06 3e 4b 63 47 bd b9 db d7 bd
       -0.020470979 0.13173507 -0.048678678 -0.10539956
000280 48 76 42 bb a3 0c bd 3d 9b a7 84 3e b5 1e 90 bd
       -0.0029672552 0.09230926 0.25909123 -0.07037107
000290 12 29 3f 3e 0a 75 78 3e c8 25 26 be 33 a7 23 3e
       0.18668011 0.24263397 -0.1622535 0.1598175
0002a0 2b a1 80 3e 2a e0 dc bd 2e 00 84 be 73 ec c9 bc
       0.2512296 -0.107849434 -0.25781387 -0.02464888
0002b0 18 42 46 bb 96 6e f3 3d 11 00 1c be 61 d8 a4 bc
       -0.0030251797 0.11886327 -0.152344 -0.020122709
0002c0 d5 40 85 3d 84 a7 76 be f5 30 32 3e 18 b5 89 3d
       0.06506506 -0.2408734 0.17401488 0.06723994
0002d0 b6 cd 9a be 78 75 4f 3e f0 6d d6 3d 57 f2 fa 3c
       -0.3023507 0.20259655 0.10470188 0.030633135
0002e0 9a 2f ae 3c 8f c6 2a be 32 15 a2 3c d7 72 5b be
       0.021262933 -0.16677307 0.019785497 -0.21430527
0002f0 53 95 05 be 13 26 31 3d 9b a2 0a 3c cd 3c 92 3d
       -0.13045244 0.0432492 0.00846162 0.07140503
000300 1f 5d 9e bd eb ce 06 3d f0 8e 89 3d cf db 9b 3e
       -0.07732605 0.032912176 0.06716716 0.30441138
000310 cd 08 1a be 42 6d cb bd 6c 3c bc bd e6 37 64 be
       -0.1504242 -0.09932949 -0.09191212 -0.22286949
000320 d4 47 f4 3d e0 e1 40 3e a7 b6 25 3e 09 e1 75 3d
       0.11927763 0.18836164 0.16182958 0.060029063
000330 cc b1 36 3e 9b 0a 8b 3d 81 b5 8e 3e 17 04 39 be
       0.17841262 0.06789132 0.27872851 -0.18067966
000340 1a 9c 55 be ec af 06 3e 70 a8 52 3e 46 76 6e bd
       -0.2086033 0.13153046 0.20572066 -0.058218263
000350 bb e9 83 3e 6c f2 18 bc 91 3a c4 3d 0d 70 37 be
       0.2576426 -0.009335142 0.09581483 -0.17913838
000360 a4 d5 5d be 11 0e ac 3d 87 67 93 bd d2 ab 45 be
       -0.21663529 0.084011205 -0.07197481 -0.19303825
000370 9a 37 e3 bd df 78 70 be d0 1f 20 be a2 51 23 3e
       -0.110945895 -0.23483609 -0.15637136 0.15949109
000380 eb c1 3e be b5 0a 30 be 2f eb 93 3d 4b 7d 37 3e
       -0.18628661 -0.17191584 0.07222592 0.17918889
000390 af be b5 3d 2a 8d f0 bc 36 e1 d8 3c 75 b4 1c be
       0.08874261 -0.029364187 0.026474576 -0.15303214
0003a0 41 0c e3 3d 79 01 b6 bd 50 06 79 3e f5 a0 46 be
       0.110863216 -0.08887 0.24318814 -0.19397338
0003b0 ac ca 2c 3a be ff f6 bb b0 4d 0e be 99 d8 21 bc
       0.000659148 -0.007537811 -0.13896823 -0.009878301
0003c0 a9 8b e3 bc 42 74 11 bd b8 e2 0b 3e f3 2a 31 bd
       -0.027776556 -0.035511263 0.13660705 -0.04325385
0003d0 6f 7b 5e be 4c d7 de 3d 82 71 c1 bd 95 a4 fe 3d
       -0.21726774 0.10880908 -0.09445478 0.12433735
0003e0 31 41 2e 3c f6 e3 0e be b1 a3 a8 3d 41 03 db bc
       0.01063566 -0.13954148 0.08234347 -0.02673495
0003f0 66 36 b9 3c 26 cf 38 be d6 6d 84 3e ec 2b 47 3e
       0.022608947 -0.18047771 0.25865048 0.19450349

actor.2.weight f4 [128, 256]
000000 e4 85 29 3e e4 61 38 3e f6 c1 21 bc ff bb d0 3c
       0.16554981 0.18006092 -0.009872904 0.025480269
000010 a4 0a 03 3e 82 d5 0b 3d c6 1d f4 3c c4 76 d0 3d
       0.12797028 0.034139164 0.029799353 0.10178903
000020 d9 20 62 3c f1 e8 50 bd ec 83 29 3d de fa 93 bd
       0.013801777 -0.0510034 0.041385576 -0.072255835
000030 4e 57 4b bd 0e 08 1c 3e cc 40 25 bd b5 32 ec 3c
       -0.049643807 0.15237448 -0.040345 0.028832773
000040 49 07 26 3c 5a eb 39 3d bd 9b 8b bb a0 b7 ed bd
       0.010133573 0.045390464 -0.004260509 -0.11607289
000050 c4 79 45 3c 22 e0 1f bd 04 c1 95 bd 49 9c fb 3c
       0.012052957 -0.03903211 -0.073122054 0.030714171
000060 2f 85 47 39 c9 2a 22 3c 83 f7 3c bd 3d 17 96 3b
       0.00019027734 0.009897896 -0.046134483 0.004580407
000070 ca 6f 63 3b 1d 44 e7 3c b4 76 06 3d 7a 32 c5 bb
       0.0034704083 0.028230721 0.032828048 -0.00601798
000080 51 d2 03 bd 2f ba 82 3c 6d b6 55 3d 0c 3f bf bd
       -0.032182995 0.01595792 0.052175928 -0.09338197
000090 2a 8c 5f bd dc e7 0b bd 40 30 26 3d ac 3e 59 bd
       -0.05457703 -0.034156665 0.04057336 -0.053038284
0000a0 73 96 88 bd 38 bb 89 bd 89 20 9c 3d 1a 39 6f bd
       -0.06669321 -0.06725162 0.07623393 -0.058404066
0000b0 61 24 cd bd 91 28 d1 bc 5d b2 27 3c 42 3a 4c 3d
       -0.10016704 -0.025532039 0.010235396 0.049860246
0000c0 48 15 7a 3d 86 44 bc 3c 76 be e8 bd 5b 63 0a bd
       0.06105545 0.022981893 -0.113644525 -0.03378616
0000d0 12 58 39 3e d8 46 05 3e 53 ad dd bc 16 77 c7 bd
       0.18100002 0.13015306 -0.027060186 -0.09739511
0000e0 8c 0c 72 3d f2 16 85 bd 05 ce d2 bd 17 d9 69 3c
       0.059093997 -0.06498517 -0.10293201 0.01427295
0000f0 ff 04 b5 bc cd be 2a 3d ac df a8 bc 29 f0 16 bc
       -0.022097109 0.041685868 -0.020614468 -0.009212532
000100 2f 92 90 3c 60 c0 07 3d 7b 54 44 bc 70 50 a4 bc
       0.01764783 0.033142447 -0.011983032 -0.020057887
000110 c4 39 9f 3b 31 50 35 3d fb 7a 2d bd c1 58 81 3c
       0.004859181 0.04426593 -0.04235361 0.015789391
000120 04 93 06 bd 3f 13 e2 bc 5a 26 60 bd 09 4f c5 39
       -0.03285505 -0.027597068 -0.054724075 0.00037633654
000130 37 ca 38 be a6 10 23 bd 3a 3b 41 3d ed 1d 48 3d
       -0.18045889 -0.0398108 0.047175623 0.048856664
000140 f5 e7 b5 3d ab 04 4a 3d c2 7b 27 bb f5 cc 4c 3e
       0.08882133 0.049320858 -0.0025555943 0.2000006
000150 ab db 9f 3d 2a ec a0 bd 16 c0 d9 bc 4c e6 ee bd
       0.0780557 -0.07857545 -0.026580852 -0.116650194
000160 dd 2e a4 bd ae 92 53 bd 07 ab b2 3d fb 93 13 3d
       -0.08016751 -0.051653557 0.08724027 0.036029797
000170 00 24 86 bb 25 55 1d 3d 3d e5 e4 bc 5f cf 31 3e
       -0.004093647 0.03841128 -0.02794134 0.17364262
000180 df 03 a5 bd 43 b7 a4 bc cc 74 87 3d 34 1d 68 3b
       -0.08057379 -0.020106917 0.06614074 0.0035417797
000190 47 c7 5d bb 76 45 2c 3c 6f c8 a9 3c 4c 4f 89 bd
       -0.0033840702 0.010514608 0.020725457 -0.06704578
0001a0 16 64 6a 3d 56 dd fd 3c 51 58 55 3d 53 5c 17 bb
       0.057224356 0.03098933 0.05208618 -0.00230958
0001b0 4b e0 f4 3c f7 3e a2 bd 39 57 e1 bd 69 8f 15 bd
       0.029892107 -0.07922166 -0.110029645 -0.03651372
0001c0 26 51 0b 3e 57 13 b9 3d 10 21 4b bd 55 d8 87 3d
       0.13605174 0.09036892 -0.049592078 0.06633059
0001d0 46 ea 50 3d fb 48 22 bc 14 3a c9 bc c7 3b bb bb
       0.05100467 -0.009905095 -0.024563827 -0.005713913
0001e0 d6 86 55 bb 8e 92 06 3e 15 dd 82 bb 2a e1 53 bd
       -0.003258159 0.13141844 -0.00399364 -0.051728405
0001f0 f2 68 4d bb fd bf ca bc e9 c4 d2 bc 96 6d b2 3c
       -0.003134307 -0.02474975 -0.02572866 0.02178077
000200 06 f7 8d bd 27 54 25 bd 26 8f a9 3d 62 c3 d2 bd
       -0.069318816 -0.040363457 0.082792565 -0.102911726
000210 13 84 1a bd 1e dc d2 3d 6b 98 e5 bd 75 23 7e 3d
       -0.037723612 0.1029589 -0.11210712 0.062045533
000220 1a f2 50 bd 37 93 80 3d 9d 5b 79 bd 95 2d a8 3d
       -0.051012136 0.06278079 -0.060878385 0.08211819
000230 7a 21 c0 bd 4e 49 18 3c fc e5 6c 3c 4e 5a 10 bd
       -0.09381385 0.009294821 0.014459129 -0.03524237
000240 b0 d2 51 3d 53 89 5d 3d d2 8d 32 3e e5 ef 60 bd
       0.051226318 0.05408604 0.17436913 -0.05491628
000250 2e 4a ca 3c b4 2f bd bd 5a 3a 13 3d 20 f7 4d bd
       0.024693575 -0.09237614 0.03594432 -0.050284505
000260 28 f8 db 3d 34 31 75 3a 9a e7 a4 bc 80 b8 16 ba
       0.107406914 0.000935334 -0.020129967 -0.00057495385
000270 fb 72 a4 bd c2 a0 5d 3c ee 9a 61 3c 98 06 c6 3a
       -0.08029743 0.013527097 0.013769848 0.0015108166
000280 c5 62 fb 3c f6 9d 73 bc 6a be 15 bd a8 5c 91 3c
       0.030686745 -0.014869204 -0.036558546 0.017744377
000290 c3 3d 01 bd 19 0a 54 bc 25 ef 10 bd 41 51 02 bd
       -0.03155304 -0.012941861 -0.035384316 -0.03181577
0002a0 b0 0d 79 3d ca e6 0d 3d 70 ff ef bd 83 28 0e 3e
       0.06080407 0.034643926 -0.11718643 0.13882641
0002b0 04 32 03 3d 08 ad b7 bd bd db 03 bd 69 54 80 bd
       0.03203012 -0.0896855 -0.03219198 -0.062661
0002c0 f9 77 77 3d a8 82 0a be 1d 5c bd bd 2e d6 5f 3d
       0.06041715 -0.13526404 -0.09246085 0.054647617
0002d0 c2 7d 23 bd 26 31 d4 bc 1e b4 36 bd cc 8b 9b bd
       -0.039914854 -0.025902342 -0.044605367 -0.075950235
0002e0 c1 96 32 3d 75 55 1a bd 8e 0b 20 3b 78 f8 25 bd
       0.0436008 -0.037679154 0.002442095 -0.04052016
0002f0 ed 0f 71 3c 1e 75 db bd f2 34 de bc 47 16 61 3d
       0.01471327 -0.10715698 -0.027124856 0.054952886
000300 b8 67 33 3d 80 bc ac bd 79 c2 52 bd ee 78 be 3d
       0.043800086 -0.08434391 -0.051454995 0.09300409
000310 5f e3 09 bd 1b 3c 88 3b 20 ce 4a bc 92 92 5b bd
       -0.033664104 0.0041575558 -0.012378246 -0.053606577
000320 e8 ae c0 bc 9d 45 9c 3b 4b f3 0a 3d 30 81 a9 3d
       -0.023520902 0.0047690407 0.03392343 0.08276594
000330 4d 76 77 3d 44 a6 83 3c f1 19 8e 3c 10 b9 0e bd
       0.060415555 0.016070493 0.017346354 -0.034844458
000340 16 19 07 3d fb c1 81 3d 06 36 86 3d 7a 0f 65 bc
       0.03298291 0.06335827 0.06553273 -0.013980741
000350 94 cf 3c bd 28 61 ca 3c 4d e3 92 bd 82 ef 96 3c
       -0.0460964 0.02470453 -0.071722604 0.018424753
000360 84 b7 31 be 40 3c 1d 3b 24 8e ca bd d7 bb e6 bc
       -0.17355162 0.002399221 -0.098903924 -0.02816574
000370 15 63 a1 bd 36 b1 64 be 40 90 8a 3c 0a 84 9c bd
       -0.078802265 -0.22333226 0.016914487 -0.07642372
000380 20 0e 95 bc 00 ff da bd 4d 78 85 3d b3 4d 56 3d
       -0.018195212 -0.10693169 0.06517086 0.052320193
000390 28 97 52 3b 15 64 ac bd 51 02 96 3c cd 88 29 bd
       0.0032133553 -0.08417527 0.018311651 -0.04139023
0003a0 16 f5 22 3d 76 1e 9d 3d 2f a2 f1 3c 31 8f 3a 3d
       0.039784513 0.076718256 0.02949628 0.045546714
0003b0 bf af 4b 3d 58 98 89 bd c6 5b 17 3d dc bd 13 3d
       0.04972815 -0.067185104 0.036952756 0.036069736
0003c0 9b ba d4 bc a0 5f a2 bc 8f 00 55 3d 3f 28 16 3e
       -0.025967887 -0.019820988 0.052002486 0.1466379
0003d0 7a bc 52 bb ab f4 df bc 64 b2 21 3c 5a a8 58 3d
       -0.0032155798 -0.027338346 0.009869192 0.052894928
0003e0 df 15 92 bc 3c 62 57 bc c6 6b 23 bb c8 53 a7 3d
       -0.017832695 -0.0131459795 -0.0024936064 0.08170277
0003f0 cd 26 f8 bc 3a a4 77 bd a4 1a bb 3d 85 b8 82 3d
       -0.03029194 -0.060459353 0.09135941 0.063828506

actor.2.bias f4 [128]
000000 5f 5a 20 ba 38 17 80 3d 25 e5 63 bd 9c 7f 29 bd
       -0.0006116982 0.062544286 -0.05563845 -0.041381463
000010 a0 38 11 bd 4c 8a 03 bd cd a9 6a 3c d9 e0 57 bd
       -0.035454392 -0.032114312 0.01432271 -0.052704666
000020 d5 e3 33 bd d6 6f 85 bc 0b 3c 3b 3d ef ec 4f bd
       -0.04391845 -0.01628868 0.04571156 -0.050763067
000030 0b c3 b5 bc 3a ae 6c 3d ab f6 49 bd fb a9 12 3d
       -0.02218773 0.057783343 -0.049307507 0.035806637
000040 02 52 3b bd 2d cf 25 3d e3 24 f7 bc ca e4 58 3d
       -0.045732506 0.04048078 -0.030168956 0.052952565
000050 54 92 a1 bb 73 3d 07 3d bd 84 52 3d 4f 72 e1 bc
       -0.0049307737 0.033017587 0.05139612 -0.027520327
000060 24 3f 25 bd 7b 6c f3 3c f5 d1 8e 3c e8 98 06 3d
       -0.04034342 0.029714813 0.0174341 0.032860667
000070 0c 9c ea bb 20 0c 07 bd 89 f8 d9 ba a5 72 67 bd
       -0.0071597155 -0.032970548 -0.0016629855 -0.056505818
000080 cb 89 33 bd b6 31 6c bd 4b 2e 7d 3b ae 2e 73 bd
       -0.04383258 -0.057664596 0.003863233 -0.05937069
000090 27 89 a3 bc d6 ff 25 bd c5 de d6 bc 83 cd ea bb
       -0.01996286 -0.040527187 -0.026229272 -0.007165612
0000a0 da 0b a7 bc 09 10 f4 3c 97 95 01 bd 91 a5 b3 bc
       -0.020391393 0.029792802 -0.0316368 -0.021929534
0000b0 9e 3a 02 3d e9 ab b2 bc ea a6 5f 3d 5f 11 b4 b4
       0.031794183 -0.021810489 0.05460254 -3.3540252e-07
0000c0 fe ca f2 3b dd 13 79 bd 81 ef 30 bd 3c 62 76 bb
       0.0074094525 -0.06080996 -0.04319716 -0.0037595173
0000d0 14 83 27 3d b7 4d 69 bd 25 d3 f9 bc 0d 8e 9c 3c
       0.04089649 -0.05695888 -0.03049619 0.019110704
0000e0 c5 c3 13 3d f2 5c d6 ba 5b 1b 30 3d 89 d6 6c bd
       0.036075372 -0.0016354604 0.04299484 -0.057821784
0000f0 24 fc 33 bd 37 48 2d bd fd 30 3c bd c9 f1 12 bc
       -0.043941632 -0.042305198 -0.045945156 -0.008968779
000100 48 71 14 bd 7b bc 6d bb fc 47 09 bd 69 d5 13 3d
       -0.036240846 -0.0036275673 -0.033515915 0.036092196
000110 d6 55 06 3d 98 ae 34 bd e6 17 34 bd df c5 3c bd
       0.032796703 -0.044111818 -0.043968104 -0.046087142
000120 11 0e 56 3d 7b 13 30 bc 7a 9c 5a bd 1f a1 8b 3c
       0.05225951 -0.010746832 -0.053371884 0.017044602
000130 36 e9 19 bd 81 61 44 3d dc 44 7e 3d c1 75 ff 3c
       -0.037575923 0.04794455 0.06207739 0.03118408
000140 ed 48 30 3d 39 49 86 3c c0 76 00 3d 5e 1b be 3c
       0.043038297 0.016392337 0.03136325 0.023206409
000150 4e 59 ba 3c c7 be b8 bc 6f f1 04 3d 63 06 ba 3c
       0.022747662 -0.022551907 0.03245681 0.022708124
000160 98 52 6a 3d 35 71 a9 3c 26 b6 0c bd 2b e3 23 3b
       0.057207674 0.020683864 -0.034353398 0.0025007229
000170 60 70 03 bd 44 23 bb 3c 9f d3 52 3d b6 5a 7c bd
       -0.03208959 0.022843964 0.05147135 -0.061609946
000180 de de 05 3d f6 bc f8 3c 65 97 85 bd 7c d0 5c bd
       0.032683246 0.030363541 -0.06523017 -0.053909764
000190 93 c1 01 bd 97 c1 d9 bc 60 75 c7 3c 49 cd f6 bc
       -0.031678747 -0.026581569 0.024347961 -0.030127184
0001a0 c7 a2 80 3c 7d 4f 53 bd 72 50 94 3a f9 e3 cc bc
       0.015702618 -0.051589478 0.0011315478 -0.02501105
0001b0 4a b5 04 bb 2a 3f 08 bd 91 21 49 3d a7 08 62 bd
       -0.0020249658 -0.033263363 0.049104277 -0.055184033
0001c0 3b 09 08 bd 88 ee 50 3d bd ca fc bc 92 66 d5 bb
       -0.033211928 0.05100873 -0.030858392 -0.0065124715
0001d0 24 e2 16 3d 2e 4b 6b bc ab 72 3b 3d de ef f3 3c
       0.03683676 -0.014361186 0.045763653 0.029777464
0001e0 c7 ad 45 3d 6e f4 60 3d b2 62 25 bd 23 fb 7e 3b
       0.04826143 0.054920606 -0.040377326 0.0038907013
0001f0 7d 08 60 3d 21 35 06 bd dd ca 00 3d 8a 6e 03 bd
       0.054695595 -0.03276551 0.031443466 -0.03208784

actor.4.weight f4 [6, 128]
000000 e6 13 10 3e 7e 72 e0 bc 04 0e cc bd fb 91 57 bc
       0.1407009 -0.027398344 -0.09963611 -0.013157363
000010 ed 8e 1c be b9 e8 81 bd b1 e0 17 3d 16 24 bf 3d
       -0.15288897 -0.063432164 0.037079517 0.09333055
000020 16 8e 9f 3c ec 72 a0 3d 60 46 36 3c c0 58 ba 3b
       0.019476932 0.078344196 0.011125177 0.0056868494
000030 24 3f ea 3b 54 30 8d 3b a9 a8 2d 3d 1a 3d c7 3d
       0.00714864 0.0043087397 0.042397175 0.09728451
000040 3b 84 fa 3c 04 07 38 3d e1 a8 93 ba b3 6a bb 3b
       0.03058063 0.044928566 -0.001126554 0.0057195066
000050 cc 8b 23 bd f5 f2 cc bd e0 70 78 bd cc 74 dd bb
       -0.039928243 -0.10007278 -0.06065452 -0.006758308
000060 32 8a b1 3d f8 ac f3 b9 f3 90 c3 bc c9 05 c2 3b
       0.08668937 -0.00046477444 -0.023872828 0.0059211
000070 9c 13 91 bd d1 e6 ab 3c 6b c6 d5 3c 2d 60 a4 bc
       -0.07083818 0.020984085 0.02609559 -0.020065391
000080 7b 41 a7 bc b9 31 d8 bd 3c 82 fd bc 15 4b 28 bd
       -0.020416966 -0.10556359 -0.03094589 -0.04108723
000090 f7 d6 38 ba 1b 64 ac 3c 21 9f ab ba bd 12 e9 3c
       -0.0007051075 0.021043828 -0.0013093689 0.028451318
0000a0 2f cb 53 3b cb 68 e6 bb c8 b7 6c bc d0 e8 35 3d
       0.0032317152 -0.0070315353 -0.014448114 0.04441148
0000b0 1e 01 a7 3d 33 5b ad 3d 4b 96 01 3d da c2 8b bc
       0.0815451 0.084646605 0.03163747 -0.017060686
0000c0 df 23 96 ba e7 7d 78 bc 5e 01 84 3d c3 6b 88 bc
       -0.0011454782 -0.015166736 0.06445573 -0.016652947
0000d0 16 d2 b9 3c 60 33 c0 bb 4b a4 af 3d 78 de b3 3c
       0.022683185 -0.0058654994 0.08576258 0.021956667
0000e0 b8 ee a1 bd c4 72 7c bb a7 07 73 3d 96 2b 6b bd
       -0.0790686 -0.0038520554 0.05933347 -0.057414614
0000f0 9c 20 ca bd c6 ec 3e 3d 2f e1 96 bc 06 20 04 3d
       -0.09869501 0.046612523 -0.018417923 0.032257102
000100 2a 14 79 3d 37 d6 93 bd e0 29 88 3d bf d8 94 bc
       0.060810246 -0.072185926 0.06648612 -0.018169759
000110 54 d4 fd bc 3d 6b 69 3b 8e bc 8e bd 34 f9 46 3d
       -0.030985035 0.0035616898 -0.06969558 0.048577502
000120 e6 42 81 bd be f9 f7 3c 35 72 bb 3b e0 9d 86 bd
       -0.06311588 0.030270454 0.0057204016 -0.06573081
000130 de 43 8c bd c5 5b 1f 3d 91 12 02 bc 2b 20 be bb
       -0.06848882 0.038905878 -0.007938997 -0.0058021746
000140 fe 5c 8e 3c 11 75 f0 bb fe ec 86 3d a1 31 47 bd
       0.017378327 -0.007338174 0.065881714 -0.048631314
000150 99 64 46 bc 9d ee c7 bc af 93 84 bd f4 3c 36 bd
       -0.012108945 -0.024405772 -0.06473481 -0.044491723
000160 2b 6d ce bb 1c f5 fe 3c fd 44 68 3d 65 3f a7 3d
       -0.006299635 0.031122737 0.056706417 0.081663884
000170 a0 38 b1 bd 59 ab 1e 3d 57 45 35 3d ba 83 e4 bb
       -0.086533785 0.03873763 0.04425558 -0.006973711
000180 a4 15 45 3c 4e 3a 04 bd 3f c0 b2 3c f3 96 ee 3c
       0.012029085 -0.032282166 0.021820186 0.029124713
000190 0d d8 2e bd b1 43 57 bd 3b 69 35 3d 95 e4 1b 3d
       -0.04268651 -0.05255479 0.04428981 0.03805979
0001a0 6a 66 77 bc 68 39 cb bc 97 86 f4 3d d2 21 ce bd
       -0.015100101 -0.024807647 0.119397335 -0.100650445
0001b0 53 c8 9d bd 97 93 84 3d f9 fb ca 3c 63 86 84 3d
       -0.077042244 0.06473463 0.024778353 0.06470945
0001c0 2d fc 53 bd 70 ca b9 bd aa 84 e7 bd c3 5f c5 bc
       -0.051754165 -0.09071815 -0.113046005 -0.024093514
0001d0 4e d0 cf 3d f7 6c 73 3c b7 55 48 bc a7 74 8c bc
       0.10147153 0.014857522 -0.012227467 -0.017145468
0001e0 96 2a 4e 3d 90 91 17 3c 42 f5 ce bd 7b 35 5e 3b
       0.050333582 0.009251013 -0.10105373 0.0033906389
0001f0 7e e8 1c bd 27 84 71 bd c1 0e 74 bc dc 47 8d 3b
       -0.03830766 -0.05896392 -0.014896096 0.004311545
000200 06 82 d0 3d d9 ed 2a 3d b7 28 03 bc 3f 76 5a 3d
       0.1018105 0.041730735 -0.008005313 0.053335425
000210 20 77 f9 3c 4c 99 12 bd 52 7f c5 bc a7 58 27 3d
       0.030452311 -0.035790727 -0.024108563 0.04085603
000220 6d 1a 0e bb 31 42 cc 3c 1f fa 7e 3c 94 ec a7 bd
       -0.0021683231 0.024933906 0.015562563 -0.081994206
000230 b8 de 8a 3b d6 79 4f 3d 1c c7 9d bd 10 9b 56 3e
       0.004237976 0.0506533 -0.07703993 0.20957589
000240 db c9 be bc b9 ca 1e bd a7 f5 3f bd 39 f6 6d 3c
       -0.023289612 -0.03876755 -0.04686513 0.014524036
000250 75 b1 82 bb 2a da 1e be 6b cd 73 3d d7 95 06 3d
       -0.0039884397 -0.1551291 0.059522074 0.032857742
000260 cf 8a 1a bc 13 6e 64 bb 86 6f d7 3b 4f 75 87 bd
       -0.009432509 -0.0034855648 0.006574574 -0.06614172
000270 bb 2b 40 bd 61 ec 01 3d 17 aa 93 bc c6 27 31 bd
       -0.046916705 0.03171957 -0.018025441 -0.04325082
000280 23 ab 22 bc fb 1f 3b 3d 05 f2 a5 3c c8 f2 b4 3d
       -0.0099284975 0.045684796 0.020257005 0.08835369
000290 27 6d 9e bc 65 a7 f5 3b ab 79 09 bc b0 a4 42 bc
       -0.019339157 0.0074967616 -0.008390824 -0.011880085
0002a0 a4 36 51 3c 98 c6 71 3c 46 06 50 bc 7b 54 2e bd
       0.012769375 0.014756821 -0.012696808 -0.042561036
0002b0 08 49 04 bc 84 11 5f 3d 86 d2 fd 3d 00 77 68 3c
       -0.008074053 0.054460064 0.1239367 0.014188528
0002c0 0c e4 89 3d 51 c9 74 bd 45 ed 3e 3d 3a f8 1c bc
       0.067329496 -0.059762303 0.046612997 -0.009580666
0002d0 d1 6d 92 bb 75 09 47 bc 21 2d 2a 3d 74 ea 67 bc
       -0.0044686575 -0.012148251 0.041546945 -0.014155019
0002e0 c5 85 cb 3c 6f aa c0 bd 75 9d 9d 3b 22 ec ca 3c
       0.02484406 -0.09407508 0.00481003 0.0247708
0002f0 65 f9 84 3c 89 62 6d bd 0a 00 90 bd 85 b0 c5 bd
       0.016232202 -0.0579553 -0.070312575 -0.09652809
000300 97 34 a7 bd cc ee 2b 3d 25 57 c3 bd f5 07 86 bd
       -0.081643276 0.04197578 -0.09538106 -0.065444864
000310 8e f6 1f 3c 18 c6 a4 bc 2b 84 a0 3d d7 42 60 bd
       0.009763373 -0.02011399 0.07837709 -0.054751243
000320 ae 5a 00 3d 9e e3 a1 bd 1c b8 f6 bb ae d5 7a 3d
       0.03133648 -0.07904743 -0.0075292718 0.061238937
000330 64 85 3d 3d 95 78 48 bd 0b 6b 21 bd af a6 9d bd
       0.04626979 -0.04894312 -0.039408725 -0.07697808
000340 9f c1 16 bc af 09 05 3e c6 7c b5 3c d4 29 4a bb
       -0.009201436 0.12991975 0.022154223 -0.0030847685
000350 c3 06 a4 3b 5b 64 91 bb 80 d3 83 3c 92 55 e9 bc
       0.005005689 -0.004437012 0.016092062 -0.028483186
000360 d7 af 7f bc 1d 09 af bc e9 81 a1 3c f4 d2 d3 bd
       -0.015605888 -0.02136665 0.019715266 -0.103429705
000370 fe 66 8b bd 26 32 66 3c f4 97 cf bc 3b e8 14 bc
       -0.068067536 0.014050042 -0.025341012 -0.009088571
000380 c9 3b d0 bc 6b 94 e7 bd 59 99 ea bc f7 4a e8 bc
       -0.025419133 -0.11307605 -0.028637575 -0.028356059
000390 2d fa fc 3d e3 86 da bd 7a d5 53 bc 4d 0e 90 3d
       0.12352405 -0.10670259 -0.012929315 0.07033978
0003a0 f1 21 dd bd 2a 48 83 bd 31 30 41 3d 9e 7a ff bc
       -0.107974894 -0.064102486 0.0471651 -0.031186398
0003b0 8d b7 8d bc 5d cb af bd 7c 66 46 3c 69 15 e1 bd
       -0.017299438 -0.0858371 0.012109395 -0.10990412
0003c0 eb 19 c4 3b 31 ba ad 3c 09 19 0e 3c 85 fb 51 bc
       0.005984535 0.021206947 0.008672961 -0.012816315
0003d0 c9 d2 ca bb c2 d5 50 bc 89 24 2a bb df e6 0a 3c
       -0.0061896783 -0.012746276 -0.0025961718 0.0084778955
0003e0 39 b8 6e bd c6 98 5a 3c 0d 55 6a bb 94 fa 8f bd
       -0.058281157 0.013342088 -0.003575626 -0.07030216
0003f0 c6 e9 86 3d 53 97 0a be b5 86 81 3b 7c af ba 3c
       0.065875575 -0.13534288 0.003952826 0.022788756

actor.4.bias f4 [6]
000000 c6 5e 39 bd 08 a5 44 3d 8d 0d b7 bc ca 19 68 bd
       -0.0452564 0.04800895 -0.022345329 -0.05666522
000010 f4 b6 82 3c 40 2b bf 3d
       0.01595638 0.09334421

critic.0.weight f4 [256, 12]
000000 46 78 a5 3b 2c d0 d0 3c 31 3f ac 3d e8 d0 3d 3e
       0.005049738 0.02548989 0.0841049 0.18536723
000010 c3 15 14 bd ba 6e b6 bc f0 7a 16 be 4d 70 25 3d
       -0.036153566 -0.022269595 -0.14695334 0.0403903
000020 5c f3 4e be 66 f7 16 bf 48 0d b6 bd ef 21 07 3f
       -0.20210022 -0.5897125 -0.08889252 0.52786154
000030 9c d0 d8 3d 50 fc 49 be 34 20 31 3e 9a ac 78 3e
       0.10586664 -0.19725156 0.17297441 0.24284592
000040 ae b4 7d be da 7d f1 3d 9b ff 07 be b2 80 7b 3e
       -0.24775955 0.117915824 -0.132811 0.24560812
000050 d5 a1 40 be ea f7 eb 3e b2 64 a5 3b 67 dd 1b bf
       -0.18811734 0.4608758 0.005047404 -0.6088471
000060 2f 85 9b be 5c b8 a9 bd 66 09 3b be 6a 2f 5f bd
       -0.3037505 -0.08287117 -0.18265304 -0.054488577
000070 d4 e4 7f be 4b c6 19 3e e9 7d 3a 3d cf 9a 91 3e
       -0.24989635 0.15017049 0.045530234 0.28438422
000080 55 39 8e be aa 3f 3c bf b0 b8 a4 3e 8f 7f 09 3f
       -0.27778116 -0.73534644 0.32172155 0.53710264
000090 3c df ae 3c 8c a2 99 3d 95 fa b3 bd ce 08 bc be
       0.02134668 0.075017065 -0.08788029 -0.36725467
0000a0 bd 03 32 3e d9 7b 5f 3e 28 c2 38 be bc ae 9e 3e
       0.17384239 0.21824588 -0.18042815 0.30992687
0000b0 59 36 06 bd cc a0 24 bf b6 6d a1 bb 56 5a 0a bf
       -0.032766674 -0.64307857 -0.0049264086 -0.5404409
0000c0 55 3d 86 bd e3 ee 7b 3d 27 c8 f8 bc cc e4 ef bd
       -0.06554667 0.061507117 -0.030368878 -0.117135614
0000d0 57 aa 0c be 64 85 5e 3e d9 3e 1b 3e 1a d1 81 3e
       -0.13736854 0.21730572 0.15160693 0.25354844
0000e0 80 a0 03 b9 0d c6 38 3f b0 62 89 3e 96 4a 08 bf
       -0.00012552924 0.721772 0.26833105 -0.5323881
0000f0 c5 5a 85 be 2c be 04 3c b0 bd 40 3d ec 2b 12 be
       -0.26045814 0.008101981 0.0470559 -0.14274567
000100 d2 b6 94 bd 86 e4 bc bd 15 12 fd bb 35 79 ba 3c
       -0.07261433 -0.09223275 -0.007723103 0.022762874
000110 bb 68 e5 bd 39 a8 97 3e d3 55 c8 be f4 da 64 be
       -0.112016164 0.2962053 -0.3912798 -0.22349149
000120 ce 30 2a bc 20 13 20 3e f1 e7 3c 3e db d4 8f bd
       -0.0103876125 0.15632296 0.18447854 -0.07023021
000130 3a e8 04 be 74 8e 99 be 23 f2 26 bd 3d 0d b6 3c
       -0.12979212 -0.29991496 -0.040758263 0.02222311
000140 0c d8 70 3e 07 3d 55 3f 0e 2a 87 be 43 f2 53 3e
       0.23519915 0.83296245 -0.26399273 0.20697884
000150 49 5a ae 3e cc 62 67 3e 1d b4 81 3e 1b 43 2e 3d
       0.34053257 0.22596282 0.25332728 0.042544466
000160 1d 50 32 be d2 58 aa be 25 b8 4c 3e 3c db b6 bc
       -0.17413373 -0.3327089 0.1999212 -0.022321336
000170 cd 3d 74 be 17 cd 37 3f 51 8b 69 3d 8d 62 cf be
       -0.238517 0.7179732 0.057017628 -0.40504876
000180 ab e2 61 be c6 64 96 3d 36 b1 49 be d8 51 2c be
       -0.22059123 0.0734344 -0.19696507 -0.16828096
000190 91 53 5e be c1 2c 1b 3e 13 be 01 3e 75 a6 66 be
       -0.21711566 0.15153791 0.12670164 -0.22524436
0001a0 89 d8 3a 3e e2 db 03 bf 0c 2f 17 be 19 c6 7a 3e
       0.18246664 -0.5150739 -0.1476404 0.24489631
0001b0 74 bd e4 bd 95 99 5d bd 13 16 46 be b2 17 9c be
       -0.11168948 -0.054101545 -0.19344358 -0.30486828
0001c0 7f 29 49 3d 9d f4 1b be 04 8b 0a bd 4a 3d ed bd
       0.04911184 -0.15230031 -0.033823982 -0.115839556
0001d0 28 65 27 be c5 0b 0d bf 3f 7b 0f 3e c5 5b 18 be
       -0.16347182 -0.55096084 0.14011858 -0.14878757
0001e0 77 85 6c 3e d2 b5 9a 3c e8 6c 8b bc bb e5 73 3e
       0.23097788 0.018885527 -0.017019704 0.23818104
0001f0 18 7e 4f be c8 7e 36 bd cf d7 72 3d 0b ee 6f be
       -0.20262945 -0.0445545 0.059287842 -0.2343065
000200 bd 22 bf 3d b8 f8 55 3f 18 a8 94 3d 05 bf 0d 3e
       0.09332798 0.8358264 0.07258624 0.138424
000210 68 e7 88 bd be 3e 79 bd db a7 fb bc cc ca 89 be
       -0.06684762 -0.06085085 -0.030719688 -0.26912534
000220 e0 4f b8 bb 62 e7 d8 bd 18 1e bf bd c3 eb 2e bd
       -0.005624756 -0.10591008 -0.09331912 -0.04270531
000230 d3 d5 25 3e cd 46 16 bf 74 40 6f 3c 3c 49 47 3e
       0.16194849 -0.58701783 0.014602769 0.1946153
000240 92 86 60 3e f7 21 a5 3d ec 97 96 3d ac ad 20 3e
       0.21926335 0.08063119 0.073531955 0.1569125
000250 a9 c3 a6 3d 43 c2 38 be ea 03 3c be c2 b3 f9 bd
       0.08142788 -0.18042855 -0.18360868 -0.12192489
000260 88 0d f5 bd 79 7a 48 3f db 6f a9 be 40 ef fc be
       -0.119654715 0.7831188 -0.3309315 -0.49401283
000270 bd db f1 bd db 87 26 bd 6a 59 25 3d 8b 83 9c 3e
       -0.1180949 -0.040656906 0.040368475 0.3056911
000280 29 15 12 be cd d3 54 bc 4d 67 9f be 45 24 74 bd
       -0.14265884 -0.01298995 -0.311335 -0.0596049
000290 95 c6 10 3e 75 5b bb 3d 9c 4d 6b be 0d e7 6b 3e
       0.14138253 0.091483034 -0.22978824 0.23037358
0002a0 06 03 2a 3e be 45 08 bd 2d 13 6f be 1d eb eb bc
       0.16602716 -0.033269636 -0.23347159 -0.028798634
0002b0 22 1a 0f 3e e9 53 00 3e 6a c1 68 3d 2b c4 1e be
       0.13974813 0.12532009 0.05682508 -0.1550452
0002c0 12 bd 70 be f9 09 0a 3f 38 15 7e 3e 98 ea 46 3e
       -0.23509625 0.5392147 0.24812782 0.19425428
0002d0 58 36 09 3e 8d 91 d2 bd fc 63 d7 3c 0a 1a 8b 3e
       0.13399637 -0.10281668 0.026292793 0.27168304
0002e0 2d bf 5f be 04 f0 82 3e c3 d5 06 bd 29 2a 7f be
       -0.21850272 0.25573742 -0.032918703 -0.24918427
0002f0 de 96 b9 3d c8 cf 37 bf eb 2f e5 3d b7 1f 84 3e
       0.09061979 -0.71801424 0.1119078 0.25805447
000300 59 69 26 be b1 7a b6 bd dc 06 e6 3d b9 64 d4 3e
       -0.16251124 -0.0891012 0.11231777 0.41483095
000310 a3 f7 36 3d 73 ac a1 3e ef ad 9d be 6e 3a 3d be
       0.04466976 0.3157688 -0.30796763 -0.1847932
000320 2f 2d 31 bd 3b 25 c8 3e b6 ab c7 be 61 30 19 3f
       -0.04325598 0.39090905 -0.38998193 0.59839445
000330 f0 a2 19 3e 55 c6 92 bc ea 87 98 3c eb ee 20 be
       0.15003562 -0.017916838 0.018619496 -0.1571614
000340 29 f6 ec 3d 7a 35 18 3e ab 5e ca 3c 73 22 db bc
       0.11570389 0.1486415 0.024703344 -0.026749825
000350 c2 ea a9 3d 64 d6 2a bf 10 e6 f7 3d 17 58 71 3e
       0.082967296 -0.66733384 0.12104428 0.2356876
000360 6e 89 3f 3e 3b 14 35 3e 28 44 93 3e 0f 65 ba 3d
       0.18704769 0.17683499 0.28762937 0.09101307
000370 b0 e7 50 3e 91 a0 8b 3e 25 91 47 be 33 8f 44 3d
       0.20400882 0.2727094 -0.19488962 0.047988128
000380 58 99 a5 be bc cd 60 bf 95 b9 4a be ed 9e 06 3e
       -0.32343554 -0.87813926 -0.19797356 0.13146563
000390 56 91 6f 3d a5 7b ad 3d 74 fe 2a 3e c3 2a 0c be
       0.058488213 0.08470849 0.16698629 -0.13688187
0003a0 91 77 40 bd 8f 2a 38 3e 65 87 64 be f0 bb 0d 3e
       -0.046989027 0.17984985 -0.22317274 0.13841224
0003b0 44 cf 25 be 9d 91 75 3f ef 0f c4 3d ff c1 1d 3d
       -0.16192347 0.95925313 0.095733516 0.038515087
0003c0 ba 31 27 ba cc 0c 85 bc b7 cb 33 3e 79 47 87 3e
       -0.0006377954 -0.016241454 0.1755818 0.26421717
0003d0 1f c9 d8 ba 21 72 39 3e 2d dc 7f 3d 4a 34 6c be
       -0.0016539431 0.18109943 0.062465835 -0.23066822
0003e0 70 6c 8c bd 19 9f 45 3f 6e dc 97 bd e6 a6 c5 3e
       -0.0685662 0.7719589 -0.074150905 0.38603896
0003f0 cf a8 44 bd 99 a6 f8 bd 68 ff 11 bd fd b7 18 3e
       -0.04801255 -0.12141151 -0.035643965 0.14913936

critic.0.bias f4 [256]
000000 03 6f 99 39 94 ec 34 be 0e 1c 29 3e b4 5c 35 be
       0.00029265144 -0.17668372 0.16514608 -0.17711145
000010 cd 42 2b be d0 e5 fa 3d 63 42 c4 3d 65 14 5d be
       -0.16724701 0.122508645 0.09582975 -0.21589811
000020 cc 70 14 bc 14 46 fd bd b7 9a 51 be ad 13 33 3e
       -0.009060096 -0.12366882 -0.20469175 0.17487974
000030 22 e9 4a be 44 4d ec bd e2 c4 92 be d4 d1 5b bd
       -0.19815496 -0.11538175 -0.28665835 -0.053666905
000040 9b c8 19 bc f0 00 8c 3d 06 7b 12 3d 2d e1 86 3e
       -0.009386207 0.06836116 0.035761856 0.2634367
000050 8c a1 2d bc c4 bd e8 3c cd ca 75 3e fd 7a 99 3e
       -0.010597598 0.0284108 0.24003144 0.29976645
000060 65 8a 54 3e c2 a7 0e bd f9 5a 81 3e 1c d2 24 3d
       0.20755918 -0.034827955 0.2526472 0.04023944
000070 3e 53 3e bc 02 b5 ce 3c a8 03 81 3e 12 0b 89 be
       -0.011616526 0.025232796 0.25198102 -0.26766258
000080 dc 82 29 be 2c ec 0c 3d f6 45 8b 3d 05 04 22 3c
       -0.16553825 0.03440492 0.06800453 0.009888654
000090 08 df 9c 3e f3 06 e6 3d 49 96 67 3e 6a 41 82 be
       0.3063891 0.11231794 0.22615923 -0.25440532
0000a0 38 8f dd bd dc be d1 3d bc e0 32 be 1e ac 26 bd
       -0.108183324 0.10241482 -0.17468542 -0.040691487
0000b0 f6 e8 16 bd a1 70 4a be 4d c0 5c be 93 d8 53 3e
       -0.036843263 -0.19769527 -0.21557732 0.20688085
0000c0 e7 1c a1 3d 4b 3d 21 be 75 82 5e be 56 39 92 3e
       0.07866841 -0.15746038 -0.21729453 0.2855937
0000d0 9e 45 5e bd 58 f4 00 3d dd df 6c 3e f6 c2 88 3e
       -0.05426561 0.031483024 0.23132272 0.26711243
0000e0 07 97 6b 3e 0d dd c4 3c 1f ae 03 be d7 ac e5 bc
       0.23006831 0.024031186 -0.1285939 -0.028036518
0000f0 6c 9b 14 be f9 99 f7 bc b9 a6 19 bd 81 87 2e 3e
       -0.14512414 -0.030224787 -0.037512515 0.17043878
000100 fa d8 75 3e 01 f5 82 bd 36 e0 06 3e 30 73 3e bd
       0.24008551 -0.06394387 0.13171467 -0.04649657
000110 72 ef bc bc 9a 00 af 3e ae e0 c3 3d 9b 26 0c be
       -0.023063395 0.34180146 0.095643386 -0.13686602
000120 09 3e c9 3c 1f 9f 00 be 7e a2 fe bc 69 a9 ce bb
       0.024565713 -0.125607 -0.031083342 -0.0063068164
000130 72 92 a9 bd 71 5a 00 3e 93 68 d1 bd 83 3a 1b 3e
       -0.08279885 0.125345 -0.10225024 0.15159039
000140 d3 07 6f be 7c 48 aa 3d c6 f5 94 3e 4b d0 c0 3d
       -0.23342828 0.083146065 0.2909376 0.09414729
000150 77 13 93 bd f4 c9 03 3e 35 da cb bd e3 d8 88 3e
       -0.07181447 0.12870008 -0.09953729 0.2672797
000160 7d b4 08 be 6a b5 a3 bc 72 67 f9 3d e1 25 df bd
       -0.13350101 -0.019983966 0.12177934 -0.10895897
000170 c6 25 8d 3e b3 f5 1c 3e 53 ce ec 3d 1a 29 51 3e
       0.2756788 0.15328102 0.11562791 0.20425835
000180 6b a4 25 3d 13 4a 85 bb b4 57 83 3e cc 85 77 3d
       0.040440004 -0.004067668 0.2565285 0.060430333
000190 07 f6 02 3d 46 74 4e 3e 6c b4 60 3e 3f 86 88 bd
       0.03197291 0.20161542 0.21943825 -0.066662304
0001a0 a3 2e fe bd fb 6b 25 3e 96 8e 66 3d b4 c4 65 3e
       -0.12411239 0.16154473 0.056288324 0.22438318
0001b0 a7 9e e3 bd 98 a0 20 3e 58 6a ad be 85 bf 0d 3c
       -0.11114245 0.15686262 -0.33870196 0.008651619
0001c0 4d 50 0f 3e aa 9c c7 3d 33 54 0f be 42 f6 4c 3c
       0.13995476 0.09746678 -0.13996963 0.012509884
0001d0 db 32 ad be 90 9b df bc 85 2a 51 3d 1f 62 49 3d
       -0.33827862 -0.027295858 0.05106594 0.04916584
0001e0 fa 97 37 3d ee 9c ef 3d 2e 12 b2 3e dc 1e f4 bd
       0.04482267 0.11699854 0.34779495 -0.119199485
0001f0 ef 8f 54 be dd e9 15 be 39 8b 15 3e 17 a6 e1 3d
       -0.20758031 -0.14639993 0.1460389 0.11018007
000200 78 a6 44 be f9 cf c2 bd d4 6b b7 3c c7 63 20 3e
       -0.19204128 -0.09512324 0.022390284 0.15663062
000210 e1 c3 e0 bb 55 69 f8 bd a6 0c 46 bd 20 9d 2b 3e
       -0.006859288 -0.121294655 -0.048351906 0.16759157
000220 f7 7d 2c be d4 be bd 3a aa 9c 33 3e 3c 16 b6 3d
       -0.16844927 0.0014476427 0.17540231 0.088909596
000230 11 8c a0 bc cb f2 91 3d 02 24 70 3e 65 6c d7 3d
       -0.019598039 0.07126387 0.23451236 0.105187215
000240 53 47 e2 3d 17 4e cc 3d 36 94 a0 be 5a f6 40 3d
       0.1104876 0.09975832 -0.31363076 0.04710994
000250 35 41 2d be ef 10 c0 bd e1 fb bc 3d 98 61 96 3c
       -0.16919406 -0.0937823 0.092277296 0.018357083
000260 5d fd 9a 3e fa 59 fb 3d ae b8 20 3e 2b 37 cf 3d
       0.30271426 0.12273021 0.1569545 0.10117944
000270 dd ae a9 3e 51 9b 88 3d ec cb 57 3e 8f b2 5f be
       0.33141223 0.06670249 0.21073884 -0.21845458
000280 8d b1 d8 3d aa 22 a7 3c 9a 27 e0 3b 13 44 59 3e
       0.1058074 0.020402271 0.0068406584 0.21217375
000290 73 9f 1d 3e 89 3c a1 bc ef 2e 27 3e bf d3 38 bd
       0.15392856 -0.019682186 0.16326497 -0.04512381
0002a0 27 e5 30 be cd bf 1f 3d 98 1c 51 be 6a ac 08 be
       -0.17274915 0.039001275 -0.20421064 -0.13347021
0002b0 c3 0e 8c 3d db da 5b 3d 0e fe 31 bd 1f 01 ca 3b
       0.06838753 0.053675514 -0.043455176 0.0061646844
0002c0 1f 7c 8b 3e ff d2 1c 3e 90 41 bb bd 91 f3 9d 3d
       0.27243134 0.15314864 -0.091433644 0.07712472
0002d0 43 c1 bc 3d 80 36 04 3e 66 13 c1 bd c6 23 05 be
       0.09216549 0.12911415 -0.09427528 -0.13001928
0002e0 ab 49 0a 3e 9b b7 31 be dd 09 a2 3d e6 9f 5d be
       0.13504665 -0.17355196 0.079120375 -0.21643028
0002f0 f1 35 67 3e a6 1c 5f be 40 b1 8c 3d 4d 42 f6 bd
       0.22579171 -0.21788272 0.06869745 -0.120243646
000300 0f fb 51 3e 7a 7c 72 3d dd 42 02 be f8 cc 87 bd
       0.20505928 0.05920074 -0.12720819 -0.066308916
000310 3c f0 73 be a9 e3 87 3e 19 71 f1 bd e0 b5 9a 3d
       -0.23822111 0.26540878 -0.1178915 0.07554221
000320 fe f5 e1 3d ca d8 69 3e 3b dd 4c bd 5f e7 07 be
       0.110332474 0.22836605 -0.05001567 -0.13271855
000330 d0 da c9 bd 2d c3 05 3c aa f0 57 3e af 2e 54 3e
       -0.09856188 0.008164209 0.210879 0.20720933
000340 23 95 be b9 25 41 ea 3d 28 ea b6 3e dd 07 0c be
       -0.0003635074 0.114382066 0.35725522 -0.13674875
000350 a9 a6 fb bd c0 a7 12 3c 4b 38 19 be 04 bb a2 3c
       -0.12287647 0.0089511275 -0.1496288 0.019864567
000360 43 bf 43 be f5 bf 1e bd 43 85 a1 3e 64 60 63 bd
       -0.1911593 -0.038757283 0.31546983 -0.055511847
000370 18 0a cd bc eb 49 23 be 4f 22 37 3e c5 15 28 be
       -0.025029227 -0.15946166 0.17884181 -0.16414554
000380 94 db 83 bd 0c 74 a7 3d 9c b4 dc 3d 02 f3 5b be
       -0.064383656 0.08176431 0.10776636 -0.21479419
000390 1a da 06 be 1f b4 20 3e 47 54 49 3d 0f ca bc 3e
       -0.13169137 0.1569371 0.04915264 0.36872908
0003a0 c3 c2 9a 3c 77 f8 13 be 5e 59 4c bb 1e 10 c1 3d
       0.018891698 -0.1445025 -0.0031181197 0.09426902
0003b0 e5 56 60 be bf 6f 78 3e fa a1 a3 bc 61 b4 2c 3e
       -0.21908148 0.24261378 -0.019974697 0.16865684
0003c0 eb 78 51 3e 7d 68 31 3d b8 43 6f be c1 5b 91 be
       0.20456283 0.04331254 -0.23365676 -0.28390315
0003d0 8b 90 1d be 4f 34 0a be bd f0 0f be 1d 3f 8c 3e
       -0.1538717 -0.13496517 -0.14056678 0.27391902
0003e0 34 2f 37 3e 57 a0 d7 3d f7 5a cc bd fb 9a 84 3e
       0.178891 0.10528629 -0.09978288 0.2589949
0003f0 91 62 74 be 30 99 5d ba f5 5e 4a be 17 19 2b be
       -0.23865725 -0.00084533077 -0.19762786 -0.1670879
