policy/PPO/checkpoints/2025-10-11_14-37/ppo_soarm_4000.pth (torch, 895437 bytes, 33 tensors)

actor.0.weight f4 [256, 12]
-0.41111514 -0.15881251 -0.099892855 -0.039609868 -0.09990884 -0.10454588 0.008112333 0.10285557
0.29895064 0.18962029 0.1965599 0.17255056 -0.27632934 -0.1682538 -0.1261627 -0.0142341675
-0.07081519 0.061768305 0.052414857 0.1251698 -0.029211083 0.18403023 -0.25726676 0.16074784
0.17546839 0.07505935 -0.08301697 -0.12254283 0.31536618 0.1737855 0.0527638 0.17076202
-0.036722243 -0.30728334 -0.17369187 -0.32847092 -0.03231584 0.08448571 0.17762588 0.056334276
-0.31641576 0.11251146 0.32093522 -0.22762066 -0.0741303 0.31910783 -0.17829394 0.17117189
-0.13769312 -0.025926767 -0.038595513 -0.22525543 0.17799771 -0.030411355 -0.07535283 0.14978999
-0.05115298 0.25584558 0.2281834 -0.29987758 -0.059313167 0.037488252 -0.2098588 -0.118907936
0.1501867 0.1526243 -0.22401202 -0.015315697 -0.046615858 -0.13209932 0.154662 -0.30489382
0.06081027 -0.2398017 -0.20947072 -0.034985013 0.18459956 0.2979351 -0.140957 0.2574662
-0.058544256 -0.2891192 0.21273886 0.16515973 -0.37853327 0.028334703 -0.2308414 -0.18313785
-0.15418221 0.0914233 -0.023151118 -0.14821306 0.06552555 0.13060187 -0.032289524 -0.06892134
0.29218137 -0.01208449 0.085308865 0.30435628 0.2752711 0.17068358 0.19146149 0.046244584
0.0601962 0.31618902 -0.0046840613 0.1809558 -0.024477944 0.20383014 0.012125624 0.12623727
-0.30041477 -0.1023982 -0.06057075 0.23318964 -0.25351593 -0.21604198 -0.17432196 -0.26501283
0.22725295 -0.13685165 -0.083278775 -0.052490648 0.021122761 0.2115084 -0.046906028 0.27993718
0.2192658 -0.08559659 -0.055357877 -0.17274468 -0.13951012 -0.061527576 -0.22399853 0.08929827
0.0377714 0.012490647 -0.19303589 0.018028362 -0.15707512 -0.30229816 0.07230313 -0.14692602
-0.06347487 -0.19674964 0.053095426 0.25966445 0.25697815 0.31734404 -0.12362121 -0.0390397
-0.19925955 -0.2352201 -0.06876363 0.086255714 -0.0133171445 -0.1683867 -0.26052317 -0.24426402
-0.06928522 -0.15674406 -0.27154958 0.19704957 0.262388 0.27686295 -0.17839019 0.21574426
-0.2317866 -0.043728903 -0.16055392 -0.06484046 -0.32742673 0.15828604 -0.18443577 0.31438985
0.124999 -0.24215196 -0.030925691 -0.21627723 -0.13274585 0.090623155 -0.131391 0.06575423
-0.24463588 -0.14277253 -0.27797574 -0.06436851 -0.04339522 0.31783178 -0.20168349 -0.21842232
0.10731064 0.092250556 -0.020917213 0.0036448636 -0.31569946 -0.21221201 -0.17232142 -0.14726713
0.1646764 0.24445315 0.2784939 0.1971505 0.039675802 -0.18555352 -0.014322991 -0.07939987
0.0180026 0.07105578 0.22789608 -0.20555149 0.16593608 -0.4027076 -0.25333923 0.3364219
0.109862134 0.041606605 0.08247522 0.08390832 0.078592435 0.23610687 0.09574078 -0.30173707
-0.04078264 0.038817264 0.05269663 0.30283397 0.24111435 0.21144775 -0.0017708542 0.06565609
0.29509655 -0.25779414 0.0985204 -0.1356681 -0.06855238 0.027476665 0.15286717 -0.3383953
0.31779793 -0.044158157 0.082929336 -0.21989635 0.3351864 0.1262992 0.029785113 -0.14539227
0.14295226 -0.18911304 -0.104573816 -0.15865104 0.20231558 -0.1928563 0.20282684 -0.07279909
00000000: af7d d2be bf9f 22be a094 ccbd f53d 22bd
00000010: 029d ccbd 261c d6bd 97e9 043c f1a5 d23d
00000020: 0f10 993e d22b 423e 0047 493e 18b1 303e
00000030: 0a7b 8dbe b94a 2cbe cb30 01be 6d36 69bc
00000040: 8e07 91bd c300 7d3d f6b0 563d 832c 003e
00000050: 154c efbc 6c72 3c3e 78b8 83be 159b 243e
00000060: fcad 333e b7b8 993d cd04 aabd bcf7 fabd
00000070: ad77 a13e d3f4 313e db1e 583d 3ddc 2e3e
00000080: 106a 16bd 3e54 9dbe 48dc 31be 572d a8be
00000090: 9d5d 04bd d806 ad3d 8fe3 353e c5be 663d
000000a0: 3f01 a2be 696c e63d 9f51 a43e 6415 69be
000000b0: a0d1 97bd 1a62 a33e b092 36be af47 2f3e
000000c0: 6dff 0cbe 5f64 d4bc 5416 1ebd 5ca9 66be
000000d0: 0845 363e 3c21 f9bc 9652 9abd 8c62 193e
000000e0: ca85 51bd 31fe 823e e9a8 693e 8e89 99be
000000f0: 5df2 72bd 488d 193d 3ae5 56be 0186 f3bd
00000100: 8bca 193e 8b49 1c3e 6863 65be b0ee 7abc
00000110: 45f0 3ebd 0b45 07be b75f 1e3e 0b1b 9cbe
00000120: 3114 793d 948e 75be 7e7f 56be 724c 0fbd
00000130: ab07 3d3e f38a 983e 0857 10be 9cd2 833e
00000140: 1acc 6fbd 6f07 94be 37d8 593e a21f 293e
00000150: 1dcf c1be 2e1e e83c b061 6cbe 7d88 3bbe
00000160: f1e1 1dbe 243c bb3d 6aa7 bdbc 2ac5 17be
00000170: 4232 863d 7fbc 053e 0542 04bd a226 8dbd
00000180: cc98 953e 06fe 45bc 6ab6 ae3d 96d4 9b3e
00000190: 55f0 8c3e adc7 2e3e 7b0e 443e f66a 3d3d
000001a0: 4a90 763d 87e3 a13e c17c 99bb 7a4c 393e
000001b0: f885 c8bc d9b8 503e 8eaa 463c 5844 013e
000001c0: f7cf 99be 26b6 d1bd 0919 78bd 44c9 6e3e
000001d0: d7cc 81be 1c3a 5dbe 7581 32be c3af 87be
000001e0: ffb4 683e d722 0cbe 108e aabd 6f00 57bd
000001f0: a409 ad3c a895 583e 8920 40bd ed53 8f3e
00000200: 3787 603e 444d afbd f1be 62bd fbe3 30be
00000210: bedb 0ebe 5704 7cbd df5f 65be 03e2 b63d
00000220: 2fb6 1a3d 92a5 4c3c 33ab 45be 37b0 933c
00000230: 4dd8 20be d3c6 9abe aa13 943d c673 16be
00000240: 1dff 81bd bd78 49be 977a 593d bdf2 843e
00000250: a492 833e eb7a a23e 1e2d fdbd 18e8 1fbd
00000260: b20a 4cbe 8add 70be f2d3 8cbd d6a6 b03d
00000270: 2730 5abc 906d 2cbe 4b63 85be 5920 7abe
00000280: 69e5 8dbd 8481 20be 8c08 8bbe 5dc7 493e
00000290: b857 863e fbc0 8d3e ebab 36be 10ec 5c3e
000002a0: 7759 6dbe 141d 33bd 3f68 24be 13cb 84bd
000002b0: 7aa4 a7be bc15 223e bbdc 3cbe b5f7 a03e
000002c0: 7aff ff3d aff6 77be e057 fdbc c777 5dbe
000002d0: 87ee 07be a298 b93d 5d8b 06be 27aa 863d
000002e0: d481 7abe f632 12be d652 8ebe a3d3 83bd
000002f0: 30bf 31bd d9ba a23e 1e86 4ebe 1aaa 5fbe
00000300: aec5 db3d dced bc3d 935a abbc aade 6e3b
00000310: 5ca3 a1be 1b4e 59be 0775 30be 32cd 16be
00000320: eea0 283e ed51 7a3e c196 8e3e d2e1 493e
00000330: 1883 223d be01 3ebe faaa 6abc 669c a2bd
00000340: 307a 933c b185 913d 975d 693e 177c 52be
00000350: 26eb 293e b12f cebe aeb5 81be 7e3f ac3e
00000360: 66ff e03d b06b 2a3d c5e8 a83d 20d8 ab3d
00000370: 12f5 a03d 00c6 713e be13 c43d 487d 9abe
00000380: b30b 27bd dafe 1e3d 6cd8 573d 0e0d 9b3e
00000390: aee6 763e c285 583e 021c e8ba b376 863d
000003a0: e516 973e 98fd 83be 10c5 c93d 94ec 0abe
000003b0: 3165 8cbd be16 e13c 3689 1c3e 2642 adbe
000003c0: 69b6 a23e 2fdf 34bd dbd6 a93d 822c 61be
000003d0: 8d9d ab3e 9454 013e e9ff f33c b6e1 14be
000003e0: 1462 123e d9a6 41be cc2a d6bd 6b75 22be
000003f0: d12b 4f3e 1f7c 45be d7b1 4f3e b017 95bd

actor.0.bias f4 [256]
0.13951872 0.014181035 -0.0070339725 -0.095397666 0.26464635 -0.17642997 0.01241327 -0.2799399
-0.17839651 -0.14826351 0.13995607 -0.2553834 0.10005458 -0.036229968 0.23004825 0.12840211
-0.015174896 -0.16146937 -0.2167537 -0.25686923 -0.21223235 0.06183404 0.09838344 0.015074606
0.014168159 0.2404861 0.29718363 0.1802288 0.17817837 0.2500611 0.16216977 0.11413651
-0.039941423 0.03625222 -0.19392084 -0.16178547 0.010458674 0.12392636 0.16524266 0.020485485
-0.19929846 -0.003029758 0.22050989 0.18923542 -0.21583356 -0.086279444 -0.17438455 -0.0019123683
0.19842258 -0.20580685 -0.018193575 0.15299164 0.15621233 -0.13759118 0.11576946 0.23915459
0.060196113 0.21920507 0.14682317 0.081994325 -0.2309053 -0.19916005 -0.0403976 0.15429507
-0.18446167 0.25875404 -0.11172199 -0.10972723 -0.040003385 -0.08492204 -0.21127743 -0.18615767
-0.068216965 0.19404654 -0.006604956 0.15083428 -0.046323765 -0.2685555 -0.04588114 -0.21384028
0.27602112 0.23735034 -0.063488066 0.03623733 -0.17207235 -0.23034312 -0.18032554 -0.12546118
0.018040475 0.23177703 -0.19512145 -0.06567558 -0.03586791 0.35223395 -0.15271118 -0.24107495
-0.114844084 0.21650155 -0.08407536 0.2611945 0.16320217 0.13623232 -0.24239661 0.17795311
0.10023244 -0.16710152 -0.29110196 -0.07724637 0.11634687 -0.14287585 -0.08043592 0.13046421
-0.17942297 -0.14013827 -0.293577 -0.102489516 -0.25023538 0.20515138 0.20746985 0.11965448
0.29246518 0.07975098 -0.069921225 0.1907378 0.11671649 0.13145499 0.13185295 -0.2512399
-0.08364647 0.17737648 0.24051593 0.09780046 0.08767702 0.17148712 0.15617767 0.19210114
-0.08229525 -0.060094193 0.22382845 0.27647704 0.29197592 -0.012712394 -0.10914079 -0.16698807
-0.24295722 0.16330902 -0.16581787 0.06865904 -0.17202333 0.06988068 0.22363591 0.19414486
0.055366296 -0.24048047 0.07207636 -0.22881557 -0.013769947 0.1286555 -0.020625839 -0.10198012
-0.005555548 0.13749963 0.2505754 -0.06885211 0.1963483 0.23617941 -0.17670722 0.14668895
0.2406935 -0.11790774 -0.25985458 -0.028491052 -0.00767477 0.12098747 -0.15137868 -0.026008427
0.04359615 -0.24373277 0.1718497 0.06710823 -0.29222536 0.20425916 0.10283079 0.03319117
0.027884254 -0.1935131 0.060373086 -0.22416858 -0.14136468 0.042454958 0.003798487 0.071484424
-0.020289926 0.03572109 0.074806474 0.30252662 -0.15144892 -0.09837328 -0.080838025 -0.22102198
0.11188384 0.18197721 0.20298617 0.08345574 0.21960908 0.0803912 0.28394678 -0.18258427
-0.21586446 0.15591401 0.2091625 -0.06966438 0.26285267 0.000568712 0.09416593 -0.21951643
-0.21802963 0.10405369 -0.06728892 -0.17576942 -0.11412953 -0.23036519 -0.18411084 0.16586438
-0.19466515 -0.1768205 0.06810925 0.20427983 0.036848783 -0.02826472 0.026500372 -0.15032153
0.12000414 -0.10037647 0.2494327 -0.19911672 -0.013332992 -0.003802657 -0.17731167 -0.0052892426
-0.07490364 -0.029166393 0.13558286 -0.039833196 -0.22993185 0.15375748 -0.10016995 0.12642756
0.008894983 -0.14649865 0.08688664 -0.031574715 0.031130224 -0.2162627 0.2596915 0.20282352
00000000: ffdd 0e3e 9257 683c 3d7d e6bb da5f c3bd
00000010: ba7f 873e 0faa 34be 0761 4b3c 4854 8fbe
00000020: 93ad 36be 64d2 17be a550 0f3e 9dc1 82be
00000030: 6ae9 cc3d e065 14bd c591 6b3e d87b 033e
00000040: 21a0 78bc 3a58 25be aff4 5dbe 5d84 83be
00000050: 7053 59be b145 7d3d 427d c93d 7bfb 763c
00000060: 9121 683c fd41 763e 7428 983e e68d 383e
00000070: 6474 363e 0208 803e d50f 263e 67c0 e93d
00000080: 9e99 23bd 357d 143d 2f93 46be 17ab 25be
00000090: dc5a 2b3c 1acd fd3d 5f35 293e 2dd1 a73c
000000a0: e514 4cbe e88e 46bb 58cd 613e eec6 413e
000000b0: 7903 5dbe 47b3 b0bd dd91 32be 6fa8 faba
000000c0: 4a2f 4b3e 08bf 52be b10a 95bc d7a9 1c3e
000000d0: 20f6 1f3e b4e4 0cbe 8a18 ed3d f1e4 743e
000000e0: 3390 763d 4b77 603e d058 163e a4ec a73d
000000f0: 7072 6cbe 9df0 4bbe f477 25bd 87ff 1d3e
00000100: 85e3 3cbe 697b 843e 80ce e4bd acb8 e0bd
00000110: 97da 23bd 9beb adbd 1c59 58be 1ea0 3ebe
00000120: 56b5 8bbd 23b4 463e 636e d8bb 4d74 1a3e
00000130: fdbd 3dbd 1b80 89be dded 3bbd f2f8 5abe
00000140: a452 8d3e f80b 733e 0806 82bd 986d 143d
00000150: bc33 30be 11df 6bbe 42a7 38be e578 00be
00000160: 9ec9 933c f556 6d3e ebcd 47be eb80 86bd
00000170: 3bea 12bd 0258 b43e 5260 1cbe 5adc 76be
00000180: 6033 ebbd 95b2 5d3e b42f acbd 49bb 853e
00000190: 781e 273e 7c80 0b3e d136 78be 5739 363e
000001a0: aa46 cd3d a91c 2bbe 510b 95be 5833 9ebd
000001b0: 4547 ee3d 0c4e 12be 96bb a4bd 6998 053e
000001c0: a8ba 37be 6880 0fbe b94f 96be 06e6 d1bd
000001d0: da1e 80be 3413 523e fa72 543e 680d f53d
000001e0: ffbd 953e 7b54 a33d dc32 8fbd c550 433e
000001f0: 0e09 ef3d 239c 063e 7604 073e 84a2 80be
00000200: d74e abbd 2ea2 353e cf49 763e 9c4b c83d
00000210: 0290 b33d 529a 2f3e 0aed 1f3e 29b6 443e
00000220: 698a a8bd 5425 76bd 4933 653e 668e 8d3e
00000230: de7d 953e a547 50bc 3585 dfbd ecfe 2abe
00000240: c7c9 78be 7b3a 273e 29cc 29be 1c9d 8c3d
00000250: e226 30be 9a1d 8f3d d000 653e e9cd 463e
00000260: c5c7 623d 8340 76be c59c 933d a14e 6abe
00000270: 589b 61bc 44be 033e 85f7 a8bc f4da d0bd
00000280: 500b b6bb b4cc 0c3e 6b4b 803e 5602 8dbd
00000290: 870f 493e 04d9 713e bdf2 34be a135 163e
000002a0: 5b78 763e 9d79 f1bd a90b 85be 1166 e9bc
000002b0: a37c fbbb 47c8 f73d 0303 1bbe a00f d5bc
000002c0: e091 323d 1595 79be 5ef9 2f3e 0a70 893d
000002d0: 909e 95be 5029 513e f398 d23d 77f3 073d
000002e0: 856d e43c 4c28 46be c549 773d 738c 65be
000002f0: e7c1 10be 40e5 2d3d 09f0 783b 6d66 923d
00000300: 0f37 a6bc 4750 123d 2334 993d c5e4 9a3e
00000310: 6d15 1bbe ee77 c9bd 688e a5bd 9653 62be
00000320: 5b23 e53d 3c58 3a3e 9bdb 4f3e d8ea aa3d
00000330: 34e1 603e 24a4 a43d 7961 913e 5ff7 3abe
00000340: 930b 5dbe eca7 1f3e b22e 563e 33ac 8ebd
00000350: a094 863e 9e15 153a 11da c03d eac8 60be
00000360: 2943 5fbe 1a1a d53d c6ce 89bd e6fc 33be
00000370: bebc e9bd dae4 6bbe 8d87 3cbe 5ad8 293e
00000380: 4d56 47be 6f10 35be dd7c 8b3d bb2e 513e
00000390: c0ee 163d 6a8b e7bc 4f17 d93c e3ed 19be
000003a0: bbc4 f53d 2e92 cdbd 496b 7f3e 41e5 4bbe
000003b0: 9f72 5abc ff35 79bb 3191 35be 6251 adbb
000003c0: 1467 99bd 5cee eebc 3cd6 0a3e 2228 23bd
000003d0: 4173 6bbe 9a72 1d3e e725 cdbd 3a76 013e
000003e0: 43bc 113c be03 16be 9ff1 b13d 7d54 01bd
000003f0: d004 ff3c f873 5dbe 49f6 843e f8b0 4f3e

actor.2.weight f4 [128, 256]
0.13441046 0.16376959 -0.010147902 0.034925476 0.10917744 0.029543942 0.03562018 0.08426009
0.030281588 -0.048709955 0.04187732 -0.07496515 -0.04999094 0.13711189 -0.047350433 0.022314005
0.010506121 0.05438464 0.032302547 -0.11626736 0.01822881 -0.03477416 -0.05081551 0.020026179
-0.01195127 -0.0073096855 0.0077672903 -0.00030714055 0.03096295 0.0018344878 0.016934952 -0.014948435
-0.051252257 0.030118814 0.04638213 -0.062401235 -0.075466745 -0.035710555 0.037778657 -0.01917865
-0.06906113 -0.056625076 0.061055586 -0.061712623 -0.08991018 -0.047135763 0.013626887 0.0638452
0.058003083 0.026123667 -0.095911145 -0.03147667 0.11147694 0.085596316 -0.035183694 -0.07594307
0.03834435 -0.05442898 -0.09777097 0.028990624 -0.022315856 0.048399743 -0.016589575 -0.021173133
0.020555256 0.020953182 -0.0034197632 -0.014314059 0.0121787125 0.018855527 -0.027066253 0.001143393
-0.03550229 -0.017471254 -0.060515605 0.0152355395 -0.15432526 0.027198894 0.049849637 0.04593593
0.063423865 0.018098263 -0.0067086737 0.1908284 0.07330641 -0.06684688 -0.018935744 -0.09942365
-0.07580419 -0.06869797 0.09657875 0.040370014 0.008583067 0.03771549 -0.020585787 0.14723559
-0.025130596 -0.026072202 0.059672315 0.009203826 -0.004284003 -0.02818896 0.02084193 -0.058483053
0.07322132 0.04415711 0.042751987 -0.0009767965 0.023924023 -0.07513519 -0.09489512 -0.020326946
0.07816882 0.08494265 -0.03797495 0.058551442 0.035274945 -0.012935112 -0.058872294 -0.028222153
0.021005293 0.107990235 -0.0107747605 -0.04190141 -0.0006512785 -0.032405175 -0.022254918 0.035576962
-0.05914942 -0.046267927 0.07749396 -0.11222862 -0.056210805 0.079697244 -0.11115379 0.05273125
-0.046886742 0.056034233 -0.046202548 0.05987277 -0.085971914 0.00895479 0.015571693 0.0023612445
0.050272584 0.056281354 0.15513055 -0.047522917 -0.020687737 -0.095946565 0.027603425 -0.04039946
0.10780128 -0.0060014445 -0.017098505 0.001997814 -0.06908315 0.011782459 0.03133396 -0.017020073
0.015931467 -0.025340986 -0.048130978 -0.0029628668 -0.046009943 -0.00662061 -0.022259288 -0.0371893
0.057426687 0.01832717 -0.052305747 0.10486662 0.032017753 -0.08567182 -0.033775583 -0.056841128
0.06267042 -0.10728514 -0.07002171 0.05211662 -0.04261739 -0.036836307 -0.0445228 -0.06428901
0.044375468 -0.019587252 0.008737588 -0.013459406 0.0014062517 -0.10210396 -0.043828536 0.07215748
0.030579932 -0.075439066 -0.0658711 0.07727137 -0.03765462 -0.0014080936 -0.008132647 -0.04501523
-0.02217533 -0.004619816 0.03491496 0.057528716 0.058826603 0.015215553 -0.02567719 -0.029601252
0.031552743 0.047199998 0.025667798 -0.011495353 -0.053427413 0.027145373 -0.055629883 0.015733795
-0.07598182 -0.02672939 -0.1069944 -0.037487235 -0.08015955 -0.18990877 0.020242574 -0.078156486
-0.010784293 -0.097165376 0.036313754 0.04930289 0.0034690092 -0.06901259 0.029084787 -0.06812986
0.0563404 0.06757545 0.040790852 0.054763414 0.044204555 -0.050829284 0.03507096 0.04156211
-0.032046773 -0.0018453273 0.048358697 0.15170677 -0.0067945486 -0.028233415 0.012895734 0.078436784
-0.008618491 -0.012489779 -0.049806897 0.07700083 -0.031193942 -0.054282375 0.06532322 0.06509704
00000000: e5a2 093e 37b3 273e 6343 26bc 040e 0f3d
00000010: 6c98 df3d 2306 f23c 77e6 113d 8e90 ac3d
00000020: 1811 f83c 1784 47bd 8d87 2b3d 5487 99bd
00000030: 4dc3 4cbd 0f67 0c3e 87f2 41bd dccb b63c
00000040: de21 2c3c 6ec2 5e3d ad4f 043d 951d eebd
00000050: 9654 953c 596f 0ebd ed23 50bd f10d a43c
00000060: 42cf 43bc 1686 efbb c184 fe3b b507 a1b9
00000070: 03a6 fd3c 3273 f03a 2bbb 8a3c 48ea 74bc
00000080: e3ed 51bd bbbb f63c 30fb 3d3d 7098 7fbd
00000090: 4f8e 9abd 3b45 12bd cbbd 1a3d 8b1c 9dbc
000000a0: ec6f 8dbd b2ef 67bd 6c15 7a3d 60c6 7cbd
000000b0: d422 b8bd 6e11 41bd 4f43 5f3c 46c1 823d
000000c0: a494 6d3d 4d01 d63c 106d c4bd aeed 00bd
000000d0: 064e e43d 1f4d af3d c71c 10bd 0a88 9bbd
000000e0: f70e 1d3d ecf0 5ebd 253c c8bd bf7d ed3c
000000f0: becf b6bc cf3e 463d dce6 87bc 4773 adbc
00000100: 7f63 a83c 02a6 ab3c 1b1e 60bb 8485 6abc
00000110: 3989 473c e876 9a3c 0cba ddbc e7dd 953a
00000120: d96a 11bd e01f 8fbc 36df 77bd 7c9e 793c
00000130: 7107 1ebe 37d0 de3c 222f 4c3d 5027 3c3d
00000140: 5fe4 813d cf42 943c 6fd4 dbbb 8568 433e
00000150: ac21 963d 04e7 88bd 221f 9bbc a09e cbbd
00000160: 3a3f 9bbd 85b1 8cbd 14cb c53d 075b 253d
00000170: fe9f 0c3c 8f7b 1a3d 86a3 a8bc edc4 163e
00000180: aede cdbc 5f95 d5bc f56a 743d a5cb 163c
00000190: d260 8cbb 89ec e6bc b2bc aa3c ed8b 6fbd
000001a0: 0ff5 953d 16de 343d b51c 2f3d da07 80ba
000001b0: 50fc c33c 7ae0 99bd 5f58 c2bd b284 a6bc
000001c0: f916 a03d 69f6 ad3d 9f8b 1bbd a3d3 6f3d
000001d0: 767c 103d cbed 53bc 1324 71bd 2532 e7bc
000001e0: 4b13 ac3c fc29 dd3d 9f88 30bc d0a0 2bbd
000001f0: 8fba 2aba 4abb 04bd f24f b6bc 26b9 113d
00000200: aa46 72bd 7083 3dbd 27b5 9e3d 1ed8 e5bd
00000210: 4d3d 66bd 4f38 a33d 99a4 e3bd b9fc 573d
00000220: 500c 40bd 2784 653d e23e 3dbd 263d 753d
00000230: 0b12 b0bd 1db7 123c 6a20 7f3c 1cbf 1a3b
00000240: a0ea 4d3d 4787 663d 8bda 1e3e 64a7 42bd
00000250: 5479 a9bc a27f c4bd 9420 e23c e779 25bd
00000260: ebc6 dc3d c4a7 c4bb 2a12 8cbc c2ed 023b
00000270: 777b 8dbd 370b 413c 0a58 003d ae6d 8bbc
00000280: b582 823c e697 cfbc fd24 45bd a82c 42bb
00000290: ec74 3cbd b4f1 d8bb 1c59 b6bc cf53 18bd
000002a0: 3f38 6b3d dc22 963c 8d3e 56bd 4fc4 d63d
000002b0: 0c25 033d b574 afbd 4458 0abd 3ed2 68bd
000002c0: 5959 803d 50b8 dbbd 8b67 8fbd 3d78 553d
000002d0: 938f 2ebd abe1 16bd 8a5d 36bd f5a9 83bd
000002e0: 0dc3 353d 7275 a0bc 1a28 0f3c d784 5cbc
000002f0: fa51 b83a e21b d1bd 8d85 33bd 4dc7 933d
00000300: c482 fa3c cc7f 9abd 6de7 86bd 7440 9e3d
00000310: bb3b 1abd c88f b8ba cb3e 05bc e461 38bd
00000320: 0aa9 b5bc d361 97bb fd02 0f3d 3ba3 6b3d
00000330: 2af4 703d a84a 793c f858 d2bc 537e f2bc
00000340: 733d 013d c954 413d 4645 d23c 0157 3cbc
00000350: b4d6 5abd f95f de3c 29dc 63bd 29e4 803c
00000360: 5b9c 9bbd 98f7 dabc e11f dbbd 378c 19bd
00000370: b12a a4bd 7277 42be c1d3 a53c 8210 a0bd
00000380: 9ab0 30bc a4fe c6bd bbbd 143d d4f1 493d
00000390: 5158 633b 7956 8dbd 3843 ee3c ab87 8bbd
000003a0: 31c5 663d ff64 8a3d 4f14 273d 9a4f 603d
000003b0: d60f 353d 5e32 50bd 91a6 0f3d 083d 2a3d
000003c0: 7a43 03bd e9de f1ba c513 463d 0559 1b3e
000003d0: cea4 debb c349 e7bc a148 533c 77a3 a03d
000003e0: 9234 0dbc eea1 4cbc 5102 4cbd 9cb2 9d3d
000003f0: 708a ffbc 3257 5ebd 2ec8 853d 9951 853d

actor.2.bias f4 [128]
-0.0047878446 0.0686144 -0.061715927 -0.037492204 -0.03646718 -0.033546813 0.020735543 -0.053554643
-0.039532196 -0.021716084 0.048209965 -0.048146393 -0.017922454 0.06424423 -0.049985062 0.032986384
-0.048549954 0.05668872 -0.027714299 0.056226894 -0.0035041298 0.033841643 0.04961597 -0.041643195
-0.04861888 0.042560186 0.016880006 0.042058855 -0.008305255 -0.024629079 -0.001471808 -0.057323456
-0.043979697 -0.059357774 0.007080311 -0.06595599 -0.015859699 -0.04989485 -0.02763982 -0.012843577
-0.023148665 0.030888796 -0.039179616 -0.025840033 0.035611942 -0.0240789 0.052458078 0.0030933619
0.0032584956 -0.06244831 -0.045227803 -0.015870506 0.036310665 -0.062069632 -0.027830014 0.023296928
0.03280278 0.0061578644 0.052957807 -0.060432166 -0.040003054 -0.039493755 -0.051654615 -0.0051323627
-0.034682263 -0.004272305 -0.03649229 0.03184747 0.03482051 -0.04491175 -0.053326044 -0.04615867
0.055508327 -0.0076826853 -0.047896612 0.01789466 -0.045905102 0.046199296 0.07029854 0.03698414
0.051960167 0.0061263824 0.03900183 -0.0017553362 0.02820913 -0.025816059 0.039962813 0.019903233
0.061879825 0.03141059 -0.031158261 0.0037129454 -0.030881781 0.029618742 0.050938964 -0.06188772
0.03730755 0.028803118 -0.06509791 -0.047104686 -0.037718784 -0.022078402 0.02261231 -0.038789812
0.02300637 -0.05529807 0.0054849503 -0.023202619 -0.0054031787 -0.030766623 0.05291294 -0.052676827
-0.040173948 0.048709366 -0.030602839 0.0021560662 0.03861841 -0.0042686034 0.051709857 0.038454663
0.05140654 0.067828745 -0.042404838 0.0024052442 0.047374807 -0.029519845 0.045302343 -0.032484207
00000000: 5ae3 9cbb b585 8c3d d7c9 7cbd 6d91 19bd
00000010: 9c5e 15bd 6268 09bd 96dd a93c 1d5c 5bbd
00000020: 83ec 21bd eee5 b1bc d077 453d 2735 45bd
00000030: 1cd2 92bc 7b92 833d 23bd 4cbd bb1c 073d
00000040: 51dc 46bd 6e32 683d 1909 e3bc 2c4e 663d
00000050: 8ba5 65bb 899d 0a3d 1e3a 4b3d 0e92 2abd
00000060: 9724 47bd 9753 2e3d f047 8a3c e845 2c3d
00000070: c412 08bc ecc2 c9bc aee9 c0ba 00cc 6abd
00000080: 0e24 34bd 2321 73bd f401 e83b ef13 87bd
00000090: 33ec 81bc 8b5e 4cbd e76c e2bc de6d 52bc
000000a0: 45a2 bdbc 800a fd3c ce7a 20bd 7aae d3bc
000000b0: d4dd 113d 1d41 c5bc 48de 563d 00ba 4a3b
000000c0: 7c8c 553b cdc9 7fbd ca40 39bd dd02 82bc
000000d0: 7eba 143d ba3c 7ebd c5fb e3bc 33d9 be3c
000000e0: 355c 063d e9c7 c93b 49ea 583d b887 77bd
000000f0: 3eda 23bd 34c4 21bd ca93 53bd 612d a8bb
00000100: fd0e 0ebd b1fe 8bbb f178 15bd 7e72 023d
00000110: f39f 0e3d 62f5 37bd 696c 5abd e010 3dbd
00000120: b35c 633d 09bf fbbb 3d2f 44bd d297 923c
00000130: fd06 3cbd 793b 3d3d aef8 8f3d ae7c 173d
00000140: 2fd4 543d d2bf c83b 62c0 1f3d 4f13 e6ba
00000150: d516 e73c 337c d3bc 0cb0 233d 1b0c a33c
00000160: b375 7d3d 64a8 003d 9c3f ffbc e354 733b
00000170: cafb fcbc 01a3 f23c 60a5 503d fa7d 7dbd
00000180: cdcf 183d 84f4 eb3c 0e52 85bd d8f0 40bd
00000190: 037f 1abd c4dd b4bc 733d b93c 11e2 1ebd
000001a0: db77 bc3c 3b80 62bd 19bb b33b 6b13 bebc
000001b0: 260d b1bb 490a fcbc 3dbb 583d a8c3 57bd
000001c0: 708d 24bd 7983 473d ceb2 fabc ca4c 0d3b
000001d0: 562e 1e3d a4df 8bbb b7cd 533d a382 1d3d
000001e0: aa8f 523d cce9 8a3d b2b0 2dbd 4da1 1d3b
000001f0: 160c 423d 9ad3 f1bc f38e 393d 290e 05bd

actor.4.weight f4 [6, 128]
0.11187704 -0.002195652 -0.066504925 -0.020717934 -0.10246003 -0.061208222 0.02138442 0.08780125
0.0058086687 0.036132824 0.0043945787 -0.016287046 0.012305289 -0.008206077 0.029340114 0.09529775
0.018007195 0.044579897 -0.0340287 -0.00062545075 -0.052805036 -0.08052936 -0.059668023 0.010604751
0.07259911 0.008163954 0.030870875 -0.027392678 -0.051640566 0.032695208 0.04042049 -0.012194288
-0.0049805827 -0.07154015 -0.054875188 -0.02006027 -0.016780516 0.00065707753 -0.0040442687 0.02551736
-0.00015122781 0.01237038 -0.033132438 0.039004207 0.04855959 0.07682594 0.041975137 -0.019256158
0.021818602 -0.07304867 0.028892502 0.016340578 0.054437272 0.022356628 0.04585814 0.045555186
-0.06692795 -0.04860723 0.010608668 -0.048599876 -0.047862407 0.039105415 -0.009024467 -0.0008805987
-0.032589924 -0.08996511 0.03964182 -0.026511444 -0.010025826 -0.0015285464 -0.06207649 0.0290552
-0.048185818 0.021724012 0.021587215 -0.061181024 -0.0689773 0.0072374097 -0.035949495 -0.042827763
-0.016400604 0.033899277 0.037809126 -0.04701121 -0.011263968 -0.02758023 -0.042789508 0.0011494866
-0.008921345 -0.014252373 0.07063101 0.059468515 -0.065622784 -0.0062239924 0.046182685 -0.037513945
0.018135043 -0.009773043 0.026060507 0.03678491 -0.01492943 -0.03711889 0.027427835 0.021688452
-0.024227127 -0.031214401 0.07828987 -0.08411429 -0.07370192 0.03756839 0.044742 0.039951798
-0.0037744844 -0.02436717 -0.0872526 -0.062128466 0.080158226 -0.010374432 0.0061058323 -0.020677952
0.058023002 -0.01844584 -0.0718314 -0.029083509 0.0010571632 -0.04570303 -0.007164927 -0.006901904
0.061645523 0.006051252 -0.014684111 0.06877255 0.046391144 -0.027117062 -0.030431336 0.035323095
-0.01566213 0.04572407 0.010663471 -0.060914136 0.00376014 0.051293597 -0.036631353 0.13134715
-0.030720744 -0.03817645 -0.016462948 0.0078620985 -0.0012027957 -0.12146474 0.057754576 0.027352583
-0.015013166 -0.014660618 -0.02180731 -0.045306385 -0.04074549 0.026353344 -0.029637363 -0.029057024
-0.011528663 0.040735092 0.028440908 0.076891564 -0.0014708554 0.007264492 -0.00047288556 -0.011714253
0.01133682 0.025290905 -0.008792494 -0.014833171 0.0034245423 0.046383727 0.095695585 0.005848651
0.052209426 -0.023223467 0.023579903 -0.001623726 -0.021402169 -0.008449871 0.06007956 -0.036502223
0.028563 -0.0482706 0.004464081 0.05150809 -0.006761102 -0.07523318 -0.06749406 -0.06407413
-0.021431144 0.07205131 -0.07847084 -0.05992322 -0.012155397 -0.021662189 0.07081847 -0.054579996
0.026828924 -0.07824297 -0.013302901 0.057233404 0.047147058 -0.043692432 -0.03540325 -0.049633063
-0.010548927 0.046100363 -0.01289097 0.0039669536 0.009989727 -0.0030560333 0.010526719 -0.022762204
-0.017852226 -0.010172509 0.013487808 -0.09824131 -0.011286942 -0.0017213387 -0.025361875 -0.00062601996
-0.026361302 -0.083165005 -0.029928103 -0.03208648 0.09124481 -0.0656929 -0.015690515 0.07061757
-0.075640224 -0.051796407 0.0046379995 -0.0187472 0.01119126 -0.044208877 0.0031699245 -0.07010051
0.009883041 0.015537238 -0.013292321 0.017628904 -0.009562772 -0.016443094 -0.0075021144 0.0026499776
-0.07860137 9.9969715e-05 0.03989846 -0.05495974 0.055427123 -0.07025112 0.00182617 0.014858753
00000000: ca1f e53d eee4 0fbb bc33 88bd a8b8 a9bc
00000010: 90d6 d1bd 79b5 7abd 612e af3c 24d1 b33d
00000020: a556 be3b 0300 143d 6600 903b 696c 85bc
00000030: 1f9c 493c c872 06bc ae5a f03c 772b c33d
00000040: d383 933c 6999 363d ae61 0bbd 4af5 23ba
00000050: 184a 58bd 94ec a4bd 7566 74bd 8dbf 2d3c
00000060: d8ae 943d 1bc2 053c ebe4 fc3c 9c66 e0bc
00000070: 0f85 53bd 69eb 053d f58f 253d 8dca 47bc
00000080: 2834 a3bb a483 92bd cec4 60bd 6f55 a4bc
00000090: 4b77 89bc ba3f 2c3a c985 84bb c809 d13c
000000a0: e892 1eb9 22ad 4a3c e1b5 07bd e0c2 1f3d
000000b0: 6ce6 463d eb56 9d3d 1fee 2b3d 17bf 9dbc
000000c0: edbc b23c 8b9a 95bd f8af ec3c addc 853c
000000d0: 9ef9 5e3d 3f25 b73c bfd5 3b3d 1398 3a3d
000000e0: 8511 89bd 6018 47bd fbcf 2d3c aa10 47bd
000000f0: 5f0b 44bd 002d 203d 5cdb 13bc fad7 66ba
00000100: 037d 05bd a13f b8bd 765f 223d 872e d9bc
00000110: 5d43 24bc 8259 c8ba eb43 7ebd 2c05 ee3c
00000120: 7e5e 45bd 8ef6 b13c acd7 b03c f498 7abd
00000130: f843 8dbd cb27 ed3b c73f 13bd 2a6c 2fbd
00000140: 8f5a 86bc f8d9 0a3d bedd 1a3d d48e 40bd
00000150: 828c 38bc efef e1bc 0d44 2fbd 5faa 963a
00000160: d52a 12bc c982 69bc fea6 903d 4295 733d
00000170: 3d65 86bd a2f2 cbbb 0e2a 3d3d 39a8 19bd
00000180: f18f 943c 1d1f 20bc d87c d53c c6ab 163d
00000190: 919a 74bc fa09 18bd 57b0 e03c fbab b13c
000001a0: f877 c6bc 58b5 ffbc 7056 a03d 1d44 acbd
000001b0: 08f1 96bd 50e1 193d 6343 373d 7fa4 233d
000001c0: 575d 77bb a99d c7bc 7eb1 b2bd 6b7a 7ebd
000001d0: ff29 a43d 86f9 29bc 6f13 c83b cf64 a9bc
000001e0: 87a9 6d3d bb1b 97bc 571c 93bd 8a40 eebc
000001f0: 8390 8a3a 1a33 3bbd c4c7 eabb 5e29 e2bb
00000200: 0480 7c3d 9549 c63b a095 70bc 9fd8 8c3d
00000210: a404 3e3d 9a24 debc 234b f9bc f3ae 103d
00000220: de4d 80bc 2a49 3b3d d7b5 2e3c 1a81 79bd
00000230: ae6c 763b 3c19 523d c20a 16bd de7f 063e
00000240: 12aa fbbc e95e 1cbd 4edd 86bc 08d0 003c
00000250: 20a7 9dba 81c2 f8bd 1090 6c3d 8612 e03c
00000260: c8f9 75bc 1733 70bc 3ea5 b2bc 3093 39bd
00000270: bee4 26bd f8e2 d73c 0eca f2bc ff08 eebc
00000280: b8e2 3cbc d7d9 263d e8fc e83c 5379 9d3d
00000290: b8c9 c0ba fa0a ee3b a0ed f7b9 23ed 3fbc
000002a0: 12be 393c df2e cf3c 650e 10bc d406 73bc
000002b0: 496e 603b ddfc 3d3d 0cfc c33d 0aa6 bf3b
000002c0: 8dd9 553d 243f bebc a42a c13c 34d3 d4ba
000002d0: 9a53 afbc 5471 0abc fc15 763d 5b83 15bd
000002e0: f4fc e93c 65b7 45bd 6d47 923b 26fa 523d
000002f0: 3c8c ddbb da13 9abd 533a 8abd 4c39 83bd
00000300: 5e90 afbc a38f 933d 52b5 a0bd 0d72 75bd
00000310: 6e27 47bc e774 b1bc 4609 913d 468f 5fbd
00000320: 55c8 db3c da3d a0bd 69f4 59bc 936d 6a3d
00000330: 461d 413d d6f6 32bd 0003 11bd 0a4c 4bbd
00000340: 68d5 2cbc bcd3 3c3d a634 53bc 38fd 813b
00000350: f4ab 233c bb47 48bb 4278 2c3c cd77 babc
00000360: d53e 92bc 98aa 26bc f8fb 5c3c bd32 c9bd
00000370: deec 38bc 8b9e e1ba b5c3 cfbc 7d1b 24ba
00000380: a8f3 d7bc 6a52 aabd c82b f5bc 1d6d 03bd
00000390: 8fde ba3d 008a 86bd 6589 80bc f29f 903d
000003a0: 43e9 9abd 7828 54bd 5cfa 973b ba93 99bc
000003b0: 8c5b 373c 5e14 35bd 82be 4f3b db90 8fbd
000003c0: 7aec 213c e68f 7e3c 09c8 59bc 7e6a 903c
000003d0: 2cad 1cbc abb3 86bc 4cd4 f5bb 3fab 2d3b
000003e0: c1f9 a0bd d5a6 d138 916c 233d 771d 61bd
000003f0: 8d07 633d d2df 8fbd 195c ef3a 2172 733c

actor.4.bias f4 [6]
-0.045867622 0.04455283 -0.022874644 -0.048111036 0.019930966 0.08541575
00000000: b0df 3bbd 077d 363d 9b63 bbbc 1410 45bd
00000010: 4446 a33c 74ee ae3d

critic.0.weight f4 [256, 12]
0.01424705 0.04414196 0.074275434 0.17181206 -0.028291333 0.009168139 -0.14537632 0.02547127
-0.16786624 -0.5765315 -0.13468659 0.3090099 0.04386464 -0.23932801 0.21004689 0.22632107
-0.20346197 0.0997565 -0.18911609 0.27663383 -0.24461494 0.42480123 0.08121768 -0.43450794
-0.2740439 -0.050348878 -0.20762399 -0.046321582 -0.26139164 0.19012773 0.066387594 0.25896737
-0.23346144 -0.6953732 0.2610027 0.35702887 0.037632655 0.06503917 -0.07932162 -0.34945807
0.15567052 0.21052289 -0.1691301 0.3190959 -0.05738893 -0.53594124 0.011345971 -0.42699066
-0.08508604 0.05307657 -0.029087817 -0.10154788 -0.12409786 0.20897295 0.139869 0.25571957
-0.022376508 0.6962482 0.30179062 -0.31509206 -0.29906154 -0.043258335 0.0882822 -0.14899848
-0.060076635 -0.124190986 -0.039869532 0.07999871 -0.18600357 0.28480902 -0.29291213 -0.003472512
-0.02666551 0.17654276 0.1629749 -0.07571701 -0.103507094 -0.28295934 -0.045033567 -0.001988332
0.26618606 0.7081196 -0.2811097 0.19929342 0.30624285 0.22639109 0.2483036 0.048971273
-0.13331762 -0.28576207 0.17482994 -0.03507578 -0.24361326 0.66483486 0.080893576 -0.23707925
-0.17907572 0.097193174 -0.21668988 -0.16790631 -0.24719612 0.1588858 0.16270672 -0.23654209
0.21895385 -0.49173832 -0.20443974 0.09679295 -0.07741953 -0.08603616 -0.16030473 -0.30667558
0.010731053 -0.18091613 -0.0065465746 -0.085661665 -0.20985515 -0.42649874 0.18849514 -0.11784343
0.23465237 0.023952436 -0.025246462 0.22542717 -0.19265358 -0.039397385 0.076847024 -0.2472324
0.10583322 0.7327431 0.07988923 0.18097568 -0.042676255 -0.020399932 -0.063537836 -0.25155428
-0.011423344 -0.06705698 -0.07757282 -0.07732399 0.21242493 -0.54217285 -0.05519114 0.037331685
0.20326075 0.07196919 0.07574122 0.15875594 0.09233989 -0.17901507 -0.19016421 -0.12062033
-0.13540946 0.7357589 -0.29980692 -0.32380274 -0.07081663 -0.043818004 0.055571917 0.24605863
-0.19251774 -0.047305766 -0.25740233 -0.07886171 0.15934822 0.11374824 -0.2279231 0.011835453
0.14697772 -0.04908428 -0.21277449 -0.08322306 0.14559273 0.1058155 0.032404933 -0.14255384
-0.22858992 0.46774593 0.22516954 -0.035605 0.14036457 -0.10597158 0.041049577 0.2501753
-0.23002252 0.2365729 -0.037204683 -0.2530014 0.10178446 -0.6659119 0.083047174 0.034478504
-0.15634407 -0.088558935 0.117112525 0.38275093 0.050604425 0.32201138 -0.30598634 -0.17464486
-0.026633035 0.35932067 -0.41707766 0.38940522 0.16556482 0.02710201 -0.020766083 -0.12229586
0.12263893 0.22297047 0.030370599 -0.06441756 0.13257787 -0.6188603 0.050047018 0.13460875
0.19275455 0.20004983 0.2689485 0.12810826 0.19630547 0.2738432 -0.20254056 0.03467664
-0.30730247 -0.7907765 -0.23780811 0.07757776 0.025596153 0.10251866 0.14558765 -0.14369363
-0.00026756807 0.21504194 -0.24128228 0.11507453 -0.136922 0.8244592 0.081583805 0.10527554
-0.024154227 -0.0131832985 0.17546573 0.23282804 0.016743375 0.1804055 0.03647046 -0.23325653
-0.04693234 0.6541001 -0.09104317 0.20384084 -0.02960289 -0.12864773 -0.025802244 0.16500139
00000000: 756c 693c 33ce 343d b81d 983d 80ef 2f3e
00000010: 3ac3 e7bc f635 163c 88dd 14be 20a9 d03c
00000020: 21e5 2bbe 9297 13bf 48eb 09be 8c36 9e3e
00000030: 69ab 333d 6712 75be 8816 573e b6c0 673e
00000040: 5658 50be 234d cc3d a6a7 41be f3a2 8d3e
00000050: 577c 7abe 8c7f d93e 7455 a63d d377 debe
00000060: 7b4f 8cbe a03a 4ebd 629b 54be b3bb 3dbd
00000070: 20d5 85be d8b0 423e 38f6 873d 5f97 843e
00000080: 8410 6fbe fa03 32bf 25a2 853e 7dcc b63e
00000090: b324 1a3d 4233 853d 6073 a2bd 2bec b2be
000000a0: 1868 1f3e 5093 573e 7130 2dbe 8a60 a33e
000000b0: a810 6bbd 7233 09bf 74e4 393c 859e dabe
000000c0: 9741 aebd d166 593d 9349 eebc 56f8 cfbd
000000d0: 0527 febd 01fd 553e d239 0f3e aded 823e
000000e0: f04e b7bc 523d 323f 4d84 9a3e bf53 a1be
000000f0: 981e 99be a72f 31bd 4ccd b43d 0f93 18be
00000100: eb12 76bd d857 febd 3c4e 23bd 5dd6 a33d
00000110: b877 3ebe 7dd2 913e 94f8 95be 1593 63bb
00000120: a171 dabc a0c7 343e e4e2 263e 8511 9bbd
00000130: 87fb d3bd 0ce0 90be 1e75 38bd ad4e 02bb
00000140: 8a49 883e 5347 353f 9ced 8fbe 9313 4c3e
00000150: ddcb 9c3e 11d3 673e 4d43 7e3e 1a96 483d
00000160: 6a84 08be 684f 92be 9f06 333e 9fab 0fbd
00000170: c175 79be 9e32 2a3f 88ab a53d e7c4 72be
00000180: a05f 37be 370d c73d f4e3 5dbe a2ef 2bbe
00000190: fb20 7dbe f6b2 223e 979c 263e 1738 72be
000001a0: 7035 603e 20c5 fbbe a758 51be 623b c63d
000001b0: 218e 9ebd ba33 b0bd ec26 24be 9504 9dbe
000001c0: 4cd1 2f3c 1442 39be a684 d6bb 626f afbd
000001d0: 45e4 56be 0b5e dabe df04 413e e557 f1bd
000001e0: b648 703e e637 c43c abd1 cebc 61d6 663e
000001f0: fb46 45be 275f 21bd f961 9d3d 7e2a 7dbe
00000200: 16bf d83d 0d95 3b3f f79c a33d b051 393e
00000210: 4ccd 2ebd c21d a7bc 2020 82bd b9cb 80be
00000220: fa28 3bbc 2c55 89bd 80de 9ebd 0a5c 9ebd
00000230: ec85 593e d7cb 0abf 1b10 62bd 1ce9 183d
00000240: 9623 503e 9564 933d 361e 9b3d eb90 223e
00000250: b21c bd3d ba4f 37be 68ba 42be cb07 f7bd
00000260: c7a8 0abe b25a 3c3f 4b80 99be 79c9 a5be
00000270: 4f08 91bd 827a 33bd 619f 633d cbf6 7b3e
00000280: 5f23 45be b1c3 41bd 3dca 83be 4082 a1bd
00000290: 2e2c 233e d6f4 e83d ac64 69be 7de9 413c
000002a0: 5481 163e 990c 49bd 8ee1 59be da70 aabd
000002b0: 4316 153e ccb5 d83d 09bb 043d a2f9 11be
000002c0: 7a13 6abe 657c ef3e d892 663e 8cd6 11bd
000002d0: bbbb 0f3e a107 d9bd 9a23 283d fa16 803e
000002e0: 068b 6bbe 2b40 723e f063 18bd 6689 81be
000002f0: 5f74 d03d 3479 2abf a314 aa3d 5539 0d3d
00000300: a918 20be 635e b5bd b1d8 ef3d eef7 c33e
00000310: 9646 4f3d adde a43e 3eaa 9cbe 1ad6 32be
00000320: 862d dabc e1f8 b73e 348b d5be 1f60 c73e
00000330: d389 293e 0905 de3c a21d aabc 4076 fabd
00000340: 1f2a fb3d 5f52 643e c3cb f83c 5bed 83bd
00000350: 7ec2 073e a16d 1ebf 1afe 4c3d e0d6 093e
00000360: 7361 453e ddd9 4c3e 9eb3 893e d02e 033e
00000370: 4d04 493e 2d35 8c3e cb66 4fbe 1809 0e3d
00000380: c056 9dbe 5470 4abf f883 73be 17e1 9e3d
00000390: 06af d13c 4ef5 d13d ee14 153e 6c24 13be
000003a0: 6148 8cb9 f433 5c3e b412 77be 32ac eb3d
000003b0: 4835 0cbe c20f 533f 6915 a73d b49a d73d
000003c0: 16df c5bc c3fe 57bc 4aad 333e 796a 6e3e
000003d0: 6729 893c 38bc 383e 0d62 153d cdda 6ebe
000003e0: 203c 40bd 1b73 273f d774 babd a7bb 503e
000003f0: c381 f2bc 3bbc 03be 3a5f d3bc 20f6 283e

critic.0.bias f4 [256]
0.038294222 -0.23370674 0.21317258 -0.19874658 -0.1924107 0.046198763 0.12217273 -0.22442141
0.027616374 -0.16463253 -0.19773299 0.22957687 -0.21850088 -0.09357227 -0.2822392 -0.035670266
0.007630214 0.12224491 0.058977846 0.2823945 0.008054251 0.018629622 0.22249754 0.27138516
0.22367941 -0.04404824 0.28393376 0.0036828502 -0.057654686 0.04726082 0.23423532 -0.2556
-0.21564063 0.10523897 0.100256085 0.011638308 0.33780444 0.09590517 0.2579146 -0.16121534
-0.15249448 0.08685331 -0.16114578 -0.012944701 0.011523377 -0.2844402 -0.25676465 0.19560932
0.051655006 -0.22359717 -0.17018512 0.30814397 0.018401565 0.068827115 0.27343518 0.23741496
0.27958855 -0.02301548 -0.13304663 -0.10656793 -0.14707173 -0.06679336 -0.044313848 0.112292446
0.2657432 -0.10361432 0.09715138 0.012034579 0.029283186 0.3510624 0.15770958 -0.19895858
0.026079724 -0.19928358 -0.0079614865 -0.033102658 -0.08468966 0.10908984 -0.08953642 0.13358447
-0.25543886 0.055029187 0.3137908 0.13562013 -0.038956475 0.15866803 -0.115267634 0.29745492
-0.17201649 -0.06589273 0.13061106 -0.15697071 0.21820822 0.20504527 0.1814296 0.18099841
0.081527546 -0.01230016 0.23554778 0.09394815 0.020840948 0.17729275 0.20621878 -0.09839943
-0.15343583 0.1455688 0.10021853 0.20597674 -0.16536048 0.18419679 -0.3926304 -0.019117683
0.16520458 0.104680724 -0.118162476 -0.018083902 -0.36370754 -0.007829071 0.12292894 0.069190174
0.05920076 0.09463578 0.40466565 -0.101795174 -0.15194781 -0.20507467 0.16080669 0.0818611
-0.21532096 -0.11765485 -0.00072825415 0.1338405 0.026829695 -0.15456562 -0.10444668 0.19465514
-0.14716402 0.012509945 0.2472261 0.02985853 0.004203214 0.10685725 0.28206047 0.15068217
0.19013001 0.1243046 -0.35862747 0.081871755 -0.17532778 -0.11590287 0.13906191 0.021406181
0.33369562 0.10908949 0.23636349 0.12182504 0.30557638 0.077393495 0.20379454 -0.2066606
0.086351804 0.0076374966 0.03545571 0.23131663 0.19640194 -0.025498487 0.1261785 0.014093959
-0.2343267 0.07830814 -0.23533484 -0.11087208 0.060986534 0.05478411 0.00739429 0.025963278
0.30052704 0.16821979 -0.118826054 0.07359068 0.10942658 0.13529195 -0.13611673 -0.09970048
0.16954634 -0.18638708 0.05719048 -0.26058885 0.2847672 -0.20718603 0.110604435 -0.16687655
0.24108598 0.023515688 -0.16366251 -0.106523216 -0.21372396 0.2984422 -0.142715 0.082925804
0.15161112 0.18495649 0.02928655 -0.14235413 -0.122188695 0.0113504855 0.21088396 0.21401615
0.081330694 0.08294308 0.32475218 -0.12086858 -0.097051814 0.01153193 -0.17179872 -0.025338298
-0.24417639 -0.032119215 0.29602844 -0.11242969 -0.023374895 -0.19528155 0.20779864 -0.18862592
-0.041188497 0.11743001 0.06994657 -0.24699132 -0.1537199 0.18170862 0.061597582 0.34876192
0.05706458 -0.18939632 -0.049737163 0.12606128 -0.20080073 0.272157 -0.055129196 0.14332163
0.17318515 0.0690457 -0.21044989 -0.2623053 -0.1966114 -0.16467795 -0.14970143 0.27446294
0.17964405 0.058236413 -0.07271356 0.28202155 -0.24468865 -0.031423293 -0.22487774 -0.13877966
00000000: 67da 1c3d d250 6fbe ea49 5a3e 3984 4bbe
00000010: 4f07 45be ea3a 3d3d b235 fa3d bace 65be
00000020: bc3b e23c 6e95 28be 847a 4abe 3316 6b3e
00000030: b2be 5fbe d1a2 bfbd a881 90be fc1a 12bd
00000040: e006 fa3b 8a5b fa3d c192 713d 0396 903e
00000050: faf5 033c 269d 983c 65d6 633e fff2 8a3e
00000060: 370c 653e ed6b 34bd c45f 913e f95b 713b
00000070: 5227 6cbd 9094 413d 62db 6f3e 01de 82be
00000080: e6d0 5cbe 8787 d73d 1053 cd3d 9aae 3e3c
00000090: b4f4 ac3e ee69 c43d 620d 843e a215 25be
000000a0: 8327 1cbe 26e0 b13d 6603 25be 0316 54bc
000000b0: 8ccc 3c3c 25a2 91be a876 83be cf4d 483e
000000c0: 3394 533d a8f6 64be 0245 2ebe 0cc5 9d3e
000000d0: e1be 963c 3bf5 8c3d b2ff 8b3e e81c 733e
000000e0: 3b26 8f3e f68a bcbc 603d 08be 4940 dabd
000000f0: f999 16be f5ca 88bd 7082 35bd 95f9 e53d
00000100: 7e0f 883e bf33 d4bd 4df7 c63d af2c 453c
00000110: 4be3 ef3c 73be b33e 9f7e 213e ccbb 4bbe
00000120: 25a5 d53c ff10 4cbe e570 02bc a796 07bd
00000130: c671 adbd 7e6a df3d df5e b7bd 5eca 083e
00000140: e2c8 82be 4966 613d 30a9 a03e 01e0 0a3e
00000150: d390 1fbd df79 223e 7011 ecbd 034c 983e
00000160: 1725 30be c5f2 86bd e8be 053e eebc 20be
00000170: fa71 5f3e 63f7 513e aec8 393e a657 393e
00000180: eaf7 a63d 9c86 49bc 7033 713e e367 c03d
00000190: a3ba aa3c 3b8c 353e 042b 533e a485 c9bd
000001a0: 481e 1dbe fd0f 153e 5f3f cd3d 91eb 523e
000001b0: 4254 29be 159e 3c3e da06 c9be b09c 9cbc
000001c0: 642b 293e d962 d63d 2bff f1bd b124 94bc
000001d0: e037 babe 8145 00bc 2bc2 fb3d 94b3 8d3d
000001e0: 7f7c 723d 67d0 c13d 5630 cf3e fd79 d0bd
000001f0: 3598 1bbe 18ff 51be 82aa 243e cba6 a73d
00000200: 197d 5cbe 07f5 f0bd 4fe8 3eba 7c0d 093e
00000210: f3c9 db3c 7346 1ebe 24e8 d5bd ad53 473e
00000220: 2ab2 16be 83f6 4c3c d728 7d3e e099 f43c
00000230: 1dbb 893b f9d7 da3d 3b6a 903e 6d4c 1a3e
00000240: 71b1 423e 6993 fe3d 059e b7be 61ac a73d
00000250: 2089 33be 7c5e edbd 3f66 0e3e 045c af3c
00000260: 27da aa3e 4f6a df3d 4509 723e 687f f93d
00000270: 8274 9c3e 7b80 9e3d 84af 503e d69e 53be
00000280: 37d9 b03d f743 fa3b 023a 113d 44de 6c3e
00000290: 971d 493e 34e2 d0bc f034 013e 59ea 663c
000002a0: 57f3 6fbe 0560 a03d 9efb 70be e710 e3bd
000002b0: 04cd 793d 4e65 603d cd4b f23b f1b0 d43c
000002c0: aede 993e cf41 2c3e 135b f3bd b6b6 963d
000002d0: 0b1b e03d f989 0a3e 2f62 0bbe c42f ccbd
000002e0: 8e9d 2d3e 41dc 3ebe 9140 6a3d e76b 85be
000002f0: 02cd 913e 9328 54be 9484 e23d b0e1 2abe
00000300: 3edf 763e f9a3 c03c 2597 27be d828 dabd
00000310: 74da 5abe 6bcd 983e e223 12be 01d5 a93d
00000320: f23f 1b3e 3c65 3d3e 59ea ef3c 48c5 11be
00000330: 113e fabd 63f7 393c f7f1 573e 0d27 5b3e
00000340: b590 a63d 10de a93d eb45 a63e f289 f7bd
00000350: 1ac3 c6bd 6cf0 3c3c 01ec 2fbe 4392 cfbc
00000360: 6009 7abe 708f 03bd 0a91 973e 8a41 e6bd
00000370: b57c bfbc e3f7 47be 2bc9 543e 2727 41be
00000380: 45b5 28bd 257f f03d 2640 8f3d 4beb 7cbe
00000390: c068 1dbe d311 3a3e bf4d 7c3d ec90 b23e
000003a0: 8dbc 693d 1cf1 41be 32b9 4bbd 3516 013e
000003b0: b59e 4dbe 2a58 8b3e 27cf 61bd e8c2 123e
000003c0: 7357 313e d567 8d3d 2d80 57be e14c 86be
000003d0: 8054 49be 56a1 28be 554b 19be 6886 8c3e
000003e0: 9cf4 373e 4e89 6e3d d9ea 94bd 2165 903e
000003f0: a98f 7abe b6b5 00bd 5a46 66be 411c 0ebe

critic.2.weight f4 [128, 256]
0.055118907 -0.1274234 0.17146859 0.062914096 -0.30264887 -0.0042209625 -0.10275039 -0.14772467
0.1230055 -0.05248448 -0.14641815 0.1642572 -0.2343282 -0.025402976 0.05467575 0.16003808
0.09657303 0.08644639 0.18506366 -0.1976548 -0.044889685 0.16839753 -0.07114742 -0.057940997
0.3313293 -0.1295894 0.08576592 0.02511662 -0.11310813 -0.020515729 -0.16535439 -0.108283624
-0.11743609 0.026976116 0.110775016 -0.24016482 -0.047945693 0.2372936 0.14423262 0.026103377
-0.20447561 0.09637667 0.1927321 0.09046008 0.095529445 -0.084003 -0.16463366 -0.06657235
0.113204286 -0.1370565 0.25200957 0.26899195 0.10266336 0.2702794 0.2745859 -0.19063427
-0.023298405 -0.06748397 -0.07600514 -0.13440652 -0.19344983 -0.022082085 -0.109658025 -0.06920194
-0.051539876 -0.027599335 -0.18275967 0.13695805 0.023098096 -0.0113862585 0.120076016 -0.026256852
-0.22144973 -0.12962146 0.025112266 0.0830809 0.07923311 0.07900663 -0.09189386 0.15543331
-0.14067984 -0.28764927 -0.04622947 -0.023725202 0.031299405 -0.17030668 0.11305139 0.041607853
-0.16219804 -0.32571083 0.083336286 -0.0303076 -0.12798995 0.11203621 0.12684499 0.10611574
-0.04304159 -0.15071994 -0.05646756 0.075539194 -0.033377767 -0.011338603 0.033348307 -0.18605013
-0.12782371 0.034408342 0.16657886 0.13310431 -0.106905214 -0.009476668 -0.115284674 0.11661732
-0.0064373906 0.21647714 0.08841188 0.019520868 -0.14307313 -0.014202249 0.08387429 0.2236669
0.02402802 -0.18189612 0.05958064 -0.026620561 0.14123932 -0.07786199 -0.06765288 -0.028718995
-0.23022708 0.11825076 0.15204838 0.06185772 0.16216613 -0.26755944 -0.038622912 -0.008080656
-0.03465762 0.010439633 0.09810443 0.010260018 -0.04930427 0.2076565 0.14323516 0.108583376
0.04548231 0.106808536 -0.10351701 0.059542138 -0.026744863 -0.04816231 0.07766047 -0.08882057
0.040689938 0.042507537 0.12895451 0.08397068 -0.16879629 0.05092607 -0.07666515 -0.21241741
0.0013616976 0.10197081 0.084792495 -0.17674665 0.08772069 0.06629452 -0.044252727 0.14642125
-0.087567665 0.03474132 -0.38490292 0.21738909 -0.1226702 -0.1777056 0.049300786 -0.047358647
0.19875625 0.1410351 -0.17358671 0.1627391 0.034760043 0.0653579 -0.13363326 0.032201063
0.057699457 -0.100595675 0.04510533 -0.17747045 0.052384336 -0.071671814 0.107854664 -0.031103816
0.25072318 -0.035611045 -0.2435519 -0.00575455 -0.09446759 0.082843095 0.051370163 0.19023353
0.13034214 -0.13876057 0.07831734 -0.055069674 -0.21101505 0.12831104 -0.09437742 0.028427774
0.06010019 0.07770779 -0.18089694 0.025597177 -0.18523563 -0.063382655 -0.20483474 -0.3509909
-0.08556197 0.18285027 -0.12166297 -0.017528648 -0.025467973 -0.068903804 0.15511753 -0.050691936
-0.12754461 -0.08701234 0.117535956 0.061059568 0.15771033 0.033798993 0.17263983 -0.14129059
0.12180214 -0.08398842 -0.016203353 -0.029891757 0.0120289875 0.22002469 -0.222364 -0.23147781
-0.29097503 -0.0019053282 0.0408227 0.020248365 -0.13899612 0.070759386 -0.2313899 0.19261979
-0.19307984 -0.05675239 -0.08085435 0.016421353 0.08156337 -0.3622467 -0.1283136 -0.123022184
00000000: 5dc4 613d 487b 02be 7695 2f3e 1bd9 803d
00000010: cbf4 9abe 0050 8abb cc6e d2bd 2345 17be
00000020: 4fea fb3d f7f9 56bd a4ee 15be 0a33 283e
00000030: bbf3 6fbe e719 d0bc aef3 5f3d 06e1 233e
00000040: 15c8 c53d ce0a b13d 5481 3d3e 0566 4abe
00000050: 3fde 37bd 6770 2c3e bdb5 91bd 8a53 6dbd
00000060: fea3 a93e 15b3 04be 0ba6 af3d 5fc1 cd3c
00000070: 3ca5 e7bd 9a10 a8bc a952 29be cec3 ddbd
00000080: 5582 f0bd 04fd dc3c 03de e23d c4ed 75be
00000090: b462 44bd 18fd 723e b7b1 133e c0d6 d53c
000000a0: 0e62 51be 2261 c53d 905b 453e 2243 b93d
000000b0: f1a4 c33d c409 acbd ba95 28be 1657 88bd
000000c0: a6d7 e73d 8a58 0cbe 6607 813e 50b9 893e
000000d0: 2b41 d23d 1062 8a3e 8696 8c3e a135 43be
000000e0: 4cdc bebc 0935 8abd 95a8 9bbd dda1 09be
000000f0: b617 46be 7de5 b4bc 6394 e0bd bfb9 8dbd
00000100: 7a1b 53bd 0018 e2bc 5a25 3bbe bb3e 0c3e
00000110: 3838 bd3c 6e8d 3abc 6aea f53d 9c18 d7bc
00000120: b8c3 62be 7dbb 04be 3db8 cd3c 5226 aa3d
00000130: f844 a23d 3ace a13d d932 bcbd e929 1f3e
00000140: 600e 10be c446 93be 1d5b 3dbd 5b5b c2bc
00000150: ce33 003d e064 2ebe 7d87 e73d ff6c 2a3d
00000160: 3e17 26be 92c3 a6be 37ac aa3d a547 f8bc
00000170: cc0f 03be 3e73 e53d a7e3 013e 3653 d93d
00000180: 614c 30bd 5456 1abe 874a 67bd 4bb4 9a3d
00000190: 20b7 08bd 8cc5 39bc 3c98 083d ed83 3ebe
000001a0: 38e4 02be c3ef 0c3d a693 2a3e 7f4c 083e
000001b0: 1ff1 dabd 0744 1bbc 5f1a ecbd 10d5 ee3d
000001c0: bff0 d2bb 2fac 5d3e 4a11 b53d 3aea 9f3c
000001d0: c381 12be 8db0 68bc 49c6 ab3d f008 653e
000001e0: 69d6 c43c fa42 3abe d40a 743d 5d13 dabc
000001f0: 0aa1 103e 1b76 9fbd 988d 8abd 1944 ebbc
00000200: a6c0 6bbe 742d f23d 92b2 1b3e 855e 7d3d
00000210: e10e 263e 8dfd 88be 0f33 1ebd ba64 04bc
00000220: 26f5 0dbd ff0a 2b3c faea c83d a219 283c
00000230: 46f3 49bd e8a3 543e 3dac 123e f660 de3d
00000240: a94b 3a3d 6fbe da3d ba00 d4bd 75e2 733d
00000250: 0b18 dbbc d845 45bd 740c 9f3d 8fe7 b5bd
00000260: 7eaa 263d 621c 2e3d a70c 043e d2f8 ab3d
00000270: efd8 2cbe db97 503d 9e02 9dbd f383 59be
00000280: fd7a b23a 12d6 d03d b0a7 ad3d 13fd 34be
00000290: e8a6 b33d 6cc5 873d 5942 35bd 74ef 153e
000002a0: ad56 b3bd ea4c 0e3d ff11 c5be 3f9b 5e3e
000002b0: 843a fbbd 75f8 35be 9fef 493d 24fb 41bd
000002c0: c286 4b3e 816b 103e b7c0 31be 14a5 263e
000002d0: 8c60 0e3d 5dda 853d 28d7 08be 43e5 033d
000002e0: 4456 6c3d 1b05 cebd 5ec0 383d d0ba 35be
000002f0: f590 563d acc8 92bd e8e2 dc3d 6ecd febc
00000300: ca5e 803e e3dc 11bd ab65 79be aa90 bcbb
00000310: 3978 c1bd a4a9 a93d 8569 523d 94cc 423e
00000320: 6978 053e 4017 0ebe d764 a03d bd90 61bd
00000330: 5414 58be f863 033e f348 c1bd 5de1 e83c
00000340: 9e2b 763d 4325 9f3d 0c3d 39be 2cb1 d13c
00000350: 69ae 3dbe c4ce 81bd 33c0 51be 14b5 b3be
00000360: 1d3b afbd 1a3d 3b3e 6f2a f9bd 3d98 8fbc
00000370: 36a2 d0bc 701d 8dbd 21d7 1e3e 59a2 4fbd
00000380: 0e9b 02be 8733 b2bd b1b6 f03d 9919 7a3d
00000390: d17e 213e d070 0a3d 7fc8 303e 7bae 10be
000003a0: 6673 f93d 1f02 acbd e5bc 84bc 8fdf f4bc
000003b0: 3b15 453c 274e 613e 63b3 63be 8508 6dbe
000003c0: aefa 94be 35bc f9ba b435 273d e6df a53c
000003d0: 0055 0ebe 4cea 903d 79f1 6cbe 1f3e 453e
000003e0: b9b6 45be 3275 68bd f796 a5bd 1386 863c
000003f0: b20a a73d 6678 b9be a464 03be 0ef3 fbbd
