policy/PPO/checkpoints/2025-11-12_10-50/best_90.33.pth (torch, 895157 bytes, 33 tensors)

actor.0.weight f4 [256, 12]
000000 ef d1 bb bd ca ae c0 bd 9f 29 21 3e fe cd 9b 3e
       -0.09170901 -0.09408338 0.15738533 0.30430597
000010 20 f3 7f bd 0d 49 e6 3d c0 86 96 3b 80 0b f7 3c
       -0.06248772 0.11244402 0.0045937 0.03015685
000020 0f 69 20 bc bf b1 c2 be 6d 99 b2 be a7 6e 83 3e
       -0.009790673 -0.38026235 -0.3488268 0.2567036
000030 40 73 86 3e 9f d1 b4 3d 8b 04 00 3e 0e 88 4b 3c
       0.26259804 0.088290446 0.12501733 0.012422575
000040 f6 5f d6 3d 43 2c fe 3c 4c 20 01 3d a8 ce 27 bc
       0.10467522 0.031026965 0.03152494 -0.010242142
000050 e3 72 99 bc d6 06 a4 3e ce 9f 0c 3d a7 f5 15 3e
       -0.01873154 0.32036465 0.03433209 0.1464449
000060 df 47 70 be d2 d0 81 3d 22 42 bc bc 7e 84 1c 3d
       -0.23464917 0.063386574 -0.022980753 0.038212292
000070 90 5e e1 3d 69 67 bd 3d 47 b9 95 3d 57 53 e0 bd
       0.110043645 0.092482395 0.073107295 -0.10953396
000080 dd 60 7a be cc 56 2a be 26 cd 95 3d 8a 9e a6 be
       -0.24451013 -0.16634673 0.073145196 -0.3254283
000090 41 37 50 3e e7 2f e8 bc f8 2f b4 3d 3b 69 17 be
       0.20333578 -0.028343154 0.08798212 -0.14786236
0000a0 a5 fa 2b be 68 51 cf 3d 98 48 5e 3e e6 5d fc 3d
       -0.16794832 0.10122949 0.2170738 0.12322597
0000b0 aa cb 9a 3d 4a 90 7e bd b0 88 0f 3c b8 96 91 3d
       0.07558377 -0.062149324 0.008760616 0.071088254
0000c0 bf b1 35 be 93 b1 bd 3b c4 21 44 3d ce e7 4a be
       -0.17743586 0.0057889908 0.047883764 -0.19814989
0000d0 60 3e 88 3e 39 d5 8e 3d a6 0c 94 3e 80 23 43 3e
       0.26610088 0.06974263 0.289159 0.19056511
0000e0 9e d2 cf 3a da 7a 08 be 7d a5 ef 3d 56 b9 87 be
       0.0015855615 -0.13328114 0.11701486 -0.26508588
0000f0 b6 99 99 bd 40 83 a8 3d 43 8b 40 bd 9b 05 6d be
       -0.07500021 0.08228159 -0.04700781 -0.2314667
000100 aa 96 10 3e 3a ec 9f bd 97 84 54 bc 12 53 1a 3e
       0.14119974 -0.078087285 -0.012971065 0.15070751
000110 af e8 eb 3c ac 5f cb 3e 93 4c 08 3e 55 78 58 ba
       0.028797476 0.3972143 0.13310461 -0.0008257677
000120 f9 8e 4a bd b5 6c 99 bd 97 20 fb bc b8 86 72 3e
       -0.049452756 -0.07491437 -0.030655188 0.23684204
000130 ff 83 16 3d b5 10 8c 3e a1 2c 71 3e 4a 1f e6 3b
       0.036746975 0.27356496 0.23552181 0.007022773
000140 13 ae d1 bd ef 0b a6 be 60 6d 42 be 3b 9c 52 3e
       -0.1023828 -0.3243098 -0.18987036 0.2056741
000150 ee c9 9c 3e aa 56 35 bd 4c 6d 66 bd 86 a2 94 3d
       0.3062281 -0.044272102 -0.056256577 0.072575614
000160 23 9f 94 be 9e 1e f1 bd 9d ce 3c be 4e 40 97 3e
       -0.29027662 -0.11773418 -0.18438192 0.29541248
000170 ae da 8c be 7b cb 3f be 78 0a a7 bd b2 62 62 3e
       -0.2751059 -0.18729965 -0.08156294 0.22107962
000180 2e 52 a1 bd ca 1a 29 3e d9 1a 93 bd 54 84 47 be
       -0.07877003 0.16514125 -0.07182855 -0.19484073
000190 cf 01 bc bd 9d 36 f8 bb 14 b9 2e 3e 5b ce 3e be
       -0.091800325 -0.00757487 0.17062789 -0.18633406
0001a0 8f 1a 9c be c5 7a 8b be cd df 67 3e 2e 12 a8 3d
       -0.30489013 -0.27242103 0.22643967 0.082065925
0001b0 89 4b ff bd 91 7b 98 3d 04 72 3d 3e 2c dd 03 3d
       -0.12465579 0.074454434 0.18500525 0.032193348
0001c0 6f 7e b5 be 6b e9 6f be a9 b6 ae 3e c1 ab f0 bb
       -0.35448024 -0.23428886 0.34123734 -0.0073446934
0001d0 8c e7 2b bb 3d 95 7a 3e e7 7c be bd 70 65 ea bd
       -0.0026230542 0.24470992 -0.09301167 -0.11445129
0001e0 ae 67 f5 bd a7 ae 4d 3c 90 1e 02 be 0f a3 8a be
       -0.11982666 0.012553847 -0.12706971 -0.2707753
0001f0 50 83 aa 3d d6 06 46 3e e9 18 f0 bd 98 15 35 bd
       0.08325827 0.19338545 -0.11723501 -0.044210047
000200 45 6a c3 be ce 0b a1 3e 07 e5 9f 3e 70 f7 f9 bd
       -0.38167015 0.3145432 0.31229421 -0.12205398
000210 69 17 7b 3e 94 c5 3a 3d 3a 34 9b 3c 7e b9 62 3e
       0.24520649 0.04559858 0.018945802 0.22141072
000220 d9 9c 1d be 35 22 a5 3d 08 dc 49 be 77 0e a8 bd
       -0.15391864 0.08063165 -0.19712842 -0.08205884
000230 b8 6e 02 bd ce 56 cd be 45 90 26 be 33 d2 0a 3e
       -0.03184387 -0.4010529 -0.16265972 0.13556747
000240 44 52 66 be ee 9c 89 be 75 74 1c be 18 99 37 bd
       -0.2249232 -0.2687754 -0.152788 -0.044823736
000250 80 4b a4 bd d1 2b c8 3d 9a 2a cb 3b c3 ec ac 3d
       -0.08022213 0.09773982 0.006200147 0.08443596
000260 6e ba 6e 3c 60 1e 10 3e 2c f4 95 be 41 44 1d be
       0.0145708155 0.14074087 -0.2928785 -0.15358068
000270 6b 81 80 3e c4 f2 b7 bc c0 ed d2 bd 4e d3 58 3e
       0.25098738 -0.022454627 -0.102992535 0.21174356
000280 e7 3d 2c be a2 6d 6f bd f0 0c 6a 3e e1 ed 2f be
       -0.16820489 -0.058454163 0.22856498 -0.17180587
000290 df 93 2f be 7f 9a e0 be 1d 1a d3 3d 29 6a 97 be
       -0.17146252 -0.4386787 0.10307715 -0.2957318
0002a0 9b 02 1c be d9 d1 04 bd 03 fe df bc 83 77 41 3e
       -0.15235369 -0.03242669 -0.027342802 0.18893246
0002b0 b1 e3 73 3e 7a db 83 bd 50 f1 1d bd 9d 17 71 3d
       0.23817326 -0.06438346 -0.03856021 0.05886041
0002c0 77 b8 97 be 0c fa e3 3d a3 7a ba 3e 73 6f 27 be
       -0.29632923 0.11131677 0.3642169 -0.16351108
0002d0 25 d9 c2 bd 93 38 0b be 70 3a 57 be 95 51 0e bc
       -0.09514073 -0.135958 -0.21018386 -0.008686443
0002e0 31 75 99 be 8e 0b cb 3d e6 22 a7 be c7 ba 1d 3c
       -0.29972222 0.09914313 -0.32643813 0.009627051
0002f0 39 7e 64 be 28 32 bf 3e d6 f0 02 3e 56 a8 90 be
       -0.22313775 0.37342954 0.12787184 -0.2825343
000300 19 cd 23 3e 1e 5c b6 3b ed 92 fd bb 00 30 88 bd
       0.15996207 0.0055651804 -0.007738462 -0.0664978
000310 73 99 ba bd e0 50 17 3d ec d4 97 3e ff f1 4e 3d
       -0.09111299 0.036942363 0.29654634 0.050523754
000320 dd 0a 84 3e 65 8e df 3e 42 c3 b4 bc 62 8c 3b 3e
       0.25789538 0.43663326 -0.022065762 0.1831527
000330 61 19 06 3e a3 6e 20 3e 63 54 65 3d 1c 63 87 3d
       0.13095619 0.15667205 0.05598868 0.066107005
000340 9e fd dd bc 80 1d d2 bd 82 b7 0c 3e f0 03 32 be
       -0.027098473 -0.10259533 0.13741878 -0.17384315
000350 bf 85 89 be 2a 9e 11 be b4 43 ee 3c e3 5f 5c be
       -0.26859853 -0.14220491 0.029085018 -0.21520953
000360 3d 7b 45 be 0a 6c a8 bd bd 07 06 be 3d fc 32 3e
       -0.19285293 -0.08223732 -0.1308889 0.17479034
000370 c9 67 36 3e 63 7c 78 bd 81 3b 20 3d b4 1b d1 3d
       0.17813028 -0.0606655 0.039119247 0.10210362
000380 d8 4c 24 be e1 97 8c 3e fb ae 5e be 33 c0 9f 3e
       -0.16044939 0.27459624 -0.21746437 0.31201324
000390 23 ac 5a 3e f5 c0 ba bd cf a5 0d 3e 44 e5 9b bd
       0.21354727 -0.09118835 0.13832782 -0.07612088
0003a0 7d f2 49 bd 9f 09 49 be 03 7b 78 3e 3a a3 03 3d
       -0.04930352 -0.19632576 0.24265675 0.032138087
0003b0 84 61 9f 3e 2c 29 b8 3e 70 59 44 be 17 7c cd 3e
       0.31129086 0.35968912 -0.19174743 0.40133736
0003c0 d3 c2 26 bd 4d 4e fa 3b 14 40 38 3e 2b 8e 50 be
       -0.040713143 0.0076387287 0.17993194 -0.20366733
0003d0 7b 10 46 3e 48 98 83 bd 8c a2 d4 bb 10 f8 01 3e
       0.19342224 -0.0642553 -0.0064891037 0.12692285
0003e0 e0 92 15 be 25 99 05 3f 31 fe c2 be c5 97 24 be
       -0.1460681 0.52186805 -0.38084558 -0.1607352
0003f0 83 7f 7f be eb 10 f4 bd e7 28 1a be 36 10 f9 bd
       -0.24950986 -0.11917289 -0.15054666 -0.12161295

actor.0.bias f4 [256]
000000 7e 82 fd 3d 8a d1 26 3d 42 3b ff bd 49 33 62 3e
       0.12378405 0.040727176 -0.124624744 0.22089876
000010 6f 53 38 3e bb fc 96 bd f0 35 0d be f9 d5 df 3d
       0.18000577 -0.07372423 -0.13790107 0.10929484
000020 fe 38 84 be 83 6c 5a 3e 99 1c 69 3d ba 5c 5d be
       -0.25824732 0.21330456 0.05691204 -0.21617404
000030 4c 88 6c 3e 97 7d 30 bd 59 65 0f 3e 9f 1a a4 3d
       0.23098868 -0.04308852 0.14003505 0.0801289
000040 75 70 69 bd e7 3d 13 be 13 de 1d be 82 ab 7e 3e
       -0.056992013 -0.14379083 -0.15416746 0.24870113
000050 f6 d5 7d 3e d0 1e 0a 3e 52 9f 5d be 6f 84 ec 3d
       0.24788651 0.13488317 -0.21642807 0.11548697
000060 6c b5 99 bd 9a 9d 78 3e 5c 12 50 3d c2 63 d3 bd
       -0.075053066 0.2427887 0.05079876 -0.10321762
000070 54 85 ab be 5c 84 85 3e a2 4e 40 3e c8 da 4d 3e
       -0.3350016 0.26077545 0.18779996 0.2010299
000080 d5 76 98 be 45 dc 5c be da 2d 23 3e 78 29 2a 3e
       -0.29778162 -0.21568401 0.1593546 0.16617382
000090 ec f5 ae bd 4c a9 0b 3d 22 b1 5f be 15 f2 43 3e
       -0.085429996 0.034097 -0.21844915 0.19135316
0000a0 6f 9f a0 3d 75 7f bc 3d d4 17 28 be 00 66 80 3e
       0.078429095 0.09203998 -0.1641534 0.2507782
0000b0 61 f5 0d be fe 01 39 bd bd 8f 58 be 50 c9 19 be
       -0.13863136 -0.045167916 -0.21148582 -0.15018201
0000c0 75 d9 97 3e d6 70 c9 3d 7e c8 7e 3d 7f 25 3f 3e
       0.29658094 0.09835975 0.062202923 0.18666647
0000d0 dd a4 63 be b2 80 af bc a1 19 50 be fb a9 1d 3e
       -0.22230859 -0.021423671 -0.20322277 0.15396874
0000e0 21 e8 6a 3d 10 a8 be bc b5 ad ab 3d 95 fc ed bc
       0.05735028 -0.023273498 0.08382741 -0.029051105
0000f0 08 34 21 3e 81 03 8c 3c fc 8c 49 3e e8 ac 70 bd
       0.15742505 0.017091515 0.19682688 -0.058758646
000100 ab 65 ad bd 87 c9 49 be 77 9c b8 3d c1 de 51 3c
       -0.08466657 -0.19705783 0.09014218 0.012809456
000110 e5 44 56 be ad 95 04 3e f8 bb c1 3e 88 6a 9a bc
       -0.20924719 0.12947722 0.3783872 -0.018849626
000120 58 cd 35 3e 28 4f 95 3c a1 71 bd 3c 75 26 96 3d
       0.17754114 0.018226221 0.023125472 0.07331554
000130 99 1c 64 bd a4 3b 29 3e 06 fd 68 be de 21 40 be
       -0.055691335 0.16526657 -0.22752771 -0.1876292
000140 99 e3 1c be fe ca 69 be 64 c9 62 be 2a 67 21 be
       -0.15321197 -0.22831342 -0.22147137 -0.1576201
000150 90 31 a8 bc 28 58 b4 3d 94 fa a6 bc 49 25 37 be
       -0.020531446 0.08805877 -0.020383157 -0.17885317
000160 6d 56 c1 3d 06 2c 77 be b8 ae c6 bd a8 c2 d5 bd
       0.094403125 -0.24137887 -0.09701294 -0.10437518
000170 b4 d5 d9 bc f7 68 d0 3d c6 7b ac 3d a7 e2 2e be
       -0.02659116 0.101762705 0.084220454 -0.17078649
000180 be b7 18 3e c5 15 bf 3c 4d f0 4a bc 8c 8d 59 bd
       0.14913842 0.02332581 -0.012386394 -0.053113505
000190 76 80 0f be 98 aa 03 3e f9 7f 5d bd 2a 2d a7 3e
       -0.14013848 0.12858045 -0.054077122 0.32651645
0001a0 28 db 37 3c b4 eb 82 3d 9e 49 1b 3d 6a 71 12 be
       0.0112216845 0.06392613 0.037912004 -0.14301077
0001b0 35 b9 b0 be 5b 2a 82 bd 6c 48 ff 3d 19 27 5f 3e
       -0.34516302 -0.06355735 0.12464985 0.21792258
0001c0 d9 97 a8 3d ec a6 0e 3e 67 f7 61 bd de 90 be 3c
       0.08232088 0.13930863 -0.055167582 0.023262437
0001d0 1d a8 e3 bd d3 98 bb 3d 88 d1 cc bd ad 96 38 be
       -0.111160494 0.09160008 -0.100009024 -0.18026228
0001e0 aa c4 a8 bd ad ef 8e 3d 44 92 af bc 04 16 9e 3e
       -0.08240636 0.06979308 -0.02143205 0.30876172
0001f0 a6 d0 89 bd 0b e7 63 bd 79 e3 83 3e 9e 5d 25 3e
       -0.0672925 -0.05564026 0.25759485 0.16148993
000200 ab e5 17 bd ae 9e 90 3d 54 fc 0b 3e 31 dd 52 be
       -0.037084263 0.07061516 0.13670474 -0.2059219
000210 e5 85 ab 3e 27 03 18 3e 33 44 13 3d 99 15 dc 3d
       0.3350059 0.14844953 0.03595371 0.10746307
000220 5f b9 19 3e 78 8f 32 3e 65 70 26 bd 0f 5e 7a 3d
       0.1501212 0.17437541 -0.04063453 0.061124858
000230 87 4e 13 3e e5 7c c2 3b 62 32 f0 3c 14 6b 6a be
       0.14385425 0.0059352987 0.0293209 -0.2289241
000240 6d 10 78 3e f7 06 02 3e 6e d5 2c be 3b 37 b9 3d
       0.24225016 0.1269797 -0.16878292 0.090437375
000250 2e 3a 8d 3c d1 42 8a bd 55 b9 e0 3d 24 88 70 be
       0.017239656 -0.067510255 0.10972849 -0.23489434
000260 e2 29 81 3e 2c 6f b0 be a7 5b de 3d 98 43 6c 3e
       0.25227267 -0.34459817 0.10857325 0.2307266
000270 bf a1 73 3e bd 51 1c 3e f1 99 4d 3d 82 e9 25 3e
       0.2379217 0.15265556 0.050195638 0.16202357
000280 36 47 6e bd 41 02 11 be c0 26 fd 3b 2d 1a eb bd
       -0.05817338 -0.14161016 0.0077255666 -0.11479602
000290 29 d0 43 3e 33 cb 3c bd 5e c7 2b be f9 8d 43 3e
       0.19122376 -0.046092223 -0.16775271 0.19097127
0002a0 71 d3 1d 3e d6 36 2e 3e 02 22 33 3e ef 12 14 3e
       0.1541269 0.17013106 0.17493442 0.14460348
0002b0 46 7b 08 be 5a b1 2b 3e 27 7f 4b 3e 60 79 6b be
       -0.13328275 0.16766873 0.19872724 -0.2299552
0002c0 db 4e 08 be 4d cb 35 bd fc 66 a6 3e 08 5c 3c be
       -0.13311331 -0.044383336 0.32500446 -0.18394482
0002d0 87 f5 3b bd b4 a5 7f 3d c0 12 26 3b 1f fa a8 be
       -0.04588845 0.062413886 0.0025340766 -0.33003327
0002e0 d9 64 eb bd d3 2e 8c bd 8d df d5 3d 6a 0e 5e bd
       -0.114938445 -0.068448685 0.104430296 -0.054212965
0002f0 26 ab 43 be cf 3a 46 3e 3a 44 63 be ae c8 67 bd
       -0.19108257 0.19358371 -0.22193995 -0.056587867
000300 d8 90 4d 3d 8a ed bb 3c 2c 88 21 3e 3f 9e 82 3e
       0.050186962 0.022940416 0.15774602 0.25511357
000310 78 86 82 bd f4 bb 17 be 59 5b 5d bd bf 39 4a be
       -0.06373304 -0.14817792 -0.054042194 -0.19748591
000320 19 d6 43 3e 80 c5 83 3d cb 26 26 3e f2 26 04 be
       0.1912464 0.064341545 0.16225736 -0.12905481
000330 5d 8a 20 3b ed a8 24 bc 7c 45 8c 3d 4f 4c 00 bc
       0.0024496533 -0.010050041 0.068491906 -0.007830693
000340 d9 a5 9a 3d 91 1e 21 bc 8b 4a 3e 3d b5 6b 22 3d
       0.07551164 -0.009833948 0.04645781 0.0396535
000350 df 3f 54 3c e7 e8 9d 3d 33 a6 17 3e 9f 2b 3d 3e
       0.012954681 0.07710438 0.14809494 0.18473671
000360 85 e8 81 be 54 96 14 be 87 23 5d be bd c0 a9 be
       -0.2537271 -0.1451047 -0.21595584 -0.3315486
000370 34 6f 01 be 40 28 a9 bb 56 26 79 be af 45 0e 3e
       -0.12640077 -0.005162269 -0.2433103 0.1389377
000380 6d d6 70 bc ce 5e 36 be e8 0e 8a be a6 71 f7 b9
       -0.014699561 -0.17809603 -0.26964498 -0.00047196186
000390 8f 5e 1e 3e 34 78 d5 bc 80 47 d2 3d fc 60 d3 bd
       0.15465759 -0.026058294 0.10267544 -0.10321233
0003a0 22 ec 11 bc ab 0e e7 bc 8b 74 38 3d 28 b4 37 3d
       -0.008906396 -0.028205236 0.04503302 0.044849545
0003b0 24 e1 a5 3d 75 1b ba 3d 55 51 ce 3d 2e 07 e3 3d
       0.08099583 0.09087268 0.100741066 0.11085354
0003c0 38 41 05 3e c7 b7 b9 bc 7d ee 8c 3e 50 49 b2 bd
       0.1301316 -0.02267064 0.27525702 -0.087053895
0003d0 14 29 62 3d c6 49 25 be 0f 8d 86 bc fc e3 f2 bc
       0.055214956 -0.16141424 -0.016424684 -0.029649727
0003e0 58 1e 84 3e 8d 4d 95 3d 6e 85 98 be 94 62 17 3e
       0.258044 0.07290182 -0.297893 0.14783698
0003f0 d8 50 9b bd 23 2f e4 3d 29 86 01 be 83 92 4b 3e
       -0.07583779 0.11141803 -0.12648834 0.19880109

actor.2.weight f4 [128, 256]
000000 75 21 9a bd 4f 7f 8b 3c d6 8e 4b ba 47 2e e0 3c
       -0.07525913 0.017028479 -0.00077651197 0.027365817
000010 cc cb 46 bd 29 e3 47 3e 7f c8 5c bd 78 eb 85 bd
       -0.0485342 0.19520248 -0.053902145 -0.06539053
000020 4f eb 3c bd ef ac 61 bd 2d 83 56 3d 8c cf f9 bd
       -0.046122845 -0.055096563 0.052371193 -0.121977895
000030 67 13 75 3d 5b 9f b7 bd 17 26 81 3d 14 a6 10 3e
       0.059832957 -0.089659415 0.06306093 0.14125854
000040 cf 83 c7 3d 1b 2b c9 bd 14 ef 22 3d 5d 63 5a bd
       0.09741937 -0.09822675 0.039778784 -0.053317416
000050 da e6 9c 3d 56 1e 83 bb bc 5a c0 3b 32 c7 bc 3d
       0.07661219 -0.004001419 0.0058701914 0.09217681
000060 5b 3f cd bd fd b7 2d bd 31 1c b0 3d dc c9 1c 3d
       -0.1002185 -0.042411793 0.08599127 0.038278446
000070 81 f0 b0 3d ff ad 45 bd ff 17 5b 3d be 07 c2 3c
       0.086396225 -0.04826164 0.05348968 0.023685332
000080 fb f8 71 3c 09 da 7f 3d f8 45 39 bc 1d c0 b0 3d
       0.014768834 0.062463794 -0.011308186 0.08630393
000090 a9 8d 00 3d 90 a8 a0 bc b8 ca 23 bd 64 62 0e 3c
       0.031385098 -0.019611627 -0.03998825 0.00869045
0000a0 e9 8b 56 3d 18 00 37 3d ec 39 91 3e 93 f3 a7 ba
       0.052379522 0.044677824 0.28364503 -0.001281368
0000b0 d8 e3 70 3b c2 b1 41 3d 2b 5e b7 bd 5b fd 92 bd
       0.00367569 0.047288664 -0.08953508 -0.0717723
0000c0 ed 37 66 3c bb 5e 3c bd ea dd 91 bd 75 ba e8 bb
       0.01405142 -0.04598878 -0.07122405 -0.0071023055
0000d0 1d ac 0e be 19 8e 16 3d d7 ce b2 3d 21 3d 5a 3c
       -0.13932844 0.03675661 0.08730858 0.013320238
0000e0 bb 99 1b bd b4 1b 03 bc b3 cf 06 3e c1 c8 e9 bc
       -0.037988406 -0.00800221 0.13165168 -0.02853811
0000f0 db 32 93 3e 3c 4a 40 bc b3 26 96 3d 3f b0 ab 3c
       0.28749737 -0.011736449 0.073316 0.020958064
000100 30 70 65 3c 93 40 3a bd 9b 6a 2f bd a4 65 82 3d
       0.014003798 -0.04547174 -0.042826276 0.06367043
000110 79 a1 4f 3d 65 71 95 3c 46 29 2c 3d 22 bb 29 3c
       0.0506911 0.018242547 0.04203155 0.010359557
000120 84 c7 d3 3c 5b 74 12 3d b4 7d 98 3d ea d7 d2 3c
       0.025851972 0.035755496 0.07445851 0.025737721
000130 5e 37 07 3e 88 92 23 bd ef 13 97 3b c5 a5 71 3e
       0.13204715 -0.039934665 0.0046105306 0.23598392
000140 83 fe 4f 3d 2e d0 d0 bc 79 a7 04 3e 88 d1 3b 3d
       0.05077983 -0.025489893 0.12954511 0.04585412
000150 0c 97 a7 3c 99 91 c2 bc a7 d3 05 be 3c f7 86 bc
       0.020457767 -0.023751067 -0.1306902 -0.016475312
000160 06 16 0c be c6 d6 07 bc 4a 8e 99 3d 58 73 e1 3d
       -0.13680276 -0.008290952 0.074978426 0.11008328
000170 3a ab d1 3c 16 f3 fc bc 8b 79 5b 3d f9 58 29 bc
       0.025594342 -0.030877631 0.05358271 -0.010336154
000180 c7 a9 37 3b de 07 49 3d 7b 6b 9a 3d cb fb d2 3c
       0.002802478 0.04907977 0.075400315 0.02575483
000190 4c 6e 03 bc ee 27 77 bd 75 a4 45 bd 19 9d 43 3d
       -0.008021902 -0.060340814 -0.04825254 0.047757242
0001a0 51 6a 54 bd 39 40 08 bd 3b ef 6c 3d e0 53 3a be
       -0.051859204 -0.033264372 0.057845335 -0.18196058
0001b0 89 bf 86 bc 58 a3 51 3d 32 42 8b bd 75 f1 16 3d
       -0.016448753 0.051181167 -0.06799735 0.036851365
0001c0 d9 15 2e 3c e0 26 0e be 57 f8 98 3d 4b 99 87 bd
       0.010625326 -0.13882017 0.07469242 -0.06621035
0001d0 4f 98 e9 3c d0 31 2d bd 0c 1f 0b bd c5 6b 8a bd
       0.02851501 -0.042283833 -0.033965155 -0.06758837
0001e0 27 fe d7 bc 18 72 49 bd 83 68 87 bc d4 1e d6 3b
       -0.026366306 -0.049181074 -0.016529327 0.0065344367
0001f0 21 d4 b6 bc d2 4b 0c 3e 5b 05 5d bc db 4c 6f 3d
       -0.022317948 0.13700798 -0.013490046 0.058422904
000200 41 89 7d 3d c0 b8 86 3d bb a0 81 3c 9c f7 8f bb
       0.061898474 0.06578207 0.015823713 -0.004393531
000210 3f 2c 81 bd 92 b7 56 3d 58 c1 11 bd 3c 1d e0 bd
       -0.063072674 0.05242116 -0.035584778 -0.10943076
000220 4c 3e b4 bd 9a 4d bd 3c 32 b3 df 3c cc e9 59 bb
       -0.08800945 0.023108292 0.027307127 -0.0033250926
000230 4f cb 1b bb 95 44 5e bc ce 1b 47 3d 95 54 af 3d
       -0.0023772304 -0.013566156 0.0486105 0.085610546
000240 8a 4d 41 3d dc 0f 9f bd 25 7d 00 bd 10 c5 fc bd
       0.047193088 -0.07766697 -0.031369347 -0.12342274
000250 f4 ed e2 3a 12 39 38 3b 2e 3d 1e bd 0d d6 b1 3d
       0.0017313347 0.0028110188 -0.038632564 0.08683405
000260 5f 3d 15 bd 3f 22 25 bd b4 9d 8b bd a7 e7 e5 bd
       -0.03643548 -0.040315863 -0.06817189 -0.11225825
000270 32 13 4e bd 83 5d 69 bd 37 eb 2e bc 9e 15 db 3d
       -0.050311275 -0.056973945 -0.010676197 0.106974825
000280 3d 40 a0 bd 9f ff 8d 3d fc b2 25 3d 1c 90 e1 3c
       -0.078247525 0.069335215 0.040453896 0.027534537
000290 92 7e 22 3b 9d 53 e4 3c 9e b7 1b be 62 02 bc bd
       0.002479468 0.027871901 -0.15206763 -0.09180142
0002a0 5a e0 30 3d 80 35 34 bd 69 b0 1a bd cd af 8a bc
       0.04318271 -0.043996334 -0.037765894 -0.016929531
0002b0 09 ce 2e 3d 6e b4 4b bd 4c 5b 1b bd 26 1b 62 bd
       0.04267696 -0.049732618 -0.037928864 -0.055201672
0002c0 ea f0 bc bc 0c 79 b2 3c 2e 3e b0 bd 37 1b 10 3c
       -0.023064096 0.021786235 -0.0860561 0.008795551
0002d0 22 ad 3e bd 41 41 ec 3c 9e 88 42 bc f9 c4 66 3d
       -0.04655183 0.02883971 -0.011873392 0.05634019
0002e0 af 12 91 bd d3 f1 01 bd 10 6a c5 3c 95 c8 a6 3d
       -0.07083642 -0.031724762 0.024098426 0.08143727
0002f0 45 58 9c bd 8f 26 c7 3c d5 78 94 3c 96 03 c3 3b
       -0.076340236 0.024310378 0.018124023 0.005951355
000300 02 8c ea bc e6 2d 1e bd c7 14 07 3d b3 83 18 bc
       -0.028631214 -0.03861799 0.0329788 -0.009308743
000310 15 4f fa bd 3a f4 41 3b 4e 45 e7 3b e2 c6 0e 3c
       -0.12222115 0.0029595033 0.0070578223 0.00871441
000320 5f 57 a6 bd 86 0a d7 bd cd f3 cf bc 20 62 84 bd
       -0.081221335 -0.10500054 -0.025384808 -0.06464028
000330 85 98 78 3d ee f6 5f bd 48 55 21 bd cd 1e 9a bd
       0.06069233 -0.05467885 -0.03938797 -0.07525406
000340 a7 2f c3 bc 32 be 0a 3d e9 fe e6 bc b9 14 0d be
       -0.023826433 0.03387279 -0.028197723 -0.13777436
000350 b8 c6 5d bd 89 5e 2f 3d cf 6e b6 bc 07 9d 26 3c
       -0.05414459 0.042814765 -0.022269635 0.010169274
000360 22 eb 4b be b0 50 6e 3d ad 38 11 bb 96 0d 27 3d
       -0.19913915 0.05818242 -0.0022159026 0.04078444
000370 cc 49 af bd 12 c2 98 bc f4 d2 8a 3c cf 12 18 3d
       -0.085589975 -0.018647227 0.016946293 0.037127312
000380 60 03 9e ba e8 10 63 bc 12 ce 9c bd db 6a 14 bd
       -0.0012055449 -0.013859011 -0.07656492 -0.036234718
000390 77 2e af 3c 17 2f 30 3d 5b 53 e5 bc 6d 71 83 bc
       0.02138446 0.04301366 -0.027993849 -0.016045297
0003a0 83 5a f6 3b 56 91 aa bd 28 e4 3c bd 78 cf a6 3a
       0.007518114 -0.08328502 -0.046116024 0.0012726625
0003b0 96 17 ed bd fb f2 6d 3d c1 ec 1c bd fe 16 ff 3c
       -0.11576764 0.058093052 -0.038311724 0.031138893
0003c0 4e 7a 6a be 3e 39 e7 bd 89 e8 36 ba 0a ad f4 3c
       -0.22898218 -0.11290215 -0.00069773995 0.029867668
0003d0 8e e1 a4 bc 60 ef c3 bb 64 ed 75 bd d9 cc 7e 3c
       -0.020127084 -0.0059794635 -0.060040846 0.015551769
0003e0 51 58 92 bd 5c f5 2d bd b3 65 13 3d a3 14 ce 3c
       -0.07145751 -0.04247032 0.03598566 0.025156325
0003f0 47 08 31 bd 46 b5 45 3d 5a 1a 69 3d ca ed 16 3b
       -0.043220785 0.04826858 0.056909896 0.0023029917

actor.2.bias f4 [128]
000000 7a a2 de 3c b8 13 f7 3c 9f 6d 19 3d 14 aa 12 3c
       0.027177084 0.03016077 0.03745806 0.008951683
000010 01 40 26 bd dc 6d 52 bd eb 63 42 3d 0c d8 85 3c
       -0.040588383 -0.0513743 0.04745857 0.01633837
000020 77 ea 8d 3d e6 94 5e bb f7 b7 5c bd 57 73 01 bd
       0.06929486 -0.0033963262 -0.05388638 -0.031604137
000030 71 3f 24 bb 70 01 31 bd d2 1a b5 3c 63 61 33 bd
       -0.0025062228 -0.04321426 0.022107515 -0.043794047
000040 a7 73 41 bd 83 4e ab 3c 2d 84 6a 3d b5 f0 58 3d
       -0.047229435 0.02091146 0.05725496 0.05296393
000050 29 98 5d 3c eb 96 6f 3d 1b 08 4c 3c e2 bf 1a bd
       0.013525047 0.058493536 0.012453104 -0.03778065
000060 8c d6 8b 3c 48 e8 28 3d 21 be 79 bc 79 26 65 3d
       0.017070077 0.041237146 -0.015243084 0.055944894
000070 6a 34 17 bd 49 47 74 bc 9b 8a 09 3d 6e 6f 45 bd
       -0.03691522 -0.014909574 0.03357945 -0.04820197
000080 d3 72 00 bd ae cc 38 bd 88 a9 93 3c 64 69 00 bc
       -0.031359505 -0.045117073 0.018025175 -0.007837627
000090 74 ac fe 3b 74 8a 31 3d 05 75 e0 bc 5d ab 77 3d
       0.007772023 0.04334493 -0.02739955 0.06046616
0000a0 4e e0 d5 bb 9c 8b 13 bd 4d 33 84 3d 74 43 50 bd
       -0.0065269833 -0.036021814 0.06455097 -0.05084558
0000b0 14 09 27 bc 07 66 82 3c 8d 8e 46 bc 76 ac 41 bd
       -0.0101950355 0.015917791 -0.012118948 -0.047283612
0000c0 54 7d 66 3d b9 92 08 bc 1f 57 25 3d bb 9c 4e bd
       0.056271866 -0.008335763 0.04036629 -0.05044244
0000d0 3f ad 09 3d 32 63 50 bc 32 d6 db bc 22 58 50 3d
       0.033612486 -0.0127189625 -0.026835535 0.0508653
0000e0 53 cf 80 3d f8 e0 67 bb 4c f7 7a bd d4 56 20 3b
       0.06289544 -0.0035381895 -0.061270997 0.0024465816
0000f0 ef 70 86 bd a2 2c 33 bd 81 41 21 bd 87 60 d8 bc
       -0.06564509 -0.043743737 -0.03936911 -0.026413215
000100 e5 ab 4a 3d ce 28 cb 3c c7 8b 89 3c 6e 2b d5 3b
       0.049480338 0.02479973 0.016790284 0.0065054214
000110 01 4f 8a bc 9d 29 fc 3c c4 c0 2c 3d da 46 40 bd
       -0.016883375 0.030781562 0.042176023 -0.04694257
000120 47 2f be bc 4a 6b 27 3d f8 6a 85 3d eb 27 14 3d
       -0.023215903 0.040873803 0.06514543 0.03617088
000130 8f dc 16 3d 81 86 47 3d 5a d3 6c bb 86 7c 02 3d
       0.036831435 0.048712257 -0.0036136718 0.031857036
000140 8e 6b 2e bd 65 c4 03 bd de 55 0e bd 7f 5f d8 3c
       -0.04258304 -0.03216972 -0.034749858 0.026412724
000150 3f 38 24 bd 82 55 40 bd de 06 6b bd bc 4c ae bc
       -0.040092703 -0.046956547 -0.057379596 -0.021276824
000160 50 13 7e 3d eb 09 c3 3c bf f6 88 3d e5 fa da bb
       0.062030137 0.02380844 0.06687688 -0.006682741
000170 4e 59 78 bc 0f fa 25 3d 7e 52 83 bc 96 7c 1d 3d
       -0.015158011 0.040521678 -0.016030546 0.038448893
000180 4e ee 53 3d d3 aa 00 bb bc 8a 85 bd ce 4c d4 3b
       0.051740937 -0.001963307 -0.06520602 0.0064788824
000190 dc 1f 8f 3c a3 6a d2 3c fd 93 a3 3d 08 b1 c7 ba
       0.017471246 0.025685614 0.07987211 -0.0015235255
0001a0 74 28 27 3d 28 bf 55 bd 38 c6 56 bd c9 fa 72 bc
       0.040810063 -0.052184254 -0.05243513 -0.0148303
0001b0 3f 32 10 bb fb f3 2d bd b9 71 8e bc eb 59 b0 bb
       -0.0022002605 -0.042469006 -0.017388212 -0.005381813
0001c0 ec 34 5d 3c 7b 49 27 bd e1 70 ba 3c 80 31 1d bd
       0.013501387 -0.04084156 0.022758903 -0.038377285
0001d0 60 72 14 3d 71 2a cb bb ea 03 43 3c 1e c7 9a 3c
       0.03624189 -0.006200128 0.011902789 0.018893775
0001e0 3f d8 16 bc 4c db 93 bc d9 2c e8 3c 9f 3e 80 bc
       -0.0092068305 -0.018048905 0.028341698 -0.01565486
0001f0 64 92 7c bc a4 47 85 3d c1 3b 53 bd 62 45 01 3d
       -0.015415762 0.06507805 -0.051570658 0.03156031

actor.4.weight f4 [6, 128]
000000 fa 0b 07 3e 41 14 0d bd 39 35 8e bd 5a 40 27 bc
       0.13188162 -0.034443144 -0.06943745 -0.010208214
000010 6c 95 b6 bd 9a bf 22 bd 98 4e fd bd a3 58 55 3d
       -0.08915219 -0.039733507 -0.12368506 0.052086484
000020 c0 a2 e4 bb b6 5c 7d 3d 0f 42 e9 3c d7 a9 42 bd
       -0.006977409 0.061855994 0.028473882 -0.047525253
000030 de 71 87 bd be e0 dc bc 16 92 56 bd 83 20 26 3b
       -0.06613515 -0.026962634 -0.052385412 0.0025348968
000040 fe 5b 0c 3d 10 16 ed 3c e8 0a 8d bd 5d f8 9b 3d
       0.034267418 0.028941184 -0.06886846 0.07615731
000050 80 2b 53 3c cd 54 2a 3d c9 6c ab 3c 9b d7 0c bc
       0.012888789 0.04158478 0.020925896 -0.008596326
000060 62 0e 46 bc 28 09 90 3b c8 60 0b bd 82 6f ed bc
       -0.01208839 0.0043956228 -0.034027845 -0.028983835
000070 88 bd 9b 3d 34 e5 17 bd 66 d8 ff 3d 1f 0b 6a 3c
       0.076045096 -0.03708382 0.124924466 0.014284878
000080 22 90 e3 3b 95 b3 29 3c 41 a9 cd 3c ec 70 2c 3d
       0.006944672 0.010357757 0.02510512 0.04209988
000090 3b 98 6f 3c a8 10 00 be 84 e2 ba 3c 6a fd 42 bc
       0.014623697 -0.12506354 0.02281309 -0.011901239
0000a0 c0 4c 96 bc b3 c5 cb bc be df 62 bd 03 91 fd bc
       -0.018347144 -0.024874544 -0.05538916 -0.030952936
0000b0 47 42 34 3b d1 0c ae 3d 20 8f c3 3d e4 42 6a 3d
       0.0027505325 0.08498538 0.09548783 0.057192698
0000c0 59 5e b1 bc 76 a3 88 bd cf f8 7e bd 6a 3e eb 3c
       -0.021651434 -0.06671803 -0.062249 0.028716285
0000d0 0f 28 91 3c c2 95 81 3c b7 2c 0a be bd 56 2c 3d
       0.017719297 0.01581848 -0.1349362 0.042074908
0000e0 d2 e0 24 3b 5f 2c 95 3d e5 40 ef 3c 29 34 df 3c
       0.0025158417 0.07283854 0.029205749 0.027246552
0000f0 85 f1 a1 bc 65 96 38 bd 14 ce 9e 3c 7e f4 1e 3d
       -0.019768486 -0.045065302 0.019385375 0.038807385
000100 3a f9 32 be ab 04 de 3c de 90 0d 3e 55 3b 3a 3b
       -0.17477885 0.027101835 0.13824794 0.0028416712
000110 13 20 8e ba 53 41 2f bd 46 2f a7 bd 23 f7 9d bb
       -0.0010843299 -0.042786907 -0.081633136 -0.0048207208
000120 33 8a 97 bd 1f e4 dd 3d 0f 93 92 bd c7 6b 9b bc
       -0.07399406 0.10834526 -0.071569555 -0.01897229
000130 33 5c d7 3d 7f de 62 bd 0c ae a6 3b 91 fb 02 bd
       0.105156325 -0.05538797 0.005086666 -0.031978194
000140 1c 8e 2d bc 75 7f 88 3d 3d b7 5c bb 83 8a 64 bd
       -0.010592964 0.066649355 -0.0033678554 -0.055796158
000150 45 ea a3 bd 67 a0 1e bc a5 9f 24 3a 5c 59 3b 3d
       -0.08003668 -0.009681798 0.00062798924 0.045739517
000160 d9 b6 5e 3c c1 af 0a 3d 9e a8 8d bd 08 a9 87 bd
       0.013593399 0.03385902 -0.06916927 -0.06624037
000170 0c 4b a5 3a 31 62 cc 3d d1 9f 50 bd 26 93 e1 bd
       0.0012610867 0.09979666 -0.050933663 -0.110143945
000180 1e 85 8b 3d a6 fd b9 3d fb f1 83 bc a1 44 24 3d
       0.068124995 0.09081583 -0.016106596 0.040104512
000190 91 af cb bc 66 31 8a bd eb c9 98 bd 54 77 59 b8
       -0.02486399 -0.06747703 -0.07460388 -5.1847965e-05
0001a0 e9 57 e0 3d 05 20 12 3c fb c0 79 3d c1 b0 c8 3d
       0.109542675 0.008918767 0.060975056 0.09799338
0001b0 be 19 26 bd 4b 66 11 bb a2 67 67 bc 5a 33 46 bc
       -0.040551893 -0.0022186216 -0.014123829 -0.012097204
0001c0 84 65 85 bd 7a 58 e9 3c 37 99 27 bd 57 aa 45 3c
       -0.06513503 0.028484572 -0.0409176 0.012064538
0001d0 70 c7 af 3b 20 48 8e bb 21 9b a0 3b 12 84 e9 ba
       0.005364351 -0.004342094 0.0049013053 -0.0017815849
0001e0 e6 14 34 3d df 12 9c 3d 32 e3 82 ba f1 76 58 3c
       0.043965243 0.07620787 -0.0009985922 0.013211952
0001f0 c6 b2 47 3b f8 3c 18 bd 7c 73 9a 3d 7d 89 d3 3c
       0.0030471548 -0.03716752 0.07541558 0.025822395
000200 bd 9a 54 3d d4 64 2d 3d 1d 56 80 b9 2f 08 7f 3d
       0.051905382 0.042332485 -0.00024478222 0.062263664
000210 d1 2d 0e bd 15 73 e3 3c 2a b3 c7 3b 67 16 ff 3c
       -0.034711663 0.027764836 0.006094356 0.031138612
000220 a9 c9 d2 3c f2 d2 53 3c 96 7b e5 3b 4a 6f 7b bc
       0.025730925 0.012928711 0.007003258 -0.015346358
000230 ba 60 2c bd 9c 30 89 3d 77 a8 30 bc b5 db 7d bc
       -0.042084433 0.06698725 -0.010782353 -0.015494277
000240 a6 36 b9 3b 54 27 a8 bc 7b e7 47 bd ba 48 2b 3c
       0.0056522666 -0.020526566 -0.04880474 0.010454351
000250 9a 2e 10 bd fd 16 a9 bc 60 73 f9 ba f1 10 89 3d
       -0.035200693 -0.020640844 -0.0019031577 0.066926844
000260 8f 3d 97 3c 4f 26 55 bc ee 15 0d bd 2e 45 32 3c
       0.01846197 -0.013009622 -0.034444742 0.010880752
000270 15 b5 89 3d 3f 6b 1f 3d 54 99 c7 3d 7c b4 39 bc
       0.06723992 0.038920637 0.09746042 -0.011334535
000280 0e 21 26 bc 2d e2 81 bc ec 7c 13 3d cb 79 98 3b
       -0.010139717 -0.01585492 0.036007807 0.0046531907
000290 96 fc c7 bc 9f b3 13 3c f0 9c 51 bd 0b f1 0d 3c
       -0.024412435 0.009014993 -0.051175058 0.008663426
0002a0 ad aa 15 3d d0 41 0a bd 66 d0 81 bc 8e f3 fa ba
       0.036539722 -0.03375417 -0.015846442 -0.0019146071
0002b0 56 bc b9 bc 24 61 1d 3c e0 a3 9b bd c3 45 31 3d
       -0.022672813 0.00960568 -0.07599616 0.04327942
0002c0 74 66 ae 3b 25 b9 33 bd 2a 65 28 3d fa f3 ff 3c
       0.005322272 -0.04387774 0.041112103 0.031244267
0002d0 99 cb 1c bd db cb 65 3c 69 bd f0 bb f0 04 16 3c
       -0.038280103 0.014025654 -0.007346798 0.009156451
0002e0 1a e9 25 3d 90 a1 92 bc 5a df 43 3c b9 1d 39 3c
       0.040505506 -0.017899305 0.011955107 0.01129859
0002f0 69 83 64 bd 7d 43 9b 3d 60 5f 7b 3a 2a c6 3d 3d
       -0.055789385 0.07581232 0.0009589102 0.046331562
000300 7f c9 e7 bc 67 2b 41 3b d2 a8 74 3d aa f2 a5 3c
       -0.028294323 0.0029475333 0.059731312 0.020257313
000310 03 5e f8 bc fe 09 89 bd f5 f3 02 3d 06 54 cf bc
       -0.030318266 -0.06691359 0.031970937 -0.02530862
000320 f5 1f b4 bc dc 13 d2 3c a2 51 2e 3d 51 f4 e2 3c
       -0.021987895 0.025644235 0.04255832 0.02770439
000330 5d fe 0b bd 2f 3f 16 bd 62 84 93 bb 84 06 22 bb
       -0.034178127 -0.03668135 -0.0045018652 -0.0024723122
000340 f6 e6 dc bd 5e b5 be bc f7 b4 de bc bc 5a 57 bd
       -0.1078624 -0.023279842 -0.0271859 -0.052576765
000350 1b ad 4c 3d bc 24 0d bb bc c7 94 bc 27 cf ea 3c
       0.049969774 -0.0021536788 -0.018161647 0.028663231
000360 75 03 8b 3d ea ca 9e bc 4e ff dd bb 24 cc 07 3c
       0.06787769 -0.019383866 -0.0067748195 0.008288417
000370 a6 91 ab 3c 5a b3 ad 3c ad b6 20 bd aa 72 85 bd
       0.020943474 0.021203686 -0.039236713 -0.06516011
000380 c5 91 64 bc f3 9f ea bc b0 f9 d9 bc d5 5d 83 3d
       -0.01395077 -0.028640723 -0.026608318 0.064143814
000390 1f ed d9 3c f4 36 90 3d 5f 5d 89 3d b3 13 10 bd
       0.026602326 0.070417315 0.06707262 -0.035175037
0003a0 ea de 1b 3d bc 34 f1 bb 34 0c 38 bd 23 8b f3 3c
       0.038054384 -0.0073610228 -0.044933513 0.029729431
0003b0 ea bb 01 3d 95 11 2a 3d 80 46 8a bd 23 d5 c4 bc
       0.03167335 0.041520674 -0.06751728 -0.024027413
0003c0 a8 49 74 bd 58 5f 17 3d 13 49 b5 bd 70 5b a9 bc
       -0.059640557 0.03695616 -0.088518284 -0.020673484
0003d0 ea 7d 74 3c 6f 2c f1 3a 2a b2 0e 3b 64 23 3e 3b
       0.014922598 0.0018400083 0.0021773675 0.0029012794
0003e0 bd 07 88 3c e9 45 72 3c b8 ef d6 3b 4c 3f 0b 3b
       0.016605252 0.014787176 0.0065593384 0.0021247445
0003f0 4f fb 1b bd 8a a8 a6 3b 8d 81 99 3d 41 37 6e bb
       -0.038081463 0.0050860094 0.07495413 -0.0036348852

actor.4.bias f4 [6]
000000 c6 db 03 bd 87 2e 80 3d a9 47 65 bd 6c 82 24 bc
       -0.032192014 0.062588744 -0.055976544 -0.010040861
000010 7d 6c a8 3d 5d a3 9e b9
       0.082238175 -0.00030257824

critic.0.weight f4 [256, 12]
000000 a0 f2 28 3e 70 cb 71 3e b6 47 d9 3d 55 bc 15 bd
       0.16498804 0.23612761 0.10609381 -0.03655656
000010 99 d7 a3 bd 7d d5 5c 3d f1 f6 79 be 1f bc 10 bb
       -0.08000106 0.053914536 -0.24410607 -0.0022084785
000020 eb 18 4e 3d e4 8b 8a bf 86 bd 18 bd b9 c8 93 be
       0.050316732 -1.0823941 -0.03729012 -0.28864077
000030 ac a6 46 3e 6a 77 6f 3e 51 a4 95 3e 7f 98 0d 3d
       0.19399518 0.23385397 0.29226926 0.03456926
000040 a3 58 1b be 60 dc f3 3d 29 a1 fb 3d c1 89 0a be
       -0.15170531 0.119072676 0.12286598 -0.13529111
000050 6d c4 f9 bd 94 07 73 3f 41 30 85 3e 80 93 80 be
       -0.12195668 0.9493344 0.26013377 -0.25112534
000060 43 84 53 be df 89 e1 bd 4e a7 83 3d 85 54 d2 bc
       -0.20655923 -0.11012625 0.06428395 -0.025675068
000070 a1 e4 1b 3e 9e 11 c2 bd 31 7a 6a be da 10 25 3e
       0.15223934 -0.094760165 -0.22898175 0.1611971
000080 ad 81 36 3e cb 02 ac 3e a8 de 5f be 58 ad 99 3e
       0.17822905 0.3359588 -0.2186228 0.30015063
000090 3c 39 0b be f1 bf c2 3c 6e f7 af 3d c2 b2 1e be
       -0.13596052 0.023773165 0.08592115 -0.15497878
0000a0 95 ba 47 bd 84 9f dd 3d 7c a6 02 3d 42 28 05 bd
       -0.048761923 0.10821441 0.031897053 -0.032509096
0000b0 c6 59 2f 3e 52 b1 6b bf 3e e3 93 3e 32 a9 e1 3d
       0.1712409 -0.92067444 0.2888431 0.110185996
0000c0 57 24 10 3e a8 86 42 3d ec 0a b5 bd 31 c0 aa 3e
       0.14076363 0.0474917 -0.08839974 0.33349755
0000d0 30 e5 df bd 6b dd 44 be 75 1d 79 3e 62 d2 93 be
       -0.10932386 -0.19225089 0.24327643 -0.28871447
0000e0 fb 23 18 3d ac 55 13 3e 36 c2 ca 3d 7d 35 2d be
       0.03714369 0.1438815 0.09900324 -0.16914935
0000f0 42 76 e1 3d fe fe 81 3d 36 ad 3a 3e 59 f2 d7 3d
       0.11008884 0.06347464 0.18230137 0.10544271
000100 9a a8 9d bc 4d ee 46 3e de 7a 24 3e c1 14 95 be
       -0.019245435 0.19426842 0.16062495 -0.29117396
000110 dd d9 93 be cd 3a 2f 3f 7b 81 32 3e a5 08 17 3e
       -0.28877154 0.684491 0.17432205 0.14749391
000120 bf 0f b1 3c 82 c2 90 bd 40 4a 6f be 72 fc 5d 3d
       0.021613954 -0.070683494 -0.23368168 0.05419583
000130 60 93 83 be 2f 53 a6 be 37 13 ed 3c ef be 40 bd
       -0.25698376 -0.3248534 0.028939826 -0.04705709
000140 b7 2c 60 3e 3a 6d 18 bf 24 e2 e5 3e 00 fb f9 3d
       0.21892057 -0.59541667 0.44899094 0.122060776
000150 47 88 2a be 6e 69 5d be 53 e2 cd bc a6 ba b2 b9
       -0.16653548 -0.2162225 -0.025132334 -0.0003408987
000160 fe a9 db 3d 79 7d 37 bc 8b f9 a0 3e 87 ad 1a be
       0.10725783 -0.011199349 0.31440386 -0.15105258
000170 da 36 54 3b be 39 4b bf 38 1c c7 be 57 b0 30 be
       0.0032381327 -0.7938498 -0.38888717 -0.17254768
000180 b5 a6 9f be 92 6c b3 3d f2 22 dd bd bc 78 86 bd
       -0.31181875 0.087609425 -0.10797681 -0.06565997
000190 c2 c6 ce be bc 3f 60 be bd f0 cb bd 21 38 41 3d
       -0.40386015 -0.21899313 -0.099580266 0.04717267
0001a0 b7 03 23 be 3c cf 67 be b8 6d e2 3e fa 42 cc be
       -0.15919386 -0.22637647 0.44224334 -0.3989485
0001b0 10 b2 14 be 22 64 5c 3d 81 5b 65 3e db dd 09 be
       -0.1452105 0.05380643 0.22398187 -0.13463537
0001c0 3e 6a db 3d 34 95 32 3d bf 38 1f 3e 73 bb 98 3d
       0.107136235 0.043599322 0.1554899 0.07457628
0001d0 76 21 14 3b 6e 8d 47 bf 98 d3 92 3e 1e 56 61 3d
       0.0022602952 -0.7795018 0.28677058 0.05501377
0001e0 0a 4a cf 3d cb e6 4a 3b 25 f3 fa bc ec ce 03 3e
       0.10121544 0.0030960317 -0.030633518 0.12871903
0001f0 70 c5 29 be 3d f5 a3 bd 6d 0d ea 3d 55 15 55 be
       -0.16579223 -0.0800576 0.11428342 -0.20808919
000200 13 b0 62 3e 52 76 66 3f b9 7a b3 be 2f 19 a5 3e
       0.2213748 0.9002429 -0.35054567 0.32245776
000210 57 56 49 3e e7 b4 69 3d 2c f5 d8 bd 97 16 e6 bc
       0.19661842 0.057057288 -0.10593638 -0.028086944
000220 e0 92 ba 3d 45 17 5a be 51 17 45 be 6d 70 81 be
       0.091100454 -0.21297939 -0.19247176 -0.25281087
000230 e3 07 03 3e b4 43 33 3f 5d 19 95 3e 58 fd 1b 3e
       0.12795977 0.7002518 0.29120913 0.15233362
000240 7a f4 e1 bd a2 d1 23 ba cc f8 77 bb 55 a2 56 be
       -0.11032958 -0.0006249194 -0.0037837503 -0.20960362
000250 1a 52 c3 bc 3d ba 4c be 02 fe aa 3d 10 0b 64 3d
       -0.02384286 -0.1999292 0.083492294 0.055674613
000260 16 1f 4f ba 1a 71 37 bf 4a 73 18 be 51 fe 7b be
       -0.00079010555 -0.71656954 -0.1488773 -0.24608733
000270 d5 f8 01 bc 69 7d 11 3e 3d ea 5a bd 4b af 3a bd
       -0.007932861 0.14207996 -0.053446043 -0.04557733
000280 83 50 09 be 37 42 9f 3d 0b 26 d1 bd 5a 91 64 bd
       -0.13409619 0.07776301 -0.10212334 -0.05580268
000290 1a 50 b0 3c b7 73 52 3f 45 f5 aa 3d 9e eb f0 bd
       0.02152257 0.82207817 0.08347563 -0.117636904
0002a0 af 8a 81 3e cc 8e 0c 3e 39 38 e8 3c f3 dd 6f be
       0.2530112 0.13726348 0.028347122 -0.2342451
0002b0 90 27 67 bd 5f 8d 69 bc 7f fc 24 be ba fe 2f 3e
       -0.056434214 -0.014254897 -0.16111945 0.17187014
0002c0 13 0e 76 be 38 39 36 3f 5a c2 b7 3e 12 6f e4 bd
       -0.24028806 0.7118106 0.35890466 -0.111539975
0002d0 c4 c4 fa 3d ac 0b fd bc b4 75 f1 3d 07 8f 01 3e
       0.12244561 -0.030889355 0.11790028 0.12652217
0002e0 e6 7e b1 3d 03 f3 c5 bd 89 82 0c 3e 04 79 97 bd
       0.08666782 -0.096654914 0.1372167 -0.07396129
0002f0 93 a3 f9 3c 14 0c 5a 3f b3 48 77 bb 71 66 3d 3d
       0.030473506 0.8517468 -0.003773254 0.046240274
000300 00 4a af bb 55 eb 4b be 45 ba 9f 3d 50 5a 8e 3c
       -0.0053493977 -0.19913991 0.077992 0.017377049
000310 52 01 d3 3c 41 b3 02 3d d8 be ee 3d f8 5c 90 be
       0.025757466 0.03190923 0.11657494 -0.2819593
000320 6e bd 45 3c f1 7d 84 3f a6 53 95 be 8f 58 47 3e
       0.012069089 1.0350934 -0.2916538 0.19467376
000330 6e 75 35 be 1c 49 59 bb d0 11 ae bd 32 4f 19 3d
       -0.17720577 -0.003315515 -0.08499491 0.037429042
000340 36 f6 85 be 34 2c d9 bd 7a 56 84 3e 91 9a 7f 3e
       -0.26164407 -0.10604134 0.25847226 0.24961306
000350 ff f9 39 3d 31 d0 7b bf f9 db 8e be 97 f6 05 bc
       0.04540443 -0.9836455 -0.279022 -0.008176467
000360 90 d6 48 be 1b 0b 6f bd 61 59 06 be 3f 60 8e be
       -0.19613099 -0.0583602 -0.13120033 -0.27807805
000370 44 2b 85 3d b6 b0 b7 bd c9 37 1f 3e c9 b2 05 be
       0.06502393 -0.08969252 0.15548624 -0.13056482
000380 06 f4 fe bb 14 f2 52 bf 3b cb b0 be 4c 74 18 3d
       -0.0077805547 -0.8240063 -0.34530053 0.037220284
000390 8b a3 dd 3d 19 64 6b bd 18 46 44 bd 2c 25 96 3e
       0.10822209 -0.057468507 -0.04791841 0.29325235
0003a0 25 1c 26 3e e3 2c 51 3d 24 58 45 be 2f c1 2a bc
       0.16221674 0.051068198 -0.19271904 -0.010422035
0003b0 9a 48 05 be fe 1e 4e bf f9 9e 85 3e cf 84 e3 bd
       -0.13015977 -0.8051604 0.2609785 -0.111093156
0003c0 50 7c f2 3d f1 f2 c4 3d a8 b5 d3 3d f4 d0 01 3e
       0.11840117 0.0961665 0.103373826 0.12677366
0003d0 fb 46 02 be 03 29 09 be e0 2c 33 be 94 3b 90 bb
       -0.1272239 -0.13394551 -0.17497587 -0.0044016335
0003e0 2a 64 57 bd 06 64 d9 3e e9 44 ac 3e 4b ce b7 be
       -0.05258576 0.42459124 0.33646324 -0.35899577
0003f0 96 ab d5 3c 3c 23 0a bb b5 d7 98 3d 1a 50 6f bd
       0.026082795 -0.002107813 0.07463018 -0.058426

critic.0.bias f4 [256]
000000 f1 7e 81 be 79 f3 19 3e e9 7e a9 3d 64 b1 d3 3d
       -0.2529216 0.15034284 0.08276159 0.10336569
000010 c7 a3 61 3e 06 c8 76 be 38 1d e4 bd d4 11 90 3e
       0.22035132 -0.2409974 -0.111383855 0.28138602
000020 5b 51 3d 3d 13 73 59 3e 9d 03 0d be 9e ec 77 be
       0.046220165 0.21235304 -0.1377091 -0.24211356
000030 10 50 54 3e 21 9f 9b be 5d 20 8d be fa bc 0f bd
       0.20733666 -0.30394843 -0.27563754 -0.03509233
000040 86 54 99 3e dc b8 ba bd f0 a6 4e bd d0 48 0d 3d
       0.299473 -0.091172904 -0.050452173 0.034493268
000050 8b 92 b0 be a6 2a 72 3e 7b 4c c5 3d 0b e0 09 3e
       -0.34486803 0.23649082 0.09633728 0.13464372
000060 40 f7 aa be a1 50 fa bc a0 54 57 3e d0 8f ba 3d
       -0.33391762 -0.030556025 0.21028376 0.09109461
000070 59 a1 08 be 97 c8 6b bd 44 6b f8 3d 7f 6a 15 be
       -0.13342799 -0.057564344 0.12129834 -0.14591406
000080 b6 55 89 3e 9c 54 99 be e5 dd 44 bd eb 3b 97 3e
       0.26823205 -0.29947364 -0.048063178 0.295379
000090 fb ff a0 bd bf 8c 50 be 10 92 9c 3e c2 87 f3 bd
       -0.078613244 -0.2036619 0.30580187 -0.11891128
0000a0 e0 40 c9 bc ef 30 3f be 4c 90 b8 3e e8 96 1e be
       -0.024567068 -0.1867101 0.3604759 -0.15487254
0000b0 e4 a0 7b be 3e b5 96 3e ff 0c a1 be 2f c0 f7 bd
       -0.24573094 0.29435152 -0.31455228 -0.12097203
0000c0 5e 69 f8 3d dc cc 7c be 63 0e 76 3b ca bf 7b 3e
       0.12129472 -0.24687523 0.0037545196 0.2458488
0000d0 28 66 4d be 61 a7 9d be e2 80 ae be 88 2f ca 3d
       -0.20058501 -0.30791762 -0.34082705 0.09872347
0000e0 5f 28 e0 bc 1f 8a a3 3e 35 1d 3c 3e 0a ab 00 bd
       -0.027363 0.31941316 0.18370517 -0.031413116
0000f0 84 32 28 3e 8b ab 43 3e da 53 31 be f6 89 36 3e
       0.1642552 0.19108407 -0.17317143 0.17826065
000100 c0 4a 68 3e 3b 8d eb bd 6a 3b 86 3e 55 e3 a4 be
       0.22684765 -0.11501547 0.26217204 -0.3220469
000110 b7 fb ec 3d 37 e3 78 3d 6d 21 96 3e da c2 9f be
       0.11571448 0.060763564 0.29322377 -0.31203347
000120 ec d1 bb be a1 6f 63 bc e5 cd 8b 3e 30 51 aa bd
       -0.36683595 -0.013881595 0.27305523 -0.083162665
000130 84 ee 34 be 38 5f d8 bd 8b 4c 88 bd 35 e8 92 bc
       -0.17669111 -0.105650365 -0.066552244 -0.01793299
000140 03 52 3b 3e b7 3c ea 3d 42 66 83 be 64 dc 9c be
       0.18293004 0.11437362 -0.25663954 -0.30636895
000150 d4 e3 76 be 37 0a 7f 3e 7e b8 3a be 25 d4 37 3e
       -0.24110347 0.2490624 -0.1823444 0.1795202
000160 98 c9 1b be f7 5d d9 3d cf 16 34 3c 70 e5 79 3e
       -0.1521362 0.106136255 0.010991766 0.2440393
000170 ec 6b 1c 3b d8 c7 7d 3d 79 e8 34 3d 29 8b c0 3c
       0.0023868037 0.061958164 0.044167016 0.023503857
000180 1f 86 96 3e d6 0a 39 be 0e ca 03 be d7 30 60 be
       0.293992 -0.1807054 -0.12870046 -0.21893631
000190 97 6b 74 be d7 a1 12 3e b5 cf 4d be 71 61 9f 3c
       -0.23869167 0.1431955 -0.20098765 0.019455643
0001a0 2c a5 1c be 68 31 20 3e 8d 6f 53 be 1e 7b 57 3d
       -0.15297383 0.15643847 -0.20648022 0.052607648
0001b0 3c 7c b2 bd ef 4f b3 3e ba 2e a8 3d 4c bb 3e be
       -0.08715102 0.35021922 0.082120374 -0.18626136
0001c0 ff 30 a8 3e 6f cc 09 be 12 36 81 3d 1c fe 72 3e
       0.3284988 -0.13456891 0.06309141 0.23729748
0001d0 33 75 60 3e 8e 0a a6 3d 3d ba 30 be 72 fe 1e 3d
       0.21919708 0.08107482 -0.17258544 0.038816877
0001e0 46 79 38 be 62 04 bf 3d 64 af b1 bc b4 d3 6d bd
       -0.18015012 0.09327008 -0.021690078 -0.058063224
0001f0 d6 7b 94 be 96 3a f7 3d da 50 17 3e 56 68 62 3e
       -0.2900073 0.12071721 0.14776936 0.22110114
000200 8e 9b 79 3e a2 45 79 3d 1c 3f 18 bd 69 a8 ac bd
       0.24375746 0.060857423 -0.03716956 -0.08430559
000210 89 04 6a be 75 90 fe 3c a8 a9 e6 bd f3 2f a0 3d
       -0.22853293 0.031074742 -0.11262828 0.078216456
000220 24 7d 23 be a4 d3 4e 3e a5 83 4e be 82 0d 31 3e
       -0.15965706 0.20197922 -0.20167406 0.17290309
000230 c3 b7 6d 3d 07 8e 79 be 29 38 09 3e ff 2c 2b be
       0.058036577 -0.24370585 0.1340033 -0.16716383
000240 da 3d 1b 3e c0 3e 50 3e f6 e5 5a 3e 57 29 33 be
       0.15160313 0.20336437 0.21376786 -0.17496239
000250 41 7d 6d 3e 40 0d 04 3c 1a 1c 35 3e cd da 06 be
       0.23192312 0.0080598 0.17686501 -0.13169403
000260 c3 61 5d be c6 d3 48 3e 8d 7b 07 be da 77 c4 bd
       -0.21619324 0.19612035 -0.13230725 -0.09593172
000270 b9 36 07 3e df a7 46 be 9e 91 c4 bd 73 64 71 3e
       0.13204469 -0.19399975 -0.09598087 0.23573475
000280 cf 6e 6b 3e cd 20 82 3e 47 e7 3c 3d 31 32 c2 bd
       0.22991489 0.2541565 0.046119 -0.094822295
000290 9e c2 3d be 70 32 7b 3e aa c8 17 be 4b a2 4d 3d
       -0.18531272 0.24530959 -0.14822641 0.050203603
0002a0 31 1a 2b 3e d5 6c 53 3e d6 a2 aa be 74 4e 12 3e
       0.1670921 0.20646985 -0.3332736 0.1428774
0002b0 7f c2 82 3d 8e 2b 92 3d c7 7d 80 be 57 72 05 be
       0.063847534 0.07137214 -0.2509596 -0.13031898
0002c0 d0 2a 55 3e da 89 1f 3e 53 35 49 bd db 6a da 3d
       0.20817113 0.1557993 -0.04912312 0.10664912
0002d0 93 f2 09 3c b8 83 a7 3d 90 f1 4e bd db 5c 2d be
       0.008419651 0.0817942 -0.05052334 -0.16929953
0002e0 91 0f 83 3d c2 34 99 be 02 76 6c 3e 4f 08 31 3e
       0.063994534 -0.29923064 0.23091891 0.17288326
0002f0 f4 75 02 bd bd 79 88 3d 98 c5 b9 3d 82 38 71 3e
       -0.03185077 0.06663845 0.09070891 0.23556712
000300 1a a0 92 be 88 3e 8c 3e eb e2 7b be d6 ee c2 bd
       -0.28637773 0.27391458 -0.24598281 -0.095182106
000310 8c 3f 5b 3e e0 b7 bc 3c 9c 98 56 3e 3f 63 a1 bd
       0.2141096 0.023036897 0.20956653 -0.07880258
000320 f9 33 06 3e 32 e8 fd bc bf da ce 3d df f1 a5 be
       0.13105763 -0.030994508 0.10100316 -0.32411095
000330 df e1 14 be 6c 5a 84 bd 54 e0 0a 3e 7c d5 72 3e
       -0.14539288 -0.06462559 0.13562137 0.2371425
000340 25 f0 db bd bd df 19 be c5 43 8a be d8 3f 0b 3c
       -0.10739163 -0.15026756 -0.2700483 0.008499108
000350 73 14 6b bd dd d9 b6 3d ec b5 52 be 41 28 32 3d
       -0.05739255 0.08928273 -0.2057721 0.04349542
000360 0b 64 7c bd 71 f3 41 bd d2 9f 28 be d4 f1 4e 3e
       -0.061618846 -0.047351304 -0.16467217 0.20209438
000370 53 c1 f7 bd c9 b8 1d 3e 6b 7d 29 be 3c 63 91 3d
       -0.120974205 0.15402521 -0.1655175 0.070990056
000380 b1 8b 82 3c f9 de 83 be 90 1d c0 3b be ab 36 3e
       0.01593575 -0.25756052 0.005862899 0.17838952
000390 53 22 52 be 32 07 db bd ac 2b c9 3d 91 f8 3c be
       -0.20520906 -0.10694732 0.09822783 -0.18454196
0003a0 01 98 f0 3c 4f ee ae 3d 26 20 84 3d 9e 27 39 3e
       0.029369356 0.085415475 0.06451444 0.18081519
0003b0 3b af 45 3e 81 45 3b be 8c 20 8e 3e a7 44 79 3d
       0.19305126 -0.18288232 0.27759206 0.060856488
0003c0 94 97 1d be f3 28 7d 3d a7 c2 fe 3d df d4 72 3e
       -0.15389854 0.06180663 0.12439471 0.23714016
0003d0 50 c9 5e 3c c4 39 24 3e e0 03 e5 bd ef 2d 58 3e
       0.013597801 0.16037661 -0.1118238 0.21111272
0003e0 62 9d 5e 3e a9 04 80 be 19 b3 7c 3e fc d0 c3 3d
       0.21739724 -0.25003555 0.24677695 0.09561345
0003f0 92 d0 f1 3c f1 c9 09 bd 6a 97 10 be 43 ec 02 bd
       0.0295184 -0.033639852 -0.1412026 -0.031963598
