policy/PPO/checkpoints/2025-11-12_10-50/ppo_soarm_6000.pth (torch, 895437 bytes, 33 tensors)

actor.0.weight f4 [256, 12]
-0.102675185 -0.098455586 0.16174968 0.28755596 -0.05696975 0.1057715 -0.0053722584 0.03460461
-0.018691106 -0.3698776 -0.34140715 0.25129643 0.26587206 0.0909909 0.12183214 0.032319654
0.115267746 0.033072554 0.03324774 -0.014393978 -0.009020488 0.31812894 0.028145833 0.1491984
-0.22447133 0.06551564 -0.025052859 0.036206234 0.098888345 0.09850673 0.08347408 -0.11091289
-0.2463084 -0.16749379 0.07328012 -0.32555175 0.19133903 -0.026458614 0.08570115 -0.14166997
-0.1563816 0.09595687 0.20518051 0.12046824 0.081090726 -0.05651229 0.0056644003 0.07601664
-0.16507404 0.007660658 0.045675352 -0.19309242 0.24673936 0.073679924 0.30096143 0.18854761
0.0013447268 -0.13539456 0.11948027 -0.25818548 -0.06316511 0.08160788 -0.045870733 -0.23296964
0.1308848 -0.073395066 -0.0022971018 0.1512073 0.028917467 0.3840275 0.13285173 -0.004345665
-0.044045564 -0.0722066 -0.03411245 0.24046968 0.06681765 0.2845701 0.24226801 0.005095039
-0.10244686 -0.29531348 -0.19201094 0.19966145 0.2917846 -0.045592405 -0.055259142 0.07150815
-0.28076145 -0.124895506 -0.1982538 0.29653394 -0.27460274 -0.18082161 -0.08179258 0.22034974
-0.08654761 0.17600434 -0.08376921 -0.18246087 -0.09376489 -0.0033543373 0.163799 -0.1961368
-0.28900534 -0.27240518 0.20790076 0.07441101 -0.14462611 0.074757166 0.18524328 0.02734577
-0.3594892 -0.24796778 0.3200638 -0.010087539 0.00011982767 0.22929025 -0.092241324 -0.11006875
-0.10718863 0.032581326 -0.1479288 -0.2383355 0.08915046 0.2099282 -0.10542636 -0.06541425
-0.35597044 0.3085075 0.2904106 -0.10260384 0.23626159 0.045233853 0.018743195 0.22133273
-0.14267907 0.07860966 -0.20520005 -0.08135438 -0.03276095 -0.38602638 -0.1626373 0.13266116
-0.22905971 -0.26636568 -0.1545977 -0.048765354 -0.078340724 0.094541766 0.0026318342 0.081735656
0.014498482 0.13083027 -0.29173547 -0.13934271 0.2414725 -0.022730911 -0.102973804 0.21373847
-0.15407981 -0.06017319 0.2205061 -0.17036991 -0.17313431 -0.4243914 0.102629885 -0.29534724
-0.13741255 -0.03667054 -0.022716438 0.18140274 0.2258696 -0.058772553 -0.02414335 0.06367273
-0.30460492 0.1063855 0.3707463 -0.16888562 -0.099925555 -0.13438587 -0.21093118 -0.014363601
-0.2955586 0.09747657 -0.33104423 0.008058211 -0.22124647 0.35753202 0.12548102 -0.27622563
0.1633028 0.005455563 -0.007525835 -0.05809397 -0.089832745 0.035267413 0.2981712 0.04881406
0.26390162 0.42049387 -0.024285883 0.1867071 0.12791087 0.15159094 0.06095035 0.06266237
-0.026894262 -0.103233434 0.13433385 -0.16788656 -0.27342907 -0.13247547 0.031153107 -0.22909458
-0.1781431 -0.08663633 -0.12598789 0.16601802 0.16895987 -0.055351205 0.053196568 0.10681306
-0.16750656 0.26778826 -0.21199529 0.304273 0.20355827 -0.10073379 0.1480559 -0.08282316
-0.046644248 -0.20911524 0.23188412 0.040325053 0.305719 0.35586014 -0.18330815 0.3951397
-0.031148646 0.0018418451 0.18631326 -0.21176314 0.17330775 -0.06866999 0.0008973967 0.13090432
-0.15183584 0.509985 -0.37129843 -0.15957072 -0.2579625 -0.11640178 -0.15392436 -0.12061134
00000000: 5e47 d2bd 15a3 c9bd b5a1 253e 893a 933e
00000010: 1d59 69bd ba9e d83d c509 b0bb 90bd 0d3d
00000020: 171e 99bc 9960 bdbe ebcc aebe eda9 803e
00000030: 6220 883e 7059 ba3d 2183 f93d 9d61 043d
00000040: 7f11 ec3d 1677 073d c82e 083d b8d4 6bbc
00000050: abca 13bc cce1 a23e 1792 e63c 77c7 183e
00000060: d0db 65be 102d 863d a73b cdbc fd4c 143d
00000070: f985 ca3d e5bd c93d 75f4 aa3d 4c26 e3bd
00000080: 4538 7cbe 7e83 2bbe e313 963d b8ae a6be
00000090: 61ee 433e bcbf d8bc 1684 af3d ef11 11be
000000a0: 8022 20be 0985 c43d d71a 523e 0db8 f63d
000000b0: e512 a63d 6e79 67bd 6f9c b93b 9dae 9b3d
000000c0: 2b09 29be 4206 fb3b 1416 3b3d 05ba 45be
000000d0: 3ea9 7c3e 80e5 963d 9e17 9a3e a012 413e
000000e0: 8b41 b03a dfa4 0abe 12b2 f43d e330 84be
000000f0: b65c 81bd 0822 a73d f3e2 3bbd 988f 6ebe
00000100: aa06 063e 2750 96bd f98a 16bb 16d6 1a3e
00000110: 53e4 ec3c 419f c43e 490a 083e 1566 8ebb
00000120: 1f69 34bd 0ee1 93bd 7fb9 0bbd af3d 763e
00000130: b1d7 883d 2cb3 913e 1b15 783e 49f4 a63b
00000140: a9cf d1bd 5433 97be 849e 44be 0d74 4c3e
00000150: cb64 953e 1abf 3abd 6957 62bd dd72 923d
00000160: f7bf 8fbe 37c9 ffbd 0b03 4bbe 4cd3 973e
00000170: bb98 8cbe 4d29 39be de82 a7bd 5da3 613e
00000180: e03f b1bd 7b3a 343e 318f abbd 06d7 3abe
00000190: cf07 c0bd 71d4 5bbb edba 273e 16d8 48be
000001a0: 82f8 93be b178 8bbe f0e3 543e cd64 983d
000001b0: de18 14be 491a 993d 6ab0 3d3e 3c04 e03c
000001c0: f80e b8be 44eb 7dbe 67df a33e 3546 25bc
000001d0: fe4b fb38 10cb 6a3e 05e9 bcbd ba6b e1bd
000001e0: b685 dbbd ff73 053d a67a 17be 390e 74be
000001f0: 8494 b63d 6bf7 563e c7e9 d7bd e8f7 85bd
00000200: c241 b6be b2f4 9d3e b3b0 943e f621 d2bd
00000210: 8fee 713e 2247 393d 548b 993c 0ca5 623e
00000220: 761a 12be 1afe a03d f61f 52be 209d a6bd
00000230: 5930 06bd 40a5 c5be 648a 26be 54d8 073e
00000240: a18e 6abe 1561 88be dc4e 1ebe 2ebe 47bd
00000250: 1a71 a0bd 1d9f c13d da7a 2c3b 0665 a73d
00000260: 0b8b 6d3c 5ff8 053e 5a5e 95be dbaf 0ebe
00000270: 9144 773e 2d36 babc eee3 d2bd 42de 5a3e
00000280: 19c7 1dbe 2a78 76bd 5acc 613e 7375 2ebe
00000290: 1f4a 31be d449 d9be 9e2f d23d c137 97be
000002a0: e0b5 0cbe d933 16bd d317 babc a4c1 393e
000002b0: 5c4a 673e 7dbb 70bd 46c8 c5bc d966 823d
000002c0: 2df5 9bbe a4e0 d93d 76d2 bd3e 5af0 2cbe
000002d0: c5a5 ccbd 739c 09be 58fe 57be 4f55 6bbc
000002e0: 7553 97be cca1 c73d a17e a9be 9606 043c
000002f0: 6f8e 62be 700e b73e 197e 003e 726d 8dbe
00000300: d938 273e 94c4 b23b 489b f6bb f1f3 6dbd
00000310: 3bfa b7bd 9074 103d e5a9 983e 40f1 473d
00000320: 1d1e 873e f94a d73e 30f3 c6bc 2530 3f3e
00000330: 11fb 023e a83a 1b3e 13a7 793d 2155 803d
00000340: 5b51 dcbc 0d6c d3bd d08e 093e 74ea 2bbe
00000350: e5fe 8bbe a6a7 07be cd34 ff3c c597 6abe
00000360: 256b 36be 636e b1bd f802 01be a100 2a3e
00000370: d103 2d3e f2b7 62bd a5e4 593d cec0 da3d
00000380: d786 2bbe 8b1b 893e 4b15 59be acc9 9b3e
00000390: 9471 503e 844d cebd f79b 173e 309f a9bd
000003a0: 0a0e 3fbd 4e22 56be 0873 6d3e e22b 253d
000003b0: 3387 9c3e 4d33 b63e 22b5 3bbe c04f ca3e
000003c0: 722b ffbc 116a f13a e7c8 3e3e 70d8 58be
000003d0: 9677 313e daa2 8cbd 463f 6b3a c80b 063e
000003e0: db7a 1bbe 618e 023f d41a bebe 8266 23be
000003f0: a913 84be 0e64 eebd 599e 1dbe 1403 f7bd

actor.0.bias f4 [256]
0.11648202 0.047444034 -0.12465015 0.22451352 0.18057945 -0.073556125 -0.13717063 0.10863554
-0.2453855 0.21518132 0.079946496 -0.2173134 0.23237209 -0.044301625 0.13386014 0.08237766
-0.053351205 -0.14883801 -0.15968904 0.24143018 0.24247949 0.13814491 -0.21825098 0.122238494
-0.07668325 0.24447511 0.05292433 -0.10112179 -0.32816008 0.26018056 0.19475481 0.2080017
-0.29586846 -0.2127249 0.15770712 0.16409138 -0.07554922 0.035017774 -0.22185403 0.19997776
0.08821173 0.08852571 -0.16222307 0.25627556 -0.14472996 -0.044218425 -0.21753792 -0.14535162
0.2969664 0.10635224 0.058064558 0.19272129 -0.22761953 -0.019896474 -0.19952899 0.15467899
0.050900172 -0.022117736 0.07986593 -0.020447334 0.15996866 0.009973819 0.18589689 -0.056799058
-0.07789251 -0.19157487 0.09262184 0.0022034668 -0.21132608 0.13295893 0.3677457 -0.027490167
0.17091717 0.018647188 0.027461493 0.06535271 -0.04962704 0.1848174 -0.22635931 -0.18619534
-0.15469842 -0.23479062 -0.22248481 -0.15961584 -0.030058037 0.08213852 -0.022918018 -0.17832987
0.09772824 -0.2380572 -0.09327744 -0.10095785 -0.027401729 0.10048453 0.07486258 -0.18377689
0.15421663 0.02458963 -0.023319025 -0.058160946 -0.16416094 0.1356789 -0.08565335 0.32273927
0.016442074 0.060446028 0.04076455 -0.1459511 -0.34750333 -0.056646932 0.12905629 0.22595496
0.0738818 0.14015916 -0.057938565 0.03086381 -0.10371174 0.09901872 -0.12407491 -0.17977443
-0.082313515 0.029784095 -0.008368695 0.28240782 -0.061996568 -0.055204146 0.26061153 0.17004055
-0.0463544 0.051261175 0.13151039 -0.20208235 0.32728824 0.110124595 0.041999225 0.10518596
0.1451674 0.17468445 -0.043059893 0.058382552 0.15652876 -0.0014089298 0.025765847 -0.2264939
0.24477364 0.12514234 -0.17818977 0.089533344 0.013539917 -0.08497308 0.117579244 -0.2357206
0.2535953 -0.34187773 0.10065687 0.2341695 0.23178682 0.15447186 0.053932887 0.16925949
-0.058886327 -0.13089882 0.034209225 -0.11221474 0.21940346 -0.049460478 -0.16968249 0.1919603
0.14846413 0.1790052 0.18412794 0.1510487 -0.13636969 0.1578138 0.20217763 -0.23936272
-0.12292559 -0.039463542 0.3280033 -0.16861857 -0.033560727 0.05950797 -0.0041797073 -0.31892046
-0.11689212 -0.04044966 0.11317028 -0.057357877 -0.20230913 0.20419227 -0.22898284 -0.066447996
0.050209533 0.033131503 0.17356393 0.25381473 -0.0642633 -0.15917517 -0.04869948 -0.19914831
0.1872062 0.06302977 0.1739216 -0.1297878 0.0040133945 0.0036113418 0.07317454 -0.007813856
0.07365533 -0.011141764 0.048353508 0.034074068 0.01384867 0.07194902 0.14922218 0.18269031
-0.25644824 -0.14160074 -0.22178923 -0.3318404 -0.12780504 0.0004525118 -0.23817049 0.1434401
-0.0025018058 -0.16099453 -0.26948762 -0.017513761 0.15124688 -0.027981132 0.10379435 -0.10165048
-0.014708012 -0.033691216 0.04677339 0.04703317 0.083852015 0.09108481 0.10252532 0.10665196
0.12831746 -0.022977429 0.27299955 -0.10037222 0.04871654 -0.17188133 -0.018479057 -0.02635776
0.25774422 0.07809922 -0.30022198 0.14167726 -0.07437288 0.108972885 -0.13137399 0.19937736
00000000: 208e ee3d ad54 423d 9448 ffbd dfe6 653e
00000010: d2e9 383e 98a4 96bd 7576 0cbe 4f7c de3d
00000020: 5646 7bbe 7e58 5c3e fdba a33d 6787 5ebe
00000030: f3f2 6d3e 9f75 35bd a212 093e 9eb5 a83d
00000040: cb86 5abd fe68 18be 8685 23be 7939 773e
00000050: 8b4c 783e dc75 0d3e 2f7d 5fbe 2d58 fa3d
00000060: 1c0c 9dbd af57 7a3e 2fc7 583d f118 cfbd
00000070: 9904 a8be 6336 853e ce6d 473e 66fe 543e
00000080: 127c 97be 8ed4 59be fa7d 213e 9207 283e
00000090: 8db9 9abd cc6e 0f3d b42d 63be f8c6 4c3e
000000a0: 5aa8 b43d f84c b53d ce1d 26be 8d36 833e
000000b0: 1734 14be 611e 35bd 43c2 5ebe 0ed7 14be
000000c0: fb0b 983e 34cf d93d 1ad5 6d3d bb58 453e
000000d0: 1815 69be eefd a2bc 5451 4cbe 2b64 1e3e
000000e0: b37c 503d 4130 b5bc c090 a33d 2b81 a7bc
000000f0: d3ce 233e 3b69 233c c15b 3e3e 21a6 68bd
00000100: 1c86 9fbd 342c 44be 85b0 bd3d 0a68 103b
00000110: dd65 58be 6326 083e 2a49 bc3e 0f33 e1bc
00000120: e904 2f3e fdc1 983c edf6 e03c a4d7 853d
00000130: b945 4bbd c640 3d3e bcca 67be fea9 3ebe
00000140: 4369 1ebe f46c 70be 0fd3 63be 5672 23be
00000150: 463c f6bc 3e38 a83d 91be bbbc 1b9c 36be
00000160: be25 c83d 44c5 73be 3e08 bfbd fdc2 cebd
00000170: 9779 e0bc d5ca cd3d 8d51 993d 0230 3cbe
00000180: f7ea 1d3e 3170 c93c 8a07 bfbc 2c3a 6ebd
00000190: ce19 28be 69ef 0a3e 066b afbd 153e a53e
000001a0: 87b1 863c 4196 773d bbf8 263d 3574 15be
000001b0: f5eb b1be 9d06 68bd 5527 043e bd60 673e
000001c0: 574f 973d e285 0f3e fd50 6dbd 1ad6 fc3c
000001d0: d266 d4bd 54ca ca3d fd1a febd ca16 38be
000001e0: fd93 a8bd c6fd f33c da1c 09bc c297 903e
000001f0: 1df0 7dbd be1d 62bd e06e 853e 1c1f 2e3e
00000200: 1dde 3dbd 3df7 513d a9aa 063e adee 4ebe
00000210: 5392 a73e 0189 e13d 6107 2c3d bd6b d73d
00000220: c3a6 143e 7be0 323e 925f 30bd 8b22 6f3d
00000230: 1349 203e d7ab b8ba e612 d33c 04ee 67be
00000240: f1a5 7a3e 5025 003e 6177 36be 425d b73d
00000250: 87d6 5d3c 5e06 aebd 63cd f03d be60 71be
00000260: 3ed7 813e 990a afbe 3025 ce3d 21ca 6f3e
00000270: 8659 6d3e df2d 1e3e bbe8 5c3d 5c52 2d3e
00000280: ca32 71bd 570a 06be f91e 0c3d d7d0 e5bd
00000290: 4dab 603e 1297 4abd 3fc1 2dbe 3e91 443e
000002a0: fb06 183e 244d 373e 098c 3c3e 83ac 1a3e
000002b0: 7fa4 0bbe f199 213e a707 4f3e 801b 75be
000002c0: 69c0 fbbd 86a4 21bd 0cf0 a73e 59aa 2cbe
000002d0: f976 09bd a1be 733d edf5 88bb 8b49 a3be
000002e0: 2365 efbd 8bae 25bd d2c5 e73d 18f0 6abd
000002f0: 202a 4fbe c717 513e 7a7a 6abe e315 88bd
00000300: 83a8 4d3d e6b4 073d beba 313e 01f4 813e
00000310: 7a9c 83bd d1fe 22be 1b79 47bd 89ed 4bbe
00000320: fbb2 3f3e c115 813d 8118 323e 18e7 04be
00000330: cb82 833b 43ac 6c3b 89dc 953d b005 00bc
00000340: 9bd8 963d f28b 36bc 540e 463d 4091 0b3d
00000350: 88e5 623c 025a 933d b3cd 183e 2b13 3b3e
00000360: 2f4d 83be c9ff 10be b71c 63be fce6 a9be
00000370: 53df 02be 1b3f ed39 f7e2 73be f6e1 123e
00000380: 56f5 23bb c0db 24be 48fa 89be 0579 8fbc
00000390: 76e0 1a3e b038 e5bc 2292 d43d 202e d0bd
000003a0: e0f9 70bc cdff 09bd 7495 3f3d daa5 403d
000003b0: 9bba ab3d ac8a ba3d ccf8 d13d 586c da3d
000003c0: a765 033e 293b bcbc 99c6 8b3e f38f cdbd
000003d0: ff8a 473d a901 30be 6461 97bc 3bec d7bc
000003e0: 0df7 833e 7cf2 9f3d b2b6 99be d813 113e
000003f0: cf50 98bd 2d2d df3d e786 06be 9429 4c3e

actor.2.weight f4 [128, 256]
-0.06891023 0.0200211 -0.008886783 0.03875762 -0.05035321 0.17761801 -0.050632976 -0.039004635
-0.046688918 -0.058817416 0.05061042 -0.11264103 0.055580836 -0.08060504 0.047976922 0.12826109
0.10232996 -0.10337449 0.028631464 -0.049871597 0.067359045 -0.005122919 0.005712388 0.09679219
-0.07907764 -0.03677012 0.083597764 0.042031627 0.080562286 -0.05011648 0.061452612 0.021966152
0.005022065 0.06358774 -0.014015128 0.07684322 0.035029538 -0.014980511 -0.046304096 0.012314825
0.04940713 0.030101394 0.27490714 0.0048687635 0.0052430653 0.045885388 -0.08457426 -0.072035134
0.022757849 -0.038719464 -0.06996985 -0.0017179487 -0.14212862 0.039808437 0.07947118 0.018371278
-0.03890084 -0.011047127 0.12624541 -0.028890999 0.28307062 -0.016961666 0.06936236 0.021603122
0.0108590815 -0.048485078 -0.03795682 0.054467183 0.034546524 0.01770511 0.038374666 0.0102223735
0.028310653 0.019385273 0.07875226 0.02157098 0.12043981 -0.039616108 0.002207308 0.19632557
0.048147902 -0.028682634 0.12558477 0.04588001 0.016981708 -0.028087312 -0.1338222 -0.009420439
-0.1290587 -0.005971203 0.073115945 0.10848148 0.03373116 -0.022228634 0.04618757 -0.006576021
0.012095271 0.046308298 0.07367907 0.027256165 -0.0089673195 -0.044486526 -0.047004968 0.0462141
-0.0532813 -0.0294147 0.06117255 -0.1838293 -0.016907906 0.047650337 -0.05987623 0.03297634
0.0047673713 -0.12371519 0.06778337 -0.061152752 0.030282054 -0.041128647 -0.03408066 -0.064157665
-0.024278834 -0.04660984 -0.0086766565 0.006405766 -0.022120722 0.12527457 -0.0041962047 0.060609248
0.06053323 0.06457803 0.022207035 -0.002868799 -0.065211326 0.055768516 -0.018397504 -0.09884628
-0.08029275 0.026665134 0.02203946 -0.007888326 -0.004734876 -0.0057212235 0.033815455 0.08917063
0.051056895 -0.06785172 -0.025377959 -0.08724021 0.004950101 0.0009910564 -0.032677803 0.086668484
-0.02420479 -0.045066033 -0.07362796 -0.10661797 -0.051901687 -0.053998023 -0.004973819 0.11832893
-0.069844946 0.06639223 0.041149177 0.029669382 0.0009332043 0.031893622 -0.15424113 -0.08267191
0.04195868 -0.04632588 -0.038341798 -0.0104084555 0.012882283 -0.051756054 -0.02807474 -0.057220723
-0.018730633 0.0150055485 -0.06846268 0.0102112675 -0.0454112 0.034125037 -0.014684126 0.05785457
-0.07316332 -0.030944334 0.025485216 0.08453333 -0.07053457 0.027978737 0.008015254 0.010004395
-0.020969836 -0.028518956 0.031105235 -0.016731484 -0.117551334 0.00947677 0.010505653 0.0088537345
-0.08563414 -0.10136475 -0.021515185 -0.06845157 0.06338863 -0.063370734 -0.042432275 -0.07726932
-0.026745262 0.025449317 -0.02179654 -0.13452373 -0.052675884 0.039431717 -0.02042652 0.012130381
-0.1907628 0.05606948 -0.0068312325 0.029445501 -0.07256392 -0.0124552455 0.013874711 0.036925938
-0.012346387 -0.01171236 -0.08152635 -0.03151399 0.021422502 0.03792792 -0.024405379 -0.007999589
0.0026153785 -0.0767816 -0.038673904 0.0052296855 -0.09980695 0.046996918 -0.04184127 0.027282305
-0.19155908 -0.10627596 0.009571893 0.035024997 -0.01181775 -0.0097260745 -0.05650989 0.014050522
-0.058575597 -0.031177405 0.034260068 0.020018285 -0.037170853 0.042796023 0.052552417 0.0099279005
00000000: cf20 8dbd 4a03 a43c df99 11bc 4fc0 1e3d
00000010: 2b3f 4ebd 7fe1 353e 8664 4fbd 53c3 1fbd
00000020: e13c 3fbd 88ea 70bd df4c 4f3d 57b0 e6bd
00000030: bba8 633d 4114 a5bd 7383 443d e056 033e
00000040: 5f92 d13d 01b6 d3bd 888c ea3c 2946 4cbd
00000050: 8af3 893d 29de a7bb fc2e bb3b fc3a c63d
00000060: 75f3 a1bd 449c 16bd 4e35 ab3d 5b29 2c3d
00000070: d7fd a43d f046 4dbd bcb5 7b3d 5cf2 b33c
00000080: 2290 a43b 4a3a 823d b59f 65bc fa5f 9d3d
00000090: 227b 0f3d d170 75bc 5da9 3dbd 1fc4 493c
000000a0: 215f 4a3d 3397 f63c a1c0 8c3e 268a 9f3b
000000b0: 05ce ab3b 51f2 3b3d 4535 adbd 2887 93bd
000000c0: ab6e ba3c 4d98 1ebd 5a4c 8fbd cb2c e1ba
000000d0: 2a8a 11be 2c0e 233d c9c1 a23d 5d7f 963c
000000e0: 7d56 1fbd 02ff 34bc 7a46 013e d1ac ecbc
000000f0: a2ee 903e 31f3 8abc da0d 8e3d 08f9 b03c
00000100: 4aea 313c 4a98 46bd 9c78 1bbd fb18 5f3d
00000110: a880 0d3d 4f0a 913c c12e 1d3d be7b 273c
00000120: beeb e73c ddcd 9e3c dd48 a13d a0b5 b03c
00000130: 26a9 f63d 8044 22bd 7ca8 103b 9209 493e
00000140: bc36 453d d8f7 eabc 4b99 003e adec 3b3d
00000150: 391d 8b3c 5d17 e6bc b008 09be 2f58 1abc
00000160: f727 04be 15aa c3bb d0bd 953d 8a2b de3d
00000170: af29 0a3d d318 b6bc 2d2f 3d3d aa7b d7bb
00000180: 3e2b 463c c5ad 3d3d 0de5 963d 5248 df3c
00000190: aaeb 12bc 8137 36bd 4888 40bd ff4a 3d3d
000001a0: 7e3d 5abd 19f7 f0bc 1190 7a3d bf3d 3cbe
000001b0: 7382 8abc 002d 433d c740 75bd 3312 073d
000001c0: 9c37 9c3b 645e fdbd 02d2 8a3d 4f7b 7abd
000001d0: 1212 f83c 8376 28bd 2a98 0bbd 1865 83bd
000001e0: 68e4 c6bc f6e9 3ebd 8928 0ebc 76e7 d13b
000001f0: 8436 b5bc fa47 003e 5180 89bb 6741 783d
00000200: b1f1 773d 7c41 843d 87eb b53c 7602 3cbb
00000210: 848d 85bd 876d 643d 5db6 96bc eb6f cabd
00000220: 8670 a4bd d770 da3c 198c b43c 0a3e 01bc
00000230: 0527 9bbb 1a79 bbbb 1382 0a3d 179f b63d
00000240: 0921 513d d8f5 8abd 70e5 cfbc ffaa b2bd
00000250: 7534 a23b 56e6 813a 29d9 05bd 3f7f b13d
00000260: 2049 c6bc 2997 38bd 42ca 96bd 865a dabd
00000270: dd96 54bd 082d 5dbd 6bfb a2bb 7056 f23d
00000280: de0a 8fbd a6f8 873d 0a8c 283d 340d f33c
00000290: 48a2 743a e3a2 023d 63f1 1dbe e44f a9bd
000002a0: dddc 2b3d 35c0 3dbd 4a0c 1dbd 3a88 2abc
000002b0: 3610 533c 28fe 53bd fffc e5bc 4760 6abd
000002c0: fc70 99bc d5d9 753c 2936 8cbd 294d 273c
000002d0: 1801 3abd b2c6 0b3d b095 70bc eaf8 6c3d
000002e0: a7d6 95bd f97e fdbc 5fc6 d03c cf1f ad3d
000002f0: 6e74 90bd aa33 e53c 6952 033c 79e9 233c
00000300: efc8 abbc 96a0 e9bc 68d0 fe3c 7710 89bc
00000310: c1be f0bd 7444 1b3c e71f 2c3c 410f 113c
00000320: f460 afbd 5298 cfbd 9d40 b0bc 5630 8cbd
00000330: e6d1 813d 84c8 81bd 77cd 2dbd 613f 9ebd
00000340: e118 dbbc 167b d03c a88e b2bc 97c0 09be
00000350: abc2 57bd 2783 213d 8455 a7bc 81be 463c
00000360: 5357 43be 1ca9 653d 88d8 dfbb b137 f13c
00000370: 649c 94bd 1611 4cbc c152 633c a73f 173d
00000380: 8048 4abc 33e5 3fbc 49f7 a6bd d014 01bd
00000390: 3e7e af3c 4f5a 1b3d caed c7bc b510 03bc
000003a0: c566 2b3b ac3f 9dbd 8768 1ebd c85d ab3b
000003b0: 9667 ccbd d77f 403d c061 2bbd 247f df3c
000003c0: 1028 44be 36a7 d9bd 6ed3 1c3c 5f76 0f3d
000003d0: 3c9f 41bc 1d5a 1fbc ea76 67bd 2934 663c
000003e0: f7ec 6fbd c267 ffbc 4954 0c3d 63fd a33c
000003f0: 7740 18bd e24a 2f3d 3441 573d a2a8 223c

actor.2.bias f4 [128]
0.029020347 0.033194184 0.03944324 0.00940919 -0.043080177 -0.058885045 0.045308772 0.020118572
0.071288384 -0.00355273 -0.06189439 -0.035385795 -0.008149852 -0.042836923 0.025527287 -0.042265754
-0.04598938 0.019965086 0.062642574 0.056039065 0.011544159 0.056652896 0.017810706 -0.027908895
0.016090816 0.03393984 -0.014744414 0.052311487 -0.036519337 -0.021401536 0.03366198 -0.049811233
-0.041307036 -0.053965107 0.016455457 -0.009824074 0.015394012 0.04517285 -0.01358867 0.07045127
0.00047006967 -0.04027272 0.07012016 -0.047269247 -0.0064908667 0.024340022 -0.0149506405 -0.0467037
0.04398255 -0.008132579 0.036624525 -0.053522095 0.03822518 -0.0049978285 -0.026910234 0.05272737
0.06431285 -0.0054065133 -0.06404326 0.014155706 -0.07337841 -0.04402531 -0.039279055 -0.028709006
0.048245136 0.024905132 0.02061679 0.0074694674 -0.021871412 0.038613126 0.04310312 -0.052191712
-0.021800105 0.042345095 0.069329806 0.038111705 0.037571736 0.050869875 -0.0043834248 0.024414167
-0.04076243 -0.032862503 -0.040421113 0.030729681 -0.030784696 -0.05395885 -0.06134027 -0.02862855
0.060351428 0.02758442 0.06315166 -0.006864884 -0.0125370715 0.041728918 -0.024695735 0.033819612
0.065095864 -0.0032290928 -0.065533094 0.0046743886 0.018006183 0.028014466 0.08201245 -0.011075695
0.034566328 -0.059751157 -0.05365335 -0.009214881 -0.008194225 -0.054176483 -0.026035 0.0041062
0.01357101 -0.039538585 0.027920393 -0.029564548 0.033500865 0.002931697 0.022566667 0.028611552
0.002665062 -0.01731975 0.036998402 -0.019811634 -0.017603546 0.061167765 -0.047077086 0.032230645
00000000: 14bc ed3c a0f6 073d 3c8f 213d 0129 1a3c
00000010: d774 30bd 7231 71bd b195 393d b4cf a43c
00000020: a5ff 913d ebd4 68bb f984 7dbd b2f0 10bd
00000030: f586 05bc c575 2fbd 9a1e d13c db1e 2dbd
00000040: 5c5f 3cbd d28d a33c c04a 803d 3889 653d
00000050: b623 3d3c de0c 683d c2e7 913c 32a1 e4bc
00000060: e3d0 833c 8004 0b3d 8e92 71bc 9244 563d
00000070: 4d95 15bd 4652 afbc 25e1 093d dd06 4cbd
00000080: 9131 29bd 840a 5dbd 98cd 863c 27f5 20bc
00000090: 2b37 7c3c 2b07 393d 03a3 5ebc c148 903d
000000a0: af73 f639 02f5 24bd 299b 8f3d 669d 41bd
000000b0: 56b1 d4bb ba64 c73c 88f3 74bc 614c 3fbd
000000c0: 0c27 343d 823e 05bc 9903 163d fc39 5bbd
000000d0: 0292 1c3d d3c4 a3bb da72 dcbc a8f8 573d
000000e0: 75b6 833d 1f29 b1bb 1d29 83bd 56ed 673c
000000f0: 6b47 96bd e253 34bd 13e3 20bd 262f ebbc
00000100: b19c 453d d905 cc3c 8be4 a83c 6fc2 f43b
00000110: ad2b b3bc cc28 1e3d e68c 303d fac6 55bd
00000120: 2296 b2bc 0d72 2d3d c9fc 8d3d 051b 1c3d
00000130: d2e4 193d ee5c 503d d5a2 8fbb 3800 c83c
00000140: 81f6 26bd d59a 06bd 9c90 25bd d0bc fb3c
00000150: 3030 fcbc f503 5dbd ef3f 7bbd 6c86 eabc
00000160: 0f33 773d b9f8 e13c a855 813d d2f2 e0bb
00000170: 4a68 4dbc f1eb 2a3d b64e cabc 6f86 0a3d
00000180: fb50 853d 309f 53bb 3736 86bd 9d2b 993b
00000190: b481 933c 987e e53c 25f6 a73d d576 35bc
000001a0: 6c95 0d3d a1bd 74bd 9dc3 5bbd 03fa 16bc
000001b0: 1241 06bc 29e8 5dbd 5a47 d5bc 4d8d 863b
000001c0: f158 5e3c 36f3 21bd 4fb9 e43c 5a31 f2bc
000001d0: 3438 093d b721 403b bbdd b83c c662 ea3c
000001e0: 52a8 2e3b 26e2 8dbc a38b 173d 024c a2bc
000001f0: 5035 90bc 0d8b 7a3d e7d3 40bd 4804 043d

actor.4.weight f4 [6, 128]
0.12179735 -0.026070638 -0.0522561 -0.017018627 -0.08966438 -0.04228641 -0.118490495 0.04816481
0.002071239 0.060600393 0.015682733 -0.04412917 -0.07402518 -0.014542998 -0.0411985 -0.002111564
0.03488975 0.023345899 -0.049066376 0.07158826 0.013173419 0.041524187 0.019072065 -0.0055860896
-0.01617202 -0.020660771 -0.018225785 -0.026348714 0.07092228 -0.038474064 0.12107016 0.010716623
-0.0036018346 0.00033893125 0.0220341 0.038995042 0.03649478 -0.10673162 0.026001215 -0.007166097
-0.017406527 -0.021682698 -0.03583194 -0.047967114 0.012758489 0.08356514 0.09576167 0.052139774
-0.025826016 -0.067017145 -0.062412787 0.013546417 0.02965446 0.024841895 -0.10107291 0.046561632
0.007273497 0.057812195 0.023971973 0.031372182 -0.023270149 -0.02473183 0.024641965 0.021877402
-0.1556988 0.034007993 0.13825023 -0.010470155 -0.0070778066 -0.023326475 -0.06857008 -0.011153699
-0.07019148 0.09873761 -0.055838447 -0.019188335 0.08271411 -0.05764738 0.00048879226 -0.034981508
-0.0063171587 0.053626373 -0.020159014 -0.051516842 -0.07482997 -0.024404543 -0.006287912 0.04151572
0.01636479 0.035472333 -0.06231443 -0.055550914 -0.008570937 0.09385165 -0.055869684 -0.1106396
0.07186016 0.0868209 -0.010357013 0.028306741 -0.02789157 -0.06821398 -0.0706063 -0.0061740424
0.10064625 0.00066737307 0.055617206 0.0896339 -0.04092046 -0.005800634 -0.018770548 -0.0020901768
-0.039322093 0.02757001 -0.021453455 0.015169777 -0.011872413 0.007595337 0.010511731 -0.011782301
0.049876295 0.076225065 0.013912262 0.0146781355 0.00027268907 -0.037483156 0.0698615 0.027000418
0.033971768 0.038075175 0.013800819 0.027584976 -0.023222264 0.024381341 0.015621255 0.009087693
0.025860019 0.015938282 -0.0019534563 -0.0033840789 -0.030500619 0.0032340847 -0.0013512332 -0.0180243
-0.013951406 -0.03429561 -0.017829277 0.022107882 -0.015812837 -0.012453742 -0.0075271158 0.040712837
-0.021169268 -0.0077025625 0.009506576 0.013574976 0.029880017 0.040842567 0.09478942 -0.01903711
-0.00758109 -0.0012895308 0.013360823 0.0060891537 -0.017606964 0.0072903796 -0.06529341 0.001952732
0.020614717 -0.02510984 0.0014213681 -0.009014222 0.00078598387 0.013273342 -0.06255078 -0.008468345
0.022156786 -0.038400162 0.04679983 -0.009437351 -0.036874473 0.001683188 0.006868831 0.0019337344
0.022300936 -0.019548645 0.009304718 -0.0027887025 -0.039975688 0.017353306 0.011013612 -0.00088362093
-0.026198277 0.0009036954 0.05141689 -0.004923184 0.0058431304 -0.033181116 0.036256965 -0.013549623
-0.019941444 0.035273965 0.04353171 0.020009466 -0.03735648 -0.03901005 0.0027334536 0.0010724259
-0.07527072 -0.016740356 -0.020736665 -0.056404054 0.032417946 -0.0007468686 -0.025899366 0.033423852
0.016803132 -0.028652558 0.0036617399 0.04471247 0.0123486165 0.012279108 -0.044939023 -0.022955345
-0.025539456 -0.018549282 -0.029554332 0.020704621 0.023903478 0.06447707 0.06050318 0.0066215456
0.043739516 -0.004364482 -0.037279714 0.0017650098 0.029878048 0.0398898 -0.053942274 -0.011297258
0.0019178486 0.025878342 -0.032335285 -0.0059003737 0.0054194108 0.0026486192 -0.01294372 0.002268442
0.0040393677 -0.0105040325 0.0034789506 0.010951415 0.008486736 0.018685456 0.03719381 -0.003867685
00000000: e470 f93d 1792 d5bc 7e0a 56bd a66a 8bbc
00000010: f5a1 b7bd 8434 2dbd 25ab f2bd 7748 453d
00000020: a0bd 073b 1e38 783d 1379 803c cac0 34bd
00000030: 839a 97bd c145 6ebc c2bf 28bd 2a62 0abb
00000040: 8ee8 0e3d e63f bf3c d3f9 48bd de9c 923d
00000050: 53d5 573c 4415 2a3d 053d 9c3c 840b b7bb
00000060: 2f7b 84bc c740 a9bc 3e4e 95bc 42d9 d7bc
00000070: b33f 913d fb96 1dbd a2f3 f73d c694 2f3c
00000080: c20c 6cbb 95b2 b139 db80 b43c 44b9 1f3d
00000090: 8d7b 153d 1c96 dabd 8000 d53c 94d1 eabb
000000a0: 2298 8ebc ea9f b1bc 83c4 12bd 2a79 44bd
000000b0: fb08 513c 3324 ab3d b21e c43d 8490 553d
000000c0: 1591 d3bc 4940 89bd 8da4 7fbd caf1 5d3c
000000d0: e9ed f23c 3b81 cb3c 50ff cebd 69b7 3e3d
000000e0: 8456 ee3b 7bcc 6c3d df60 c43c 1e80 003d
000000f0: 0aa1 bebc 689a cabc f2dd c93c 3d38 b33c
00000100: 826f 1fbe f74b 0b3d 7891 0d3e 038b 2bbc
00000110: f2ec e7bb 2a17 bfbc 786e 8cbd 01be 36bc
00000120: 8dc0 8fbd f236 ca3d dbb6 64bd db30 9dbc
00000130: 0466 a93d a91f 6cbd 4b22 003a c548 0fbd
00000140: 2b00 cfbb 54a7 5b3d 8424 a5bc 5303 53bd
00000150: 7540 99bd 09ec c7bc d40a cebb 630c 2a3d
00000160: 740f 863c 704b 113d 6a3d 7fbd 5b89 63bd
00000170: 1e6d 0cbc 4b35 c03d 9cd7 64bd 0497 e2bd
00000180: 6b2b 933d 28cf b13d 76b0 29bc 8ae3 e73c
00000190: dd7c e4bc c5b3 8bbd 099a 90bd 9f4f cabb
000001a0: 9f1f ce3d a6f2 2e3a dece 633d fa91 b73d
000001b0: 369c 27bd 3f13 bebb b1c4 99bc 59fb 08bb
000001c0: 3410 21bd 80da e13c 28bf afbc a88a 783c
000001d0: 8284 42bc 4ee2 f83b 6539 2c3c 8d0a 41bc
000001e0: 164b 4c3d e31b 9c3d 42f0 633c 907c 703c
000001f0: b5f7 8e39 f087 19bd 8c13 8f3d fb2f dd3c
00000200: fb25 0b3d b7f4 1b3d d51c 623c e3f9 e13c
00000210: 9e3c bebc 61bb c73c 4bf0 7f3c 8ce4 143c
00000220: 64d8 d33c 0091 823c 8f05 00bb 6cc7 5dbb
00000230: 6fdc f9bc f0f2 533b dd1b b1ba b2a7 93bc
00000240: 7094 64bc 8e79 0cbd b40e 92bc 971b b53c
00000250: ec89 81bc c80a 4cbc 06a6 f6bb 81c2 263d
00000260: 2c6b adbc c765 fcbb 78c1 1b3c 9369 5e3c
00000270: f0c6 f43c 894a 273d f520 c23d b7f3 9bbc
00000280: cb6a f8bb 7905 a9ba 5ae7 5a3c 8687 c73b
00000290: 7b3c 90bc 23e4 ee3b 8db8 85bd d0f2 ff3a
000002a0: 32e0 a83c 27b3 cdbc 334d ba3a 63b0 13bc
000002b0: 7c0a 4e3a 6e78 593c a01a 80bd d0be 0abc
000002c0: 2682 b53c 7d49 1dbd 2eb1 3f3d 1e9f 1abc
000002d0: b009 17bd 6b9e dc3a ee13 e13b 5c75 fd3a
000002e0: 74b0 b63c 7b24 a0bc d172 183c aac2 36bb
000002f0: 8cbd 23bd 8528 8e3c 7072 343c cca2 67ba
00000300: c59d d6bc f9e5 6c3a 849a 523d a952 a1bb
00000310: bb77 bf3b ece8 07bd 2f82 143d 3dff 5dbc
00000320: 3d5c a3bc 6f7b 103d 4e4e 323d e4ea a33c
00000330: 1c03 19bd 01c9 1fbd be23 333b a490 8c3a
00000340: 8927 9abd 1223 89bc f0df a9bc f007 67bd
00000350: aec8 043d 81c9 43ba e82a d4bc 73e7 083d
00000360: b9a6 893c c5b8 eabc cdf9 6f3b 6c24 373d
00000370: da51 4a3c 502e 493c fb11 38bd d90c bcbc
00000380: 1f38 d1bc aaf4 97bc ed1b f2bc bd9c a93c
00000390: 3ad1 c33c 8e0c 843d 2fd2 773d 8df9 d83b
000003a0: 3528 333d ee03 8fbb 9db2 18bd e757 e73a
000003b0: cfc2 f43c 7d63 233d 93f2 5cbd 2218 39bc
000003c0: 5260 fb3a d1fe d33c 0172 04bd ec57 c1bb
000003d0: 5095 b13b 7594 2d3b e611 54bc 24aa 143b
000003e0: ac5c 843b 1b19 2cbc 1bff 633b 906d 333c
000003f0: f30b 0b3c 3e12 993c 8958 183d fd78 7dbb

actor.4.bias f4 [6]
-0.029468872 0.058034565 -0.06317587 -0.015718358 0.08420678 -0.0070580076
00000000: b468 f1bc a7b5 6d3d 5a62 81bd c9c3 80bc
00000010: 9b74 ac3d dc46 e7bb

critic.0.weight f4 [256, 12]
0.16330956 0.23913068 0.10515249 -0.050880253 -0.08152204 0.056140605 -0.24626233 -0.009330524
0.052342072 -1.0480627 -0.029069956 -0.26896113 0.20300029 0.22867894 0.2947064 0.054716144
-0.14549586 0.115564376 0.1327392 -0.12352314 -0.12922987 0.9245449 0.24602987 -0.27902734
-0.20406948 -0.12646355 0.082007326 -0.0385295 0.14883041 -0.100303866 -0.22848062 0.1704448
0.16624019 0.32317227 -0.18687327 0.30117875 -0.13917734 0.030284394 0.08091829 -0.16636896
-0.051077727 0.111303926 0.027837465 -0.04218904 0.17451736 -0.8914698 0.26588652 0.13912708
0.14680964 0.035196867 -0.07813651 0.33812618 -0.10488288 -0.19822963 0.25093785 -0.2673175
0.022459522 0.14807983 0.099983215 -0.20183404 0.121350706 0.0681417 0.17717959 0.11894787
-0.008098117 0.2042722 0.16999269 -0.29720286 -0.28028455 0.6685995 0.16148981 0.15094101
-0.014795699 -0.04364644 -0.25978753 0.038731888 -0.2925407 -0.33438045 -0.007641141 -0.07550947
0.24272905 -0.6203227 0.38708797 0.1734737 -0.17784983 -0.21547899 -0.023210011 -0.02107784
0.097744204 -0.01696705 0.30282694 -0.15737231 0.006300934 -0.76715094 -0.35507438 -0.15779154
-0.33795905 0.10297816 -0.124238394 -0.07119811 -0.4160667 -0.22405691 -0.12626263 0.03204906
-0.15074602 -0.28685734 0.38755658 -0.36638126 -0.15407424 0.061705172 0.21799298 -0.1509526
0.08931632 0.044866826 0.14569077 0.06074802 0.009671066 -0.7664485 0.26936904 0.0883012
0.10351729 -0.004588661 -0.024881104 0.13687961 -0.16266008 -0.09502303 0.1176906 -0.19491097
0.21411155 0.8759822 -0.33374774 0.29039583 0.20917414 0.0531347 -0.10469011 -0.0074606556
0.09927381 -0.21100833 -0.17921162 -0.24216808 0.12134583 0.67765415 0.26591676 0.12853597
-0.13287917 0.0026375093 -0.0049896636 -0.23826645 -0.04181118 -0.21262722 0.060890026 0.048850793
-0.00039833467 -0.70814747 -0.14354071 -0.22422533 -0.0032993676 0.14191158 -0.0556107 -0.026513416
-0.12874247 0.07825024 -0.096953094 -0.050702527 0.021286368 0.7915616 0.06991984 -0.13668548
0.26179308 0.1415196 0.023489958 -0.22195235 -0.04715408 -0.00586011 -0.15416944 0.16592208
-0.23378257 0.69320625 0.33770955 -0.104346916 0.12909432 -0.027998539 0.115062766 0.13550559
0.09405013 -0.08934076 0.14190932 -0.08088963 0.039037358 0.8335439 0.0022834917 0.05181255
-0.003396224 -0.20612788 0.08366369 0.027382707 0.028258298 0.026385013 0.1193447 -0.2716945
0.007855863 1.0060004 -0.2700057 0.16402607 -0.1876474 0.0009085127 -0.086558335 0.018083164
-0.2698478 -0.108472 0.24752256 0.23959261 0.051650867 -0.95533234 -0.25575405 0.013024881
-0.22248352 -0.05971853 -0.12646614 -0.31351566 0.04379456 -0.10718949 0.12831576 -0.13500452
-0.0070164786 -0.81830597 -0.30961952 0.05542042 0.118609406 -0.061292704 -0.044904638 0.29072395
0.1616381 0.050864022 -0.18064931 -0.00393713 -0.1393571 -0.76405233 0.23330249 -0.10616894
0.124692574 0.1085011 0.09153887 0.13694717 -0.11932257 -0.1233065 -0.1706474 -0.02244925
-0.037446238 0.41268188 0.31105897 -0.33172604 0.024879092 -0.00053745735 0.07435398 -0.06938105
00000000: 9f3a 273e acde 743e 305a d73d d067 50bd
00000010: 07f5 a6bd b1f3 653d 312c 7cbe 0edf 18bc
00000020: a464 563d eb26 86bf 1e24 eebc 46b5 89be
00000030: 4fdf 4f3e d02a 6a3e c2e3 963e 091e 603d
00000040: defc 14be 04ad ec3d c9ec 073e b3f9 fcbd
00000050: d654 04be f9ae 6c3f 41ef 7b3e acdc 8ebe
00000060: 97f7 50be a97f 01be 75f3 a73d 1cd1 1dbd
00000070: 0067 183e 1d6c cdbd d3f6 69be 1589 2e3e
00000080: de3a 2a3e d676 a53e b55b 3fbe 1a34 9a3e
00000090: 8184 0ebe fa16 f83c 7db8 a53d a05c 2abe
000000a0: e136 51bd 50f3 e33d 650b e43c 6ace 2cbd
000000b0: aeb4 323e 5d37 64bf 4722 883e 5477 0e3e
000000c0: 4455 163e 972a 103d 0906 a0bd e01e ad3e
000000d0: d6cc d6bd b5fc 4abe ed7a 803e d7dd 88be
000000e0: 08fd b73c 3da2 173e 00c4 cc3d 95ad 4ebe
000000f0: b886 f83d e08d 8b3d 916e 353e f19a f33d
00000100: f7ad 04bc bb2c 513e 9012 2e3e f92a 98be
00000110: 7581 8fbe 5629 2b3f 965d 253e 4890 1a3e
00000120: a969 72bc 9cc6 32bd df02 85be 54a5 1e3d
00000130: e5c7 95be ea33 abbe 8962 fabb b6a4 9abd
00000140: f78d 783e 78cd 1ebf 6530 c63e 17a3 313e
00000150: 441e 36be 86a6 5cbe ec22 bebc 6fab acbc
00000160: 1d2e c83d 7cfe 8abc 220c 9b3e 3526 21be
00000170: 1178 ce3b 0164 44bf 4fcc b5be 1b94 21be
00000180: f808 adbe 37e6 d23d b370 febd 51d0 91bd
00000190: b206 d5be 2d6f 65be fe4a 01be e045 033d
000001a0: 2a5d 1abe f7de 92be d16d c63e 5396 bbbe
000001b0: a3c5 1dbe 90be 7c3d 8d39 5f3e 5293 1abe
000001c0: 7aeb b63d 47c6 373d f62f 153e ead2 783d
000001d0: 6473 1e3c f835 44bf bdea 893e 42d7 b43d
000001e0: df00 d43d 7a5c 96bb 75d3 cbbc 2b2a 0c3e
000001f0: 5d90 26be 6f9b c2bd c507 f13d be96 47be
00000200: 0f40 5b3e 5f40 603f fce0 aabe c3ae 943e
00000210: bf31 563e c5a3 593d c567 d6bd 8478 f4bb
00000220: 1150 cb3d 9112 58be 4083 37be e9fa 77be
00000230: 2a84 f83d be7a 2d3f 3e26 883e ef9e 033e
00000240: 7a11 08be 10da 2c3b 5580 a3bb 1ffc 73be
00000250: 3342 2bbd f3ba 59be d267 793d c517 483d
00000260: 93d7 d0b9 2749 35bf 56fc 12be 539b 65be
00000270: 343a 58bb 4551 113e 0cc8 63bd aa32 d9bc
00000280: 11d5 03be a941 a03d 588f c6bd 74ad 4fbd
00000290: c060 ae3c c8a3 4a3f 2232 8f3d 47f7 0bbe
000002a0: be09 863e 84ea 103e 036e c03c 7a47 63be
000002b0: a324 41bd 2a06 c0bb 98de 1dbe 7ae7 293e
000002c0: b364 6fbe f775 313f 44e8 ac3e d6b3 d5bd
000002d0: 4d31 043e 315d e5bc 07a6 eb3d fac1 0a3e
000002e0: 5b9d c03d 4af8 b6bd ad50 113e 76a9 a5bd
000002f0: a3e5 1f3d 2263 553f a2a6 153b 6539 543d
00000300: 2f93 5ebb 3013 53be de57 ab3d b351 e03c
00000310: f27d e73c 6225 d83c fe6a f43d 8b1b 8bbe
00000320: e1b5 003c 9fc4 803f 303e 8abe 73f6 273e
00000330: a426 40be 4129 6e3a 7f45 b1bd 2523 943c
00000340: 7e29 8abe 9126 debd 8e76 7d3e c457 753e
00000350: dc8f 533d a990 74bf 32f2 82be 4f66 553c
00000360: b8d2 63be 6b9b 74bd 5780 01be 2085 a0be
00000370: ed61 333d 2a86 dbbd 3565 033e a03e 0abe
00000380: 7dea e5bb 807c 51bf 7386 9ebe 8600 633d
00000390: 7de9 f23d 0f0e 7bbd eded 37bd c5d9 943e
000003a0: 7584 253e cb56 503d 22fc 38be 0a03 81bb
000003b0: a1b3 0ebe ef98 43bf d9e6 6e3e 1a6f d9bd
000003c0: d25e ff3d d335 de3d bb78 bb3d e13b 0c3e
000003d0: 645f f4bd 1e88 fcbd 31be 2ebe 7de7 b7bc
000003e0: 3a61 19bd 0a4b d33e 1f43 9f3e ffd7 a9be
000003f0: 3dcf cb3c 27e4 0cba e646 983d a717 8ebd

critic.0.bias f4 [256]
-0.24933545 0.14275628 0.069719136 0.10872366 0.2053944 -0.23432209 -0.08592695 0.28474107
0.057189714 0.2206981 -0.14593881 -0.24879025 0.20985107 -0.30531445 -0.27029598 -0.028899297
0.29339916 -0.08452554 -0.049206443 0.027156064 -0.3306658 0.23681243 0.092470005 0.13377361
-0.32561368 -0.04244369 0.21541017 0.09726386 -0.13024108 -0.046709746 0.10853506 -0.14049716
0.26497275 -0.28394914 -0.043729357 0.26834074 -0.07506262 -0.1942686 0.3065097 -0.11563043
-0.02650774 -0.18906891 0.33139303 -0.153476 -0.25059414 0.29218185 -0.3114958 -0.11282243
0.110449776 -0.2518539 0.038478985 0.2263942 -0.19443676 -0.30996364 -0.32270658 0.10085098
-0.0056235455 0.32046792 0.16413677 -0.0075513176 0.15757667 0.18878794 -0.16594768 0.17593034
0.23355317 -0.105301335 0.24630152 -0.30635393 0.1152475 0.062079113 0.2945546 -0.31564847
-0.34455743 -0.01635948 0.26946342 -0.074796826 -0.16885217 -0.09425093 -0.06854448 -0.014678967
0.16864836 0.12037043 -0.26447415 -0.3096454 -0.2346088 0.25010374 -0.17212345 0.17244844
-0.14983712 0.101326324 0.006371692 0.2332794 0.0061734067 0.05631386 0.03477886 0.020900749
0.28520465 -0.15718803 -0.12558295 -0.21773137 -0.23311056 0.15898196 -0.19444184 0.0151904905
-0.15814632 0.15010855 -0.21213818 0.04327895 -0.091834806 0.35347897 0.07413644 -0.18159589
0.30334428 -0.113174394 0.0500438 0.23904054 0.23869608 0.0812611 -0.17488495 0.03610901
-0.18342757 0.08746389 -0.01603127 -0.06467411 -0.29201618 0.12630346 0.13660826 0.21610521
0.24322459 0.05458766 -0.03279074 -0.082570285 -0.23641898 0.032905336 -0.11924378 0.072997555
-0.16208977 0.19282344 -0.20215559 0.18237086 0.057569765 -0.2341172 0.12694699 -0.17041612
0.13469902 0.19535346 0.2069448 -0.16623065 0.22602412 0.014380426 0.15451354 -0.12679708
-0.22324449 0.19954525 -0.12982094 -0.104480095 0.1316088 -0.18847921 -0.09361858 0.22868738
0.24672747 0.2344831 0.024515977 -0.094860084 -0.18601617 0.23298521 -0.16666828 0.060929514
0.18097435 0.20735735 -0.32794368 0.13964443 0.06182382 0.06614454 -0.2369636 -0.13273917
0.20234422 0.1431725 -0.052286968 0.095806055 -0.00089187396 0.093043745 -0.045481794 -0.16936518
0.05769812 -0.2837967 0.22547516 0.1826042 -0.025495317 0.06920931 0.08035489 0.22419451
-0.28711057 0.27236986 -0.22295673 -0.09223002 0.20795949 0.00038116105 0.20932785 -0.08328353
0.13034606 -0.04241244 0.08685328 -0.3070896 -0.1400668 -0.067256905 0.1295085 0.21960355
-0.093416356 -0.14755297 -0.26957595 0.007122441 -0.044469334 0.09025368 -0.20139194 0.03890634
-0.067160584 -0.052828968 -0.15250061 0.19953667 -0.11826733 0.15631062 -0.16822578 0.053934097
0.011338372 -0.25182724 0.0027029822 0.1701366 -0.19791608 -0.10681418 0.09915335 -0.17575358
0.029093051 0.080297366 0.06946004 0.17327005 0.18644986 -0.19627666 0.2906699 0.061209053
-0.15050386 0.058530103 0.12797055 0.21564303 0.015752984 0.15001437 -0.100170806 0.20963469
0.21468414 -0.24385023 0.24935311 0.08324882 0.02537984 -0.031513087 -0.13371612 -0.025408547
00000000: cb51 7fbe b42e 123e e8c8 8e3d 83aa de3d
00000010: e952 523e 21f2 6fbe 78fa afbd 95c9 913e
00000020: c33f 6a3d affe 613e fc70 15be dfc2 7ebe
00000030: 33e3 563e 2d52 9cbe 3c64 8abe 38be ecbc
00000040: 6a38 963e ba1b adbd b28c 49bd 6576 de3c
00000050: 074d a9be f57e 723e ea60 bd3d f3fb 083e
00000060: d6b6 a6be 6fd9 2dbd 7c94 5c3e 4632 c73d
00000070: eb5d 05be b852 3fbd a147 de3d 7dde 0fbe
00000080: 82aa 873e c861 91be 8e1d 33bd f563 893e
00000090: 6eba 99bd 59ee 46be d7ee 9c3e a6cf ecbd
000000a0: c326 d9bc 489b 41be 59ac a93e d028 1dbe
000000b0: e04d 80be dc98 953e 617c 9fbe 720f e7bd
000000c0: 7e33 e23d fff2 80be 249c 1d3d e2d3 673e
000000d0: 6e1a 47be 8eb3 9ebe cc39 a5be f58a ce3d
000000e0: b845 b8bb 5f14 a43e 7813 283e 0b71 f7bb
000000f0: c75b 213e a051 413e 30ee 29be 1527 343e
00000100: 9028 6f3e 3aa8 d7bd 7736 7c3e 6cda 9cbe
00000110: e206 ec3d ab46 7e3d dccf 963e ad9c a1be
00000120: d569 b0be 5104 86bc 1cf7 893e 142f 99bd
00000130: 95e7 2cbe a206 c1bd 0c61 8cbd 0d80 70bc
00000140: 28b2 2c3e c684 f63d 2869 87be d889 9ebe
00000150: 4a3d 70be 990d 803e 2141 30be 5396 303e
00000160: e76e 19be 2d84 cf3d a0c9 d03b cce0 6e3e
00000170: 4a4a ca3b 5da9 663d 4774 0e3d 0c38 ab3c
00000180: 5806 923e e6f5 20be d198 00be f9f4 5ebe
00000190: 89b4 6ebe 2bcc 223e c31b 47be 89e1 783c
000001a0: 1cf1 21be 0eb6 193e c03a 59be 4545 313d
000001b0: e313 bcbd 32fb b43e d9d4 973d 46f4 39be
000001c0: f14f 9b3e fac7 e7bd bafa 4c3d 0bc7 743e
000001d0: bf6c 743e 386c a63d 0a15 33be 0be7 133d
000001e0: 70d4 3bbe 4520 b33d 0354 83bc dc73 84bd
000001f0: 2583 95be b255 013e 09e3 0b3e af4a 5d3e
00000200: de0f 793e 4f97 5f3d 954f 06bd 9c1a a9bd
00000210: d117 72be bfc7 063d 1536 f4bd be7f 953d
00000220: dcfa 25be 8273 453e e001 4fbe 6dbf 3a3e
00000230: 46ce 6b3d 6bbc 6fbe 64fe 013e 9081 2ebe
00000240: 8aee 093e bd0a 483e 56e9 533e 5e38 2abe
00000250: de72 673e e19b 6b3c cc38 1e3e 18d7 01be
00000260: 349a 64be 9755 4c3e c8ef 04be a9f9 d5bd
00000270: 75c4 063e b200 41be 19bb bfbd 062d 6a3e
00000280: 20a6 7c3e 561c 703e bbd5 c83c 0146 c2bd
00000290: 067b 3ebe ad93 6e3e 17ab 2abe 3a91 793d
000002a0: 5751 393e 7c55 543e 3ce8 a7be f3fe 0e3e
000002b0: f93a 7d3d ca76 873d 96a6 72be c7ec 07be
000002c0: 5333 4f3e d09b 123e dc2a 56bd f735 c43d
000002d0: a6cc 69ba b88d be3d 1e4b 3abd 116e 2dbe
000002e0: dd54 6c3d cd4d 91be f6e2 663e 98fc 3a3e
000002f0: 8edb d0bc 9cbd 8d3d 1b91 a43d 3f93 653e
00000300: 2800 93be 1074 8b3e c54e 64be 18e3 bcbd
00000310: 55f3 543e 92d6 c739 0a5a 563e 8e90 aabd
00000320: 7079 053e abb8 2dbd 22e0 b13d d93a 9dbe
00000330: ac6d 0fbe fdbd 89bd e09d 043e c1df 603e
00000340: 1351 bfbd 2018 17be dc05 8abe 5e63 e93b
00000350: 7a25 36bd ecd6 b83d b039 4ebe 415c 1f3d
00000360: 7d8b 89bd 3063 58bd 1f29 1cbe 5753 4c3e
00000370: 2436 f2bd e40f 203e 6143 2cbe 00ea 5c3d
00000380: 94c4 393c 80ef 80be 8424 313b 4a38 2e3e
00000390: 83aa 4abe 65c1 dabd e910 cb3d bff8 33be
000003a0: 8d54 ee3c f272 a43d 1141 8e3d b46d 313e
000003b0: b6ec 3e3e c0fc 48be afd2 943e 58b6 7a3d
000003c0: af1d 1abe 43bd 6f3d b60a 033e 87d1 5c3e
000003d0: 670c 813c 5e9d 193e 5a26 cdbd 7aaa 563e
000003e0: 29d6 5b3e e0b3 79be 6c56 7f3e 5b7e aa3d
000003f0: 62e9 cf3c de13 01bd e1ec 08be 9625 d0bc

critic.2.weight f4 [128, 256]
-0.2203168 0.14123058 0.0019361046 -0.07469683 0.032785725 0.17629872 -0.14449844 -0.09565921
-0.06680256 0.035329614 0.07984871 0.014068122 0.04209129 0.023615306 0.11025082 0.13324337
0.24097504 -0.15275177 0.012491422 -0.13176379 0.065015726 -0.35501534 0.02617222 0.054280136
-0.09320497 -0.033890843 -0.11873828 -0.32209873 0.04788737 0.014454799 -0.021856023 0.062150493
-0.31369796 -0.0070893117 -0.26095703 -0.12070239 -0.26986298 -0.21124567 0.293537 -0.047749918
0.04509092 0.17239338 -0.058746822 -0.16503792 0.06366879 -0.35699454 -0.27448753 -0.09579848
0.019964773 0.023129217 -0.10792462 0.15025987 -0.011342849 0.19039482 -0.31728917 -0.08777832
0.08956317 0.040025875 0.008485283 -0.014606639 0.29690915 -0.26535332 0.11153876 -0.2515858
0.19940399 -0.026858442 -0.07648514 -0.15602659 -0.113012366 -0.25254893 0.07290815 -0.48163342
0.033919908 0.32681465 -0.08263116 -0.10204184 -0.11121945 -0.061905403 -0.027917542 0.09801842
-0.0707469 0.08303261 0.03308278 0.08662043 0.2744318 -0.02219654 -0.041723117 0.123131074
-0.03405374 -0.14743167 0.0128504 -0.037612572 -0.46085358 0.0828449 -0.08827935 0.25306284
-0.08164449 0.03998981 0.13718818 -0.19355625 -0.09523554 -0.09083246 -0.22327057 0.027680274
0.24950403 0.074584514 0.06628446 0.20394355 -0.05610134 0.20238 -0.0008381357 0.04207467
-0.0129040405 0.04878484 0.044907305 -0.18049465 -0.025967464 0.12965295 -0.3450781 0.4774227
0.0143981045 -0.12987311 -0.15870722 0.07531758 -0.2102155 -0.08071538 0.08640492 0.090406045
-0.12345427 0.30208328 -0.37860277 -0.056451958 0.028854158 -0.020069227 -0.010815453 -0.18131404
0.0047467123 0.090617105 0.5543385 -0.034662303 0.4476686 -0.10596737 0.03718576 0.06983082
-0.037654806 -0.04728327 -0.008635078 0.10837082 0.28419334 0.047353577 -0.016099371 -0.14081441
-0.009494386 -0.22190209 0.10966094 -0.00939419 0.347843 -0.13861063 0.3326622 0.020719638
-0.20125109 0.0064380304 -0.08275222 -0.14609034 0.040861182 0.024915192 -0.1331431 0.17909451
-0.037901893 -0.14775741 -0.03232541 0.1031505 -0.4561637 0.06311848 -0.036288206 0.07962825
0.009680692 -0.06051534 0.06217032 -0.058770936 -0.23948158 0.23948374 0.17790279 0.07807178
0.03405986 -0.262013 -0.06600947 -0.0338078 -0.069011465 -0.2690769 0.05394166 0.034336608
0.05860422 0.066420354 0.027736628 -0.1855067 0.28993657 -0.032980584 0.43943915 0.18729733
-0.1607116 -0.14319092 -0.0993724 0.055187605 -0.100988 0.108306974 -0.37069944 -0.052702475
-0.022252958 0.21560438 -0.11920806 -0.36364034 0.22870132 0.00541613 0.19853882 -0.082559094
0.038329463 0.069350764 0.09933885 -0.17185673 0.1573984 -0.11950442 0.051302604 -0.042746525
0.079844646 -0.029641222 0.28769693 0.13705342 0.21229346 -0.32992542 0.44869453 0.020280827
0.09816557 -0.15831466 0.19550824 -0.14304876 0.081040144 0.048520084 0.1575406 -0.24837857
-0.43360686 0.18828622 0.18522456 -0.04034897 -0.30469218 -0.11555131 0.11455691 -0.039045807
-0.11831178 0.04072295 -0.042982586 -0.06003794 0.0018810935 0.2597817 -0.17967196 -0.026185844
00000000: ba9a 61be c09e 103e e4c4 fd3a a7fa 98bd
00000010: 534a 063d a787 343e 66f7 13be fae8 c3bd
00000020: c8cf 88bd c9b5 103d b887 a33d fb7d 663c
00000030: eb67 2c3d e374 c13c 2fcb e13d f370 083e
00000040: 29c2 763e f66a 1cbe d2a8 4c3c 16ed 06be
00000050: f726 853d 92c4 b5be 2067 d63c d954 5e3d
00000060: 3fe2 bebd 20d1 0abd 0e2d f3bd 20ea a4be
00000070: 8c25 443d d2d3 6c3c 670b b3bc 8491 7e3d
00000080: 059d a0be 754d e8bb 299c 85be d132 f7bd
00000090: 7b2b 8abe c950 58be 7b4a 963e 6b95 43bd
000000a0: 42b1 383d e487 303e 82a0 70bd b3ff 28be
000000b0: c864 823d fdc7 b6be a189 8cbe fe31 c4bd
000000c0: 2a8d a33c 7c79 bd3c 9507 ddbd b9dd 193e
000000d0: 5bd7 39bc dcf6 423e ba73 a2be 1fc5 b3bd
000000e0: e56c b73d 2cf2 233d db05 0b3c af50 6fbc
000000f0: 7a04 983e 64dc 87be 6f6e e43d dbcf 80be
00000100: 8f30 4c3e 3c06 dcbc 3ea4 9cbd 6fc5 1fbe
00000110: 0773 e7bd 184e 81be de50 953d a898 f6be
00000120: 9aef 0a3d 4054 a73e 873a a9bd 50fb d0bd
00000130: 06c7 e3bd 8590 7dbd 54b3 e4bc e2bd c83d
00000140: c0e3 90bd 000d aa3d cf81 073d 0d66 b13d
00000150: 5382 8c3e 85d5 b5bc dce5 2abd 252c fc3d
00000160: ef7b 0bbd 54f8 16be 7c8a 523c a40f 1abd
00000170: 00f5 ebbe 96aa a93d cecb b4bd 7491 813e
00000180: 3a35 a7bd 5bcc 233d 0f7b 0c3e 9c33 46be
00000190: da0a c3bd 5e06 babd 0aa1 64be bec1 e23c
000001a0: fc7d 7f3e c4bf 983d 26c0 873d 94d6 503e
000001b0: 85ca 65bd b43c 4f3e 56b6 5bba 7d56 2c3d
000001c0: 786b 53bc 9dd2 473d b9f0 373d 97d3 38be
000001d0: b8b9 d4bc bec3 043e 14ae b0be c070 f43e
000001e0: 07e6 6b3c 75fd 04be 2584 22be 1a40 9a3d
000001f0: bb42 57be 1b4e a5bd 10f5 b03d ce26 b93d
00000200: 98d5 fcbd a9aa 9a3e 39d8 c1be 2b3a 67bd
00000210: 8e5f ec3c 3868 a4bc 4c33 31bc 63aa 39be
00000220: 4f8a 9b3b 7695 b93d 21e9 0d3f 0ffa 0dbd
00000230: d234 e53e 6c05 d9bd 1850 183d 7603 8f3d
00000240: ed3b 1abd 1aac 41bd 247a 0dbc 85f1 dd3d
00000250: ca81 913e d3f5 413d d4e2 83bc a731 10be
00000260: 578e 1bbc 4d3a 63be ea95 e03d 17ea 19bc
00000270: 7a18 b23e f2ef 0dbe b352 aa3e 3bbc a93c
00000280: c414 4ebe 1df6 d23b ff79 a9bd b598 15be
00000290: 0e5e 273d f21a cc3c aa56 08be 8d64 373e
000002a0: 043f 1bbd b84d 17be a667 04bd 9240 d33d
000002b0: 4a8e e9be 4344 813d f1a2 14bd 2314 a33d
000002c0: c49b 1e3c efde 77bd 4ea6 7e3d cbb9 70bd
000002d0: a93a 75be 3a3b 753e 262c 363e 19e4 9f3d
000002e0: 5a82 0b3d 9126 86be f92f 87bd 0c7a 0abd
000002f0: e255 8dbd 73c4 89be eef1 5c3d 8ba4 0c3d
00000300: fb0a 703d 6507 883d ed37 e33c 78f5 3dbe
00000310: 9172 943e a616 07bd 2bfe e03e dfca 3f3e
00000320: 9591 24be a4a0 12be c283 cbbd 660c 623d
00000330: ccd2 cebd 0cd0 dd3d 51cc bdbe 8dde 57bd
00000340: d64b b6bc 65c7 5c3e 5b23 f4bd 112f babe
00000350: ae30 6a3e cb79 b13b c34d 4b3e be14 a9bd
00000360: 5bff 1c3d c607 8e3d 2b72 cb3d 36fb 2fbe
00000370: 0c2d 213e bcbe f4bd ae22 523d fb16 2fbd
00000380: 9785 a33d 26d2 f2bc 034d 933e bb57 0c3e
00000390: 7563 593e fceb a8be 4abb e53e fa23 a63c
000003a0: 080b c93d 3d1d 22be 5033 483e 607b 12be
000003b0: 60f8 a53d ffbc 463d 5352 213e f456 7ebe
000003c0: b801 debe 1ace 403e 82ab 3d3e f644 25bd
000003d0: 9d00 9cbe 2aa6 ecbd d09c ea3d 7fee 1fbd
000003e0: 724d f2bd 1ccd 263d 820e 30bd 58ea 75bd
000003f0: 068f f63a 1b02 853e edfb 37be b283 d6bc
