policy/PPO/checkpoints/2025-11-12_10-50/ppo_soarm_10000.pth (torch, 895491 bytes, 33 tensors)

actor.0.weight f4 [256, 12]
0	0xbdba3fc5	-0.09094194
1	0xbda973a7	-0.08274012
2	0x3e15b16c	0.14618462
3	0x3eab90fc	0.33509052
4	0xbd537222	-0.051622517
5	0x3df4b15d	0.11947892
6	0x3bc66e89	0.0060556573
7	0x3c9d59a3	0.019207781
8	0xbb3bb4b0	-0.0028641634
9	0xbec6b97c	-0.38813388
10	0xbeb96faa	-0.36218005
11	0x3e887660	0.26652813
12	0x3e6f8cec	0.23393601
13	0x3d913e14	0.070919186
14	0x3e14b730	0.14523005
15	0xbc6c5698	-0.014424942
16	0x3d76f770	0.06029457
17	0xb9f6f911	-0.00047106345
18	0x3bd8cea0	0.0066164285
19	0x3c196c56	0.009364208
20	0xbd169497	-0.0367628
21	0x3ea66993	0.32502422
22	0x3d57b26d	0.052660394
23	0x3e0ed56b	0.139486
24	0xbe5ba525	-0.21449716
25	0x3d90ba6f	0.070668094
26	0xbcf9d2dc	-0.030496053
27	0x3cde803d	0.027160758
28	0x3e0cf1a1	0.13764049
29	0x3ddda415	0.10822312
30	0x3db73a4a	0.08946665
31	0xbdf2ee9a	-0.11861916
32	0xbe767d36	-0.24071202
33	0xbe2d4336	-0.1692017
34	0x3d88c3a7	0.06677943
35	0xbea585cc	-0.3232864
36	0x3e48fffe	0.19628903
37	0xbd2901dd	-0.041261543
38	0x3dcdcc85	0.10048775
39	0xbe1f05eb	-0.15529601
40	0xbe46da3c	-0.19419187
41	0x3db87fb1	0.0900873
42	0x3e57f59d	0.21089788
43	0x3e1030fe	0.14081189
44	0x3d892d85	0.06698135
45	0xbd979394	-0.07401195
46	0x3c8b112b	0.01697596
47	0x3d72e384	0.059299007
48	0xbe29a725	-0.16567667
49	0x3afe5189	0.0019402961
50	0x3d52c1ed	0.051454473
51	0xbe6a1988	-0.22861302
52	0x3e8b63c0	0.2722454
53	0x3d998b8d	0.0749732
54	0x3e98af91	0.29821447
55	0x3e485069	0.19561924
56	0xba210106	-0.0006141815
57	0xbe0e8fc3	-0.13922028
58	0x3deb6415	0.114936985
59	0xbe8dd5c5	-0.27702156
60	0xbd990d34	-0.074732214
61	0x3da4decb	0.08050307
62	0xbd34dec8	-0.044157773
63	0xbe814e37	-0.25254986
64	0x3e123542	0.14278129
65	0xbd9c1333	-0.076208495
66	0xbc50ba31	-0.012739704
67	0x3e1a6b67	0.15080033
68	0x3cde49ab	0.027134737
69	0x3ed47f37	0.41503307
70	0x3e0c6ed9	0.1371416
71	0x3b17b659	0.002314946
72	0xbd8e84e2	-0.06958939
73	0xbd86527f	-0.06558704
74	0xbd1b43b1	-0.037906352
75	0x3e768475	0.24073966
76	0x3cb99b18	0.022656962
77	0x3e894ab8	0.26814818
78	0x3e5bcaa5	0.21464022
79	0xbb06e09f	-0.0020580662
80	0xbdc87911	-0.097887166
81	0xbeb7a062	-0.3586455
82	0xbe4c5066	-0.19952545
83	0x3e641c3e	0.22276399
84	0x3e9bd2f1	0.30434373
85	0xbd444a7c	-0.047922596
86	0xbd5b2dc6	-0.05351045
87	0x3dc40007	0.09570318
88	0xbe983aff	-0.2973251
89	0xbdfaa2ea	-0.12238105
90	0xbe3d1f1e	-0.18468902
91	0x3e9a0d12	0.30088097
92	0xbe8e24ef	-0.27762553
93	0xbe478348	-0.19483674
94	0xbda013a7	-0.078162484
95	0x3e612274	0.21985799
96	0xbd6ee2a3	-0.058321606
97	0x3e202c8f	0.15641998
98	0xbd7dddf3	-0.061979245
99	0xbe63ad31	-0.22234036
100	0xbda36489	-0.0797816
101	0x3b31f7cc	0.0027155755
102	0x3e40fa30	0.18845439
103	0xbe3795d0	-0.17928243
104	0xbea21265	-0.3165466
105	0xbe8e37c6	-0.27776927
106	0x3e7a04e3	0.24415927
107	0x3db4a948	0.0882135
108	0xbdf01aa8	-0.11723834
109	0x3d8d4d9b	0.06899568
110	0x3e43307d	0.19061466
111	0x3d7af0dd	0.06126486
112	0xbeb49fd8	-0.352782
113	0xbe6ccc58	-0.23124826
114	0x3eb4aace	0.35286564
115	0x3b5a4e48	0.003331082
116	0xbc156e41	-0.009120525
117	0x3e92294e	0.28547138
118	0xbdc081e9	-0.093997784
119	0xbdf88448	-0.12134606
120	0xbdeaa4b1	-0.11457194
121	0xbbcef36d	-0.0063156397
122	0xbddce7ac	-0.107863754
123	0xbea0745d	-0.31338778
124	0x3d9de994	0.07710567
125	0x3e3cc14b	0.1843311
126	0xbde95565	-0.11393241
127	0xbcd85786	-0.026408922
128	0xbecbae66	-0.39781493
129	0x3ea44298	0.32082057
130	0x3eaa705e	0.33288854
131	0xbe0c8f84	-0.13726622
132	0x3e77d19c	0.24201053
133	0x3d3b373c	0.045706972
134	0x3c99ebfb	0.018789282
135	0x3e6ed2e2	0.23322633
136	0xbe23df09	-0.1600305
137	0x3d9df00b	0.077118
138	0xbe4cc450	-0.19996762
139	0xbda5e5e7	-0.08100491
140	0xbd07d173	-0.03315873
141	0xbed85137	-0.42249462
142	0xbe2668ee	-0.16250965
143	0x3e0fb9f1	0.14035775
144	0xbe62c726	-0.22146282
145	0xbe855df7	-0.26048252
146	0xbe27c230	-0.1638267
147	0xbcb2cd8f	-0.021826534
148	0xbd913b23	-0.070913576
149	0x3dd77853	0.10520997
150	0x3c13cad8	0.00902053
151	0x3d9d11f9	0.07669444
152	0x3cf1f2d4	0.029534735
153	0x3e2587ec	0.16165131
154	0xbe9dbbc4	-0.30807316
155	0xbe2ab65f	-0.16671132
156	0x3e7aeec6	0.24505147
157	0xbcbb63b3	-0.022874689
158	0xbdd548d7	-0.10414284
159	0x3e6bddaf	0.23033784
160	0xbe33ef94	-0.1757186
161	0xbd898d11	-0.067163594
162	0x3e64197c	0.22275347
163	0xbe2fbc5c	-0.17161697
164	0xbe2ea435	-0.17054828
165	0xbeeb2074	-0.45923197
166	0x3dd85918	0.10563868
167	0xbe98e77c	-0.2986411
168	0xbe2365be	-0.1595678
169	0xbcb8584e	-0.022503044
170	0xbd188e83	-0.037245285
171	0x3e50d295	0.2039283
172	0x3e7c6907	0.2464944
173	0xbd88e7a5	-0.06684808
174	0xbd3768ed	-0.0447778
175	0x3d37041c	0.044681653
176	0xbe93f0cd	-0.28894654
177	0x3ded2082	0.11578466
178	0x3eb72e77	0.35777637
179	0xbe1ed8ec	-0.15512437
180	0xbdc01997	-0.09379881
181	0xbe0686d0	-0.13137364
182	0xbe5df61b	-0.21675913
183	0x3c44fd89	0.012023338
184	0xbe964e37	-0.29356548
185	0x3dd1f72e	0.10252224
186	0xbea63431	-0.32461694
187	0x3b433a6e	0.0029789465
188	0xbe590081	-0.21191598
189	0x3eceafa1	0.4036837
190	0x3dff3271	0.12460793
191	0xbe925934	-0.28583682
192	0x3e165727	0.14681683
193	0xbae3da11	-0.0017383714
194	0x3a2c62fd	0.00065760297
195	0xbda03d5a	-0.07824202
196	0xbde0d79f	-0.109786265
197	0x3cce6205	0.025193224
198	0x3e92415e	0.28565496
199	0x3d727335	0.0591919
200	0x3e81d299	0.25355986
201	0x3eebb4c3	0.46036348
202	0xbc81d0d3	-0.015846645
203	0x3e366425	0.1781164
204	0x3dfcbf82	0.12341215
205	0x3e19fa40	0.15036869
206	0x3d80aaf1	0.062826045
207	0x3d881890	0.0664531
208	0xbd25d125	-0.04048266
209	0xbded03bd	-0.11572979
210	0x3e066fd7	0.13128601
211	0xbe2c1d3f	-0.16808031
212	0xbe8e3e38	-0.27781844
213	0xbe25dcfb	-0.16197579
214	0x3d2cad73	0.0421576
215	0xbe54a39f	-0.20765541
216	0xbe4f1b9c	-0.20225376
217	0xbd8c93b0	-0.06864107
218	0xbe124f27	-0.14288007
219	0x3e3c4bfe	0.18388364
220	0x3e3f5a4e	0.18686792
221	0xbd6bd806	-0.057579063
222	0x3cfdfb28	0.03100355
223	0x3daeb5e5	0.085307874
224	0xbe1b0e0e	-0.1514208
225	0x3e9369fc	0.28791797
226	0xbe6a3328	-0.22871077
227	0x3ea81cad	0.32834378
228	0x3e42f4a7	0.1903864
229	0xbdbe4e3c	-0.09292266
230	0x3e10ef7f	0.1415386
231	0xbd8af842	-0.06785633
232	0xbd9c743d	-0.07639358
233	0xbe54e547	-0.20790587
234	0x3e656aab	0.22403972
235	0x3d19fb10	0.037592947
236	0x3e9f28a1	0.31085685
237	0x3ebf79f1	0.3739772
238	0xbe47e8dc	-0.19522423
239	0x3ecde25d	0.40211764
240	0xbd36b2e6	-0.044604205
241	0x3bb96dbc	0.0056588333
242	0x3e3bd460	0.18342733
243	0xbe60f22f	-0.21967386
244	0x3e3fb172	0.18720034
245	0xbd82aaff	-0.06380271
246	0xbc13d2bc	-0.009022411
247	0x3e081598	0.13289487
248	0xbe170ef8	-0.14751804
249	0x3f0a577e	0.5403975
250	0xbec6d9b7	-0.38837978
251	0xbe2d4643	-0.16921334
252	0xbe693f1c	-0.2277798
253	0xbdeabc3f	-0.11461686
254	0xbe225d80	-0.1585598
255	0xbdfc3048	-0.123138964

actor.0.bias f4 [256]
0	0x3e08ca3f	0.13358401
1	0x3cc73241	0.024315955
2	0xbdf4c668	-0.119519055
3	0x3e56d807	0.20980845
4	0x3e347503	0.17622761
5	0xbd9a227b	-0.07526108
6	0xbe04d47f	-0.12971686
7	0x3dd988f7	0.10621827
8	0xbe894d7e	-0.26816934
9	0x3e551f92	0.20812824
10	0x3d1f63e4	0.038913622
11	0xbe5db04d	-0.21649285
12	0x3e770b3e	0.24125382
13	0xbd31cbd3	-0.043407273
14	0x3e188199	0.14893188
15	0x3db26e72	0.08712472
16	0xbd7f9bc8	-0.062404424
17	0xbe1ab9c5	-0.15109928
18	0xbe1130c0	-0.14178753
19	0x3e7eaf34	0.24871522
20	0x3e7cabb1	0.2467487
21	0x3e106226	0.1409994
22	0xbe5d4da8	-0.21611655
23	0x3dddf9ea	0.10838683
24	0xbd9d97ed	-0.07694993
25	0x3e777c9e	0.24168631
26	0x3d7df0f0	0.061997354
27	0xbddf05fa	-0.10889812
28	0xbeafffb4	-0.34374774
29	0x3e812bf8	0.25228858
30	0x3e41ebd1	0.18937613
31	0x3e5227eb	0.2052304
32	0xbe97a9ad	-0.2962164
33	0xbe53bccf	-0.20677494
34	0x3e2907b3	0.16506843
35	0x3e2d700b	0.16937272
36	0xbdc82995	-0.09773556
37	0x3d0c21ad	0.034211803
38	0xbe5e807c	-0.217287
39	0x3e33ba7b	0.17551605
40	0x3d918830	0.07106054
41	0x3dcaef76	0.09908955
42	0xbe1ad763	-0.15121226
43	0x3e7b3b0f	0.24534248
44	0xbe0283db	-0.12745611
45	0xbd442d2c	-0.04789464
46	0xbe58418a	-0.21118751
47	0xbe20e6c4	-0.1571303
48	0x3e966562	0.29374224
49	0x3db8867d	0.090100266
50	0x3d8168e8	0.063188374
51	0x3e37f371	0.1796396
52	0xbe680d9c	-0.22661442
53	0xbc857b91	-0.016294273
54	0xbe460e74	-0.19341451
55	0x3e1edebf	0.15514658
56	0x3d87a37c	0.06622979
57	0xbce81d5b	-0.02833431
58	0x3db7bc62	0.08971478
59	0xbca76c3b	-0.02043735
60	0x3e2892d2	0.16462258
61	0x3ca59ab1	0.020215364
62	0x3e4dfcea	0.2011601
63	0xbd520c67	-0.05128136
64	0xbdb4aa0e	-0.08821498
65	0xbe505426	-0.203446
66	0x3da60d1f	0.081079714
67	0x3c9aefd8	0.018913195
68	0xbe53023d	-0.20606323
69	0x3df6fedc	0.12060329
70	0x3ec73b75	0.3891255
71	0xbc1e50a0	-0.009662777
72	0x3e402f93	0.18768148
73	0x3cbf4c8f	0.023351936
74	0x3c3af37c	0.01141059
75	0x3d96493e	0.073381886
76	0xbd5f06eb	-0.054449957
77	0x3e071765	0.13192518
78	0xbe67c9c4	-0.22635561
79	0xbe362a74	-0.17789632
80	0xbe1785bb	-0.14797108
81	0xbe5dd206	-0.21662149
82	0xbe60bcf3	-0.21947078
83	0xbe19e44f	-0.15028499
84	0xbb2a2562	-0.0025962223
85	0x3dbec532	0.09314956
86	0xbcb11bf7	-0.02161978
87	0xbe424d1c	-0.18974727
88	0x3da999d0	0.082812905
89	0xbe7cc2b6	-0.24683651
90	0xbdb8d0d6	-0.09024207
91	0xbdd43f8e	-0.103636846
92	0xbcdb97a6	-0.02680571
93	0x3dcce38e	0.1000434
94	0x3db112fb	0.08646198
95	0xbe2c6345	-0.16834743
96	0x3e0e0b26	0.1387144
97	0x3c3d92fd	0.011570689
98	0xb9cbf54f	-0.00038901946
99	0xbd343dd9	-0.044004295
100	0xbdcc3c85	-0.09972481
101	0x3e05b381	0.13056757
102	0xbcaddcb0	-0.021223396
103	0x3eab1196	0.33411855
104	0x3c0c350c	0.008557569
105	0x3d77a161	0.060456637
106	0x3cfe9167	0.031075193
107	0xbe18a1ff	-0.14905547
108	0xbeae9335	-0.34096685
109	0xbd908103	-0.07055857
110	0x3decbcaa	0.11559422
111	0x3e5b5adc	0.21421379
112	0x3dbd36a2	0.09238936
113	0x3e1128c4	0.14175707
114	0xbd36bdf3	-0.044614743
115	0x3c1a4c90	0.009417668
116	0xbdf07d97	-0.11742704
117	0x3db4d01c	0.08828756
118	0xbd95f84a	-0.07322748
119	0xbe3f7366	-0.18696365
120	0xbda7f58a	-0.0820113
121	0x3dc4015e	0.09570573
122	0xbd09671f	-0.03354561
123	0x3ea105cf	0.31449744
124	0xbd89df1c	-0.06732008
125	0xbd6345b6	-0.055486403
126	0x3e8081af	0.2509894
127	0x3e1cf2e0	0.15327024
128	0xbc92774e	-0.017879155
129	0x3dde7647	0.10862403
130	0x3e0f8740	0.14016438
131	0xbe55c52e	-0.20876
132	0x3eaef233	0.34169158
133	0x3e1ebbb1	0.15501286
134	0x3ce474c1	0.027887704
135	0x3dd764e4	0.1051729
136	0x3e1ca4fd	0.15297313
137	0x3e364b69	0.17802204
138	0xbd363c95	-0.04449137
139	0x3d88b10a	0.066743925
140	0x3e0e0f7d	0.13873096
141	0x3bbc10ca	0.005739306
142	0x3d271f09	0.04080108
143	0xbe6bed13	-0.23039655
144	0x3e7af83c	0.24508756
145	0x3e026586	0.1273404
146	0xbe225bd0	-0.15855336
147	0x3db2ce2b	0.0873073
148	0x3cae3739	0.021266567
149	0xbcd9f418	-0.02660565
150	0x3de0fb86	0.10985474
151	0xbe65a602	-0.22426608
152	0x3e7f5601	0.24935152
153	0xbeb03ffa	-0.3442381
154	0x3de8a22d	0.113590576
155	0x3e69b654	0.22823459
156	0x3e7a8f5b	0.24468748
157	0x3e181c2b	0.14854495
158	0x3d30ca64	0.043161765
159	0x3e224f97	0.15850674
160	0xbd5f5f1b	-0.05453406
161	0xbe18f3ec	-0.14936799
162	0xbc6d6e33	-0.014491606
163	0xbde492da	-0.11160822
164	0x3e18fc04	0.14939886
165	0xbd12e942	-0.035866983
166	0xbe294f53	-0.16534166
167	0x3e3b4767	0.18288957
168	0x3e263b52	0.16233566
169	0x3e255414	0.16145355
170	0x3e2f5310	0.1712153
171	0x3e10dade	0.14145991
172	0xbe0abb38	-0.13547981
173	0x3e31163b	0.17293637
174	0x3e455dfa	0.1927413
175	0xbe6c3441	-0.23066808
176	0xbe11f837	-0.14254843
177	0xbd18c1ed	-0.037294317
178	0x3ea4cc0a	0.3218692
179	0xbe4d5b61	-0.2005439
180	0xbd7fe70e	-0.06247621
181	0x3d8099fd	0.06279371
182	0x3c0576e8	0.008146025
183	0xbeaf3617	-0.34220955
184	0xbe003f46	-0.12524137
185	0xbd92c10b	-0.07165726
186	0x3dc7be77	0.09753125
187	0xbd7e5855	-0.06209596
188	0xbe3a6771	-0.18203522
189	0x3e36cf0f	0.17852424
190	0xbe583327	-0.21113263
191	0xbd3dd614	-0.04634674
192	0x3d354501	0.04425526
193	0x3c873246	0.016503464
194	0x3e158c2b	0.14604251
195	0x3e86be42	0.2631703
196	0xbd9ae692	-0.07563509
197	0xbe15c16a	-0.14624563
198	0xbd74a90e	-0.059731536
199	0xbe47e850	-0.19522214
200	0x3e48a2af	0.19593309
201	0x3d3eec57	0.04661211
202	0x3e114527	0.14186536
203	0xbe07a0d6	-0.13244948
204	0xbb48cb3a	-0.003063871
205	0xbc96c7aa	-0.018405754
206	0x3d82f3ad	0.06394134
207	0xbba805dc	-0.0051276516
208	0x3daca2f7	0.084295206
209	0xbc19fcb0	-0.009398624
210	0x3d5a313f	0.05326962
211	0x3d31b6bd	0.043387163
212	0x3c84751c	0.016169123
213	0x3da4510f	0.08023273
214	0x3e0f9931	0.14023282
215	0x3e465133	0.19366913
216	0xbe850c40	-0.25985909
217	0xbe195f8e	-0.14977857
218	0xbe546b4a	-0.20744053
219	0xbea6c893	-0.325749
220	0xbdf3c271	-0.11902321
221	0xbc9bc5ca	-0.019015212
222	0xbe773a36	-0.241433
223	0x3e0b1f96	0.13586268
224	0xbcae92d5	-0.02131025
225	0xbe4cbb48	-0.19993317
226	0xbe89f6b3	-0.2694603
227	0x3c425645	0.011861389
228	0x3e23c2f0	0.15992332
229	0xbcaacc4f	-0.020849375
230	0x3dcc2614	0.099682
231	0xbdd9c5e2	-0.10633446
232	0xbc5532b0	-0.013012573
233	0xbd0a8b51	-0.03382427
234	0x3d40cacd	0.047068406
235	0x3d32297d	0.043496598
236	0x3d917b33	0.071035765
237	0x3db44bac	0.08803496
238	0x3de89eb3	0.113583945
239	0x3df05f56	0.11736934
240	0x3df59ca2	0.11992766
241	0xbce9e37b	-0.028550854
242	0x3e8b59e8	0.2721703
243	0xbd975e23	-0.07391002
244	0x3d6df4f9	0.058094952
245	0xbe1e3792	-0.15450886
246	0xbcd33598	-0.025782391
247	0xbd0553be	-0.032550566
248	0x3e8210bd	0.25403395
249	0x3d9eec93	0.07759967
250	0xbe9419d0	-0.28925943
251	0x3e2094d5	0.15681775
252	0xbda54023	-0.08068874
253	0x3de661ab	0.112490974
254	0xbe03c69c	-0.12868732
255	0x3e53c7de	0.20681712

actor.2.weight f4 [128, 256]
0	0xbdd45e5d	-0.10369561
1	0x3c94947d	0.018137211
2	0xbc1ded86	-0.0096391495
3	0x3d175bdd	0.036952842
4	0xbd1a2fd4	-0.03764327
5	0x3e54278d	0.20718212
6	0xbd7d5fcf	-0.06185895
7	0xbd9b069a	-0.075696185
8	0xbd4dd168	-0.050248533
9	0xbd511434	-0.051044658
10	0x3d8b2472	0.06794061
11	0xbe0acf91	-0.13555743
12	0x3d7dd4e6	0.061970614
13	0xbdbc69de	-0.0919988
14	0x3d85a122	0.06524874
15	0x3e19ae6c	0.15007943
16	0x3dc6c8e6	0.09706287
17	0xbdb0d462	-0.08634259
18	0x3c6867fe	0.01418495
19	0xbd3a7404	-0.045520797
20	0x3dc2308b	0.09481915
21	0xba8b614f	-0.0010633859
22	0x39fe890a	0.00048548757
23	0x3dca9c7e	0.0989313
24	0xbdcd1679	-0.10014052
25	0xbcf4d7a4	-0.029887982
26	0x3db31de3	0.08745935
27	0x3d384231	0.044985
28	0x3dbc1014	0.09182754
29	0xbd2d8959	-0.042367313
30	0x3d839d22	0.06426455
31	0x3cb91fc8	0.022598162
32	0x3bd93cdd	0.00662957
33	0x3d63a1f1	0.05557436
34	0xbc31f124	-0.010860715
35	0x3db64dd6	0.08901565
36	0x3d457abb	0.048212748
37	0xbcb58945	-0.022160182
38	0xbd272822	-0.040809758
39	0x3d0164da	0.03159032
40	0x3d566901	0.052346233
41	0x3d267790	0.040641367
42	0x3e85372b	0.26018652
43	0x3c4e1fe9	0.01258085
44	0xb9e011f6	-0.0004273799
45	0x3d3f901a	0.046768285
46	0xbdddf3f2	-0.108375445
47	0xbdb83ab1	-0.089955695
48	0x3c98d535	0.018656353
49	0xbd1576fa	-0.036490418
50	0xbd97da97	-0.074147396
51	0xba6cf5df	-0.0009039323
52	0xbe1241af	-0.14282869
53	0x3d18d44e	0.037311845
54	0x3d9ca9ce	0.07649575
55	0x3cb7b64f	0.022425799
56	0xbd240098	-0.04003963
57	0xbbf22401	-0.007389546
58	0x3e16d45e	0.14729449
59	0xbcda201c	-0.026626639
60	0x3e97a3ad	0.29617062
61	0xbc8374d0	-0.016046911
62	0x3df7c4e5	0.120981015
63	0x3ca63495	0.020288745
64	0x3c4d6d96	0.012538334
65	0xbd62f07d	-0.05540513
66	0xbcff94aa	-0.031198818
67	0x3d58ebd4	0.05295928
68	0x3d3c2175	0.045930345
69	0x3c8c7424	0.017145224
70	0x3d32f07c	0.043686375
71	0x3a41c517	0.00073917344
72	0x3cd4efd4	0.025993265
73	0x3ca71a06	0.020398151
74	0x3d9d28f9	0.076738305
75	0x3cca6944	0.024708398
76	0x3dfe3f4d	0.124144174
77	0xbd131ca4	-0.035915986
78	0x3bc2ece2	0.005948649
79	0x3e60896f	0.21927427
80	0x3d5b89a4	0.05359806
81	0xbcf1fe27	-0.029540135
82	0x3e012132	0.1261032
83	0x3d2eb0d9	0.042649124
84	0x3c7d8c5b	0.015475358
85	0xbcc8fb6b	-0.024533948
86	0xbe04c058	-0.12963998
87	0xbc9cf5fe	-0.019160267
88	0xbe0c74cb	-0.13716428
89	0xbc108a7b	-0.008822079
90	0x3d9d0efa	0.07668872
91	0x3dd599df	0.10429739
92	0x3d0cd2f7	0.03438088
93	0xbd11b19e	-0.03556978
94	0x3d5672ab	0.05235545
95	0xbc3b1176	-0.011417737
96	0x3c00ace8	0.007853724
97	0x3d212838	0.039344996
98	0x3d9e704e	0.07736264
99	0x3c800a82	0.01563001
100	0xbc5e5a05	-0.013571267
101	0xbd9238d0	-0.071397424
102	0xbd488c81	-0.04896212
103	0x3d3da56c	0.046300337
104	0xbd426844	-0.047462717
105	0xbce2ab0a	-0.027669448
106	0x3d6a65ab	0.057225864
107	0xbe37d188	-0.17951024
108	0xbcfd48f9	-0.030918585
109	0x3d706a6b	0.058695238
110	0xbd8bef0b	-0.06832703
111	0x3d27876b	0.04090063
112	0x3c2e4f31	0.010638998
113	0xbe191da2	-0.1495271
114	0x3d96b8ec	0.0735949
115	0xbd892f14	-0.066984326
116	0x3cdb48e3	0.026768154
117	0xbd26e5c1	-0.040746454
118	0xbd0e07c6	-0.034675382
119	0xbd90dc36	-0.07073252
120	0xbce18586	-0.02752949
121	0xbd58a753	-0.052893948
122	0x3afcad0f	0.001927765
123	0x3c5bfee7	0.013427473
124	0xbcabeefb	-0.020987978
125	0x3e1a8215	0.15088685
126	0xbbcd3ab2	-0.0062631005
127	0x3d9b3e39	0.075802274
128	0x3d7b8a97	0.061411466
129	0x3d83af2c	0.06429896
130	0x3cd2a14e	0.025711682
131	0xbb341e85	-0.0027484011
132	0xbd7a3cb7	-0.06109306
133	0x3d8f3221	0.06991983
134	0xbcb3a281	-0.021928074
135	0xbde53831	-0.11192358
136	0xbdb483a5	-0.08814172
137	0x3cfc3e9a	0.03079157
138	0x3a345135	0.0006878556
139	0xbb430132	-0.002975535
140	0xbbad307d	-0.0052853213
141	0xbbc70263	-0.0060732826
142	0x3d547f31	0.05187911
143	0x3da13188	0.078707755
144	0x3d4b6710	0.049658835
145	0xbd97d17d	-0.074130036
146	0xbd55cdfa	-0.052198388
147	0xbe092da1	-0.13396312
148	0x3ade2439	0.0016948051
149	0xb8142914	-3.5324207e-05
150	0xbd1ef2f6	-0.038805924
151	0x3d9f615e	0.07782243
152	0xbc800db8	-0.015631542
153	0xbd55a14c	-0.052155778
154	0xbd9d697f	-0.076861374
155	0xbdf10fdc	-0.11770603
156	0xbd4c74cd	-0.049916077
157	0xbd6813a3	-0.056659352
158	0xbc2d10b2	-0.0105630625
159	0x3df01096	0.117219135
160	0xbdae1236	-0.08499567
161	0x3d9284cb	0.071542345
162	0x3d2f1453	0.042743992
163	0x3cddf2a5	0.027093241
164	0x3bc1a456	0.005909483
165	0x3c8282fc	0.015931599
166	0xbe2dc879	-0.16971005
167	0xbd8f4e94	-0.069974095
168	0x3d223e3c	0.039610133
169	0xbd22fbe0	-0.039790988
170	0xbd014645	-0.031561155
171	0xb902f431	-0.00012488735
172	0x3d17e166	0.03708019
173	0xbd457977	-0.04821154
174	0xbccfe95a	-0.025379825
175	0xbd88f59c	-0.06687471
176	0xbc9a3842	-0.018825654
177	0x3bcb9edb	0.0062140054
178	0xbdb205a7	-0.08692484
179	0x3c28818d	0.010284794
180	0xbd4349ec	-0.04767792
181	0x3d121fd2	0.035674877
182	0xbc757f5a	-0.014983976
183	0x3d72cee4	0.059279338
184	0xbd83833e	-0.06421517
185	0xbce277a8	-0.027644947
186	0x3cd5fe4c	0.026122235
187	0x3da92456	0.08258884
188	0xbdb3cfdf	-0.08779883
189	0x3cdb38c6	0.02676047
190	0x3b997c5b	0.004684014
191	0xbad6de56	-0.0016393166
192	0xbcf7d79a	-0.030254174
193	0xbd44259b	-0.047887426
194	0x3d0ca5d1	0.034337822
195	0xbc035ec2	-0.0080181975
196	0xbe01ba79	-0.1266879
197	0xbbafab64	-0.0053610075
198	0x3c36475e	0.011125414
199	0x3bcbcee4	0.0062197316
200	0xbda1c268	-0.07898408
201	0xbdc7c438	-0.09754223
202	0xbcc0719e	-0.023491677
203	0xbd8562ff	-0.06513023
204	0x3d6b8314	0.057498053
205	0xbd571f76	-0.052520238
206	0xbd20b00a	-0.039230384
207	0xbd9a730c	-0.07541475
208	0xbcbea7c5	-0.023273358
209	0x3d17b9b7	0.037042346
210	0xbcd836c6	-0.026393306
211	0xbe16ca5c	-0.14725631
212	0xbd494b3b	-0.04914401
213	0x3d392f27	0.045210984
214	0xbcb91918	-0.022594973
215	0x3c8627cc	0.016376399
216	0xbe5f20e0	-0.21789885
217	0x3d696ce9	0.05698863
218	0xbaf7f4a0	-0.0018917508
219	0x3d069078	0.03285262
220	0xbddc44ae	-0.10755287
221	0xbc5a04d9	-0.01330682
222	0x3c6ef66e	0.014585121
223	0x3d3d765d	0.04625546
224	0xbca7d609	-0.020487802
225	0xbc859e3e	-0.016310807
226	0xbdaa9b19	-0.08330364
227	0xbd2d1dd4	-0.042264774
228	0x3cbf6b79	0.023366677
229	0x3d20879c	0.039191827
230	0xbce6ed9e	-0.028189477
231	0xbc562ab4	-0.013071705
232	0x3bc440ed	0.005989185
233	0xbda2b94b	-0.07945498
234	0xbd37754f	-0.04478961
235	0x3b53d5c5	0.0032323461
236	0xbdd17e2e	-0.10229145
237	0x3d86e79f	0.06587147
238	0xbd19e51b	-0.037572008
239	0x3d04211b	0.032258134
240	0xbe5bc726	-0.21462688
241	0xbdd5c603	-0.10438158
242	0x3bf987e0	0.0076150745
243	0x3cbfb786	0.02340294
244	0xbcc92d73	-0.024557805
245	0xbc12a760	-0.008951038
246	0xbd79ad07	-0.060956027
247	0x3c867065	0.016411016
248	0xbd89f964	-0.067370206
249	0xbd2f9dc8	-0.04287508
250	0x3cb321f7	0.021866782
251	0x3cf122ec	0.029435597
252	0xbd425ec4	-0.047453657
253	0x3d74555e	0.059651725
254	0x3d612bb7	0.05497333
255	0x3b2176d9	0.002463749

actor.2.bias f4 [128]
0	0x3d04ab5a	0.032389976
1	0x3cef5795	0.029216567
2	0x3cbe42be	0.023225185
3	0x3c9ab02e	0.018882837
4	0xbd34506f	-0.04402202
5	0xbd1c5fe7	-0.038177397
6	0x3d3a19fb	0.045434933
7	0x3cb290c3	0.021797543
8	0x3d680456	0.05664476
9	0xbb270bd7	-0.0025489235
10	0xbd3fc58d	-0.04681926
11	0xbce55a1d	-0.02799707
12	0xbb88ce2f	-0.0041749696
13	0xbd49d043	-0.04927088
14	0x3c467eb5	0.01211517
15	0xbcd35249	-0.025796073
16	0xbd3a526b	-0.045488756
17	0x3ca4fac0	0.020139098
18	0x3d422ca7	0.047405865
19	0x3d5d8667	0.054083254
20	0x3c483a57	0.012220941
21	0x3d3df0ee	0.046372347
22	0x3c682d23	0.014170918
23	0xbd28ce85	-0.041212577
24	0x3c5fb0c5	0.013652985
25	0x3d38ddcc	0.045133397
26	0xbc9880ca	-0.018616099
27	0x3ce77438	0.02825366
28	0xbceabfad	-0.028655851
29	0x3b3c2656	0.0028709373
30	0x3d219435	0.039447982
31	0xbd490046	-0.049072526
32	0xbcc6f25f	-0.024285493
33	0xbd2b266d	-0.041784693
34	0x3cb43286	0.021996748
35	0xbc49c63b	-0.012315328
36	0x3a0d5ddc	0.0005392709
37	0x3d24863f	0.04016709
38	0xbcf50e8e	-0.029914167
39	0x3d4fc239	0.050722335
40	0xbc346945	-0.011011426
41	0xbd62ecf5	-0.05540176
42	0x3d5f2d42	0.05448652
43	0xbd43c8d0	-0.04779893
44	0xbc337c5f	-0.010954945
45	0x3bb410ed	0.005495182
46	0xbc7686be	-0.0150467735
47	0xbd4c3a70	-0.049860418
48	0x3d80a868	0.06282121
49	0xbc384e2b	-0.011249105
50	0x3d2b6847	0.041847493
51	0xbd423da5	-0.04742207
52	0x3cd375b1	0.025812956
53	0xbcab7f33	-0.020934677
54	0xbd0865c2	-0.03330017
55	0x3d36433b	0.04449771
56	0x3d71c723	0.059027802
57	0x3c265041	0.01015097
58	0xbd41d353	-0.047320675
59	0xbb8977c7	-0.004195187
60	0xbd6893fa	-0.056781746
61	0xbd4c14ab	-0.049824398
62	0xbcf346b4	-0.0296968
63	0xbcbac9ef	-0.022801368
64	0x3d241731	0.04006118
65	0x3c90c1f7	0.017670615
66	0x3cc5a12f	0.02412471
67	0x3bae3086	0.005315843
68	0xbc0a1014	-0.008426685
69	0x3cbcf740	0.023067117
70	0x3d15e494	0.036594942
71	0xbd02787e	-0.03185319
72	0xbcd3fe00	-0.025877953
73	0x3d4e595d	0.050378192
74	0x3d5e32a3	0.05424751
75	0x3d43bbcd	0.047786523
76	0x3d12055d	0.035649646
77	0x3d11682d	0.03549974
78	0xbc30834a	-0.010773489
79	0x3d450352	0.04809887
80	0xbd3fb385	-0.046802063
81	0xbca449df	-0.020054756
82	0xbd06ae19	-0.032880876
83	0x3d104054	0.035217598
84	0xbd2de03a	-0.042450167
85	0xbd19798c	-0.03746943
86	0xbd501e30	-0.05081004
87	0xbcb3f654	-0.021968044
88	0x3d70ff3b	0.058837157
89	0x3be58f23	0.0070055886
90	0x3d7cdc09	0.06173328
91	0xb905a47a	-0.0001274514
92	0xbc118a3f	-0.008883058
93	0x3d2ec992	0.0426727
94	0xbc49d6f3	-0.012319314
95	0x3d1a95cb	0.03774051
96	0x3d3f1f83	0.04666091
97	0xbb38a8da	-0.0028176815
98	0xbd8b341b	-0.06797048
99	0x3c590198	0.013245009
100	0x3d036a11	0.032083575
101	0x3cc75478	0.02433227
102	0x3d84c74c	0.06483325
103	0x3bbc5b5f	0.005748197
104	0x3d3937e0	0.045219302
105	0xbd27d7ca	-0.040977277
106	0xbd17d690	-0.037069857
107	0xbc8e3e41	-0.01736367
108	0x3c32efaa	0.010921398
109	0xbd0a925c	-0.033830985
110	0xbc610e74	-0.013736356
111	0xbc5a68c9	-0.013330647
112	0x3c37bf94	0.011215109
113	0xbce65b1d	-0.028119618
114	0x3c93f9b1	0.018063398
115	0xbd31d6aa	-0.04341761
116	0x3d0a45b0	0.033757865
117	0xbc3bd723	-0.011464867
118	0xbb2ff84b	-0.0026850875
119	0x3bc9e3fa	0.00616121
120	0xbc844c39	-0.016149627
121	0xbcb7720f	-0.022393255
122	0x3cabda27	0.020978047
123	0xbcce4c4d	-0.025182867
124	0xbc89b54c	-0.016810082
125	0x3d93ec71	0.07222832
126	0xbd430a5a	-0.047617294
127	0x3d23f476	0.040028058

actor.4.weight f4 [6, 128]
0	0x3e0f9a2f	0.1402366
1	0xbd0a7680	-0.033804417
2	0xbd793adc	-0.06084715
3	0xbc9a64a3	-0.018846815
4	0xbdcee321	-0.10101915
5	0xbd3ddcd7	-0.046353187
6	0xbe02d6d1	-0.12777258
7	0x3d603c6c	0.054745123
8	0xbb16a33b	-0.0022985477
9	0x3d7bab65	0.06144275
10	0x3d06cad8	0.03290829
11	0xbd2a45cf	-0.04157048
12	0xbd7a936f	-0.06117576
13	0xbcaac11a	-0.020844031
14	0xbd5a0334	-0.05322571
15	0xba16d960	-0.00057544373
16	0x3d14198c	0.036157176
17	0x3d0a64f8	0.033787698
18	0xbd8746dc	-0.06605312
19	0x3db8a0bd	0.090150334
20	0x3c3f186e	0.011663539
21	0x3d3d461a	0.046209432
22	0x3cdd3a3b	0.027005306
23	0xbc77cc9a	-0.015124464
24	0xbc3d941e	-0.011570958
25	0xbaa39e3d	-0.0012483072
26	0xbcf0fc15	-0.029417077
27	0xbce282f1	-0.027650328
28	0x3d94b926	0.07261877
29	0xbd1ce213	-0.03830154
30	0x3e030425	0.1279455
31	0x3c8aa38d	0.01692369
32	0x3bf6f975	0.007537062
33	0x3c232286	0.0099569615
34	0x3cd021f8	0.025406823
35	0x3d37b906	0.044854186
36	0x3cba8065	0.022766301
37	0xbdf1a995	-0.11799923
38	0x3cb900f7	0.022583468
39	0xbc963ea4	-0.018340416
40	0xbcc4cd75	-0.02402375
41	0xbcc7bfbb	-0.024383416
42	0xbd63b1af	-0.055589374
43	0xbd09eb65	-0.033671755
44	0xbba11fee	-0.0049171364
45	0x3db61bdb	0.08892032
46	0x3dcda999	0.10042114
47	0x3d883841	0.066513546
48	0xbc4683a1	-0.012116344
49	0xbd7625e3	-0.060094725
50	0xbd7984ca	-0.060917653
51	0x3cd647cf	0.026157288
52	0x3cd84248	0.026398793
53	0x3c93f9fd	0.01806354
54	0xbe02ee0c	-0.1278612
55	0x3d56b170	0.05241531
56	0x3bb8f03c	0.0056438725
57	0x3d8e8a41	0.069599636
58	0x3ce7fdaf	0.028319208
59	0x3c97868d	0.018496776
60	0xbc7577b8	-0.014982156
61	0xbd336c91	-0.04380471
62	0x3ccbb79d	0.024867827
63	0x3d0581d6	0.032594524
64	0xbe35474a	-0.17702976
65	0x3ce97fd0	0.028503329
66	0x3e06570c	0.13119143
67	0xbaeba6b7	-0.0017978762
68	0x3a59949e	0.0008300039
69	0xbd4b9543	-0.049702894
70	0xbd92a1db	-0.07159778
71	0xbbe2c456	-0.0069203777
72	0xbda85015	-0.082183994
73	0x3de2971e	0.110639796
74	0xbd87e83a	-0.066360906
75	0xbc9ad907	-0.018902315
76	0x3dd6eb64	0.10494116
77	0xbd841c7e	-0.06450747
78	0xbaedfe04	-0.0018157368
79	0xbd072341	-0.032992605
80	0xbc8a8f02	-0.016913895
81	0x3d7a64b7	0.061131205
82	0xbbc7d282	-0.0060980925
83	0xbd59eeb1	-0.05320615
84	0xbda87ff5	-0.08227531
85	0xbca35ba5	-0.01994116
86	0x3b686568	0.0035460833
87	0x3d3904e2	0.045170672
88	0x3d02324b	0.031786244
89	0x3d1ec299	0.0387598
90	0xbd4223fe	-0.047397606
91	0xbd958f5e	-0.07302736
92	0xbc42a4bc	-0.011880096
93	0x3dcf6750	0.10127127
94	0xbd5da4b3	-0.054112148
95	0xbdf8d912	-0.12150778
96	0x3d8b5863	0.06803968
97	0x3dc72acc	0.0972496
98	0xbc35255a	-0.011056269
99	0x3d016698	0.03159198
100	0xbcd42a2e	-0.02589902
101	0xbd97a2d3	-0.07404103
102	0xbd961423	-0.073280595
103	0x3b382c0d	0.0028102428
104	0x3de5c3d1	0.1121899
105	0x3c29585f	0.010336011
106	0x3d7f13f6	0.062274896
107	0x3dc5b842	0.09654285
108	0xbd361c10	-0.044460356
109	0xb9d0fc45	-0.00039860807
110	0xbc81a5e1	-0.015826168
111	0xbc3460ac	-0.0110093765
112	0xbd5d90ca	-0.05409316
113	0x3cc5cb02	0.024144653
114	0xbd35949a	-0.04433117
115	0x3c299614	0.010350723
116	0x3912e85f	0.0001401021
117	0xbaf93d41	-0.0019015447
118	0xbb841669	-0.004030992
119	0xbc3d5b62	-0.011557432
120	0x3d237eac	0.039915726
121	0x3da97713	0.08274665
122	0xba3ec092	-0.000727662
123	0x3c44b6bc	0.012006458
124	0xbc021f60	-0.007942051
125	0xbd109380	-0.035296917
126	0x3d82895a	0.06373854
127	0x3d090286	0.033449672
128	0x3d36380e	0.04448705
129	0x3d398427	0.045292046
130	0x3c0d6397	0.008629701
131	0x3d0e08b3	0.034676265
132	0xbd6507b4	-0.05591555
133	0x3d09b28e	0.03361755
134	0x3c4fe798	0.012689494
135	0x3cee6e06	0.029105198
136	0x3cfce2bf	0.03086984
137	0x3ca991ee	0.020699468
138	0xbbc3263b	-0.005955485
139	0xba42c84e	-0.00074303604
140	0xbceeceff	-0.029151438
141	0x3c9ee3f9	0.019395815
142	0xbc82c818	-0.015964553
143	0xbcb2c1cc	-0.021820925
144	0xbc87ec95	-0.016592303
145	0xbd1ad1d1	-0.037797753
146	0xbcb6c319	-0.022309827
147	0x3d51755f	0.051137324
148	0xbc03ac13	-0.008036631
149	0xbc3886a0	-0.011262566
150	0x3c1ab383	0.009442213
151	0x3d911c34	0.070854574
152	0xbd6f46b1	-0.058417026
153	0xbc0e1d17	-0.008673928
154	0x3cff4246	0.031159531
155	0x3cb67081	0.022270443
156	0x3d6afe91	0.05737168
157	0x3d444579	0.047917817
158	0x3e13db76	0.14439186
159	0xbc618967	-0.013765669
160	0xbc2f7ca2	-0.010710867
161	0xbd1a3ddf	-0.03765666
162	0x3d045737	0.032309737
163	0x3c8eeea2	0.017447773
164	0xbd12e25d	-0.035860408
165	0x3c9a9510	0.018869907
166	0xbda5c63c	-0.08094451
167	0x39b51d30	0.00034544757
168	0x3cf3402e	0.02969369
169	0xbcb4801f	-0.02203375
170	0x3bed80df	0.0072480286
171	0xbd10554d	-0.0352376
172	0xbb2e7372	-0.0026619104
173	0x3c465dd3	0.01210733
174	0xbd951e72	-0.072811976
175	0xbc8ccbe5	-0.017187068
176	0x3d00f0aa	0.031479515
177	0xbd382c07	-0.044963863
178	0x3d71621e	0.058931462
179	0xbce19fc8	-0.02754201
180	0xbd96cc9f	-0.07363247
181	0xba7e7ba5	-0.00097077555
182	0xbc19c8f6	-0.009386292
183	0x3cff08f1	0.031132193
184	0x3d01de50	0.031706154
185	0xbcdad5b2	-0.026713226
186	0x3cd6efcc	0.026237391
187	0x39ae33a8	0.00033226353
188	0xbd3a24fb	-0.045445424
189	0x3d1f21e3	0.038850676
190	0x3ce1520c	0.027504943
191	0xbc11529a	-0.008869791
192	0xbd2d92a9	-0.042376194
193	0x3ca279d0	0.019833475
194	0x3d99aac1	0.07503272
195	0xbd097363	-0.033557307
196	0x3bb6a467	0.0055737975
197	0xbdb0d9a1	-0.086352594
198	0x3d189113	0.03724773
199	0xbc953f57	-0.01821868
200	0xbd1bb5bf	-0.038015123
201	0x3d7db3b8	0.06193897
202	0x3d4b230f	0.04959398
203	0x3c9132f1	0.017724486
204	0xbda344e9	-0.07972128
205	0xbd848094	-0.06469837
206	0xbc4188a0	-0.011812359
207	0x3a751402	0.00093489897
208	0xbdaa47af	-0.08314454
209	0xbd030f71	-0.031997148
210	0xbd8feab5	-0.07027189
211	0xbd94aa83	-0.07259085
212	0x3d105a01	0.035242084
213	0x3c2e049f	0.010621219
214	0xbcd1abbe	-0.025594588
215	0x3d5e4f1d	0.054274667
216	0x3d0c5860	0.03426397
217	0xbcf77b65	-0.030210206
218	0x3c584fe0	0.013202637
219	0x3d96bc51	0.07360137
220	0xbc1015c0	-0.008794248
221	0x3c8a00c0	0.01684606
222	0xbd12afaf	-0.035812076
223	0xbd20fc12	-0.039302893
224	0xbd1184fa	-0.035527207
225	0xbc9a195b	-0.018810919
226	0xbd89639a	-0.067084506
227	0x3cb4fd03	0.022093302
228	0x3cd039d9	0.025418209
229	0x3da52c39	0.080650754
230	0x3d7531d2	0.059861965
231	0x3bc77ecb	0.006088113
232	0x3d72df1c	0.059294805
233	0xbb918b22	-0.0044416348
234	0xbd1c125c	-0.038103446
235	0x3b9aaa66	0.00472002
236	0x3d19cccf	0.037548836
237	0x3d9ec223	0.077518724
238	0xbd707c59	-0.058712337
239	0xbcd0ba04	-0.025479324
240	0x38f2cc28	0.00011577486
241	0x3d6d9d8a	0.05801157
242	0xbd71257a	-0.05887363
243	0xbc9e9d16	-0.019362014
244	0xbbae6453	-0.005322018
245	0xbb387622	-0.0028146585
246	0xbc5d09e9	-0.013491132
247	0xbc043a9a	-0.008070612
248	0x3bada07b	0.005298672
249	0xbc26fc76	-0.010192027
250	0x3c65b153	0.014019328
251	0x3cc1170d	0.023570562
252	0xbc72aaa6	-0.014811194
253	0x3cd69c95	0.026197711
254	0x3d3aaac1	0.045573
255	0x3be7d6c5	0.007075163

actor.4.bias f4 [6]
0	0xbcd11849	-0.025524275
1	0x3d8b47c1	0.06800795
2	0xbd211bc6	-0.039333127
3	0xbb0f4e29	-0.0021866655
4	0x3db76399	0.089545436
5	0xbc1910d6	-0.009342393

critic.0.weight f4 [256, 12]
0	0x3e084366	0.1330696
1	0x3e7a73b0	0.24458194
2	0x3dc7f2fd	0.09763143
3	0xbd6b6c8d	-0.05747657
4	0xbdcbcf33	-0.099516295
5	0x3d3ec774	0.046576932
6	0xbe8e7895	-0.27826372
7	0xbc02f112	-0.007992046
8	0x3d6ab697	0.057303037
9	0xbf97c025	-1.1855513
10	0xbda58bea	-0.08083327
11	0xbe8fccde	-0.2808599
12	0x3e5e93c5	0.21736057
13	0x3e67cfef	0.22637914
14	0x3e9a74b2	0.30167156
15	0x3d54d409	0.051960025
16	0xbe11cda0	-0.14238596
17	0x3e0729de	0.13199565
18	0x3e179519	0.1480297
19	0xbe0ab294	-0.13544685
20	0xbdf6059f	-0.12012791
21	0x3f8557cf	1.0417422
22	0x3eaa1f91	0.33227208
23	0xbe8222e3	-0.2541724
24	0xbe2fe60d	-0.17177601
25	0xbdb07d8b	-0.086176954
26	0x3d18770f	0.037222918
27	0x3cc0d554	0.023539223
28	0x3e485928	0.1956526
29	0xbd9acaf5	-0.07558242
30	0xbe45988c	-0.19296473
31	0x3e19b043	0.15008645
32	0x3e38d9b6	0.180518
33	0x3ed51eb6	0.41624993
34	0xbea87df6	-0.329086
35	0x3ea0508f	0.3131146
36	0xbe19c522	-0.15016606
37	0x3cdc5a0e	0.02689841
38	0x3dabb958	0.08384961
39	0xbe1b4453	-0.15162782
40	0xbd419258	-0.047258705
41	0x3dff3472	0.12461175
42	0x3c81e821	0.015857758
43	0xbd176209	-0.036958728
44	0x3e3f4c74	0.18681508
45	0xbf8083f2	-1.0040267
46	0x3ea9deda	0.33177835
47	0x3db3812d	0.08764873
48	0x3e2077c4	0.15670687
49	0x3cc22307	0.023698343
50	0xbd820168	-0.063479245
51	0x3eafa1c1	0.34303096
52	0xbdd410b7	-0.103547506
53	0xbe3de9f5	-0.18546279
54	0x3e84cc44	0.25937092
55	0xbe9164c0	-0.2839718
56	0x3cf2c479	0.029634701
57	0x3e2562ce	0.16150972
58	0x3e401df1	0.18761422
59	0xbe21be66	-0.15795287
60	0x3de7c397	0.11316603
61	0x3d8268e8	0.063676655
62	0x3e39ed01	0.18156816
63	0x3de92326	0.11383657
64	0xbc540db2	-0.012942718
65	0x3e475f59	0.19469966
66	0x3e2ad16a	0.16681448
67	0xbe91dcd3	-0.28488788
68	0xbe988269	-0.29786995
69	0x3f3bfe09	0.734345
70	0x3e2a1a31	0.16611554
71	0x3e003b6c	0.12522668
72	0x3d7539c5	0.059869546
73	0xbd601f34	-0.054717258
74	0xbe7fca01	-0.24979402
75	0x3dbe70bd	0.09298847
76	0xbe37c29b	-0.1794533
77	0xbe86ba60	-0.26314068
78	0x3d833814	0.064071804
79	0xbd86c913	-0.065813206
80	0x3e7cd7d3	0.24691705
81	0xbf1b74e9	-0.60725266
82	0x3efa9891	0.48944524
83	0x3de7f7ab	0.11326536
84	0xbe454e2a	-0.19268098
85	0xbe5aaee3	-0.21355776
86	0xbcfc848b	-0.03082492
87	0xbbe18d03	-0.006883265
88	0x3dc194bc	0.09452197
89	0xbc84f71b	-0.01623111
90	0x3e921af7	0.28536198
91	0xbe1668b6	-0.14688382
92	0xbb8c4edf	-0.004281863
93	0xbf652b79	-0.8951946
94	0xbef081a2	-0.46973902
95	0xbe1ef7c2	-0.155242
96	0xbe83f840	-0.25775337
97	0x3dbdfaf3	0.092763804
98	0xbde655fd	-0.1124687
99	0xbce02801	-0.027362825
100	0xbeb0e5de	-0.34550375
101	0xbe31e135	-0.17371066
102	0xbd4667b2	-0.048438735
103	0x3d13ed65	0.03611507
104	0xbe0f06a9	-0.13967384
105	0xbdf620c3	-0.120179676
106	0x3f062df6	0.5241388
107	0xbed7a50d	-0.4211811
108	0xbe008461	-0.12550499
109	0x3d6b9238	0.057512492
110	0x3e610a4f	0.21976589
111	0xbdcbc6eb	-0.0995005
112	0x3e18015a	0.14844266
113	0x3db20dbd	0.086940266
114	0x3e319c02	0.17344669
115	0x3d975379	0.07388968
116	0x3c6d6848	0.014490195
117	0xbf5037b6	-0.8133501
118	0x3ea643ea	0.3247369
119	0x3c92aa22	0.017903391
120	0x3de6b9d0	0.1126591
121	0xbb2de6a9	-0.002653519
122	0xbccfb7b7	-0.025356157
123	0x3e0f6bcd	0.14005966
124	0xbe2e6165	-0.1702934
125	0xbda946f9	-0.0826549
126	0x3e017f22	0.12646154
127	0xbe5338cf	-0.2062714
128	0x3e58912f	0.21149133
129	0x3f77db82	0.9681932
130	0xbebb50c6	-0.36585063
131	0x3eb66ea8	0.356313
132	0x3e5b0233	0.21387558
133	0x3d5b77d7	0.053581085
134	0xbdcbe2f3	-0.099553965
135	0xbcca48e9	-0.02469297
136	0x3dc68683	0.09693625
137	0xbe5b3c60	-0.2140975
138	0xbe3082ab	-0.17237346
139	0xbe83f152	-0.2577005
140	0x3e08df5c	0.13366455
141	0x3f4996e7	0.78745884
142	0x3eba3609	0.3636935
143	0x3e158e4f	0.14605068
144	0xbdca2288	-0.098698676
145	0x3b9b916b	0.00474756
146	0xbc37c1eb	-0.011215667
147	0xbe3920a2	-0.18078855
148	0xbb6d4701	-0.0036205652
149	0xbe3a4cab	-0.18193309
150	0x3db8bac1	0.090199955
151	0x3d4c1b73	0.049830865
152	0x3bc6dd73	0.0060688793
153	0xbf44a077	-0.7680735
154	0xbe3102b0	-0.17286181
155	0xbe760de5	-0.24028738
156	0x3c9e9f73	0.01936314
157	0x3e043f38	0.12914741
158	0xbd25afa3	-0.040450703
159	0xbd002c4e	-0.031292252
160	0xbdf5fb54	-0.12010828
161	0x3da539c3	0.08067658
162	0xbd93d9a7	-0.07219248
163	0xbd3723a1	-0.044711713
164	0x3c1f8369	0.0097359205
165	0x3f6b873c	0.92003226
166	0x3e05138f	0.12995742
167	0xbe0435fb	-0.12911217
168	0x3e86210a	0.26197082
169	0x3e07d77e	0.13265797
170	0x3d05ddd2	0.032682247
171	0xbe672fbf	-0.22576807
172	0xbd432495	-0.04764231
173	0xbc32a697	-0.010903976
174	0xbe18a109	-0.1490518
175	0x3e3ba624	0.18325096
176	0xbe808625	-0.25102344
177	0x3f44af28	0.7682977
178	0x3ec09463	0.3761321
179	0xbe15719b	-0.14594118
180	0x3de914a0	0.11380887
181	0xbccffd35	-0.025389293
182	0x3de531b2	0.11191119
183	0x3e059cd2	0.13048103
184	0x3dafbe4e	0.085812196
185	0xbdd25766	-0.10270576
186	0x3e0619ae	0.13095734
187	0xbd92804e	-0.071533784
188	0x3cb25572	0.02176926
189	0x3f634d9a	0.88790286
190	0xbd4c7ae6	-0.049921893
191	0x3d0cf3ea	0.034412302
192	0x3c5c3f44	0.013442818
193	0xbe562af8	-0.20914829
194	0x3db2d082	0.08731176
195	0x3ca44609	0.020052927
196	0x3cd0e03e	0.025497552
197	0x3ca782db	0.020448139
198	0x3e0c7fef	0.13720678
199	0xbe8be12c	-0.2732023
200	0xbb8f4bc5	-0.004373046
201	0x3f8f61cf	1.1201724
202	0xbe99cd2d	-0.3003935
203	0x3e5aa3a7	0.21351491
204	0xbe516c30	-0.20451427
205	0xba3c5a1d	-0.0007185059
206	0xbdb90abb	-0.0903525
207	0x3cf1f3ce	0.0295352
208	0xbe8bd5d3	-0.27311572
209	0xbde37c56	-0.111076996
210	0x3e6a1464	0.22859341
211	0x3e81f9de	0.25385946
212	0x3d1df624	0.038564816
213	0xbf8b662e	-1.0890558
214	0xbeb61246	-0.35560817
215	0x3bb116c7	0.0054043266
216	0xbe32d55c	-0.17464203
217	0xbd86117f	-0.06546306
218	0xbe0435da	-0.12911168
219	0xbe82bc8b	-0.25534472
220	0x3db4841a	0.08814259
221	0xbdb1a1b9	-0.08673424
222	0x3e31acd2	0.17351082
223	0xbde9210f	-0.113832586
224	0xbcf03535	-0.029322246
225	0xbf5f4a91	-0.87223154
226	0xbeddd027	-0.4332287
227	0x3d3e1fa9	0.046416912
228	0x3da9eb71	0.0829686
229	0xbd5f074e	-0.054450326
230	0xbd44dc6f	-0.048061784
231	0x3e8d0e33	0.27549896
232	0x3e15ed9e	0.14641425
233	0x3d72078b	0.059089225
234	0xbe60674d	-0.21914406
235	0xbca446f0	-0.020053357
236	0xbde1dc16	-0.11028306
237	0xbf63c806	-0.88977087
238	0x3ea7a185	0.32740417
239	0xbe0022b2	-0.12513235
240	0x3deed4fe	0.11661719
241	0x3db4a508	0.0882054
242	0x3de43dd7	0.111446075
243	0x3e007efe	0.12548444
244	0xbdfeff15	-0.12450997
245	0xbe0c56ef	-0.13705038
246	0xbe326bf0	-0.17423987
247	0x3c777204	0.015102867
248	0xbd8ba97a	-0.068194345
249	0x3ee8e08c	0.45483816
250	0x3eb1420c	0.34620702
251	0xbed13fe6	-0.40869063
252	0x3c70e0ce	0.014702035
253	0xbacf75a4	-0.0015827906
254	0x3d98e5a4	0.074656755
255	0xbd8ad714	-0.06779304

critic.0.bias f4 [256]
0	0xbe7c49d5	-0.2463754
1	0x3e194b3f	0.1497011
2	0x3dbfbd8b	0.09362324
3	0x3de85785	0.11344818
4	0x3e53c696	0.20681223
5	0xbe7bcc4d	-0.24589653
6	0xbdb538e6	-0.08848743
7	0x3e8d7150	0.27625513
8	0x3d7830b4	0.060593322
9	0x3e61d48f	0.22053741
10	0xbe1522ae	-0.1456401
11	0xbe742a37	-0.23844229
12	0x3e59a748	0.21255219
13	0xbea1682a	-0.31524783
14	0xbe91053e	-0.28324312
15	0xbd1a8c62	-0.037731536
16	0x3e928348	0.28615785
17	0xbdc464d2	-0.095895424
18	0xbd8bae17	-0.068203144
19	0x3d438a07	0.047739055
20	0xbeb6c46b	-0.3569673
21	0x3e775be2	0.24156144
22	0x3da804ef	0.08204066
23	0x3e16cd19	0.14726676
24	0xbebd44a6	-0.36966437
25	0xbd352291	-0.04422242
26	0x3e619c9a	0.22032395
27	0x3db8b2a0	0.09018445
28	0xbe1b9990	-0.15195298
29	0xbd645aa5	-0.055750508
30	0x3de3f674	0.111309916
31	0xbe1a3bfe	-0.15061948
32	0x3e8ce4a8	0.275182
33	0xbe9d4f81	-0.3072472
34	0xbd30fcf9	-0.043210004
35	0x3ea803bd	0.32815352
36	0xbda2f059	-0.07955999
37	0xbe44d23b	-0.19220822
38	0x3e9b6101	0.30347446
39	0xbdfa5d24	-0.122247964
40	0xbd0ad46f	-0.033894
41	0xbe43fc6d	-0.19139262
42	0x3ec931a8	0.39295697
43	0xbe2f45f5	-0.1711653
44	0xbe7e0640	-0.24807072
45	0x3e97b72d	0.2963194
46	0xbea512f9	-0.32241037
47	0xbdd1d76f	-0.10246169
48	0x3dbf63a4	0.09345177
49	0xbe8360be	-0.25659746
50	0x3c9ea554	0.019365944
51	0x3e71dc69	0.23619236
52	0xbe3e13c9	-0.18562235
53	0xbe9a3346	-0.30117244
54	0xbea7c3f4	-0.32766688
55	0x3dc1222f	0.09430348
56	0xbd0fe41e	-0.03512966
57	0x3ea73085	0.32654205
58	0x3e487180	0.19574547
59	0xbcb5d5b2	-0.022196624
60	0x3e1844f5	0.14870055
61	0x3e4c1914	0.19931442
62	0xbe38189b	-0.17978136
63	0x3e3750f7	0.1790198
64	0x3e655ec0	0.22399426
65	0xbdb9c650	-0.09071028
66	0x3e8aec7a	0.27133542
67	0xbea4e455	-0.32205454
68	0x3e01cc4c	0.1267559
69	0x3d7ed60a	0.062215842
70	0x3e9f105b	0.31067166
71	0xbe9b2137	-0.30298778
72	0xbec0f7ad	-0.37688962
73	0xbc86729c	-0.016412072
74	0x3e8d71a5	0.27625766
75	0xbdaa09d7	-0.08302658
76	0xbe2a324e	-0.16620752
77	0xbdff2d3f	-0.12459802
78	0xbd5f6af9	-0.054545376
79	0xbc7033fe	-0.014660833
80	0x3e369ada	0.17832509
81	0x3dfc9369	0.12332804
82	0xbe876d40	-0.2645054
83	0xbe9e1ce5	-0.3088142
84	0xbe81a3f5	-0.25320402
85	0x3e90eb73	0.28304633
86	0xbe36019b	-0.1777405
87	0x3e2a4298	0.16626966
88	0xbe2d9ce9	-0.16954388
89	0x3df3d9c9	0.119067736
90	0x3cb99346	0.022653233
91	0x3e75e8ab	0.24014537
92	0x3b51e546	0.0032027527
93	0x3d3bd67c	0.045858845
94	0x3ce3b3e9	0.027795749
95	0x3cbae8ec	0.022816144
96	0x3e9ab7f6	0.30218476
97	0xbe4dbf6e	-0.20092556
98	0xbe0efdda	-0.13964024
99	0xbe635fa0	-0.22204447
100	0xbe712b94	-0.2355178
101	0x3e1dc73e	0.15408036
102	0xbe5e964f	-0.21737026
103	0x3c690960	0.014223427
104	0xbe2c46ba	-0.16823855
105	0x3e1e2523	0.15443854
106	0xbe618548	-0.22023499
107	0x3d681a02	0.056665428
108	0xbdcb0c29	-0.09914429
109	0x3eadd484	0.339512
110	0x3dcbd07b	0.09951874
111	0xbe494fe1	-0.19659378
112	0x3eb0237d	0.34402075
113	0xbe0c3ea1	-0.13695766
114	0x3d2ec64b	0.042669576
115	0x3e788750	0.24270368
116	0x3e7ab236	0.24482045
117	0x3d939986	0.07207017
118	0xbe2c4588	-0.16823399
119	0x3d12159a	0.035665132
120	0xbe18fa5f	-0.14939259
121	0x3ddafb50	0.10692465
122	0xbc7de550	-0.015496567
123	0xbd926cee	-0.07149683
124	0xbe8baba0	-0.27279377
125	0x3e04a028	0.1295172
126	0x3e1ee99b	0.15518801
127	0x3e55eb2b	0.2089049
128	0x3e7ffdcd	0.24999161
129	0x3d484bf4	0.04890056
130	0xbc9b31e7	-0.018944694
131	0xbd9aba8a	-0.07555111
132	0xbe633d3b	-0.22191326
133	0x3d187ca7	0.037228253
134	0xbda4a3ba	-0.08039041
135	0x3dbbff99	0.09179611
136	0xbe373655	-0.1789182
137	0x3e471286	0.1944066
138	0xbe58226e	-0.21106884
139	0x3e3e4d8f	0.18584274
140	0x3d41ac2b	0.047283333
141	0xbe790388	-0.24317753
142	0x3de537b6	0.11192267
143	0xbe363421	-0.17793323
144	0x3e267ff8	0.16259754
145	0x3e4a4d49	0.19756044
146	0x3e70d48d	0.23518582
147	0xbe422e31	-0.18962933
148	0x3e6e8af1	0.2329519
149	0x3c9a8289	0.018861072
150	0x3e3d0968	0.1846062
151	0xbe07746d	-0.13228007
152	0xbe616124	-0.22009712
153	0x3e543f87	0.20727359
154	0xbe19faf7	-0.15037142
155	0xbdcf5789	-0.10124118
156	0x3e02373b	0.12716381
157	0xbe499341	-0.19685079
158	0xbde028a1	-0.10945249
159	0x3e69c0fb	0.22827522
160	0x3e81a299	0.25319365
161	0x3e84a156	0.2590434
162	0x3d8c7e2a	0.068600014
163	0xbdebb450	-0.11509001
164	0xbe476388	-0.19471562
165	0x3e7ba4a5	0.24574526
166	0xbe319819	-0.17343177
167	0x3d72b3fe	0.059253685
168	0x3e32d542	0.17464164
169	0x3e55d5ca	0.20882335
170	0xbeb9dc47	-0.3630087
171	0x3e0f3f48	0.13988984
172	0x3d8f9a4a	0.0701185
173	0x3d687086	0.056747936
174	0xbe7791c8	-0.24176705
175	0xbe11d86a	-0.14242712
176	0x3e4f0790	0.20217729
177	0x3e144e83	0.14483075
178	0xbd2854b5	-0.041096408
179	0x3d958a66	0.07301788
180	0x3c8c5eeb	0.017135104
181	0x3d947e18	0.07250613
182	0xbd5b0b21	-0.05347741
183	0xbe277fed	-0.16357394
184	0x3d925cb3	0.07146587
185	0xbe97ebf5	-0.29672208
186	0x3e529674	0.20565206
187	0x3e3ae249	0.18250383
188	0xbb9c4bfd	-0.0047698007
189	0x3d9cca5a	0.07655783
190	0x3dc8166b	0.09769901
191	0x3e555433	0.208329
192	0xbe9ab33c	-0.3021487
193	0x3e89edcc	0.26939237
194	0xbe885dd2	-0.2663408
195	0xbdae896e	-0.085223064
196	0x3e4e9a76	0.2017611
197	0x3d219ec4	0.03945805
198	0x3e54d51c	0.2078442
199	0xbdbeb21f	-0.09311318
200	0x3e17854f	0.14796947
201	0xbcd354ef	-0.025797335
202	0x3dd5cd70	0.10439575
203	0xbea4f4a4	-0.32217896
204	0xbdfaf957	-0.12254589
205	0xbd82b5ca	-0.0638233
206	0x3e135022	0.14386037
207	0x3e777abe	0.24167916
208	0xbdf22a0e	-0.118244275
209	0xbe1bcb7f	-0.15214346
210	0xbe8f1a86	-0.27949923
211	0x3c89a0cd	0.016800309
212	0xbd1231bb	-0.035691958
213	0x3dcbf448	0.09958702
214	0xbe54a5b8	-0.20766342
215	0x3d7cc0cf	0.061707314
216	0xbd8a78df	-0.067613356
217	0xbd72d1b1	-0.05928201
218	0xbe2ace51	-0.16680266
219	0x3e65fef4	0.22460538
220	0xbe0565ba	-0.13027087
221	0x3e20b062	0.15692285
222	0xbe3a2fcf	-0.181823
223	0x3dad686b	0.08467182
224	0x3b0c4df1	0.0021408761
225	0xbe847ba3	-0.25875577
226	0x3ab60716	0.001388761
227	0x3e556844	0.20840555
228	0xbe5b251c	-0.21400875
229	0xbdddebb9	-0.10835976
230	0x3dc57425	0.096412934
231	0xbe3a7139	-0.18207254
232	0x3cf9c3a3	0.030488795
233	0x3db99506	0.09061627
234	0x3d47b5d4	0.04875739
235	0x3e3db3c9	0.18525614
236	0x3e3ca746	0.18423185
237	0xbe3dfce4	-0.18553501
238	0x3e8bc226	0.2729656
239	0x3da97181	0.08273602
240	0xbe222154	-0.15833026
241	0x3d29fd4c	0.04150133
242	0x3e184ff1	0.14874245
243	0x3e7f0a75	0.24906333
244	0x3c2fb25d	0.010723677
245	0x3e1c9fa9	0.1529528
246	0xbdef11bb	-0.11673304
247	0x3e4fc6ee	0.2029073
248	0x3e5530e3	0.2081943
249	0xbe714363	-0.23560862
250	0x3e837b32	0.25679928
251	0x3d7e55c8	0.062093526
252	0x3d31181e	0.04323589
253	0xbceb7a5e	-0.028744873
254	0xbdfeb537	-0.12436908
255	0xbd3ae8a1	-0.04563201
