policy/PPO/checkpoints/2025-11-07_15-02/ppo_soarm_6000.pth (torch, 895437 bytes, 33 tensors)

actor.0.weight f4 [256, 12]
-0.0020677217 0.1624477 0.06184702 -0.01894914 0.08283406 0.07420705 0.11204452 0.060429085
-0.190472 0.18805164 -0.049657278 -0.13627505 -0.1320219 0.056484237 0.17633273 -0.13462114
-0.022600895 -0.082388595 -0.12447926 -0.18432146 0.04980575 0.20033304 0.26221576 -0.011336734
0.22847784 -0.051720962 -0.02090211 -0.09549565 -0.22855262 -0.091525495 0.31084082 -0.01580243
-0.34538338 0.07156556 0.10902302 0.20724225 0.14648074 0.08378649 -0.12747362 -0.33233166
0.31800553 -0.10381071 0.19527417 0.005359189 -0.28059378 0.060008615 0.16436349 -0.20237719
-0.23017466 0.029813427 0.099091195 0.15508546 0.12041372 -0.14955176 0.075641245 -0.07446135
-0.25983897 -0.07001512 -0.23610686 0.1421207 0.2078409 -0.25487393 -0.22442691 0.13705616
-0.007251282 -0.0009080404 0.17750664 0.005676324 -0.026872262 -0.25598156 -0.18378335 0.02997141
-0.132211 0.066398956 -0.04864939 0.21061528 -0.0925988 -0.026742384 -0.057310313 0.08533142
-0.047074873 -0.37300557 0.30076575 0.20233442 -0.0030570328 -0.08239803 0.094635695 0.2612927
0.021259094 0.056463152 -0.3618645 0.044931557 0.15843162 -0.10967403 -0.1765104 0.22700278
-0.014199062 -0.09597903 0.103062764 -0.22986603 -0.006449827 0.15559895 0.20665525 -0.20818353
-0.024661954 -0.115734585 0.19293962 -0.06789494 0.100187235 0.15325192 0.13373893 0.17241953
-0.0010861158 -0.11153755 -0.14630294 0.07469032 -0.25477612 0.12623128 0.08257034 -0.3451768
0.06296184 0.033309415 0.16527268 -0.17192061 -0.24142852 0.059443187 -0.15294212 -0.056693114
0.02181915 0.34541634 0.24421571 0.118114345 -0.097499475 -0.22424722 0.11857799 0.28372467
-0.20370784 0.24340911 -0.2596589 0.06391069 0.29925546 0.30575418 -0.2122329 0.19690765
-0.14577122 -0.15306893 -0.2570631 0.20970367 0.24938235 0.09205459 -0.19001389 -0.117422625
-0.23391573 -0.27986315 0.2052759 0.024815867 -0.10809259 0.027633144 -0.1697158 -0.35584038
0.28503135 0.1349001 0.18540561 0.32386628 -0.17527892 -0.16292022 -0.1904355 0.08575563
0.038701195 -0.13490494 0.05557771 0.32378915 0.10615175 0.08011955 -0.08590072 -0.34130767
0.16392425 0.018261492 -0.2248297 0.40497842 -0.071213484 -0.034299728 -0.06943571 0.16593322
0.02088257 -0.14754789 0.27323535 0.33571643 -0.015844462 0.0955448 -0.14644541 0.007514262
-0.2516969 -0.124835774 -0.21655333 0.057378065 0.114289135 0.0059193377 0.19008912 0.074325025
0.016214496 0.45954552 0.102498166 0.16842535 0.24169098 0.06360789 -0.1289188 -0.22230172
0.21022725 0.21911076 0.05985081 0.021771694 -0.23691183 -0.3453195 0.107785724 -0.17178844
0.007903954 -0.1436806 -0.19417608 -0.023380158 0.111913234 0.10760807 0.09517194 0.11584088
-0.06509729 0.22956409 0.2719225 -0.27663085 0.10840335 -0.24754725 -0.26860172 -0.10896347
-0.08752789 0.19527203 -0.18210277 -0.018298393 -0.040787876 0.028920852 -0.17033258 -0.011381043
-0.133164 0.2502515 0.21969926 0.18801403 0.23059593 0.25072533 0.1095772 0.1498392
-0.21612708 -0.06373211 0.13371728 0.04181346 -0.04788458 -0.21304041 0.15052755 0.37836325
00000000: 9d82 07bb b158 263e 4d53 7d3d 3a3b 9bbc
00000010: e7a4 a93d def9 973d 9977 e53d 7d84 773d
00000020: 180b 43be 9c90 403e 6e65 4bbd b08b 0bbe
00000030: c030 07be 045c 673d 9190 343e 20da 09be
00000040: 8325 b9bc 5abb a8bd fbee febd c4be 3cbe
00000050: 1d01 4c3d 1b24 4d3e 2541 863e b5bd 39bc
00000060: 18f6 693e 5cd9 53bd e73a abbc 3993 c3bd
00000070: b309 6abe b871 bbbd 8726 9f3e 1974 81bc
00000080: 17d6 b0be f790 923d 7647 df3d 5037 543e
00000090: 0cff 153e 4098 ab3d 7288 02be 6027 aabe
000000a0: 9fd1 a23e b69a d4bd f4f5 473e 239c af3b
000000b0: fda9 8fbe 98cb 753d e74e 283e f73b 4fbe
000000c0: e8b2 6bbe 4a3b f43c 53f0 ca3d b9ce 1e3e
000000d0: 789b f63d 1924 19be cce9 9a3d 317f 98bd
000000e0: 9d09 85be 1664 8fbd ffc5 71be 1788 113e
000000f0: 3fd4 543e d67e 82be 2bd0 65be 7358 0c3e
00000100: 2a9c edbb 8f09 6eba 4dc4 353e 7500 ba3b
00000110: 3823 dcbc 0410 83be b431 3cbe 9a86 f53c
00000120: 5262 07be 2dfc 873d 9544 47bd 88ab 573e
00000130: 71a4 bdbd d812 dbbc 38be 6abd 3dc2 ae3d
00000140: 95d1 40bd 96fa bebe f8fd 993e c130 4f3e
00000150: 8058 48bb 4cc0 a8bd 5cd0 c13d 28c8 853e
00000160: 8d27 ae3c e845 673d 4e46 b9be 270a 383d
00000170: e63b 223e c79c e0bd 24bf 34be 6b73 683e
00000180: 2fa3 68bc a790 c4bd 9212 d33d 0062 6bbe
00000190: 1259 d3bb 5555 1f3e 6f9d 533e 102e 55be
000001a0: de07 cabc 4106 edbd f791 453e 810c 8bbd
000001b0: f72e cd3d 12ee 1c3e dcf2 083e bf8e 303e
000001c0: 005c 8eba cd6d e4bd 70d0 15be 3df7 983d
000001d0: 0472 82be c642 013e a31a a93d 03bb b0be
000001e0: 23f2 803d 746f 083d 3e3d 293e f50b 30be
000001f0: 0a39 77be b37a 733d dc9c 1cbe 0a37 68bd
00000200: 13be b23c 69da b03e af13 7a3e efe5 f13d
00000210: cead c7bd 10a1 65be 04d9 f23d 5c44 913e
00000220: ca98 50be 3d40 793e 03f2 84be 9ce3 823d
00000230: 0338 993e d08b 9c3e 9553 59be 29a2 493e
00000240: 0d45 15be 1abe 1cbe c69d 83be 8fbc 563e
00000250: 165e 7f3e 1e87 bc3d 0093 42be 467b f0bd
00000260: 9b87 6fbe 394a 8fbe d833 523e a54a cb3c
00000270: a65f ddbd e75e e23c fbc9 2dbe b630 b6be
00000280: a1ef 913e 4023 0a3e f8da 3d3e cdd1 a53e
00000290: 517c 33be 8fd4 26be 8601 43be a6a0 af3d
000002a0: 2585 1e3d 8524 0abe 74a5 633d b1c7 a53e
000002b0: 1766 d93d b815 a43d b7ec afbd e1bf aebe
000002c0: c2db 273e 2099 953c c239 66be 5559 cf3e
000002d0: 60d8 91bd df7d 0cbd 4f34 8ebd 66ea 293e
000002e0: ec11 ab3c cb16 17be 81e5 8b3e 06e3 ab3e
000002f0: 3fcc 81bc feac c33d c9f5 15be 333a f63b
00000300: 6bde 80be e6a9 ffbd 28c0 5dbe 4305 6b3d
00000310: 6c10 ea3d 01f7 c13b b9a6 423e b837 983d
00000320: 43d4 843c 8d49 eb3e 8fea d13d b277 2c3e
00000330: d77d 773e da44 823d 4a03 04be 10a3 63be
00000340: d045 573e 925e 603e 1f26 753d 8d5a b23c
00000350: 0499 72be b8cd b0be c3be dc3d 4fe9 2fbe
00000360: 967f 013c 0221 13be 18d6 46be bf87 bfbc
00000370: c432 e53d 9f61 dc3d 82e9 c23d fc3d ed3d
00000380: ba51 85bd d912 6b3e 6d39 8b3e 8fa2 8dbe
00000390: 9302 de3d 077d 7dbe 2a86 89be 3d28 dfbd
000003a0: d341 b3bd 64f5 473e 2679 3abe 83e6 95bc
000003b0: 3011 27bd 6ceb ec3c aa6b 2ebe 8e77 3abc
000003c0: 255c 08be f720 803e d8f8 603e c086 403e
000003d0: 5721 6c3e 125f 803e 036a e03d 726f 193e
000003e0: 6b50 5dbe fb85 82bd 2fed 083e 9744 2b3d
000003f0: 9f22 44bd 4427 5abe e523 1a3e d4b8 c13e

actor.0.bias f4 [256]
0.091425404 0.2663705 0.09914075 0.1519567 0.09732458 0.051319838 -0.25124487 -0.11516992
0.34590152 0.11411941 0.15250365 0.09540036 -0.023544006 0.041958623 -0.16413876 0.033648223
-0.00748954 -0.11106395 0.1493471 -0.062724784 -0.1529125 0.18960553 0.22926353 -0.12496905
-0.19307072 0.09712489 -0.049802203 -0.19319825 -0.14915286 -0.068946384 -0.26737982 -0.28306657
0.22296329 -0.16695973 -0.113451354 -0.1407043 -0.035746437 0.07992943 -0.09414617 0.15087642
-0.15121105 0.20163146 -0.2309951 0.120637625 0.057169057 -0.009400586 -0.07351722 -0.08467023
-0.11674033 0.11530002 0.10840849 -0.09666181 0.056691263 -0.097166196 -0.061204623 0.1743386
-0.013302469 -0.1156004 -0.039291937 0.101714686 0.2123835 -0.13219763 0.15156955 -0.2170974
-0.076424174 0.0127698155 -0.04605443 0.04710078 0.14001226 0.12493095 -0.005912803 -0.23573998
0.14714405 -0.1650188 0.009385259 0.034215894 0.29500806 0.16457085 -0.23680726 -0.026280183
-0.090409204 0.23416065 -0.05392288 0.1293304 -0.26344287 -0.023845779 0.08729734 0.16406342
0.19106494 -0.19102478 -0.12286726 -0.31244394 0.15474312 -0.24987991 -0.33543757 -0.2824643
0.050052643 0.13566418 0.19733146 0.082247674 -0.009992105 0.27294517 -0.14583279 0.17431307
-0.19916312 -0.15175897 0.065600514 -0.12344626 -0.065782875 0.032762475 -0.29868853 0.06493281
-0.12200787 -0.13641092 -0.046103116 -0.00048253493 0.017876234 0.03363409 -0.09620557 0.18501286
0.21889383 -0.18616045 0.03564781 -0.23929764 -0.29524586 -0.03682147 -0.08345104 -0.19205916
0.124262065 0.035708625 -0.29744008 -0.015297496 0.09270046 0.1605005 -0.15356097 0.06304405
-0.06921914 0.043892354 0.1464489 -0.112078786 0.08939738 0.099650756 -0.17730412 -0.17471144
-0.16341291 -0.034165315 -0.11914002 -0.011572866 -0.25408444 -0.02609688 -0.12928922 -0.33251622
-0.18540113 -0.19891311 -0.29065943 -0.25756398 -0.2361426 0.028501598 -0.2910459 -0.053709723
0.046626676 0.03292311 0.17940478 0.09119344 0.11283003 -0.18263611 0.21615234 -0.14325795
0.080818474 -0.05418418 -0.14280644 0.2333768 0.10475575 -0.047080312 0.1346857 -0.15428932
0.20357738 -0.009235242 0.25681117 0.10723302 -0.22471134 -0.23169932 -0.043069635 0.32022607
0.27915648 -0.10154268 -0.13085043 -0.12590657 0.024760587 -0.13583148 0.06904141 -0.22691399
-0.25977933 0.10177225 -0.17696956 -0.17813313 -0.16854373 0.025525562 0.06632551 -0.03872304
-0.10733549 -0.03290978 -0.18410318 0.17097035 0.006599095 -0.122883454 -0.0775499 0.021847386
0.021955138 -0.006953525 0.056964803 -0.074494995 -0.2586171 -0.076545514 0.29873264 -0.15832625
-0.2624286 0.012767312 0.20716092 -0.05225241 0.24409468 0.010390358 0.21830049 0.26195815
0.13258213 0.17644948 0.17647956 -0.039278403 0.21278979 -0.058503345 0.18057261 0.16496825
-0.06362562 0.07183865 -0.03658705 0.049230624 0.2221659 -0.14189023 -0.18524355 0.16122589
-0.21268684 -0.1098145 0.1642737 0.21789607 0.191677 -0.13639328 0.19015314 0.12543504
0.074657656 0.027624082 0.055293597 0.09743325 -0.050206654 0.004653296 0.018536307 -0.16683325
00000000: 3e3d bb3d b761 883e 4e0a cb3d 8a9a 1b3e
00000010: 1c52 c73d c034 523d 2ba3 80be 35de ebbd
00000020: 011a b13e 70b7 e93d eb29 1c3e 4461 c33d
00000030: 5cdf c0bc cedc 2b3d fe13 28be b8d2 093d
00000040: d16a f5bb 7f75 e3bd 72ee 183e da75 80bd
00000050: 1895 1cbe f427 423e 0fc4 6a3e c6ef ffbd
00000060: 55b4 45be 6ae9 c63d 65fd 4bbd c3d5 45be
00000070: 87bb 18be c333 8dbd 02e6 88be 1aee 90be
00000080: 7d50 643e 7ef7 2abe 2f59 e8bd ca14 10be
00000090: db6a 12bd 0ab2 a33d b5cf c0bd 597f 1a3e
000000a0: 12d7 1abe 7a78 4e3e fb89 6cbe dc10 f73d
000000b0: 1a2a 6a3d ea04 1abc 3290 96bd 9667 adbd
000000c0: 8e15 efbd 6b22 ec3d 4505 de3d a1f6 c5bd
000000d0: 1935 683d 12ff c6bd b3b1 7abd d185 323e
000000e0: 99f2 59bc e7bf ecbd 95f0 20bd ca4f d03d
000000f0: 0f7b 593e d15e 07be 0c35 1b3e c84e 5ebe
00000100: 4784 9cbd 7d38 513c 92a3 3cbd bfec 403d
00000110: 605f 0f3e ccdb ff3d 30c0 c1bb d265 71be
00000120: eeac 163e b0fa 28be a1c4 193c f725 0c3d
00000130: 4c0b 973e 4385 283e 9a7d 72be 8a49 d7bc
00000140: 7628 b9bd cfc7 6f3e 3dde 5cbd 306f 043e
00000150: fce1 86be 3958 c3bc f3c8 b23d 3e00 283e
00000160: 87a6 433e 009c 43be d4a1 fbbd a7f8 9fbe
00000170: fb74 1e3e 85e0 7fbe 79be abbe 299f 90be
00000180: 0004 4d3d 8deb 0a3e 4211 4a3e 7871 a83d
00000190: edb5 23bc 78bf 8b3e 3155 15be 207f 323e
000001a0: 6bf1 4bbe b466 1bbe 9059 863d 65d1 fcbd
000001b0: 2cb9 86bd f231 063d b4ed 98be 7efb 843d
000001c0: 43df f9bd 4eaf 0bbe 9fd6 3cbd befc fcb9
000001d0: 2e71 923c e6c3 093d 6d07 c5bd 0374 3d3e
000001e0: b425 603e d8a0 3ebe 7003 123d 710a 75be
000001f0: 772a 97be 1cd2 16bd 61e8 aabd 28ab 44be
00000200: 1c7d fe3d 3543 123d 114a 98be 59a2 7abc
00000210: bdd9 bd3d 3e5a 243e 163f 1dbe 3d1d 813d
00000220: c4c2 8dbd 78c8 333d b3f6 153e 9089 e5bd
00000230: f915 b73d b215 cc3d 368f 35be 8ee7 32be
00000240: b755 27be eef0 0bbd afff f3bd 1e9c 3dbc
00000250: 5b17 82be 20c9 d5bc 6564 04be 913f aabe
00000260: cbd9 3dbe e1af 4bbe 50d1 94be 6ddf 83be
00000270: 5ecf 71be 2f7c e93c f803 95be bafe 5bbd
00000280: 9dfb 3e3d 62da 063d e3b5 373e a0c3 ba3d
00000290: 6e13 e73d f604 3bbe 0a57 5d3e 36b2 12be
000002a0: 2884 a53d 3bf0 5dbd da3b 12be 54fa 6e3e
000002b0: 2f8a d63d 49d7 40bd 0ceb 093e 05fe 1dbe
000002c0: 9776 503e 6a4f 17bc c17c 833e fc9c db3d
000002d0: bb1a 66be 9642 6dbe c969 30bd acf4 a33e
000002e0: 99ed 8e3e 9cf5 cfbd a8fd 05be a7ed 00be
000002f0: b7d6 ca3c 6817 0bbe 9565 8d3d 245c 68be
00000300: cc01 85be f86d d03d 8237 35be 8868 36be
00000310: ba96 2cbe fc1a d13c abd5 873d 0d9c 1ebd
00000320: b6d2 dbbd 68cc 06bd 8b85 3cbe da12 2f3e
00000330: 393d d83b 52aa fbbd 7bd2 9ebd 4af9 b23c
00000340: 43db b33c 65da e3bb ed53 693d d590 98bd
00000350: 7669 84be e5c3 9cbd 7cf3 983e 4720 22be
00000360: 0b5d 86be fd2d 513c fe21 543e a006 56bd
00000370: f5f3 793e 523c 2a3c 2a8a 5f3e 611f 863e
00000380: 9cc3 073e 2caf 343e 0fb7 343e 64e2 20bd
00000390: 91e5 593e 34a1 6fbd 07e8 383e 70ed 283e
000003a0: 264e 82bd 2420 933d 4ddc 15bd 0da6 493d
000003b0: 757f 633e ac4b 11be 7cb0 3dbe 6618 253e
000003c0: 94ca 59be 6de6 e0bd 5d37 283e 2620 5f3e
000003d0: fa46 443e aeaa 0bbe 81b7 423e 0b72 003e
000003e0: 1de6 983d e64b e23c 8a7b 623d 158b c73d
000003f0: 7ea5 4dbd ad7a 983b 74d9 973c 56d6 2abe

actor.2.weight f4 [128, 256]
0.008959117 0.04590466 0.0034885888 0.034459252 0.03137234 0.046359804 -0.042938054 0.036896203
0.06891277 -0.058408625 0.017972054 0.05792958 -0.035949934 -0.034344323 -0.074178495 0.014428513
0.002147773 -0.0313386 -0.003983339 0.05774359 -0.09867081 -0.037249126 0.017571924 -0.013666695
-0.071445495 -0.02139764 0.05330551 0.04978652 -0.028522639 0.04158724 -0.01615284 0.00031027172
0.050627995 0.047516037 -0.017167449 -0.07122105 0.054835707 0.12117172 -0.026454391 0.042639453
0.043514196 -0.03671036 0.057153787 0.000545329 0.03990022 -0.009996042 0.0072324434 -0.030612217
0.039096307 0.0023803427 -0.030208489 -0.052175533 -0.018391812 0.007913971 0.039574146 -0.007467899
-0.0073780892 -0.011138665 -0.02320541 -0.051237285 0.054856956 0.017544996 0.043978386 -0.040153142
0.023169272 0.044668857 0.0021626689 0.045476064 -0.0092421165 -0.009608403 -0.092388794 0.011901945
-0.012542092 -0.08751077 -0.025442818 0.013834775 -0.06267326 0.018193308 -0.07044544 -0.04023424
0.0035557528 -0.011725629 -0.0809849 -0.011784301 -0.01958849 0.043723978 0.008459198 0.030265078
0.0047092717 0.10456077 -0.007373475 0.0412389 -0.013237064 0.025942473 -0.064209856 -0.031179518
-0.016715553 0.029258328 0.10529025 -0.06786751 0.055567324 0.011411379 0.0278365 0.0141087845
-0.06814146 -0.00090740755 -0.06581878 -0.14589556 0.03194057 -0.012712127 -0.060440708 -0.027266223
-0.016736478 -0.017095517 0.003713119 -0.08595766 -0.033388294 0.04049947 -0.024426198 -0.0520973
-0.0616524 0.080897786 0.007995745 -0.07246061 0.0654578 0.018200506 0.038423818 -0.010568528
0.08904995 -0.0065806312 0.0043848185 0.054542936 0.039449472 -0.025905233 -0.012102298 0.02674466
0.05099835 0.026814658 0.045127496 -0.03261034 0.012569374 -0.07823885 -0.04809952 -0.049644127
-0.06608625 -0.0110616805 0.012027443 0.03316264 -0.043162443 -0.06927737 -0.10674498 -0.036218517
0.003276678 -0.025544532 0.028873073 0.025874041 -0.0076140673 -0.04078761 0.0032939964 0.012401569
0.0012903621 -0.09716681 -0.025270116 -0.008337025 -0.065736 0.03884641 -0.013943921 -0.0027282434
0.051108066 0.043107368 0.010697361 -0.028323412 -0.012736296 0.008661339 0.007639597 -0.021732178
0.03156645 0.025032083 -0.010561019 -0.030273918 0.009554564 -0.034140788 0.016647896 0.05646926
0.052532785 -0.038469967 -0.048355993 0.033418648 0.07131324 -0.0039787455 0.09483564 -0.044770245
-0.060864396 -0.07291502 -0.06428739 0.032242898 -0.012575369 0.003216576 -0.0025746948 -0.017638076
0.06184491 0.021992998 -0.0025651606 0.033458814 0.03960814 -0.10384549 -0.034714203 0.08731757
0.012707094 -0.019820388 0.045839466 -0.063967876 -0.07589053 0.022126403 -0.03796018 -0.04546505
-0.031816106 -0.03109169 0.0745911 -0.038436703 -0.04767909 0.013707762 -0.0042427774 0.0031686393
0.01791703 0.019323155 -0.06976944 -0.057087775 0.029026972 0.11522494 0.023039714 -0.02441497
-0.04377683 -0.07649124 0.09751799 0.0037736227 0.008463135 -0.00030428596 -0.10385898 -0.0020440242
-0.011065759 0.04542045 -0.028636426 0.0034887781 0.08660084 0.04839242 -0.018602388 -0.06096731
-0.024800511 0.025456354 -0.09655613 0.07820831 0.029002612 0.03326006 -0.056762576 0.1047024
00000000: 43c9 123c 8606 3c3d cfa0 643b 2525 0d3d
00000010: 4880 003d c7e3 3d3d d0df 2fbd 7920 173d
00000020: 2322 8d3d e23d 6fbd 213a 933c 9147 6d3d
00000030: 3d40 13bd a2ac 0cbd e5ea 97bd 9265 6c3c
00000040: a7c1 0c3b e75c 00bd ab86 82bb 8b84 6c3d
00000050: ec13 cabd 8a92 18bd fff2 8f3c 46ea 5fbc
00000060: 0452 92bd 1b4a afbc e156 5a3d f3ec 4b3d
00000070: 4fa8 e9bc 6257 2a3d f652 84bc f7ab a239
00000080: 4d5f 4f3d 2da0 423d c0a2 8cbc 58dc 91bd
00000090: 689b 603d e128 f83d e1b6 d8bc b5a6 2e3d
000000a0: f13b 323d 9a5d 16bd 171a 6a3d 69f4 0e3a
000000b0: 6a6e 233d 70c6 23bc 22fe ec3b 79c6 fabc
000000c0: 7323 203d 86ff 1b3b cb77 f7bc 03b6 55bd
000000d0: 6daa 96bc 9aa9 013c 8018 223d 47b5 f4bb
000000e0: e6c3 f1bb f27e 36bc 4619 bebc 30de 51bd
000000f0: b0b1 603d 86ba 8f3c ae22 343d 9f77 24bd
00000100: 7ccd bd3c b1f6 363d 90bb 0d3b 1c45 3a3d
00000110: 3f6c 17bc 906c 1dbc 5636 bdbd 6000 433c
00000120: 597d 4dbc d938 b3bd 756d d0bc 41ab 623c
00000130: d75a 80bd 220a 953c b345 90bd a9cc 24bd
00000140: a207 693b da1c 40bc 69db a5bd f112 41bc
00000150: 0a78 a0bc ea17 333d 7398 0a3c 78ee f73c
00000160: 3c50 9a3b f523 d63d 319d f1bb 1fea 283d
00000170: 45e0 58bc 4f85 d43c 7580 83bd 306c ffbc
00000180: 0eef 88bc 29af ef3c 6aa2 d73d 1ffe 8abd
00000190: 909a 633d cbf6 3a3c 5f09 e43c 8828 673c
000001a0: c08d 8bbd 17df 6dba ffcb 86bd a565 15be
000001b0: 1dd4 023d 8646 50bc ad90 77bd 6a5d dfbc
000001c0: f01a 89bc e60b 8cbc cd57 733b 920a b0bd
000001d0: 2ac2 08bd c6e2 253d 7319 c8bc fa63 55bd
000001e0: 3a87 7cbd bdad a53d 9600 033c 3a66 94bd
000001f0: bd0e 863d 3a19 953c 4b62 1d3d 9f27 2dbc
00000200: d25f b63d 56a2 d7bb 86ae 8f3b 6a68 5f3d
00000210: c595 213d 3637 d4bc b848 46bc 9e17 db3c
00000220: a5e3 503d 6aaa db3c 9cd7 383d 6b92 05bd
00000230: c7ef 4d3c b13b a0bd 0104 45bd a457 4bbd
00000240: 3a58 87bd 0d3c 35bc c10e 453c 8cd5 073d
00000250: 1acb 30bd 4be1 8dbd 1d9d dabd de59 14bd
00000260: 89bd 563b c442 d1bc 3987 ec3c ccf5 d33c
00000270: 6d7f f9bb e910 27bd 17e0 573b f32f 4b3c
00000280: 5e21 a93a 64ff c6bd 4603 cfbc 0498 08bc
00000290: 99a0 86bd 6a1d 1f3d 0b75 64bc 54cc 32bb
000002a0: b156 513d 5a91 303d fc43 2f3c 8006 e8bc
000002b0: e6ab 50bc 4ae8 0d3c 9655 fa3b ae07 b2bc
000002c0: d24b 013d 1510 cd3c 2008 2dbc 0201 f8bc
000002d0: bf8a 1c3c 36d7 0bbd 2b61 883c 504c 673d
000002e0: 9e2c 573d af92 1dbd ef10 46bd fee1 083d
000002f0: ad0c 923d 2360 82bb 3039 c23d 0161 37bd
00000300: f24c 79bd 7854 95bd 1ba9 83bd 2111 043d
00000310: ec08 4ebc 31cd 523b 36bc 28bb ba7d 90bc
00000320: 1751 7d3d a92a b43c 411c 28bb 1c0c 093d
00000330: 253c 223d f2ac d4bd 7b30 0ebd 8ed3 b23d
00000340: 6a31 503c 5e5e a2bc 2ac2 3b3d 9701 83bd
00000350: 7f6c 9bbd 6e42 b53c 227c 1bbd 8f39 3abd
00000360: 9b51 02bd 00b4 febc 38c3 983d ce6f 1dbd
00000370: 264b 43bd 8596 603c ff06 8bbb f2a8 4f3b
00000380: bcc6 923c 984b 9e3c 48e3 8ebd dfd4 69bd
00000390: f9c9 ed3c 0efb eb3d c8bd bc3c e701 c8bc
000003a0: 554f 33bd 70a7 9cbd 83b7 c73d e24e 773b
000003b0: f6a8 0a3c 9288 9fb9 04b4 d4bd 09f5 05bb
000003c0: 284d 35bc cb0a 3a3d f096 eabc fca3 643b
000003d0: c85b b13d 2137 463d 0964 98bc dcb8 79bd
000003e0: 712a cbbc d889 d03c 38bf c5bd ae2b a03d
000003f0: e396 ed3c b33b 083d e07f 68bd 366e d63d

actor.2.bias f4 [128]
0.062282257 0.016248807 -0.009160783 -0.031572394 -0.001210761 -0.01755651 0.0545085 0.029066829
0.030724263 0.011625645 -0.014693692 -0.024483092 -0.04225953 -0.049717527 0.04548926 -0.008579508
-0.0052649803 0.041057806 -0.062323395 0.03406519 0.030149296 -0.04485854 0.045126624 -0.021919267
-0.05929376 0.050129186 -0.034518898 -0.048245877 0.021930207 -0.06108982 0.030115528 0.060910486
0.041992385 0.049591456 -0.04285215 -0.019534796 -0.033724327 0.016565304 0.040747315 0.00075365935
0.029386496 0.020875348 -0.016423907 -0.007466768 -0.025272049 -0.05195167 -0.017647259 -0.04219915
0.05301074 0.030804386 0.023982398 -0.01885116 -0.05719115 -0.06499472 -0.034345414 -0.0042395657
0.026368318 0.016638516 0.0048208837 -0.040886573 0.013474331 0.075489074 0.02301293 0.039354622
0.021676501 -0.051065538 0.011129272 0.01246871 0.05259293 0.10918988 0.07333311 0.008576363
0.059345406 -0.001502876 0.05342958 -0.008586094 -0.015521218 -0.061757136 -0.010934203 -0.026456753
-0.049683273 0.048879076 0.05710636 -0.04362792 -0.014342284 -0.017609483 0.029474787 -0.0555769
-0.0010949798 -0.013435265 -0.035916537 0.0073962426 -0.024720244 -0.0038220165 0.0039177374 0.04441649
-0.0530896 0.06556007 -0.0045848284 -0.060667466 -0.0031277293 0.04504374 -0.0445805 0.004901281
0.027010601 0.013500638 -0.017965607 -0.075019546 0.041598324 -0.030722609 0.0079257805 -0.03214394
0.061583336 0.0011537949 -0.04343056 0.055460144 -0.010993059 -0.03538546 0.012350786 0.05002964
0.019396294 0.013761546 -0.04750543 -0.029734088 -0.04374074 0.042582255 0.03682487 -0.055787884
00000000: ae1b 7f3d 381c 853c 1c17 16bc 0e52 01bd
00000010: 66b2 9eba acd2 8fbc 4e44 5f3d 8f1d ee3c
00000020: 73b1 fb3c 7d79 3e3c d0bd 70bc c490 c8bc
00000030: 5418 2dbd 9ba4 4bbd f252 3a3d 1191 0cbc
00000040: db85 acbb 3b2c 283d d146 7fbd f187 0b3d
00000050: a8fb f63c 97bd 37bd b2d6 383d 0990 b3bc
00000060: 04de 72bd 4354 4d3d b063 0dbd 789d 45bd
00000070: faa6 b33c 5239 7abd d7b4 f63c 467d 793d
00000080: 3500 2c3d 6920 4b3d bc85 2fbd 7007 a0bc
00000090: 8522 0abd f6b3 873c a8e6 263d 3991 453a
000000a0: f3bb f03c c702 ab3c 6e8b 86bc caab f4bb
000000b0: 5407 cfbc 46cb 54bd fc90 90bc 04d9 2cbd
000000c0: ca21 593d 7b59 fc3c bc76 c43c bf6d 9abc
000000d0: 4441 6abd f41b 85bd c7ad 0cbd 0eec 8abb
000000e0: 5f02 d83c 7f4d 883c 81f8 9d3b ae78 27bd
000000f0: 71c3 5c3c 049a 9a3d 9d85 bc3c 5032 213d
00000100: eb92 b13c 192a 51bd 8d57 363c 8f49 4c3c
00000110: af6b 573d f29e df3d ab2f 963d e083 0c3c
00000120: 2b14 733d 27fc c4ba fad8 5a3d b0ac 0cbc
00000130: b54c 7ebc 0df5 7cbd 5f25 33bc d5bb d8bc
00000140: b080 4bbd 6d35 483d 5ce8 693d 31b3 32bd
00000150: e6fb 6abc c341 90bc 1c75 f13c 9aa4 63bd
00000160: 6d85 8fba 961f 5cbc 381d 13bd 2e5c f23b
00000170: 1c82 cabc cc7a 7abb 5d60 803b 11ee 353d
00000180: 7b74 59bd 5c44 863d 543c 96bb 737e 78bd
00000190: 97fa 4cbb c97f 383d 0b9a 36bd ed9a a03b
000001a0: 5645 dd3c c831 5d3c 9c2c 93bc d9a3 99bd
000001b0: 0163 2a3d fbad fbbc 22db 013c 5da9 03bd
000001c0: cf3e 7c3d ef3a 973a 3ee4 31bd 2d2a 633d
000001d0: 3b1c 34bc 58f0 10bd f35a 4a3c e1eb 4c3d
000001e0: fae4 9e3c 1c78 613c 0e95 42bd e794 f3bc
000001f0: 7d29 33bd bb6a 2e3d add5 163d d681 64bd

actor.4.weight f4 [6, 128]
0.013761704 -0.0054148952 -0.034875076 0.004070353 -0.0071072755 -0.010459797 0.018950706 0.006330129
0.051523823 -0.0032608625 0.0046364195 0.00963182 0.036062542 0.025342988 -0.008503991 -0.08254939
-0.0069195474 -0.0030566766 0.0020221362 -0.020049319 0.0013502545 -0.0047443714 0.01431546 -0.049411844
-0.034578614 -0.010114047 0.03709178 0.063986555 -0.07997976 -0.017916732 -0.0074115237 -0.02055494
-0.019482704 -0.0041593974 0.06697851 0.033384584 -0.014389572 -0.028073855 0.024570696 -6.842585e-05
0.04114458 0.016156005 -0.01846969 0.06910777 -0.051395357 -0.019996062 0.063758805 -0.013097697
0.019502655 -0.0849206 0.014978466 0.008363719 -0.008168693 0.039227672 -0.035386246 -0.015193113
-0.029019909 0.048979178 0.02511013 -0.002252463 0.00032308913 0.080998786 -0.017932374 -0.00339541
0.020483421 0.062214214 0.060955368 0.034672916 0.014047597 0.058368254 0.02816686 -0.0033642342
-0.00266311 0.029364683 -0.0034319027 -0.0006305625 0.0056599644 -0.017797004 -0.01617963 0.019023137
0.0033105402 -0.06459068 0.017895201 -0.08373959 0.007324492 0.055713553 -0.03567838 -0.05769463
0.0039490666 -0.07025482 -0.0025919701 0.032778855 -0.02866917 -0.012139742 0.0031944828 -0.008893794
0.09365047 0.096521296 0.0058578593 0.01075241 0.0049827816 -0.018857375 -0.029309485 -0.03649451
-0.0270983 -0.017707555 -0.036144473 -0.024416884 -0.023587374 -0.091814175 -0.039615452 -0.030859761
0.022974608 -0.033575483 -0.042795796 -0.04681028 -0.038991388 0.013323546 0.005645112 0.031060465
-0.059240874 -0.0065007815 0.039136857 -0.027551882 0.014949915 -0.06322402 -0.0069828304 0.029488873
0.03585422 -0.0043162294 -0.042141207 0.0023986183 0.0014365047 -0.038262423 0.030764246 -0.0006455604
0.04894801 0.0053590224 0.016391689 0.01373238 -0.026207265 -0.0101393955 0.0047409046 0.009355682
0.010914812 0.021816978 -0.021494472 -0.02888507 0.034479417 0.0048130825 0.029690122 -0.01826048
0.04371727 -0.013287275 0.04591751 -0.018323803 0.0237584 -0.02592973 0.0016367127 -0.00071868807
0.059223354 0.014862101 -0.04588155 0.0010136031 -0.020601582 -0.040482644 -0.017264329 0.007916819
0.0289557 0.002268093 0.0053492864 -0.0087471 -0.019158673 -0.0129999705 -0.08942178 -0.0061028013
-0.0047392943 0.026721835 -0.0036897147 -0.0060211164 -0.0025064098 -0.015800888 -0.0038873618 0.029939957
0.084034 0.04145531 0.015742231 0.010055937 0.021818668 0.031765185 0.0007622612 -0.0020002895
0.0114848325 -0.021423345 -0.0012609578 0.007075485 0.0169509 0.058095995 -0.011769055 -0.019466234
0.010273448 0.05186278 -0.008409146 -0.011994332 -0.0054579144 -0.026979586 0.020178044 0.00971341
-0.0015276385 0.026123635 -0.022898685 -0.034694273 0.017329713 -0.039725117 0.00473847 0.024736665
-0.0010773904 0.0104668215 0.00996517 -0.017658599 -0.03154976 -0.005750908 -0.008203296 0.0051488387
-0.005233468 -0.018754585 -0.017677283 -0.02635157 0.010502377 0.031156931 -0.041150346 -0.022035409
0.005318785 -0.039703082 0.005540764 -0.015168412 -0.016021207 0.016002655 -0.03091359 -0.00079810055
0.0031224084 0.0027420602 0.011628199 0.0061337617 -0.05485288 0.02513329 0.00036123308 0.0064838165
0.0023491676 0.011698114 -0.0015191897 -0.059734907 -0.0040381923 0.02664128 0.032425262 0.0061109313
00000000: c578 613c 6f6f b1bb 2bd9 0ebd 9960 853b
00000010: 26e4 e8bb 925f 2bbc 833e 9b3c f96c cf3b
00000020: a50a 533d 32b4 55bb 1bed 973b c8ce 1d3c
00000030: 51b6 133d 199c cf3c 5354 0bbc a80f a9bd
00000040: 5fbd e2bb 8652 48bb d185 043b 783e a4bc
00000050: 06fb b03a ac76 9bbb 648b 6a3c 1364 4abd
00000060: 4ea2 0dbd 63b5 25bc 8ded 173d 620b 833d
00000070: 6ecc a3bd 1cc6 92bc 5edc f2bb d562 a8bc
00000080: 319a 9fbc 8e4b 88bb 072c 893d 46be 083d
00000090: 3dc2 6bbc 24fb e5bc 7c48 c93c d97f 8fb8
000000a0: 3887 283d 9959 843c bf4d 97bc 6088 8d3d
000000b0: f083 52bd c8ce a3bc fa93 823d b997 56bc
000000c0: 08c4 9f3c daea adbd 3d68 753c fb07 093c
000000d0: fbd5 05bc 32ad 203d 2bf1 10bd 89ec 78bc
000000e0: 29bb edbc 649e 483d c2b3 cd3c 0f9e 13bb
000000f0: 4a64 a939 b1e2 a53d eae6 92bc 8785 5ebb
00000100: d9cc a73c 55d4 7e3d 56ac 793d 3005 0e3d
00000110: e427 663c 8d13 6f3d 30be e63c 7c7a 5cbb
00000120: 9287 2ebb 348e f03c c6e9 60bb 554c 25ba
00000130: 3977 b93b 06cb 91bc 258b 84bc 69d6 9b3c
00000140: a6f5 583b 1e48 84bd f598 923c aa7f abbd
00000150: 4b02 f03b e533 643d 7e23 12bd 3451 6cbd
00000160: 2c67 813b c2e1 8fbd 0bde 29bb 1f43 063d
00000170: 9bdb eabc c5e5 46bc 875a 513b 47b7 11bc
00000180: d1cb bf3d f5ac c53d 49f3 bf3b e02a 303c
00000190: 9a46 a33b c87a 9abc 721a f0bc 447b 15bd
000001a0: 41fd ddbc 6f0f 91bc 3a0c 14bd eb05 c8bc
000001b0: 4f3a c1bc 1209 bcbd d043 22bd 9ccd fcbc
000001c0: 3f35 bc3c 7286 09bd a54a 2fbd 23bc 3fbd
000001d0: 6fb5 1fbd 014b 5a3c a2fa b83b 8472 fe3c
000001e0: 8fa6 72bd 8204 d5bb f84d 203d 7cb4 e1bc
000001f0: 7df0 743c 987b 81bd 3ad0 e4bb a692 f13c
00000200: e0db 123d 286f 8dbb 429c 2cbd 2332 1d3b
00000210: 1949 bc3a 0fb9 1cbd 4d05 fc3c d33a 29ba
00000220: b57d 483d bd9a af3b dd47 863c c7fd 603c
00000230: 9eb0 d6bc b51f 26bc 9759 9b3b 9348 193c
00000240: 0ad4 323c 85b9 b23c 2d15 b0bc 62a0 ecbc
00000250: 4a3a 0d3d 10b7 9d3b b338 f33c 0197 95bc
00000260: e110 333d dfb2 59bc 0014 3c3d cd1b 96bc
00000270: faa0 c23c 966a d4bc f786 d63a 5766 3cba
00000280: 3094 723d 2b80 733c 4bee 3bbd e0da 843a
00000290: a6c4 a8bc 21d1 25bd ec6d 8dbc 8cb5 013c
000002a0: 8134 ed3c 49a4 143b 1149 af3b ff4f 0fbc
000002b0: a6f2 9cbc d4fd 54bc c422 b7bd 02fa c7bb
000002c0: 154c 9bbb c0e7 da3c 24cf 71bb c94c c5bb
000002d0: 9442 24bb dd70 81bc 1cc3 7ebb a444 f53c
000002e0: 051a ac3d 0bcd 293d daf5 803c a8c1 243c
000002f0: 10bd b23c 361c 023d 7cd2 473a 4a17 03bb
00000300: e12a 3c3c 0380 afbc b946 a5ba 78d9 e73b
00000310: 9ddc 8a3c 11f6 6d3d ffd2 40bc a777 9fbc
00000320: f751 283c 116e 543d 84c6 09bc e083 44bc
00000330: 4ed8 b2bb 4b04 ddbc 6d4c a53c ff24 1f3c
00000340: 0b3b c8ba 3c01 d63c 0696 bbbc 951b 0ebd
00000350: 0bf7 8d3c ceb6 22bd 2b45 9b3b 8ca4 ca3c
00000360: 3937 8dba 087d 2b3c f444 233c c4a8 90bc
00000370: 523a 01bd 1d72 bcbb 1e67 06bc 97b7 a83b
00000380: 837d abbb 37a3 99bc f3cf 90bc 3fdf d7bc
00000390: 2912 2c3c d23c ff3c 448d 28bd 9a83 b4bc
000003a0: 3449 ae3b b39f 22bd 4c8f b53b ee84 78bc
000003b0: e83e 83bc 0018 833c 7f3e fdbc 9f37 51ba
000003c0: 52a1 4c3b 23b4 333b 3484 3e3c b9fd c83b
000003d0: 6aad 60bd 54e4 cd3c e263 bd39 3276 d43b
000003e0: 7ef4 193b 72a9 3f3c 8c1f c7ba 97ac 74bd
000003f0: d052 84bb d03e da3c 5ad0 043d 353e c83b

actor.4.bias f4 [6]
-0.061455097 0.011404335 -0.0778126 -0.06564478 -0.03702817 0.1045215
00000000: 57b8 7bbd 3fd9 3a3c 365c 9fbd c570 86bd
00000010: daaa 17bd 5e0f d63d

critic.0.weight f4 [256, 12]
-0.121134914 -0.16453093 0.061764944 -0.015320388 0.13375938 0.022964107 -0.22332555 -0.31555718
0.14630257 -0.77569276 -0.28684995 0.01589896 0.22473937 -0.021278478 -0.096388005 -0.3428666
-0.14586776 0.15997738 -0.047827058 0.32152352 0.20122026 -0.39671654 -0.04618202 -0.24521688
-0.2603322 0.0582916 -0.046756316 0.1397632 -0.21141136 0.20030886 -0.26769632 -0.23063779
-0.11756276 -0.5047165 -0.0605263 -0.08505858 -0.05963802 0.022422696 -0.15183356 -0.22016393
0.111920826 -0.21752192 0.09277729 -0.28092298 0.23995242 -0.780026 0.24035533 0.0044433693
-0.25426194 -0.014643474 0.22363015 0.16495898 -0.27989683 -0.10397173 0.1916654 -0.27428982
-0.16911615 -0.9064769 0.016846023 0.3372806 -0.11517707 0.0023252645 0.021879906 0.23039758
0.036044 -0.020042742 0.19300044 0.012460153 0.12704621 0.5877139 0.21184695 -0.14619072
-0.25215808 0.0055163754 -0.059560567 -0.24830619 0.12916669 -0.14869525 0.0124499295 0.039063714
0.21237709 0.91410875 -0.16651936 -0.21837236 0.20950064 0.050131436 0.20979902 0.28022552
0.034990035 0.03694474 -0.29184437 -0.2590108 0.16714446 0.6228996 -0.11880665 -0.22156
-0.23526755 -0.12712465 -0.19243355 0.0038577006 -0.3240648 -0.09641769 -0.22465439 0.20806308
-0.24661425 -0.8238335 0.07532416 -0.22935016 -0.21303552 -0.35389993 0.295268 -0.30372742
0.16923873 0.15660295 -0.11328045 0.37624484 0.09439554 0.041808873 -0.1002436 -0.3861015
0.22054428 -0.015317323 0.1642356 -0.16889769 -0.13799486 0.23154242 -0.14140163 0.13179189
0.235697 -0.7951076 0.08706226 0.32174277 0.22643964 0.0428639 0.21380427 0.13355668
0.0054261414 0.23551698 -0.10309689 -0.08117332 -0.09480608 0.9301436 -0.17154329 -0.0012967143
-0.07032259 0.1695397 0.15258369 -0.053640805 -0.0029148164 -0.053557087 -0.03335491 0.03286186
0.19973327 0.6275773 -0.17319681 0.12821276 -0.09798961 -0.06447592 -0.058347207 0.08943373
-0.06813583 0.14902556 0.087089956 -0.09335916 -0.17510691 0.43383017 0.36532745 -0.2756986
-0.02490757 0.11042678 -0.00032030744 0.14890333 0.26456323 0.0055173784 -0.10853072 0.041569825
0.114921965 -0.83918995 -0.18626653 0.025227342 0.1430311 0.1625491 0.1223907 -0.19667372
0.19454187 0.19525534 -0.03985292 -0.037478566 -0.30835965 -0.5029951 0.066785716 0.05911192
0.13214475 0.28077602 0.09585175 -0.25476038 -0.0014747438 -0.29370818 0.08705431 0.08992055
-0.15928434 0.83051336 -0.11621462 0.16596343 0.124363124 0.11856625 0.07872276 0.10151326
0.2694386 0.19656481 -0.13949484 0.21439889 -0.23684603 -0.93045115 -0.29496193 0.1762247
0.02911448 0.23013079 -0.16276349 0.020660836 0.0965651 0.15716517 0.1305304 0.16781656
0.2541292 -0.13625696 0.06437333 0.20314308 0.1805079 -0.025651745 0.07332052 0.12392436
-0.22189687 0.18958277 0.0781566 0.31164035 -0.29852888 0.48534548 -0.14978513 0.19353892
0.30945376 0.07594843 0.14621699 -0.014794724 -0.016084298 -0.16166043 -0.09878168 -0.26780394
-0.23838174 0.36387375 -0.23275436 0.0106526585 -0.19670016 -0.014080645 -0.28097957 -0.021762572
00000000: 9515 f8bd cc7a 28be 3dfd 7c3d 5d02 7bbc
00000010: 38f8 083e 391f bc3c 74af 64be b690 a1be
00000020: 57d0 153e cd93 46bf ffdd 92be 893e 823c
00000030: 1422 663e 3450 aebc 1367 c5bd 368c afbe
00000040: 5c5e 15be 1cd1 233e 4ee6 43bd bb9e a43e
00000050: af0c 4e3e 6e1e cbbe 5c29 3dbd 221a 7bbe
00000060: 434a 85be 2cc3 6e3d 8d83 3fbd 161e 0f3e
00000070: 387c 58be c41d 4d3e 7e0f 89be 502c 6cbe
00000080: bfc4 f0bd 1a35 01bf 6dea 77bd 3133 aebd
00000090: ff46 74bd cdaf b73c 427a 1bbe a772 61be
000000a0: bf36 e53d 11be 5ebe 0502 be3d 23d5 8fbe
000000b0: 16b6 753e c9af 47bf b51f 763e af99 913b
000000c0: 9f2e 82be 2eeb 6fbc 4dff 643e 02eb 283e
000000d0: a34e 8fbe 21ef d4bd ef43 443e b76f 8cbe
000000e0: c92c 2dbe df0e 68bf ac00 8a3c 0bb0 ac3e
000000f0: f5e1 ebbd 7763 183b 7d3d b33c 58ed 6b3e
00000100: e0a2 133d ad30 a4bc e8a1 453e ab25 4c3c
00000110: 6718 023e 6b74 163f 68ee 583e 05b3 15be
00000120: dd1a 81be b6c2 b43b c8f5 73bd fa43 7ebe
00000130: 4644 043e 9143 18be cafa 4b3c 4601 203d
00000140: 6179 593e 0803 6a3f 0d84 2abe 019d 5fbe
00000150: 5687 563e 9f56 4d3d 8ed5 563e b879 8f3e
00000160: b651 0f3d 5e53 173d a06c 95be 109d 84be
00000170: eb27 2b3e 5976 1f3f e750 f3bd a0e0 62be
00000180: fae9 70be f72c 02be 4d0d 45be 7ad1 7c3b
00000190: d2eb a5be a376 c5bd cd0b 66be 7d0e 553e
000001a0: 7288 7cbe c1e6 52bf 8e43 9a3d c5da 6abe
000001b0: fc25 5abe 5f32 b5be 5e2d 973e 2982 9bbe
000001c0: eb4c 2d3e 865c 203e 95ff e7bd 2aa3 c03e
000001d0: 7352 c13d c83f 2b3d 844c cdbd 19af c5be
000001e0: 5cd6 613e 82f5 7abc 612d 283e 84f3 2cbe
000001f0: 864e 0dbe 7519 6d3e 97cb 10be 74f4 063e
00000200: 8e5a 713e 2c8c 4bbf b34d b23d 78bb a43e
00000210: cbdf 673e 0f92 2f3d 82ef 5a3e 15c3 083e
00000220: c6cd b13b 5d2b 713e 7624 d3bd 333e a6bd
00000230: b129 c2bd e41d 6e3f 0ba9 2fbe 83f6 a9ba
00000240: 4a05 90bd d19b 2d3e e63e 1c3e 76b6 5bbd
00000250: 8106 3fbb ad5e 5bbd 289f 08bd 289a 063d
00000260: e186 4c3e e8a8 203f 815a 31be 354a 033e
00000270: c7ae c8bd f30b 84bd 7bfd 6ebd 0829 b73d
00000280: cc8a 8bbd 289a 183e 385c b23d 1633 bfbd
00000290: 3a4f 33be fd1e de3e 330c bb3e 5e28 8dbe
000002a0: f60a ccbc 7027 e23d f0ee a7b9 1d7a 183e
000002b0: d574 873e 20cb b43b 5b45 debd 1f45 2a3d
000002c0: 355c eb3d 27d5 56bf a7bc 3ebe 92a9 ce3c
000002d0: bf76 123e 4573 263e faa7 fa3d d664 49be
000002e0: fc35 473e 04f1 473e d13c 23bd 2083 19bd
000002f0: 51e1 9dbe 49c4 00bf f3c6 883d 571f 723d
00000300: f450 073e e0c1 8f3e ec4d c43d f46f 82be
00000310: 314c c1ba eb60 96be 8849 b23d 4428 b83d
00000320: 6f1b 23be 869c 543f ee01 eebd 51f2 293e
00000330: 18b2 fe3d ddd2 f23d 6639 a13d 2fe6 cf3d
00000340: dbf3 893e 4948 493e bcd7 0ebe 628b 5b3e
00000350: c487 72be 0c32 6ebf 4005 97be 3f74 343e
00000360: 7d81 ee3c 68a7 6b3e 79ab 26be ea40 a93c
00000370: ecc3 c53d e8ef 203e c3a9 053e 1bd8 2b3e
00000380: 391d 823e f286 0bbe 2ad6 833d bd04 503e
00000390: 10d7 383e 9c23 d2bc 1229 963d 0ecc fd3d
000003a0: ef38 63be fc21 423e 9110 a03d 538f 9f3e
000003b0: c7d8 98be 347f f83e 4661 19be 112f 463e
000003c0: b970 9e3e da8a 9b3d e8b9 153e 9265 72bc
000003d0: 38c3 83bc 508a 25be 0d4e cabd 991d 89be
000003e0: 581a 74be a94d ba3e 2957 6ebe 7d88 2e3c
000003f0: c46b 49be 81b2 66bc 8edc 8fbe 6c47 b2bc

critic.0.bias f4 [256]
0.22870588 0.11606517 0.181767 -0.22477405 -0.037478924 -0.14139214 -0.03406454 -0.08647889
-0.2809815 -0.38487756 0.034209345 -0.04947931 -0.12042462 -0.046824176 -0.24749364 0.049986146
-0.28009057 0.06491803 -0.12745665 -0.2256101 -0.057837453 -0.052998386 0.117896475 0.21275085
-0.29173863 -0.1965614 0.0040886244 -0.041706078 -0.18544778 -0.034253154 -0.025031507 -0.27261677
-0.17720537 0.08552716 -0.01155627 -0.21551028 -0.25998923 0.07488243 0.15418996 -0.16503131
0.21586372 -0.24932942 0.1634967 -0.25673428 0.058952536 0.022278922 -0.08055491 -0.25579548
-0.1091934 -0.050949764 -0.26364395 0.05985404 -0.08988083 -0.26964408 -0.026635041 -0.3058135
-0.017458148 -0.08449481 0.08475669 0.28516653 -0.16961302 0.17983124 -0.09742011 0.2458411
-0.10013588 -0.19093339 0.037352625 0.06560949 -0.13506915 0.18088281 0.06970117 -0.22017376
-0.24661799 0.2150769 0.043158762 -0.12797529 -0.05457568 -0.017353108 -0.15790494 0.070757955
-0.26922435 -0.15640716 -0.16187373 0.23023024 0.29355383 0.2553576 -0.18877165 -0.2307019
0.2456064 -0.071139574 0.29503217 0.030359937 -0.22046788 -0.057344303 0.16483463 0.010102174
-0.08350094 -0.010408308 -0.31744102 0.2737894 -0.13804297 0.0062779975 0.12006005 -0.0567246
0.05897913 -0.2060673 -0.11086452 0.13167566 -0.07110342 0.23040365 0.22764345 0.12019224
0.10294582 0.2345913 0.12366488 0.20337306 -0.13835694 0.09591011 0.011444864 -0.08366073
-0.099756286 0.25329623 -0.20591524 -0.29704896 -0.08650531 -0.26930615 0.13052559 0.061587475
0.20704623 -0.1757132 -0.011439404 0.17843542 0.24466248 0.30974212 -0.095864885 0.11919306
-0.12736978 0.17535615 -0.09225311 0.028340401 -0.1977531 -0.030073313 0.11744797 0.12857473
0.091233425 0.24678871 -0.0008799752 -0.14235565 0.06302328 0.25821513 0.019380853 0.3106724
0.1747871 0.007857297 0.12332087 -0.15558533 0.2765115 -0.108798675 -0.18358707 -0.0060490803
0.032945264 -0.3122891 -0.10349669 -0.25025457 0.14938933 -0.2047287 -0.03247967 0.14759925
0.038339682 0.019036647 0.093392774 0.24601363 -0.04279461 -0.0035019238 0.09449015 0.09979285
-0.034059167 0.034261692 0.23469087 -0.08499741 0.062328957 0.051218253 -0.20817834 0.040256683
0.2731457 0.091148846 -0.07876485 0.1349169 0.10379754 0.23297073 0.26703897 0.11368363
0.22055274 0.09735631 -0.13615075 0.11417526 -0.30991605 0.10452756 -0.014951678 0.06937079
-0.10035833 -0.24817608 0.2880737 -0.14608379 0.23665288 0.04756742 0.19801518 -0.24302848
0.046833597 0.13923495 0.06642956 -0.047904905 -0.12982325 0.07961335 0.0054451344 -0.14589733
-0.15382609 0.1871881 0.23349354 -0.27895886 0.024372078 -0.28532508 0.1590218 -0.042999975
0.053121164 0.13678975 0.12577772 -0.09897233 0.18235429 -0.28222203 0.14750247 0.1804403
0.2707006 -0.19245555 0.21335045 -0.20397739 -0.067374386 0.043183185 -0.19912112 -0.32756364
0.04888804 -0.15621537 0.35701564 -0.07086634 -0.2671174 -0.22657992 -0.0023150765 -0.00587161
0.025148688 -0.111916 -0.14500006 0.018450592 0.08777685 -0.21662185 -0.06435189 -0.1550643
00000000: e031 6a3e 93b3 ed3d 2121 3a3e 2b2b 66be
00000010: 8083 19bd 1ac9 10be 4287 0bbd d81b b1bd
00000020: cfdc 8fbe ac0e c5be 191f 0c3d d1aa 4abd
00000030: 2fa1 f6bd b5ca 3fbd f96e 7dbe 46be 4c3d
00000040: 0868 8fbe bef3 843d ff83 02be 5606 67be
00000050: f7e6 6cbd d614 59bd b573 f13d 5cdb 593e
00000060: c45e 95be 6447 49be def9 853b fed3 2abd
00000070: 06e6 3dbe 094d 0cbd e00e cdbc 6d94 8bbe
00000080: 5375 35be dd28 af3d 8256 3dbc baae 5cbe
00000090: 4f1d 85be f65b 993d f9e3 1d3e f8fd 28be
000000a0: 610b 5d3e 3650 7fbe ae6b 273e ad72 83be
000000b0: 3778 713d 4982 b63c f9f9 a4bd a0f7 82be
000000c0: caa0 dfbd b3b0 50bd 57fc 86be 8329 753d
000000d0: 7113 b8bd ca0e 8abe bb31 dabc 9693 9cbe
000000e0: 6404 8fbc 9d0b adbd ea94 ad3d 5901 923e
000000f0: 09af 2dbe ae25 383e 3284 c7bd c5bd 7b3e
00000100: 0a14 cdbd 0b84 43be 11ff 183d 455e 863d
00000110: 914f 0abe 5839 393e 7dbf 8e3d 3b75 61be
00000120: 6d89 7cbe 1e3d 5c3e 3ec7 303d f40b 03be
00000130: c08a 5fbd 1b28 8ebc d5b1 21be 8ce9 903d
00000140: c6d7 89be 3329 20be 3ac2 25be 7ac1 6b3e
00000150: b04c 963e 3bbe 823e 5b4d 41be 1e3d 6cbe
00000160: 3e80 7b3e a0b1 91bd 750e 973e 67b5 f83c
00000170: 55c2 61be dce1 6abd 69ca 283e 9783 253c
00000180: 8a02 abbd 9c87 2abc a187 a2be 202e 8c3e
00000190: 235b 0dbe a9b7 cd3b 0be2 f53d 0e58 68bd
000001a0: 1a94 713d 4e03 53be f00c e3bd fcd5 063e
000001b0: ab9e 91bd efee 6b3e 5d1b 693e 5927 f63d
000001c0: 42d5 d23d b438 703e 0344 fd3d 0741 503e
000001d0: 71ad 0dbe 856c c43d 3d83 3b3c 5156 abbd
000001e0: 064d ccbd 0bb0 813e 72db 52be cd16 98be
000001f0: b229 b1bd 7fe2 89be 80a8 053e 2643 7c3d
00000200: ed03 543e 29ee 33be 576c 3bbc c6b7 363e
00000210: cd88 7a3e 8596 9e3e cf54 c4bd 7e1b f43d
00000220: 396d 02be 9090 333e 33ef bcbd 212a e83c
00000230: ca7f 4abe 4f5c f6bc 9088 f03d 18a9 033e
00000240: 97d8 ba3d 2eb6 7c3e 23ae 66ba aec5 11be
00000250: 5912 813d c634 843e 98c4 9e3c 7410 9f3e
00000260: 64fb 323e e4bb 003c a78f fc3d c351 1fbe
00000270: ea92 8d3e d7d1 debd 40fe 3bbe 5d37 c6bb
00000280: 9df1 063d 5be4 9fbe 13f6 d3bd 5e21 80be
00000290: 84f9 183e 66a4 51be 6709 05bd 4224 173e
000002a0: 120a 1d3d bef2 9b3c b644 bf3d ffea 7b3e
000002b0: 6749 2fbd 8880 65bb 0d84 c13d 3260 cc3d
000002c0: a081 0bbd fd55 0c3d ce52 703e 1f13 aebd
000002d0: a64c 7f3d 3bca 513d b42c 55be 31e4 243d
000002e0: c1d9 8b3e 3fac ba3d 774f a1bd a827 0a3e
000002f0: ce93 d43d e18f 6e3e 55b9 883e f7d2 e83d
00000300: 94d8 613e bf62 c73d 1a6b 0bbe b8d4 e93d
00000310: 51ad 9ebe 8c12 d63d e2f7 74bc 4612 8e3d
00000320: ab88 cdbd df21 7ebe 657e 933e fd96 15be
00000330: 2255 723e 0ed6 423d 7ec4 4a3e 75dc 78be
00000340: 96d4 3f3d 9b93 0e3e 390c 883d ef37 44bd
00000350: 63f0 04be 530c a33d 196d b23b 1c66 15be
00000360: 9684 1dbe 3dae 3f3e ee18 6f3e b2d3 8ebe
00000370: f4a7 c73c 2116 92be 9cd6 223e be20 30bd
00000380: 9495 593d 9d12 0c3e e0cb 003e 01b2 cabd
00000390: 15bb 3a3e 687f 90be e30a 173e 58c5 383e
000003a0: 4599 8a3e 1113 45be 8a78 5a3e 73df 50be
000003b0: 95fb 89bd dae0 303d 68e6 4bbe 6cb6 a7be
000003c0: d33e 483d ecf6 1fbe c1ca b63e 5f22 91bd
000003d0: 9dc3 88be 9104 68be 8ab8 17bb a266 c0bb
000003e0: 9f04 ce3c 3734 e5bd e57a 14be b225 973c
000003f0: 59c4 b33d 1ed2 5dbe ecca 83bd 2dc9 1ebe

critic.2.weight f4 [128, 256]
-0.077920154 -0.052238505 -0.026296118 -0.09704231 -0.08275014 0.2265024 0.21318011 -0.014038763
-0.02274529 -0.009355545 -0.1148465 0.2957424 0.11116001 0.06397122 -0.23208341 -0.053990413
0.40682298 -0.21736574 0.037017014 0.089027636 0.017941236 -0.28208962 0.11672983 -0.38843107
0.1331375 -0.06494567 0.35390443 -0.20075628 0.0017718113 0.11333415 -0.08841473 0.09247109
0.072235115 0.13178432 0.3042435 0.038755804 0.38219458 -0.0328821 0.16139513 0.08596753
0.22214994 0.33265784 -0.0037806062 0.09359738 -0.27794626 -0.15008213 0.16255271 -0.08475844
-0.037890613 0.044573914 -0.0045540417 -0.0365529 0.09007948 0.25447023 0.053689178 0.09329668
0.05509295 -0.27927944 -0.18876582 -0.042013105 -0.19076514 0.023614688 -0.07402965 0.08683325
-0.06793919 -0.10781566 0.15008616 -0.07525591 0.0038392497 0.13624407 -0.0725498 0.10303273
0.2624407 -0.085038416 -0.010592224 -0.038830593 -0.119623065 0.26756138 -0.024958815 -0.13031644
0.065723985 0.38671467 -0.068569705 0.11732241 -0.072453685 -0.056025583 -0.10201329 -0.0026308212
-0.03686443 0.17377193 0.19929324 0.03901244 0.2712652 0.061665155 -0.044271033 -0.007320641
-0.015812976 0.103763506 -0.023652604 0.0734063 0.23636799 0.0006602753 -0.4213977 0.10959611
0.1067621 0.040759467 0.4193604 -0.17083308 -0.0038388665 -0.16818908 -0.088740066 0.024351733
-0.20327276 0.11581228 -0.00479466 -0.17275803 0.070008524 0.10248778 0.12724437 0.055841755
-0.16846593 -0.35033256 -0.07703069 0.05663557 0.08480498 -0.03962755 -0.09522683 -0.45262086
0.06806586 0.07092017 -0.3325491 0.009083197 -0.17008197 -0.006088632 -0.0048592687 -0.05308117
-0.1276348 -0.0879083 0.078087255 0.0019132906 -0.14010593 -0.037219863 -0.20499624 0.022687703
0.16907161 -0.0056834794 -0.27957377 0.2149233 0.050024297 -0.022004299 0.22647615 -0.08802892
0.073627874 0.12978314 0.09254327 -0.024474695 0.13244535 -0.07745671 0.16916442 0.07841264
-0.3721499 0.18268982 0.24548694 -0.120636925 -0.09662569 -0.07720447 -0.08252964 0.009863943
0.22571078 -0.17143956 0.020145064 -0.021390874 0.010415684 0.1268731 0.11282116 -0.06081596
-0.057538465 0.057445142 -0.19823281 -0.20778131 -0.18907075 0.11731584 0.0607591 -0.13244979
0.055428263 -0.0826896 0.088448115 0.14257726 0.061193306 -0.019773042 -0.06658603 -0.022961197
-0.07974254 -0.25160915 -0.28445634 -0.11982786 -0.12730257 -0.14254774 -0.07213762 -0.052390184
-0.1496582 0.3367218 -0.08693307 0.022319851 -0.03224032 -0.19688264 -0.13832687 0.2008426
0.22574914 0.07880399 -0.0126886545 -0.029821798 0.06372065 -0.008897008 -0.078547485 0.33218002
0.17813745 -0.29019356 -0.0516547 -0.12914336 -0.108916625 0.017463792 -0.049434163 0.12824814
0.00021669654 0.22360797 -0.24460354 0.086437665 0.18703137 -0.12035113 0.24973243 0.14576437
-0.31470466 0.014755353 -0.24399297 -0.038246494 -0.33912122 -0.029073766 0.036672607 0.019430215
-0.059515666 0.107425034 -0.052283622 -0.10292651 0.08779745 0.03950299 0.010626749 0.032505583
0.022192676 0.016279707 0.10292717 0.11355573 0.04628598 0.08765614 0.016181884 -0.011243568
00000000: 9a94 9fbd 0bf8 55bd f56a d7bc 1ebe c6bd
00000010: e878 a9bd 3ff0 673e e34b 5a3e d702 66bc
00000020: 5554 babc 0048 19bc a434 ebbd 8c6b 973e
00000030: dca7 e33d 5803 833d 46a7 6dbe 0d25 5dbd
00000040: 1a4b d03e 2095 5ebe 279f 173d 1f54 b63d
00000050: 80f9 923c 0d6e 90be 0d10 ef3d 70e0 c6be
00000060: 3255 083e 3c02 85bd f632 b53e 0e93 4dbe
00000070: 1f3c e83a bc1b e83d c812 b5bd 7c61 bd3d
00000080: 01f0 933d 78f2 063e cec5 9b3e 68be 1e3d
00000090: 02af c33e 62af 06bd c444 253e bf0f b03d
000000a0: 467b 633e 2152 aa3e 0cc4 77bb fcaf bf3d
000000b0: f94e 8ebe 21af 19be 3874 263e d595 adbd
000000c0: 3033 1bbd 2393 363d 123a 95bb 7eb8 15bd
000000d0: 977b b83d ec49 823e 2fe9 5b3d 5412 bf3d
000000e0: 25a9 613d b7fd 8ebe d44b 41be ef15 2cbd
000000f0: f057 43be 9773 c13c db9c 97bd a2d5 b13d
00000100: b423 8bbd 75ce dcbd 30b0 193e c51f 9abd
00000110: ec9b 7b3b 9183 0b3e fd94 94bd d302 d33d
00000120: a15e 863e 9f28 aebd 028b 2dbc d40c 1fbd
00000130: f0fc f4bd cefd 883e 6e76 ccbc ac71 05be
00000140: 4c9a 863d 77ff c53e 466e 8cbd bb46 f03d
00000150: 9962 94bd 157b 65bd 58ec d0bd db69 2cbb
00000160: 28ff 16bd 45f1 313e 8713 4c3e 82cb 1f3d
00000170: 46e3 8a3e 9a94 7c3d 8b55 35bd fde1 efbb
00000180: 378a 81bc f681 d43d 1bc3 c1bc 0b56 963d
00000190: 730a 723e 5316 2d3a 70c1 d7be ed73 e03d
000001a0: 16a6 da3d 66f3 263d 68b6 d63e deee 2ebe
000001b0: 7e95 7bbb c239 2cbe 5abd b5bd 497d c73c
000001c0: bc26 50be fd2e ed3d 861c 9dbb 7be7 30be
000001d0: a160 8f3d 1de5 d13d 594c 023e 53ba 643d
000001e0: 5582 2cbe ca5e b3be 44c2 9dbd b3fa 673d
000001f0: 3cae ad3d 7f50 22bd 4906 c3bd ecbd e7be
00000200: 1d66 8b3d 983e 913d e043 aabe b1d1 143c
00000210: f829 2ebe 2683 c7bb 803a 9fbb a46b 59bd
00000220: b2b2 02be 4409 b4bd 36ec 9f3d 61c7 fa3a
00000230: ee77 0fbe db73 18bd 89ea 51be 90db b93c
00000240: 1c21 2d3e 7b3c babb 4b24 8fbe db14 5c3e
00000250: 47e6 4c3d 5c42 b4bc 5de9 673e 8248 b4bd
00000260: 36ca 963d dfe5 043e 5387 bd3d 287f c8bc
00000270: c19f 073e a0a1 9ebd 7039 2d3e ce96 a03d
00000280: 6f8a bebe 0a13 3b3e ee60 7b3e 7e10 f7bd
00000290: b1e3 c5bd 611d 9ebd 4d05 a9bd 609c 213c
000002a0: ba20 673e da8d 2fbe 4307 a53c ea3b afbc
000002b0: 8ca6 2a3c 06eb 013e c80e e73d 281a 79bd
000002c0: 74ad 6bbd 994b 6b3d 8bfd 4abe a0c4 54be
000002d0: c39b 41be 4a43 f03d 89de 783d eba0 07be
000002e0: bf08 633d 2a59 a9bd 4924 b53d c6ff 113e
000002f0: d5a5 7a3d 13fb a1bc 425e 88bd 1f19 bcbc
00000300: 0f50 a3bd ead2 80be 43a4 91be 4f68 f5bd
00000310: 9b5b 02be 09f8 11be e3bc 93bd 1797 56bd
00000320: 0040 19be cd66 ac3e f709 b2bd 1fd8 b63c
00000330: 6d0e 04bd 9a9b 49be 8fa5 0dbe afa9 4d3e
00000340: c82a 673e fc63 a13d 13e4 4fbc d84c f4bc
00000350: f97f 823d c2c4 11bc 81dd a0bd 8013 aa3e
00000360: aa69 363e 4094 94be e193 53bd 283e 04be
00000370: ae0f dfbd 3a10 8f3c 7a7b 4abd 7b53 033e
00000380: 0939 6339 7df9 643e 5a79 7abe 3b06 b13d
00000390: 2785 3f3e a77a f6bd dcb9 7f3e 4143 153e
000003a0: f820 a1be 70c0 713c 4bd9 79be 5ba8 1cbd
000003b0: 4ca1 adbe 1b2c eebc 0436 163d 1d2c 9f3c
000003c0: b3c6 73bd a801 dc3d 5a27 56bd 22cb d2bd
000003d0: 26cf b33d e3cd 213d d11b 2e3c 9324 053d
000003e0: 6acd b53c 055d 853c 7bcb d23d e88f e83d
000003f0: 5e96 3d3d 1085 b33d df8f 843c f136 38bc
