policy/PPO/checkpoints/2025-11-07_15-02/ppo_soarm_4000.pth (torch, 895437 bytes, 33 tensors)

actor.0.weight f4 [256, 12]
0	0xbc08c28b	-0.008347164
1	0x3e3a8f8c	0.18218821
2	0x3d25304c	0.040329263
3	0x3b9f288b	0.004857128
4	0x3d96df9f	0.07366871
5	0x3dbf2dd7	0.09334915
6	0x3dd556ee	0.10416971
7	0x3d27a57a	0.040929295
8	0xbe292e40	-0.16521549
9	0x3e24a7ee	0.16079685
10	0xbd9aa71e	-0.07551406
11	0xbdf2df65	-0.118590154
12	0xbe13441c	-0.1438145
13	0x3d50d4d5	0.050984222
14	0x3e36fbc1	0.17869474
15	0xbe0e495c	-0.13895172
16	0xbc1a1343	-0.009404006
17	0xbdb8d72e	-0.09025417
18	0xbe0e219d	-0.1388001
19	0xbe3a4973	-0.18192081
20	0x3d58d693	0.05293901
21	0x3e16cff3	0.14727764
22	0x3e880355	0.26565042
23	0xbc49e10b	-0.012321721
24	0x3e823f6d	0.25439015
25	0xbd64e75e	-0.05588471
26	0xbca07f0e	-0.019591834
27	0xbdbef265	-0.09323577
28	0xbe699f43	-0.2281466
29	0xbdc5df0e	-0.09661685
30	0x3eabb208	0.33534265
31	0xbc64dc88	-0.013968594
32	0xbeada5ab	-0.33915457
33	0x3da1c687	0.07899194
34	0x3ddd8ba9	0.10817654
35	0x3e4feea2	0.20305875
36	0x3e26b5e0	0.16280317
37	0x3dbd8c86	0.09255318
38	0xbe0c16f0	-0.13680625
39	0xbe9e54d6	-0.309241
40	0x3e9e1ef7	0.30883
41	0xbdcc5c77	-0.09978574
42	0x3e5697df	0.20956372
43	0xbb69994d	-0.0035644353
44	0xbe8b7c28	-0.2724316
45	0x3d64cbe6	0.055858515
46	0x3e207a2f	0.1567161
47	0xbe41152d	-0.18855734
48	0xbe810401	-0.25198367
49	0x3d05fe00	0.032712936
50	0x3dc20575	0.09473697
51	0x3e170392	0.14747456
52	0x3e014aae	0.12626144
53	0xbe1773ed	-0.14790316
54	0x3d6273d5	0.055286247
55	0xbda270eb	-0.07931694
56	0xbe814e14	-0.2525488
57	0xbd91089e	-0.07081722
58	0xbe734fa0	-0.23760843
59	0x3e109f70	0.1412332
60	0x3e6345f2	0.22194651
61	0xbe7f8a3e	-0.24955079
62	0xbe662060	-0.22473288
63	0x3e10b448	0.14131272
64	0xbc7c6bde	-0.015406577
65	0x3bc51bcf	0.006015278
66	0x3e46981b	0.19393961
67	0x3b89ef63	0.0042094453
68	0xbd122f3b	-0.035689574
69	0xbe5c92c7	-0.21540366
70	0xbe3c810b	-0.18408601
71	0x3d0a828d	0.03381591
72	0xbe1381ea	-0.14405027
73	0x3d878dbb	0.0661883
74	0xbd4755d9	-0.048665855
75	0x3e5430cd	0.20721741
76	0xbdb86840	-0.09004259
77	0xbcd5ed74	-0.026114203
78	0xbd849de2	-0.06475426
79	0x3daea8ca	0.08528288
80	0xbd4264b4	-0.04745932
81	0xbea877d3	-0.3290392
82	0x3e9b4ec6	0.30333537
83	0x3e4ace75	0.1980532
84	0xbb06807b	-0.0020523358
85	0xbdd30c1e	-0.103050455
86	0x3df1c9ec	0.11806092
87	0x3e672b33	0.22575073
88	0x3d1a5763	0.037680995
89	0x3d2c1136	0.0420086
90	0xbeb82c46	-0.35971278
91	0x3d895aa2	0.0670674
92	0x3e0478ad	0.12936659
93	0xbdb67180	-0.08908367
94	0xbe1a56c5	-0.15072162
95	0x3e4eabbf	0.20182703
96	0xbbe852bb	-0.0070899404
97	0xbdd22b72	-0.10262193
98	0x3ddd659c	0.10810396
99	0xbe67aa73	-0.22623615
100	0xbb9938e9	-0.0046759737
101	0x3e148501	0.14503862
102	0x3e5e3f38	0.21703804
103	0xbe518b6e	-0.20463344
104	0xbcda9440	-0.02668202
105	0xbdbc1e93	-0.09185519
106	0x3e4c3fa0	0.19946146
107	0xbd883ec3	-0.06652596
108	0x3dc8ec47	0.09810691
109	0x3e305a57	0.17221962
110	0x3de228f4	0.110429674
111	0x3e442609	0.19155134
112	0xbc354c48	-0.01106555
113	0xbdc2ba66	-0.09508209
114	0xbe1a4be0	-0.15068007
115	0x3d56bcd8	0.05242619
116	0xbe65b8a6	-0.22433719
117	0x3dcbe5c7	0.09955936
118	0x3d771a1d	0.060327638
119	0xbea7aad2	-0.32747513
120	0x3d90e825	0.07075528
121	0x3ce99dc5	0.028517613
122	0x3e2b032a	0.16700426
123	0xbe2fc5d5	-0.1716531
124	0xbe721125	-0.23639353
125	0x3d582aff	0.05277538
126	0xbe16c3b3	-0.14723091
127	0xbd5eda82	-0.054407604
128	0x3cdb7159	0.026787447
129	0x3ea23465	0.316806
130	0x3e795c95	0.24351723
131	0x3df0bb69	0.11754496
132	0xbdb88465	-0.09009627
133	0xbe647e61	-0.22313835
134	0x3df5ecdd	0.12008069
135	0x3e8d3fe6	0.27587813
136	0xbe5795be	-0.21053216
137	0x3e7c8b37	0.24662481
138	0xbe82aaf1	-0.25521043
139	0x3d818b06	0.06325345
140	0x3e9703ac	0.2949499
141	0x3e8d0606	0.27543658
142	0xbe597971	-0.21237732
143	0x3e4fb99a	0.20285645
144	0xbe1e50b9	-0.15460481
145	0xbe162595	-0.14662774
146	0xbe8585b3	-0.26078567
147	0x3e59c0bb	0.21264927
148	0x3e7929b2	0.24332312
149	0x3dcb67da	0.099319175
150	0xbe485530	-0.19563746
151	0xbdf9cc86	-0.12197213
152	0xbe728b95	-0.23686059
153	0xbe7c72ca	-0.24653164
154	0x3e5130f6	0.20428833
155	0x3cfa7bac	0.03057655
156	0xbdfe1575	-0.12406436
157	0x3d14b1d6	0.03630241
158	0xbe3ad279	-0.18244351
159	0xbeaa4d95	-0.33262315
160	0x3e915893	0.2838789
161	0x3e0acc9b	0.13554613
162	0x3e304603	0.17214207
163	0x3e9fbf5e	0.3120069
164	0xbe223eef	-0.1584432
165	0xbe226162	-0.15857461
166	0xbe4c877f	-0.19973563
167	0x3dcc044c	0.09961757
168	0x3d284fe1	0.041091803
169	0xbe119547	-0.14217101
170	0x3d872e0a	0.06600578
171	0x3e9e4bf5	0.30917326
172	0x3ddba872	0.10725488
173	0x3d97af95	0.074065365
174	0xbdac6038	-0.0841679
175	0xbeaa20f7	-0.33228275
176	0x3e191d69	0.14952625
177	0x3cad50c1	0.02115667
178	0xbe5bc81c	-0.21463054
179	0x3eca9e8b	0.39574084
180	0xbd879bd2	-0.06621517
181	0xbcf0c7cd	-0.029392147
182	0xbd91ce0c	-0.071193784
183	0x3e2548b3	0.16141014
184	0x3c80995a	0.015698124
185	0xbe10a0d2	-0.14123848
186	0x3e8d18e0	0.2755804
187	0x3eaa87e0	0.3330679
188	0xbc9ffa98	-0.019528672
189	0x3d9c6298	0.07635993
190	0xbe178dde	-0.14800212
191	0x3c2ce774	0.01055323
192	0xbe80c7f2	-0.25152546
193	0xbdf9f7c3	-0.1220546
194	0xbe5e973c	-0.21737379
195	0x3d668582	0.056279667
196	0x3de20fae	0.11038147
197	0x3c2cf80c	0.010557186
198	0x3e3e99fb	0.18613426
199	0x3d961d21	0.07329775
200	0x3c58179e	0.0131892245
201	0x3ed1df7b	0.40990815
202	0x3dccc084	0.09997657
203	0x3e31e9b6	0.1737431
204	0x3e749484	0.23884779
205	0x3d835e7f	0.06414508
206	0xbe072140	-0.13196278
207	0xbe59297c	-0.21207231
208	0x3e58b473	0.21162586
209	0x3e5d9131	0.21637417
210	0x3d76c2d2	0.06024439
211	0x3ca2c186	0.01986767
212	0xbe6c1daa	-0.23058191
213	0xbe9e44d9	-0.30911902
214	0x3dd9a057	0.106262855
215	0xbe3099e0	-0.17246199
216	0x3ce34484	0.027742632
217	0xbe00796c	-0.12546319
218	0xbe55b025	-0.20867975
219	0x3ac92804	0.0015347009
220	0x3db7217f	0.08941936
221	0x3dffa13b	0.12481924
222	0x3de624f5	0.11237518
223	0x3dce98ad	0.10087714
224	0xbd6b0132	-0.057374187
225	0x3e6294ac	0.22127026
226	0x3e82b41d	0.2552804
227	0xbe81afff	-0.25329587
228	0x3dfd3b02	0.123647705
229	0xbe7bb63f	-0.2458124
230	0xbe88b14a	-0.2669776
231	0xbdcf801e	-0.10131858
232	0xbdc6d431	-0.09708441
233	0x3e4d1e32	0.2003105
234	0xbe2a9ad6	-0.16660628
235	0xbc854eec	-0.016272984
236	0xbd49bcd0	-0.04925233
237	0x3d3424a3	0.043980252
238	0xbe2fbe4e	-0.17162439
239	0xbb9d73d7	-0.004805069
240	0xbe158b4e	-0.14603922
241	0x3e7f1dc7	0.24913703
242	0x3e5c536d	0.215162
243	0x3e40d0e6	0.18829688
244	0x3e71b86c	0.23605508
245	0x3e7ba97e	0.24576375
246	0x3dc72bee	0.09725176
247	0x3e15fc69	0.14647068
248	0xbe4e5524	-0.20149666
249	0xbd875cfe	-0.06609534
250	0x3e0627e9	0.13101162
251	0x3d226253	0.03964455
252	0xbd2c731f	-0.042101976
253	0xbe65ad2f	-0.22429346
254	0x3e28bdf0	0.16478705
255	0x3eb475d7	0.35246155

actor.0.bias f4 [256]
0	0x3de71d14	0.11284843
1	0x3e869a86	0.26289767
2	0x3dc97c50	0.09838164
3	0x3e244755	0.16042836
4	0x3dcef197	0.10104673
5	0x3d5913ba	0.05299733
6	0xbe80f6e8	-0.25188375
7	0xbe0de8db	-0.13858359
8	0x3eae661b	0.34062275
9	0x3e0b1189	0.13580908
10	0x3e1a3801	0.15060426
11	0x3dc3848b	0.09546765
12	0xbca47202	-0.020073894
13	0x3d55e51a	0.05222044
14	0xbe3107c5	-0.1728812
15	0x3d146c47	0.036236074
16	0xbbce3f2d	-0.0062941522
17	0xbddf83ec	-0.10913834
18	0x3e292d75	0.16521247
19	0xbd8246ce	-0.06361161
20	0xbe199647	-0.14998733
21	0x3e3556c5	0.17708881
22	0x3e68e90d	0.22745152
23	0xbdea6769	-0.11445505
24	0xbe411b5b	-0.18858092
25	0x3d92897d	0.0715513
26	0xbd7d1e2b	-0.06179635
27	0xbe48a2b8	-0.19593322
28	0xbe190801	-0.1494446
29	0xbd8c3491	-0.06845964
30	0xbe87772d	-0.2645811
31	0xbe89ba20	-0.26899815
32	0x3e6560f5	0.22400267
33	0xbe1faa58	-0.15592325
34	0xbde8976e	-0.11357008
35	0xbe1da77d	-0.15395923
36	0xbc1d056b	-0.009583811
37	0x3da4437c	0.08020684
38	0xbdca3242	-0.09872867
39	0x3e250532	0.16115263
40	0xbe194b62	-0.14970163
41	0x3e4a41f4	0.19751722
42	0xbe7333b3	-0.2375019
43	0x3e020c03	0.12699895
44	0x3da63630	0.08115804
45	0xbb98bfcc	-0.004661536
46	0xbda64808	-0.081192076
47	0xbdb96161	-0.09051777
48	0xbdee810c	-0.116457075
49	0x3e0397aa	0.12850824
50	0x3de212ac	0.11038718
51	0xbdfb1b71	-0.122610934
52	0x3db3c0f7	0.087770395
53	0xbdba137d	-0.09085748
54	0xbd80bf84	-0.06286529
55	0x3e4633ee	0.19355747
56	0xbc59eaf9	-0.013300651
57	0xbde73eea	-0.11291297
58	0xbcb55cff	-0.02213907
59	0x3dcac74e	0.099012956
60	0x3e5ad454	0.21370059
61	0xbe075e3d	-0.13219543
62	0x3e196067	0.14978181
63	0xbe691176	-0.22760567
64	0xbdaa5fa8	-0.08319026
65	0x3bda8d38	0.0066696666
66	0xbd35ceee	-0.044386797
67	0x3d9f7d85	0.07787613
68	0x3e104684	0.140894
69	0x3e06c862	0.13162377
70	0x3989925e	0.00026239728
71	0xbe6f02e2	-0.23340943
72	0x3e226a83	0.15860943
73	0xbe275c68	-0.16343844
74	0x3c813df5	0.015776614
75	0x3d0403c6	0.03223016
76	0x3e92ddbc	0.28684795
77	0x3e2db055	0.16961797
78	0xbe720d3e	-0.23637864
79	0xbce900e8	-0.028442815
80	0xbdb9a820	-0.090652704
81	0x3e7c0408	0.24610913
82	0xbd4fb7b5	-0.050712306
83	0x3e0b0691	0.13576724
84	0xbe80f6c3	-0.25188264
85	0xbd45b643	-0.04826952
86	0x3dc09539	0.09403462
87	0x3e09e291	0.13465334
88	0x3e3b8db3	0.18315773
89	0xbe437f75	-0.1909159
90	0xbdf804b9	-0.12110276
91	0xbea1165f	-0.3146238
92	0x3e1cf494	0.15327674
93	0xbe6d47fe	-0.23171994
94	0xbea1fd97	-0.31638786
95	0xbe902823	-0.28155622
96	0x3cd53f1d	0.026031071
97	0x3e244cc1	0.16044904
98	0x3e4a0da7	0.1973177
99	0x3da7ce4d	0.081936456
100	0xbc7b1e27	-0.015327013
101	0x3e8d33a0	0.2757845
102	0xbe133fa5	-0.14379747
103	0x3e30719c	0.17230839
104	0xbe46e975	-0.19424994
105	0xbe208f00	-0.1567955
106	0x3d8ba0ff	0.06817817
107	0xbdf7b0a9	-0.12094242
108	0xbd877fa3	-0.06616142
109	0x3d0aa22a	0.033846058
110	0xbe990220	-0.29884434
111	0x3d973e32	0.0738491
112	0xbdf9da1f	-0.121998064
113	0xbe0d6b65	-0.13810499
114	0xbd0f987b	-0.035057526
115	0x3a2f4794	0.0006686386
116	0x3c91ea2c	0.017811857
117	0x3d020f78	0.031753033
118	0xbdb0bd45	-0.0862985
119	0x3e412703	0.18862538
120	0x3e60ad41	0.21941091
121	0xbe3fb186	-0.18720064
122	0x3d02f3ec	0.031970903
123	0xbe7b40c8	-0.24536431
124	0xbe95a738	-0.2922914
125	0xbd3b039c	-0.04565774
126	0xbdabf751	-0.08396781
127	0xbe4962b4	-0.19666559
128	0x3df9084a	0.12159784
129	0x3d69fc6b	0.05712549
130	0xbe966837	-0.29376385
131	0xbcfc637a	-0.030809153
132	0x3dc1ce60	0.09463191
133	0x3e27d387	0.16389285
134	0xbe12c203	-0.14331822
135	0x3d7bdc41	0.061489347
136	0xbd81d8b5	-0.06340162
137	0x3d8047e8	0.06263715
138	0x3e19c23c	0.15015501
139	0xbde949e0	-0.11391044
140	0x3da7b64e	0.08189069
141	0x3dd84359	0.105597205
142	0xbe2ff0c0	-0.17181683
143	0xbe2853ba	-0.16438189
144	0xbe1f77b8	-0.15573013
145	0xbcfe79bb	-0.031063905
146	0xbdeb6cce	-0.11495362
147	0xbc612dfd	-0.013743875
148	0xbe82f37d	-0.25576392
149	0xbcfd398e	-0.030911233
150	0xbe03a9bb	-0.12857716
151	0xbea5f49f	-0.32413194
152	0xbe37ade5	-0.17937429
153	0xbe4b7ff2	-0.19873026
154	0xbe946243	-0.28981218
155	0xbe86de40	-0.26341438
156	0xbe741106	-0.23834619
157	0x3d219f7d	0.03945874
158	0xbe95b590	-0.29240084
159	0xbd66328e	-0.056200556
160	0x3d2ea548	0.042638093
161	0x3cf90db8	0.03040205
162	0x3e32a74c	0.17446631
163	0x3dc01f54	0.09380975
164	0x3dce828b	0.10083493
165	0xbe36cf61	-0.17852546
166	0x3e79ded3	0.24401407
167	0xbe14db03	-0.14536671
168	0x3da5b570	0.08091247
169	0xbd5cf084	-0.05394031
170	0xbe014c04	-0.12626654
171	0x3e6ea13a	0.2330369
172	0x3de501e4	0.11182001
173	0xbd30db0b	-0.043177646
174	0x3e17a5d0	0.14809346
175	0xbe26c5f4	-0.1628645
176	0x3e48a407	0.19593821
177	0xbc1b33e5	-0.009472822
178	0x3e7a4c89	0.24443258
179	0x3de9519a	0.113925174
180	0xbe6691a9	-0.22516502
181	0xbe6c36a5	-0.2306772
182	0xbd271912	-0.040795393
183	0x3ea0690e	0.3133015
184	0x3e8e92d2	0.2784639
185	0xbdc3c159	-0.095583625
186	0xbe054561	-0.13014747
187	0xbe0327e2	-0.12808183
188	0x3cc29076	0.023750525
189	0xbe038eb6	-0.12847409
190	0x3d8ab5ac	0.067729324
191	0xbe63dbea	-0.2225186
192	0xbe8653f6	-0.26235932
193	0x3dbd41f0	0.09241092
194	0xbe47e1df	-0.19519757
195	0xbe2b180b	-0.1670839
196	0xbe34b6b4	-0.1764782
197	0x3d0adfb2	0.03390474
198	0x3d8b3855	0.06797854
199	0xbd4685cc	-0.048467442
200	0xbe018e66	-0.12651977
201	0xbbf3256c	-0.0074202325
202	0xbe55bf9e	-0.20873877
203	0x3e300bba	0.17191973
204	0x3bc8385a	0.0061102333
205	0xbdf29aa1	-0.118458994
206	0xbd9e87eb	-0.07740768
207	0x3caac348	0.02084507
208	0x3cc2f06c	0.023796283
209	0x3b448338	0.002998544
210	0x3d53d4c7	0.051716592
211	0xbdd74d35	-0.10512773
212	0xbe83fc29	-0.2577832
213	0xbda9b28c	-0.08286008
214	0x3e9b11f0	0.30287123
215	0xbe34aa84	-0.17643172
216	0xbe86ea1e	-0.26350492
217	0x3c694a3d	0.014238891
218	0x3e59997e	0.21249959
219	0xbd4da1b2	-0.050203033
220	0x3e7dfbdf	0.24803112
221	0x3cc087a5	0.02350218
222	0x3e6da4e9	0.2320744
223	0x3e85299f	0.26008317
224	0x3e018dac	0.126517
225	0x3e368c09	0.17826857
226	0x3e387505	0.1801339
227	0xbd0e6ca8	-0.03477159
228	0x3e5cbacd	0.21555634
229	0xbd794c80	-0.06086397
230	0x3e515c36	0.20445332
231	0x3e34f16d	0.17670222
232	0xbdb904bc	-0.09034106
233	0x3d933b6a	0.07189067
234	0xbd0be341	-0.034152273
235	0x3d70a14f	0.058747586
236	0x3e597522	0.21236089
237	0xbe1069d0	-0.14102864
238	0xbe3f802d	-0.18701239
239	0x3e2045cb	0.15651624
240	0xbe60f86f	-0.2196977
241	0xbde97e23	-0.11401012
242	0x3e2be2d8	0.16785753
243	0x3e6a5b95	0.22886498
244	0x3e418cd7	0.18901382
245	0xbe0d3fe6	-0.13793907
246	0x3e44600d	0.19177265
247	0x3e099b0d	0.13438053
248	0x3db8cb34	0.09023133
249	0xba2615fc	-0.00063356734
250	0x3d6572d6	0.05601772
251	0x3dc5c97d	0.096575715
252	0xbd4be35b	-0.04977737
253	0x3ca16bf6	0.0197048
254	0x3cb6b00a	0.022300739
255	0xbe3043e8	-0.17213404

actor.2.weight f4 [128, 256]
0	0x3c669b25	0.014075075
1	0x3d3c2296	0.04593142
2	0xbb6c1ae3	-0.0036026768
3	0x3d49b9df	0.049249526
4	0x3d43a22d	0.047762085
5	0x3d5c00e5	0.05371179
6	0xbd21ebbe	-0.039531462
7	0x3d154c78	0.03644988
8	0x3d10d075	0.03535505
9	0xbd590207	-0.05298045
10	0xba2f45e6	-0.0006686136
11	0x3d353496	0.044239603
12	0xbcbe9577	-0.02326463
13	0xbcce72aa	-0.02520116
14	0xbd8c9dbd	-0.06866024
15	0x3d597815	0.053093035
16	0x3cbf4a4a	0.023350853
17	0xbd532479	-0.051548455
18	0xbbda2de2	-0.0066583017
19	0x3d37bb90	0.044856608
20	0xbdc32b20	-0.0952971
21	0xbd22c4a1	-0.0397383
22	0x3d134f7c	0.035964474
23	0xbb9878e9	-0.0046530855
24	0xbd5e6eda	-0.054304935
25	0xbd040796	-0.032233797
26	0x3d530f6b	0.051528376
27	0x3cf70ff0	0.030158967
28	0xbc940753	-0.018069899
29	0x3ce05728	0.02738531
30	0x3bf68105	0.0075227045
31	0x3c4e7596	0.012601277
32	0x3d7ba1d3	0.061433624
33	0x3d54d0f7	0.051957097
34	0xbb9cb14e	-0.0047818786
35	0xbd978357	-0.07398098
36	0x3d531d26	0.05154147
37	0x3de5ce37	0.11220973
38	0xbd6622a7	-0.05618539
39	0x3d6cd438	0.057819575
40	0x3cfeabcf	0.031087784
41	0xbcae471d	-0.021274144
42	0x3cd83d14	0.026396312
43	0x398bf866	0.00026697217
44	0x3d47c70c	0.04877381
45	0x3b54a086	0.0032444312
46	0x3cc3247d	0.02382111
47	0xbd25db88	-0.040492564
48	0x3d0520f4	0.03250213
49	0x3bc8c8f1	0.0061274697
50	0x38f1ddc0	0.0001153308
51	0xbd71de60	-0.059049964
52	0xbc212abe	-0.009836851
53	0x3ca5d569	0.020243363
54	0x3d36fed9	0.044676635
55	0x3ad23d26	0.0016039952
56	0xbd33fb87	-0.043941047
57	0xbcead625	-0.028666565
58	0xbc7168d5	-0.014734467
59	0xbd5acfe5	-0.05342092
60	0x3d8db76a	0.06919749
61	0xbb859a35	-0.004077221
62	0x3d1bfd70	0.038083494
63	0xbd2098e6	-0.039208315
64	0x3bf5a37a	0.0074962946
65	0x3d02eaad	0.031962086
66	0x3c1b8a03	0.009493354
67	0x3d6cc5ea	0.057805933
68	0xbbe7c4fe	-0.007073044
69	0xbaa17c7e	-0.0012320427
70	0xbd815433	-0.06314888
71	0x3c612ed1	0.013744072
72	0xbc23e18c	-0.010002505
73	0xbd2ee412	-0.042697974
74	0xbd00493b	-0.031319838
75	0x3cdcc618	0.026949927
76	0xbd28a1d7	-0.041169968
77	0x3d2962d4	0.041354015
78	0xbd4814e1	-0.048848037
79	0xbd02b6dd	-0.031912673
80	0x3bc6ce8a	0.006067102
81	0xbbb8bf27	-0.0056380215
82	0xbd8591dc	-0.06521961
83	0x3c8903b0	0.016725391
84	0xbd21ebd1	-0.039531533
85	0x3cf8d130	0.030373186
86	0x3c091ee6	0.008369183
87	0x3c6e5af8	0.014548056
88	0x3bb29739	0.005450156
89	0x3db9faa3	0.09081008
90	0x3b8648c4	0.00409803
91	0x3c379876	0.011205783
92	0xbd03c49b	-0.03216992
93	0x3d264de6	0.040601633
94	0xbd58b90a	-0.052910842
95	0xbd74e356	-0.059787117
96	0xbcda0ccb	-0.026617428
97	0x3ceff8d8	0.029293463
98	0x3d9eef0e	0.0776044
99	0xbd460ea4	-0.048353806
100	0x3cd0182c	0.025402151
101	0x3ce95f54	0.028487839
102	0x3cb8e578	0.022570357
103	0x3c26aeef	0.010173543
104	0xbd4976e5	-0.049185652
105	0x3bc6b049	0.0060634953
106	0xbd72deba	-0.05929444
107	0xbe017458	-0.12642038
108	0x3cb84874	0.022495486
109	0xbd0454d3	-0.032307457
110	0xbd871ff5	-0.06597892
111	0xbc1a79e5	-0.009428476
112	0x3a0e6482	0.0005431847
113	0xbc0e8a87	-0.00870002
114	0xbbe59666	-0.0070064543
115	0xbd90f906	-0.070787475
116	0xbccfca9d	-0.025365168
117	0x3b17172a	0.0023054578
118	0xbcc1a88d	-0.023639942
119	0xbd44a39a	-0.048007585
120	0xbd6135cc	-0.054982945
121	0x3d88b525	0.066751756
122	0x3c1c6a64	0.00954685
123	0xbdad19fe	-0.08452223
124	0x3d4c4996	0.049874865
125	0xbb821a06	-0.0039703874
126	0x3cf3268e	0.02968147
127	0xbc3dc0d1	-0.011581616
128	0x3dd0d136	0.10196154
129	0x3aec8a4a	0.0018046584
130	0xbc5b6c8b	-0.013392578
131	0x3d3f39b8	0.046685904
132	0x3d380ece	0.044935994
133	0xbd09a4ed	-0.03360455
134	0xbb8fe32c	-0.0043910947
135	0x3cc51236	0.024056535
136	0x3d3b24a2	0.045689233
137	0x3ce7a919	0.028278874
138	0x3d0c00b9	0.034180377
139	0xbd099a76	-0.03359457
140	0x3c306ee0	0.010768622
141	0xbd80f04a	-0.062958315
142	0xbba68c33	-0.005082631
143	0xbd2f348a	-0.042774715
144	0xbd84141d	-0.06449149
145	0x3ca04e5c	0.019568615
146	0x3be7cd64	0.007074045
147	0x3cc66564	0.024218269
148	0xbd70a1ac	-0.058747932
149	0xbd83270f	-0.06403934
150	0xbe06ab14	-0.13151199
151	0xbcddc354	-0.027070679
152	0x3cb02cdf	0.021505771
153	0xbd17e639	-0.03708479
154	0x3bef1edd	0.0072973804
155	0x3b9ac39c	0.0047230255
156	0xbcd23711	-0.025661023
157	0xbd0cfd9b	-0.034421545
158	0x3c9c3ffe	0.019073483
159	0xbbdf8a93	-0.0068219393
160	0xbc96f39c	-0.018426709
161	0xbdc784a6	-0.097420976
162	0xbd1312d0	-0.035906613
163	0x3c71186c	0.014715295
164	0xbd6869a9	-0.05674139
165	0x3d86f9a1	0.06590582
166	0xba2a2d7e	-0.0006491764
167	0x3ad3b8aa	0.0016153057
168	0x3d78bb7e	0.06072568
169	0x3d7d5720	0.061850667
170	0x3c655d2d	0.013999266
171	0xbd2790d4	-0.040909603
172	0x3aa66ee6	0.0012697845
173	0x3c82e3f7	0.015977843
174	0x3c1e069c	0.0096451305
175	0xbc7f373c	-0.015577134
176	0x3d220749	0.03955773
177	0x3d47cb0f	0.048777636
178	0xbc857108	-0.016289249
179	0xb984e5da	-0.00025348255
180	0x3c4c9ec1	0.012489022
181	0xbcbb9ee0	-0.022902906
182	0xbc837163	-0.016045278
183	0x3d92072d	0.07130275
184	0x3d1535be	0.036428206
185	0xbcc25700	-0.023723125
186	0xbcd82266	-0.02638359
187	0x3be67b0d	0.0070337118
188	0x3d84ef25	0.06490926
189	0x3bafb680	0.005362332
190	0x3d6a9d3b	0.057278853
191	0xbd0e9924	-0.034814015
192	0xbd3fc459	-0.04681811
193	0xbd84f8fe	-0.06492804
194	0xbd8db3df	-0.06919073
195	0x3d056901	0.032570843
196	0xbcf3207d	-0.029678578
197	0x3bb21f76	0.0054358793
198	0xbb490ac1	-0.0030676576
199	0xbce6d584	-0.028177984
200	0x3d4a0849	0.049324308
201	0x3c3c37ac	0.011487883
202	0xbc29e2a7	-0.01036898
203	0x3cc709e6	0.024296712
204	0x3d06a70b	0.03287415
205	0xbdc32fdc	-0.09530613
206	0xbd1911ab	-0.037370365
207	0x3d894651	0.06702865
208	0x3b91fdb4	0.0044552926
209	0xbbe3dfad	-0.0069541545
210	0x3c6a402d	0.014297527
211	0xbd8dafe5	-0.06918315
212	0xbd89935f	-0.06717562
213	0x3b00cb19	0.0019652306
214	0xbd219957	-0.039452877
215	0xbd6e514a	-0.058182992
216	0xbceafcf8	-0.028685078
217	0xbc823a78	-0.01589702
218	0x3d8409e0	0.06447196
219	0xbcf508a3	-0.029911345
220	0xbd39070c	-0.045172736
221	0x3c72b5ea	0.0148138795
222	0x39c4101b	0.00037396033
223	0x3c98ef3d	0.018668765
224	0x3c50b47c	0.012738343
225	0x3bd50f0d	0.0065020383
226	0xbd961716	-0.07328622
227	0xbd496289	-0.049166236
228	0x3d34b3a0	0.044116616
229	0x3da554ea	0.08072837
230	0x3cd3dee5	0.02586312
231	0x3c17eaf5	0.009272327
232	0xbd4c3a5b	-0.04986034
233	0xbd2ce5ec	-0.042211458
234	0x3d71d340	0.059039354
235	0x3ca4d4fc	0.02012109
236	0x3b52946e	0.0032131928
237	0x3ba6fc07	0.005095962
238	0xbdafc0a3	-0.085816644
239	0x3baf5f97	0.0053519714
240	0xbce57753	-0.028011
241	0x3d460942	0.048348673
242	0xbcf26419	-0.029588746
243	0x3c070ddc	0.00824305
244	0x3dc1c1a5	0.09460763
245	0x3d04e2d2	0.032442875
246	0xbd05fc03	-0.03271104
247	0xbd55bf04	-0.05218412
248	0xbb13a004	-0.0022525797
249	0x3c9538ab	0.018215498
250	0xbdc773f5	-0.09738914
251	0x3d7def97	0.06199607
252	0x3b7bfef5	0.0038451527
253	0x3d55b39d	0.052173246
254	0xbd338207	-0.043825176
255	0x3d9af57e	0.07566355

actor.2.bias f4 [128]
0	0x3d897d6d	0.06713376
1	0x3c9a607d	0.018844837
2	0xbc161786	-0.009160882
3	0xbd129e7e	-0.03579568
4	0xbaf829e8	-0.0018933387
5	0xbd2357e8	-0.039878756
6	0x3d665a77	0.056238618
7	0x3d0032fa	0.031298615
8	0x3d340795	0.043952543
9	0x3c92c63c	0.017916791
10	0xbc59f247	-0.013302392
11	0xbcdb4d00	-0.026770115
12	0xbd3f99fb	-0.046777707
13	0xbd59f72e	-0.053214245
14	0x3d253811	0.040336672
15	0xbc677ed2	-0.014129357
16	0xbbeca1bc	-0.0072214287
17	0x3d26e27c	0.040743336
18	0xbd6e4284	-0.058168903
19	0x3d1e3ec9	0.038634095
20	0x3ce4a386	0.027910005
21	0xbd410002	-0.047119148
22	0x3d4e5925	0.050377984
23	0xbcbf6ed1	-0.023368271
24	0xbd7517e0	-0.059837222
25	0x3d5cebc9	0.0539358
26	0xbd156ca8	-0.036480576
27	0xbd135da6	-0.035977982
28	0x3ccafc2c	0.024778448
29	0xbd75b331	-0.059985343
30	0x3caa889d	0.020817095
31	0x3d76e755	0.06027921
32	0x3d4b057b	0.049565773
33	0x3d4e4dc9	0.05036715
34	0xbd307159	-0.043076847
35	0xbc7c48a3	-0.015398177
36	0xbd04e7a9	-0.03244749
37	0x3c96f200	0.018425941
38	0x3d1dcf5a	0.038527824
39	0xba29afda	-0.00064730423
40	0x3ce5f95b	0.028073004
41	0x3cc664f9	0.02421807
42	0xbc7eba76	-0.015547385
43	0xbb7816e7	-0.0037855448
44	0xbcdc03c0	-0.026857257
45	0xbd517e29	-0.051145706
46	0xbaa1614b	-0.0012312321
47	0xbd134a5e	-0.035959594
48	0x3d5e9a6a	0.05434648
49	0x3d02cdcb	0.03193454
50	0x3cedd527	0.029032303
51	0xbc81a0f6	-0.015823822
52	0xbd6cade6	-0.05778303
53	0xbd8906d4	-0.066907555
54	0xbd093b3c	-0.033503756
55	0xbb9dbcd7	-0.004813771
56	0x3cf80793	0.03027705
57	0x3c66280d	0.014047635
58	0xb9a398fa	-0.0003120376
59	0xbd015a06	-0.031579994
60	0x3c530535	0.012879659
61	0x3d86c632	0.065807715
62	0x3caf027a	0.021363486
63	0x3d1d6f5a	0.03843627
64	0x3cb1e665	0.021716306
65	0xbd4cdde1	-0.050016288
66	0x3c6b598a	0.0143646095
67	0x3c8497ce	0.016185667
68	0x3d4ca0c9	0.049958024
69	0x3db57b0f	0.08861362
70	0x3d70e159	0.05880866
71	0x3c02b7d2	0.0079783965
72	0x3d7e4a4e	0.06208258
73	0xbb5a1e64	-0.0033282274
74	0x3d4ae899	0.04953823
75	0xbc2486e5	-0.010041927
76	0xbc9d8ca1	-0.019232096
77	0xbd6ddbed	-0.058071066
78	0xbc10e61b	-0.008843924
79	0xbcd99b7e	-0.026563402
80	0xbd3d6ce4	-0.046246424
81	0x3d230952	0.03980381
82	0x3d610275	0.054933984
83	0xbd32b5ee	-0.043630533
84	0xbc060f63	-0.008182379
85	0xbc9d91d3	-0.019234573
86	0x3ce4d3a6	0.027932953
87	0xbd51bca4	-0.051205292
88	0xb92b9ce9	-0.00016366284
89	0xbc00da46	-0.00786454
90	0xbd230989	-0.039804015
91	0x3bd728dc	0.00656615
92	0xbcd58b4e	-0.026067402
93	0xbb08b359	-0.0020858853
94	0xba62a8a2	-0.0008646344
95	0x3d3b38b0	0.04570836
96	0xbd4c1b66	-0.049830817
97	0x3d4bc48f	0.049748
98	0xbc57dfcf	-0.013175919
99	0xbd8256e1	-0.06364227
100	0xbbab7279	-0.005232152
101	0x3d380d8a	0.044934787
102	0xbd101027	-0.035171654
103	0x3bb6b0b1	0.0055752625
104	0x3cd2e554	0.025744118
105	0x3c364bc8	0.011126466
106	0xbc67e81f	-0.014154463
107	0xbd8a688a	-0.067582205
108	0x3d2a7c28	0.04162231
109	0xbcf4f247	-0.029900683
110	0x3c0d8b89	0.008639225
111	0xbcf168d7	-0.029468937
112	0x3d62298c	0.055215403
113	0x3bb2fde9	0.0054623974
114	0xbd307b1b	-0.043086153
115	0x3d50f772	0.051017232
116	0xbc0d8006	-0.00863648
117	0xbd229426	-0.039692067
118	0x3c8cf7ef	0.017208068
119	0x3d38966b	0.045065325
120	0x3c8c1d84	0.017103918
121	0x3cc3fe66	0.023925018
122	0xbd58e4b9	-0.052952502
123	0xbce5069d	-0.027957255
124	0xbd3cf0e6	-0.046128176
125	0x3d40e224	0.047090665
126	0x3d35004f	0.044189747
127	0xbd6d6768	-0.057959944

actor.4.weight f4 [6, 128]
0	0x3c4e3f92	0.0125883985
1	0x3bd6da25	0.0065567666
2	0xbc30bc66	-0.010787105
3	0x3afcfaf4	0.0019300864
4	0xbaa9dd7b	-0.0012959683
5	0xbc64eacd	-0.0139719965
6	0x3c81cfd4	0.01584617
7	0x3b0902c6	0.0020906194
8	0x3d4dd4d4	0.050251797
9	0xbc011f0e	-0.007880939
10	0xbbdbf5f4	-0.0067126695
11	0x3ab588a2	0.0013849924
12	0x3ca60c83	0.020269638
13	0x3cbb5d6c	0.022871695
14	0xbb84bd77	-0.0040509063
15	0xbd8a431d	-0.06751082
16	0xbc02a069	-0.007972815
17	0xbc2664a6	-0.010155832
18	0x3c79b46d	0.015240771
19	0xbb805919	-0.0039168713
20	0xbb8309c9	-0.003998969
21	0xbc889a33	-0.01667509
22	0x3bb37aae	0.005477271
23	0xbca818e9	-0.02051969
24	0xbd131311	-0.035906855
25	0xbb7eef2b	-0.003889988
26	0x3c5597f1	0.013036714
27	0x3d7e4733	0.06207962
28	0xbd9bc876	-0.07606594
29	0xbca89ed5	-0.02058355
30	0xbbd35541	-0.006449372
31	0xbcad3893	-0.02114514
32	0xbccffd94	-0.02538947
33	0xbc0826d7	-0.008310041
34	0x3d4b2f3f	0.049605604
35	0x3c838330	0.016053766
36	0xbbce29c7	-0.0062916013
37	0xbcda47d1	-0.026645573
38	0x3cb4e53d	0.022081966
39	0x3920f4e9	0.00015350025
40	0x3ca7ade0	0.020468652
41	0x3b6c5921	0.0036063867
42	0xbc68e4ca	-0.014214704
43	0x3d379ce5	0.04482736
44	0xbd2c64ce	-0.042088322
45	0xbc43a98f	-0.011942281
46	0x3d802fe5	0.06259135
47	0xbb913fdd	-0.004432662
48	0x3c75123c	0.014957961
49	0xbd8bfda5	-0.06835488
50	0x3c546ced	0.012965423
51	0x3b7cbc08	0.0038564224
52	0x3bb84649	0.005623613
53	0x3d1571c5	0.036485452
54	0xbcfbcb9d	-0.030736739
55	0xbc652898	-0.013986729
56	0xbce519e4	-0.027966447
57	0x3ce224b8	0.0276054
58	0x3c11ef7a	0.008907193
59	0xbbda37c0	-0.006659478
60	0xb9a72321	-0.00031878895
61	0x3d9a6a33	0.07539787
62	0xbc80730d	-0.01567986
63	0x3a42fbdf	0.00074380444
64	0x3bf14b83	0.007363738
65	0x3d27eed4	0.04099925
66	0x3cd7fd35	0.026365856
67	0x3c56ce74	0.013110746
68	0x3c231519	0.009953761
69	0x3d6f417a	0.058412053
70	0x3cf8e6ef	0.030383555
71	0xbba69076	-0.005083139
72	0xbb45641f	-0.0030119491
73	0x3c912b4c	0.01772084
74	0xbb275317	-0.0025531703
75	0x3ae61e72	0.0017556681
76	0x3c29b024	0.010356937
77	0x3a535f41	0.0008063205
78	0xbbff80b4	-0.007797325
79	0x3b839a9c	0.0040162336
80	0x3c0875b4	0.008328844
81	0xbd7ce77f	-0.06174421
82	0x3caba259	0.020951437
83	0xbd96e57e	-0.07367991
84	0x3b26b900	0.0025439858
85	0x3d46f0bf	0.048569437
86	0xbcceaa4c	-0.025227688
87	0xbd7301ef	-0.059328016
88	0x3bbb52eb	0.0057166717
89	0xbd725d24	-0.059170857
90	0xbb982f7e	-0.0046443334
91	0x3cd81722	0.026378218
92	0xbc3e29c4	-0.011606637
93	0x39596994	0.00020734064
94	0x3b70b5c5	0.0036729437
95	0xbc00f6bd	-0.007871327
96	0x3d8a439f	0.06751179
97	0x3daa0af2	0.08302869
98	0x3c61ff4f	0.0137937805
99	0x3c906ce5	0.01763005
100	0x39209d8f	0.00015317484
101	0xbca323e1	-0.01991457
102	0xbcfecfc2	-0.031104926
103	0xbd08596c	-0.033288404
104	0xbca31135	-0.019905666
105	0xbc27b5ae	-0.010236187
106	0xbcfb2c5b	-0.030660799
107	0xbcc925db	-0.024554184
108	0xbbef058c	-0.0072943624
109	0xbd5e4778	-0.054267377
110	0xbcf8501e	-0.03031164
111	0xbcaead7a	-0.021322954
112	0x3c0fc032	0.00877385
113	0xbcfbc4e6	-0.030733537
114	0xbd2a52ab	-0.041582745
115	0xbd2e3f11	-0.042540614
116	0xbca15cdb	-0.019697597
117	0xbb644b5a	-0.0034834952
118	0xbb1b30e9	-0.0023680276
119	0x3ba93bd5	0.0051646032
120	0xbd4ca81c	-0.04996501
121	0x3980d0a7	0.0002456952
122	0x3cfd32a1	0.03090793
123	0xbc8f3def	-0.017485587
124	0x3c45fbc1	0.012083949
125	0xbd459e20	-0.048246503
126	0xbc0a5206	-0.0084424075
127	0x3cf73425	0.030176232
128	0x3d28bfc6	0.041198514
129	0xbb9767e8	-0.004620541
130	0xbc91a75f	-0.017780004
131	0x3ad60d80	0.0016330928
132	0x3a7352dc	0.00092820614
133	0xbd2657fb	-0.04061125
134	0x3c8d76e6	0.01726861
135	0xb902ac70	-0.00012462004
136	0x3d6dd6d1	0.058066193
137	0x3ca7f35c	0.020501785
138	0x3ba3342b	0.004980584
139	0xbb856857	-0.004071276
140	0xbc125f06	-0.008933788
141	0x3858bbbc	5.1673254e-05
142	0x3b3c04d2	0.0028689397
143	0x3a3b4711	0.00071440736
144	0x3bf2626b	0.0073969862
145	0x3cb217b4	0.021739818
146	0xbc5ee91d	-0.013605383
147	0xbc8808f3	-0.01660583
148	0x3c96fcc3	0.018431073
149	0x3b8a383a	0.0042181285
150	0x3d22c961	0.03974283
151	0xbae22964	-0.0017254767
152	0x3d297127	0.041367676
153	0x3a6fb6fd	0.0009144394
154	0x3d1705ca	0.036870755
155	0xbc9ca294	-0.019120492
156	0x3c83fd11	0.016111882
157	0xbcb741f9	-0.022370325
158	0x3ae94501	0.0017797054
159	0x3b35f96e	0.002776708
160	0x3d6ca28c	0.057772204
161	0x3c145da1	0.009055526
162	0xbd06ad44	-0.032880083
163	0x3bd6920f	0.0065481733
164	0xbce4880c	-0.027896903
165	0xbd26970a	-0.040671386
166	0xbc231524	-0.009953771
167	0x3bf9390b	0.007605677
168	0x3ceb5bb2	0.028730247
169	0xbbeea3c4	-0.007282706
170	0x399323f6	0.00028064818
171	0x3c005ab0	0.007834122
172	0xbd0022e4	-0.031283274
173	0xbbc29405	-0.0059380555
174	0xbdb8603c	-0.0900273
175	0xbc0dcab3	-0.008654284
176	0x3ace1f68	0.0015725913
177	0x3c460f67	0.012088633
178	0x3a3d8332	0.00072293275
179	0x3c08d884	0.008352403
180	0x3a9b1057	0.0011830431
181	0xbc3b3bcf	-0.011427834
182	0xbbbb8afe	-0.0057233563
183	0x3c81270b	0.015765687
184	0x3d0683c1	0.032840494
185	0x3d1887ea	0.037238993
186	0x3c1b3113	0.009472149
187	0x3be1bafa	0.0068887444
188	0x3c21c63d	0.009873924
189	0x3d176913	0.03696544
190	0xbc3854d9	-0.011250698
191	0xbc828dca	-0.01593675
192	0x3cb501c1	0.022095563
193	0xbb0be758	-0.0021347608
194	0x3b6cb6b3	0.003611964
195	0x3c204812	0.009782808
196	0x3c23b9ff	0.009993075
197	0x3d72801f	0.059204217
198	0xbbeaa28f	-0.007160492
199	0xbc78209a	-0.015144492
200	0x3b770581	0.003769249
201	0x3ca51751	0.02015272
202	0xbabdeffd	-0.0014491078
203	0xbc10856e	-0.008820875
204	0xbb8f3843	-0.0043707206
205	0xbc81ba43	-0.015835887
206	0x3c1c2740	0.009530842
207	0x3c60e660	0.013726801
208	0x3b6de317	0.0036298686
209	0x3ccb92eb	0.02485033
210	0xbc68acf6	-0.014201393
211	0xbd191d60	-0.03738153
212	0x3adbcaf4	0.0016768859
213	0xbd09f8ab	-0.033684414
214	0xbbb8ec47	-0.005643401
215	0x3ca4bf6c	0.020110808
216	0xbab9ef28	-0.0014185654
217	0x3b7c8230	0.0038529746
218	0x3be2bcea	0.006919493
219	0xbc15eb21	-0.009150297
220	0xbd257b0e	-0.040400557
221	0xbb91b6ea	-0.004446854
222	0xbb187dd5	-0.002326836
223	0xbb1f023f	-0.0024262813
224	0x3c815306	0.015786659
225	0xbc0eba9c	-0.008711483
226	0xbb73974f	-0.0037169044
227	0xbcd6372e	-0.026149359
228	0xbbf1c05e	-0.0073776683
229	0x3bafb349	0.0053619486
230	0xbd2e15bf	-0.042501207
231	0xbc3ad27d	-0.011402723
232	0xba447b98	-0.00074952235
233	0xbc5263e4	-0.012841199
234	0x3aac6502	0.0013152661
235	0xbcc05823	-0.023479527
236	0xbbe008d4	-0.00683699
237	0xbb609c9c	-0.0034273034
238	0xbcb630e1	-0.022240104
239	0xba59753e	-0.00082953635
240	0xbb513f01	-0.0031928422
241	0xbb1344a5	-0.0022471335
242	0x3c558572	0.013032304
243	0x3c028b7a	0.007967824
244	0xbcdc6fb9	-0.026908742
245	0x3c98be54	0.018645443
246	0x3bb524da	0.0055280747
247	0x3c43fc9b	0.011962081
248	0xbb87e593	-0.0041472404
249	0xba4805b5	-0.0007630245
250	0x3b267632	0.002540004
251	0xbcdcbaf6	-0.026944619
252	0x3a7ca3e6	0.000963746
253	0xba8e839f	-0.0010872966
254	0x3c565d13	0.013083714
255	0x3c4c1ae8	0.012457587

actor.4.bias f4 [6]
0	0xbd7c831d	-0.061648477
1	0x3c23070d	0.0099504115
2	0xbd9ac3c7	-0.07556873
3	0xbd9b72ac	-0.07590231
4	0xbd1222e0	-0.03567779
5	0x3d8e01be	0.06933926

critic.0.weight f4 [256, 12]
0	0xbe0e1c8b	-0.13878076
1	0xbe3edf08	-0.18639767
2	0x3da69e22	0.0813563
3	0xbd059ea3	-0.03262199
4	0x3e28a9a6	0.16470966
5	0xbb72a8f3	-0.003702697
6	0xbe774353	-0.24146776
7	0xbe97be43	-0.29637346
8	0x3e02b000	0.12762451
9	0xbf3dcd50	-0.74141407
10	0xbe6b3bb0	-0.22971988
11	0xbc56f2e7	-0.013119436
12	0x3e77e112	0.24206951
13	0x3a0d49cc	0.000538972
14	0xbded83bb	-0.11597391
15	0xbea803b6	-0.3281533
16	0xbe354a8b	-0.17704217
17	0x3e39f39c	0.18159336
18	0xbcf1caed	-0.029515708
19	0x3e9bef41	0.30455974
20	0x3e628da6	0.22124347
21	0xbeb3c5b4	-0.35111773
22	0xbdc1a09b	-0.09454461
23	0xbe857272	-0.26063877
24	0xbe773b70	-0.24143767
25	0x3da4e899	0.08052177
26	0xbd89f111	-0.06735433
27	0x3e2195da	0.1577982
28	0xbe7656da	-0.24056569
29	0x3e63a844	0.22232157
30	0xbe7d4512	-0.2473338
31	0xbe8016a1	-0.25017264
32	0xbdc765ee	-0.097362384
33	0xbeeb751c	-0.45987785
34	0xbdd6f87f	-0.104966156
35	0xbdc5c274	-0.096562296
36	0xbd0acacb	-0.033884805
37	0x3c687022	0.014186891
38	0xbe132ebd	-0.14373298
39	0xbe69fba9	-0.22849907
40	0x3e030102	0.12793353
41	0xbe6d5a56	-0.23178992
42	0x3defbd43	0.11706021
43	0xbe8c0be2	-0.27352816
44	0x3e6bf707	0.23043452
45	0xbf334018	-0.70019674
46	0x3e52ecbc	0.2059812
47	0xbc5ad1e5	-0.013355707
48	0xbe71d3f4	-0.2361601
49	0xbd031b7b	-0.03200863
50	0x3e763a4a	0.24045673
51	0x3e1771d8	0.14789522
52	0xbe834961	-0.2564192
53	0xbe02229c	-0.12708515
54	0x3e55bc01	0.20872499
55	0xbe83874c	-0.2568916
56	0xbe3ea537	-0.18617712
57	0xbf56323d	-0.8367041
58	0x3bee3dfe	0.0072705736
59	0x3e9bb117	0.30408546
60	0xbe049715	-0.12948258
61	0x3bdcc6cc	0.0067375656
62	0x3c8ddf9b	0.017318537
63	0x3e74fa75	0.23923667
64	0x3d21e26c	0.039522573
65	0xbc818ed7	-0.015815182
66	0x3e36620c	0.1781084
67	0x3bc34667	0.0059593203
68	0x3e0685c5	0.13136967
69	0x3f05326b	0.52030057
70	0x3e539f2f	0.20666192
71	0xbde2d2c7	-0.11075359
72	0xbe8e10b7	-0.27747127
73	0x3b2b85ab	0.0026172202
74	0xbd6a459b	-0.057195287
75	0xbe7d1caf	-0.24717973
76	0x3e0c29ac	0.13687772
77	0xbe1919f9	-0.14951314
78	0xbc5ebcea	-0.013594845
79	0x3d273cbd	0.04082941
80	0x3e5787b5	0.21047862
81	0x3f54d774	0.83141255
82	0xbe0bcf36	-0.13653263
83	0xbe46ae5f	-0.19402455
84	0x3e4b0fef	0.19830297
85	0x3d684732	0.056708522
86	0x3e4ea282	0.2017918
87	0x3e9488f7	0.29010746
88	0x3cf97b06	0.03045417
89	0x3d4398b5	0.047753055
90	0xbe9bfac4	-0.30464756
91	0xbe892a54	-0.26790106
92	0x3e357bdb	0.17723028
93	0x3f130617	0.5743117
94	0xbd855b2b	-0.065115295
95	0xbe3a7d40	-0.18211842
96	0xbe57f08d	-0.21087857
97	0xbe0969c8	-0.13419259
98	0xbe3de53c	-0.18544477
99	0xbadc467d	-0.0016805675
100	0xbe9ce9f4	-0.30647242
101	0xbde2023e	-0.11035584
102	0xbe4ea3a1	-0.20179607
103	0x3e5b576b	0.21420066
104	0xbe8256fc	-0.2545699
105	0xbf41474f	-0.75499433
106	0x3d1c7315	0.03819569
107	0xbe7d67e1	-0.24746658
108	0xbe5ddd66	-0.21666488
109	0xbeb0b983	-0.34516534
110	0x3e924c67	0.28573915
111	0xbe94d229	-0.2906659
112	0x3e2d3476	0.16914544
113	0x3e281993	0.16416006
114	0xbdf18519	-0.117929645
115	0x3eb7f1da	0.35926706
116	0x3dd6b9c5	0.104846515
117	0x3d1ddf86	0.038543247
118	0xbdd2cf30	-0.10293424
119	0xbeb4d2fa	-0.35317212
120	0x3e828ec8	0.25499558
121	0xbd0e7c33	-0.034786414
122	0x3e3be66d	0.18349619
123	0xbe414418	-0.18873632
124	0xbdf14611	-0.11780942
125	0x3e56e025	0.20983942
126	0xbddd9714	-0.108198315
127	0x3e1b4921	0.15164615
128	0x3e5d6152	0.21619156
129	0xbf357a7c	-0.7089002
130	0x3d9c026e	0.07617651
131	0x3e93778d	0.28802148
132	0x3e559b0f	0.20859931
133	0x3d50a75b	0.050940853
134	0x3e52761e	0.2055287
135	0x3e14288e	0.14468595
136	0xb94d96b3	-0.00019606463
137	0x3e7d0262	0.2470794
138	0xbdf7f9cf	-0.12108194
139	0xbdb9d207	-0.09073263
140	0xbdb023be	-0.08600567
141	0x3f5a4f66	0.852774
142	0xbe1c24ff	-0.15248488
143	0x3cffc95b	0.031223943
144	0xbdc89f12	-0.09795965
145	0x3e2de90f	0.16983436
146	0x3e1b61be	0.15174004
147	0xbd4ea43f	-0.050449606
148	0xbb93a256	-0.004505436
149	0xbd483e74	-0.048887685
150	0xbd7b135f	-0.06129777
151	0x3cfd3804	0.0309105
152	0x3e4f21d4	0.20227748
153	0x3f0aa445	0.54156905
154	0xbdfe1913	-0.12407126
155	0x3e14d88f	0.14535736
156	0xbdc1837e	-0.09448908
157	0xbd94918d	-0.07254324
158	0xbd4710f0	-0.048600137
159	0x3da39502	0.07987405
160	0xbd8d0452	-0.0688559
161	0x3e148484	0.14503676
162	0x3dba5ac2	0.09099342
163	0xbda85b90	-0.08220589
164	0xbe3cee10	-0.18450189
165	0x3ed1b85e	0.40960974
166	0x3e98e3ab	0.29861197
167	0xbe8fe887	-0.28107092
168	0xba9d51a6	-0.0012002483
169	0x3dd3416f	0.10315215
170	0x3bdd75b8	0.006758418
171	0x3e0fccd3	0.14042978
172	0x3e8ab01d	0.2708749
173	0xbbbd6535	-0.005779887
174	0xbdaf0146	-0.08545165
175	0x3d49117a	0.049088933
176	0x3ddcbde0	0.10778403
177	0xbf410716	-0.7540144
178	0xbe4f562c	-0.20247716
179	0xbac3a3f6	-0.0014926184
180	0x3df135fe	0.11777876
181	0x3e1f95a0	0.15584421
182	0x3e04be77	0.12963282
183	0xbe4e8429	-0.20167603
184	0x3e522313	0.20521192
185	0x3e371d45	0.17882259
186	0xbd84aecd	-0.06478653
187	0xbce0da9b	-0.02744799
188	0xbea38929	-0.31940582
189	0xbf02e4ed	-0.51130563
190	0x3ccf925c	0.025338344
191	0x3c0ae975	0.008478512
192	0x3def45b1	0.116832145
193	0x3e903b7a	0.28170377
194	0x3dc2057e	0.09473704
195	0xbe7f98fd	-0.24960704
196	0x3b474481	0.0030405822
197	0xbe957457	-0.29190323
198	0x3d91dbc2	0.071219936
199	0x3db2453c	0.08704612
200	0xbe21efbf	-0.15814112
201	0x3f431032	0.7619659
202	0xbddf230a	-0.10895355
203	0x3e460112	0.19336346
204	0x3e0ff71b	0.14059107
205	0x3df40825	0.11915616
206	0x3da048fc	0.07826421
207	0x3dc87510	0.09787953
208	0x3e8676e5	0.26262584
209	0x3e494f2f	0.19659112
210	0xbdfb3c7a	-0.12267394
211	0x3e5cc726	0.21560344
212	0xbe7206ae	-0.2363536
213	0xbf5c4d38	-0.86055326
214	0xbe987ed6	-0.29784268
215	0x3e18d029	0.14923157
216	0x3d420b25	0.04737391
217	0x3e7c41a6	0.24634418
218	0xbe355406	-0.17707834
219	0x3d093d0e	0.033505492
220	0x3d913212	0.07089628
221	0x3e32128f	0.17389892
222	0x3e1a5ef7	0.15075289
223	0x3e226508	0.15858853
224	0x3e89ff86	0.2695276
225	0xbde9a316	-0.11408059
226	0x3cdf5e4c	0.027266644
227	0x3e43c902	0.19119647
228	0x3e1ef97d	0.1552486
229	0xbcaa8e71	-0.020819874
230	0x3d889173	0.06668367
231	0x3e07e61a	0.1327137
232	0xbe62e16f	-0.22156309
233	0x3e4a2640	0.19741154
234	0x3d4f7d1d	0.050656427
235	0x3e9bf284	0.30458462
236	0xbe953580	-0.2914238
237	0x3ed67702	0.4188767
238	0xbdd0dbf8	-0.10198206
239	0x3e584f81	0.21124078
240	0x3e8ff948	0.28119874
241	0x3d403b47	0.04693153
242	0x3e30b0b6	0.1725491
243	0xbd1f551b	-0.038899522
244	0x3c8b785b	0.017025163
245	0xbe418abd	-0.1890058
246	0xbe046e8c	-0.12932795
247	0xbe78e897	-0.24307476
248	0xbe86f901	-0.2636185
249	0x3ea5d666	0.32390136
250	0xbe1d0934	-0.15335542
251	0x3956aba6	0.00020472574
252	0xbe3b75d5	-0.18306668
253	0xbcb4bcb8	-0.022062644
254	0xbe8bc667	-0.27299806
255	0xbd0606e3	-0.03272141

critic.0.bias f4 [256]
0	0x3e53a146	0.2066699
1	0x3e0dca01	0.1384659
2	0x3e50f24c	0.20404929
3	0xbe6f7f87	-0.23388492
4	0xbd623d2a	-0.05523411
5	0xbe0c3e3e	-0.13695619
6	0xbd163bcb	-0.036678117
7	0xbda21513	-0.07914176
8	0xbe93c693	-0.28862438
9	0xbec081f1	-0.37599137
10	0x3c6bc34b	0.014389823
11	0xbd282783	-0.041053306
12	0xbdf447ab	-0.11927732
13	0xbd5e90fb	-0.054337483
14	0xbe828a46	-0.2549612
15	0x3d2ad644	0.041708246
16	0xbe8edc4d	-0.2790245
17	0x3d85eb7f	0.06539058
18	0xbde19fdf	-0.11016821
19	0xbe6241c2	-0.22095397
20	0xbdb1d74d	-0.086836435
21	0xbd7a9201	-0.061174396
22	0x3e05b1be	0.13056085
23	0x3e58309c	0.21112293
24	0xbe8fb6b1	-0.2806907
25	0xbe47998e	-0.1949217
26	0x3b83cdfd	0.0040223585
27	0xbd4e839d	-0.050418485
28	0xbe3b777d	-0.183073
29	0xbd1fb577	-0.038991418
30	0xbcdd2af5	-0.026998023
31	0xbe8a8bbe	-0.2705974
32	0xbe501461	-0.20320274
33	0x3dad44c5	0.08460382
34	0xbb12b526	-0.0022385805
35	0xbe6263ae	-0.22108337
36	0xbe849e50	-0.25902033
37	0x3d8894ac	0.06668982
38	0x3e21d684	0.15804487
39	0xbe350769	-0.17678608
40	0x3e5ea9cb	0.21744458
41	0xbe80e9c8	-0.2517836
42	0x3e378cd6	0.17924818
43	0xbe885d11	-0.26633504
44	0x3d6e4083	0.058166992
45	0x3cb1d434	0.021707632
46	0xbdab7e1b	-0.08373662
47	0xbe8a3e54	-0.27000678
48	0xbdd5261a	-0.10407658
49	0xbd71fe11	-0.059080187
50	0xbe8da1b9	-0.27662447
51	0x3d0ea285	0.03482296
52	0xbda1e9a3	-0.07905891
53	0xbe89bfb6	-0.26904076
54	0xbc76a364	-0.015053604
55	0xbe99b07e	-0.30017465
56	0xbcd9bf00	-0.026580334
57	0xbdc44866	-0.095841214
58	0x3db8b393	0.09018626
59	0x3e926950	0.28595972
60	0xbe397284	-0.1811009
61	0x3e527662	0.20552972
62	0xbdf77b6e	-0.12084089
63	0x3e74178b	0.23837106
64	0xbde3c2a7	-0.11121111
65	0xbe4d6b33	-0.20060425
66	0x3d1fd865	0.03902473
67	0x3d3c7562	0.046010382
68	0xbe2028c2	-0.15640548
69	0x3e3f5d56	0.18687949
70	0x3db61cbf	0.08892202
71	0xbe5b02ff	-0.21387862
72	0xbe80e6eb	-0.25176176
73	0x3e53724c	0.2064907
74	0x3d9d48a8	0.07679874
75	0xbdf27049	-0.11837823
76	0xbd1ffa33	-0.039056968
77	0xbc2827c1	-0.010263384
78	0xbe3299be	-0.1744146
79	0x3d8f18e5	0.0698717
80	0xbe843adf	-0.25826165
81	0xbe1c0c1b	-0.15238993
82	0xbe2e4c74	-0.17021352
83	0x3e759871	0.23983933
84	0x3e911378	0.28335166
85	0x3e96109f	0.29309556
86	0xbe43a10b	-0.19104402
87	0xbe78eaae	-0.24308273
88	0x3e85beb3	0.26122054
89	0xbd913baa	-0.07091458
90	0x3e962c7e	0.2933082
91	0x3cc092f3	0.02350757
92	0xbe62be1b	-0.22142832
93	0xbd46a623	-0.048498284
94	0x3e1b556a	0.15169302
95	0x3b9f1b1b	0.004855526
96	0xbdb467e5	-0.08808879
97	0xbb03d70d	-0.0020117194
98	0xbea2972b	-0.31755957
99	0x3e934d45	0.2876989
100	0xbe0bfa14	-0.13669616
101	0xbbc550d1	-0.006021597
102	0x3dece2b3	0.11566677
103	0xbd9002f0	-0.0703181
104	0x3d88c55c	0.06678268
105	0xbe512f7e	-0.20428273
106	0xbddd1798	-0.10795516
107	0x3e09e0fe	0.13464734
108	0xbdc8031d	-0.09766219
109	0x3e677f17	0.22607075
110	0x3e8204fd	0.2539443
111	0x3e08c94f	0.13358043
112	0x3dceb2f8	0.10092729
113	0x3e71b021	0.23602344
114	0x3e061fd1	0.13098074
115	0x3e470ce5	0.19438513
116	0xbe189aea	-0.14902845
117	0x3dcbc941	0.099504955
118	0x3c8fee5d	0.017569715
119	0xbdd6ac33	-0.10482063
120	0xbdca8f1f	-0.098905794
121	0x3e8109a3	0.25202665
122	0xbe5c1f80	-0.21496391
123	0xbe9a76d9	-0.301688
124	0xbdd45b1b	-0.103689395
125	0xbe595a6f	-0.21225904
126	0x3e03376b	0.12814109
127	0x3d73e798	0.059547037
128	0x3e5890a3	0.21148925
129	0xbe27880d	-0.16360493
130	0xbc661063	-0.014041993
131	0x3e20f232	0.1571739
132	0x3e6ed662	0.23323968
133	0x3ea7d202	0.3277741
134	0xbdfa3c82	-0.12218572
135	0x3e0aa421	0.13539173
136	0xbe0ded51	-0.1386006
137	0x3e244d31	0.16045071
138	0xbe0e8f33	-0.13921814
139	0x3d0f23aa	0.03494612
140	0xbe587800	-0.21139526
141	0xbd329e5a	-0.043608047
142	0x3df41600	0.11918259
143	0x3e0ad8b4	0.13559228
144	0x3dc44db4	0.09585133
145	0x3e901cd6	0.28147
146	0xbb620af5	-0.0034491394
147	0xbe1303ca	-0.14356914
148	0x3daf9fc5	0.085753955
149	0x3e8cc2b9	0.27492312
150	0x3c7ff5fb	0.015622611
151	0x3e94e8af	0.29083773
152	0x3e1c89ca	0.15286937
153	0x3b7b0c8f	0.0038307046
154	0x3e02bf65	0.12768324
155	0xbe295e8b	-0.16539972
156	0x3e8c0868	0.27350163
157	0xbdcff301	-0.10153771
158	0xbe4243e2	-0.18971208
159	0xbc482fd4	-0.012218434
160	0x3ce2d1c9	0.027687924
161	0xbea1ab19	-0.3157585
162	0xbdbc1caf	-0.091851585
163	0xbe853dfc	-0.26023853
164	0x3e1d502e	0.15362617
165	0xbe510378	-0.2041148
166	0xbc5fbfbe	-0.013656555
167	0x3e2f1fa7	0.17101918
168	0x3d2f9437	0.042865958
169	0x3c1e93aa	0.009678761
170	0x3dd82ffe	0.10556029
171	0x3e7afdeb	0.24510925
172	0xbd842caf	-0.06453835
173	0x3c41ead0	0.011835769
174	0x3dc316c8	0.095258296
175	0x3dfd3027	0.123627
176	0xbd2712b8	-0.040789336
177	0x3d02e03e	0.031952135
178	0x3e77b5b0	0.24190402
179	0xbdaf6cc2	-0.08565666
180	0x3d6c0adf	0.057627555
181	0x3d72067c	0.059088215
182	0xbe68e1d2	-0.22742394
183	0x3d38bf76	0.045104466
184	0x3e8ebd3f	0.27878758
185	0x3db39801	0.08769227
186	0xbd7adac8	-0.061243802
187	0x3e0a889a	0.13528672
188	0x3ddde71e	0.10835098
189	0x3e78dbc3	0.24302582
190	0x3e89ee31	0.26939538
191	0x3dcf306c	0.101166576
192	0x3e72ba4f	0.23703884
193	0x3dc61d53	0.09673562
194	0xbe14ceb6	-0.14531979
195	0x3dd8aba9	0.105796166
196	0xbea21b2a	-0.3166135
197	0x3de16fe7	0.11007672
198	0x3c258359	0.0101021165
199	0x3d84ebce	0.06490289
200	0xbdb82296	-0.08990972
201	0xbe7a738e	-0.24458143
202	0x3e933463	0.28750905
203	0xbe064129	-0.13110794
204	0x3e7f9f77	0.24963175
205	0x3d44d0d1	0.048050705
206	0x3e55402f	0.20825265
207	0xbe798c85	-0.2437001
208	0x3d32fbf6	0.04369732
209	0x3e1c137f	0.15241812
210	0x3d8c4882	0.06849767
211	0xbd873366	-0.066016
212	0xbe048674	-0.12941915
213	0x3dcb135a	0.099158004
214	0x3ceff4f7	0.029291613
215	0xbe10ae01	-0.14128877
216	0xbe17a2bf	-0.14808176
217	0x3e475099	0.1946434
218	0x3e78f3ca	0.24311748
219	0xbe84af7c	-0.25915134
220	0x3cf5398b	0.029934665
221	0xbe981624	-0.29704392
222	0x3e23cc51	0.1599591
223	0xbd29dc16	-0.041469656
224	0x3d607ac8	0.054804593
225	0x3e0a3804	0.13497931
226	0x3df1b4fb	0.118020974
227	0xbde90318	-0.11377543
228	0x3e32bc16	0.17454562
229	0xbe916109	-0.28394344
230	0x3e1a161b	0.15047495
231	0x3e402216	0.18763003
232	0x3e8a0d97	0.26963493
233	0xbe487bf8	-0.1957854
234	0x3e57ba74	0.2106722
235	0xbe554da9	-0.20830406
236	0xbd8f4133	-0.06994858
237	0x3cb4e1a4	0.02208025
238	0xbe5e068c	-0.21682185
239	0xbea5431d	-0.32277766
240	0x3d86433e	0.06555794
241	0xbe27d5f9	-0.16390218
242	0x3eb284e1	0.34867004
243	0xbd861850	-0.06547606
244	0xbe980f24	-0.2969905
245	0xbe785bd0	-0.24253774
246	0xbcff414e	-0.03115907
247	0xbbef93e8	-0.007311333
248	0x3d8c8a0c	0.06862268
249	0xbde2ba3b	-0.11070677
250	0xbe0ae96e	-0.13565609
251	0x3cf90218	0.030396506
252	0x3d925e8d	0.071469404
253	0xbe4c6178	-0.19959056
254	0xbd7432e5	-0.05961885
255	0xbe15f8b6	-0.14645657
