policy/PPO/checkpoints/2025-09-29_14-54/ppo_soarm_7500.pth (torch, 895437 bytes, 33 tensors)

actor.0.weight f4 [256, 12]
000000 0f 1d 97 3e 68 53 51 3e 46 a1 89 bd ef 88 8d 3b
       0.29514357 0.20441973 -0.067202136 0.0043193023
000010 29 e8 64 be bb bd 8c be 12 f7 79 3e f4 ed 9b 3d
       -0.22354187 -0.27488503 0.24410656 0.07613745
000020 61 29 13 be b6 10 6e be b3 1a 95 3e de 42 f2 3d
       -0.14371254 -0.23248562 0.29121932 0.1182916
000030 cc 6f 6a bd 68 cd 07 3d 56 ff 68 bd 98 37 b0 bd
       -0.057235524 0.033154875 -0.056884132 -0.08604354
000040 ea 56 62 be 96 a5 9c 3d 19 17 93 3d 6f 35 a2 3e
       -0.22103468 0.076487705 0.0718214 0.31681392
000050 ea cc f5 3d c0 2a 8f bd 12 39 f4 bd 0c 4e 57 be
       0.12001975 -0.06990576 -0.11924948 -0.21025866
000060 36 5b 5a 3d 4b bd 72 3d 45 b9 2d be 08 76 83 be
       0.05330964 0.059262555 -0.16965206 -0.25675988
000070 68 bd e6 bc 05 49 82 bb 16 4d 09 be 03 79 eb bd
       -0.028166488 -0.0039759898 -0.13408312 -0.114976905
000080 6a 38 97 be 92 c4 a5 3e ba d8 9d 3e c6 05 a5 be
       -0.29535228 0.32376534 0.30829412 -0.32230967
000090 17 4c 93 be 01 8e d7 bd 2c 6c aa bd 7f c6 41 3e
       -0.2876899 -0.10525132 -0.083214134 0.18923377
0000a0 c4 31 18 be e6 11 c9 3d 8b 5b 75 bd 76 24 44 3e
       -0.14862734 0.09817867 -0.059901755 0.19154534
0000b0 48 0d 4a 3e f8 06 06 3e 3f 57 de 3c 57 73 90 be
       0.19731629 0.13088596 0.027141212 -0.28212997
0000c0 e0 11 9b 3d 46 4b 05 3e 0b c6 60 3e 98 69 73 be
       0.07571769 0.13016996 0.21950547 -0.2377075
0000d0 89 ca 40 3d c3 f1 7d 3e 1e 4e 25 be 7a fb 81 3e
       0.047068153 0.24799256 -0.1614308 0.25387174
0000e0 c7 2a af bd a9 36 9c be 89 96 9c be d7 d8 61 3e
       -0.08553081 -0.30510452 -0.305836 0.22055374
0000f0 22 65 11 be e5 5d 38 3e 3f 43 c3 3c b0 bd 86 bd
       -0.14198735 0.18004568 0.023835776 -0.06579149
000100 5f bd 41 3c 26 ea 94 bc 84 91 89 3d cf 3c 29 be
       0.011824935 -0.018178057 0.06717208 -0.16527103
000110 8a 6e 9f be 08 d6 86 be fd a0 08 3d b2 0f 87 3d
       -0.31139022 -0.26335168 0.033356655 0.065947905
000120 56 7a 15 3e b3 70 8f 3d 66 67 e1 bd 5d fc 28 3e
       0.14597449 0.070039175 -0.1100605 0.16502519
000130 22 75 4d 3d ef 88 8e bd b6 fe 7e be e4 e2 42 be
       0.050160535 -0.06959712 -0.24901852 -0.19031864
000140 e8 40 8e 3d 3e bd 5f 3c db 50 e0 bc 4d 6b 17 3e
       0.06945974 0.013655959 -0.027382305 0.14787026
000150 49 79 74 3d ea 23 f4 3c 06 96 9e bd 9e 4c 2a be
       0.05968598 0.029802281 -0.077434584 -0.1663079
000160 ea 28 50 be cc 69 8d 3d a4 bb dc bb 9f c9 89 be
       -0.20328107 0.06904945 -0.0067362357 -0.26911637
000170 1a 56 43 3d c7 d5 09 3e 6e c1 26 be f7 bd 7b be
       0.047689535 0.13460456 -0.16284725 -0.24584185
000180 28 11 7e bd e8 ff b4 3d 93 54 13 3e 19 20 46 3e
       -0.06202808 0.08837873 0.14387731 0.19348182
000190 ed b2 75 be fd 7d 6f bd 3f e4 87 be df 97 44 be
       -0.23994036 -0.05846976 -0.26541325 -0.19198559
0001a0 50 fe 33 3d a0 81 7e bd db 62 47 be fb fb 88 be
       0.043943703 -0.06213534 -0.19471304 -0.26754746
0001b0 4d 83 ca 3d cf df 0d be 11 07 8e be ad 52 80 be
       0.09888325 -0.13854907 -0.27739766 -0.25063077
0001c0 be 50 ae 3e fd e6 e1 3d 1b 05 71 3e 0f d5 39 3d
       0.34045976 0.11030386 0.23537104 0.045369204
0001d0 55 0c 3e be 35 2c 9b bd b2 87 3f 3e 9a 85 37 be
       -0.18559392 -0.07576791 0.18704107 -0.17922059
0001e0 ee 78 8c 3d 15 1f 20 be c6 a8 93 3d 46 d7 15 be
       0.06859003 -0.15636857 0.07209925 -0.14632902
0001f0 22 5c 7c 3e d6 aa 5d 3e 25 85 4c be 8b 04 92 bd
       0.24644521 0.216472 -0.19972666 -0.07129773
000200 af bb 4b 3e 93 15 44 3e d3 fe 85 3e af 2a 81 be
       0.19895814 0.19148855 0.26170978 -0.25227877
000210 98 5f 0c be b9 2b a1 3d ad d9 13 3b b3 8e ad be
       -0.13708341 0.078696676 0.0022560165 -0.33897933
000220 6c 26 42 3e 77 27 54 bd ed 1d f1 3d f2 2c 8f bd
       0.1895997 -0.05179545 0.11773286 -0.069909945
000230 91 0d a3 be 3c 21 5b bd 35 11 40 be 88 07 5a 3e
       -0.31846288 -0.05349849 -0.18756564 0.21291935
000240 54 8c 36 be fa 50 63 3d 22 94 c5 bd 62 3b 3d be
       -0.17826968 0.055497147 -0.09647395 -0.18479684
000250 62 b8 2a be 36 0c 1a 3e 5d ff 18 be 72 37 e9 3d
       -0.16671899 0.1504372 -0.14941163 0.113875285
000260 50 04 d0 be 6b e6 83 bd c6 1b 99 3e 0c eb 0c 3e
       -0.4062829 -0.06440433 0.29904002 0.13761538
000270 4a 0a b2 3c ff be 39 bd 3f 72 0f 3e 6a 0e ad 3e
       0.021733422 -0.045348164 0.14008425 0.3380006
000280 40 69 0c be df 4f 68 3e 84 f7 9b be ec ca 79 bd
       -0.13712025 0.22686718 -0.30462277 -0.060984537
000290 1e af 33 3e a9 c8 a0 3e 62 68 ae 3d 6b 6f 0f be
       0.1754727 0.31403092 0.08516003 -0.14007346
0002a0 81 cc 73 bd ca e3 b0 3c e6 cf 46 be b0 16 c6 3d
       -0.059521202 0.021592993 -0.19415244 0.09672296
0002b0 01 7b 5c be eb f4 93 be b6 f6 06 3e d9 13 ec bd
       -0.21531297 -0.28897795 0.1318005 -0.11527223
0002c0 61 d7 cb 3d 1a e1 a7 bc d9 de 99 3d c0 63 e9 bc
       0.0995319 -0.020493079 0.07513208 -0.028489947
0002d0 ff 5a b7 bc ba 90 06 be 72 03 6e be a9 45 93 bd
       -0.022382258 -0.13141146 -0.23243502 -0.07191021
0002e0 7f d2 39 be 69 50 ef bd 35 d6 1c be a9 17 7c be
       -0.18146704 -0.11685259 -0.15316088 -0.246184
0002f0 cf 66 3a be aa 50 c6 3d c3 d9 32 3d 40 ca 35 be
       -0.18203281 0.09683354 0.043664705 -0.17752934
000300 ae 80 2d 3d 22 a7 35 3e 8c 8e 65 be 49 67 e4 bd
       0.042359047 0.17739537 -0.22417659 -0.111525126
000310 06 b2 b7 3d 9f c8 66 be d3 21 04 bd 8b c7 a5 3c
       0.08969502 -0.22537468 -0.03225882 0.020236751
000320 89 5e 09 3e 22 1d a6 bd 7d 44 a6 bd df 48 f8 ba
       0.13414969 -0.081110254 -0.08118532 -0.0018942616
000330 2f 80 72 3e 92 d4 18 3c b9 c8 62 be 9f 76 5b be
       0.2368171 0.009328024 -0.22146882 -0.21431969
000340 30 1d 2b 3d 46 4c 15 be cf 36 c2 bd 00 4f 52 3e
       0.041775882 -0.14579877 -0.0948311 0.20537949
000350 a0 59 a5 be 4e 64 84 3e 9a c4 53 be 97 88 6e bd
       -0.3229494 0.25857776 -0.20680466 -0.05823573
000360 a2 ce 74 be c6 85 bd bd 6c cb 1b be 05 56 a7 be
       -0.23906949 -0.09254031 -0.15214318 -0.32682815
000370 43 b3 27 3c 24 77 00 3e df b2 9e 3d 5b ed 22 be
       0.01023561 0.12545449 0.07748961 -0.15910856
000380 ee b6 64 3e c4 80 4d 3d a9 c3 0c 3e e1 46 67 be
       0.22335407 0.05017163 0.13746513 -0.22585632
000390 04 76 38 bd 90 01 1e be 4b c8 ac be da 69 76 be
       -0.045034423 -0.15430284 -0.3374656 -0.24063817
0003a0 f3 2e 20 be e5 32 20 3d 62 56 c3 3d f6 2e 3e 3e
       -0.1564291 0.039111037 0.095379606 0.18572602
0003b0 ce 07 98 bd 69 5a 52 3d 69 0e dc bd 2f 63 ad 3e
       -0.074233636 0.051355753 -0.10744936 0.33864734
0003c0 af 23 30 3c ee d0 51 bd 1e bb a6 bd 52 38 15 be
       0.010750695 -0.05122464 -0.081411585 -0.14572266
0003d0 a1 48 dc 3d 99 8f 7f be 97 e3 c1 bd 10 72 c8 bd
       0.1075604 -0.24957122 -0.094672374 -0.09787381
0003e0 d2 02 1f 3e 45 d3 f7 3d 94 ca 4d bd df c6 85 be
       0.1552842 0.12100843 -0.05024202 -0.2612829
0003f0 6d d9 fa 3d 4f 8e e8 3d 21 65 01 be 09 56 80 3e
       0.12248502 0.11355268 -0.12636234 0.2506564

actor.0.bias f4 [256]
000000 4b c2 f6 3d 4f 78 16 3d 27 c3 92 3c 12 f7 00 3d
       0.12048777 0.03673583 0.017915322 0.031485625
000010 35 e8 24 bc 75 5a 8a 3d e3 a4 5d bc 4a 40 8d bd
       -0.010065128 0.067555346 -0.013528082 -0.06897028
000020 9f 9b 7b 3e 3a 55 7f be 42 86 45 3e 2c 65 05 bd
       0.24571083 -0.24934855 0.19289497 -0.03256719
000030 e7 bf 87 bb 21 12 13 be 9a 4e 43 3c a0 87 b6 3d
       -0.0041427496 -0.14362384 0.011920596 0.08912587
000040 2c 0b 16 bd 51 94 d8 3d 12 d9 38 bd ec ac 26 be
       -0.036631748 0.10575164 -0.04512889 -0.16276902
000050 f5 fe 0b 3e eb f3 6a be db 8c 89 3e ed 66 af bc
       0.13671477 -0.2294461 0.26865277 -0.021411384
000060 1c 80 13 be 18 76 f9 3d 9b ea 93 be 8d a1 e6 bd
       -0.14404339 0.12180728 -0.28889927 -0.11261282
000070 40 7f b2 be 20 00 8e 3c 22 21 67 be 5b fd 34 3e
       -0.3486271 0.017334044 -0.22571233 0.17674772
000080 87 6d 05 be b7 29 54 3d 24 3c af be c0 19 8c 3e
       -0.13030063 0.051797595 -0.3422557 0.27363396
000090 23 a0 88 3e 59 eb 26 3d bf 2c 5d be 41 6a 19 be
       0.26684675 0.04075179 -0.215991 -0.14981939
0000a0 e7 b1 0d be d9 4f f5 3c 0b 9d 30 3d cf 7d 86 be
       -0.13837396 0.0299453 0.043118518 -0.2626786
0000b0 66 69 21 3d d5 2e 8d bd 70 1d 3e 3e 5f 3a a5 3d
       0.039407156 -0.06893698 0.18565917 0.08067774
0000c0 17 30 8a bd c8 62 06 bd 38 b7 ac bd 6b 6b 00 3d
       -0.06747454 -0.03280905 -0.08433384 0.03135244
0000d0 1c ad 4a 3b ff 92 3f 3e cf c0 34 3e 0a 90 7c 3e
       0.0030925935 0.18708418 0.17651676 0.24664322
0000e0 ab d7 75 bc eb 8c 87 be e0 53 e3 bd 1e 17 79 3e
       -0.0150050325 -0.264747 -0.11099982 0.24325225
0000f0 ba be 72 3d 40 fc 64 be 35 7e ad 3e 96 c1 3c be
       0.059263922 -0.2236185 0.3388535 -0.18433222
000100 01 13 e0 bd 7e b2 2d bc 96 e5 5a 3d 4d 40 48 be
       -0.10941125 -0.010601638 0.053441606 -0.19555779
000110 88 fa 0f be c2 e6 8d 3d 71 2f 4e 3e bc 31 53 3e
       -0.14060414 0.06928779 0.20135285 0.20624441
000120 f4 b0 2a bc d4 1a 32 bd b2 63 2c 3e 43 f0 15 be
       -0.0104181655 -0.043482617 0.16834906 -0.14642434
000130 7a 61 88 3e ac 21 5c 3d 52 00 12 3e 63 f2 c7 bd
       0.2663687 0.05374305 0.14257935 -0.097630285
000140 ec 2b 8c 3c 9c 5d 18 be 00 c4 e9 3d cf f1 9d bd
       0.017110787 -0.14879459 0.11414337 -0.07712137
000150 a0 59 56 3e 65 74 ba bd f9 45 6f be 5a 9d 03 be
       0.20932627 -0.09104232 -0.23366536 -0.12852994
000160 36 cd 61 be b6 60 2f bd eb cc d0 3d d1 90 73 3c
       -0.22050938 -0.04281684 0.10195335 0.01486607
000170 09 fd 70 3e 54 22 07 3c 16 d1 68 3e b7 fc 15 be
       0.23534025 0.008247931 0.2273601 -0.14647184
000180 f8 d5 ca 3d 86 3a 83 be 3a 4b a0 be a7 71 83 be
       0.099040926 -0.25630587 -0.31307393 -0.25672647
000190 ee 02 1f 3e ee 1a 12 be a7 a6 87 3c 00 72 0e be
       0.15528461 -0.14268085 0.016558958 -0.13910675
0001a0 f6 1f 1b be a6 1f d9 3a 28 ba 8c 3e 68 1b 1b 3e
       -0.15148911 0.0016565218 0.27485776 0.15147173
0001b0 02 9c 92 3d 9b c5 26 bd 11 f8 9a 3d a6 d3 00 3e
       0.071586624 -0.040715795 0.07566846 0.12580737
0001c0 22 c1 cf 3c db d8 4e be 64 2b 83 be c4 a4 b3 3d
       0.025360648 -0.20199911 -0.25619042 0.08771661
0001d0 02 25 37 3d d5 02 6c 3d e4 19 4e be 96 25 98 bd
       0.044713028 0.05761989 -0.20127064 -0.07429044
0001e0 6c fc a5 3d 67 57 75 3e ac de 4c be 71 68 5a be
       0.08104786 0.23959123 -0.20006818 -0.21328904
0001f0 00 2b 86 be c7 a1 2a 3d 7c 37 9f bd cb 7d 18 3e
       -0.2620468 0.04165819 -0.07774255 0.14891736
000200 dc 32 46 be 28 9b bd 3c 7e b0 8f 3e eb b2 ef bc
       -0.19355339 0.023145273 0.2806434 -0.02926012
000210 ef 80 29 3d 4a 8e 8c 3e 6d bb 3c 3d ba 33 5d 3d
       0.041382726 0.27452308 0.04607718 0.05400441
000220 0e d7 c2 3d 15 38 14 3e fe fa 22 be 06 e8 37 bd
       0.09513675 0.14474519 -0.15916058 -0.04489901
000230 6c 81 20 be 3d 15 8c 3e 93 99 40 be a3 5a bd bd
       -0.1567437 0.27359954 -0.18808584 -0.09245803
000240 dd 95 32 3e 38 4f cb 3c 9d 8e 3d 3d d5 23 a8 be
       0.17439981 0.024818048 0.046278585 -0.32839838
000250 86 71 08 3e f2 24 8b 3d 90 0c 87 3e 06 19 c8 3d
       0.13324556 0.06794156 0.26376772 0.09770398
000260 42 1c 7a bd 2d 96 35 be 38 3a 91 bd a4 23 40 be
       -0.061062105 -0.17733069 -0.070911825 -0.18763596
000270 18 72 1e be 22 fd ce 3d 0b e8 4d 3d b4 7b d3 bb
       -0.15473211 0.10106875 0.05027012 -0.0064539555
000280 3f d7 3b be 2f c4 57 3e e6 85 c9 3d 27 42 e7 3c
       -0.18343829 0.21070932 0.09839992 0.028229786
000290 38 22 21 3e 50 0b bc bd 12 b4 9d ba 3c a5 4c be
       0.1573571 -0.09181845 -0.0012031815 -0.19984907
0002a0 e4 8c b2 bd 84 e5 8c 3d 6c 3b b6 bd d8 7b 0a 3e
       -0.08718279 0.06879714 -0.088980526 0.13523805
0002b0 21 d7 de 3d 2d e3 0f be f1 ab d1 bd 4d a3 da 3d
       0.10880876 -0.14051504 -0.10237873 0.106756784
0002c0 3d 69 37 bd 5f 5a a5 be a5 d1 97 3e 68 97 3b be
       -0.044778097 -0.3229551 0.29652134 -0.18319476
0002d0 4a a4 38 be 7d db ac bd e6 b8 5f 3e 26 60 c9 bc
       -0.18031421 -0.084403016 0.21847877 -0.02458198
0002e0 bd 3c ea 3d 48 b2 8c 3d ea c2 2c be 2e c8 ea bd
       0.11437366 0.06869942 -0.16871229 -0.114639625
0002f0 fb 06 2c bb f3 54 46 be 8f 79 b9 3d 27 dd 64 be
       -0.0026249278 -0.19368343 0.090563886 -0.22349988
000300 34 21 73 be cc 00 b5 3d 04 ca 0f 3e f3 aa a8 bd
       -0.23743135 0.088380426 0.14041907 -0.08235731
000310 0a 6a 32 be 61 80 df 3d be d3 ad 3d 5c 62 59 be
       -0.17423263 0.10913158 0.08487652 -0.21228927
000320 1a d0 02 be 65 dc 03 3e 67 0c 81 be e3 69 e2 3c
       -0.12774697 0.12877043 -0.25204775 0.027638381
000330 84 5d 7c 3d 41 f2 8e be d8 a0 81 3e 2a 6e b7 bd
       0.06161262 -0.279192 0.25318027 -0.08956559
000340 f1 db 57 3e 52 78 6d bd 2d ed 71 3d 84 0e 6a 3e
       0.21079995 -0.057976075 0.05906408 0.228571
000350 e3 a0 23 3e e9 64 3c be b1 c4 60 bd 54 01 44 be
       0.15979342 -0.18397869 -0.05487508 -0.19141132
000360 73 83 30 be b7 08 05 be 7f f6 16 3e 18 2f 10 be
       -0.17237644 -0.12991606 0.14742468 -0.14080465
000370 79 fe 87 be 93 e6 a2 3e 95 1a 42 be 00 d0 81 3c
       -0.26561335 0.3181654 -0.18955453 0.015846252
000380 c0 e1 5c be b7 c1 22 3d 4a 76 d6 bd 0a 28 30 bd
       -0.21570492 0.039735522 -0.104717806 -0.043006934
000390 c9 e7 05 3d 34 2d d2 3d 3c 01 31 be d5 89 16 3e
       0.03269175 0.10262528 -0.17285627 0.14701016
0003a0 82 82 36 bb 7f c6 4c be 7c 3a 67 3e 38 c6 43 3e
       -0.0027848785 -0.19997595 0.22580904 0.19118583
0003b0 12 7e 85 be ad 9e 4b 3e ef e9 0c be d7 1a 4a be
       -0.26072747 0.19884749 -0.13761114 -0.19736801
0003c0 30 0d 3f be cb e6 33 3e 99 00 83 be ce be 3e 3d
       -0.18657374 0.1756851 -0.25586393 0.046568684
0003d0 c7 1c a4 3a 50 18 2c 3e 93 30 04 3e 49 e3 43 be
       0.0012520783 0.1680615 0.12909155 -0.19129671
0003e0 04 c5 82 3e 5e e1 15 be 2b 28 a7 3c ef 48 d4 3c
       0.25540936 -0.14636752 0.020404896 0.025913684
0003f0 97 16 2b 3e 41 fd 87 3e 49 5b 38 3d a4 77 b8 bc
       0.16707836 0.26560405 0.04500893 -0.022517987

actor.2.weight f4 [128, 256]
000000 c1 42 51 3d fa 8a b0 bd e8 77 56 bd 4a f6 30 bd
       0.051089052 -0.08620258 -0.052360445 -0.04320363
000010 3f 4a 00 3e 5f 3f 4d 3d 87 97 8a 3d a6 35 06 3b
       0.12528323 0.050109264 0.06767183 0.0020478754
000020 8b e4 0f bc dd 63 92 3d 14 c2 90 3c ee 50 a1 3d
       -0.008782516 0.07147954 0.017670669 0.07876764
000030 c4 2a 1e 3d 8c 5d d8 bb d4 49 18 bd ee 9a 86 bd
       0.038615003 -0.0066029485 -0.037179783 -0.06572519
000040 6c a0 05 bd 52 8f 1e bd f8 5e ac bc ee cd 80 bd
       -0.032623693 -0.0387109 -0.021041378 -0.06289278
000050 86 2e 78 bd 53 f4 56 3a 3c cd 87 bb 8f e9 98 bc
       -0.060591243 0.00081998593 -0.004144339 -0.018666057
000060 fc 7e 7c 3d 00 1b 95 3d 32 b9 73 bd 1c b5 5e bd
       0.06164454 0.072805405 -0.059502788 -0.054371938
000070 7f c1 45 3b 7a 63 5a 3c 53 fd 8a bd 6a 3d 96 bd
       0.0030175147 0.013329381 -0.06786599 -0.073359326
000080 1f c8 45 bd df 2f 8a 3c e1 a4 02 bc fd df e4 3b
       -0.048286553 0.01686853 -0.0079738805 0.0069847093
000090 ba fb 05 bd ee 6a 3a 3d 62 b2 06 3d 80 1f 7e 3d
       -0.03271077 0.045512132 0.032884963 0.06204176
0000a0 fa de 2b bd 0f 99 95 ba 58 2e 1a 3d 39 c8 9d bc
       -0.041960694 -0.0011413413 0.037641853 -0.019260513
0000b0 c2 66 0b bd cf 81 87 b9 c4 9b 8d 3d 71 7c 02 3d
       -0.034033544 -0.00025845921 0.069144756 0.031856958
0000c0 fa 78 94 bd 86 92 8b bd 10 e0 19 3d ad 24 ab bd
       -0.07249637 -0.068150565 0.0375672 -0.08356605
0000d0 80 ce b0 bc 27 e3 c8 3c b5 22 f8 3c 2a ec 6b 3d
       -0.021582842 0.024522377 0.030289987 0.05759827
0000e0 3b 72 e9 bb 59 29 2a bc 46 0c b2 bd 8a 88 e9 bd
       -0.007124213 -0.010385835 -0.08693747 -0.11402996
0000f0 a5 de 2e 3d 3b 5f 14 bd 7e 1e 2a bb d4 aa fa 3d
       0.0426928 -0.03622363 -0.0025958116 0.12239614
000100 28 55 8b 3c 5f 49 64 bd 7d 4d 63 3d a1 b3 26 3d
       0.01700838 -0.055734035 0.05549382 0.04069865
000110 d0 4b 95 3d 6a d2 57 bd 64 b7 f8 bd 97 9d 98 3c
       0.07289851 -0.0526909 -0.12144354 0.018629832
000120 6e 37 72 bc 03 3d eb bd 49 94 92 bd 0d 5b 6d bd
       -0.014783723 -0.114862464 -0.071571894 -0.05794816
000130 b8 ef 76 bd 4c fb d4 bc 5c 86 20 3d d9 eb 4e 3d
       -0.060287207 -0.025998734 0.039190635 0.05051789
000140 c0 85 4f bd e4 df 06 bc 32 99 98 3c e7 71 96 3c
       -0.050664663 -0.008232091 0.018627737 0.01836486
000150 f9 94 92 bc a7 94 8f 3c 47 e1 dd bb 81 c9 f2 3d
       -0.017893301 0.017526938 -0.00677124 0.1185484
000160 b1 19 8e bd 60 00 12 bc 77 b1 f6 bd b4 9f 23 3c
       -0.06938494 -0.008911222 -0.120455675 0.009986807
000170 ac 2a 7e 3d cb 9f 63 bc 06 f5 9e ba fa 99 8f bd
       0.062052414 -0.013893078 -0.0012127466 -0.070117906
000180 c7 b7 bc 3d d5 99 8d 3d 4d a7 08 bd 57 76 38 bd
       0.0921474 0.06914107 -0.033362675 -0.045034733
000190 40 6e 9d 3d 62 8f 4e 3c cb 26 19 bd 0c e9 25 bc
       0.07687044 0.012607427 -0.03739051 -0.0101263635
0001a0 4a 57 3c bd c3 9c 3f 3d e0 e7 22 bd bd a9 a5 bc
       -0.045981683 0.04678036 -0.039771914 -0.02022254
0001b0 4c 34 c3 bd ba 08 e0 3c e2 23 15 bc 84 a3 c7 3c
       -0.09531459 0.027347911 -0.009102793 0.024369963
0001c0 98 28 9c 3c 44 ca 61 bc 08 56 a3 3d d9 49 03 be
       0.019062325 -0.013781134 0.079753935 -0.1282114
0001d0 2e b9 30 bd 51 06 f3 3c 5e 17 e0 3c 16 12 77 bc
       -0.04314535 0.029666098 0.027354892 -0.015079996
0001e0 20 ac 2f 3d ff 01 60 3d 90 07 f1 3c 8b 01 45 3c
       0.04288876 0.054689404 0.029422551 0.012024294
0001f0 03 aa 85 bd 72 69 60 3d 15 37 1b be 12 46 96 bd
       -0.06526568 0.05478806 -0.15157731 -0.073375836
000200 3a e0 42 3d 1a 9d a2 bd d7 94 d7 3a 50 0e cf bd
       0.04757712 -0.07940121 0.0016447556 -0.10110152
000210 1e f1 4a bd 4d c5 7d bd 42 1f e4 bc 97 5e eb bc
       -0.049546354 -0.06195574 -0.027846936 -0.028731627
000220 6b 2c 77 3d 6d 75 49 bc c2 8c 14 bd 46 5b 40 bc
       0.060345095 -0.012296063 -0.03626705 -0.011740511
000230 32 fa 5f bc a9 66 88 3b 8a 46 fe 3c 5d b2 e8 3b
       -0.013670491 0.0041626287 0.031039495 0.0071013407
000240 31 56 38 3c ef 87 aa 3c ef 81 5a bc b4 11 b1 3c
       0.011251018 0.020816771 -0.013336643 0.021614887
000250 44 c2 17 3d aa 1c 21 3d b3 ef 73 3c c6 6a 0d bc
       0.0370505 0.039333977 0.014888692 -0.008631414
000260 9f 64 25 3c 7d 52 aa 3d 34 c8 ef 3c f2 0b 5a 3c
       0.010094791 0.08316515 0.029270269 0.013308512
000270 3b 46 2c bd 59 1a 9b bd 51 17 a9 bb 64 a2 96 3a
       -0.042059164 -0.07573385 -0.0051602502 0.0011492488
000280 bd b3 a1 3d 03 f7 0d bd cf 8d a0 3c d5 12 19 bc
       0.078956105 -0.034659397 0.01959887 -0.009342869
000290 40 b2 ea 3c 7f 4d 53 3d fe 9b 1b bd 2c aa b2 3c
       0.02864945 0.051587578 -0.037990563 0.02180966
0002a0 06 ad 90 3c 8c de e0 3c 29 b6 3c bd b2 c6 f7 3c
       0.017660629 0.027449869 -0.04607216 0.030246112
0002b0 49 0f 89 3c 2a fb 14 bd be b4 82 3b bd d3 90 bc
       0.016730921 -0.03637234 0.0039888313 -0.01767909
0002c0 1b c9 4e be b9 69 2a bd e9 e7 93 bc e8 ed 33 ba
       -0.20193903 -0.04160473 -0.01805492 -0.0006863759
0002d0 65 95 9b b9 1b c1 b5 3c 5c 8d 87 bd 81 1a 3d 3d
       -0.0002967521 0.022186806 -0.06618759 0.046167854
0002e0 11 82 2e 3d 4c 2f b5 3b 47 fd 4e bb 78 77 9c bc
       0.04260451 0.00552932 -0.003158407 -0.019099936
0002f0 46 2a c3 3d 94 54 b4 3d 29 de 86 bd 8c 52 32 3d
       0.095295474 0.088051945 -0.065853424 0.043535754
000300 77 a4 f9 bb da 53 3d bd 70 26 ac bd 51 0b 4c bd
       -0.0076184827 -0.046222545 -0.08405769 -0.04981548
000310 71 c3 28 bb ef 8d 8e bd c3 d7 50 3d 98 5a b0 bc
       -0.0025751258 -0.069606654 0.050987016 -0.021527573
000320 27 c7 1e bd 3e 2c 33 bc 4c 4a 03 3d 69 03 01 3d
       -0.038764145 -0.010935841 0.032053277 0.031497393
000330 cb b3 80 3d 0f 0c 4d bd fd 85 93 3b c4 dc 19 bd
       0.06284293 -0.050060328 0.0045020566 -0.037564054
000340 0b 88 35 3c c2 56 06 bc 5f 40 ca bc ad 71 1b bd
       0.011079798 -0.008199396 -0.024688898 -0.037950207
000350 f6 cf 02 3a d5 79 04 3c fa 33 02 3d bb d4 be bb
       0.0004990095 0.008085688 0.03178785 -0.0058236993
000360 76 f0 16 3c a8 56 c8 bd 5a 26 7e bd 34 ea 11 3d
       0.009212604 -0.09782153 -0.062048294 0.035623744
000370 61 95 cd bd f9 19 35 3d 93 45 3b 3d f4 fa 3d bd
       -0.100382574 0.044214223 0.045720648 -0.046381906
000380 d3 b7 0b bc 21 a2 af 3d 36 9c c4 3c 0c 56 33 bd
       -0.008527714 0.085758455 0.024000268 -0.043783233
000390 48 70 15 3d 4f 73 29 bc d2 8a 96 3d e5 8b bc ba
       0.036484033 -0.010342433 0.073506966 -0.0014384954
0003a0 13 76 07 bd 14 bb bd ba 52 02 8a 3d 8e b2 15 bd
       -0.03307159 -0.0014475309 0.06738724 -0.036547236
0003b0 c3 95 8d bd 73 6c 47 3d 02 4d 0f bd 7e f6 d1 3c
       -0.069133304 0.04868741 -0.03498555 0.025630232
0003c0 9d 66 16 3d 87 aa 27 3c 73 69 cf bc 99 51 28 3d
       0.036718953 0.010233528 -0.025318837 0.041093443
0003d0 ba fc 30 3d 22 0b 04 bd 82 0b c1 3c 0b c7 d4 bd
       0.04320977 -0.03223718 0.023565058 -0.10389527
0003e0 9f c6 52 bd 67 20 d4 3c 16 49 c4 3c 0c 46 16 3d
       -0.05145895 0.025894357 0.023960631 0.036687896
0003f0 a8 94 35 bd a3 af 98 3c 66 ed a6 bc 98 64 94 3d
       -0.044331223 0.018638438 -0.020376872 0.07245749

actor.2.bias f4 [128]
000000 25 bb 99 3d 4a 30 67 bd eb 64 13 bb a5 a2 0e 3d
       0.07506398 -0.056442536 -0.0022490572 0.03482308
000010 40 76 dc bc 63 30 cd 3c e1 ae 20 bd fa 77 2a bd
       -0.026911855 0.025047487 -0.039229278 -0.041618325
000020 2b 30 86 3d 6f 3f d9 3c 70 6f 8c 3d fb 44 44 bd
       0.06552156 0.026519505 0.068571925 -0.047917347
000030 79 6c a0 bc 7f cf 14 3d cf 99 8e 3b db 5c 8d 3d
       -0.019582974 0.036330696 0.0043518315 0.069024764
000040 26 58 bb bb 9a 4c 42 bd 78 b8 ca bc 6b a8 04 3d
       -0.005717295 -0.047436334 -0.024746165 0.03238718
000050 56 ad 57 bd 81 23 5a 3d 6e 5b 9e 3d 7b d1 89 3c
       -0.05265554 0.053256515 0.077322826 0.01682352
000060 13 c2 c0 b7 5c f2 4a bc 44 8a 12 3c 14 66 d6 3c
       -2.2978556e-05 -0.012386885 0.008944098 0.026171722
000070 05 76 5d 3d 75 ee 9a bd 44 7f 26 3d b1 94 49 bc
       0.05406763 -0.07565013 0.040648714 -0.012303517
000080 65 d9 e5 bc 72 0e 3e 3d 23 2f 29 bd 10 ad bb bc
       -0.028057763 0.046400495 -0.04130472 -0.022909671
000090 1f 01 f6 3c 1f 18 80 bb 82 66 59 3d bc 85 d4 bc
       0.030029831 -0.0039091255 0.053076275 -0.025942676
0000a0 42 f5 42 bd 22 9c 58 3c 8a 13 93 bc f0 dd d1 3a
       -0.047597177 0.013220819 -0.017953653 0.0016011577
0000b0 bf a8 0f 3d a4 fb b8 3c ce aa 1e bd 73 44 86 bd
       0.03507304 0.02258093 -0.03873711 -0.065560244
0000c0 5c c6 7b 3c be c6 4b 3d 9a 54 85 bb 4b d1 2f 3d
       0.015367117 0.049750082 -0.004068923 0.042924207
0000d0 7b e8 fd 3c 3f a1 c0 bc c5 3f 0e 3d 81 91 88 bc
       0.030994644 -0.023514388 0.034728784 -0.016670944
0000e0 75 c3 6a bd 27 4d 64 3c 0a d1 fd 3c 0e a0 07 3d
       -0.05731531 0.01393441 0.030983467 0.033111624
0000f0 b4 9d 65 3d a7 0a 00 3d c4 ca 0b bd e7 1e 05 bd
       0.0560586 0.03126016 -0.03412892 -0.032500174
000100 c3 b3 eb 3b e9 4b 12 3d ec 76 54 bb 1d e1 9c 3d
       0.00719306 0.035716925 -0.0032419516 0.076601245
000110 dc fa 99 3c 7f 82 0d bd 2e 9b 3f bd 9a 20 d7 3c
       0.018796377 -0.03454828 -0.04677885 0.026260663
000120 70 c0 85 3d 0b 2f bb bd 47 55 28 3d 0a 97 06 3d
       0.06530845 -0.09139832 0.04109695 0.032858886
000130 42 fb 82 bd aa 43 ed 3c f0 f2 66 3c 24 e7 09 3d
       -0.0639558 0.028962929 0.014096007 0.0336677
000140 2d c8 17 3d a6 26 8c bb 15 4a 24 bd d0 cb 29 3d
       0.037056137 -0.004277068 -0.040109713 0.041454136
000150 ac 6e 6e 3d c9 b3 62 3c c7 6a 45 3d 4d 69 a3 bc
       0.058211014 0.013836809 0.048197534 -0.019947672
000160 dc 24 cd bc eb 35 4c bd 9a 6d 1f 39 34 9c 3a bc
       -0.02504199 -0.049856108 0.00015204251 -0.011389781
000170 be 41 e6 bc 31 2f 1b bd 42 10 c7 3c 25 eb 88 3c
       -0.02810752 -0.037886802 0.024299745 0.016713688
000180 bc 05 56 3d 40 6e 3c 3b 64 26 ae bc 52 be 19 bd
       0.052251562 0.0028752238 -0.02125854 -0.03753502
000190 7f 76 c9 3c a4 6b 5a 3d 6b 4a 3e bd e6 c4 cd bc
       0.024592636 0.05332531 -0.04645769 -0.025118303
0001a0 d7 26 2e bd 1c 1d 38 3d 44 dc 17 3d 57 99 6b bc
       -0.04251751 0.044949636 0.037075296 -0.014379821
0001b0 9a 2e 9a 3a 09 52 42 bd 9c 6e 41 3c f6 41 ec ba
       0.0011763156 -0.047441516 0.0118061565 -0.0018025029
0001c0 25 ac 6d bd cf 80 4b 3d 42 5e 9b bc df f2 c5 bb
       -0.058025498 0.04968339 -0.018965844 -0.0060409154
0001d0 78 9f 65 3d cb 57 f0 bc f3 94 54 3d 8a a2 c4 bc
       0.056060284 -0.029338738 0.05189986 -0.024003286
0001e0 18 bf 21 3d ac 47 70 3d 8b 5c 8c bb ef bd 32 bd
       0.03948888 0.0586621 -0.004283493 -0.043638166
0001f0 48 98 60 bd e6 da 76 3c 52 57 a0 bb c0 e7 55 3a
       -0.054832727 0.015066838 -0.004893222 0.00081598386

actor.4.weight f4 [6, 128]
000000 da 5e e3 bc d9 79 ed 3c 39 91 b1 3d 2e 7d 2b 3d
       -0.02775519 0.028988766 0.08670277 0.041867428
000010 4f af 8c bd e3 1a 5a bd b6 63 62 3c 77 ea 4a 3d
       -0.06869375 -0.053248297 0.013817718 0.04954001
000020 f1 b0 c1 bc 90 02 95 3c 7f 85 8f 3d 98 53 5b bc
       -0.023643943 0.018189698 0.07007884 -0.0133866295
000030 e7 1b cc bd 1a a6 19 3c 2c 35 ed 3c 6f 2b cf 3d
       -0.099662594 0.009377981 0.028956018 0.10115706
000040 45 93 0b 3c 75 f8 a9 3c 2a c3 5e 3d 00 e2 0c 3a
       0.0085189985 0.020748356 0.05438534 0.0005374253
000050 8e c0 a6 3b f7 ed 3d bd b0 2f 4d 3d c6 41 b7 bc
       0.0050888723 -0.04636952 0.050094306 -0.02237023
000060 8c 70 7b bd e2 02 bd bc a3 dd 2d 3d 39 c2 d0 3c
       -0.06138663 -0.023072664 0.042447697 0.025483238
000070 bb 2c 9b 3b 65 4f 5b 3d c8 3f 1b 3d 2b 1f 73 bc
       0.004735557 0.053542513 0.037902623 -0.014838974
000080 38 85 5f 3d db 56 a4 bd 7d 39 81 3d 3e d3 73 3c
       0.054570407 -0.08024379 0.06309793 0.014881907
000090 ee 57 92 3c 84 1d 10 3c d3 53 89 3c 19 b5 59 bc
       0.017864194 0.0087961 0.016763603 -0.013287806
0000a0 48 e4 98 3d 4e c3 3b bc e2 52 81 3d 52 9a 69 3d
       0.07465416 -0.0114601385 0.06314637 0.057031937
0000b0 3c 78 c6 3c 60 d0 9c 3d 73 6a 00 bd a5 37 43 bc
       0.024227254 0.07656932 -0.031351518 -0.011915122
0000c0 77 0b 5f 3d 73 1b 4b bd 9c d5 21 3d cd bc 2c bd
       0.054454293 -0.049586724 0.039510354 -0.042172242
0000d0 2f ff 9d bc 54 85 55 3c 16 3d 1e bd ed 03 e8 3c
       -0.01928672 0.013032276 -0.038632475 0.028322184
0000e0 2e 91 15 3c 25 2b 89 3d 70 fc ea 3b b0 14 59 3b
       0.009128852 0.06697682 0.007171206 0.0033123903
0000f0 3a 00 b4 3c 07 1d f9 bd de 2e 0b bc d9 63 00 3d
       0.021972764 -0.1216374 -0.008495061 0.031345222
000100 87 3d 9e bd 4a 2d 24 3c b0 e8 36 bd ea 40 7b bd
       -0.07726579 0.010020563 -0.0446555 -0.061341204
000110 a2 25 95 bd 5f fe d1 3c fc e5 3f 3b 03 f5 0b be
       -0.072825685 0.025633989 0.0029281368 -0.13667683
000120 e4 e1 68 3c ef eb 15 bd 75 1d 32 bc 5e 01 81 3d
       0.014214013 -0.036601957 -0.010871281 0.06299089
000130 80 95 32 3d b8 7e 9b bc 8e df 97 3c 8f fd d7 bd
       0.043599606 -0.018981323 0.018539216 -0.10546409
000140 a7 7b aa bd 45 ed 35 3c 25 5e 31 ba b9 49 0e 3d
       -0.08324366 0.011103933 -0.0006766043 0.034738276
000150 2d ce 58 bd 2f 2b cc 3c 4e 91 a2 3b 7e b5 7c bc
       -0.052931 0.024922935 0.0049611693 -0.0154241305
000160 d8 7d 87 3d 48 52 cf 3b 1c 60 81 bd d6 0d 7e 3d
       0.066158 0.0063269474 -0.063171595 0.062024914
000170 a3 e1 65 3d 56 e1 51 bc 4d 28 84 3d 4a 7d bf 3c
       0.056123387 -0.012810072 0.06452999 0.023375172
000180 2b a7 e2 3d df c6 20 bc 49 f8 b1 3d 40 d2 2a 3d
       0.11067041 -0.00981304 0.08689935 0.041704416
000190 41 ec 17 3b 01 bb 87 3d b1 13 77 bc 11 69 3c 3c
       0.002318159 0.06627465 -0.015080378 0.011499659
0001a0 6e 56 fd bb 50 ac f9 3c 72 bf ff ba 42 2b 53 3b
       -0.0077312505 0.030477673 -0.0019512011 0.0032221829
0001b0 74 77 b1 bd 16 39 fd bc ef 8b fa 3c 9f 0d 27 bd
       -0.08665362 -0.03091101 0.030584304 -0.040784474
0001c0 ac 45 00 bd 3e 84 5e bd 59 28 6f 3c 1c 59 07 3c
       -0.031316444 -0.054325335 0.014597022 0.008260991
0001d0 10 d3 4b 3d b9 60 81 3d 00 ba 2d 3d 88 eb ba 3b
       0.04976183 0.063172765 0.04241371 0.005704347
0001e0 b4 a1 68 3b 35 d4 37 bd cc 63 77 bd 10 d4 1f bd
       0.0035496773 -0.04488011 -0.060397908 -0.039020598
0001f0 a6 e4 85 bd d9 e1 37 bd 3e 16 43 3d 82 e8 33 3a
       -0.06537752 -0.04489312 0.047628634 0.00068629545
000200 86 ac fa bc 18 1d 51 bd 45 5a 04 bd 75 45 28 bd
       -0.030599844 -0.051053137 -0.03231265 -0.041081864
000210 35 34 a4 bc 0f 0f e1 bb e0 6e 8c 3b dc bb 79 3d
       -0.020044426 -0.00686825 0.0042856783 0.060970172
000220 19 02 20 3d a6 9e c1 3b e4 c8 ff bc 57 54 2b bd
       0.0390645 0.005908805 -0.031223722 -0.04182848
000230 43 6f 88 bd a8 8e 7a bc 4c d2 8d 3d d4 ce 75 bd
       -0.066618465 -0.015292801 0.069248766 -0.0600117
000240 48 ea 8d bd 10 ed 44 3d 38 72 9d ba a8 fa 36 bd
       -0.06929451 0.048077643 -0.0012012189 -0.04467264
000250 32 56 9b bc 09 c7 a9 bd 47 fe f6 3c 2f 0e 82 bc
       -0.018962 -0.08289916 0.030150546 -0.015875904
000260 4e 9b 38 3c a6 80 41 bd 7f c3 af 3d 72 b3 8a 3d
       0.011267496 -0.04724183 0.0858221 0.06772508
000270 92 c6 92 3d 91 24 26 bd 01 f2 fd bc f1 8c 06 3c
       0.071667805 -0.040562216 -0.030999186 0.008212314
000280 bc 67 87 bc d2 d2 cb 3c bd 93 78 3d aa 21 1b bd
       -0.016528957 0.0248808 0.06068777 -0.0378739
000290 62 6d d1 3c b9 05 3a 3d 07 49 b0 3c 95 27 f8 bc
       0.025564853 0.045415614 0.021519197 -0.030292312
0002a0 3f 5a 3b bd 2f 1b 62 bd 94 7a 0d bb 31 88 08 3c
       -0.045740362 -0.055201706 -0.0021587955 0.008333252
0002b0 9e cc a7 bd 9b c7 4b 3d 80 98 8b 3c b2 fe ee bc
       -0.081933245 0.049750905 0.017040491 -0.029174183
0002c0 94 9d 0b bd b0 5d 2b 3b 4c 73 95 bc e4 c7 01 3b
       -0.034085825 0.0026148371 -0.018243454 0.0019802982
0002d0 5d 96 9b 3c 1e b2 c8 bc 9f ab 8a 3c 3a bc be bc
       0.018992597 -0.024498995 0.016927538 -0.023283113
0002e0 b1 e2 05 bd cd 0d 15 bd 6c 51 a9 bc 4c b9 e8 37
       -0.032686893 -0.036390115 -0.020668708 2.774284e-05
0002f0 76 60 60 bc 08 5f 50 3d e0 61 c0 3c 4a 72 8c bc
       -0.013694873 0.05087188 0.02348417 -0.017144341
000300 8f 6a a7 bd fc ca 08 3b 52 71 fd bc bc da 13 3d
       -0.08174621 0.0020872941 -0.030937824 0.036097273
000310 ac 4e b8 bd 34 60 ec bb dd ef 9f 3c ad 23 1d 3d
       -0.089993805 -0.0072136167 0.019523555 0.0383641
000320 28 bd 82 3c 4b 3f 61 bd 7e ae 67 3d a6 39 76 3d
       0.015959337 -0.054992 0.056562893 0.06011357
000330 e9 82 1c bd d9 59 22 3d 48 57 24 bd 2b 44 a6 3d
       -0.038210783 0.039636467 -0.0401223 0.08118471
000340 c1 de e9 bc bf 7d 84 3b e1 4f ea bc e7 e9 02 bd
       -0.0285486 0.0040433104 -0.028602542 -0.031961348
000350 a5 84 e7 bc e9 3e 3a 3d 6b 6f 9a 3a 24 b3 98 bd
       -0.028261492 0.045470152 0.0011782473 -0.07456043
000360 4d 0d 8a bd e3 ce 1a ba e1 fb 2f bd 29 62 a6 3c
       -0.06740818 -0.00059054623 -0.04296482 0.020310478
000370 ea 7b 56 bd a6 b9 79 3c 6c 1c 62 bc dc 86 38 3d
       -0.052364267 0.015242016 -0.013800722 0.045050487
000380 9f 18 ab bd 09 6c 81 bc d6 cf ca bc b5 99 8f bb
       -0.083543055 -0.015798585 -0.024757307 -0.004382337
000390 2d 4b cf bc e5 da 4a bd 78 6b 75 bd 9b 8a c6 3b
       -0.025304401 -0.04952516 -0.059916943 0.0060590035
0003a0 18 7e 74 bc c1 52 1b bd 6b ec 6a 3c 73 89 72 3d
       -0.014922641 -0.037920717 0.014338593 0.059213113
0003b0 82 13 0f 3d 61 12 0e 3d b3 79 2e bd 08 d4 3e bd
       0.034930713 0.034685496 -0.04259653 -0.046588928
0003c0 db f1 f6 bb 58 f0 7c 3c 0b 79 3c bd 7c 7a b0 3d
       -0.0075361556 0.015438162 -0.046013873 0.08617112
0003d0 7f 6c c7 bc d1 06 95 3d 19 a1 fe bb 33 76 81 3d
       -0.024343727 0.07276691 -0.007770669 0.06321373
0003e0 88 87 8e 3b 1a 8e 91 3c 5d d1 85 bd c0 2d 5e 3d
       0.0043496527 0.017767955 -0.065340735 0.05424285
0003f0 7a 8f 5d bb 18 17 23 3b 8b 0f 20 3d bb 13 1a bd
       -0.0033807443 0.002488559 0.039077323 -0.037616473

actor.4.bias f4 [6]
000000 4e 0f 80 3d 79 cf 72 3d dc 8e 88 3b 5c 64 c4 bd
       0.06252919 0.059279893 0.004167421 -0.095894545
000010 5d e6 b2 3d 15 bf 6e 3c
       0.087353446 0.014571925

critic.0.weight f4 [256, 12]
000000 bb 36 f7 3d db a0 0e 3e 5a 86 c5 3c 0b 75 b4 bd
       0.12070986 0.13928549 0.024111915 -0.08811387
000010 af 1e 31 3d da a0 8f bc 8a 1a 22 3d b2 c4 69 be
       0.043242153 -0.017532755 0.03957609 -0.2282894
000020 eb a8 76 be aa 69 2e bf 0d ee 23 3e 51 ad 88 be
       -0.24087875 -0.6812998 0.16008778 -0.2669473
000030 f9 4a 71 3e 2d 60 dc 3d 25 fa 8b 3e f9 69 80 3d
       0.23563756 0.107605316 0.27339283 0.06270213
000040 93 44 2f 3e 40 e3 e5 bd b6 47 36 3e bf 60 62 bd
       0.17116003 -0.11224985 0.17800793 -0.055268046
000050 05 7f 5e 3d 24 9b 02 bd 36 d9 54 3e 79 1c e7 bd
       0.054320354 -0.031886235 0.20785984 -0.112847276
000060 d9 3b bf 3d 35 47 74 3e 35 98 69 3e 9b 71 3d 3e
       0.09337587 0.23855288 0.22811969 0.18500368
000070 0c 10 8a 3d 3f 0a 5b 3c b2 5d 2b bd 94 d0 42 3d
       0.06741342 0.013369142 -0.0418374 0.047562197
000080 77 05 53 be 62 1b 55 3f 40 3f 57 3e 83 db 43 3e
       -0.20607553 0.8324491 0.21020222 0.19126706
000090 6f 69 1c 3e 15 d5 8d bd 55 97 01 be f2 12 ce 3d
       0.15274595 -0.06925408 -0.12655385 0.10062207
0000a0 98 01 44 3e aa 05 7f 3e fb 1a 22 be f5 7c b0 3c
       0.19141233 0.24904504 -0.15830605 0.02154396
0000b0 85 38 88 bd e2 f6 f5 3e a7 60 9e bb 67 01 db bd
       -0.06651405 0.4803992 -0.004833299 -0.10693627
0000c0 3c 72 fd bd b5 c1 50 3c 96 6b a8 3c 19 21 e5 3d
       -0.12375304 0.012741496 0.020559113 0.111879535
0000d0 07 77 ed bd cd 66 0c be 6e d5 b0 bd de cb 41 bd
       -0.11594968 -0.1371109 -0.086344585 -0.047313564
0000e0 53 15 5e be 5d 2c 63 3f 3c d9 fc 3d ca db 45 be
       -0.21687822 0.8873957 0.12346122 -0.19322124
0000f0 6d 9c 8f 3d 47 dc 61 bc c7 29 4c bb e6 d8 ef 3d
       0.07012258 -0.013785428 -0.003115283 0.11711292
000100 f0 80 b0 3e 2c 4a 08 be 40 45 9b 3d 27 10 be 3d
       0.34473372 -0.13309544 0.07581568 0.092804246
000110 34 a6 0b 3e 51 21 02 3e 85 36 b2 3e 84 91 89 3e
       0.1363762 0.12708022 0.3480722 0.26868832
000120 e5 a2 c6 3d 7f 01 4d bd 8d 8e 6e bd 18 c4 13 be
       0.096990384 -0.050050255 -0.058241416 -0.14430273
000130 39 ec c2 3d 01 05 85 3e d7 cf 0f 3e 79 bc 3c 3e
       0.09517712 0.2598038 0.14044128 0.18431272
000140 39 42 11 bd 24 31 40 bf 26 82 6c be 03 f1 79 3e
       -0.035463545 -0.7507498 -0.23096523 0.24408345
000150 39 6b 5d be dd 81 4d be a4 23 00 be 11 0f 39 3e
       -0.21622933 -0.2006907 -0.12513596 0.18072154
000160 51 5a f7 bd 01 1a 2c bd 6a 55 1a 3e b1 e0 f2 bd
       -0.12077773 -0.042016987 0.15071645 -0.11859263
000170 52 36 f2 3d 37 04 3d bf e8 34 8a 3c 9c a8 9d 3c
       0.11826767 -0.73834556 0.01687093 0.019245438
000180 dd c9 f5 3d ae 03 2b 3e 52 8c 0c be 1a ef 06 3e
       0.12001393 0.16700622 -0.13725403 0.13177148
000190 23 df 9f be f6 72 44 be fd a7 f6 3d 07 6c 45 3e
       -0.31224927 -0.19184479 0.1204376 0.1927949
0001a0 54 e1 bf bc 88 ad 5d 3f 69 73 d9 3e 66 65 8b bd
       -0.023422875 0.8659291 0.42470863 -0.068064496
0001b0 29 be 93 bb d1 3c 90 3d 8a 1a 2d be ef a9 3a bc
       -0.004508753 0.0704285 -0.16904655 -0.011393054
0001c0 34 75 0c be 5d 86 73 be 8b 99 b7 3d 89 c4 28 3e
       -0.13716584 -0.23781724 0.08964833 0.16481222
0001d0 ec 59 25 be c3 8a d9 3e f7 be a0 3e 18 7e 94 3e
       -0.16147584 0.4248868 0.31395695 0.29002452
0001e0 3c 7a 71 3e 7d 3f 23 be 2d 64 e5 bd 08 10 5d be
       0.23581785 -0.15942188 -0.11200748 -0.21588147
0001f0 8c 92 bd bd 27 dc 3c 3d 93 52 20 be 93 09 60 be
       -0.09256467 0.04610839 -0.156565 -0.21878652
000200 87 d0 87 3e 08 b6 e4 be da 7e eb be 3f 9b b0 3d
       0.2652628 -0.4467013 -0.45995218 0.08623361
000210 01 d6 c2 bb 65 c9 44 3e a7 cb e1 3d 5d 04 03 be
       -0.0059459214 0.19217451 0.11025172 -0.12794633
000220 dd a1 1a bc b0 a9 94 be f0 c5 57 bd 60 5b 11 be
       -0.009438005 -0.2903571 -0.052679002 -0.14195013
000230 db 82 db bc b2 f3 5d bf 7f 28 73 be fb da c8 bd
       -0.026795795 -0.86699975 -0.23745917 -0.09807392
000240 29 7a 79 be 8f f5 86 3b 58 b6 03 3e 2b c5 81 be
       -0.24363007 0.0041186283 0.12862527 -0.2534574
000250 0c fb 11 3e 7c dc 57 3e 8e 3e 5a 3d 31 59 1f be
       0.14255923 0.21080202 0.053282313 -0.15561368
000260 25 2d c4 bd b2 83 45 3f 71 6a 85 3d 05 43 51 be
       -0.09578923 0.77154076 0.06514443 -0.20435722
000270 85 1b 53 be b3 54 5c 3e 3c 08 27 3e 96 d1 e0 bd
       -0.20615967 0.21516685 0.16311735 -0.10977475
000280 2c 5e 3c be ca 7f a9 bd 46 65 8b be 0d 10 72 be
       -0.18395299 -0.08276327 -0.27225703 -0.23638935
000290 d5 f2 a0 3e 14 6a ba 3e ba db 91 3e e2 26 85 3d
       0.31435266 0.36409056 0.2848795 0.06501557
0002a0 42 92 0a be 3c 79 a5 bc c5 42 7c be 35 3e 6c be
       -0.13532355 -0.02019941 -0.24634846 -0.23070605
0002b0 d1 87 81 3d e4 ab 96 bd ee 7c 75 3e 49 6f 85 3e
       0.06324733 -0.07357004 0.23973438 0.26061466
0002c0 f7 e5 13 be 82 38 36 3f 1c 09 45 be d6 86 67 3e
       -0.14443193 0.71179974 -0.19241756 0.2261003
0002d0 c2 71 bc 3c f8 c8 01 bd 4c 27 b0 3c 71 9c 34 3e
       0.023003463 -0.0316858 0.021503113 0.17637803
0002e0 d1 48 5b 3c e3 df 41 bd b5 33 e3 3d 87 23 8e be
       0.01338406 -0.047332656 0.11093847 -0.2776148
0002f0 66 9f e3 bc aa 65 33 3f e3 c9 33 3e 54 49 0e be
       -0.027785968 0.70077 0.17557482 -0.1389516
000300 b9 9f 66 3d 0b f0 b8 bd 8a a4 0b 3e 66 b6 4e 3d
       0.056304667 -0.090301596 0.13636985 0.050466917
000310 86 1b ec bd 30 35 9e 3c 9c b1 0a bc f6 96 aa 3d
       -0.11528687 0.019312471 -0.008465197 0.08329575
000320 2d 13 04 bd 5c ef d1 3e 6e 0d e3 bd d9 bb 59 3e
       -0.03224485 0.4100293 -0.11086546 0.21263064
000330 00 24 c0 bd 8e 9a c1 3d 29 b4 b0 bc f2 28 6a 3e
       -0.093818665 0.09453307 -0.021570282 0.22867182
000340 f8 9e 42 3e 2d 88 2d be a8 02 02 be 85 70 81 3e
       0.19005954 -0.16946478 -0.12696326 0.25281158
000350 17 19 17 be 23 92 4d bf 7f 28 ba be 7b bc be 3d
       -0.14755665 -0.8030111 -0.3635902 0.093132935
000360 a8 e8 3f be 5e 90 7d 3a ad 67 11 ba 7a 4a 5e ba
       -0.18741095 0.00096726965 -0.000554676 -0.0008479726
000370 d9 00 8d be 01 0f 7c 3e c0 94 50 be 4f cb 1c 3d
       -0.2753971 0.24615099 -0.20369244 0.038279828
000380 10 3d 64 3d d1 83 4c 3f 2c b8 42 bd 0a ff 3a 3e
       0.055722296 0.79888636 -0.04753892 0.18261352
000390 4b d5 ad bd 08 53 4e be b6 17 36 be d1 c8 56 3d
       -0.08487948 -0.20148861 -0.17782483 0.052437607
0003a0 74 32 20 be 1b b7 fd 3c 7b 35 06 be 92 bc 86 be
       -0.15644246 0.0309711 -0.13106339 -0.26315743
0003b0 52 15 5e be 44 c3 0a 3f 47 29 19 bd d6 a1 81 be
       -0.2168782 0.542042 -0.03739288 -0.25318784
0003c0 cf c7 b0 bd 33 14 f5 3d 20 a6 2d 3e d7 b1 7b 3e
       -0.086318605 0.11966743 0.16957903 0.2457956
0003d0 41 9d 18 be 43 a6 33 be a1 0a f5 bc ba 2b 87 3d
       -0.14903738 -0.17543893 -0.029912295 0.06600137
0003e0 67 12 ee 3d 42 45 3c 3f 9d 0a 36 bd e8 e9 d3 bd
       0.11624604 0.7354318 -0.044443715 -0.103473485
0003f0 76 7b 8a 3e 18 0c f3 bd 82 7b 09 be 74 46 6d be
       0.27047318 -0.11867541 -0.1342602 -0.23171407

critic.0.bias f4 [256]
000000 b4 1b 87 bd 34 f7 6a 3e 47 72 63 be db a8 7b be
       -0.06597081 0.22945863 -0.22211562 -0.24576132
000010 cd 29 68 3e 08 5c 95 bd 32 bd 40 be 39 72 57 3e
       0.22672196 -0.07292944 -0.18822172 0.21039666
000020 17 ea 3c be 1e 04 28 be 19 7e 36 3e 70 ff 9e bc
       -0.18448673 -0.1640782 0.1782154 -0.019408911
000030 af 9b 88 3e 18 c7 40 3d fa f7 71 be ff 80 40 bb
       0.26681277 0.04706487 -0.23629752 -0.0029373763
000040 8f c3 9c 3e a0 09 5b be 91 11 1b bd d8 d4 7e bd
       0.3061795 -0.2139039 -0.03785855 -0.062214702
000050 99 60 d0 3d 56 d4 11 3e 69 72 e5 3d 21 f3 28 3e
       0.101746745 0.14241156 0.11203463 0.16498996
000060 45 34 15 be bf 97 68 be 5f d3 44 3e 92 92 7f 3e
       -0.1457072 -0.22714137 0.19221257 0.24958256
000070 fd af 9a 3e 23 76 d6 3d d4 64 88 3e 51 e5 fa bd
       0.30212393 0.104717515 0.26639426 -0.1225077
000080 93 11 de bc 45 8f 13 3d a0 5e 09 3d c3 ba 67 3e
       -0.02710799 0.036025304 0.033537507 0.22629838
000090 42 2c 84 be 44 b7 3f 3e 40 86 92 3e 32 03 80 3e
       -0.25815016 0.18722254 0.2861805 0.25002438
0000a0 c9 f7 b0 3d 44 02 8e be 77 8a a4 3e 9c 4f ff bc
       0.08641011 -0.27736104 0.3213689 -0.03116589
0000b0 35 0d 6a bd 12 de 5c 3d de 43 81 be e2 1a b6 3e
       -0.0571415 0.05392272 -0.2524709 0.35567385
0000c0 42 76 8b be 83 21 8c 3d de 6b b0 bd c4 25 b3 3a
       -0.2723866 0.06842329 -0.08614324 0.0013667871
0000d0 80 b4 04 be 45 c7 81 3e 28 93 7c 3e 46 5d aa be
       -0.1295948 0.25347343 0.2466551 -0.33274287
0000e0 78 d5 de 3d 6f 07 64 bc dd 96 35 be de 68 df 3d
       0.1088056 -0.013917788 -0.17733331 0.10908674
0000f0 2b a7 38 be 10 06 6b be 96 a2 de bd 02 32 8b 3d
       -0.1803252 -0.22951531 -0.108708546 0.067966476
000100 6b 94 6b bc 59 a4 d6 3d c1 10 69 3e a3 53 ee 3c
       -0.014378647 0.104805656 0.22760297 0.029092615
000110 25 90 9c 3d ae 7f b9 3d 57 5e 6e be 9e 29 06 3d
       0.07644681 0.09057556 -0.23278175 0.032754533
000120 af 9b 4f be 1c 22 ec 3c 7b fc cd bb 8d 1d 44 bd
       -0.20274232 0.028824858 -0.0062862015 -0.047879744
000130 46 c0 8a be be 6a aa 3d 1d 22 b1 be 56 cf ef 3c
       -0.27099818 0.08321141 -0.3459634 0.02927367
000140 c2 70 a6 3d 96 af 75 be ed c7 23 3d 83 81 a6 3d
       0.081269756 -0.23992762 0.039985586 0.08130171
000150 7d df 05 be 37 af 25 be a8 4d 2a be 03 32 b5 bd
       -0.13073535 -0.1618012 -0.16631186 -0.088474296
000160 5e 01 80 be aa 5a 23 bd b8 80 7e be a7 26 7b 3e
       -0.25001043 -0.039881386 -0.2485379 0.24526463
000170 72 f0 cf 3d ce c9 80 bc 1f 65 8e 3e b3 03 f4 bc
       0.10153283 -0.015721228 0.27811524 -0.02978692
000180 94 50 4b bc f6 88 90 be 63 b3 28 bd 20 46 42 bd
       -0.012409348 -0.28229493 -0.0411867 -0.047430158
000190 5d ce 13 3e 44 51 29 be c3 93 1c be fa 49 04 3e
       0.1443419 -0.16534907 -0.15290742 0.12918845
0001a0 9d a6 80 3e cf 3e 93 3d 13 45 8f be 03 27 98 be
       0.25127116 0.07189714 -0.27982387 -0.29717264
0001b0 29 9e c0 3d 3f 3f e4 3d 40 50 42 3e 53 46 54 be
       0.09405167 0.11144876 0.18975925 -0.20729952
0001c0 49 01 fe 3d 25 49 74 3d 80 b0 a9 3e e4 a5 62 3e
       0.12402589 0.05964007 0.3314247 0.22133595
0001d0 6b 80 08 bb 64 39 1d be 95 f1 53 be 5a 01 2f bd
       -0.0020828496 -0.15353924 -0.20697625 -0.0427259
0001e0 35 4a 1d bd 5a a5 bc bc 10 f4 33 3e b1 52 44 be
       -0.038400847 -0.023028065 0.17573571 -0.1917217
0001f0 54 82 8c be 44 51 16 3d 19 92 53 bd 0d a6 ee bc
       -0.27443182 0.036698595 -0.051653 -0.029131914
000200 ef 73 be bd e1 fe 14 be 91 37 0d be ac e8 47 3d
       -0.09299456 -0.14550354 -0.13790728 0.048805878
000210 5e fe cf 3d 88 e4 19 3d 56 1f e4 bd 85 de d7 3d
       0.101559386 0.03757146 -0.11138789 0.10540489
000220 2b 2d 2f be e2 55 bb 3d 09 33 45 3d 66 7e 1d bc
       -0.17107074 0.0914724 0.048144374 -0.009612655
000230 44 b8 51 be 1e 2a c4 3c 49 db 51 3e 1d 82 05 3e
       -0.20480448 0.023945864 0.20493807 0.13037916
000240 88 90 ee 3d 25 b1 23 bd 2b 07 83 3e 3d 02 4f be
       0.11648661 -0.03996386 0.25591406 -0.20215698
000250 e0 f9 ff bd 76 23 ae 3e d5 7b 97 3d bf c3 70 bd
       -0.12498832 0.3401143 0.07396666 -0.058780428
000260 55 cc 55 be 24 6b 19 3e 87 43 7f bd 99 26 67 bd
       -0.20878728 0.14982277 -0.06232026 -0.056433294
000270 1b ce fb bc 36 19 e7 3d 53 e0 65 be de a8 6d bd
       -0.030737927 0.112841055 -0.22448854 -0.058022372
000280 ee 90 cb bd f4 d8 a2 3d 5f ed 42 3e f4 6e 9c be
       -0.099397525 0.07951537 0.19035862 -0.305534
000290 d8 71 08 3e f1 31 6a 3d ef 7a 44 3e 0a 00 94 3c
       0.13324678 0.057176534 0.1918752 0.018066425
0002a0 c7 eb 15 3e aa 20 2b 3e 18 d7 38 3e 7a bf ca bb
       0.14640723 0.16711679 0.18050802 -0.0061873766
0002b0 b7 84 3c be 3b 6a a1 bd f2 ca a8 3d b7 98 33 be
       -0.18410002 -0.0788159 0.08241834 -0.17538725
0002c0 79 f9 03 bd 61 01 9c bd b7 13 86 be 52 9a 80 3e
       -0.032220338 -0.076174505 -0.26186916 0.25117737
0002d0 c3 dd 17 be 0a a0 e7 bd ca e8 4f 3e 18 04 5d 3e
       -0.14830689 -0.11309822 0.20303646 0.21583593
0002e0 f1 e7 26 be 2d c4 d7 3d e9 e3 41 be 0f d0 b4 3d
       -0.16299416 0.105354644 -0.18934597 0.088287465
0002f0 54 d2 64 bd 95 35 bb bd 29 f8 52 3e 84 52 44 3e
       -0.055864647 -0.09141079 0.20602478 0.19172102
000300 37 7e 29 be c3 9d 7b 3e 99 99 41 be 59 82 03 3c
       -0.16552053 0.245719 -0.18906249 0.008026683
000310 5f 79 67 3e b6 5b 2d be 78 26 49 bc 53 e6 b3 bd
       0.22604893 -0.16929516 -0.012277238 -0.08784165
000320 5b 47 0a 3d f2 d9 94 be 50 2a 89 3c 26 e8 95 3c
       0.033759456 -0.2907253 0.016743809 0.018299174
000330 49 2a 44 be ae 42 85 3e 3e 28 2f 3e c7 7c 7b 3e
       -0.19156756 0.26027435 0.17105195 0.24559318
000340 c5 5d fa 3d 49 23 94 3e 93 ef 80 bd 47 da 5d 3d
       0.12224916 0.2893317 -0.06295695 0.054163244
000350 b6 03 fe 3c f1 86 f3 bd 05 65 97 be 48 24 47 be
       0.031007629 -0.118909724 -0.2956926 -0.19447434
000360 a1 df 95 bc 19 e1 d7 3d e3 34 a6 bd 8b 64 01 3e
       -0.018295111 0.10540981 -0.08115556 0.1263601
000370 4a 32 ad 3e 77 7b 33 be a9 62 6a 3e e8 2c 8b 3e
       0.3382743 -0.17527567 0.22889198 0.27182698
000380 30 53 ba bd 96 51 a2 bd 26 43 5b 3e ba a5 5b be
       -0.09097898 -0.079257175 0.21412334 -0.21449938
000390 0c 9b 25 3e 2b 9f 25 3e 9f 39 4e be 69 ab 43 3e
       0.16172427 0.16173999 -0.20139168 0.19108357
0003a0 71 26 02 bd bb d0 b9 3e d0 83 33 be 60 2f 3a 3e
       -0.03177494 0.3629206 -0.17530751 0.18182135
0003b0 4f 0f e1 3c 1f 8c 60 3e a3 70 09 bd 99 3e 12 3b
       0.02747312 0.21928452 -0.033554684 0.0022315143
0003c0 c9 4e 03 be 90 2b dd 3d 45 31 02 3d 8d 4a 27 3e
       -0.12823023 0.107993245 0.03178527 0.16337033
0003d0 11 3d 81 3e d3 b2 59 be 63 5d 49 3e 7c e4 19 be
       0.25241902 -0.21259622 0.1966453 -0.15028566
0003e0 8d 89 f9 bd 16 02 4d 3e cd 7a 47 3e 47 c4 ca bd
       -0.12184439 0.20020327 0.19480439 -0.09900718
0003f0 53 9d 97 3d d4 84 74 be a2 81 c8 3d 31 1f 05 3e
       0.07403054 -0.23878795 0.097903505 0.1300018
