policy/PPO_fail/checkpoints/2025-09-09_10-54/ppo_soarm_200.pth (torch, 258647 bytes, 33 tensors)

actor.0.weight f4 [128, 12]
0.1971105 -0.031694658 0.19032429 -0.088198684 0.27297506 0.15921552 -0.010252743 0.1698203
0.1319786 0.065655686 0.15840843 0.16690896 0.17154953 0.039898653 -0.032613877 0.069320425
0.25123772 0.20358567 -0.20330584 0.15659712 0.056103118 -0.23732837 -0.09121928 0.029156342
0.3249154 -0.0036121346 -0.20189595 -0.24606037 0.21738715 0.060756307 -0.01565613 -0.13825439
-0.2297813 -0.075146034 -0.17032947 -0.23888838 -0.100322716 0.28876263 -0.057222374 -0.27474207
-0.11092475 0.069046274 0.14705917 -0.18664631 0.07711566 -0.066304885 0.028719796 0.087017946
-0.2841523 -0.06047581 -0.25926524 -0.07090549 0.21308368 -0.29268315 -0.16719753 -0.24346824
0.12240575 -0.16451249 -0.27570745 0.1472177 -0.20018256 0.0024814543 0.008798757 -0.1951858
0.0035981112 0.12554015 -0.23834391 0.15526232 -0.2436737 0.06010687 -0.25934112 -0.25413117
-0.07464113 -0.15667577 -0.15409872 -0.21012543 0.2928722 0.23368149 0.09111387 0.12815048
-0.23284122 0.026039686 0.13788386 -0.012549253 -0.011563908 -0.006208412 0.13940053 -0.08868571
-0.1821968 -0.099315 -0.31446725 0.2518534 -0.12019444 -0.054548454 -0.1266294 0.28258145
-0.004041008 0.0150957825 -0.13566743 -0.21753909 0.16207747 0.010430079 0.12132015 0.095114276
-0.10533276 -0.22509457 0.200787 -0.04864302 0.012364502 -0.22868542 0.21787912 -0.116391756
-0.28682542 -0.23611085 0.030250674 -0.030814845 0.29155722 0.2393024 -0.15856193 0.06765276
-0.20788595 0.053726133 -0.10675981 -0.21618111 0.020901563 0.12613615 0.07572233 -0.18242896
-0.12195406 -0.057163168 0.24043828 -0.12821268 0.27256042 -0.2707862 -0.13619696 0.14834668
-0.1111177 -0.19894178 0.18362924 -0.2685141 0.18572871 -0.26908538 0.19743317 -0.0034017877
-0.1507426 0.15191303 0.14155674 0.19784118 -0.023979574 -0.0025679017 0.27393472 0.055463996
0.30050978 -0.18624645 -0.08425217 0.08238828 -0.26742813 0.06689211 0.11427135 -0.108536966
0.2945777 -0.19996965 -0.021134581 -0.14012726 -0.24586366 -0.19956233 -0.16612229 0.06768623
0.14090936 -0.037019398 -0.010528901 0.007642713 0.08508057 -0.20703223 -0.10023778 0.21125898
-0.14461228 -0.077377774 -0.22010463 0.052463267 -0.122098744 -0.11484902 -0.12315629 -0.09956582
0.25847736 -0.20110981 0.06616841 -0.15019393 0.054849062 -0.27707207 0.05888803 0.14805162
0.25113365 -0.08561954 0.10541115 0.06307271 -0.18752386 0.10996909 0.07993746 -0.265958
0.14284441 -0.15643461 0.26280144 0.09605712 -0.029084401 -0.0671718 0.012538725 0.18310207
0.1416101 0.13721085 -0.17254776 -0.059151337 -0.018966513 0.1479037 0.18282937 -0.052996445
-0.21673317 -0.21254052 -0.28523245 -0.19534092 0.2466686 0.2675157 -0.19601734 -0.18283579
-0.2808441 0.25798145 -0.17981942 0.23753533 -0.09324003 -0.12892562 0.19464979 -0.18303907
0.11235366 -0.17277545 -0.12830697 -0.17776893 -0.23364766 -0.07589538 -0.0834799 0.14025784
-0.17325796 0.03935559 0.255799 -0.29136097 -0.11900154 0.24635014 -0.24154341 -0.037489668
0.15033504 -0.058905073 0.20444205 -0.2405224 0.25243303 0.24254198 0.2627743 0.18564275
00000000: 56d7 493e 42d2 01bd 5fe4 423e 83a1 b4bd
00000010: 63c3 8b3e 6509 233e 1ffb 27bc 5fe5 2d3e
00000020: 6625 073e 7d76 863d d235 223e 2fea 2a3e
00000030: aeaa 2f3e c56c 233d 2196 05bd def7 8d3d
00000040: 3ba2 803e c378 503e 682f 50be ff5a 203e
00000050: 62cc 653d 3506 73be 2dd1 babd 48d9 ee3c
00000060: 505b a63e 90b9 6cbb d0bd 4ebe 40f7 7bbe
00000070: bd9a 5e3e 9bdb 783d 4941 80bc 8f92 0dbe
00000080: ca4b 6bbe 2ae6 99bd d96a 2ebe 289f 74be
00000090: ff75 cdbd b2d8 933e 0262 6abd feaa 8cbe
000000a0: 842c e3bd 2268 8d3d ae96 163e 3620 3fbe
000000b0: d1ee 9d3d dbca 87bd c745 eb3c 7736 b23d
000000c0: 697c 91be 7cb5 77bd 6abe 84be e636 91bd
000000d0: 9c32 5a3e 91da 95be d435 2bbe bd4f 79be
000000e0: deaf fa3d f675 28be 8729 8dbe 3dc0 163e
000000f0: a8fc 4cbe e59f 223b a928 103c c9de 47be
00000100: 4ace 6b3b 998d 003e 6d10 74be 16fd 1e3e
00000110: 9985 79be 9f32 763d 5cc8 84be 7b1d 82be
00000120: 73dd 98bd 9d6f 20be 0ecc 1dbe 1f2b 57be
00000130: 58f3 953e 334a 6f3e e999 ba3d e139 033e
00000140: ee6d 6ebe 2e51 d53c 6d31 0d3e 629b 4dbc
00000150: 8c76 3dbc ef6f cbbb 03bf 0e3e dba0 b5bd
00000160: cc91 3abe aa65 cbbd da01 a1be eef2 803e
00000170: 8128 f6bd 336e 5fbd 23ab 01be 84ae 903e
00000180: 6f6a 84bb 4d54 773c 67ec 0abe 91c2 5ebe
00000190: a3f7 253e ece2 2a3c b376 f83d 46cb c23d
000001a0: b4b8 d7bd 317f 66be 1b9b 4d3e e73d 47bd
000001b0: 7b94 4a3c 832c 6abe b41b 5f3e cd5e eebd
000001c0: c8da 92be 0bc7 71be 43d0 f73c 6a6f fcbc
000001d0: fd46 953e b00b 753e 0f5e 22be 888d 8a3d
000001e0: 0ee0 54be ef0f 5c3d e3a4 dabd 955e 5dbe
000001f0: c139 ab3c d629 013e 4f14 9b3d a8ce 3abe
00000200: 0dc3 f9bd ed23 6abd 7435 763e 2f4a 03be
00000210: 0a8d 8b3e 7da4 8abe 3777 0bbe 31e8 173e
00000220: ad91 e3bd 65b7 4bbe 4e09 3c3e ae7a 89be
00000230: ab2f 3e3e 8fc5 89be ec2b 4a3e 87f0 5ebb
00000240: 455c 1abe 178f 1b3e 40f4 103e e196 4a3e
00000250: d070 c4bc 3e4a 28bb 2c41 8c3e 372e 633d
00000260: 6bdc 993e 64b7 3ebe 678c acbd 30bb a83d
00000270: 57ec 88be bbfe 883d 1907 ea3d a148 debd
00000280: e3d2 963e d8c4 4cbe 6e22 adbc 857d 0fbe
00000290: afc3 7bbe 115a 4cbe f61b 2abe 149f 8a3d
000002a0: 8b4a 103e a7a1 17bd 6981 2cbc b96f fa3b
000002b0: b93e ae3d 4200 54be 7749 cdbd 4654 583e
000002c0: 3e15 14be 3d78 9ebd 1c63 61be b9e3 563d
000002d0: e80e fabd f735 ebbd 5d39 fcbd 2ae9 cbbd
000002e0: 2557 843e bbef 4dbe 4e83 873d 70cc 19be
000002f0: 69a9 603d 64dc 8dbe 9334 713d d89a 173e
00000300: 9794 803e 4c59 afbd cde1 d73d 442c 813d
00000310: 4106 40be 7937 e13d 40b6 a33d a62b 88be
00000320: ce45 123e 6530 20be e98d 863e 98b9 c43d
00000330: 6942 eebc 5e91 89bd 396f 4d3c 1c7f 3b3e
00000340: 3d02 113e 0081 0c3e 5cb0 30be ac48 72bd
00000350: a95f 9bbc 1174 173e 9f37 3b3e cd12 59bd
00000360: 4def 5dbe 39a4 59be fd09 92be 7307 48be
00000370: b296 7c3e d1f7 883e c5b8 48be 4e39 3bbe
00000380: ccca 8fbe 2516 843e 9522 38be 763c 733e
00000390: a1f4 bebd 1405 04be 4652 473e 986e 3bbe
000003a0: ad19 e63d 0cec 30be e762 03be 0f09 36be
000003b0: 5541 6fbe 096f 9bbd 83f7 aabd c09f 0f3e
000003c0: 896a 31be 5433 213d 16f8 823e 442d 95be
000003d0: 14b7 f3bd 3643 7c3e 2857 77be c48e 19bd
000003e0: 6ef1 193e 7246 71bd 4259 513e 814b 76be
000003f0: e73e 813e ed5c 783e 5a8a 863e 2219 3e3e

actor.0.bias f4 [128]
0.049121663 0.046754725 0.2813311 -0.17473531 0.26695576 -0.24687268 -0.27504638 0.23376998
-0.2952909 -0.18467027 -0.11855815 0.021056736 0.055638894 -0.06731625 0.064560525 -0.13037714
-0.16369712 -0.09162485 -0.11111008 -0.102799505 0.0381423 0.085670136 0.11246025 0.1879396
0.22326906 0.16910367 -0.15291105 -0.07038093 0.21657182 0.008558411 0.009337422 -0.007670581
-0.22536048 -0.059658524 0.15496631 -0.02997739 -0.035310302 -0.14535566 0.0956097 0.27816123
-0.28783882 -0.10038553 0.0771861 -0.045896888 0.031035334 -0.14035337 -0.22792405 -0.018986763
0.301889 -0.05986336 0.079852626 -0.026165579 -0.27408555 0.110368624 0.036608573 0.081658326
0.060441058 0.2889617 0.096627966 -0.11793397 0.093252 -0.11401365 -0.27905813 -0.17603643
0.098607965 0.11132387 -0.1144264 -0.13885295 -0.12907684 -0.15625526 0.15137322 0.19528788
0.11147788 -0.1660075 -0.16110088 0.03895691 -0.2520581 0.048661835 -0.07984538 -0.06549881
0.24233882 -0.030636923 -0.10684647 -0.055395197 0.28292778 -0.26706722 0.06523609 0.13380621
-0.11516377 -0.16187401 -0.1495649 0.14068316 -0.26453912 -0.022638222 0.0051085074 0.26989004
0.13901915 -0.2545826 -0.10215579 -0.15922448 0.020331359 0.26996025 -0.024212152 0.21540768
-0.2696716 -0.15319468 -0.30186903 0.04307346 -0.20246597 -0.16622178 -0.041355785 -0.1957277
0.27859324 -0.015986994 0.03292468 0.1096054 0.042332165 0.2675834 0.16146304 -0.22989824
0.25540158 0.306326 0.28637466 -0.2787659 -0.06311229 -0.0155108655 -0.26299244 -8.4597115e-05
00000000: cc33 493d e281 3f3d a10a 903e d0ed 32be
00000010: 6dae 883e 31cc 7cbe e1d2 8cbe 6661 6f3e
00000020: 5e30 97be 341a 3dbe 9ece f2bd 2d7f ac3c
00000030: 9ce5 633d 1add 89bd 4f38 843d 9681 05be
00000040: 38a0 27be cfa5 bbbd ae8d e3bd 8c88 d2bd
00000050: 1a3b 1c3d d373 af3d 8f51 e63d 3d73 403e
00000060: a5a0 643e 8329 2d3e b794 1cbe e123 90bd
00000070: 01c5 5d3e 9438 0c3c fdfb 183c 7f59 fbbb
00000080: e6c4 66be 7f5c 74bd 7daf 1e3e 2593 f5bc
00000090: 89a1 10bd 1dd8 14be 05cf c33d 266b 8e3e
000000a0: 9c5f 93be ee96 cdbd bf13 9e3d 60fe 3bbd
000000b0: d03d fe3c cbb8 0fbe ec64 69be 218a 9bbc
000000c0: 3291 9a3e 4833 75bd c689 a33d 3259 d6bc
000000d0: f154 8cbe f208 e23d dff2 153d 7b3c a73d
000000e0: 0b91 773d caf2 933e e2e4 c53d 5e87 f1bd
000000f0: e8fa be3d fd7f e9bd b5e0 8ebe e542 34be
00000100: f9f2 c93d c5fd e33d 6358 eabd 782f 0ebe
00000110: b82c 04be 6101 20be 9501 1b3e 8cf9 473e
00000120: 844e e43d dffd 29be a1f7 24be 4891 1f3d
00000130: c20d 81be a251 473d f985 a3bd 3d24 86bd
00000140: ab27 783e 49fa fabc 52d2 dabd 13e6 62bd
00000150: e9db 903e 09bd 88be 809a 853d 7f04 093e
00000160: fcda ebbd 4dc2 25be 8b27 19be 3f0f 103e
00000170: ac71 87be cb73 b9bc 4465 a73b 072f 8a3e
00000180: 095b 0e3e a758 82be 0e37 d1bd be0b 23be
00000190: f38d a63c 3b38 8a3e 9058 c6bc d593 5c3e
000001a0: 6512 8abe 11df 1cbe 948e 9abe cc6d 303d
000001b0: 3d53 4fbe 0b36 2abe af64 29bd d86c 48be
000001c0: c6a3 8e3e 28f7 82bc 07dc 063d cc78 e03d
000001d0: 7e64 2d3d b100 893e 9156 253e 726a 6bbe
000001e0: ffc3 823e c3d6 9c3e b39f 923e 67ba 8ebe
000001f0: 0441 81bd 4921 7ebc f2a6 86be bb69 b1b8

actor.2.weight f4 [64, 128]
0.04048525 0.05073649 -0.02323434 0.06403242 -0.04458202 0.053815313 -0.099355906 0.04065796
-0.07122905 0.044230472 -0.1180869 0.0306327 0.05620094 -0.016907701 -0.04840015 -0.08027069
0.017560923 -0.026122825 -0.0053132037 -0.06104016 -0.073442206 -0.068448454 -0.02751547 0.0095161935
0.09956343 0.09121151 -0.034041077 0.00094512315 -0.04693374 0.026255718 0.06759566 -0.032735135
-0.10651557 -0.00027483152 0.06283488 0.091179006 -0.08470267 -0.04312167 -0.039683815 0.004991498
-0.029878275 -0.041784212 -0.07930689 0.07757001 -0.013379116 0.0012056119 0.057320774 -0.04303826
0.08059491 0.072725825 0.045211133 0.016140027 -0.045336112 -0.041049138 -0.014454979 0.0006383338
-0.008723502 0.01586192 -0.03530839 0.0014926859 -0.06743419 0.066721424 -0.07084162 0.009518914
-0.042514756 -0.003360963 0.073813066 -0.0013923096 -0.0672806 -0.06286067 -0.004846773 -0.04117904
-0.018488081 -0.08438663 0.042213004 -0.07072288 -0.09838043 -0.05579477 0.09957959 -0.080099285
0.06793107 0.049539175 -0.07867249 -0.018469222 -0.004162514 -0.06171287 -0.005977232 -0.05993612
-0.022178605 0.07364075 -0.01666578 0.04794247 0.017365228 -0.06692437 -0.13663062 0.06429375
0.07356973 0.038329594 -0.06585372 -0.027523484 0.0047269603 -0.0352024 -0.053299505 -0.003609726
-0.026757225 0.045673095 -0.060703885 0.002223458 -0.061943047 0.086417764 0.018392982 -0.056499053
0.09274347 0.012773163 0.046304405 -0.017727843 0.053980064 0.06374078 -0.027891632 -0.04486641
0.08834028 0.027569085 -0.0030525518 0.07291868 -0.052955214 -0.0048525943 0.07570656 -0.053971708
0.0013804445 -0.08058286 -0.07425748 -0.00919278 -0.06815757 -0.061395682 0.023180839 0.008161459
-0.057322856 0.009217274 -0.10762244 -0.03201738 -0.028967703 -0.11007247 -0.024262523 0.005409091
-0.038432863 0.0385609 -0.07568424 0.08509956 0.042000305 0.05771832 0.050821505 -0.015512469
0.045152158 -0.04242431 -0.047971588 0.020242427 -0.042855386 0.037852973 -0.06596186 -0.01589438
0.05620118 0.036011025 -0.05475592 -0.005414604 0.07605574 -0.073625915 -0.09603776 -0.04998397
0.061978664 -0.0041221855 0.030197738 0.04426262 -0.024946256 0.045257777 0.022750353 -0.09008215
0.057837766 0.07625204 -0.03942718 -0.007274716 0.013207798 0.017120067 -0.069635384 -0.053216007
0.006969112 0.05646573 0.06802253 0.036726065 -0.096796736 -0.046608455 0.039085474 0.009702166
0.018580988 -0.009560603 0.065388456 -0.035142016 0.020079233 -0.0054950803 0.06708202 0.030272627
0.021868916 0.06152605 -0.017331913 -0.04871585 -0.054835383 0.02680815 0.034897484 0.0054309946
0.059085343 0.0062548677 -0.061910298 -0.024021003 -0.073827766 -0.034764145 0.023836821 0.04420024
-0.045320433 0.013299094 0.028920472 0.06127993 -0.02590049 -0.04694801 -0.087747656 -0.028968109
0.007132119 -0.07186156 -0.034788113 -0.05639879 -0.014114797 0.0025254868 -0.009202854 -0.05263077
0.02213304 -0.00079180603 0.00813266 -0.06438355 -0.06895442 -0.05699025 0.029611561 0.012874946
0.017485086 0.039594546 -0.10363851 -0.013647494 0.005816258 0.0105598075 0.06126204 -0.0415057
0.06223073 -0.08319727 -0.007412147 0.06764911 0.06415422 -0.0015392895 -0.049895678 -0.01274408
00000000: ddd3 253d 11d1 4f3d f155 bebc 6e23 833d
00000010: a39b 36bd 726d 5c3d 1c7b cbbd f688 263d
00000020: 89e0 91bd 032b 353d 8bd7 f1bd 6ef1 fa3c
00000030: f532 663d 0582 8abc 3c3f 46bd f664 a4bd
00000040: eddb 8f3c 89ff d5bc 621a aebb 3f05 7abd
00000050: de68 96bd b42e 8cbd 1f68 e1bc cfe9 1b3c
00000060: e9e7 cb3d 1acd ba3d a86e 0bbd 24c2 773a
00000070: 983d 40bd 3b16 d73c 986f 8a3d 4715 06bd
00000080: d624 dabd 4317 90b9 93af 803d 0fbc ba3d
00000090: 9878 adbd 59a0 30bd 7f8b 22bd b88f a33b
000000a0: 49c3 f4bc ec25 2bbd a76b a2bd 07dd 9e3d
000000b0: 1434 5bbc 9f05 9e3a 30c9 6a3d e348 30bd
000000c0: f20e a53d 47f1 943d 4f2f 393d 1738 843c
000000d0: 5cb2 39bd 2423 28bd 94d4 6cbc db55 273a
000000e0: 05ed 0ebc dbf0 813c 889f 10bd 3aa6 c33a
000000f0: f01a 8abd 3ea5 883d 6915 91bd 38f5 1b3c
00000100: f423 2ebd 9a43 5cbb 4e2b 973d 287e b6ba
00000110: 69ca 89bd 18bd 80bd aed1 9ebb 5aab 28bd
00000120: 5174 97bc e6d2 acbd 8be7 2c3d 28d7 90bd
00000130: ae7b c9bd 0f89 64bd 62f0 cb3d 180b a4bd
00000140: 721f 8b3d 97e9 4a3d 0b1f a1bd c44c 97bc
00000150: b365 88bb a2c6 7cbd a8dc c3bb 947f 75bd
00000160: e8af b5bc f6d0 963d ad86 88bc 535f 443d
00000170: 8641 8e3c a50f 89bd e6e8 0bbe 71ac 833d
00000180: baab 963d 7eff 1c3d 51de 86bd ee78 e1bc
00000190: 9ee4 9a3b 6430 10bd 9550 5abd 2791 6cbb
000001a0: f831 dbbc b613 3b3d a3a4 78bd 6fb7 113b
000001b0: feb7 7dbd ccfb b03d e1ac 963c 8d6b 67bd
000001c0: 4af0 bd3d 8746 513c b0a9 3d3d fb39 91bc
000001d0: 331a 5d3d 878a 823d fe7c e4bc d7c5 37bd
000001e0: c0eb b43d 90d8 e13c 520d 48bb 6456 953d
000001f0: 91e7 58bd 8302 9fbb 0a0c 9b3d 7011 5dbd
00000200: 08f0 b43a a008 a5bd 4e14 98bd 509d 16bc
00000210: 3296 8bbd 0a7a 7bbd bee5 bd3c a4b7 053c
00000220: 5fcb 6abd 0d04 173c 2769 dcbd a824 03bd
00000230: ad4d edbc ad6d e1bd 33c2 c6bc be3e b13b
00000240: c76b 1dbd 09f2 1d3d 5700 9bbd ae48 ae3d
00000250: 8308 2c3d 0c6a 6c3d 362a 503d 0328 7ebc
00000260: 78f1 383d 1dc5 2dbd db7d 44bd 72d3 a53c
00000270: 2189 2fbd b80b 1b3d 0317 87bd ee34 82bc
00000280: 3533 663d 4c80 133d be47 60bd fe6c b1bb
00000290: 1dc3 9b3d 2fc9 96bd 72af c4bd febb 4cbd
000002a0: 57dd 7d3d 6613 87bb 3f61 f73c b94c 353d
000002b0: 175c ccbc 3860 393d f35e ba3c fe7c b8bd
000002c0: 4be7 6c3d 082a 9c3d 657e 21bd be60 eebb
000002d0: 8565 583c 623f 8c3c ff9c 8ebd 07f9 59bd
000002e0: 265d e43b 9c48 673d 654f 8b3d 126e 163d
000002f0: 5e3d c6bd 82e8 3ebd 1718 203d d5f5 1e3c
00000300: 2837 983c 13a4 1cbc 62ea 853d 13f1 0fbd
00000310: 347d a43c 1310 b4bb 4c62 893d 4dfe f73c
00000320: 7126 b33c bd02 7c3d a8fb 8dbc 458a 47bd
00000330: 119b 60bd c49c db3c aaf0 0e3d 7cf6 b13b
00000340: 7903 723d a2f5 cc3b a795 7dbd b2c7 c4bc
00000350: 0333 97bd d964 0ebd 7045 c33c 500b 353d
00000360: eba1 39bd 71e4 593c a0ea ec3c aa00 7b3d
00000370: 442d d4bc 8e4c 40bd 0bb5 b3bd 874e edbc
00000380: 8db4 e93b 272c 93bd fb7d 0ebd 6b02 67bd
00000390: c041 67bc a382 253b 91c7 16bc 5d93 57bd
000003a0: 5950 b53c 3491 4fba d93e 053c 86db 83bd
000003b0: fa37 8dbd 9c6e 69bd f293 f23c 70f1 523c
000003c0: e23c 8f3c e42d 223d 6d40 d4bd bd99 5fbc
000003d0: 4f96 be3b 0b03 2d3c e8ed 7a3d e201 2abd
000003e0: a6e5 7e3d 5563 aabd 98e1 f2bb 9e8b 8a3d
000003f0: 4a63 833d fcc1 c9ba 695f 4cbd 8ccc 50bc

actor.2.bias f4 [64]
0.0015529997 0.08874362 -0.022724114 0.01983253 -0.06883058 -0.024775108 -0.039766368 -0.015735341
9.329696e-06 0.0701696 -0.02378664 -0.08483305 -0.034655128 0.00814011 -0.08829153 -0.056099646
-0.08586604 0.039308876 -0.07535072 -0.07380315 0.07817741 0.015893156 0.007181303 0.022318138
-0.052180745 -0.06643697 -0.045397248 0.020801654 0.053686835 -0.0027214924 0.06447432 -0.05795848
0.048043363 0.03094568 -0.06881895 0.03589204 0.055714823 -0.008123388 0.022928128 -0.03643716
-0.04153881 0.042907648 0.05029273 0.054768126 0.090117246 0.05690248 -0.0764753 0.0660856
0.052437864 0.015595995 0.03514866 0.022227872 0.026684083 0.06836887 0.041447345 -0.0135487225
-0.0414431 -0.039952762 -0.017081577 -0.06697215 -0.01158569 0.060649414 -0.037912242 -0.065818466
00000000: 068e cb3a 37bf b53d ec27 babc d477 a23c
00000010: 0cf7 8cbd 2bf5 cabc 0fe2 22bd 67e7 80bc
00000020: bd86 1c37 14b5 8f3d 33dc c2bc f3bc adbd
00000030: 89f2 0dbd 195e 053c 31d2 b4bd bec8 65bd
00000040: 89da afbd 5802 213d 7a51 9abd 1b26 97bd
00000050: 7a1b a03d 5d32 823c 2351 eb3b 87d4 b63c
00000060: 7abb 55bd 1b10 88bd 77f2 39bd 3b68 aa3c
00000070: bae6 5b3d 115b 32bb 1d0b 843d df65 6dbd
00000080: 1ec9 443d cb81 fd3c f3f0 8cbd 8803 133d
00000090: 3a35 643d f517 05bc c5d3 bb3c 223f 15bd
000000a0: 9924 2abd eebf 2f3d c0ff 4d3d 8b54 603d
000000b0: 648f b83d 9312 693d 159f 9cbd e357 873d
000000c0: 16c9 563d 5886 7f3c 0bf8 0f3d 3a17 b63c
000000d0: 9498 da3c fa04 8c3d b1c4 293d 76fb 5dbc
000000e0: 3dc0 29bd 82a5 23bd aaee 8bbc b228 89bd
000000f0: e8d1 3dbc 856b 783d de49 1bbd d5cb 86bd

actor.4.weight f4 [6, 64]
-0.08328637 -0.10193893 0.019438475 0.0383747 0.08711738 -0.083354585 -0.0098673245 -0.087652646
-0.11198427 0.0932565 0.05095643 -0.03314126 -0.08261233 0.06625485 0.025314055 -0.11321572
0.1360904 -0.07284357 -0.0697077 0.03557023 -0.020998683 0.09478895 0.015666664 0.013509762
0.066644356 -0.019918805 -0.0029484294 0.074679516 -0.054866448 0.07050011 -0.11030168 -0.084563754
-0.03350157 0.03233552 0.058067195 -0.118204966 -0.017295143 0.013917884 -0.08530356 0.045616664
-0.095334545 -0.08083406 0.07580115 -0.1083339 0.0061885864 -0.007212987 0.106428266 -0.012551733
0.09267875 -0.12729433 0.017949333 0.013397559 -0.009123234 -0.0420996 -0.07350193 0.05180462
0.033743747 -0.09840665 -0.07585476 -0.075823456 0.12716946 -0.011770463 0.075480625 -0.0901236
0.10355843 0.046986252 0.0590713 0.09227101 -0.006573433 0.07496591 0.025587106 0.12737389
-0.072064675 0.0016129173 0.13951181 -0.123504646 -0.118153155 -0.019014657 0.007742905 0.024892785
-0.056148928 -0.084648475 -0.06822777 -0.04845411 0.08114071 -0.09663689 0.14179736 -0.04128817
-0.04649892 0.106506355 -0.10737102 0.124983564 -0.05857042 0.04608531 -0.072904356 0.057536364
-0.06622217 -0.0067522484 -0.08904147 0.06841394 0.043659996 -0.030810945 0.019107934 0.010495613
0.065744005 0.128061 0.048738934 -0.04425624 0.04647822 -0.05485929 0.02670663 0.018892
0.04645568 0.08528047 0.10079947 0.075383976 0.09850169 0.119511284 -0.017893158 0.08799296
0.12293478 -0.12757541 0.07688345 0.043201525 0.110025376 -0.025824388 0.07796143 -0.012354268
0.008893769 0.08722892 0.056844126 -0.11242556 -0.11388271 0.031857137 -0.07213485 -0.071945705
0.040003378 0.048253786 -0.018589197 -0.014696192 -0.024655443 -0.14386432 0.15594539 0.10783836
0.037484806 -0.1040538 -0.0138318 0.15240797 0.12127979 0.050044313 -0.112368174 -0.13605312
-0.107153066 0.08667954 0.07683993 -0.010867091 0.14509779 0.020683596 0.07737269 0.048905097
-0.057948485 0.0120085785 0.051070705 0.0020759944 -0.036587622 -0.078475356 -0.0921144 -0.062989
-0.025238466 -0.12693018 -0.024572035 0.11131427 -0.0384359 0.065385096 0.066205375 -0.07673186
0.049338564 0.0821534 -0.029733464 -0.12284761 -0.14881428 0.050979078 -0.013168022 -0.042283207
-0.09324516 0.06780946 -0.080073215 0.10350348 0.13363779 -0.11417228 -0.09301877 -0.106728956
-0.01293698 -0.06309292 0.049157523 -0.11009305 0.00597849 0.08023839 0.029369669 0.004125128
-0.031292528 0.061834432 0.046346545 0.03782379 -0.11801023 -0.06323418 -0.06544679 0.106784366
0.03062414 0.07720457 -0.027705474 -0.08666021 -0.11097244 -0.014717843 -0.0175811 -0.037729174
-0.026517693 0.030413767 -0.060493875 0.07358371 -0.054603007 0.12801719 0.051550195 0.033438735
-0.08790137 -0.06701775 -0.035262 0.001794193 -0.0024969832 0.00936555 0.04721655 -0.017423356
0.039773624 -0.06200445 0.070964344 -0.10483594 0.060353603 0.092602305 0.05148528 0.07182044
-0.041279145 0.077467255 0.031108243 -0.004369678 0.0025439886 0.07225163 -0.0023917858 0.05605325
0.06457334 -0.0752562 -0.08357052 0.040514607 -0.11084811 -0.013689625 0.08455504 0.07510931
00000000: 0b92 aabd 5cc5 d0bd 703d 9f3c ca2e 1d3d
00000010: 996a b23d cfb5 aabd 8faa 21bc 3b83 b3bd
00000020: 0258 e5bd 44fd be3d b1b7 503d 21bf 07bd
00000030: a730 a9bd 9fb0 873d 6c5f cf3c a5dd e7bd
00000040: 485b 0b3e 022f 95bd e9c2 8ebd 17b2 113d
00000050: 6e05 acbc b620 c23d 6057 803c 0c58 5d3c
00000060: d67c 883d c32c a3bc 703a 41bb 93f1 983d
00000070: a4bb 60bd 5d62 903d d9e5 e1bd c32f adbd
00000080: f138 09bd 4072 043d ded7 6d3d 7215 f2bd
00000090: 8bae 8dbc d607 643c a2b3 aebd 8ad8 3a3d
000000a0: c23e c3bd 548c a5bd a23d 9b3d 2ade ddbd
000000b0: a0c9 ca3b ec5a ecbb 10f7 d93d c9a5 4dbc
000000c0: 5bce bd3d 7259 02be 7b0a 933c 6f81 5b3c
000000d0: 9e79 15bc a170 2cbd 2e88 96bd 1531 543d
000000e0: e236 0a3d 6d89 c9bd be59 9bbd 5449 9bbd
000000f0: b638 023e e6d8 40bc 9695 9a3d b992 b8bd
00000100: 7116 d43d a874 403d bff4 713d 95f8 bc3d
00000110: f465 d7bb ba87 993d 0d9c d13c 4d6e 023e
00000120: a596 93bd 8668 d33a 2fdc 0e3e 01f0 fcbd
00000130: 48fa f1bd a0c4 9bbc 32b8 fd3b f4eb cb3c
00000140: 6bfc 65bd 2e5c adbd 00bb 8bbd d177 46bd
00000150: 1a2d a63d 90e9 c5bd 5433 113e c91d 29bd
00000160: a775 3ebd 0120 da3d 56e5 dbbd 62f7 ff3d
00000170: 89e7 6fbd f3c3 3c3d e14e 95bd 40ab 6b3d
00000180: 7d9f 87bd f741 ddbb 605b b6bd 9c1c 8c3d
00000190: d3d4 323d 3c67 fcbc 3e88 9c3c cbf5 2b3c
000001a0: cba4 863d 6c22 033e 7aa2 473d 0846 35bd
000001b0: f25f 3e3d 23b4 60bd ddc7 da3c 65c3 9a3c
000001c0: 5048 3e3d 87a7 ae3d f46f ce3d ea62 9a3d
000001d0: 41bb c93d 55c2 f43d ac94 92bc a735 b43d
000001e0: 3bc5 fb3d 21a3 02be 1275 9d3d 15f4 303d
000001f0: fc54 e13d ab8d d3bc 3eaa 9f3d 8e69 4abc
00000200: 2cb7 113c 13a5 b23d 63d5 683d 5f3f e6bd
00000210: 573b e9bd a17c 023d 70bb 93bd 4558 93bd
00000220: 95da 233d c3a5 453d 5f48 98bc 4cc8 70bc
00000230: 36fa c9bc 2b51 13be 26b0 1f3e 5cda dc3d
00000240: ab89 193d 291a d5bd c69e 62bc d610 1c3e
00000250: 8a61 f83d 44fb 4c3d 4921 e6bd 8251 0bbe
00000260: 1173 dbbd 0b85 b13d 415e 9d3d e20b 32bc
00000270: 8494 143e a570 a93c 9375 9e3d b650 483d
00000280: 645b 6dbd a1bf 443c 842f 513d 680d 083b
00000290: e7dc 15bd b0b7 a0bd 79a6 bcbd 6000 81bd
000002a0: e6c0 cebc fcf9 01be 4b4b c9bc bcf8 e33d
000002b0: f66e 1dbd 9fe8 853d af96 873d 9825 9dbd
000002c0: 3c17 4a3d 0b40 a83d 9893 f3bc 8797 fbbd
000002d0: c562 18be 70cf 503d b0be 57bc 2831 2dbd
000002e0: 52f7 bebd b0df 8a3d 6dfd a3bd a2f9 d33d
000002f0: 58d8 083e 28d3 e9bd a080 bebd b694 dabd
00000300: a1f5 53bc dc36 81bd 6659 493d 7778 e1bd
00000310: 36e7 c33b 0654 a43d a998 f03c 152c 873b
00000320: 982c 00bd 1a46 7d3d e0d5 3d3d 1eed 1a3d
00000330: 59af f1bd ec80 81bd f708 86bd c3b1 da3d
00000340: 7adf fa3c 6e1d 9e3d 97f6 e2bc e87a b1bd
00000350: 8545 e3bd 1c23 71bc 3d06 90bc e889 1abd
00000360: a23b d9bc 4b26 f93c 6dc8 77bd 0eb3 963d
00000370: 67a7 5fbd f016 033e 4c26 533d 0ef7 083d
00000380: a205 b4bd 9a40 89bd e36e 10bd 212b eb3a
00000390: 6da4 23bb f771 193c 2466 413d 6dbb 8ebc
000003a0: abe9 223d 61f8 7dbd c155 913d 3ab4 d6bd
000003b0: 5735 773d 47a6 bd3d 3be2 523d 9816 933d
000003c0: 5214 29bd 27a7 9e3d b7d6 fe3c 842f 8fbb
000003d0: 0cb9 263b aaf8 933d 82bf 1cbb 1898 653d
000003e0: 073f 843d ec1f 9abd 0527 abbd a5f2 253d
000003f0: 5504 e3bd 734a 60bc 312b ad3d e9d2 993d

actor.4.bias f4 [6]
0.08714849 -0.08497114 0.10007029 0.0028231484 0.06165473 0.01934335
00000000: e87a b23d 5905 aebd a7f1 cc3d 9204 393b
00000010: ac89 7c3d f275 9e3c

critic.0.weight f4 [128, 12]
-0.029928751 0.3140936 -0.42199922 0.29162034 0.061246082 0.07680228 -0.17153116 -0.21871541
0.27233723 -0.28463712 -0.33261982 0.036635768 0.14635193 0.2868216 0.16189957 0.17080264
-0.037160344 -0.08571267 -0.18538378 -0.21426117 -0.2540427 -0.02957959 -0.1999855 0.007846133
0.31094617 0.09555853 -0.045595836 0.249948 -0.27274662 -0.29202443 -0.21689047 0.04266235
0.06645875 0.24018236 0.12654977 0.1023227 -0.12525502 0.33940923 -0.18331914 0.37748498
-0.2293194 -0.21291491 -0.16916277 0.036546566 0.1420948 0.21758808 -0.387247 0.36109412
-0.23258841 0.17666264 0.020502137 0.06409388 0.050180405 -0.09185029 0.31201413 0.16920207
-0.3294034 0.21329898 0.14697666 -0.23347335 -0.13787684 0.05247366 -0.3157919 0.024998764
0.10660589 0.14492679 0.081668146 -0.12867971 -0.33453855 -0.12079373 0.19182989 -0.20213543
0.2517371 0.14950274 -0.14591819 -0.26407367 0.116519034 -0.13610451 0.018762216 -0.11620057
-0.14262874 -0.20399229 -0.17487459 0.16363707 0.17344327 -0.04880681 0.28405866 -0.41789183
0.22224897 0.19884014 0.017384375 0.30918023 0.00853984 -0.2228195 0.22317365 0.20234251
0.108131036 0.058036603 0.31027213 0.17847697 -0.014438194 -0.09665576 0.086481676 0.20985387
0.35233864 0.10211146 -0.13336863 0.3297877 0.02668578 0.093020834 0.33985126 -0.24409924
-0.13132873 0.11260386 -0.030659528 0.13643156 0.15512572 0.07642265 0.10478679 -0.14246945
0.23482051 -0.17185634 -0.050661363 0.18678695 -0.25901207 -0.18497534 0.266839 0.038105506
-0.039987657 0.0004339793 0.12017495 0.06991788 -0.23130511 0.009735694 -0.29423723 -0.34011474
0.05377463 0.10097727 -0.12845585 0.26247188 0.07207 -0.027818447 0.09234783 -0.18388635
-0.16592693 0.016092403 0.01832887 0.3778978 0.16805437 0.12638521 0.08309916 0.19814385
0.36381984 -0.022183392 -0.1795452 0.3032548 0.007786743 -0.1365539 0.08328571 -0.29209456
-0.07006683 0.25509655 -0.13072301 0.00841796 -0.06668529 0.017409861 -0.029028794 0.068141885
-0.20424609 -0.1998992 -0.25015888 -0.3231181 -0.31715536 0.2210144 -0.2507103 0.16054657
-0.14864518 0.07214493 0.10421382 0.070671186 0.22508873 -0.16145681 -0.17314151 0.38435867
-0.07889373 0.14814426 0.16494745 0.21179202 0.12841868 -0.07819067 0.153782 -0.03173286
0.18459174 0.17118873 -0.14719188 -0.13267818 -0.13563995 0.06567268 -0.16146056 0.07341161
-0.08806529 0.04321743 0.16956653 -0.20740011 0.009393712 -0.0019886605 0.08600567 0.28759497
0.077777155 0.09738724 0.02915569 -0.27643347 0.35300055 0.1036463 -0.2754971 -0.15686154
0.10905907 -0.11803062 0.20292449 0.26868865 0.17993814 0.2325476 0.23786153 -0.18793774
0.20533057 -0.08522013 0.035544254 0.15437466 0.037123006 0.23413584 -0.16961837 -0.2255389
-0.09526489 -0.026676927 -0.1046213 0.1693448 0.021146206 -0.1347711 0.3182523 -0.09293758
-0.056443073 -0.23145428 0.2459027 -0.113914855 0.18441321 -0.18049741 0.07051914 0.15869497
-0.21211927 -0.19110258 0.39940333 -0.08055099 -0.0776813 0.17143679 -0.10222866 -0.055253413
00000000: 242d f5bc e0d0 a03e 4810 d8be 434f 953e
00000010: 2cdd 7a3d 844a 9d3d dda5 2fbe eff6 5fbe
00000020: c96f 8b3e f5bb 91be 254d aabe 630f 163d
00000030: 48dd 153e 48da 923e 00c9 253e e3e6 2e3e
00000040: 7235 18bd 208a afbd 3fd5 3dbe 4867 5bbe
00000050: e311 82be e550 f2bc 00c9 4cbe 118d 003c
00000060: 5634 9f3e 31b4 c33d b3c2 3abd 5ef2 7f3e
00000070: 72a5 8bbe 3a84 95be 8918 5ebe b7be 2e3d
00000080: 861b 883d 5df2 753e 4396 013e 908e d13d
00000090: da42 00be 0cc7 ad3e 03b8 3bbe b645 c13e
000000a0: b4d2 6abe 5e06 5abe 0139 2dbe dab1 153d
000000b0: 4d81 113e 69cf 5e3e 3d45 c6be 54e1 b83e
000000c0: a82b 6ebe 0de7 343e 19f4 a73c a743 833d
000000d0: f889 4d3d 011c bcbd 51c0 9f3e 4f43 2d3e
000000e0: 90a7 a8be 0c6b 5a3e 0d81 163e a313 6fbe
000000f0: 962f 0dbe 9fee 563d 7aaf a1be 35ca cc3c
00000100: 3054 da3d b067 143e a141 a73d 9dc4 03be
00000110: a348 abbe b462 f7bd 0e6f 443e 97fc 4ebe
00000120: afe3 803e 3f17 193e 946b 15be aa34 87be
00000130: 88a1 ee3d fb5e 0bbe 38b3 993c 90fa edbd
00000140: 450d 12be 5be3 50be 5312 33be 7a90 273e
00000150: 1d9b 313e a6e9 47bd 2370 913e ebf5 d5be
00000160: 3c95 633e c09c 4b3e ad69 8e3c df4c 9e3e
00000170: afea 0b3c cc2a 64be a287 643e e032 4f3e
00000180: ce73 dd3d cab7 6d3d fddb 9e3e abc2 363e
00000190: 2d8e 6cbc 75f3 c5bd 4e1d b13d efe3 563e
000001a0: bb65 b43e d01f d13d c991 08be efd9 a83e
000001b0: 239c da3c b581 be3d fc00 ae3e 27f5 79be
000001c0: 0a7b 06be da9c e63d b129 fbbc b7b4 0b3e
000001d0: 47d9 1e3e 7a83 9c3d 759a d63d 83e3 11be
000001e0: ca74 703e 1cfb 2fbe 4a82 4fbd 1445 3f3e
000001f0: 3b9d 84be 2d6a 3dbe 1f9f 883e 8514 1c3d
00000200: 19ca 23bd b787 e339 491e f63d 1b31 8f3d
00000210: 3fdb 6cbe 7682 1f3c 43a6 96be 8523 aebe
00000220: c942 5c3d 2ccd ce3d ee89 03be b762 863e
00000230: 7099 933d 83e3 e3bc dc20 bd3d b44c 3cbe
00000240: c0e8 29be 37d4 833c 6d26 963c d27b c13e
00000250: 7216 2c3e 206b 013e e42f aa3d 39e6 4a3e
00000260: 9846 ba3e f2b9 b5bc b2da 37be 3744 9b3e
00000270: ef27 ff3b c9d4 0bbe b391 aa3d 6b8d 95be
00000280: 337f 8fbd 049c 823e 41dc 05be 7ceb 093c
00000290: 4c92 88bd 209f 8e3c cbcd edbc f98d 8b3d
000002a0: e325 51be 60b2 4cbe d314 80be bc6f a5be
000002b0: 3062 a2be 9951 623e 1a5d 80be 5266 243e
000002c0: 7136 18be b9c0 933d 0e6e d53d 0ebc 903d
000002d0: a97d 663e ef54 25be 024c 31be a9ca c43e
000002e0: 0993 a1bd 21b3 173e fce7 283e 02e0 583e
000002f0: 3080 033e 6e22 a0bd 0779 1d3e 51fa 01bd
00000300: 9e05 3d3e 194c 2f3e 78b9 16be cadc 07be
00000310: 33e5 0abe 667f 863d eb55 25be d458 963d
00000320: 935b b4bd c304 313d d9a2 2d3e b260 54be
00000330: 15e8 193c 3054 02bb be23 b03d a63f 933e
00000340: a149 9f3d f672 c73d ead7 ee3c b088 8dbe
00000350: 7dbc b43e 8344 d43d f50d 8dbe 50a0 20be
00000360: 5d5a df3d 0aba f1bd 70cb 4f3e 8f91 893e
00000370: b441 383e f520 6e3e f991 733e c072 40be
00000380: 2d42 523e e487 aebd da96 113d 6414 1e3e
00000390: 4b0e 183d 4ec1 6f3e 70b0 2dbe abf3 66be
000003a0: 3d1a c3bd 9289 dabc b143 d6bd b968 2d3e
000003b0: cf3a ad3c 6f01 0abe f7f1 a23e 0f56 bebd
000003c0: da30 67bd 5a02 6dbe ebcd 7b3e 314c e9bd
000003d0: d1d6 3c3e 50d4 38be 576c 903d ef80 223e
000003e0: cb35 59be 65b0 43be 987e cc3e ebf7 a4bd
000003f0: 6017 9fbd 208d 2f3e 425d d1bd 6751 62bd

critic.0.bias f4 [128]
0.22065559 -0.018976908 -0.025352135 0.1723153 -0.03532792 -0.3451866 -0.19699277 -0.30375797
0.21091974 0.31917092 0.107333824 -0.11582015 -0.19070148 0.2576238 -0.19748773 0.32155338
-0.15213849 0.12942348 -0.07359663 0.025925031 -0.30253896 -0.18968266 0.039211966 0.0138898585
0.047590375 0.15007319 0.18512727 0.22657372 -0.1888149 0.13495345 0.23656783 0.22969301
-0.27695635 0.29013982 0.09305902 -0.014146303 0.09281354 -0.26748106 -0.27443475 -0.28489962
0.19642837 -0.33023247 0.21687537 -0.33581835 0.20039615 0.1603664 -0.35081416 -0.23094052
0.108751945 -0.2729226 -0.052843094 -0.35581416 -0.16079825 -0.024670068 -0.052915744 -0.4533778
-0.3007784 0.07761425 -0.25553218 -0.25632757 0.2567593 0.26302257 -0.31052983 0.18718639
0.028326513 0.09758492 0.24169476 0.27211067 -0.3321527 -0.27706882 0.10573366 -0.24984835
0.1248187 0.25478107 -0.06503962 -0.22017036 0.14485851 0.36972234 0.122281395 0.04591772
0.1379023 -0.32800785 -0.06810999 0.35508958 0.14457703 0.27323952 -0.026536452 -0.16762285
-0.26243973 -0.011319517 -0.098578796 0.0072443676 0.06523722 0.3614832 -0.096850574 0.26078165
0.30944103 0.18092853 -0.11130057 -0.29984313 0.22588988 0.042093374 -0.114991374 -0.3459029
0.24146037 0.106002204 -0.31527653 -0.13001116 0.26543212 0.22263612 0.12544881 0.3293935
-0.34501907 -0.16806732 0.14324696 -0.36478886 0.13667178 -0.19115871 0.015299166 -0.23180601
-0.12629241 -0.12516676 0.078956574 -0.31239384 0.1641697 -0.24138108 -0.04013088 0.2713896
00000000: 8af3 613e 7675 9bbc 48af cfbc 6c73 303e
00000010: 02b4 10bd 4cbc b0be 79b8 49be 2a86 9bbe
00000020: 58fb 573e 5f6a a33e d6d1 db3d 1d33 edbd
00000030: 4047 43be 44e7 833e 393a 4abe a5a2 a43e
00000040: 31ca 1bbe 9787 043e d4b9 96bd bb60 d43c
00000050: 63e6 9abe 2c3c 42be ba9c 203d 4a92 633c
00000060: 20ee 423d c9ac 193e 0192 3d3e f102 683e
00000070: b158 41be 3d31 0a3e d63e 723e a534 6b3e
00000080: 39cd 8dbe 358d 943e ba95 be3d e5c5 67bc
00000090: 0615 be3d 47f3 88be b682 8cbe 5dde 91be
000000a0: 8524 493e 3b14 a9be 9414 5e3e 62f0 abbe
000000b0: a634 4d3e 1737 243e ea9d b3be ac7b 6cbe
000000c0: 57b9 de3d 83bc 8bbe 0072 58bd 462d b6be
000000d0: 4ca8 24be e218 cabc 2ebe 58bd 2321 e8be
000000e0: a0ff 99be 38f4 9e3d 1dd5 82be 5e3d 83be
000000f0: f475 833e e5aa 863e c4fd 9ebe caad 3f3e
00000100: 010d e83c 9ada c73d d57e 773e 1752 8b3e
00000110: eb0f aabe f7db 8dbe e48a d83d 3fd8 7fbe
00000120: f2a0 ff3d aa72 823e 7e33 85bd 5774 61be
00000130: ca55 143e 3f4c bd3e ab6e fa3d 3814 3c3d
00000140: 4336 0d3e a5f0 a7be 407d 8bbd 4dce b53e
00000150: 000c 143e 0de6 8b3e f962 d9bc 53a5 2bbe
00000160: 805e 86be 7f75 39bc aee3 c9bd 2962 ed3b
00000170: 179b 853d 5314 b93e 9859 c6bd 2c85 853e
00000180: 0e6f 9e3e 5445 393e 8ef1 e3bd 0a85 99be
00000190: ad4f 673e 1a6a 2c3d 9980 ebbd 2f1a b1be
000001a0: 6341 773e af17 d93d ed6b a1be a521 05be
000001b0: b8e6 873e b9fa 633e a775 003e 44a6 a83e
000001c0: 57a6 b0be d719 2cbe 55af 123e 9bc5 babe
000001d0: b0f3 0b3e 1cbf 43be 5aa9 7a3c 8e5e 6dbe
000001e0: cc52 01be b72b 00be fcb3 a13d 16f2 9fbe
000001f0: 1a1c 283e 9a2c 77be 4760 24bd 94f3 8a3e

critic.2.weight f4 [64, 128]
-0.05603051 -0.04930376 0.06579916 0.07103475 0.13898456 0.16258231 0.012815878 0.015677994
0.083497465 -0.20114134 0.011343435 -0.0055845557 0.1768633 -0.08095276 0.01856713 -0.057620183
0.1050761 0.06435148 0.05977429 -0.054823235 0.0670611 0.041703787 0.025339894 0.018870847
0.035122305 -0.11226446 -0.036871906 -0.10702929 -0.0765964 -0.009122301 -0.11342278 -0.015685773
-0.03996603 -0.15321095 -0.045675356 -0.1655086 -0.033028934 -0.0038941659 -0.037222523 0.05680395
-0.002165969 0.11903301 -0.16157523 -0.038260724 0.0102269435 0.040196497 -0.017957572 -0.056062326
-0.09002927 -0.030962192 -0.12280224 0.026989156 0.06838059 0.1089895 0.058713023 0.020583395
0.008873902 -0.010956839 0.15271229 -0.06681694 0.086446755 -0.05117477 -0.06231562 -0.047893718
-0.14369059 0.022388298 -0.07886582 -0.16858229 0.1366904 0.06385489 0.060546834 -0.038837973
0.0316755 0.0137753235 0.06933729 0.0071166945 -0.1520575 0.07281935 -0.11792991 -0.0065195328
0.037294164 -0.07000421 0.004419655 0.01514199 0.06985756 -0.059589997 0.051825363 0.055836916
-0.0003559416 0.008919427 0.06938681 -0.044763863 0.011285173 -0.119973995 0.06584462 -0.080450974
-0.08038289 0.075157054 -0.0010115205 -0.036982 -0.10677132 -0.07631603 0.13867472 0.20076638
0.06558663 0.0227315 0.07149777 -0.07838219 -0.07734161 -0.08523978 0.04805708 -0.06993913
-0.009197333 -0.05619697 -0.13770857 0.04468011 0.040729936 0.09625057 0.08453502 -0.0713118
0.12332778 0.01900759 0.104781985 -0.012532354 -0.052389283 0.083964944 0.09145221 0.04910596
-0.031821545 0.12016456 -0.03584922 0.058160868 0.09861498 0.18518366 0.07772118 0.04623082
0.020238431 -0.00013046438 -0.022368997 -0.07395654 0.14165859 -0.1213228 -0.036345724 0.057610963
-0.011674845 0.0076286285 -0.05003391 -0.06424222 0.017251946 -0.015297022 0.15356615 -0.02052445
-0.013130404 -0.16842096 -0.15793933 -0.15858546 -0.07742256 0.021005912 -0.18294229 -0.093248785
0.015549391 -0.0014027118 -0.09247418 -0.18308423 -0.032932956 0.018178165 -0.0657775 0.092177525
-0.07608144 0.035554435 -0.04497268 -0.06361736 0.05851529 0.04249781 0.10285301 -0.043897573
-0.030158015 -0.069660574 -0.08292501 -0.021404041 -0.0031905246 0.022920368 0.022696253 -0.06911585
0.07145009 0.006614336 0.070929766 -0.023787782 0.0661694 -0.055367365 0.023594394 -0.063592546
-0.109111935 0.049414165 -0.103818156 -0.15733355 0.15830798 0.10243861 -0.0029793235 0.078140214
0.0009481663 0.08189807 -0.04489166 0.07577019 -0.1268021 0.067330934 -0.02819376 -0.06365417
0.053011853 -0.037104566 0.10968669 0.02387177 -0.004362509 -0.12562059 -0.0078087994 0.0067738746
-0.05069057 0.0027472356 0.10966887 -0.0076191477 -0.010074777 0.0019550053 0.10012225 -0.057252705
0.00939719 -0.044907328 -0.11972518 -0.074512675 -0.12688182 -0.034818694 0.14732379 0.054462597
0.044786826 -0.040797826 0.06975498 0.05080101 -0.10208117 0.03680328 0.06478664 -0.07797421
0.0075084358 -0.018467503 -0.023566466 -0.022281455 -0.05580693 -0.056116413 0.063578635 -0.022815412
0.09507682 0.14513104 0.13344795 0.0957427 -0.060845964 0.047506563 0.032916665 0.028575704
00000000: 4080 65bd bdf2 49bd b6c1 863d ab7a 913d
00000010: f851 0e3e fa7b 263e b0f9 513c 236f 803c
00000020: b800 ab3d fff7 4dbe d1d9 393c a6fe b6bb
00000030: a71b 353e 90ca a5bd 181a 983c 2403 6cbd
00000040: 2332 d73d b5ca 833d e3d5 743d 548e 60bd
00000050: 5457 893d 97d1 2a3d 9c95 cf3c 0997 9a3c
00000060: 68dc 0f3d e9ea e5bd ff06 17bd 2c32 dbbd
00000070: 93de 9cbd b475 15bc 344a e8bd 737f 80bc
00000080: 6bb3 23bd 55e3 1cbe 1516 3bbd 167b 29be
00000090: 5949 07bd 4335 7fbb a576 18bd 42ab 683d
000000a0: eef2 0dbb 94c7 f33d fa73 25be 47b7 1cbd
000000b0: e98e 273c 15a5 243d c21b 93bc 9ca1 65bd
000000c0: 4461 b8bd 6ca4 fdbc be7f fbbd 5d18 dd3c
000000d0: 1f0b 8c3d e335 df3d 117d 703d 829e a83c
000000e0: d863 113c 5084 33bc 9c60 1c3e 52d7 88bd
000000f0: ff0a b13d a39c 51bd aa3e 7fbd 342c 44bd
00000100: a023 13be aa67 b73c 6784 a1bd d6a0 2cbe
00000110: 91f8 0b3e 5ac6 823d f5ff 773d 9114 1fbd
00000120: 2bbe 013d e5b1 613c b600 8e3d 2933 e93b
00000130: f6b4 1bbe 5022 953d 3d85 f1bd cea1 d5bb
00000140: c4c1 183d 5e5e 8fbd c1d2 903b 1c16 783c
00000150: 7b11 8f3d a414 74bd d546 543d 40b5 643d
00000160: ac9d bab9 ca22 123c ac1a 8e3d 505a 37bd
00000170: 72e5 383c edb4 f5bd 8bd9 863d 7bc3 a4bd
00000180: c99f a4bd f1eb 993d ff94 84ba 707a 17bd
00000190: ecaa dabd 944b 9cbd bf00 0e3e b495 4d3e
000001a0: 4852 863d 6937 ba3c 6c6d 923d d786 a0bd
000001b0: 4765 9ebd 3292 aebd 80d7 443d 3f3c 8fbd
000001c0: 69b0 16bc cb2e 66bd 7a03 0dbe 7e02 373d
000001d0: 6fd4 263d 051f c53d b220 ad3d ec0b 92bd
000001e0: 4693 fc3d ceb5 9b3c f097 d63d 8154 4dbc
000001f0: 2596 56bd d0f5 ab3d 4c4b bb3d 5523 493d
00000200: 4f57 02bd d618 f63d a2d6 12bd 173a 6e3d
00000210: a7f6 c93d c9a0 3d3e 482c 9f3d 875c 3d3d
00000220: 11cb a53c 44cd 08b9 303f b7bc 8776 97bd
00000230: f30e 113e 1778 f8bd 41df 14bd 79f9 6b3d
00000240: d947 3fbc 93f9 f93b 5bf0 4cbd 6d91 83bd
00000250: f453 8d3c 5ca0 7abc 7240 1d3e e422 a8bc
00000260: e820 57bc 8b76 2cbe d9ba 21be 3a64 22be
00000270: b88f 9ebd 9714 ac3c 3955 3bbe 38f9 bebd
00000280: dfc2 7e3c 33db b7ba 1a63 bdbd 6f7a 3bbe
00000290: b5e4 06bd 60ea 943c 5bb6 86bd 92c7 bc3d
000002a0: 96d0 9bbd 87a1 113d 4635 38bd d249 82bd
000002b0: bbad 6f3d 2f12 2e3d 99a4 d23d f1cd 33bd
000002c0: f10d f7bc 34aa 8ebd 96d4 a9bd 8757 afbc
000002d0: 1f18 51bb 7fc3 bb3c 7eed b93c 9c8c 8dbd
000002e0: 6d54 923d 12bd d83b a043 913d 98de c2bc
000002f0: d383 873d e4c8 62bd 0849 c13c cf3c 82bd
00000300: 1476 dfbd 8266 4a3d 9d9e d4bd 0c1c 21be
00000310: 7d1b 223e 55cb d13d c140 43bb fa07 a03d
00000320: 5d8e 783a 2dba a73d 51e0 37bd 672d 9b3d
00000330: 69d8 01be cde4 893d 9af6 e6bc 1e5d 82bd
00000340: f522 593d f5fa 17bd 6aa3 e03d bb8e c33c
00000350: 61f3 8ebb afa2 00be f5e0 ffbb 61f7 dd3b
00000360: eaa0 4fbd f70a 343b 139a e03d 0baa f9bb
00000370: ad10 25bc 8c1f 003b e50c cd3d d081 6abd
00000380: acf6 193c bff0 37bd 7a32 f5bd 1a9a 98bd
00000390: 4fed 01be 0c9e 0ebd 0cdc 163e 2c14 5f3d
000003a0: 6472 373d 9f1b 27bd b3db 8e3d b814 503d
000003b0: ef0f d1bd 09bf 163d dcae 843d f1b0 9fbd
000003c0: 5309 f63b 2949 97bc 760e c1bc 9987 b6bc
000003d0: cf95 64bd 53da 65bd 8435 823d 63e7 babc
000003e0: a3b7 c23d 3b9d 143e 94a6 083e c014 c43d
000003f0: 9e39 79bd 3e96 423d a0d3 063d 9817 ea3c

critic.2.bias f4 [64]
-0.0069199246 0.056694556 0.024009837 -0.09339535 -0.08157497 0.055437148 0.08891216 0.005677249
0.036883064 -0.08171828 -0.10091449 -0.06341964 0.08637968 0.005270133 -0.07830201 0.08599915
0.069238834 0.011985255 0.05349135 0.014327301 0.009326267 -0.013180009 -0.017489571 -0.090373166
-0.007179026 0.08615276 0.088145494 0.0351776 0.026362514 -0.030827126 0.08650401 -0.007976622
-0.06557837 -0.0029184474 -0.003573414 -0.05970715 -0.0055939937 0.053647667 -0.027692074 -0.08808784
0.054512147 -0.0600352 -0.04036678 -0.04450664 0.08229949 0.012856722 0.023786996 0.05409746
0.020531246 -0.00032434886 0.027146608 0.05396149 -0.099032454 0.0029602977 0.013589444 0.03976428
-0.04771182 -0.0006870625 0.048616428 0.008831381 -0.011904758 0.030035084 0.07408111 0.04121675
00000000: 89c0 e2bb 8d38 683d 47b0 c43c 1046 bfbd
00000010: c710 a7bd 1012 633d 9417 b63d 3708 ba3b
00000020: b212 173d ea5b a7bd 42ac cebd 28e2 81bd
00000030: d4e7 b03d 14b1 ac3b ce5c a0bd 5320 b03d
00000040: 17cd 8d3d ce5d 443c bf19 5b3d 0ebd 6a3c
00000050: 33cd 183c f7f0 57bc 4a46 8fbc 9115 b9bd
00000060: 093e ebbb dc70 b03d a085 b43d 6316 103d
00000070: 33f6 d73c 2b89 fcbc 0429 b13d 61b0 02bc
00000080: f44d 86bd 6c43 3fbb f02f 6abb 7c8f 74bd
00000090: d24d b7bb a8bd 5b3d 7dda e2bc 6667 b4bd
000000a0: 2148 5f3d 78e7 75bd a357 25bd 984c 36bd
000000b0: a38c a83d 00a5 523c f2dc c23c 4c95 5d3d
000000c0: 2531 a83c 5e0d aab9 9062 de3c b906 5d3d
000000d0: 87d1 cabd 8e01 423b 42a6 5e3c dfdf 223d
000000e0: 786d 43bd fc1b 34ba 0522 473d 7fb1 103c
000000f0: 2d0c 43bc 230c f63c d6b7 973d e5d2 283d

critic.4.weight f4 [1, 64]
0.10089305 0.0019144214 0.03736252 0.10343826 0.0062430357 0.003146986 -0.02780674 0.08840512
-0.029380117 -0.26429093 0.08548158 0.06759158 -0.078502566 -0.055373598 0.10695633 -0.0143211605
0.11728628 -0.2708117 -0.097706646 0.23371202 -0.112357 0.12513807 -0.044691812 0.052016024
-0.032133624 0.02749924 -0.05996589 0.062098008 0.107440874 0.10938621 -0.04459801 0.08115878
0.06459142 0.1251993 -0.12794197 0.078693606 0.04116977 0.2365927 -0.07472197 0.044923708
0.23548242 -0.107989006 -0.13312307 -0.047676876 -0.0669843 0.120313376 -0.022817133 -0.05454197
0.05831378 0.048205014 0.014802815 0.26920602 -0.11028287 0.01303367 -0.10940828 -0.085347265
-0.1652128 0.08190486 -0.0019686024 0.100635916 0.11681345 -0.09277583 -0.094020605 0.24360073
00000000: 04a1 ce3d 53ed fa3a 7109 193d 70d7 d33d
00000010: 6192 cc3b aa3d 4e3b f6ca e3bc be0d b53d
00000020: 92ae f0bc 2451 87be f710 af3d 746d 8a3d
00000030: f4c5 a0bd 6dcf 62bd ec0b db3d 4da3 6abc
00000040: ca33 f03d d5a7 8abe 6c1a c8bd 3452 6f3e
00000050: 6d1b e6bd 3224 003e c30e 37bd c10e 553d
00000060: 8c9e 03bd 1646 e13c cb9e 75bd 7b5a 7e3d
00000070: f609 dc3d e105 e03d 67ac 36bd 9336 a63d
00000080: 8248 843d 3f34 003e 3803 03be 1d2a a13d
00000090: a2a1 283d 5b45 723e d507 99bd ec01 383d
000000a0: 4e22 713e 5729 ddbd 6a51 08be d448 43bd
000000b0: 112f 89bd dc66 f63d ffea babc 6767 5fbd
000000c0: 6eda 6e3d 9f72 453d 8287 723c 5fd5 893e
000000d0: fcdb e1bd 2d8b 553c 7311 e0bd 8cca aebd
000000e0: 8b2d 29be bcbd a73d ab03 01bb 341a ce3d
000000f0: e43b ef3d 4101 bebd e08d c0bd 7872 793e

exp_avg f4 [128, 12]
0.0007568798 0.008431954 -0.008927434 0.0033773226 -0.0020122493 -0.0013923851 0.00014231124 -0.001347825
0.0013855131 0.0 -0.0017541473 0.0011694316 -0.000618371 -0.0018926628 0.0014361381 -0.0004422389
0.0007362462 0.000135943 -0.00012113031 0.00029918458 -0.00021318167 0.0 0.00037029586 -0.00024686384
-0.0007635987 -0.006537064 0.0072561502 -0.0023143182 0.0011933161 0.0010128464 -0.00014788347 0.0010834337
-0.0011671396 0.0 0.0013916891 -0.0009277927 -0.0006015206 -0.0046313354 0.004636844 -0.0014500988
0.0011625042 0.0005722455 -0.000116798656 0.0007512112 -0.0007091622 0.0 0.00093604426 -0.00062402955
-0.0004502676 -0.0047487593 0.0052656983 -0.0019162974 0.000978871 0.00081637676 -8.5716456e-05 0.0007688059
-0.0008276942 0.0 0.0009974014 -0.0006649342 0.00035865014 0.005880302 -0.0070053875 0.002457564
-0.00088419695 -0.0010955748 6.7428016e-05 -0.0009734759 0.0011392426 0.0 -0.0012830825 0.0008553883
0.00063866726 0.004245031 -0.0048488076 0.00161703 -0.0006939396 -0.00068913354 0.00012439341 -0.0007028269
0.00079017435 0.0 -0.00091813045 0.0006120869 -0.0003198 -0.005212259 0.0059965556 -0.002497672
0.0012019334 0.0010872332 -5.599713e-05 0.0008273231 -0.0009337064 0.0 0.0011036553 -0.00073577015
0.0008116401 0.008333452 -0.009452134 0.003534756 -0.0016143244 -0.0015204436 0.0001535426 -0.0013538769
0.0015153976 0.0 -0.0017919794 0.0011946529 0.0004490016 0.0033795922 -0.0032582514 0.0010473779
-0.00086721795 -0.00047388577 8.4351486e-05 -0.0005539093 0.00053223915 0.0 -0.0007291764 0.0004861176
1.9776093e-05 0.0019485283 -0.0037399787 0.0013502508 0.0004200649 -0.000727631 1.6102445e-06 -0.00035723846
0.00067164405 0.0 -0.00052474544 0.0003498302 -1.1696345e-05 -0.00067168265 0.0012636315 -0.0004093535
-0.00014984216 0.00019161492 -3.4392763e-06 0.000121384095 -0.00021180428 0.0 0.00015699139 -0.00010466091
-0.00044306135 -0.0040748823 0.0046384167 -0.0016817836 0.00074369 0.0008082587 -8.1046666e-05 0.0006759116
-0.0007852658 0.0 0.0009300824 -0.00062005495 0.00061503885 0.010057562 -0.011809364 0.004402565
-0.0017021548 -0.001785412 0.00011947629 -0.0016252167 0.0018366522 0.0 -0.002091703 0.0013944687
-0.00018403155 -0.0014108844 0.0015682533 -0.00036126998 0.00015938809 0.00019897119 -3.5399564e-05 0.00024887477
-0.00028059693 0.0 0.0003309091 -0.00022060607 0.00017859331 -0.0002424324 0.00022105161 -6.370591e-05
8.502347e-05 -7.159041e-05 3.110037e-05 2.5014457e-05 2.1744601e-05 0.0 -2.2758531e-05 1.51723e-05
-2.8953109e-05 0.0045104283 -0.005382388 0.0022129526 -0.00086447335 -0.0010750999 -1.4915576e-05 -0.000733184
0.0008871644 0.0 -0.0010226822 0.0006817881 -0.00020656397 0.0016738398 -0.0020367324 0.000979962
-0.00040880925 -0.00038675684 -4.209774e-05 -0.00024992455 0.00027966063 0.0 -0.00031566835 0.00021044555
0.00044528136 -0.0028850434 0.0022318459 -0.0010551985 0.0011780855 0.0004150259 9.3456925e-05 0.00042933616
-0.00029674944 0.0 0.000555161 -0.00037010727 0.00047325192 0.003540236 -0.0040719165 0.0013969126
-0.00063584937 -0.00063631317 9.0007445e-05 -0.00058607676 0.000666794 0.0 -0.00077523495 0.0005168233
0.0002854189 0.0033741484 -0.0039809155 0.0015690499 -0.0007162156 -0.00066468265 5.3940785e-05 -0.00053999183
0.00061288197 0.0 -0.00069907604 0.0004660507 -0.0010981987 -0.0043342444 0.0050058006 -0.0016712832
00000000: 5869 463a 2e26 0a3c 5f44 12bc 1256 5d3b
00000010: f1df 03bb b180 b6ba 6239 1539 81a9 b0ba
00000020: 1b9a b53a 0000 0000 6beb e5ba 9d47 993a
00000030: 2d1a 22ba 3a13 f8ba cc3c bc3a 4ddc e7b9
00000040: a500 413a ec8b 0e39 5707 feb8 e0db 9c39
00000050: 8589 5fb9 0000 0000 4524 c239 816d 81b9
00000060: 3e2c 48ba de34 d6bb 00c5 ed3b d1ab 17bb
00000070: 0b69 9c3a 7cc1 843a 2b11 1bb9 0102 8e3a
00000080: b5fa 98ba 0000 0000 5669 b63a 1d37 73ba
00000090: 5daf 1dba 75c2 97bb abf0 973b 3e11 beba
000000a0: 2b5f 983a bf02 163a cdf1 f4b8 eeec 443a
000000b0: 12e7 39ba 0000 0000 de60 753a ea95 23ba
000000c0: e511 ecb9 7b9b 9bbb e18b ac3b 452c fbba
000000d0: 764d 803a 1e02 563a acc2 b3b8 b189 493a
000000e0: 9ef9 58ba 0000 0000 3dbb 823a fb4e 2eba
000000f0: 3509 bc39 8caf c03b 738d e5bb 150f 213b
00000100: 74c9 67ba 6499 8fba 2468 8d38 dd30 7fba
00000110: a352 953a 0000 0000 1b2d a8ba 233c 603a
00000120: 3c6c 273a e719 8b3b bfe2 9ebb 86f2 d33a
00000130: 80e9 35ba f8a6 34ba 9a6f 0239 ea3d 38ba
00000140: b423 4f3a 0000 0000 b1ae 70ba 7574 203a
00000150: d4aa a7b9 99cb aabb c17e c43b fcaf 23bb
00000160: 318a 9d3a 7e81 8e3a 76de 6ab8 b7e0 583a
00000170: fac3 74ba 0000 0000 87a8 903a b3e0 40ba
00000180: 3fc4 543a 0889 083c 20dd 1abc 5da7 673b
00000190: bd97 d3ba 9f49 c7ba 4700 2139 9274 b1ba
000001a0: 4ea0 c63a 0000 0000 dae0 eaba e695 9c3a
000001b0: fa67 eb39 267c 5d3b 6388 55bb 2c48 893a
000001c0: 0356 63ba df73 f8b9 dce5 b038 3934 11ba
000001d0: f785 0b3a 0000 0000 3326 3fba 9add fe39
000001e0: d6e4 a537 c365 ff3a 6e1a 75bb e6fa b03a
000001f0: 283c dc39 7dbe 3eba 941f d835 bc4b bbb9
00000200: 4511 303a 0000 0000 128f 09ba 6a69 b739
00000210: 6b3b 44b7 dc13 30ba 70a0 a53a 7f9e d6b9
00000220: f31e 1db9 3dec 4839 51ce 66b6 978f fe38
00000230: c717 5eb9 0000 0000 0e9e 2439 667d dbb8
00000240: b04a e8b9 9786 85bb dcfd 973b 4b6f dcba
00000250: 31f4 423a 53e1 533a 99f7 a9b8 a92f 313a
00000260: 4cda 4dba 0000 0000 c6d0 733a 2f8b 22ba
00000270: 8f3a 213a 79c8 243c 107c 41bc 6443 903b
00000280: d61a dfba 7c04 eaba 588f fa38 3905 d5ba
00000290: d2bb f03a 0000 0000 f414 09bb 9bc6 b63a
000002a0: 98f8 40b9 6ded b8ba d98d cd3a d668 bdb9
000002b0: 6a21 2739 eca2 5039 fe79 14b8 687b 8239
000002c0: 151d 93b9 0000 0000 de7d ad39 7e52 67b9
000002d0: c744 3b39 7435 7eb9 17ca 6739 da99 85b8
000002e0: a14e b238 cf22 96b8 c571 0238 23d6 d137
000002f0: 2d68 b637 0000 0000 93e9 beb7 888c 7e37
00000300: 54e0 f2b7 37cc 933b be5e b0bb 2f07 113b
00000310: d39d 62ba 5eea 8cba e93d 7ab7 2533 40ba
00000320: 9890 683a 0000 0000 850b 86ba 06ba 323a
00000330: 1899 58b9 be64 db3a b37a 05bb 1172 803a
00000340: 7355 d6b9 a0c5 cab9 1b92 30b8 4e08 83b9
00000350: 6a9f 9239 0000 0000 4a80 a5b9 0cab 5c39
00000360: a774 e939 ff12 3dbb 2944 123b 964e 8aba
00000370: fd69 9a3a d597 d939 4efe c338 8618 e139
00000380: 0995 9bb9 0000 0000 3988 113a f50a c2b9
00000390: cc1e f839 4e03 683b b66d 85bb 9c18 b73a
000003a0: 21af 26ba 41ce 26ba 61c2 bc38 f2a2 19ba
000003b0: cacb 2e3a 0000 0000 2339 4bba 6d7b 073a
000003c0: 47a4 9539 d120 5d3b 5772 82bb 94a8 cd3a
000003d0: 6ac0 3bba 193e 2eba 7a3e 6238 3d8e 0dba
000003e0: d0a9 203a 0000 0000 3342 37ba 4458 f439
000003f0: 6ff1 8fba 4706 8ebb b307 a43b f50e dbba
