policy/PPO_fail/checkpoints/2025-09-25_11-31/ppo_soarm_500.pth (torch, 895383 bytes, 33 tensors)

actor.0.weight f4 [256, 12]
-0.19022895 -0.09518971 -0.2789437 -0.13784868 -0.20518304 -0.28499186 0.12375639 0.22537899
-0.09429684 -0.053299963 -0.28353125 0.051827524 -0.24983004 0.008779108 0.2166533 0.009761534
0.123097636 0.21079555 0.12148009 -0.20943996 0.13691868 -0.21261302 -0.06013034 0.09566868
0.17678204 0.19083914 -0.12376357 -0.16223477 -0.13500094 0.2316359 -0.15701438 -0.19312574
-0.22283942 -0.12006468 0.16629536 0.18465616 0.24274467 -0.040199537 0.12998629 0.13591354
0.2808372 0.109919645 -0.1749529 -0.2872783 -0.16270605 0.22002944 -0.19709884 -0.061962698
0.0016010276 -0.25722033 -0.28198344 -0.18757725 -0.28423947 0.15131289 0.12300426 0.25000712
0.15879743 0.1324221 0.022857174 0.23909907 -0.22373281 0.16848014 0.052983303 -0.19251487
0.07784255 0.16717997 -0.21180296 0.049727507 -0.021639105 0.056060813 -0.28258955 -0.24314767
-0.042476628 0.23601641 0.17011863 -0.10287797 -0.16571382 -0.24452832 -0.02218348 0.029454572
-0.04150255 0.22529101 -0.13754822 0.031510916 -0.025495341 0.13842177 0.08724852 0.11106122
0.13187778 -0.09991583 -0.09244544 -0.105648994 -0.11083249 -0.10859273 0.09064841 -0.25652808
0.23668276 -0.19654045 -0.17168532 -0.07212301 -0.0934748 -0.091118634 -0.1569287 -0.15747002
0.05268579 -0.020225663 0.03977704 -0.03257211 -0.038289465 -0.090265 -0.2134269 -0.23403044
-0.019174067 -0.07875483 0.11590752 0.035520308 -0.03553727 -0.09841047 0.09322601 -0.1662077
0.03966362 0.17730446 -0.19973527 0.26815718 -0.005402427 -0.03957899 -0.21043713 0.22590183
0.031102855 0.22793768 -0.14314206 -0.08917426 -0.2718904 0.2855805 0.23487249 -0.020150464
0.19746694 -0.094931975 0.23008843 -0.20936577 0.04211559 0.05338133 0.09849641 -0.16241124
0.10742932 0.16031863 0.2322093 0.22015426 0.20915796 0.2875678 -0.04657377 0.15184562
-0.026162397 0.07632081 -0.065299734 -0.07292943 0.15075266 -0.051045813 -0.16414098 -0.16848159
-0.11297251 -0.024439096 -0.026095806 0.19330913 -0.2390197 -0.15965573 0.21609513 0.24378993
-0.16998369 -0.15441462 -0.04693598 -0.12889703 0.10553437 0.026446417 -0.2135846 -0.04762336
0.06848105 0.13398482 -0.08071006 -0.13960814 0.15442416 -0.012303738 -0.0017137429 -0.1392199
0.1723839 -0.19867513 0.003243945 -0.09527695 0.03518613 -0.05191379 0.05273373 -0.061444197
-0.08242719 0.025090257 0.08591221 -0.20444672 0.26394835 -0.15698162 -0.21790695 -0.0007711039
0.065435365 0.04156666 0.21224473 0.2210362 -0.073713094 -0.050234072 0.21387225 -0.080201834
-0.21964487 0.23970911 0.26834053 -0.215175 0.020791518 0.054791745 -0.19809467 0.16599846
-0.11059775 0.08686097 -0.25508368 -0.19187824 -0.12850364 0.12852968 -0.22784424 -0.08955539
0.10041906 0.1905234 0.009305655 -0.2046258 0.14003448 -0.15053475 -0.28480196 -0.28185725
-0.04440269 -0.2720936 -0.17184788 -0.20209084 0.008722066 -0.12536317 0.27649772 0.2363822
-0.20995307 -0.069895364 -0.05833616 0.0148317935 0.040246032 0.287615 0.031282574 -0.25822204
-0.25816464 0.116950415 -0.035429783 0.0978427 -0.19981937 0.17761764 0.07926523 0.19284272
00000000: 61cb 42be d3f2 c2bd b5d1 8ebe 3428 0dbe
00000010: 811b 52be 74ea 91be fd73 fd3d c0c9 663e
00000020: b41e c1bd 1051 5abd 022b 91be 1949 543d
00000030: 72d3 7fbe 3fd6 0f3c 5dda 5d3e d7ee 1f3c
00000040: 9d1a fc3d cada 573e 8eca f83d 6e77 56be
00000050: 6934 0c3e 3ab7 59be 3b4b 76bd f1ed c33d
00000060: 5a06 353e 566b 433e c177 fdbd df20 26be
00000070: b03d 0abe f631 6d3e 61c8 20be c1c2 45be
00000080: 0430 64be 79e4 f5bd 5549 2a3e 8116 3d3e
00000090: 0f92 783e 45a8 24bd 201b 053e eb2c 0b3e
000000a0: e5c9 8f3e 8d1d e13d da26 33be 2416 93be
000000b0: 6a9c 26be 664f 613e 47d4 49be 99cc 7dbd
000000c0: 92d9 d13a 62b2 83be 2260 90be 4014 40be
000000d0: d687 91be c4f1 1a3e a8e9 fb3d ef00 803e
000000e0: cb9b 223e a999 073e f83e bb3c 63d6 743e
000000f0: 371a 65be 0f86 2c3e 0505 593d 9e22 45be
00000100: ea6b 9f3d 3a31 2b3e e0e2 58be 12af 4b3d
00000110: 7e44 b1bc 06a0 653d 94af 90be b4fb 78be
00000120: f9fb 2dbd 49ae 713e 9433 2e3e afb1 d2bd
00000130: e2b0 29be a265 7abe 21ba b5bc b74a f13c
00000140: 94fe 29bd b0b2 663e 71d9 0cbe 9711 013d
00000150: 9bdb d0bc 70be 0d3e 5aaf b23d 1174 e33d
00000160: f80a 073e aca0 ccbd 0954 bdbd 805e d8bd
00000170: 25fc e2bd dd65 debd e0a5 b93d a657 83be
00000180: f75c 723e e641 49be 47ce 2fbe 3bb5 93bd
00000190: b76f bfbd 689c babd ebb1 20be d23f 21be
000001a0: 0ecd 573d 4ab0 a5bc 40ed 223d 556a 05bd
000001b0: 6ad5 1cbd dbdc b8bd 958c 5abe ada5 6fbe
000001c0: ef12 9dbc 364a a1bd ec60 ed3d be7d 113d
000001d0: 878f 11bd 6e8b c9bd 47ed be3d 5a32 2abe
000001e0: 5276 223d 4d8f 353e 6787 4cbe e64b 893e
000001f0: d806 b1bb 941d 22bd d57c 57be cf52 673e
00000200: 6acb fe3c 7f68 693e d593 12be ffa0 b6bd
00000210: 3835 8bbe 9b37 923e 6a82 703e 9612 a5bc
00000220: c634 4a3e b26b c2bd 4d9c 6b3e fb63 56be
00000230: 6681 2c3d 62a6 5a3d 7cb8 c93d 224f 26be
00000240: e703 dc3d 912a 243e 46c8 6d3e 1e70 613e
00000250: 812d 563e 163c 933e 23c4 3ebd 6b7d 1b3e
00000260: 8652 d6bc 164e 9c3d debb 85bd 065c 95bd
00000270: e85e 1a3e 6a15 51bd 9314 28be 7086 2cbe
00000280: 225e e7bd 8034 c8bc dfc6 d5bc d4f2 453e
00000290: 95c1 74be cb7c 23be 0b48 5d3e 11a4 793e
000002a0: 3410 2ebe de1e 1ebe f13f 40bd 95fd 03be
000002b0: 6722 d83d 28a6 d83c ecb5 5abe b610 43bd
000002c0: cb3f 8c3d 5133 093e 514b a5bd 70f5 0ebe
000002d0: 5e21 1e3e 9e95 49bc ab9f e0ba a98f 0ebe
000002e0: 6885 303e 7e71 4bbe 5e98 543b 9020 c3bd
000002f0: 551f 103d 8ea3 54bd 53ff 573d e9ac 7bbd
00000300: 96cf a8bd 158a cd3c bef2 af3d 7b5a 51be
00000310: 3d24 873e cabf 20be 0023 5fbe e823 4aba
00000320: fa02 863d cd41 2a3d af56 593e 5057 623e
00000330: e4f6 96bd 3ec2 4dbd 5401 5b3e dc40 a4bd
00000340: 96ea 60be 4e76 753e ee63 893e d656 5cbe
00000350: f952 aa3c 4f6d 603d 54d9 4abe 80fb 293e
00000360: 1381 e2bd 2ae4 b13d 549a 82be bb7b 44be
00000370: 7596 03be 499d 033e 0050 69be d168 b7bd
00000380: 82a8 cd3d 9118 433e bf76 183c 6d89 51be
00000390: 3365 0f3e c825 1abe 90d1 91be 984f 90be
000003a0: 98df 35bd da4f 8bbe e4f8 2fbe e7f0 4ebe
000003b0: ffe6 0e3c 345f 00be 1c91 8d3e 2d0e 723e
000003c0: f0fd 56be 4d25 8fbd e6f1 6ebd 0d01 733c
000003d0: 06d9 243d 4642 933e 2822 003d ae35 84be
000003e0: 282e 84be b383 ef3d d21e 11bd c161 c83d
000003f0: 739d 4cbe 66e1 353e cf55 a23d 9078 453e

actor.0.bias f4 [256]
-0.093069755 -0.24626732 -0.26094243 -0.039136752 0.18274942 -0.28934982 0.23990233 -0.17174776
-0.07036424 0.10745097 0.028568992 -0.18297893 0.17478643 -0.015298087 -0.12180235 -0.1329017
-0.123018116 -0.18261665 0.1965236 0.13739009 -0.013482048 0.14402492 -0.07706755 -0.25902942
-0.19213541 0.008297115 -0.24635774 -0.057314154 0.27224463 -0.19559291 -0.047994204 0.21337192
-0.275575 0.13671893 0.068115525 -0.06849279 0.177631 -0.22657304 -0.015427121 -0.09581741
0.09178455 0.059815932 0.0020227581 -0.10995406 0.21537264 -0.14505626 0.19760914 -0.14538728
0.21439192 -0.1622223 -0.021976102 0.017750472 0.18471666 0.06845452 0.17430475 -0.24831368
-0.042237114 0.22933269 0.22424667 -0.11112032 0.21963748 0.047532525 -0.096545495 0.072372235
0.07454237 0.25483018 0.1962916 -0.25576276 -0.15045902 -0.18125054 0.1528345 -0.051551953
-0.18019381 0.094035104 -0.28047338 0.20484841 0.2199111 0.1731617 0.2170976 -0.18775871
-0.011224654 -0.100332186 -0.15042058 -0.22569127 0.103183016 -0.11126365 -0.091268145 -0.08145533
0.14660169 -0.05936391 0.118021324 -0.037471715 -0.105164856 0.0819478 -0.23550037 -0.20435002
0.16487135 -0.01582578 -0.04481277 -0.04011781 -0.010246688 -0.0653347 0.2594901 -0.2818829
-0.090637915 -0.16169706 0.028914241 -0.12330417 -0.17282093 -0.23156384 -0.07591877 -0.2599584
-0.006447143 -0.045752905 0.21520194 0.27168518 0.0030977938 -0.2631323 0.19346334 -0.19581297
-0.23448819 -0.026464589 -0.025042344 0.21092424 -0.22682196 -0.1673955 -0.2621753 -0.25736636
0.03865336 0.21610565 0.20078541 -0.18841757 -0.010632222 0.05213653 0.21083562 0.22103329
-0.26164964 -0.17608818 0.114478074 -0.18316486 -0.26930982 0.26507446 0.014951427 -0.038483594
0.16357565 -0.10291077 -0.09213026 -0.04207787 -0.12647384 0.28283492 0.21304001 0.01829711
0.021692334 -0.06501906 0.021310333 0.1462614 -0.13500403 -0.11060306 0.28562862 0.028407207
0.11052402 -0.06395715 0.13573514 0.06184256 0.20397548 -0.2711822 0.08488957 -0.28131396
0.19977047 -0.28902152 -0.113548055 -0.109455466 0.25573993 0.056352504 0.14311914 -0.24740908
0.07662165 -0.099790625 -0.09952895 -0.13225488 0.050166745 -0.26368916 -0.19005224 0.22372867
0.03959127 -0.22827145 -0.061057165 0.121622704 0.16217789 -0.20520759 -0.28029925 -0.063868806
0.07962495 0.11045591 0.08593382 -0.14507596 -0.21027586 -0.1554045 -0.114185914 0.028402843
-0.22553883 0.080239296 0.17007957 0.12459869 0.14641078 -0.08271833 0.025538376 -0.16563945
-0.1280774 0.2786509 0.23718242 -0.28039375 -0.114127725 -0.06968648 -0.08213407 0.0925552
0.19413048 -0.002010173 -0.2689796 0.23217234 -0.23328203 0.09380438 -0.26762164 0.039048463
-0.006183375 0.2187163 -0.24540335 -0.15357457 -0.0128054125 0.04712185 0.2270896 0.10233565
0.13125525 -0.055642903 -0.07772655 -0.036757674 0.16255261 -0.0028918614 -0.06853173 0.25431383
0.08883923 -0.05935918 -0.16951945 0.1396175 0.19468494 0.0018149418 0.2011093 0.105286635
0.23441204 0.03580296 -0.17818269 0.15412763 -0.05498024 0.18637331 0.19062284 -0.10100449
00000000: 5b9b bebd 802d 7cbe 3f9a 85be dc4d 20bd
00000010: aa22 3b3e a925 94be f5a8 753e a5de 2fbe
00000020: 201b 90bd 410f dc3d 8509 ea3c d45e 3bbe
00000030: 37fb 323e d4a4 7abc 8373 f9bd 6217 08be
00000040: ecf0 fbbd dcff 3abe 7c3d 493e fdaf 0c3e
00000050: cfe3 5cbc 457b 133e 97d5 9dbd 819f 84be
00000060: 25bf 44be 9ff0 073c 3445 7cbe 3fc2 6abd
00000070: a663 8b3e 8249 48be 9295 44bd 2b7e 5a3e
00000080: 2b18 8dbe 0c00 0c3e 2780 8b3d f345 8cbd
00000090: e7e4 353e c302 68be 09c2 7cbc eb3b c4bd
000000a0: 8af9 bb3d 8d01 753d 4090 043b 982f e1bd
000000b0: a58a 5c3e a189 14be 0d5a 4a3e 67e0 14be
000000c0: 8e89 5b3e 9a1d 26be 3a07 b4bc 7069 913c
000000d0: 5d26 3d3e e231 8c3d f27c 323e f145 7ebe
000000e0: d300 2dbd 30d6 6a3e eba0 653e 0d93 e3bd
000000f0: a6e8 603e 77b1 423d a5b9 c5bd e537 943d
00000100: aca9 983d 1a79 823e aa00 493e 56f3 82be
00000110: ee11 1abe be99 39be a680 1c3e 2428 53bd
00000120: ba84 38be 7a95 c03d 359a 8fbe c8c3 513e
00000130: 6030 613e 4d51 313e d54e 5e3e d243 40be
00000140: 9ce7 37bc f67a cdbd da07 1abe 9d1b 67be
00000150: 9e51 d33d 32de e3bd cbea babd 0dd2 a6bd
00000160: c11e 163e 9227 73bd 2ab5 f13d f17b 19bd
00000170: ac60 d7bd 40d4 a73d 0227 71be 2241 51be
00000180: 09d4 283e 11a5 81bc 988d 37bd 9352 24bd
00000190: b9e1 27bc 33ce 85bd e3db 843e f552 90be
000001a0: 5fa0 b9bd ea93 25be 8fdd ec3c e686 fcbd
000001b0: f8f7 30be 121f 6dbe 4d7b 9bbd 4419 85be
000001c0: 8e42 d3bb 6667 3bbd e65d 5c3e 521a 8b3e
000001d0: 5b04 4b3b 47b9 86be 411b 463e 3283 48be
000001e0: ac1d 70be 44cc d8bc 9a25 cdbc 86fc 573e
000001f0: 0444 68be ba69 2bbe d73b 86be 86c5 83be
00000200: fc52 1e3d cd4a 5d3e b19a 4d3e 89f0 40be
00000210: c532 2ebc 1d8d 553d 4be5 573e 8d56 623e
00000220: f1f6 85be 7650 34be 7b73 ea3d 928f 3bbe
00000230: fae2 89be d7b7 873e d4f6 743c f9a0 1dbd
00000240: 6080 273e e2c2 d2bd caae bcbd d859 2cbd
00000250: 5c82 01be bdcf 903e 2927 5a3e d2e3 953c
00000260: 1fb4 b13c b728 85bd 0293 ae3c 8cc5 153e
00000270: 7f3e 0abe db83 e2bd ea3d 923e 3bb6 e83c
00000280: 6b5a e23d f7fb 82bd 27fe 0a3e a04e 7d3d
00000290: f3de 503e 65d8 8abe 95da ad3d 6208 90be
000002a0: a190 4c3e a1fa 93be e28b e8bd 302a e0bd
000002b0: 58f0 823e e2d1 663d d38d 123e ce58 7dbe
000002c0: d0eb 9c3d 075f ccbd d6d5 cbbd d36d 07be
000002d0: a57b 4d3d 4402 87be 0e9d 42be 2119 653e
000002e0: 752a 223d febf 69be 1417 7abd 5315 f93d
000002f0: f611 263e f021 52be 6283 8fbe a6cd 82bd
00000300: 6812 a33d b536 e23d 12fe af3d cb8e 14be
00000310: 8e52 57be 5b22 1fbe 4eda e9bd 14ad e83c
00000320: a7f3 66be 8054 a43d 5729 2e3e 992d ff3d
00000330: b5ec 153e 3a68 a9bd db35 d13c 639d 29be
00000340: b926 03be 55ab 8e3e f3df 723e c58f 8fbe
00000350: ccbb e9bd c9b7 8ebd e835 a8bd 958d bd3d
00000360: 24ca 463e 1bbd 03bb b2b7 89be 96be 6d3e
00000370: 7ce1 6ebe 831c c03d b405 89be 48f1 1f3d
00000380: e99d cabb 2af7 5f3e 044b 7bbe a742 1dbe
00000390: cbcd 51bc d702 413d 2d8a 683e 5a95 d13d
000003a0: c767 063e d0e9 63bd 192f 9fbd 378f 16bd
000003b0: 3174 263e 6285 3dbb 5d5a 8cbd 6c35 823e
000003c0: 58f1 b53d 9d22 73bd 8296 2dbe e4f7 0e3e
000003d0: 7d5b 473e 57e3 ed3a 99ef 4d3e 85a0 d73d
000003e0: b609 703e 20a6 123d 8675 36be a2d3 1d3e
000003f0: f632 61bd a5d8 3e3e a232 433e 71db cebd

actor.2.weight f4 [128, 256]
0.059637427 -0.028016264 -0.048604593 -0.053845424 0.037513603 -0.029220287 0.046534073 0.005978946
0.0155948065 -0.030311456 -0.04818143 -0.047654565 0.029433757 -0.018666957 -0.018753733 -0.06608741
0.03563129 -0.00040656628 0.054306988 -0.05977351 -0.00014852373 0.04751558 -0.0038819138 0.0461205
0.03586818 -0.023336628 -0.016048653 -0.006526917 0.055511013 -0.028137913 0.05359776 0.018218178
0.011831808 -0.043201007 -0.019636229 0.041120216 -0.014435155 0.001522271 -0.016529003 -0.006258725
0.051202487 0.022884747 -0.013598459 -0.03503742 -0.055467118 -0.037326798 0.051476184 -0.0009497752
-0.0105339065 -0.027449777 -0.048539534 -0.05161544 0.005476047 -0.003392466 -0.030992564 0.02334477
0.016711839 -0.018917596 -0.051085588 -0.0027920008 0.054277383 -0.035507683 -0.020359887 0.056408364
0.010420678 0.013041892 0.027237661 -0.052582525 -0.05532124 -0.023496363 0.019307537 -0.05540732
-0.053671703 0.047901653 -0.04474161 0.008088333 0.03858368 0.03201567 0.03398038 0.01657098
-0.0063064154 0.033688225 -0.033949506 0.0028848613 0.011558807 -0.04478517 0.027782392 0.027823001
-0.060722448 0.06052724 -0.0487036 -0.01538288 -0.017904077 0.046916872 -0.020228123 -0.017762449
0.055313066 -0.016811162 0.031185681 0.067767434 0.0053207222 0.0016938624 0.039252777 0.038903818
0.050029065 0.07110541 0.058004536 -0.028780872 -0.025289586 0.031365808 -0.02593143 0.024995241
-0.017126597 0.062425945 -0.039344043 -0.04365771 0.0016813284 -0.055281598 0.043609053 -0.053173766
-0.051583853 0.060477823 -0.027426524 -0.02147371 0.049847726 -0.062144965 0.053966437 -0.027510183
0.059531823 -0.043156404 -0.027203646 -0.05488617 0.012014506 -0.042668168 0.007968675 -0.012304276
-0.02988649 0.035098776 -0.049432684 -0.033726383 -0.037211046 0.0071281116 0.037276477 0.0270189
0.046871845 -0.03217514 -0.023782028 -0.01352743 0.035291042 0.016054146 0.013774442 -0.031833414
0.00021420197 0.06574514 -0.005742297 0.015297968 0.02605495 0.05098741 -0.028139865 -0.011360699
0.030835316 0.054221824 0.018465381 -0.04698557 -0.030741869 0.05533321 0.0045107193 0.055561256
0.053700194 -0.0076740487 -0.014830306 -0.0014561743 -0.0032521717 0.043283828 0.014444267 0.023492357
-0.020537628 0.021417411 0.03672128 -0.031299174 -0.01644556 -0.01756271 0.042899363 0.030796416
-0.046441775 -0.0068343356 -0.019539589 0.044554666 0.048222583 -0.029972054 0.012231055 0.05251965
-0.059848074 -0.0010333176 0.05016153 -0.03931672 0.057900235 -0.03624917 0.00046757545 0.06904288
-0.046175975 0.049837835 -0.008475176 -0.015854469 0.06642183 -0.032671038 -0.0708824 -0.034611057
0.0148631865 -0.05134815 0.029437615 -0.010977291 -0.041465588 0.042532995 -0.00957337 0.00014829924
0.042681955 0.0061715436 0.04192653 0.03933209 -0.03153079 -0.03369346 -0.008705119 0.055995524
0.0521076 0.016322987 0.06233771 0.02124141 -0.050428 -0.00062456547 0.054128356 0.0071408176
0.013589999 -0.03832719 -0.011765016 -0.061685733 0.028414141 0.0040246006 0.044135604 0.021419998
0.013909721 -0.0025504257 0.016024837 0.059672564 -0.0025144075 -0.0058774077 -0.040441833 -0.024991019
-0.018717235 -0.05024195 0.018403284 0.02977385 0.055487074 -0.005779065 -0.05684913 -0.017712777
00000000: 6046 743d 5d82 e5bc 9c15 47bd 058d 5cbd
00000010: dda7 193d 625f efbc 839a 3e3d 09eb c33b
00000020: 5c81 7f3c bb4f f8bc e459 45bd 6f31 43bd
00000030: 101f f13c 72eb 98bc 6ea1 99bc d658 87bd
00000040: 1ef2 113d 6728 d5b9 0171 5e3d 11d5 74bd
00000050: 09bd 1bb9 b29f 423d b567 7ebb d9e8 3c3d
00000060: 83ea 123d 752c bfbc 7778 83bc c0df d5bb
00000070: 845f 633d 7b81 e6bc 5389 5b3d 4a3e 953c
00000080: 33da 413c 8af3 30bd 28dc a0bc ac6d 283d
00000090: 6e81 6cbc f086 c73a d567 87bc fe15 cdbb
000000a0: b3b9 513d cb78 bb3c 12cc 5ebc 6683 0fbd
000000b0: 7d31 63bd fce3 18bd b1d8 523d 56fa 78ba
000000c0: 6896 2cbc 5bde e0bc 64d1 46bd b66a 53bd
000000d0: 6970 b33b 2354 5ebb 1ee4 fdbc 883d bf3c
000000e0: 44e7 883c 13f9 9abc 1f3f 51bd 00fa 36bb
000000f0: f651 5e3d 8170 11bd c7c9 a6bc 750c 673d
00000100: 7ebb 2a3c a9ad 553c 8421 df3c c660 57bd
00000110: 8698 62bd 727b c0bc d72a 9e3c c9f2 62bd
00000120: dcd6 5bbd 8634 443d fa42 37bd ed84 043c
00000130: ec09 1e3d dd22 033d 032f 0b3d ddbf 873c
00000140: 0ca6 cebb aafc 093d a30e 0bbd f10f 3d3b
00000150: 2761 3d3c a870 37bd e697 e33c 10ed e33c
00000160: 1ab8 78bd 69eb 773d 6d7d 47bd 7a08 7cbc
00000170: 92ab 92bc e82b 403d 73b5 a5bc 8e82 91bc
00000180: f48f 623d 90b7 89bc 1d79 ff3c a7c9 8a3d
00000190: 7459 ae3b 9704 de3a 85c7 203d 9c59 1f3d
000001a0: 47eb 4c3d b79f 913d 2a96 6d3d ddc5 ebbc
000001b0: 1b2c cfbc 6f79 003d 266e d4bc d2c2 cc3c
000001c0: 144d 8cbc 59b2 7f3d 3827 21bd 6dd2 32bd
000001d0: 0560 dc3a f56e 62bd 689f 323d bccc 59bd
000001e0: 9749 53bd 98b7 773d 97ad e0bc a2e9 afbc
000001f0: 212d 4c3d b88b 7ebd e90b 5d3d 095d e1bc
00000200: a4d7 733d c5c4 30bd 2eda debc 52d0 60bd
00000210: 7ed8 443c d1c4 2ebd 0c8f 023c e097 49bc
00000220: 83d4 f4bc bcc3 0f3d ed79 4abd ad24 0abd
00000230: 9c6a 18bd ef92 e93b 38af 183d bd56 dd3c
00000240: b1fc 3f3d 14ca 03bd 87d2 c2bc 27a2 5dbc
00000250: 578d 103d fc83 833c 32ae 613c c163 02bd
00000260: 679b 6039 63a5 863d e129 bcbb 54a4 7a3c
00000270: 3171 d53c 2dd8 503d 9385 e6bc 3a22 3abc
00000280: 589a fc3c b417 5e3d b644 973c f173 40bd
00000290: 5fd6 fbbc 13a5 623d a8ce 933b 3394 633d
000002a0: bcf4 5b3d 9676 fbbb d0fa 72bc 1add beba
000002b0: 6322 55bb 624a 313d a6a7 6c3c 0b73 c03c
000002c0: 873e a8bc 9173 af3c 0e69 163d 9033 00bd
000002d0: d7b8 86bc acdf 8fbc 3eb7 2f3d c448 fc3c
000002e0: bb39 3ebd 90f2 dfbb 7d11 a0bc f47e 363d
000002f0: 0b85 453d f487 f5bc c364 483c d81e 573d
00000300: 4123 75bd 6370 87ba 2d76 4d3d 920a 21bd
00000310: cc28 6d3d 027a 14bd ea24 f539 5a66 8d3d
00000320: 0523 3dbd c222 4c3d 77db 0abc 3be1 81bc
00000330: 2b08 883d 11d2 05bd cb2a 91bd 53c4 0dbd
00000340: b984 733c 7052 52bd 2727 f13c 18da 33bc
00000350: d2d7 29bd 1437 2e3d a0d9 1cbc c680 1b39
00000360: 46d3 2e3d a93a ca3b 27bb 2b3d b01a 213d
00000370: 6e26 01bd 2702 0abd ea9f 0ebc 905b 653d
00000380: c76e 553d c9b7 853c d455 7f3d 7702 ae3c
00000390: 978d 4ebd e1b9 23ba b2b5 5d3d 85fd e93b
000003a0: 96a8 5e3c f9fc 1cbd 0ec2 40bc 2eaa 7cbd
000003b0: c6c4 e83c cce0 833b 89c7 343d fe78 af3c
000003c0: 99e5 633c 0b25 27bb 8546 833c 386b 743d
000003d0: c2c8 24bb 4597 c0bb 56a6 25bd f7b9 ccbc
000003e0: e354 99bc 81ca 4dbd 7cc2 963c 4ae8 f33c
000003f0: 6a46 633d 505e bdbb a2da 68bd 631a 91bc

actor.2.bias f4 [128]
0.055105448 -0.048382435 -0.008564736 -0.060174804 -0.008527231 0.062267635 0.01022022 -0.019033538
-0.012934368 0.006221387 -0.0128605645 -0.03718135 0.0239768 -0.032695755 -0.0342177 -0.023633497
-0.024377966 -0.0014109748 -0.025254285 -0.007522226 0.056225337 -0.012061464 -0.005073427 -0.016284255
0.026780881 0.017088326 0.02313004 0.016729522 0.01572131 -0.02718271 -0.05597879 0.008480623
0.04511393 0.05487861 -0.05676233 0.03026019 0.014568544 -0.044185173 -0.0072551896 0.005884041
-0.023410197 0.013311417 -0.05708575 0.0009011782 0.026684057 -0.017198356 -0.0042947815 0.009746239
-0.033477042 0.026526257 -0.056431144 -0.004599225 -0.017803436 0.042124074 -0.0073008025 -0.054569535
0.05975224 -0.05815885 -0.019541636 0.020989243 -0.059422947 -0.046799157 0.039379526 -0.038483754
-0.008671056 0.035931252 -0.0038337186 0.029142313 0.049356714 -0.013195654 0.011629341 0.047661696
-0.025694357 -0.054962244 0.04281853 0.041593276 -0.030825118 0.061513666 -0.05274215 -0.0053914967
0.045336377 0.0064367936 -0.03119804 -0.0021603922 -0.029223442 -0.03774496 -0.012455373 -0.03322719
-0.0119121615 -0.043739703 -0.06990594 0.011150534 0.058124404 0.009482594 0.0063999244 0.031739
-0.052742273 0.0025534998 0.010923336 0.009977244 -0.010641789 -0.0035383909 0.052786242 -0.051701486
-0.036666065 -0.061131634 0.025883954 0.058731355 -0.016090551 0.020588381 -0.03147903 -0.06468562
-0.029446632 0.057442974 0.024183527 0.021856826 0.045725457 -0.036879085 -0.04171568 0.004320357
-0.058980864 -0.011231565 -0.05453371 -0.034768958 -0.028739309 -0.032154743 0.050258547 0.011090038
00000000: 40b6 613d a92c 46bd 1b53 0cbc db79 76bd
00000010: cdb5 0bbc 590c 7f3d b672 273c 39ec 9bbc
00000020: acea 53bc c7dc cb3b 1eb5 52bc 794b 18bd
00000030: fe6a c43c fceb 05bd dc27 0cbd 099b c1bc
00000040: 4db4 c7bc 75f0 b8ba 13e2 cebc 017d f6bb
00000050: 8a4c 663d 729d 45bc fe3e a6bb 8f66 85bc
00000060: 9463 db3c d1fc 8b3c 367b bd3c 5a0c 893c
00000070: fac9 803c 46ae debc 044a 65bd 50f2 0a3c
00000080: 62c9 383d 65c8 603d 9e7f 68bd 38e4 f73c
00000090: e7b0 6e3c 83fb 34bd f1bc edbb eace c03b
000000a0: bec6 bfbc 2118 5a3c bfd2 69bd 0c3d 6c3a
000000b0: 8698 da3c 91e3 8cbc 3dbb 8cbb b0ae 1f3c
000000c0: 391f 09bd 984d d93c 5824 67bd 18b5 96bb
000000d0: 83d8 91bc 4b8a 2c3d 923b efbb 4e84 5fbd
000000e0: c4be 743d f937 6ebd c815 a0bc a2f1 ab3c
000000f0: 7a65 73bd 79b0 3fbd 6d4c 213d 24a1 1dbd
00000100: 0b11 0ebc a62c 133d 203f 7bbb dcbb ee3c
00000110: 442a 4a3d 9632 58bc fe88 3e3c e938 433d
00000120: f97c d2bc 1720 61bd 7c62 2f3d b65d 2a3d
00000130: f584 fcbc c1f5 7b3d 2708 58bd 27ab b0bb
00000140: a3b2 393d bdeb d23b 0893 ffbc 5e95 0dbb
00000150: 0066 efbc 769a 1abd 9f11 4cbc 3c19 08bd
00000160: 3a2b 43bc 6728 33bd d82a 8fbd bbb0 363c
00000170: db13 6e3d e25c 1b3c 75b6 d13b c100 023d
00000180: 4808 58bd 9e58 273b cbf7 323c 9877 233c
00000190: e65a 2ebc 59e4 67bb 6336 583d f0c4 53bd
000001a0: 282f 16bd 2a65 7abd 960a d43c 4a90 703d
000001b0: 55d0 83bc f7a8 a83c 28f0 00bd e579 84bd
000001c0: 103a f1bc 5349 6b3d 881c c63c 160d b33c
000001d0: 9e4a 3b3d 860e 17bd 10de 2abd c891 8d3b
000001e0: eb95 71bd 9904 38bc bd5e 5fbd e569 0ebd
000001f0: b36e ebbc b1b4 03bd e8db 4d3d feb2 353c

actor.4.weight f4 [6, 128]
0.077198796 -0.028760675 0.014682371 -0.0016109466 0.03862532 0.05509196 -0.018800095 -0.037137013
-0.0042907624 -0.028617648 0.055896237 0.014513255 0.020662807 -0.008828864 -0.025214622 -0.0059047146
0.03207454 -0.0089405775 0.045355104 0.0005857075 -0.049622662 0.07059033 0.026081117 -0.057387326
0.056898024 0.060494173 -0.038870383 0.05320533 -0.026150666 0.003230284 -0.064046435 0.051371906
0.037641406 0.015289726 -0.065930545 -0.063613616 0.06964554 -0.009221287 -0.03342053 0.04984139
0.0014585791 -0.0021037455 0.027759423 0.03560108 -0.06653368 0.053549178 -0.06780831 -0.0083570955
0.057700306 -0.027737223 0.008731159 -0.062364165 0.035963133 -0.08408747 -0.029906116 0.031322382
-0.024924936 -0.047037523 -0.018687934 -0.011074094 0.04782544 -0.06063016 0.02018021 0.032539606
0.05630688 0.036131285 -0.016226502 -0.07458127 0.015488297 0.016624449 0.03134739 -0.047425732
0.07235983 0.010434238 0.056663986 0.009242167 -0.028410895 -0.026322464 -0.027989432 0.05339751
-0.037443336 0.04511048 -0.028450783 0.06424634 -0.035557188 -0.024766669 0.050208997 -0.075556226
0.0836867 -0.035666782 0.06836079 -0.042993687 0.038064457 -0.0032495293 -0.018579215 -0.078918844
-0.030375207 -0.01858641 0.040708993 0.07600458 0.015976274 0.014137303 0.025487408 -0.0029997185
0.07280227 0.08164083 -0.03111354 0.053212684 0.025736203 0.049427032 -0.00723564 0.06218431
-0.012175783 0.0842118 -0.01360466 -0.046232942 0.0617546 0.0055680126 0.046977933 -0.04465132
-0.021533139 0.061740182 0.013696547 0.03071066 0.0052017327 0.058405258 -0.035276737 -0.06272514
-0.015548012 -0.056484077 -0.01303872 0.06452021 -0.055042528 -0.054309152 -0.068139456 -0.032648586
-0.025984842 0.06612983 0.061337892 -0.017564114 -0.06951966 -0.02323201 -0.0749408 0.04569643
-0.032328986 -0.08721218 0.016157813 -0.0016374022 -0.03194017 0.039915223 -0.01045527 -0.0011678556
-0.059108812 -0.077839635 0.02773572 -0.081220284 0.07201484 -2.2883281e-05 0.04727045 -0.015275751
0.019088963 0.088612035 0.013823665 0.047074024 0.062183216 -0.03758061 0.01797326 0.037685487
-0.042676557 -0.077062815 0.06537119 -0.08273152 -0.03689305 0.052175943 -0.0877232 -0.029764274
-0.08024611 -0.08933168 -0.03649113 -0.0806054 0.05661947 -0.06223938 -0.013179284 0.056112707
-0.061724536 -0.08195288 -0.028936926 -0.034876842 0.087013096 -0.026339214 -0.01731341 -0.04029825
0.012079602 0.05808411 -0.043387983 0.0020705566 -0.07482725 0.040592086 0.04255891 -0.07638161
-0.078330964 -0.03614094 -0.057124607 0.009513338 -0.018867128 -0.014321604 -0.012509486 0.05578081
0.013718214 0.049139272 0.059215683 -0.032041185 0.063775 -0.063631296 0.078002535 0.028092183
-0.003712127 0.004106818 -0.035858 -0.080093734 -0.0835246 -0.07935025 0.08146131 -0.0517504
0.009751886 0.027729735 -0.027550178 -0.052017614 0.004715214 -0.040793896 0.0593733 0.014604982
0.0063783573 0.016226204 -0.03173055 0.045441806 -0.04233868 0.06441617 0.08558581 -0.0022601224
-0.08177278 -0.057745025 -0.062484626 0.024174057 0.036461018 0.009692525 0.004493304 0.029057644
-0.039955936 0.0018548737 -0.001974424 0.06095764 -0.07675685 0.073201545 -0.0483986 0.045986593
00000000: 671a 9e3d 829b ebbc 548e 703c 6626 d3ba
00000010: 9535 1e3d 1ba8 613d a802 9abc fb1c 18bd
00000020: 8699 8cbb 8f6f eabc 74f3 643d 01c9 6d3c
00000030: 0c45 a93c f1a6 10bc e58e cebc 567c c1bb
00000040: 9860 033d 807b 12bc 46c6 393d 2a8a 193a
00000050: 2241 4bbd aa91 903d 11a8 d53c f90e 6bbd
00000060: e70d 693d bdc8 773d 8d36 1fbd d5ed 593d
00000070: ec39 d6bc 2cb3 533b c72a 83bd 596b 523d
00000080: e02d 1a3d c281 7a3c 9806 87bd db47 82bd
00000090: 52a2 8e3d e214 17bc f7e3 08bd 7c26 4c3d
000000a0: cb2d bf3a fede 09bb bb67 e33c 70d2 113d
000000b0: cf42 88bd 6256 5b3d 15df 8abd 33ec 08bc
000000c0: 2857 6c3d 2c39 e3bc 230d 0f3c 9171 7fbd
000000d0: 144e 133d 0d36 acbd acfd f4bc e64b 003d
000000e0: 612f ccbc 6baa 40bd 7017 99bc 1e70 35bc
000000f0: 9ce4 433d 5557 78bd f850 a53c 4048 053d
00000100: 0ba2 663d 66fe 133d 71ed 84bc 11be 98bd
00000110: a0c2 7d3c ff2f 883c 1f66 003d 7c41 42bd
00000120: 6431 943d 5ef4 2a3c 7f18 683d 756c 173c
00000130: f7bd e8bc 35a2 d7bc 184a e5bc 59b7 5a3d
00000140: 2f5e 19bd c4c5 383d 9e11 e9bc 9693 833d
00000150: 6aa4 11bd 78e3 cabc f3a7 4d3d 39bd 9abd
00000160: ef63 ab3d 5517 12bd be00 8c3d 261a 30bd
00000170: 7ae9 1b3d 0ef6 54bb 7033 98bc 34a0 a1bd
00000180: 6dd5 f8bc 8742 98bc 79be 263d 4aa8 9b3d
00000190: ade0 823c 26a0 673c f8ca d03c ed96 44bb
000001a0: 5b19 953d 4f33 a73d d3e1 febc 8bf5 593d
000001b0: bbd4 d23c 0074 4a3d f318 edbb fab4 7e3d
000001c0: ef7c 47bc 3c77 ac3d 14e6 5ebc c15e 3dbd
000001d0: 64f2 7c3d e073 b63b ef6b 403d 4de4 36bd
000001e0: 4466 b0bc 46e3 7c3d 7b67 603c ec94 fb3c
000001f0: 4c73 aa3b 5a3a 6f3d 577e 10bd 0a76 80bd
00000200: 17bd 7ebc d95b 67bd 5ba0 55bc 2c23 843d
00000210: 4674 61bd 4673 5ebd b38c 8bbd 86ba 05bd
00000220: 2ade d4bc 146f 873d 713d 7b3d 9ee2 8fbc
00000230: 5360 8ebd 0e51 bebc 907a 99bd 2e2c 3b3d
00000240: 666b 04bd 4d9c b2bd 645d 843c 1a9e d6ba
00000250: b2d3 02bd 257e 233d 954c 2bbc bb12 99ba
00000260: 151c 72bd 636a 9fbd 0536 e33c d256 a6bd
00000270: 847c 933d 79f5 bfb7 a99e 413d 2547 7abc
00000280: 7560 9c3c 3a7a b53d a77c 623c b1d0 403d
00000290: d4b3 7e3d 20ee 19bd a83c 933c 195c 1a3d
000002a0: 9dcd 2ebd 1cd3 9dbd 55e1 853d 256f a9bd
000002b0: 2b1d 17bd 71b6 553d 39a8 b3bd 35d4 f3bc
000002c0: 1358 a4bd 87f3 b6bd b977 15bd 7214 a5bd
000002d0: d1e9 673d b8ee 7ebd eced 57bc 70d6 653d
000002e0: ded2 7cbd e9d6 a7bd 220d edbc 05db 0ebd
000002f0: ec33 b23d 56c5 d7bc dad4 8dbc c70f 25bd
00000300: 86e9 453c 9be9 6d3d 99b7 31bd 2db2 073b
00000310: 073f 99bd e343 263d 4052 2e3d f66d 9cbd
00000320: fc6b a0bd 8608 14bd 7efb 69bd d5dd 1b3c
00000330: 3c8f 9abc 29a5 6abc 96f4 4cbc 6b7a 643d
00000340: 5cc2 603c 4346 493d 258c 723d 9e3d 03bd
00000350: 789c 823d 2051 82bd cbbf 9f3d 9421 e63c
00000360: 2847 73bb 7d92 863b d7df 12bd 2f08 a4bd
00000370: f20e abbd 6282 a2bd 30d5 a63d 3af8 53bd
00000380: 60c6 1f3c 7829 e33c e9b0 e1bc 6c10 55bd
00000390: 1582 9a3b 8017 27bd 6b31 733d bc49 6f3c
000003a0: 8a01 d13b d1ec 843c e5f7 01bd 3021 3a3d
000003b0: 536b 2dbd a0ec 833d 9d47 af3d 901e 14bb
000003c0: 7d78 a7bd 0c86 6cbd e1ef 7fbd ac08 c63c
000003d0: 2658 153d 65cd 1e3c 913c 933b 4c0a ee3c
000003e0: d6a8 23bd 3c1f f33a 5765 01bb b8ae 793d
000003f0: b232 9dbd b1ea 953d 9c3d 46bd 705c 3c3d

actor.4.bias f4 [6]
0.07679898 -0.03436916 0.019769115 0.04997947 0.008766279 -0.062100586
00000000: c948 9d3d adc6 0cbd d7f2 a13c 46b7 4c3d
00000010: 70a0 0f3c 2f5d 7ebd

critic.0.weight f4 [256, 12]
0.14716843 -0.22021115 -0.1811823 -0.273922 -0.2225853 0.13968846 8.8764966e-05 0.06302606
0.15876976 -0.043370366 -0.19378072 0.25246555 -0.09401095 0.015659416 0.2594189 -0.22263007
0.10908535 0.051050823 -0.20177014 -0.18217719 -0.1949571 -0.29085797 0.18448357 0.15397853
-0.1975085 0.15964971 -0.19720179 -0.20923895 0.047994155 0.17526539 -0.028610371 -0.2034569
-0.30523 -0.027001115 -0.13822356 -0.31573284 -0.12856707 0.009745741 -0.26975727 -0.09907198
0.26390338 0.1726977 0.12783827 0.1429509 -0.052649148 0.103183836 0.1625499 -0.104233794
0.11272207 0.22889835 -0.26972252 -0.030023348 -0.1428326 0.08013845 0.020592691 -0.017749514
-0.002244742 0.1261385 -0.12213523 -0.006030142 -0.096460275 -0.10641986 0.25555855 0.1847542
-0.04424112 0.10797047 0.20298098 0.16286701 0.11084026 -0.2524211 0.15762943 -0.3196893
-0.075764745 -0.062287517 0.25140962 -0.005805669 -0.1832609 -0.19868948 -0.25368187 -0.2904554
0.066546336 -0.35909593 0.09887589 0.25991115 -0.13428937 0.15379636 -0.15712203 -0.0882843
-0.03197883 -0.22370239 0.19829547 0.095965594 0.10368002 -0.35277522 -0.17801183 -0.029311446
0.09495454 -0.028842349 0.112563066 -0.1671836 -0.018381825 -0.14500263 -0.1997624 0.17239359
0.19894701 -0.004326638 0.086728275 0.14557302 -0.094572 0.18192619 -0.26415372 -0.041993234
0.113244236 -0.026504407 -0.26042604 0.1819063 0.05979689 -0.2231773 0.1496195 -0.13596332
0.07241729 -0.2680253 -0.2041295 -0.23831844 0.010445386 0.05949053 0.21306235 -0.3075245
0.13864689 -0.10423122 0.29893178 -0.24838048 -0.15286058 -0.0477599 0.17075363 -0.13979961
-0.090571545 0.24412416 -0.12192194 -0.10506654 -0.16728094 -0.30532733 0.033835996 0.26525408
-0.11658797 0.0724113 -0.08347933 -0.22729185 0.18748212 0.17042395 0.16341107 0.06955694
0.033569653 -0.097850874 -0.36537334 -0.09331191 -0.06513771 -0.06851701 0.008278614 -0.1173193
-0.10818469 0.06365751 -0.06843874 0.019564271 0.21504821 -0.15968552 0.069817275 -0.028804082
-0.22543252 0.15967023 0.010375795 -0.22019304 0.3321223 -0.064232014 -0.12131406 0.31705523
0.14215657 0.08291556 -0.07713835 -0.084457025 -0.12902065 -0.18813011 -0.01238157 -0.15860397
-0.040953968 -0.2485248 -0.20390646 -0.019701175 0.22681138 -0.20985462 0.1432385 -0.14709094
0.20274206 -0.1221253 -0.16150685 0.08326944 0.13625692 0.08423717 -0.065921806 -0.20940477
-0.19494198 0.29339755 0.19550195 0.28547585 -0.05095965 -0.1945459 0.10735714 -0.28032836
0.108321436 -0.060063712 -0.12896271 -0.25131178 0.2527972 -0.2396731 0.22405548 -0.19488756
0.19582549 0.16300714 -0.05062394 0.06578341 -0.14761032 -0.32127216 0.11020893 -0.13925481
-0.3173492 -0.22967474 -0.19000533 0.23060709 -0.29772618 0.007735145 0.10008202 -0.20900476
-0.18478514 0.04916731 -0.21727078 0.16909754 0.17571744 0.05752734 0.114871 -0.24708264
-0.21615915 -0.1696225 -0.23391525 -0.0712471 0.21085419 -0.112861 0.23456669 0.030803826
-0.044798017 0.23895605 -0.03510112 0.009863969 0.2443297 0.1829 0.19979234 0.12467732
00000000: 52b3 163e 087f 61be da87 39be 813f 8cbe
00000010: 67ed 63be 7e0a 0f3e 5427 ba38 cf13 813d
00000020: 8a94 223e 20a5 31bd 746e 46be 2a43 813e
00000030: d088 c0bd 2d48 803c 8ed2 843e 23f9 63be
00000040: 2468 df3d ab1a 513d d59c 4ebe a88c 3abe
00000050: d6a2 47be 56eb 94be 43e9 3c3e 8cac 1d3e
00000060: ab3f 4abe 377b 233e 44ef 49be bc42 56be
00000070: 8595 443d c578 333e 4c60 eabc 0157 50be
00000080: 1b47 9cbe 7131 ddbc 7a8a 0dbe bca7 a1be
00000090: 16a7 03be 9aac 1f3c a01d 8abe 40e6 cabd
000000a0: 581e 873e aad7 303e 09e8 023e b961 123e
000000b0: a2a6 57bd 0c52 d33d 7b73 263e 8778 d5bd
000000c0: d4da e63d 5464 6a3e 1219 8abe 86f3 f5bc
000000d0: b642 12be a11f a43d 01b2 a83c 6e67 91bc
000000e0: 851c 13bb 732a 013e 0922 fabd 7f98 c5bb
000000f0: f78c c5bd a8f2 d9bd 92d8 823e 3430 3d3e
00000100: 2d36 35bd 9f1f dd3d 3fda 4f3e 9cc6 263e
00000110: 3800 e33d 573d 81be 9c69 213e 51ae a3be
00000120: 8c2a 9bbd 3221 7fbd c3b8 803e 7b3d bebb
00000130: bfa8 3bbe 4175 4bbe 97e2 81be 92b6 94be
00000140: 7249 883d 6cdb b7be 717f ca3d 1313 853e
00000150: 2783 09be cb7c 1d3e 99e4 20be 66ce b4bd
00000160: 3cfc 02bd 3d12 65be f80d 4b3e 9c89 c43d
00000170: 3156 d43d f49e b4be bc48 36be 8f1e f0bc
00000180: 8777 c23d ca46 ecbc 7787 e63d 2d32 2bbe
00000190: 7b95 96bc 927b 14be 848e 4cbe f287 303e
000001a0: c4b8 4b3e 78c6 8dbb 989e b13d 1811 153e
000001b0: f7ae c1bd dc4a 3a3e 283f 87be 1901 2cbd
000001c0: 98ec e73d c51f d9bc 9056 85be a545 3a3e
000001d0: 95ed 743d 9788 64be db35 193e f839 0bbe
000001e0: 844f 943d 9d3a 89be 5307 51be c009 74be
000001f0: 2023 2b3c 58ac 733d 042d 5a3e da73 9dbe
00000200: 73f9 0d3e 2e77 d5bd 960d 993e 7457 7ebe
00000210: 7c87 1cbe e39f 43bd 0ada 2e3e a127 0fbe
00000220: 937d b9bd affb 793e 36b2 f9bd 202d d7bd
00000230: b24b 2bbe dd53 9cbe 9d97 0a3d 62cf 873e
00000240: acc5 eebd 604c 943d 36f7 aabd 32bf 68be
00000250: 50fb 3f3e 9e83 2e3e 3b55 273e de73 8e3d
00000260: 5580 093d 0a66 c8bd 3712 bbbe 511a bfbd
00000270: eb66 85bd a552 8cbd 06a3 073c 1a45 f0bd
00000280: ef8f ddbd de5e 823d 9c29 8cbd 4045 a03c
00000290: 9935 5c3e 9a84 23be 5cfc 8e3d 8af6 ebbc
000002a0: c8d7 66be 9880 233e 3dff 293c 497a 61be
000002b0: ef0b aa3e 138c 83bd 8273 f8bd 1055 a23e
000002c0: 7e91 113e a2cf a93d b6fa 9dbd cef7 acbd
000002d0: fd1d 04be 2ea5 40be 12dc 4abc 1469 22be
000002e0: 59bf 27bd 497d 7ebe dbcc 50be 5c64 a1bc
000002f0: 3e41 683e 21e4 56be 1dad 123e 029f 16be
00000300: 9d9b 4f3e d41c fabd 0d62 25be 2b89 aa3d
00000310: ef86 0b3e 8a84 ac3d 0302 87bd 346e 56be
00000320: df9e 47be 3438 963e aa31 483e e429 923e
00000330: 11bb 50bd 0a37 47be 0fde db3d 3387 8fbe
00000340: a1d7 dd3d 5e05 76bd cd0e 04be f0ab 80be
00000350: a26e 813e dd6c 75be cd6e 653e 9b90 47be
00000360: 7a86 483e 58eb 263e 0c5b 4fbd 74b9 863d
00000370: 2927 17be c97d a4be 38b5 e13d d098 0ebe
00000380: 987b a2be db2f 6bbe c290 42be 4424 6c3e
00000390: 916f 98be 1977 fd3b cdf7 cc3d 5805 56be
000003a0: 5138 3dbe a963 493d 3b7c 5ebe e827 2d3e
000003b0: 46ef 333e caa1 6b3d 7d41 eb3d 3b03 7dbe
000003c0: d358 5dbe 85b1 2dbe 7b87 6fbe 00ea 91bd
000003d0: 29ea 573e ab23 e7bd 4032 703e 4e58 fc3c
000003e0: 207e 37bd e5b0 743e 31c6 0fbd 7c9c 213c
000003f0: 9131 7a3e 234a 3b3e 5d96 4c3e d356 ff3d

critic.0.bias f4 [256]
-0.13778216 0.25107285 -0.2789853 0.13079707 -0.10227856 0.24316856 0.11812557 0.08580356
0.07120273 0.08601518 0.2624823 -0.11596826 -0.22426538 -0.016489675 0.048061807 0.2759169
0.061547108 0.265495 -0.13655901 -0.13521594 0.12438567 0.12045422 -0.120688155 0.077096045
-0.25902253 0.05449381 0.2504511 0.06709906 0.2904959 0.19023727 -0.09502268 -0.13268335
0.2642793 0.008745982 0.13239081 0.073057435 0.045301486 0.0341424 -0.14213844 0.2379931
-0.2450611 -0.009875714 -0.10159736 0.054292914 -0.06387922 0.12539163 0.14758702 0.19670759
-0.02655862 -0.08078055 0.013827657 0.063068 -0.19210863 0.13234085 -0.22436419 0.05494413
0.133671 0.052521255 0.06517852 -0.21530908 0.09804519 -0.13714154 -0.15546158 -0.21164535
0.077863276 -0.071733125 0.23252696 0.060687065 0.04458433 -0.13870625 0.27486247 0.2348109
0.09196255 -0.056493945 -0.17182915 0.07581613 0.037862163 0.116039924 0.04045198 0.03192551
0.2167641 0.14239573 -0.21274593 -0.048670035 0.25470877 -0.051909395 -0.25281444 0.06686069
-0.0382094 0.016346058 0.2428899 0.15042202 0.02738189 -0.13747196 0.285915 -0.2609096
0.15575014 0.23746468 0.26233265 -0.0076928544 0.1758182 0.06311574 0.18713164 0.14492914
-0.0426469 -0.08056102 -0.25152996 0.15317352 0.02620559 -0.15176298 -0.2645989 0.14690298
0.05962972 -0.12150991 -0.04302779 -0.0571641 0.13114513 -0.1556477 0.18093984 -0.23747776
-0.24437445 0.08426045 -0.06724753 0.051515326 0.25883022 0.07354236 -0.1361323 0.14213341
0.14443254 0.017171515 -0.16373006 -0.2787362 0.14154473 0.2098187 -0.11242369 0.13251238
0.14945188 -0.1586104 0.17707303 0.087408766 -0.04791761 0.09785343 0.18978913 0.22040561
-0.030331781 -0.021992505 -0.23955001 0.10219115 0.23954177 -0.24399887 0.185388 0.037389193
-0.022357693 0.29612997 -0.18187903 -0.16142593 0.20868008 0.20920478 0.09965451 0.18072383
-0.24881744 -0.12219179 -0.14080037 -0.123502724 -0.21599351 -0.10709743 0.11630052 -0.23920026
-0.10091455 0.032382213 0.14973363 -0.045349143 0.06961936 -0.25330254 0.051741 0.24560556
0.08033702 -0.23722172 -0.20635888 -0.058743656 -0.062751696 -0.13383885 -0.16266379 -0.1286719
0.26472926 -0.26185143 0.21729612 0.18216541 -0.17775819 -0.10525812 -0.12575497 0.09972412
0.098357975 -0.12155078 -0.09219872 -0.21449606 0.12551673 0.08014543 -0.17649356 0.036930878
0.18148004 0.23052362 -0.16846314 -0.14186932 0.09223059 0.12797666 -0.060838133 -0.21490195
-0.03542831 0.022787465 -0.16994564 -0.06055002 -0.16343561 0.06250037 0.076332435 0.033058703
-0.23481083 0.0924127 0.06942829 0.07019597 0.23416537 0.03277217 0.23211229 -0.16249672
-0.1003787 -0.23203012 0.2112676 0.08381723 -0.22760765 -0.09207682 0.10780915 0.07491876
0.23453417 -0.03838875 0.026790053 0.2003721 -0.050711285 -0.01057509 -0.14677496 0.1126728
0.16101508 0.09398549 -0.15658715 -0.08521701 0.23856977 0.046006788 -0.13028099 -0.09252114
-0.13990629 0.048918586 -0.14493908 0.0063789943 -0.13013978 0.22462991 -0.11918638 -0.21029828
00000000: c416 0dbe 9f8c 803e 29d7 8ebe abef 053e
00000010: 6c77 d1bd 2e01 793e d2eb f13d c7b9 af3d
00000020: bdd2 913d ba28 b03d 1464 863e c480 edbd
00000030: d3a5 65be 5b15 87bc 75dc 443d fb44 8d3e
00000040: d218 7c3d f6ee 873e 20d6 0bbe 0c76 0abe
00000050: eabd fe3d b4b0 f63d 5a2b f7bd 88e4 9d3d
00000060: 9a9e 84be e734 5f3d 203b 803e 3b6b 893d
00000070: e1bb 943e 8fcd 423e 409b c2bd 25de 07be
00000080: 9e4f 873e 4f4b 0f3c 7591 073e 239f 953d
00000090: 0d8e 393d e7d8 0b3d bd8c 11be 77b4 733e
000000a0: 4cf1 7abe bfcd 21bc 4712 d0bd 3f62 5e3d
000000b0: 1cd3 82bd aa66 003e 0d21 173e b76d 493e
000000c0: 7791 d9bc 4670 a5bd 668d 623c cc29 813d
000000d0: 20b8 44be 5c84 073e babf 65be 190d 613d
000000e0: 0de1 083e 8720 573d 517c 853d fc79 5cbe
000000f0: ebcb c83d d56e 0cbe 5231 1fbe 8fb9 58be
00000100: c876 9f3d d1e8 92bd 8c1b 6e3e 0093 783d
00000110: 0f9e 363d 0309 0ebe c6ba 8c3e 4572 703e
00000120: dd56 bc3d 3266 67bd fbf3 2fbe 7d45 9b3d
00000130: 5b15 1b3d 57a6 ed3d fab0 253d 53c4 023d
00000140: 69f7 5d3e 30d0 113e 12da 59be 3b5a 47bd
00000150: 3069 823e f29e 54bd e570 81be 42ee 883d
00000160: 7681 1cbd 2be8 853c 21b8 783e 3b08 1a3e
00000170: fc4f e03c 73c5 0cbe 7363 923e f195 85be
00000180: f77c 1f3e f129 733e 7750 863e 5714 fcbb
00000190: b009 343e d342 813d 709f 3f3e 4e68 143e
000001a0: 84ae 2ebd 2dfd a4bd 89c8 80be 85d9 1c3e
000001b0: 1bad d63c c167 1bbe 8279 87be bc6d 163e
000001c0: 4b3e 743d 30da f8bd e83d 30bd e724 6abd
000001d0: e94a 063e 1c62 1fbe 4b48 393e 5f2d 73be
000001e0: 4c3d 7abe be90 ac3d 13b9 89bd bc01 533d
000001f0: 6585 843e 609d 963d 4466 0bbe 6c8b 113e
00000200: 20e6 133e 47ab 8c3c daa8 27be 83b6 8ebe
00000210: 1af1 103e b7da 563e 643e e6bd 53b1 073e
00000220: ea09 193e c46a 22be a252 353e 5e03 b33d
00000230: 4145 44bd 6167 c83d 1558 423e 02b2 613e
00000240: 5b7a f8bc a029 b4bc 994c 75be 9849 d13d
00000250: 704a 753e d7da 79be 5ad6 3d3e 6925 193d
00000260: 7b27 b7bc 599e 973e 7f3e 3abe d74c 25be
00000270: 3bb0 553e c739 563e aa17 cc3d ab0f 393e
00000280: 00ca 7ebe b03f fabd f92d 10be ffee fcbd
00000290: 672d 5dbe e655 dbbd f82e ee3d eaf0 74be
000002a0: 4aac cebd 36a3 043d c653 193e 06c0 39bd
000002b0: 9894 8e3d dfb0 81be 5fee 533d 0680 7b3e
000002c0: bc87 a43d 40ea 72be be4f 53be 309d 70bd
000002d0: f683 80bd 0d0d 09be 5691 26be 91c2 03be
000002e0: 988a 873e 6411 86be e082 5e3e 9289 3a3e
000002f0: 3e06 36be 9291 d7bd e9c5 00be 293c cc3d
00000300: e86f c93d 9eef f8bd afd2 bcbd dba4 5bbe
00000310: 7587 003e 4a23 a43d baba 34be d544 173d
00000320: e7d5 393e 620e 6c3e 9a81 2cbe 3146 11be
00000330: 64e3 bc3d 500c 033e 6831 79bd 420f 5cbe
00000340: 471d 11bd c7ac ba3c 3b06 2ebe 4c03 78bd
00000350: aa5b 27be 3200 803d 2e54 9c3d 9068 073d
00000360: 4072 70be df42 bd3d 6b30 8e3d e8c2 8f3d
00000370: 0cc9 6f3e 1c3c 063d d8ae 6d3e 8a65 26be
00000380: 5993 cdbd 4e99 6dbe 8956 583e 5ea8 ab3d
00000390: fb11 69be c692 bcbd 0bcb dc3d 026f 993d
000003a0: ba29 703e 863d 1dbd d076 db3c 582e 4d3e
000003b0: a3b6 4fbd 2443 2dbc 2d4c 16be ffc0 e63d
000003c0: 23e1 243e 777b c03d 6258 20be 4186 aebd
000003d0: a24b 743e 9d71 3c3d 6168 05be b97b bdbd
000003e0: 9843 0fbe db5e 483d e96a 14be e206 d13b
000003f0: 5d43 05be 6205 663e fd17 f4bd 6f58 57be

critic.2.weight f4 [128, 256]
0.068798654 0.033805806 -0.012135196 0.056894112 -0.05354099 -0.053248677 0.030990625 0.055215538
-0.008182291 0.008701457 -0.055577192 -0.016535895 0.06224328 0.015520954 0.050075065 -0.055710554
-0.031068563 -0.055527873 0.02108321 0.011655499 -0.024043143 -0.036956962 -0.029739657 0.037383884
-0.06644502 -0.013663908 0.054956418 0.0060276403 0.018087184 0.034249414 0.011296396 0.0002621713
-0.05473513 -0.08771597 -0.062580764 -0.019017234 -0.049901783 -0.015884632 -0.003887164 0.02585756
-0.0075366553 0.052533228 -0.07506468 -0.04168716 0.08110056 -0.04613895 -0.000851744 -0.042713694
0.027337858 -0.01331751 0.014331068 -0.05679456 0.020648899 -0.04791514 0.05663452 0.037783988
-0.012166168 0.011261316 -0.007970616 0.007857659 -0.019123346 0.05488307 0.03008774 -0.0539213
-0.036874253 0.013829571 0.021362007 -0.07783235 0.046130683 0.029542902 0.022062514 -0.026689362
0.0046990523 0.055653375 -0.066436194 0.015573541 0.015144288 0.030635973 -0.019695405 -0.034849107
-0.052554753 -0.052972578 -0.021511795 -0.014170338 -0.020713236 -0.061628327 -6.57168e-05 -0.015404455
-0.031382736 -0.018821957 -0.023106325 0.028221495 -0.043225706 -0.037112013 0.02313204 0.043083593
0.04996383 0.014073662 -0.016287277 0.038192958 -0.0055170236 -0.04029531 0.030675601 -0.028804773
0.03162747 0.042893715 -0.015717251 0.0064410646 0.032349348 0.02733979 0.025954416 -0.009345159
0.029447656 -0.0007868581 -0.024243925 0.046350773 -0.04758919 -0.02061714 -0.014419024 0.0202839
0.019399026 0.021098569 0.116138674 -0.06439572 -0.0031600785 -0.005444861 -0.029307213 0.029014459
-0.05265164 0.008892075 0.06794065 -0.028597219 -0.07456507 -0.055389453 -0.013993429 0.03698899
-0.061544232 -0.030386828 -0.024837302 -0.015027606 0.072589144 -0.06381611 -0.029575037 0.037199903
-0.043778464 -0.025727691 0.04402014 0.024460433 -0.015716001 0.0055528325 0.04614004 0.0069012223
-0.060441945 -0.0832267 0.05901429 0.049021248 -0.06650578 -0.07367712 0.0014211865 0.00225694
-0.01793263 0.029428717 -0.011450581 -0.046169806 -0.015393634 0.020465234 0.050339542 0.03066875
0.0017546433 0.045623906 0.03463025 -0.035921488 0.06536202 -0.029340059 -0.027089706 -0.024211237
-0.010300604 0.0582364 0.034779806 0.006331166 0.0036188737 -0.10751531 0.061234355 -0.006530206
-0.0040382855 -0.044361014 -0.010669873 0.007865711 -0.009316272 -0.04111072 0.051687744 -0.06136967
-0.042905856 -0.019542187 -0.026169226 -0.017534025 -0.03211732 -0.0380121 -0.020251561 -0.020545036
-0.05631646 -0.054476425 0.05175594 -0.010008098 0.031716324 -0.065037385 0.023150267 0.018195752
0.0705249 -0.026437454 0.035438277 0.033426948 -0.024834136 -0.012743628 -0.002982021 -0.013864917
-0.0025212686 0.031171622 -0.020355951 -0.0043663974 0.0694291 -0.040087048 0.0152023025 0.008034474
-0.019838983 0.017219456 0.03375574 -0.023009822 -0.03396741 -0.04140268 0.04119516 -0.058464296
0.046282347 0.06812254 0.044353366 -0.0209329 -0.03248832 0.03176253 0.02143339 0.020939464
-0.009382963 -0.07037153 -0.024945976 -0.04079833 0.06315756 -0.0057175644 0.04761208 -0.0068653296
-0.014284069 0.05904815 0.01622217 -0.021286855 0.016563045 -0.04881305 -0.0054520066 -0.02768211
00000000: 4fe6 8c3d f577 0a3d b3d2 46bc cd09 693d
00000010: cc4d 5bbd 491b 5abd 0de0 fd3c b029 623d
00000020: 040f 06bc 8e90 0e3c e9a4 63bd 4976 87bc
00000030: cff2 7e3d 994b 7e3c 831b 4d3d c030 64bd
00000040: 8083 febc 3271 63bd b2b6 ac3c b5f6 3e3c
00000050: 20f6 c4bc 2f60 17bd 95a0 f3bc d81f 193d
00000060: 5414 88bd 95de 5fbc fb19 613d 8383 c53b
00000070: 932b 943c 1d49 0c3d 8514 393c 0974 8939
00000080: f231 60bd 6ea4 b3bd 582a 80bd 08ca 9bbc
00000090: d065 4cbd 7d20 82bc cabf 7ebb 3cd3 d33c
000000a0: 0cf6 f6bb 152d 573d 83bb 99bd 28c0 2abd
000000b0: 0d18 a63d 32fc 3cbd 9247 5fba 8ef4 2ebd
000000c0: a5f3 df3c af31 5abc dbcc 6a3c 6aa1 68bd
000000d0: e127 a93c aa42 44bd 99f9 673d 62c3 1a3d
000000e0: 9b54 47bc 6281 383c 3097 02bc 69bd 003c
000000f0: 90a8 9cbc 12cd 603d 907a f63c 95dc 5cbd
00000100: 7509 17bd 6d95 623c 60ff ae3c 9166 9fbd
00000110: 87f3 3c3d f503 f23c 72bc b43c a6a3 dabc
00000120: 82fa 993b cbf4 633d b30f 88bd 2a28 7f3c
00000130: bf1f 783c 4bf8 fa3c 4258 a1bc f0bd 0ebd
00000140: a743 57bd c6f9 58bd 8139 b0bc b52a 68bc
00000150: ceae a9bc fc6d 7cbd 70d1 89b8 f862 7cbc
00000160: 2f8b 00bd 8130 9abc 7a49 bdbc c430 e73c
00000170: 700d 31bd c402 18bd 677f bd3c 6c78 303d
00000180: dfa6 4c3d 3895 663c e56c 85bc 3870 1c3d
00000190: 26c8 b4bb b20c 25bd 664b fb3c fdf7 ebbc
000001a0: ce8b 013d 52b1 2f3d 77c1 80bc 910f d33b
000001b0: c080 043d b2f7 df3c 5b9e d43c 701c 19bc
000001c0: 363c f13c 2745 4eba 329b c6bc 4fda 3d3d
000001d0: e2ec 42bd 47e5 a8bc c53d 6cbc 6c2a a63c
000001e0: b5ea 9e3c e8d6 ac3c 1dda ed3d e7e1 83bd
000001f0: 5219 4fbb ce6a b2bb ae15 f0bc bbaf ed3c
00000200: 3fa9 57bd 11b0 113c 7824 8b3d b744 eabc
00000210: 92b5 98bd 0de0 62bd b244 65bc c481 173d
00000220: ce15 7cbd cced f8bc 9977 cbbc 5936 76bc
00000230: 9ea9 943d 05b2 82bd 5947 f2bc ed5e 183d
00000240: 0c51 33bd e1c2 d2bc 764e 343d 3f61 c83c
00000250: d8be 80bc 89f4 b53b 57fd 3c3d a623 e23b
00000260: f991 77bd c372 aabd f8b8 713d 81ca 483d
00000270: 2f34 88bd 08e4 96bd 1b47 ba3a 2be9 133b
00000280: 73e7 92bc 7e14 f13c 389b 3bbc 8d1c 3dbd
00000290: 9535 7cbc b5a6 a73c d630 4e3d 083d fb3c
000002a0: 0ffc e53a 22e0 3a3d 73d8 0d3d 6922 13bd
000002b0: 86dc 853d 905a f0bc 3beb ddbc a556 c6bc
000002c0: ddc3 28bc 4b89 6e3d 4575 0e3d ab75 cf3b
000002d0: a02a 6d3b fd30 dcbd e0d0 7a3d 57fb d5bb
000002e0: 9853 84bb e5b3 35bd b1d0 2ebc 2fdf 003c
000002f0: 47a3 18bc b763 28bd 87b6 533d c35e 7bbd
00000300: 0dbe 2fbd f016 a0bc d860 d6bc 84a3 8fbc
00000310: 738d 03bd 93b2 1bbd 9ae6 a5bc 104e a8bc
00000320: 17ac 66bd ac22 5fbd 09fe 533d 01f9 23bc
00000330: fae8 013d 5232 85bd a1a5 bd3c 420f 953c
00000340: 5c6f 903d 5c93 d8bc ba27 113d b2ea 083d
00000350: f570 cbbc a6ca 50bc 036e 43bb ad29 63bc
00000360: de3b 25bb a15b ff3c 86c1 a6bc ff13 8fbb
00000370: d830 8e3d 5132 24bd 1413 793c 07a3 033c
00000380: 5d85 a2bc d10f 8d3c 7543 0a3d 187f bcbc
00000390: 6921 0bbd db95 29bd 42bc 283d 4278 6fbd
000003a0: 8f92 3d3d d583 8b3d e0ab 353d 797b abbc
000003b0: 7912 05bd 6d19 023d 1495 af3c 3d89 ab3c
000003c0: 00bb 19bc f31e 90bd 815b ccbc 261c 27bd
000003d0: c058 813d 685a bbbb e204 433d 8ff6 e0bb
000003e0: ba07 6abc 79dc 713d 5be4 843c c561 aebc
000003f0: 39af 873c 31f0 47bd bfa6 b2bb 98c5 e2bc
